results/timeout60FixHalfWallFix/3DBall/3DBall-15214.pt (torch, 495532 bytes, 44 tensors)

network_body.observation_encoder.processors.0.normalizer.running_mean f4 [22]
000000 6d d4 c1 3b 8e 24 4a 40 b4 23 aa 3b 64 46 4c 40
       0.0059152157 3.1584811 0.0051922444 3.1917963
000010 21 0f d3 3b 6b 32 4d 40 d1 d3 dd 3b 00 27 4e 40
       0.0064410125 3.2062023 0.0067696352 3.2211304
000020 6b d4 c1 3b 97 20 4f 40 b4 23 aa 3b ff a2 4f 40
       0.005915215 3.2363641 0.0051922444 3.2443235
000030 a2 d5 89 3b a1 60 4f 40 a4 4b 90 3b 35 74 4e 40
       0.004206375 3.2402728 0.0044035483 3.2258427
000040 0c 4b ac 3b 51 f3 4c 40 6a 5e bb 3b 14 f0 4a 40
       0.0052579697 3.2023509 0.005718042 3.1709032
000050 10 37 b9 3b 98 1f 49 40
       0.005652316 3.1425533

network_body.observation_encoder.processors.0.normalizer.running_variance f4 [22]
000000 6d ef b4 42 63 e1 db 48 fa 2d 9f 42 62 92 dc 48
       90.46763 450315.1 79.5898 451731.06
000010 d2 bc c4 42 77 9d dc 48 01 9b ce 42 05 d3 dc 48
       98.36879 451819.72 103.30274 452248.16
000020 6b ef b4 42 93 57 dd 48 fb 2d 9f 42 7a ba dd 48
       90.46761 453308.6 79.589806 454099.8
000030 2c 76 81 42 6c d2 dd 48 f0 68 87 42 f8 a8 dd 48
       64.730804 454291.38 67.704956 453959.75
000040 a3 28 a1 42 56 54 dd 48 4a 01 af 42 81 f4 dc 48
       80.57937 453282.7 87.50252 452516.03
000050 1f 07 ad 42 22 df dc 48
       86.51391 452345.06

network_body.processors.0.normalizer.running_mean f4 [22]
000000 6d d4 c1 3b 8e 24 4a 40 b4 23 aa 3b 64 46 4c 40
       0.0059152157 3.1584811 0.0051922444 3.1917963
000010 21 0f d3 3b 6b 32 4d 40 d1 d3 dd 3b 00 27 4e 40
       0.0064410125 3.2062023 0.0067696352 3.2211304
000020 6b d4 c1 3b 97 20 4f 40 b4 23 aa 3b ff a2 4f 40
       0.005915215 3.2363641 0.0051922444 3.2443235
000030 a2 d5 89 3b a1 60 4f 40 a4 4b 90 3b 35 74 4e 40
       0.004206375 3.2402728 0.0044035483 3.2258427
000040 0c 4b ac 3b 51 f3 4c 40 6a 5e bb 3b 14 f0 4a 40
       0.0052579697 3.2023509 0.005718042 3.1709032
000050 10 37 b9 3b 98 1f 49 40
       0.005652316 3.1425533

network_body.processors.0.normalizer.running_variance f4 [22]
000000 6d ef b4 42 63 e1 db 48 fa 2d 9f 42 62 92 dc 48
       90.46763 450315.1 79.5898 451731.06
000010 d2 bc c4 42 77 9d dc 48 01 9b ce 42 05 d3 dc 48
       98.36879 451819.72 103.30274 452248.16
000020 6b ef b4 42 93 57 dd 48 fb 2d 9f 42 7a ba dd 48
       90.46761 453308.6 79.589806 454099.8
000030 2c 76 81 42 6c d2 dd 48 f0 68 87 42 f8 a8 dd 48
       64.730804 454291.38 67.704956 453959.75
000040 a3 28 a1 42 56 54 dd 48 4a 01 af 42 81 f4 dc 48
       80.57937 453282.7 87.50252 452516.03
000050 1f 07 ad 42 22 df dc 48
       86.51391 452345.06

network_body._body_endoder.seq_layers.0.weight f4 [128, 22]
000000 92 69 cb bc bc ed 46 3e 0e 73 18 be af 33 38 3e
       -0.024830613 0.19426626 -0.1488764 0.17988466
000010 9c e4 6e 3e a1 d2 cd bd c7 c7 cc 3d ab d3 f1 bd
       0.23329395 -0.1004994 0.09999042 -0.118079506
000020 9f eb 78 3e bd 72 1e 3e 54 c0 01 3d b9 fe d2 bc
       0.24308632 0.15473457 0.03167756 -0.025756227
000030 a1 ce 03 3e 4f 65 a6 3e 84 dc 2c 3e 3b 32 ca be
       0.12871791 0.32499167 0.16880995 -0.39491448
000040 ed b5 3a bd 26 2f 93 3d 75 80 66 3d 13 0c a3 be
       -0.045583654 0.07186727 0.05627485 -0.3184515
000050 37 7a 9d 3d 63 a0 f1 3d d4 59 0a 3e 57 70 7c 3e
       0.07689326 0.117981695 0.13510829 0.24652229
000060 c4 37 35 be 7a 9e 0d 3b da 6b 77 be 7a 80 3d 3e
       -0.17697054 0.0021609352 -0.24162236 0.18506041
000070 12 a7 c9 be 5f 4a 00 3e 3b dd b9 bd 15 f5 1b 3e
       -0.39385277 0.1252837 -0.090753995 0.1523021
000080 92 79 9d be 53 71 a6 3e ad 34 19 3e f8 98 5c 3e
       -0.30756813 0.32508335 0.149615 0.21542728
000090 41 f8 22 be 65 da 29 3e 4a 76 4c 3d ea f7 45 bc
       -0.15915014 0.16587217 0.049917497 -0.012083033
0000a0 dd f7 5c 3c 9d 2b dc be 53 a8 5b 3e cc f9 b7 bb
       0.01348683 -0.43002024 0.2145093 -0.005614495
0000b0 b6 64 91 be 8d 65 05 be 17 7d 48 be 65 4d 0e 3e
       -0.2839715 -0.1302702 -0.19578968 0.13896711
0000c0 ad 32 6f bd 6c 05 fa bd 43 ce b9 3d 60 40 74 be
       -0.058397938 -0.122080654 0.090725444 -0.23852682
0000d0 b2 80 89 bd e6 d7 59 3d b4 a2 10 3d 36 8d 54 3e
       -0.06714 0.053184412 0.035311416 0.20756993
0000e0 32 f7 0d 3f 25 ca 02 3c 07 f8 98 be ed af a8 3e
       0.55455315 0.007982765 -0.2987673 0.3294672
0000f0 d7 91 6b 3c a1 62 eb 3d a6 c0 03 bf fd 46 ea 3d
       0.014378033 0.11493421 -0.51465833 0.11439321
000100 02 8c 6c 3e 74 61 44 be 44 38 46 3d e6 97 5b 3e
       0.23100284 -0.191778 0.048393503 0.21444663
000110 fc 20 23 be 3e a7 b3 bb 11 d1 1b 3e 69 e4 5e be
       -0.15930551 -0.0054825833 0.15216471 -0.21766819
000120 19 d2 65 be 09 51 65 3d ff 83 c2 bc 0a 45 b5 3e
       -0.22443427 0.055985484 -0.023744581 0.35404235
000130 70 c8 e3 bb d0 82 8d 3e 79 63 22 be 2c 83 7c 3d
       -0.0069513842 0.27638865 -0.15858258 0.061648533
000140 14 3a 3a bd cb 7e 16 3e 97 7c 88 3d d0 3f 07 bd
       -0.045465544 0.14696805 0.066643886 -0.03301984
000150 b0 06 a3 be 52 a0 a5 3d 08 a0 95 be f7 f9 10 bf
       -0.3184104 0.08087219 -0.29223657 -0.56631416
000160 0c 44 c4 bc ba bb 93 be fe cd f3 3d ef 14 a2 3e
       -0.023958229 -0.28854162 0.11904524 0.31656596
000170 6a 8b 84 be 8f 88 89 3e 0c cb 3f 3d 63 d1 1b 3e
       -0.25887614 0.26861998 0.0468245 0.15216593
000180 c5 7e 9d 3d 3c 05 0e 3d e7 e3 60 bc 56 69 01 3e
       0.07690195 0.03467296 -0.013726211 0.12637839
000190 38 17 46 be 4d d8 29 3c 00 47 69 3c 3a cc 77 bb
       -0.19344795 0.0103665115 0.014238119 -0.0037810938
0001a0 f7 63 de bd 09 c4 f8 be f1 c6 cc bd 66 c0 77 be
       -0.108589105 -0.48587063 -0.099988826 -0.24194488
0001b0 ec 94 4f 3e 80 9b 97 3e 6e 88 39 3d 88 f1 e6 bc
       0.20271653 0.29610825 0.045296125 -0.028191343
0001c0 40 71 e3 3c 6c bd 10 be 8f 46 b8 bd aa ae 56 bd
       0.027763963 -0.14134759 -0.08997833 -0.052412666
0001d0 69 2c 74 be 67 36 64 be fb ca 1e be 66 9d 93 be
       -0.23845066 -0.22286378 -0.15507118 -0.28831023
0001e0 2f da f8 be 30 c9 bf 3c c9 d2 11 be db 19 50 3e
       -0.4860396 0.023411363 -0.14240564 0.20322363
0001f0 44 e3 18 3e a8 e6 d9 3d f2 33 2c 3d 0f df 9b 3e
       0.14930445 0.10639697 0.042041726 0.30443618
000200 52 62 d7 3d 7f bf 19 bf f3 d3 6f bd 57 38 34 bd
       0.105168 -0.60057825 -0.05855174 -0.043999042
000210 c5 da f2 3d 61 0c b9 3e 22 73 e6 bd 3b 4f 38 3c
       0.11858133 0.36142257 -0.112524286 0.011249359
000220 f2 f5 58 3d c4 f6 88 3e 09 65 8e 3e d6 0f b6 3e
       0.052968927 0.26750767 0.2781146 0.35558957
000230 d0 47 36 be 39 5b f8 3c 92 b3 7b 3d c2 cc 01 bf
       -0.17800832 0.030316936 0.06145055 -0.5070306
000240 52 63 dd 3d 8e 4a 96 3d a1 c9 63 3e b7 dd 77 bd
       0.108099595 0.07338439 0.22244884 -0.060514178
000250 3f 1e 57 bd eb 8a c5 be 29 fe cc be e4 8a 6f bd
       -0.05251908 -0.38582548 -0.4003766 -0.058482066
000260 26 91 be be 34 87 a3 be cf 52 e9 bd 01 f8 e9 bd
       -0.37220114 -0.3193909 -0.113927476 -0.11424256
000270 e6 84 b7 3e 38 8b ca 3e cd 79 40 be 86 c2 3b 3e
       0.3584358 0.3955934 -0.18796463 0.18335924
000280 f0 83 65 3c 26 49 f9 3e 1b f6 82 3e 7a 7b 87 3e
       0.014008507 0.4868862 0.2557839 0.26461393
000290 ae 5a 43 be 00 05 af 3e cb a8 a1 bc 93 1e a9 3e
       -0.1907756 0.34183502 -0.019733807 0.3303114
0002a0 93 e3 73 3e 0b 00 c4 be 8a 76 21 3e de 20 86 bd
       0.23817281 -0.38281283 0.15767875 -0.06549238
0002b0 75 70 39 be a0 56 96 3e 2e a7 89 3e d0 70 03 3f
       -0.18109305 0.29362965 0.2688536 0.51344013
0002c0 9c 54 17 3f 40 4b f5 3d 2f 76 2d bd 19 7a fb bc
       0.5911348 0.119772434 -0.042349037 -0.03069787
0002d0 f4 71 0f be cb 65 34 3d ad ed 05 be 3e df 79 be
       -0.14008313 0.04404239 -0.13078947 -0.24401566
0002e0 92 ba 2d be 79 89 4d 3e 5f 68 2f 3e b3 a2 52 be
       -0.16965702 0.20071973 0.17129658 -0.20569877
0002f0 53 a2 79 be 5d 26 dd 3d 9d ec 2c 3d 2c 25 f8 3e
       -0.24378328 0.10798333 0.04221784 0.4846586
000300 9e 87 35 bd 70 19 7a 3e 51 ce 91 3e 95 0d fa 3d
       -0.044318788 0.24423766 0.2847772 0.12209622
000310 26 4e 43 be 1d bd c0 3d c5 84 6f bd 84 b4 19 be
       -0.1907278 0.094110705 -0.05847623 -0.15010267
000320 89 28 93 3d 4a 07 76 be 8b fd fd 3c ad eb 85 be
       0.07185466 -0.24026218 0.031004688 -0.2615637
000330 bb 23 ee 3d c1 9d 56 be 6b 37 49 bd f6 48 0d be
       0.11627909 -0.20958616 -0.049125116 -0.13797364
000340 e7 80 16 bf 2c a9 bd be 87 0f a2 3d ee a6 f2 3d
       -0.5879044 -0.3704313 0.07913118 0.118482456
000350 e1 10 ef 3b 6d bc db 3d 4d 18 55 3e d7 9c 7b 3e
       0.0072957133 0.10729299 0.20810051 0.24571548
000360 29 fb 1a 3e ea cc 83 3e 07 cf 0e 3f 80 de 67 be
       0.15134872 0.25742275 0.5578465 -0.22643471
000370 64 94 17 be ec cf 3f 3b 1c e6 c4 bd 1f 86 98 be
       -0.148027 0.0029268218 -0.096142024 -0.29789826
000380 1a 55 3b 3e 1a 41 a0 bd dc 12 53 bd b3 8b 65 3e
       0.18294182 -0.07824917 -0.051531658 0.22416572
000390 b0 e2 a4 bc 50 cf d4 bd 8f b1 8a be 3c 26 e7 be
       -0.020127624 -0.10391104 -0.2708859 -0.45146358
0003a0 0d 8d 30 3e 9b cb 6e be 3b 1b 80 3e 98 57 86 be
       0.17241307 -0.23319857 0.25020775 -0.26238704
0003b0 fa f0 a5 3e 9d a7 08 3e e7 ed 77 be 46 1f d7 3d
       0.32410413 0.1334519 -0.24211846 0.10504012
0003c0 d1 70 35 be 42 e3 1f be 87 31 15 be 41 7c c2 3e
       -0.17718817 -0.15614036 -0.14569674 0.37985423
0003d0 f9 23 d3 bd 50 2b 17 be dc 28 ad 3e f6 be 73 be
       -0.103095956 -0.14762616 0.33820236 -0.23803315
0003e0 73 6b cc bd c6 91 ed bd a4 d4 2d 3e 61 7f cf be
       -0.09981432 -0.1160007 0.16975647 -0.4052687
0003f0 47 ae cf bc c7 80 77 be f8 ee 8b be 1f bd 16 3e
       -0.025351657 -0.24170218 -0.27330756 0.14720581

network_body._body_endoder.seq_layers.0.bias f4 [128]
000000 76 d5 be 3b df 06 5f bc d3 77 86 3b 56 a3 79 3b
       0.0058237864 -0.013612478 0.0041036396 0.003809174
000010 aa 03 06 3a b3 f1 63 3c 33 5a 8a 3c 1b 3b ef 3a
       0.00051122403 0.013912606 0.016888713 0.0018251868
000020 58 21 c8 3b 32 f5 1b ba d2 53 cf bb 0c e4 55 bc
       0.0061074905 -0.0005949318 -0.006327131 -0.013054859
000030 e8 5d 6f 3a 04 a5 00 3c e2 e1 39 bc 77 22 fe 3b
       0.00091311196 0.007851843 -0.011345359 0.0077555734
000040 52 2d 48 bc 42 52 ba bb 2c dc bf bb 90 e1 00 3b
       -0.012217836 -0.0056860754 -0.005855104 0.0019665696
000050 9e c2 3f bc fd 31 8d bb 1d 5f 3f bb c9 a1 0e bc
       -0.011704115 -0.0043089376 -0.002920098 -0.008705565
000060 c2 de 11 3c 57 ee e8 3b 51 42 de ba ea c1 82 3c
       0.008903207 0.0071084904 -0.001695702 0.015961606
000070 e4 a7 53 3c dd 94 8d 39 c9 0d e1 ba a1 fd 50 bb
       0.012918446 0.00027004528 -0.0017170246 -0.0031889456
000080 54 06 51 3c 71 ca 3d 3c e1 f9 2a bb 4d 5f 03 3c
       0.012757856 0.01158391 -0.002608888 0.008018327
000090 f0 57 32 bb 06 81 47 3b b5 65 fc 3b e7 0f 10 3c
       -0.002721306 0.0030441894 0.007702554 0.008792854
0000a0 ea 37 7b bc d8 32 80 bc ee d4 5e bc c7 42 94 3b
       -0.015333155 -0.015649244 -0.013600571 0.004524562
0000b0 21 09 39 bc 2e 8b 20 bb 10 d1 21 3c 86 e1 f5 3b
       -0.01129368 -0.002449702 0.009876505 0.007503691
0000c0 c4 df 7b 3c d6 d9 1c 3c 4c 93 4a 3c 61 00 ee bb
       0.015373174 0.0095734205 0.01236422 -0.0072632288
0000d0 34 25 78 bc 4f 59 2d 3b 31 35 18 bb 12 d5 25 bc
       -0.015145589 0.0026450937 -0.0023225064 -0.010121601
0000e0 a1 a3 87 b8 7d f5 04 3c ed c0 fe bb e7 bf 77 3c
       -6.46778e-05 0.00811517 -0.0077744634 0.015121437
0000f0 86 01 da bb b9 0d 6a 3c 00 b5 d6 3a d5 38 52 bc
       -0.0066530136 0.014285498 0.0016380847 -0.012830933
000100 cb c3 d5 3b 76 81 35 3c b6 20 6b bc 29 ce 4a bc
       0.0065235845 0.011078229 -0.014351061 -0.012378254
000110 3c f8 96 bb 9e 87 9a bc ee 2b 14 3c b2 2a f8 bb
       -0.0046072286 -0.018863495 0.009043677 -0.007573449
000120 b3 eb 2f 3c 5e dc b2 bb cb 4a 92 3b b1 ec c9 3b
       0.010737347 -0.0054583987 0.0044644824 0.006162249
000130 c3 54 1d 3c 0f 67 64 bc 77 46 3d bb 3b 18 2d bc
       0.009602728 -0.013940587 -0.0028881112 -0.010564859
000140 e9 8c a7 bb 87 f6 30 bb c0 62 2e 3c e2 2b 1d 3c
       -0.0051132333 -0.002700241 0.010643661 0.009592982
000150 57 e7 1b bc c5 2a 1b bc 75 1f 93 3b 37 4f 37 3c
       -0.009515605 -0.009470646 0.004489834 0.01118832
000160 a1 f6 47 bc ba 09 3e 3c 41 29 08 bb 50 17 99 bb
       -0.012204797 0.011598999 -0.0020776542 -0.0046719685
000170 c9 57 38 bb 57 ab ef bb 88 03 2c bc dc 26 3b bc
       -0.0028128496 -0.0073141265 -0.010498889 -0.011422839
000180 92 c1 20 bc 11 c1 5b 3c c4 94 05 3c ea 95 68 ba
       -0.009811776 0.01341273 0.008153144 -0.00088724366
000190 55 6f 76 3c 08 95 52 bc 9a 3a eb bb 1a 4a 55 bc
       0.015041192 -0.012852915 -0.0071786167 -0.0130181555
0001a0 6a 92 89 bc 1b 5a 55 3c 0c 47 45 bc d2 48 70 3b
       -0.016793448 0.013021971 -0.012040865 0.0036664498
0001b0 bc 05 e9 3b 38 5d 28 3b 46 87 75 bb 39 fa 67 3c
       0.0071112793 0.0025690328 -0.0037464662 0.014158779
0001c0 04 ba 41 3c 29 69 a3 3b e7 a1 1d 3c 6a db 33 3c
       0.011824135 0.0049869013 0.00962112 0.010977605
0001d0 cf 6d 0d bc 86 30 67 3b cd 13 ca bb 4c 68 78 3c
       -0.008632137 0.0035276725 -0.006166911 0.015161585
0001e0 bb 1b f9 bb 07 fe 46 3b 2b fd 08 bb 2e 3c 7c ba
       -0.0076021827 0.0030363814 -0.0020902853 -0.00096220046
0001f0 9b 55 93 bb 2d d1 44 bc 74 37 86 3c 87 9f 09 bc
       -0.004496289 -0.012012762 0.016383864 -0.008399851

network_body._body_endoder.seq_layers.2.weight f4 [128, 128]
000000 c2 e3 90 bd ef 2a 0e 3d 6d 90 8e bd a2 76 7f be
       -0.07074691 0.034708913 -0.06961141 -0.24947599
000010 d1 6f 28 3d db 85 b4 3b ec a6 26 bc b1 5d 4b 3d
       0.04112226 0.005509121 -0.010171633 0.049649898
000020 bd 05 0d bd 0e df 4d 3d 5c f4 d9 3c a8 50 70 3d
       -0.0344293 0.05026155 0.026605777 0.05867067
000030 9f 2a be bc 0b 80 15 3e 67 20 a3 bd e4 dc f7 bc
       -0.023213683 0.14599626 -0.07965165 -0.030256696
000040 b2 bc 9f 3d 3f 1a 86 bd a1 9f 06 3e b6 21 6c 3c
       0.07799663 -0.06547975 0.13146831 0.014412334
000050 4f 09 05 3e ef 6d 89 3d 56 b2 8f 3d 91 8e 15 bd
       0.12991832 0.06710421 0.07016437 -0.036512915
000060 ff 24 9a bd 3a 36 a5 bc 6d 05 6b bd 97 91 7d bd
       -0.07526588 -0.020167459 -0.05737822 -0.061906423
000070 a4 08 9d 3d eb 2e 86 3d 35 ea b1 bb c9 61 b3 bc
       0.07667664 0.06551918 -0.005429531 -0.021897214
000080 b0 8c ca 3c 4d 67 5d be a0 ba 97 bd 49 c5 90 3b
       0.024725288 -0.21621437 -0.07408643 0.0044180495
000090 3f db e1 bd a3 c0 99 3c a4 43 95 39 8b 96 be bd
       -0.11028146 0.018768614 0.0002846989 -0.093060575
0000a0 fd 4d 05 3d a8 ed 41 bc e5 33 2e be 61 ec e9 3d
       0.03254508 -0.011836447 -0.17011984 0.11422039
0000b0 39 01 6c be 7e a6 d6 3c b4 c3 40 bd 5f 2b c5 bc
       -0.23047341 0.026202437 -0.047061637 -0.024068533
0000c0 fa af 05 be 4d 34 3c 3d f5 f8 b1 bc f3 8d ea 3d
       -0.13055411 0.045948315 -0.021725157 0.11452856
0000d0 8f fd 38 3d 81 20 78 bd 6f 75 8c 3d e5 f9 7d bc
       0.045163687 -0.060577873 0.06858336 -0.015501474
0000e0 ff e9 2c 3d df ae e6 3c 5f 69 3b 3d 7e b4 5a 3d
       0.042215344 0.028159557 0.045754787 0.053394787
0000f0 a2 93 b4 bd c4 94 19 bd 97 3f 13 3d b6 2e 54 3d
       -0.08817221 -0.03749539 0.035949316 0.05180236
000100 ef 99 34 bd 1d b6 e2 bb 02 80 b8 bc f5 91 5c 3d
       -0.044092115 -0.0069186823 -0.022521976 0.053850133
000110 16 3c fa 3d 14 90 5f 3d 3f 79 ac bd 69 2a 31 bd
       0.12218492 0.054580763 -0.08421563 -0.043253336
000120 94 b6 d9 bd e2 93 9f bb 1a 71 7f 3d 6a 20 8a 3d
       -0.10630527 -0.004869924 0.06236372 0.06744464
000130 ff 44 4b bb 86 b8 9c bc 75 b1 0b 3e c5 c6 e8 bd
       -0.0031016467 -0.019130956 0.13641913 -0.11366037
000140 2b 76 01 3d b1 b5 e4 bd 73 63 88 bd 7b 4a 0d 3e
       0.031606834 -0.111674674 -0.066595934 0.13797943
000150 d6 01 e5 3d f6 38 e6 ba db 12 fb bd 05 b4 4c 3b
       0.11181991 -0.0017564583 -0.12259456 0.003123523
000160 4a fe 2c 3e e6 28 1d 3b 2d 40 86 3d 1e 46 c6 3d
       0.16893879 0.0023980676 0.06555209 0.096813425
000170 fa d2 0e bd 59 88 53 3d c4 88 9f 3d 01 6a 4c 3e
       -0.03486917 0.051643703 0.07789758 0.19962312
000180 94 6d 3d 3d 2c 6d ae ba 4a 40 75 3b 4d 7d 4d 3d
       0.04624708 -0.0013307682 0.0037422352 0.050168324
000190 fc 7c b5 bd 30 74 d4 bb 58 74 0c be ce cc 6e bd
       -0.088617295 -0.006483577 -0.13716257 -0.058300786
0001a0 be 29 14 3d e7 28 41 bd d5 02 fb 3d b8 9e 05 3e
       0.03617262 -0.04715815 0.122563995 0.13048828
0001b0 0f 4d 82 bd b8 b6 ca 3d ea 94 73 3c e4 67 44 3d
       -0.06362354 0.09898132 0.014867047 0.04795064
0001c0 30 04 26 be f9 0f 7f 3d bd 09 e3 bc 4a d3 cf bb
       -0.16212535 0.062271092 -0.027714605 -0.0063423263
0001d0 34 59 ce 3d 26 00 c1 3d a0 5d 5f bd 1c 88 17 bd
       0.10075608 0.094238564 -0.054532647 -0.03699504
0001e0 7d 32 22 bd 06 13 93 3c 4b 0a 38 be 34 2a 38 bd
       -0.03959893 0.017953407 -0.17972676 -0.044962123
0001f0 7f e0 2b be 95 c4 a2 bd 50 38 15 3d 3b bb 95 3d
       -0.16784857 -0.07947651 0.036430657 0.07311102
000200 ec 83 14 be eb 7f db 3c e7 c0 cb bd 7f 67 69 3d
       -0.14503449 0.026794394 -0.099489026 0.056983467
000210 e4 b9 83 3c bb 49 7c bd d5 51 22 3c 4e 0d 02 3d
       0.01607985 -0.061593752 0.009907206 0.03175097
000220 84 be 6e 3d e4 43 0e 3d 20 80 0b 3c 82 71 9e 3c
       0.05828716 0.034732714 0.008514434 0.019341234
000230 04 8a c3 bd b7 dc e2 bc 60 ab ee 3d 6a 37 12 3e
       -0.09547809 -0.027693136 0.11653781 0.14278951
000240 2b bd 8f bc 4a c7 b6 3d 9d b6 15 be 48 4c 1c 3e
       -0.017546257 0.0892473 -0.14620443 0.15263474
000250 24 d8 ca 3d 60 38 40 ba f0 a9 1f 3d af ec 90 bd
       0.09904507 -0.0007332619 0.038980424 -0.07076394
000260 6d 3e 60 3d 53 2e eb bd e6 b2 8f bc 14 29 21 3d
       0.054747034 -0.11483445 -0.01754136 0.039345816
000270 7f c1 b4 3c 03 ac 40 bb e8 03 7d bd 1c e8 95 3c
       0.022064922 -0.0029399402 -0.061771303 0.018299155
000280 21 cb 1c 3e 08 e4 5f 3d 91 45 db bd 25 b7 ad 3c
       0.15311863 0.054660827 -0.10706628 0.021205494
000290 9d 1a 43 3d fc b7 be 3c 8f f8 19 bb 9e 51 2e bd
       0.047632802 0.02328109 -0.00234941 -0.042558305
0002a0 16 ca 3b be d7 86 9f 3c e7 bd 9c bd 16 e2 25 bd
       -0.18338808 0.019473476 -0.076534085 -0.040498815
0002b0 8a 8a ed bd 80 dd 4d 3d 1a 48 0e be a6 2f a4 bd
       -0.1159869 0.050260067 -0.13894692 -0.08016901
0002c0 c0 c1 85 bd 41 21 8b bd f7 59 66 3c 0b f7 bf bc
       -0.065310955 -0.06793452 0.014059535 -0.023433229
0002d0 78 4b e3 bc 18 23 2c bd af bd c1 bc 59 0b 81 3d
       -0.027745947 -0.042025656 -0.023650018 0.063009925
0002e0 22 b4 76 3d 45 98 00 3e 62 e1 cc 3d a9 09 82 bc
       0.06023038 0.12558086 0.10003926 -0.015873747
0002f0 34 ee ed bd 7b 43 80 3c 39 91 a6 3c 89 a8 a6 3c
       -0.11617699 0.015657177 0.02033292 0.020344036
000300 92 cf ca bd 19 77 fc bc ff aa 69 bc 87 52 d2 3c
       -0.09902872 -0.030818509 -0.01426196 0.025674118
000310 66 5d c2 bc 86 f8 e8 bd ec e7 59 bc 41 00 3a bc
       -0.023726176 -0.11375527 -0.013299923 -0.0113526
000320 37 d1 81 bc ca ce 8c 3d 29 db b4 bd 20 2e ca bc
       -0.015846832 0.068753794 -0.08830864 -0.024680197
000330 25 bb e1 3d 9c 4f 22 3e 81 c7 3b 3d fc 5c 33 3d
       0.11022023 0.15850681 0.04584456 0.04378985
000340 b2 2a b9 bc 12 19 93 3d f3 f8 ab 3d 5c 71 45 bd
       -0.022603367 0.07182516 0.08397093 -0.04820381
000350 92 65 69 3d 51 6a 85 bc 9f b6 eb bc be 92 f4 3d
       0.05698163 -0.016286047 -0.028773604 0.11942051
000360 23 76 06 be f3 0f dd 3c 4a 6d de bb 60 18 9b bc
       -0.13131003 0.026985144 -0.0067879306 -0.018932521
000370 93 45 44 bd 29 fa 18 bd fb a6 e8 bd 04 a1 83 3c
       -0.047917914 -0.037347946 -0.11359974 0.01606799
000380 a0 9a 15 3e 5d 95 61 bc ad 0f 46 be 00 b0 9b bd
       0.14609766 -0.013768521 -0.19341917 -0.07601929
000390 9e 25 b4 3d 13 0b 6f bd 19 8b 85 bd b9 09 8c 3c
       0.087962374 -0.05836017 -0.065206714 0.01709448
0003a0 00 47 b0 3d a8 16 98 3d 7c e8 39 3b 31 e1 65 bd
       0.08607292 0.07426196 0.0028367331 -0.056122962
0003b0 41 87 58 be 7a df e2 bc 6e 2e 89 3c ca 42 74 3a
       -0.21145345 -0.027694453 0.016745772 0.00093178137
0003c0 1d 3a 51 bd 87 cd b0 bd 19 0a b1 3d fe eb b6 3c
       -0.05108081 -0.08632951 0.08644504 0.022329327
0003d0 71 af c0 bc 1e 26 70 bd 76 6e b6 3d 48 23 50 3d
       -0.023521157 -0.0586301 0.089077875 0.050814897
0003e0 15 cd c7 bd 19 04 16 bc b8 96 2d 3e 63 28 dc 3d
       -0.09755913 -0.00915625 0.16952026 0.10749891
0003f0 13 f2 cb 3d 48 9e ee bb e6 01 d9 3d 80 b2 75 bb
       0.09958281 -0.007282052 0.10596065 -0.0037490427

network_body._body_endoder.seq_layers.2.bias f4 [128]
000000 7f 5a b0 bb 3f 68 31 3c ad 2c 98 3b 21 e0 14 bb
       -0.0053818817 0.010828077 0.0046439976 -0.00227166
000010 4d 7f e3 3b a4 10 f0 3b 73 f9 7f bc 06 69 38 bc
       0.0069426657 0.0073262025 -0.015623438 -0.011255508
000020 b0 d8 11 bc 73 49 ec 3b 52 52 ac ba 92 cc 61 3c
       -0.00890176 0.0072109043 -0.0013147092 0.0137816835
000030 bb 53 3f bc db 03 49 bc fd 1e bc 3b 2b 70 37 3c
       -0.011677678 -0.012268986 0.005740999 0.0111961765
000040 06 fd 8e bc 3b 57 d4 3b 6c 88 95 bb c4 d4 4f bc
       -0.017454635 0.0064801252 -0.004563382 -0.012685005
000050 5f d4 c0 bb 2a f2 ed bb 55 42 bc 3b 0f a4 d4 3a
       -0.0058846916 -0.007261534 0.005745212 0.001622321
000060 aa 37 2a 3c e4 9b 1c bc af 84 78 bc 03 b6 3c bc
       0.010389248 -0.009558652 -0.015168353 -0.011518004
000070 21 9e 0b 3c 76 20 f6 bb fb d8 54 bc 2f c3 a8 b9
       0.008521588 -0.007511194 -0.012991185 -0.0003218888
000080 a2 b9 72 3c b8 7d 30 3c 0d b6 39 3c fa 9c 94 bb
       0.014814766 0.010772161 0.011334908 -0.0045353146
000090 b2 1e d7 bb ff 7d 66 3b 82 e7 6b 3b 05 24 e2 3a
       -0.0065649385 0.0035170314 0.0035996144 0.0017253166
0000a0 f3 30 a3 3b f9 19 18 bb 19 bd e9 bb e2 84 07 bc
       0.0049802004 -0.002320884 -0.007133138 -0.008271428
0000b0 e9 ad c3 3b 6f f2 a6 3b 36 e7 6c 3b aa b8 7d 3b
       0.0059716594 0.0050948183 0.0036148555 0.0038714805
0000c0 72 48 5b bc ee b6 64 bc e0 72 18 3c 64 69 c9 b9
       -0.0133839715 -0.013959629 0.009304732 -0.0003841623
0000d0 d5 7a 15 bc 4a da 69 3b db 7f 5a bc 00 71 4c bc
       -0.009123524 0.003568309 -0.013336147 -0.012478113
0000e0 63 d4 00 bc d9 ea 2e bb fa a6 32 3b cb ec f2 bb
       -0.007863137 -0.0026690273 0.002726017 -0.007413482
0000f0 22 51 14 3c a7 ca f2 bb 23 ae f4 b9 d0 49 0d bc
       0.009052547 -0.007409412 -0.0004666905 -0.008623555
000100 cb 7d fa b9 91 71 0e 3c ce b3 0a bc dc 4c 72 b9
       -0.0004777744 0.0086940685 -0.00846572 -0.00023107551
000110 38 c3 c6 bb ec e2 73 bc 04 b6 00 3b 7b 63 a7 3c
       -0.0060657524 -0.014885645 0.001963974 0.020433178
000120 0a 61 8d 3c 1c 65 b5 ba fe e9 26 bc e9 c0 1f bb
       0.017258186 -0.0013839337 -0.010187624 -0.0024376458
000130 23 a3 b3 bb 42 5b b3 3a 49 b6 1f 3c 2d c6 f7 3b
       -0.005482094 0.0013683813 0.00974805 0.007561466
000140 b8 5d 3c bc 73 ee 44 bc dc 47 47 bc 0e 95 8d 3b
       -0.011496954 -0.012019741 -0.012163129 0.004320747
000150 a0 b6 3a bc 0d fa 52 bc de 82 38 bc f3 a2 a4 bb
       -0.01139608 -0.012877 -0.01126167 -0.005024308
000160 7b cc a0 bb 06 1a 07 bc 7d c2 26 bc 18 82 bf 3b
       -0.0049071885 -0.008245951 -0.010178206 0.005844366
000170 9d 37 24 3b b6 16 5a bb 3a 59 46 bc ec 4d 29 bb
       0.0025057562 -0.0033277697 -0.012106234 -0.0025833799
000180 5c b2 9b b8 dd ef 9e 3b 58 43 df bb 0a b2 d5 3b
       -7.424198e-05 0.0048503713 -0.006813448 0.006521468
000190 e4 f7 8c 3c 5b f6 06 3b 88 e5 0e bc 6d 87 b2 3b
       0.017208047 0.0020593617 -0.008721717 0.005448273
0001a0 8b 41 8c bc 98 94 1a 3c fa ff 80 bc 28 9e 38 3c
       -0.017121097 0.009434842 -0.01574706 0.011268176
0001b0 fc 4b 2e bc 5e 44 cb 3b de a0 4c 3b a1 e3 00 bc
       -0.010638233 0.0062032184 0.0031223814 -0.007866771
0001c0 42 72 14 3c 99 34 67 3c ab 4a 52 bc d2 66 c0 bb
       0.009060444 0.014111661 -0.012835185 -0.005871632
0001d0 f8 70 0e ba e9 3d 1c bb 8d 7c 5c bc c5 18 3a bc
       -0.0005433704 -0.0023840612 -0.01345743 -0.011358445
0001e0 5d 1c 6e bc c9 65 24 bb e1 cb 0d bc 5f f2 4e 3c
       -0.0145331295 -0.0025085083 -0.008654566 0.012631028
0001f0 95 32 29 bc 54 19 51 3b 66 4f 27 bc 67 b0 a5 3b
       -0.010327001 0.0031905966 -0.010211801 0.005056429

action_model._continuous_distribution.log_sigma f4 [1, 3]
000000 e8 4f 92 bc 7e 1e 9b 3a 14 d3 08 bb
       -0.017860368 0.0011834649 -0.0020877765

action_model._continuous_distribution.mu.weight f4 [3, 128]
000000 f8 8c 26 3c 78 37 00 3c ff e2 5c bc 50 92 a9 3b
       0.0101654455 0.007825725 -0.013481854 0.0051749125
000010 2e 5b e1 bb e8 2d 4a bc 39 d5 02 bb b7 46 a2 3b
       -0.0068773245 -0.012340046 -0.0019963516 0.0049522775
000020 fd 1f 43 bc ae 4b cd 3b db 9a a3 3c a2 8d 26 3d
       -0.011909482 0.0062651252 0.019971302 0.040662415
000030 56 f1 ab bc 8e 68 74 bc 38 98 31 3c 4d 98 32 3d
       -0.020989101 -0.014917506 0.010839514 0.043602277
000040 87 c6 09 bd 85 47 1a 3c 3e 0a b8 bc cf c0 94 bc
       -0.033636596 0.009416466 -0.022465821 -0.018158345
000050 82 ee 1a bc 68 3d 36 3c 40 64 87 3c 3f 98 8e 3c
       -0.009456279 0.011123039 0.016527295 0.017406581
000060 5f 34 b0 bb bb c0 f2 3b be ba e8 b8 64 28 46 bb
       -0.005377337 0.007408229 -0.000110974055 -0.0030236477
000070 d0 82 33 3c 00 52 5f bb 18 48 80 bc 5e 00 19 3d
       0.010956481 -0.0034075975 -0.015659377 0.037353866
000080 43 cc 4f 3b 96 de d1 3c 1e 4e d3 3c 8e 1c b7 3a
       0.0031707443 0.025618833 0.025794085 0.0013970302
000090 cc 64 e8 3c f2 e1 51 bc 47 64 8b 3c b1 03 32 3c
       0.028368376 -0.012810217 0.01701559 0.010865138
0000a0 41 63 3b bc 6f 29 0c 3c 19 dd 50 3c d5 fb df bc
       -0.011437238 0.0085548 0.012748026 -0.027341763
0000b0 89 16 11 3d 26 ca a4 3c 0e 85 92 3c 50 79 c9 bc
       0.03542188 0.020115923 0.017885711 -0.02459398
0000c0 83 c5 f4 bb 34 56 c8 bb 49 53 c5 ba ca 9d b3 bc
       -0.0074698343 -0.006113792 -0.0015054728 -0.021925826
0000d0 43 02 57 bb c9 38 14 3d 4d 0e d3 bb d0 e7 1c bc
       -0.0032807745 0.036186967 -0.006440914 -0.009576753
0000e0 70 97 b7 bb 94 90 c5 bb 98 75 87 3c a2 54 21 bc
       -0.0056027696 -0.006029198 0.016535565 -0.009846838
0000f0 be 64 e9 3a 10 53 dc 3c 7d 19 3a 3c cf 76 27 bb
       0.0017806513 0.026895076 0.011358616 -0.0025552993
000100 c4 13 38 3c 47 7e 99 3c c1 8c 0d 3c a2 2d b6 3c
       0.011235181 0.018736972 0.008639515 0.022238556
000110 34 3e 1d 3a ea 91 17 3b 3e 9d e7 bc c8 46 d6 3b
       0.00059983437 0.0023127743 -0.028273221 0.0065391995
000120 3c c8 83 3c 58 9d e3 bc c0 bb a1 3b f7 d2 ca ba
       0.01608669 -0.027784988 0.0049357116 -0.0015474249
000130 62 bb ad 3b a0 95 0d 3c a5 ed c3 3c ff d0 f8 3c
       0.005301879 0.00864163 0.023917029 0.030373095
000140 7a 8a 8a ba a2 0b 8b bb 48 06 8e bc 79 29 da bb
       -0.0010569834 -0.00424333 -0.01733698 -0.006657776
000150 38 77 c2 bc 54 eb 54 bc c1 b8 5c bc 71 dc a3 3b
       -0.023738489 -0.01299556 -0.013471783 0.005000644
000160 86 7a 67 bc dc 2a 0f 3c 69 ce 69 3c 0b 44 70 bc
       -0.014128333 0.008738246 0.014270403 -0.01466466
000170 7f e0 b2 bc 80 97 16 3c ee a6 3b bc 62 2e 81 bc
       -0.021835564 0.009191394 -0.011453373 -0.015769187
000180 ab 60 e9 bb 29 46 80 bc be cb 37 3c 48 a5 05 3d
       -0.0071221194 -0.015658455 0.0112180095 0.032628328
000190 3d 41 6d 3c 99 ac 4d 3c b3 ed ee bc d2 c6 e5 3a
       0.014480886 0.0125533575 -0.029166078 0.0017530567
0001a0 9d ba 1d bd 88 5b f4 3c 20 52 01 bc c8 20 d4 bb
       -0.038508046 0.029828802 -0.007893115 -0.0064736344
0001b0 b1 a7 5e bc 30 02 8b 3b 5c a8 ac bc 37 d0 d0 3b
       -0.013589785 0.004242204 -0.021076374 0.0063724774
0001c0 48 21 04 3d 6f d4 52 3c 08 33 e4 3b f0 0f 0a bd
       0.032258302 0.012868031 0.006964091 -0.033706605
0001d0 c1 78 df 3b 2e 38 c2 3c fa d4 53 bc 96 0d 99 bc
       0.006819815 0.02370843 -0.012929196 -0.018683236
0001e0 21 90 3d bb 72 0e dd bc cd d8 7e 39 03 a4 d2 38
       -0.002892502 -0.026984427 0.00024304092 0.0001004413
0001f0 8d 71 ae bc 89 1f 65 bc 59 71 7a 3c 1e 22 03 3c
       -0.02129438 -0.013984569 0.015285813 0.00800374
000200 ef 38 8d bc 06 c9 0e bc 90 9e 6e bb 0a d7 e2 bc
       -0.017239062 -0.00871492 -0.0036410429 -0.02769043
000210 20 63 3a bb 34 ff 10 3c 0a 06 1b bc f8 d2 13 bc
       -0.002844043 0.008849908 -0.009461889 -0.009022467
000220 16 d7 e9 3c 32 38 82 3c 52 45 4c bc 05 af 41 bc
       0.028544944 0.015895937 -0.012467699 -0.011821513
000230 5d f8 d1 bc c3 a6 b9 3b c6 39 ae bb 4b 94 da bb
       -0.025631124 0.0056656315 -0.0053169457 -0.00667051
000240 9e 65 79 3b 8f cd ac 3c fb c5 1d 3c 9f 29 f6 bb
       0.0038054953 0.021094112 0.009629722 -0.007512286
000250 7c 7b ad 3c fe 51 be 3b 9a 30 ef bc 75 4a d9 bc
       0.021177046 0.005808114 -0.02919798 -0.026524762
000260 4d a2 ee bc f8 62 bf ba 57 aa c3 3b 4f 4a fe 3b
       -0.029130125 -0.0014601639 0.005971234 0.007760323
000270 28 ca 72 bc 40 23 6f 3c 58 c5 d6 ba 75 bf d2 bb
       -0.014818706 0.014595807 -0.0016385717 -0.006431515
000280 a3 ea b8 bb de 4b b3 bb c0 8e 8c bb f4 bd f1 3c
       -0.0056432053 -0.0054716906 -0.004289478 0.029509522
000290 b1 51 fd 3b 7c 4a 3a bb 5e e3 22 bd 6c 39 14 3c
       0.0077306856 -0.0028425744 -0.039767615 0.009046894
0002a0 0f 57 85 bc 9e 54 0a 3d b5 65 f8 3a 53 c0 ab 3c
       -0.016276864 0.033772103 0.001895121 0.02096573
0002b0 06 36 da bc ed 04 1a bb 3d c6 2c 3c 19 aa 15 3d
       -0.026637089 -0.002350147 0.010545311 0.03653917
0002c0 69 62 bc 3b 04 cf a8 3c 16 ea 3e 3c ff 56 0a bd
       0.005749036 0.020606525 0.01165249 -0.033774372
0002d0 63 1e 3f bb ca e4 82 bc 6a d0 b1 3b f6 64 e4 3b
       -0.00291624 -0.015978236 0.005426456 0.0069700433
0002e0 ce a4 ae 3c c1 97 78 bc 73 bf 84 3c ef 2b 9f 3c
       0.02131882 -0.0151729 0.016204571 0.019430129
0002f0 bd a3 da 3c ee fa 90 3c 9c a6 b9 bb b7 01 a1 3c
       0.026689405 0.017697778 -0.0056656133 0.019654138
000300 d1 d7 86 39 50 94 9e 3c 8e 09 bc bc c0 b1 ff bc
       0.00025719267 0.01935783 -0.022953775 -0.031212687
000310 b3 a0 81 3c 12 63 82 3a 91 a7 a2 bb 8a 60 e3 3c
       0.015823698 0.0009947738 -0.004963823 0.027755994
000320 0d 2f 32 bc 1f 5b a6 3c 19 fd 81 3c 7e e9 8f bc
       -0.010875476 0.020307122 0.015867757 -0.017567392
000330 56 31 c4 3c 1b c4 8e bc d7 b4 16 bc 75 64 a0 bc
       0.023949306 -0.017427495 -0.009198389 -0.019579152
000340 fa f2 05 3c 21 05 37 3c 40 ed 70 3c e0 88 bf bc
       0.008175606 0.011170656 0.014705002 -0.023380697
000350 85 88 42 3a f4 23 6b 3c 7f e6 8e 3a 0d 49 4b bc
       0.00074208557 0.014351834 0.0010902433 -0.012407553
000360 a8 b2 aa b9 e3 0f 00 3c 64 46 4f 39 bc e8 be bc
       -0.00032558036 0.007816288 0.00019767281 -0.023304336
000370 31 24 1f bc 94 88 c2 bc 4d 14 16 bb 76 b1 68 3c
       -0.009713219 -0.023746766 -0.0022900284 0.014202466
000380 3b 97 58 bb 11 85 e3 bc bc 96 d1 bb 76 a9 2c 3c
       -0.0033049125 -0.027773412 -0.0063961428 0.0105384495
000390 5b 84 18 bb a0 5d 09 bd 38 90 ee bb 85 12 32 3b
       -0.002327225 -0.033536553 -0.007280376 0.0027171683
0003a0 eb 2a 27 bb ec b3 32 3c bb 32 a5 3b d3 5c 06 bb
       -0.002550776 0.0109071545 0.005041448 -0.0020502105
0003b0 8a 8b f7 3a 65 27 8c 3b e2 24 f4 3b 51 c7 04 3d
       0.001888619 0.004277157 0.007450686 0.032416645
0003c0 9f 02 f0 bb 89 bb 11 bc 5f c7 b5 3b 4f 55 b4 bb
       -0.007324531 -0.0088948095 0.0055474485 -0.0055033336
0003d0 dc d3 96 bc ae a1 c8 3c 5a 79 a8 bc a5 06 1e ba
       -0.01841157 0.024491157 -0.020565677 -0.0006028212
0003e0 2d 95 c2 b9 1b 71 7a bc 2c 00 7b 39 aa 71 69 bc
       -0.00037113708 -0.0152857555 0.0002393729 -0.014248291
0003f0 77 93 60 3c ac 31 07 3c c9 1b 1c 3d 42 05 e8 bc
       0.013707033 0.008251589 0.038112435 -0.02832282

action_model._continuous_distribution.mu.bias f4 [3]
000000 4e bb fa 3b 39 7f f5 ba ab 22 66 3c
       0.007651723 -0.0018729932 0.014046351

exp_avg f4 [128, 22]
000000 9e 70 4b 35 c7 7b 54 38 7a ae 54 b6 f0 9f 50 38
       7.578727e-07 5.0660015e-05 -3.169202e-06 4.9740018e-05
000010 01 ec 6e b7 d1 41 42 38 3c 5c 02 b7 38 53 20 38
       -1.4240854e-05 4.63145e-05 -7.770079e-06 3.8224476e-05
000020 07 52 55 b7 54 9f 15 38 e1 27 2b b7 b2 c5 19 38
       -1.2714888e-05 3.5672754e-05 -1.0201679e-05 3.666216e-05
000030 3f f3 f0 b7 2a 89 10 38 12 b6 10 b7 8d 98 0c 38
       -2.87235e-05 3.446002e-05 -8.62546e-06 3.3520675e-05
000040 be 2e 8a 37 97 5c fa 37 ea c3 46 37 94 47 21 38
       1.6472648e-05 2.9845438e-05 1.18473345e-05 3.8452054e-05
000050 47 f5 33 36 96 53 2a 38 78 f6 5d b7 55 a9 8c 38
       2.6815849e-06 4.0609004e-05 -1.3230012e-05 6.707261e-05
000060 77 41 b7 b7 02 88 92 38 40 d6 52 b6 73 f4 8f 38
       -2.1845784e-05 6.987156e-05 -3.1417148e-06 6.8643036e-05
000070 de 54 e9 b5 05 4f 91 38 9c 75 b5 b5 c2 77 93 38
       -1.7384552e-06 6.928857e-05 -1.351978e-06 7.031813e-05
000080 9f 9b c3 35 3e 84 77 38 8d e9 97 36 8b 80 49 38
       1.4573924e-06 5.901255e-05 4.5273396e-06 4.804185e-05
000090 2b 5b b4 35 9a 5f 26 38 88 cc 96 b8 82 86 3c 38
       1.3437578e-06 3.966652e-05 -7.190654e-05 4.4947963e-05
0000a0 94 1a 21 b7 bf f5 45 38 ad 9d 63 b7 cf ac 39 38
       -9.602536e-06 4.719733e-05 -1.3566966e-05 4.4268378e-05
0000b0 b6 27 f5 35 48 cf fe 36 86 46 c4 35 5a 9e 45 37
       1.826548e-06 7.5939206e-06 1.4623663e-06 1.1778984e-05
0000c0 b9 47 1c b7 84 82 2e 37 a7 05 51 b7 d0 79 32 35
       -9.315024e-06 1.0401596e-05 -1.2458687e-05 6.648743e-07
0000d0 cf 62 b0 b7 88 28 b2 b5 61 ee 59 b7 c0 69 f8 33
       -2.1026846e-05 -1.327383e-06 -1.298971e-05 1.1567636e-07
0000e0 da 25 67 b7 0e 77 96 b6 33 44 c7 b6 64 88 a3 b6
       -1.3777486e-05 -4.484208e-06 -5.9386016e-06 -4.8736565e-06
0000f0 fd e3 48 38 0a 79 93 b7 d3 9e d9 b5 10 bf 76 35
       4.7896046e-05 -1.7580129e-05 -1.6213984e-06 9.1920174e-07
000100 7d 5e aa 37 e0 57 59 35 2c e0 25 b7 36 68 cd b8
       2.0309579e-05 8.0966674e-07 -9.8869605e-06 -9.7945725e-05
000110 39 9d a2 b6 fc 1f c9 b8 3f fe 0f b7 09 8d cb b8
       -4.8462794e-06 -9.5903844e-05 -8.5826605e-06 -9.706064e-05
000120 93 ac 38 b5 64 82 d4 b8 1d 67 e0 36 84 52 d7 b8
       -6.879647e-07 -0.00010133235 6.687724e-06 -0.000102673686
000130 ca 03 ac 36 cb 57 c3 b8 20 cb cb b3 91 2c aa b8
       5.1264406e-06 -9.314677e-05 -9.489872e-08 -8.114533e-05
000140 df 1a 00 37 db 0c 99 b8 1b 93 5e 38 3b b9 9a b8
       7.635651e-06 -7.298003e-05 5.3065927e-05 -7.377794e-05
000150 83 51 b9 36 fb 4b 98 b8 00 22 92 36 6a 6b 88 b8
       5.522919e-06 -7.262077e-05 4.355097e-06 -6.504993e-05
000160 88 a4 8a 38 0e ad c5 38 0e a3 7e 38 37 ed c5 38
       6.610999e-05 9.425926e-05 6.0710176e-05 9.437877e-05
000170 46 c8 c1 b6 fb 10 d3 38 40 d1 20 b6 16 35 d1 38
       -5.775163e-06 0.00010064427 -2.3963657e-06 9.9757846e-05
000180 a8 64 fe 34 5e 0a c9 38 16 8c 03 b6 08 a2 d0 38
       4.7384424e-07 9.586358e-05 -1.9602062e-06 9.9483936e-05
000190 c2 a0 b2 b5 ef da d7 38 88 9a 83 b5 0c c1 db 38
       -1.330882e-06 0.000102927785 -9.805235e-07 0.000104786915
0001a0 52 a2 06 37 3b 0a de 38 c2 fd eb b5 78 da c8 38
       8.0248155e-06 0.000105876905 -1.7582718e-06 9.577436e-05
0001b0 3e e3 d5 35 dc a9 c9 38 8c cb 80 b8 c7 8a 4c b7
       1.5935873e-06 9.616066e-05 -6.141429e-05 -1.2191659e-05
0001c0 cc 55 4e b8 7c 22 a1 b6 05 dd 82 36 06 07 b5 b6
       -4.9194132e-05 -4.8021884e-06 3.900032e-06 -5.395038e-06
0001d0 d2 86 09 36 74 7e 8a b6 ca 08 64 36 c0 de d7 34
       2.0493067e-06 -4.1274416e-06 3.3979763e-06 4.0208943e-07
0001e0 55 18 3c 36 25 e2 54 b7 98 79 99 36 a8 bf 8b b7
       2.8028346e-06 -1.2688838e-05 4.5739107e-06 -1.6659338e-05
0001f0 9a 6c 8e b7 58 de 97 b7 73 20 9d b8 0f 1d 56 b7
       -1.697829e-05 -1.810414e-05 -7.4923875e-05 -1.276216e-05
000200 65 bc ac b6 4e bc c8 b6 50 67 0a 37 39 b1 fe b6
       -5.1479315e-06 -5.982386e-06 8.249495e-06 -7.5904213e-06
000210 4a 1b fb b7 5e 0d 3c b8 74 89 c2 b7 c2 ff e3 b7
       -2.993424e-05 -4.4835142e-05 -2.3190609e-05 -2.7179605e-05
000220 d0 0b 30 36 aa 0e b3 b7 19 3d a8 b6 07 84 81 b7
       2.623292e-06 -2.1345291e-05 -5.013903e-06 -1.5439478e-05
000230 9d 3c d2 b6 54 d0 fc b6 00 38 82 b6 77 cb 02 b7
       -6.265544e-06 -7.534438e-06 -3.880821e-06 -7.795977e-06
000240 10 64 75 35 88 f6 b1 b5 dc 43 4e b6 66 6b 95 36
       9.141522e-07 -1.3259278e-06 -3.0735891e-06 4.453049e-06
000250 9e 0e ae b7 92 05 09 37 d0 fc 8f b4 77 da 8e 37
       -2.0749223e-05 8.167133e-06 -2.681977e-07 1.702945e-05
000260 f9 d9 08 36 cf 38 a2 37 2d a5 55 b8 f7 2f 8c 38
       2.0392456e-06 1.9338358e-05 -5.093699e-05 6.684654e-05
000270 b2 38 6d b8 d0 a6 a8 38 4b e3 82 b6 f2 49 a3 38
       -5.6558005e-05 8.0419355e-05 -3.9007623e-06 7.786219e-05
000280 f7 21 4a b7 e6 a9 95 38 0f 92 4e b8 53 2a a8 38
       -1.2048046e-05 7.13652e-05 -4.9250255e-05 8.018748e-05
000290 2d 4e 10 b8 d5 84 9e 38 48 29 10 b7 40 3e 9a 38
       -3.4405082e-05 7.558769e-05 -8.59268e-06 7.354887e-05
0002a0 75 8f 0d b7 a1 ca 9d 38 70 02 e6 b5 12 ef 89 38
       -8.437656e-06 7.524086e-05 -1.7137045e-06 6.5771994e-05
0002b0 76 40 e3 36 a4 fa aa 38 7e 03 9b b7 d4 29 b9 38
       6.7726314e-06 8.152917e-05 -1.8479066e-05 8.8292785e-05
0002c0 99 f9 82 b8 ac e4 b7 b7 d4 93 53 b8 16 52 03 b7
       -6.245374e-05 -2.1921784e-05 -5.0443996e-05 -7.827321e-06
0002d0 2a d4 94 36 10 14 bc b5 3e f4 c6 35 6c ee fb 36
       4.435443e-06 -1.401293e-06 1.4823233e-06 7.508139e-06
0002e0 97 5a 88 b7 69 21 83 37 9b 8c 26 b7 b0 49 e3 36
       -1.6254648e-05 1.5631975e-05 -9.927108e-06 6.7737055e-06
0002f0 68 21 b5 b5 2a 3a 91 37 8b a4 cb b7 8f e9 d7 37
       -1.3495273e-06 1.7312432e-05 -2.4276107e-05 2.5738756e-05
000300 97 46 9c b8 de c5 05 38 4c 92 71 37 d3 38 90 37
       -7.451808e-05 3.189395e-05 1.4398782e-05 1.7192599e-05
000310 5b 18 8c 36 32 96 7c 37 fb 08 b9 37 94 72 1a 36
       4.1751605e-06 1.5055341e-05 2.20579e-05 2.3014481e-06
000320 ba 40 7f 37 dc 17 5f 36 d8 3c 66 35 dc f7 58 36
       1.5214255e-05 3.3243477e-06 8.5770216e-07 3.2330781e-06
000330 d0 e0 e9 b5 80 f0 16 35 84 2e 23 35 c0 e6 5e b4
       -1.7425282e-06 5.622933e-07 6.078992e-07 -2.0759308e-07
000340 98 e6 38 b5 6c 5d aa b6 10 96 dd 34 ff ce 3d b7
       -6.88809e-07 -5.0772705e-06 4.1273643e-07 -1.1313473e-05
000350 fc 10 ad 37 b6 ef 6b b7 40 ff ec 37 5e ff 9f b7
       2.0631116e-05 -1.4062904e-05 2.8252252e-05 -1.9073192e-05
000360 ec 1f a0 b7 e5 a9 0f 37 89 7d 76 b7 6b 6c aa 36
       -1.9088351e-05 8.563021e-06 -1.4691971e-05 5.0790163e-06
000370 4a bc 6d 36 3a 20 59 b6 4e 4e 17 37 b6 02 2b b6
       3.542535e-06 -3.2354278e-06 9.018533e-06 -2.5482564e-06
000380 6b d0 03 37 ec 66 71 35 a6 f1 d8 36 2c 8d ee 36
       7.856735e-06 8.992927e-07 6.465433e-06 7.1093873e-06
000390 56 b2 89 b5 8e 78 f5 36 8a e2 c8 b4 10 f9 de b5
       -1.0259198e-06 7.3156034e-06 -3.7417732e-07 -1.6612776e-06
0003a0 7d 19 14 38 48 ee 2b b5 6f f8 2d 37 58 70 f0 b4
       3.5309688e-05 -6.404921e-07 1.03694465e-05 -4.4785224e-07
0003b0 8a 08 92 b8 30 2e 88 37 d0 eb 22 36 d6 b5 d0 b6
       -6.963413e-05 1.6233971e-05 2.4277142e-06 -6.2200515e-06
0003c0 4d 5b 37 b5 06 84 31 b7 b8 3b 64 b6 20 32 0d 37
       -6.830567e-07 -1.0580761e-05 -3.4009408e-06 8.415926e-06
0003d0 a4 91 cd b6 80 36 f7 35 c6 10 bb b6 90 9b fc 35
       -6.126431e-06 1.8418796e-06 -5.574987e-06 1.8820738e-06
0003e0 a1 0f ad 36 e8 e1 17 36 9c be 0c 38 20 26 2d 35
       5.157621e-06 2.2632248e-06 3.355612e-05 6.4503e-07
0003f0 f8 68 c9 37 ab f6 28 37 68 d1 5f b5 12 dd bb 37
       2.4009947e-05 1.0071012e-05 -8.33787e-07 2.2395081e-05

exp_avg_sq f4 [128, 22]
000000 95 05 e6 30 7d 53 43 35 04 a4 00 30 93 47 42 35
       1.6736289e-09 7.276465e-07 4.679921e-10 7.2374786e-07
000010 f8 4c 05 32 d7 c5 41 35 4f ae 20 32 28 31 41 35
       7.75912e-09 7.2186e-07 9.352859e-09 7.1969635e-07
000020 71 02 5a 32 05 79 40 35 7d 70 86 31 7a e3 3f 35
       1.2689825e-08 7.170168e-07 3.9127017e-09 7.1484067e-07
000030 35 2f 3e 31 f9 be 3f 35 bd 20 23 32 d6 2f 3f 35
       2.7675473e-09 7.1430946e-07 9.4952926e-09 7.1222655e-07
000040 15 35 24 31 e1 63 3f 35 79 14 8b 31 f2 89 3f 35
       2.3895315e-09 7.129839e-07 4.04776e-09 7.135378e-07
000050 b5 38 3c 31 47 e9 3f 35 3e cd 94 31 ac 53 8c 34
       2.7389835e-09 7.149251e-07 4.3307002e-09 2.613791e-07
000060 82 d8 f9 30 38 6a 8b 34 60 8c 0f 30 4b a4 89 34
       1.817867e-09 2.5968052e-07 5.222258e-10 2.5637777e-07
000070 e7 71 de 2f 39 33 89 34 d7 be 68 30 36 df 88 34
       4.0462497e-10 2.5555508e-07 8.467231e-10 2.549438e-07
000080 dc 33 a5 30 58 7e 89 34 08 87 23 31 b2 d6 88 34
       1.2020069e-09 2.5610166e-07 2.3796378e-09 2.5488185e-07
000090 6d 29 bd 31 56 08 89 34 d3 cd 5e 33 a7 4b 87 34
       5.5053335e-09 2.5524304e-07 5.18756e-08 2.5200754e-07
0000a0 1b b3 1d 33 81 d7 87 34 c7 a1 90 32 66 5d 88 34
       3.6717307e-08 2.530251e-07 1.6837374e-08 2.539993e-07
0000b0 44 15 7a 30 f3 f9 33 36 96 ac 5d 30 2c ef 32 36
       9.097969e-10 2.6818568e-06 8.064459e-10 2.6663283e-06
0000c0 9c 85 a1 31 1d 2b 33 36 8a c9 e7 31 d1 ab 32 36
       4.7009063e-09 2.6698174e-06 6.745897e-09 2.6624077e-06
0000d0 66 97 d8 31 e6 fe 31 36 96 6a 13 32 ae 95 31 36
       6.3036394e-09 2.6523426e-06 8.580761e-09 2.646218e-06
0000e0 e8 ad 03 32 cd a8 31 36 eb c6 2f 31 3c dc 31 36
       7.664745e-09 2.647331e-06 2.5578923e-09 2.6503249e-06
0000f0 33 34 7d 31 33 29 32 36 cc ee 98 30 f3 c7 32 36
       3.6846017e-09 2.6548048e-06 1.1127326e-09 2.6640453e-06
000100 ed 77 17 32 b8 24 33 36 16 e6 41 33 4f cb 5f 35
       8.816625e-09 2.6694452e-06 4.5145576e-08 8.3369827e-07
000110 59 99 ac 31 d6 17 5e 35 90 97 80 32 71 2e 5d 35
       5.0232924e-09 8.273613e-07 1.4970084e-08 8.2396497e-07
000120 ce e1 7a 31 8b f4 5c 35 52 b3 f3 31 bb 9d 5c 35
       3.6508143e-09 8.2312243e-07 7.092617e-09 8.2185915e-07
000130 cd 2c 35 31 1a d7 5c 35 1c df 9c 30 ba 95 5c 35
       2.6364433e-09 8.22694e-07 1.1413905e-09 8.217427e-07
000140 2f 9c e8 31 ee b6 5c 35 9a 6b b6 32 25 b8 5c 35
       6.7698447e-09 8.2222584e-07 2.123652e-08 8.222435e-07
000150 c2 53 82 30 a9 96 5d 35 ea e5 34 30 12 ef 5d 35
       9.48255e-10 8.2548155e-07 6.5810346e-10 8.267681e-07
000160 28 2e d8 31 e4 37 61 35 45 af 70 31 dd 43 60 35
       6.2916747e-09 8.3900363e-07 3.5024226e-09 8.3545257e-07
000170 f9 43 05 30 30 b8 5f 35 a7 ee 51 30 92 f2 5e 35
       4.8481713e-10 8.3342e-07 7.63729e-10 8.305443e-07
000180 40 13 6a 32 6e fb 5d 35 1e 71 64 30 7a 7a 5d 35
       1.362497e-08 8.2694794e-07 8.3106666e-10 8.250714e-07
000190 28 1c 85 2f 3f 3b 5d 35 a6 b6 0a 31 8d 2a 5d 35
       2.4212565e-10 8.241513e-07 2.0185467e-09 8.2390835e-07
0001a0 11 f8 3c 30 ee b0 5d 35 4b d2 c2 31 41 45 5e 35
       6.8746525e-10 8.258638e-07 5.6700507e-09 8.280222e-07
0001b0 a5 04 03 32 80 4f 5e 35 dc ea c4 31 8d 4f 1c 32
       7.62626e-09 8.281713e-07 5.731051e-09 9.098483e-09
0001c0 e0 86 26 31 e5 f1 1e 32 d9 cc 0c 30 ca 2e 21 32
       2.4232847e-09 9.251811e-09 5.122281e-10 9.382072e-09
0001d0 9f f9 95 2f 36 26 23 32 63 87 0b 30 3d 96 2b 32
       2.7280309e-10 9.496537e-09 5.07603e-10 9.98767e-09
0001e0 20 e2 7c 2f 5b 1c 2f 32 3a 2c 46 30 23 3b 31 32
       2.2999602e-10 1.0192788e-08 7.209483e-10 1.0316202e-08
0001f0 4c 0e 48 32 a5 cc 2f 32 fd d6 af 31 29 e8 30 32
       1.1644783e-08 1.0232871e-08 5.1176117e-09 1.0297335e-08
000200 fe b3 15 32 be 42 24 32 07 c5 e0 31 35 14 27 32
       8.713867e-09 9.561232e-09 6.5416574e-09 9.725274e-09
000210 84 14 af 32 43 6c a2 32 5a 31 50 31 de e5 b0 32
       2.038201e-08 1.8908514e-08 3.0296037e-09 2.0593628e-08
000220 20 53 94 31 8d 1b b8 32 1c 5f a4 31 4a 5b b9 32
       4.316817e-09 2.1432948e-08 4.783841e-09 2.1578348e-08
000230 1f e0 e1 31 94 00 b6 32 86 c6 2b 32 65 fc 9c 32
       6.5738415e-09 2.1187851e-08 9.998649e-09 1.8275566e-08
000240 96 af 48 32 68 87 86 32 66 1c 52 32 7c 4b 81 32
       1.1681456e-08 1.5661229e-08 1.2230066e-08 1.5051903e-08
000250 59 e1 df 31 f7 01 7c 32 95 60 54 30 7e b7 7b 32
       6.5157733e-09 1.4668777e-08 7.72624e-10 1.4651844e-08
000260 6f 72 4e 30 83 74 76 32 b7 bb 43 33 13 66 1d 36
       7.5104983e-10 1.4345576e-08 4.55727e-08 2.3454238e-06
000270 83 f7 a8 32 29 ce 1c 36 2c b8 32 32 7b 69 1d 36
       1.967033e-08 2.3365812e-06 1.04028395e-08 2.345622e-06
000280 cf e5 f2 31 c0 f0 1c 36 c9 54 d0 33 78 35 1c 36
       7.069253e-09 2.3385946e-06 9.701177e-08 2.3276934e-06
000290 4c 02 6e 32 23 d0 1b 36 57 90 a8 31 24 e8 1b 36
       1.38539455e-08 2.3217951e-06 4.905853e-09 2.3231923e-06
0002a0 18 94 ad 32 e7 3d 1c 36 28 64 ea 32 e2 43 1c 36
       2.0207196e-08 2.3281843e-06 2.7286731e-08 2.3285324e-06
0002b0 6a 03 9c 33 05 1e 1c 36 1f 98 8a 33 94 3f 1c 36
       7.264937e-08 2.3263285e-06 6.4537964e-08 2.3282819e-06
0002c0 08 fa cb 32 c3 db 50 36 38 3d 86 31 f4 71 4f 36
       2.3746011e-08 3.1122333e-06 3.906873e-09 3.0911733e-06
0002d0 73 19 25 31 bb e1 4f 36 1f c8 12 31 61 3e 4f 36
       2.4025126e-09 3.0976796e-06 2.1359552e-09 3.0881713e-06
0002e0 59 7c 86 31 89 7d 4e 36 21 98 f7 31 11 d5 4d 36
       3.91405e-09 3.0769463e-06 7.205941e-09 3.0671401e-06
0002f0 aa b1 84 31 fd e7 4d 36 eb 4f 89 32 98 98 4e 36
       3.8619037e-09 3.0682415e-06 1.5985242e-08 3.0785213e-06
000300 29 72 51 33 a6 ce 4e 36 5e be 15 34 ec 6d 4f 36
       4.8765433e-08 3.0816677e-06 1.3945962e-07 3.0909387e-06
000310 72 f9 b8 33 dc c2 4f 36 42 27 27 31 95 fd 72 31
       8.6135415e-08 3.0958827e-06 2.4324014e-09 3.535978e-09
000320 31 0e 7b 30 7f 91 7f 31 6d f9 95 30 a0 5b 74 31
       9.1333435e-10 3.7190089e-09 1.0912068e-09 3.5558756e-09
000330 1b 18 5a 30 12 c8 74 31 5c 8f 24 30 2b 8e 7b 31
       7.9342194e-10 3.56204e-09 5.986658e-10 3.660612e-09
000340 66 a9 48 2f a6 ab 83 31 6f 2f 14 30 26 a3 9a 31
       1.8250076e-10 3.832116e-09 5.3909494e-10 4.5005377e-09
000350 87 bd 0f 31 c8 5b a5 31 c9 5e 81 31 06 a3 b0 31
       2.0916973e-09 4.8125663e-09 3.76517e-09 5.140808e-09
000360 08 14 4d 33 aa 51 84 31 60 95 5a 33 a5 5a 7a 31
       4.77485e-08 3.8509897e-09 5.0892936e-08 3.6431314e-09
000370 c1 ee 64 30 cb 2c ef 31 38 38 cf 30 2e c2 f9 31
       8.3285207e-10 6.960908e-09 1.5077211e-09 7.2689295e-09
000380 c0 be 0c 32 5f c8 fa 31 78 cc 63 31 de 5f 02 32
       8.192444e-09 7.298737e-09 3.3149075e-09 7.588794e-09
000390 dc 11 db 30 71 21 03 32 1c 95 eb 30 4e 8d 0c 32
       1.5939423e-09 7.632807e-09 1.714088e-09 8.1812015e-09
0003a0 16 87 07 32 f1 c3 0e 32 da 3f 8a 32 80 1e 10 32
       7.888749e-09 8.31004e-09 1.609435e-08 8.388838e-09
0003b0 05 fd fe 32 ac 34 08 32 83 cf 70 31 f3 33 08 32
       2.9684552e-08 7.928218e-09 3.5042553e-09 7.928054e-09
0003c0 ee f3 ae 30 3f c4 07 32 72 d2 70 30 3e b1 bd 32
       1.2729495e-09 7.902655e-09 8.761055e-10 2.2083096e-08
0003d0 e7 55 0d 31 91 aa c2 32 75 e1 26 32 40 27 c3 32
       2.056703e-09 2.2662137e-08 9.713735e-09 2.2718837e-08
0003e0 b6 2e a3 31 44 79 c4 32 d5 36 b6 32 cf 07 c2 32
       4.749235e-09 2.2872548e-08 2.1212523e-08 2.2588123e-08
0003f0 82 7c a6 31 9a df c0 32 a6 83 0b 30 21 a3 c6 32
       4.8453908e-09 2.2453424e-08 5.075499e-10 2.3124416e-08

exp_avg f4 [128]
000000 64 82 d3 b5 c5 03 d6 37 ca de 07 b7 92 dd 69 b8
       -1.5758674e-06 2.5512543e-05 -8.098499e-06 -5.5757882e-05
000010 38 d9 e4 37 43 2e 88 b7 8f f4 f7 b7 b8 1b 72 b6
       2.7280868e-05 -1.6234006e-05 -2.9558576e-05 -3.6076945e-06
000020 46 f8 69 b7 64 90 01 37 57 cc 3d b7 08 ad 2d 37
       -1.3945688e-05 7.722618e-06 -1.1312854e-05 1.03518905e-05
000030 79 db 86 37 6a 34 86 37 e0 b0 e4 35 5c 97 45 37
       1.6076245e-05 1.5998452e-05 1.7038801e-06 1.1777356e-05
000040 ec f0 e6 b6 d8 36 4b 38 b0 cd f5 b5 24 7b 87 37
       -6.882581e-06 4.845005e-05 -1.8313785e-06 1.6150596e-05
000050 b8 a5 d6 b6 f8 eb cc 37 28 5f bb 37 e6 ab 8a b7
       -6.396989e-06 2.4428577e-05 2.2336448e-05 -1.6530928e-05
000060 18 ba ad b7 40 86 f2 b3 94 b5 21 b7 10 9a e9 b6
       -2.0709864e-05 -1.1293423e-07 -9.638625e-06 -6.9618764e-06
000070 07 53 fc b7 a2 24 e0 b7 80 ad d3 37 6e 7b b2 37
       -3.0079404e-05 -2.671994e-05 2.5233952e-05 2.127673e-05
000080 20 bb c1 35 d3 f1 2f b7 e2 82 a2 b7 ea 4d c4 b6
       1.4434081e-06 -1.0487117e-05 -1.9372852e-05 -5.8503256e-06
000090 e1 1e 4c b7 8c 96 fa b7 97 87 c7 b6 58 96 a6 b6
       -1.2166537e-05 -2.9872426e-05 -5.946447e-06 -4.964688e-06
0000a0 51 38 17 38 e7 44 9d 37 0c 7f e3 b5 e0 99 a9 b7
       3.6053654e-05 1.8747944e-05 -1.6949793e-06 -2.0218024e-05
0000b0 62 58 3c 38 30 a8 85 37 c4 20 17 38 34 8e cb b7
       4.4905006e-05 1.5933154e-05 3.603172e-05 -2.4265704e-05
0000c0 ec c5 25 b7 6e f8 b5 b7 60 90 2a b8 f2 d9 01 b8
       -9.880849e-06 -2.1692565e-05 -4.0665618e-05 -3.0958974e-05
0000d0 c6 7a 3e 37 b2 57 88 b7 d2 5e 59 37 70 08 a8 b5
       1.1353468e-05 -1.62533e-05 1.2956285e-05 -1.2519431e-06
0000e0 76 8b 9c b7 fc dc ff b7 69 5c e0 37 80 72 44 b5
       -1.866159e-05 -3.0501273e-05 2.6745913e-05 -7.318231e-07
0000f0 b2 8c 3e b8 a8 d6 cf b7 24 23 83 36 f0 35 3f b7
       -4.5430563e-05 -2.477628e-05 3.908195e-06 -1.13970455e-05
000100 a6 08 66 b7 30 93 9e b5 5a 74 0e 38 11 43 c3 37
       -1.3711082e-05 -1.1814755e-06 3.39638e-05 2.3277042e-05
000110 f4 2d 92 38 b0 72 f2 35 c4 84 bd b7 cc 61 30 38
       6.970382e-05 1.8063784e-06 -2.259238e-05 4.205275e-05
000120 48 cd 46 37 ee 2e a2 b7 98 d3 9c 37 9a 73 19 38
       1.1849515e-05 -1.9333758e-05 1.869518e-05 3.6585705e-05
000130 4e dd 4d b7 ab 1b 90 37 db b5 c6 37 66 03 9e b7
       -1.2270479e-05 1.7179022e-05 2.3688122e-05 -1.883665e-05
000140 19 21 02 38 56 f4 0d 37 05 41 40 b8 12 52 1e b8
       3.102524e-05 8.461144e-06 -4.583692e-05 -3.774657e-05
000150 93 f0 0c 38 80 3c ff 36 a4 3c 5c 37 60 f0 9d 37
       3.3602653e-05 7.6066353e-06 1.3127141e-05 1.8827792e-05
000160 80 a5 8f 35 ff 52 0c b8 69 6e 89 b7 af bc 53 38
       1.0702497e-06 -3.3455897e-05 -1.6383086e-05 5.0482045e-05
000170 a5 75 e3 36 c4 d8 fa b6 69 be 6e 38 20 22 99 37
       6.778823e-06 -7.4758154e-06 5.6920955e-05 1.8254912e-05
000180 90 cf 58 b6 8d d8 c8 b7 50 45 0f 37 a2 ec 9a 37
       -3.2307325e-06 -2.3942697e-05 8.539602e-06 1.8468421e-05
000190 cc 56 7f b7 1c 37 eb 36 f4 ee 3b 38 e0 ab 18 35
       -1.5219393e-05 7.0099613e-06 4.4806817e-05 5.6874524e-07
0001a0 41 c5 3a 38 87 6a 7a b7 7e e6 7a 38 d3 75 04 b8
       4.4529563e-05 -1.4925964e-05 5.9819307e-05 -3.1580985e-05
0001b0 fc 9a 3b 38 40 40 b1 35 9e 73 40 b7 40 08 9b 35
       4.4728615e-05 1.3206227e-06 -1.1471011e-05 1.1550801e-06
0001c0 e7 fe b9 b7 90 b6 ff b5 72 f4 59 b8 58 f8 fe b6
       -2.2172417e-05 -1.9052113e-06 -5.196449e-05 -7.598701e-06
0001d0 b0 06 e2 36 dc 0b e6 b7 40 27 cd b5 5c 7d 23 b8
       6.7361034e-06 -2.7423659e-05 -1.5285113e-06 -3.897898e-05
0001e0 28 ec 52 b7 6a 80 f0 37 04 31 98 37 78 5f 6a 37
       -1.257196e-05 2.8670027e-05 1.8142637e-05 1.3969715e-05
0001f0 10 b6 f7 b6 d1 6f 31 36 08 e1 db b6 de eb 8f 37
       -7.3823685e-06 2.644014e-06 -6.5529057e-06 1.7156763e-05
