results/timeout60FixHalfWallFix/3DBall.onnx (onnx, 84847 bytes, 9 tensors)

network_body.observation_encoder.processors.0.normalizer.running_mean f4 [22]
00000000: 3a91 0a3b 9f2e cd40 1b19 4a3b b0d3 cd40
00000010: b8b1 9e3b 8a38 ce40 5149 fc3b 924a ce40
00000020: 3bfb 403c b7f8 cd40 1f82 883c 662e cd40
00000030: 152d af3c 36e8 cb40 aace cc3c f329 ca40
00000040: 2ddd d33c ae43 c840 7408 c33c 3190 c640
00000050: b4cf a43c 5f84 c540
0.002114369 6.411941 0.0030837718 6.4320908 0.004842963 6.4444017 0.0076991697 6.446603
0.011778648 6.4366107 0.01666361 6.411914 0.021383801 6.372096 0.025000889 6.3176208
0.0258623 6.2582617 0.023807742 6.2051015 0.020118572 6.1724086

network_body._body_endoder.seq_layers.0.weight f4 [128, 22]
00000000: 6bb1 bfbe 46f1 9f3d caeb 0e3f 247d b13d
00000010: ed73 36be ffc0 963e f5e2 343e c447 7d3e
00000020: c426 14be d673 cd3d f0b4 953c 930f 9e3d
00000030: 4858 ebbe 97cd 8dbe efa4 afbd 2e97 da3d
00000040: c93a 913c 3b26 b43c 608f cb3c e7da 9ebe
00000050: 97ae ffbd eae3 a4be 5808 7a3a 52b9 d6be
00000060: 3dcf 1fbe 62cf 82bd ee9f 923c c5c4 a5bc
00000070: 0e19 52be fb15 e23d 4885 49be 0e6f 5cbe
00000080: 81cc 9abd bb3e 443e ba26 2e3d 51af ae3e
00000090: eb8b 15be 77ac 1c3e 3dd2 cdbe df98 333d
000000a0: b9df 373e 1339 503d 282a 8e3c 2f63 513e
000000b0: ff4a 9b3d de79 af3e bb69 dfba 6145 0bbe
000000c0: 2cd8 2e3d 8d3e c2be 4ec6 b43d eae9 453d
000000d0: 9f62 1e3e 751c 1e3e 3b23 20be ef22 54be
000000e0: 2302 a2bd b5cf 67bd c296 a13c f932 e6bc
000000f0: db68 d13d 1b05 b43d 9e51 fa3e f9d4 cb3e
00000100: 3652 75bd d979 4cbd 6339 c3be 9950 b73e
00000110: a134 56bc 4d99 30be e74b 16be b121 203e
00000120: 02ba edbd 432c 283d 65d1 703e 6724 823e
00000130: 33cd 78be 9f18 563e 3854 d73e 3842 e13c
00000140: 8065 0c3e b56e 78be f4f2 b5be dd14 203e
00000150: ffc3 873e 5f64 5b3d b576 633e 6445 463e
00000160: 5b2c 55bd 009a b53e 8a2e 9f3d 115a 4d3d
00000170: 34ba 343e abe0 9bbd 0735 cfbd 1d02 0c3d
00000180: 64b3 bf3d 9ff8 abbd 1dad 113e aafe abbe
00000190: 9edb 123e 26a7 423e 4232 f5be 9314 0bbe
000001a0: 7b5e 8dbe 1c8f b93c c298 213b 0622 773d
000001b0: 1495 7abd 2c1d 7cbe 2b27 4e3e d61c 613b
000001c0: fe56 29be 043d e6bc e0aa 08bd 32e6 1b3e
000001d0: 0a02 493e c5bb 2f3e a4db 793e b1c3 67be
000001e0: e79e c9be dcd4 63be 9878 413e e540 ab3e
000001f0: 9841 7cbd 7fa1 043e 0049 6dbb 5739 10bc
00000200: 1ddd a73d 1dc1 883d 6101 b5bb ac1f 7fbe
00000210: 36d8 1ebe 9c3e babd 2847 5cbe 92d2 d73e
00000220: c6ce cf3e 1e6b 8e3e 966d 9f3d 689d d9be
00000230: de08 79be b1b7 77be c61c 05bc cca4 78be
00000240: 5278 903c 0ac4 3c3e f36c 863d 7697 cf3d
00000250: 3722 37be 2236 39bd 2037 bb3c 0f8b d9bc
00000260: 29de 6fbc 38de 13bd 2594 803e 89d7 0fbf
00000270: adba 883e 58c4 2c3d 314b 92be 2ff6 9dbd
00000280: d090 5d3c 429c b1bd 0775 dc3d d67d 3a3e
00000290: 007d 583e bf3d 3dbc 39c4 84be 5643 fb3d
000002a0: 15a5 08be f9a7 3b3e 23ed 10bf 41ec 163d
000002b0: 241b 943c 983c af3e bcf0 cf3c 8665 363f
000002c0: 9680 59bc 75fd 14be 629d b9be e224 633e
000002d0: ee48 5f3e fe07 d63e 37d7 f7bd 1712 81b9
000002e0: dae6 8abd 5539 ac3e 7dcb 1e3e e2c7 50be
000002f0: a051 38bd 00f1 4b3e c707 28bd f192 40be
00000300: 9273 10be 8f7b 33be bc5d 6fbe 842a eb3b
00000310: f6ac 543e ab2f 0abf 6bca 0ebe a88f edbe
00000320: 740a 223e 4624 7e3e a18a 1ebf 4327 95be
00000330: ce93 0a3e 28cb a33d 4078 d23d f60a 3abe
00000340: c72f 183d 7260 2cbd d9e4 b43e d5cc 0abe
00000350: 8756 a1bd be1e 933e 8a37 d2be a3d3 99bc
00000360: b88c f1be 0dfc 493f fe53 933e 8d9c ad3e
00000370: be0e 923e 0b60 aa3d 816d b63e 4ada 8abe
00000380: 36d6 95be f14d 50be a914 073e 5912 803d
00000390: e24f 413d 3054 cd3d d269 903c e2f4 cc3e
000003a0: d7a3 d9be 54d1 eabe e5d8 c63c e68a f43d
000003b0: b8ee 9dbe 2e5c 223e 5942 dc3d 81d1 f3bd
000003c0: 0e44 c8be d69f 5a3e 4a61 28be 897d a4be
000003d0: dd17 7bbd d6a9 46be 600c 8cbd 483c 463e
000003e0: 3f0c 173e c386 0cbe b412 ae3d e797 f63c
000003f0: 83de ddbd 75d3 57be d2b1 5ebe 049d fabd
-0.37440047 0.07809691 0.55828536 0.08666447 -0.1781766 0.2944412 0.17664702 0.24734408
-0.14467913 0.100318596 0.018274754 0.07717814 -0.4596579 -0.27695915 -0.085763805 0.106733665
0.017728226 0.021990886 0.02484864 -0.31026384 -0.12484472 -0.32205135 0.00095379865 -0.41938263
-0.15606399 -0.063872114 0.017898526 -0.020235429 -0.2051737 0.11039349 -0.19679749 -0.21526739
-0.07558537 0.19164555 0.0425174 0.3411813 -0.14604156 0.15300165 -0.40199462 0.04384696
0.17956437 0.05083568 0.017354086 0.20447992 0.07582664 0.34272665 -0.001704506 -0.13600685
0.042686626 -0.37938347 0.08826886 0.04831878 0.15467308 0.15440543 -0.1563844 -0.20716451
-0.07910564 -0.05659457 0.019725207 -0.028100478 0.10225078 0.08790036 0.48890394 0.39810923
-0.059892856 -0.04992089 -0.3812972 0.3580368 -0.013074071 -0.1724598 -0.14677392 0.15637852
-0.11607744 0.041057836 0.23517378 0.25418398 -0.24297027 0.2090783 0.4205644 0.027497396
0.13710594 -0.24260981 -0.3553692 0.15632959 0.2651672 0.05356252 0.22213252 0.19362408
-0.052044254 0.35469055 0.077725485 0.050134722 0.17649156 -0.076112114 -0.10117536 0.034181703
0.09360388 -0.0839703 0.14226194 -0.3359273 0.1434159 0.19009075 -0.47889906 -0.13582067
-0.27611145 0.022651248 0.00246577 0.06033518 -0.06117733 -0.24620503 0.20132129 0.0034349463
-0.16537091 -0.028105266 -0.033366084 0.15224531 0.19629684 0.17161472 0.24400192 -0.22633244
-0.39379045 -0.22249168 0.18893659 0.33447948 -0.061585993 0.12952231 -0.0036206841 -0.008802733
0.08196471 0.066774584 -0.005523846 -0.24914426 -0.15512165 -0.09093973 -0.21511519 0.4215284
0.40587443 0.278161 0.07784574 -0.42502904 -0.24319789 -0.24191166 -0.008124536 -0.24281615
0.017635498 0.18434158 0.06563749 0.10136311 -0.17884146 -0.04521764 0.022853434 -0.026555566
-0.014640369 -0.036100596 0.25113025 -0.56188256 0.26704922 0.042179435 -0.28572991 -0.077129714
0.0135232955 -0.08672382 0.10764509 0.18212065 0.21141434 -0.011550366 -0.25930956 0.12268703
-0.13344224 0.18325795 -0.5661184 0.036846403 0.018079348 0.34225917 0.025383346 0.7124866
-0.013275286 -0.14549811 -0.36252886 0.22182038 0.21805164 0.41802973 -0.12101596 -0.00024618275
-0.06782313 0.3363749 0.15507312 -0.20388749 -0.04499972 0.19916153 -0.041023042 -0.18806054
-0.14106587 -0.17527603 -0.233756 0.007176699 0.20769104 -0.53978986 -0.13944404 -0.46398664
0.158243 0.24818525 -0.6193028 -0.29131517 0.13532946 0.07997733 0.10276842 -0.18168244
0.03715494 -0.042084165 0.35330847 -0.135547 -0.07877832 0.28734392 -0.41057998 -0.018777674
-0.47177672 0.78900224 0.28775018 0.339085 0.28526872 0.083191 0.3563042 -0.27119666
-0.29264992 -0.20342232 0.13191475 0.062534995 0.047195323 0.10025823 0.017628584 0.4003058
-0.42507812 -0.4586283 0.024273345 0.11940555 -0.3084619 0.15855476 0.10754842 -0.11905194
-0.39114422 0.21350035 -0.16443363 -0.32127026 -0.061302055 -0.19400725 -0.06838298 0.19358933
0.14750765 -0.13723283 0.08499661 0.03010173 -0.10833456 -0.21076758 -0.2174752 -0.122369796

network_body._body_endoder.seq_layers.0.bias f4 [128]
00000000: e705 34bd 7259 863d 977c 363e 0175 0f3e
00000010: 4a21 30be f210 a03d b101 d2bd 1999 493e
00000020: 46ca ecbd e92b 113e 2ef9 d4bd f9b8 013e
00000030: 7e6c 063b edf7 8e3d b82f 88be d9f3 3abe
00000040: 6e68 973e 6b5d 63bd 45c1 e6bc 5b55 673d
00000050: 0fd7 80bd dcd3 0d3d 7641 463e d10b 5dbd
00000060: bf24 4c3d 9495 a03d f099 6f3d 5f4e cfbd
00000070: c2e8 c33d 066c 9ebd d6cf ea3d 4fc6 1cbb
00000080: 1804 cdbd 4b87 003e 5c90 bb3c 751b d73d
00000090: 3688 18be 85b2 423e a2c4 60be 3817 c13d
000000a0: d2ba 2abe 7b9a 8fbd e5f5 103e 69fe 493d
000000b0: 1faf 953d 9a9c 93be 9258 25bd 7847 39bd
000000c0: 4c18 433d b0f0 bbbd 3069 7a3d 89b0 07bc
000000d0: cd8b 57bb 9f82 efbc e6d6 673e caad 823d
000000e0: 56af e2bd 91a2 3dbe cf3a b63d fa7e 36be
000000f0: 2f20 a33d 15de f0bc 5e4f 09be 02e1 96bd
00000100: 9362 a5bd 65d8 82bc a18e 013e 2281 b23c
00000110: 38eb 97bd 559e 693e 349d ce3c 8ab4 533e
00000120: 6c36 a2bd c91d 903d 32db 67bc 3645 243e
00000130: 87fc 50be 0682 e9bd 7891 e8bc 55da aebd
00000140: 1f5b 04be 4f30 753c 4ac8 443e 009e 3bbc
00000150: f796 4fbe 7fdd a5bd 9538 77bc b757 813d
00000160: 3ddb 80bd 89d9 53be c34a 34be ba26 c53c
00000170: a222 e43d 50df a33e e818 5c3e caaf 883d
00000180: 20f4 8ebd 0495 ec3d 6663 3ebe f63a 393e
00000190: fd86 32be 4630 0d3e 8a42 cbbd 2e09 a13d
000001a0: 754c 88bd 1e77 40be 9729 433c e962 22bd
000001b0: 2e76 67bc c42d 4e3d b056 f63d f3b0 e2bd
000001c0: b541 bfbc eff5 5bbd f506 e4bd a229 0c3d
000001d0: 7088 73be cf54 9abd 044a bdbd 235d 543d
000001e0: 3e4f 1ebd 721f 9a3c 7687 773e 2635 8cbb
000001f0: 1c7f 11be cf44 a3bc e25a 083c 75bc 5f3e
-0.04395094 0.06560029 0.17820965 0.14009477 -0.17200199 0.07815732 -0.10254229 0.19687308
-0.11562018 0.14176907 -0.1039909 0.12668218 0.0020511444 0.06980882 -0.26598907 -0.18257083
0.2957186 -0.055509012 -0.02816833 0.056477886 -0.06291019 0.034625873 0.19360909 -0.053966347
0.04983973 0.0784103 0.058496416 -0.1012237 0.095658794 -0.077354476 0.11465423 -0.0023921912
-0.100105464 0.1255161 0.022895984 0.10503284 -0.1489571 0.19013412 -0.2195001 0.09428257
-0.16672829 -0.07011887 0.14156301 0.04931489 0.07308792 -0.28830415 -0.04036767 -0.045234174
0.047630593 -0.09176767 0.06113547 -0.008281835 -0.0032889724 -0.02923709 0.22640571 0.06380804
-0.11068599 -0.18519045 0.088979356 -0.17821875 0.07965123 -0.029402772 -0.13409182 -0.073671356
-0.08075442 -0.015972326 0.12652065 0.021790091 -0.07417911 0.22814305 0.025221445 0.20674339
-0.079205364 0.07036931 -0.014151381 0.16042027 -0.20408832 -0.11401753 -0.028389677 -0.08537737
-0.12925385 0.014965131 0.19217029 -0.011451244 -0.20272432 -0.08098888 -0.015089174 0.063155584
-0.062918164 -0.20688452 -0.17606644 0.024066318 0.11139418 0.3200631 0.21493876 0.06674154
-0.06980157 0.1155186 -0.18592605 0.18088898 -0.17434306 0.13787946 -0.09924801 0.07863079
-0.06655208 -0.1879544 0.011911771 -0.03964511 -0.014127297 0.050336614 0.12028253 -0.11068907
-0.023346761 -0.053701337 -0.111341394 0.03421939 -0.23782516 -0.07535707 -0.09242633 0.051846635
-0.03864979 0.018813822 0.24172768 -0.0042787967 -0.14208645 -0.019930271 0.008322449 0.21849234

network_body._body_endoder.seq_layers.2.weight f4 [128, 128]
00000000: 80c1 b93c 8a56 48be 1d2a cb3c 4038 04bd
00000010: 444a 5fbc 3880 ac3d 8d13 c1bd 823d 403d
00000020: 4e4f aa3d 9849 653c b83d 3bbe c26a d2bc
00000030: 471d d8bd 0228 51be 7437 ebbc 6f3b ca3d
00000040: bad8 b6bd adcb f7ba 26b5 ddbd e0a4 d83c
00000050: 735a 0d3e b2f1 aebd 7bdf b7bd e091 ca3c
00000060: f2a0 dbbc f63b ebbd 67ac 0abe a2ff ec3d
00000070: 7173 7a3d 90bc 9dbd 19b8 9bbd 17ab 72be
00000080: 2f61 8f3d 7ff8 93bd cccd 81bd 55e3 ebbc
00000090: 1189 a7bd 1f94 39be a469 e33b 8354 28be
000000a0: b331 99bb 94be 2b3d 4bf1 0e3c 62e0 1fbb
000000b0: 272b 173d 5f87 e5bc 54d0 dbbd 1052 833d
000000c0: c554 9e3c 58de 17bc 0bcc 5ebc d258 da3d
000000d0: bf5b c83c 87cd a03d 43db 59be 0026 01be
000000e0: e476 93bd 809d a53d 9509 73bc a5e5 b5bc
000000f0: 66b2 59be 38c7 54bd 46d9 9d3c 8f96 5f3d
00000100: 9da3 01bd 00b7 fcbd 237f b9bd 7002 803d
00000110: 9b18 843c 77e9 c1be 49ae cd3d b8a9 a43d
00000120: afc5 ae3d df34 aa3c 9172 2a3e cd4d a3be
00000130: 372d 4a3c 2615 ffbd 0dd5 1bbe 9af4 bd3d
00000140: a8fd 323e e6c6 2e3d aaa4 05be 6132 f33c
00000150: 03ee b0bc fd57 cf3d 7b34 8cbd 29c6 5bbd
00000160: 6c22 863d b90d 80bc 8143 11bd 0a8d c8bd
00000170: 1a03 b9bd 58cf 85be 8d39 e1bd 84a1 b3bd
00000180: c375 ae3d c68a e8bd 4b11 1ebe 2239 4abe
00000190: 6339 8dbd f650 afbd 1a73 99bd bb1a d63d
000001a0: 51b5 cabd 964d 5dbe 1b71 74bd 76fe 053d
000001b0: b298 83bd c86b bebc 9a99 b3be 23a9 efbd
000001c0: 5ba0 453d bbf7 8b3d 9b0c b2bd 461f 06ba
000001d0: 3456 0cbe aa8b 323d ecf3 93bd 805d 68be
000001e0: be7e a9bc ff4e 25be ad7d 01be 3878 d1bd
000001f0: 068e 0d3d 1498 f0bd 56d5 5dbc 883d 4dbe
00000200: edfe a0be ed75 fd3d 71f1 573d 91c7 b33d
00000210: cb49 f03d 1cc0 fb3c e221 e13c 75ce c7bd
00000220: b089 48be 9675 ee3d 3c21 7f3d ce92 9e3d
00000230: 1a5e b5be e7c3 a03e c4c4 a1bd d4af 24be
00000240: 950e 9b3d 6347 d03d dfda debd 8eff 07bd
00000250: 7e47 6b3c 8a01 9fbd d508 23be a8f2 903d
00000260: 510c ae3d dad5 02be a258 abbd 3905 683d
00000270: bf0b 2a3e 01fa 22bb 6f85 713d 129f ecbd
00000280: c8cc c4bc 7290 c73d 34bb b53d 5274 51be
00000290: 243f 78be 14df 32be a57b 28be 9321 b8bd
000002a0: 2ade 88bc 72e9 b5bd 0af0 fd3d d554 793c
000002b0: 082c 6937 25d3 95be bb02 b43c 9600 ae3e
000002c0: a185 e7bd aac0 83bd 4fb1 8bbe ca6c a83d
000002d0: cdcf 1b3e e673 bebc 560a 0c3e e788 8a3d
000002e0: c1fd f0bc 0945 d83d 3bb5 833e 6887 59be
000002f0: 6f6b 663d 1b95 ccbd 7caf 8c3e 58e9 54bd
00000300: 2174 873d 1b75 803e 95bd 463d 91aa 1e3d
00000310: 99e6 e5bd ea22 683d 4899 443c cd2a 6f3c
00000320: c4fe d93d 47f0 1a3e 9af0 883c 4da4 3e3c
00000330: 5a28 91bc fd5b b5bc ddbc d23c 1545 65bc
00000340: d563 8abc 985b 233e c27a 11bc 5b89 b43c
00000350: b8b1 d8bd 7980 9a3e 7dc3 663e 49b7 86be
00000360: afa7 97bc 76e1 86bd a049 a03d 9eb3 d53d
00000370: 7659 433b ad02 1a3e 7028 863d 4c4b e93d
00000380: 0fbb e23d 9ac1 6f3e ca7c bf3d e825 5dbe
00000390: 2bbe f53d b80f 443e c32a d93d ac46 233c
000003a0: 7d75 e53d c894 8e3e 5b06 9cbe 1276 793d
000003b0: 3ae7 fe3c 2065 973d d66c 09be 55d9 2abd
000003c0: 9682 02be 14ee 853d 9914 0cbe 0579 943d
000003d0: 3590 033e b192 243d 9691 953c 580e e73d
000003e0: 1280 8a3c 3d51 94bc 18d2 e53d 036e 37be
000003f0: 7b22 21bd ab79 9f3d 446c ea3d d51f c53c
0.022675276 -0.19564262 0.024800355 -0.032280207 -0.013628546 0.08422893 -0.09427557 0.04693366
0.083159074 0.013994597 -0.18285263 -0.025685672 -0.10552459 -0.20425418 -0.028712966 0.09874617
-0.08928056 -0.0018905305 -0.10825567 0.026445806 0.13804035 -0.085421935 -0.089781724 0.024727762
-0.026810143 -0.11486046 -0.13542329 0.115721956 0.06114525 -0.07701981 -0.07603473 -0.23698078
0.07000958 -0.07225131 -0.06338081 -0.028794924 -0.0818044 -0.1812291 0.0069400836 -0.16438489
-0.004675114 0.041929796 0.008724521 -0.0024395217 0.036906388 -0.028018652 -0.10733095 0.064121366
0.01932753 -0.0092693195 -0.013598452 0.106614724 0.02445781 0.07851701 -0.21275048 -0.12612152
-0.07200411 0.08086681 -0.0148338275 -0.02220423 -0.2125946 -0.051947802 0.019268643 0.054586943
-0.031650174 -0.12339592 -0.090574525 0.06250465 0.016125014 -0.37873432 0.10043008 0.08040184
0.08533799 0.020777164 0.16645266 -0.31895295 0.012339882 -0.124552056 -0.15217991 0.0927517
0.17479575 0.042670153 -0.13051096 0.029687108 -0.021597868 0.10124204 -0.06845947 -0.053655777
0.06549534 -0.015631543 -0.035464767 -0.09792526 -0.09033795 -0.26134753 -0.10997305 -0.08771041
0.08518555 -0.11354594 -0.15436284 -0.19748357 -0.06895711 -0.08560364 -0.07492657 0.10454317
-0.098978646 -0.21611628 -0.05967818 0.032713376 -0.06425609 -0.023244753 -0.35078126 -0.11702182
0.04824863 0.0683436 -0.086938106 -0.00051163544 -0.13704759 0.043590225 -0.07224259 -0.22691917
-0.020690318 -0.16143416 -0.12645598 -0.10228008 0.034559272 -0.117477566 -0.013539633 -0.20043004
-0.31444493 0.12376008 0.05272049 0.08778299 0.11732825 0.030731253 0.027481977 -0.097561754
-0.19583774 0.116435215 0.062287554 0.077428445 -0.35423356 0.31399462 -0.07898858 -0.16082698
0.07571141 0.10169866 -0.1088159 -0.0332027 0.014360307 -0.077639654 -0.15921338 0.07077533
0.08498443 -0.1277689 -0.08366515 0.056645606 0.16606043 -0.0024868252 0.058965143 -0.11553778
-0.024023429 0.09744348 0.08873597 -0.20454529 -0.24242836 -0.1746791 -0.16453417 -0.08990779
-0.016707499 -0.08882417 0.123992994 0.015217979 1.3898134e-05 -0.29262653 0.021973958 0.33984822
-0.113047846 -0.06433232 -0.27283713 0.08223875 0.15215988 -0.023248624 0.13675818 0.06764393
-0.029417874 0.105600424 0.25724205 -0.2124306 0.0562548 -0.09989377 0.27477634 -0.051980346
0.06613947 0.25089344 0.048520643 0.038736884 -0.11225624 0.05667392 0.011999436 0.014597607
0.10644296 0.15130721 0.01671629 0.011635852 -0.017719436 -0.02213859 0.025724823 -0.013993521
-0.016893307 0.15952909 -0.008879365 0.022038152 -0.10580772 0.30176142 0.2253551 -0.2631171
-0.018512575 -0.06585972 0.07826543 0.1043465 0.0029807962 0.15040083 0.065506816 0.11391315
0.11070835 0.23413697 0.093499735 -0.21596491 0.11999162 0.19146621 0.10603859 0.00996558
0.1120405 0.27847886 -0.304736 0.060903616 0.031116117 0.07392335 -0.13420424 -0.04171117
-0.12745127 0.065395504 -0.13679732 0.07249645 0.1284798 0.04017896 0.018257897 0.11282033
0.016906772 -0.018105144 0.11221713 -0.1791306 -0.039339524 0.07786878 0.11446431 0.02406303

network_body._body_endoder.seq_layers.2.bias f4 [128]
00000000: 93cc 39be 4c41 be3d 6483 34be a82c d63a
00000010: 449b 213c 425b d1bc f507 bd3b b3e6 903d
00000020: d6f7 41be 175b f4bd 0a44 3abc 9956 acbd
00000030: 3f36 a8bd 9f09 6fbe 1291 2bbe a9ed 0dbd
00000040: 361b 2dbe c388 7cbd 785e b83d eb80 51bb
00000050: 57a7 0cbe 8f16 fbbd 742e 0abf 77d6 06be
00000060: b31c f2be 53d7 143d d903 bfbd ea62 2cbd
00000070: 2c66 c23c b9bc b7bd 5c5a 483e 8815 f7bd
00000080: 283a 433e df6b 49bd 9243 97bd c111 0f3d
00000090: 408a 6bbe 88d0 6b3b be67 23bd f924 e1bd
000000a0: 0c65 6ebd c400 b9be cf7e babd b0c1 fabe
000000b0: 17d5 d43c 696d 503e e1d8 333d 9d59 fbbe
000000c0: 8bb7 1ebd 3338 27be 419d 6a3d 8f34 32be
000000d0: c608 9d3d 5c6c 0b3d e32e 97bd 0763 0fbe
000000e0: 21c1 09be 261d 473c 1af3 543b 780e 2fbe
000000f0: 5834 093e 4a9e 89be 43a4 a6bd 6bb9 f5bd
00000100: 7de8 643e 897e 81bd a503 debd 9317 78bd
00000110: 6715 a2bd e52b 2c3d 64a7 1dbd f15c 4c3c
00000120: 0049 673d c6e5 733d 9c33 10be 55d9 f23d
00000130: 3a6b 92bd 800d 4b3d 904f fcbd d114 bfbd
00000140: 3883 ebbd 3eef 0dbe ca1f 68be cde6 a4be
00000150: 68fd d83d 35b1 11be 4c15 adbc 613c a33d
00000160: fc7e bdbd b838 2e3d 6eff d5bd c614 2bbd
00000170: 07d9 95bd 0440 02be 4715 14bc b2a3 b7be
00000180: 0b4c 96bd dd09 b0bd 3b7c 32bc ff77 8abe
00000190: 41c5 273d 1b5c 3f3e 9726 373e 93fd 20be
000001a0: 6046 87bd 6123 cbbe 91d5 c43d b760 9f3d
000001b0: ef7b 03bd 329c 5d3d 6db0 76bd 6e31 29be
000001c0: d838 183c 147b 153e abe0 b23c 1962 c73d
000001d0: ce35 a1be f385 ddbe c7f9 61bd e811 0fbe
000001e0: c76a 5abd 7828 86be 763a cb3d 367a 593d
000001f0: 705c 4f3e 20c6 033e 994e 23bc 597b b0bc
-0.18144445 0.09289798 -0.17628247 0.0016340213 0.009863678 -0.02555621 0.005768771 0.070752524
-0.18942198 -0.119314365 -0.011368761 -0.08414955 -0.082134716 -0.23343514 -0.16754559 -0.03465048
-0.16904911 -0.061653864 0.090023935 -0.003196771 -0.1373571 -0.12260162 -0.5397713 -0.1316775
-0.4728752 0.03633816 -0.09326906 -0.04208652 0.02373036 -0.08971543 0.1956572 -0.12064654
0.19065154 -0.04917514 -0.07385935 0.03492904 -0.23001957 0.0035982449 -0.039893858 -0.1099338
-0.058201835 -0.36133397 -0.09106218 -0.48975897 0.025980515 0.20354237 0.043908004 -0.49091807
-0.03874926 -0.16330032 0.057278875 -0.17402862 0.07667689 0.034038886 -0.0738199 -0.1400262
-0.13452579 0.012152946 0.0032493533 -0.17095363 0.13398874 -0.26878577 -0.08136799 -0.11998256
0.22354312 -0.06322963 -0.10840539 -0.060569357 -0.079142384 0.04203405 -0.038489714 0.012473331
0.056466103 0.0595453 -0.14082187 0.11857859 -0.07149358 0.04957342 -0.12319863 -0.09330142
-0.11499637 -0.13860795 -0.22668377 -0.32207337 0.105952084 -0.14227755 -0.02112832 0.07970501
-0.09252736 0.04253456 -0.1044911 -0.041767858 -0.07316785 -0.12719733 -0.009038276 -0.35867077
-0.07338723 -0.08595631 -0.010893877 -0.27044675 0.0409596 0.18687479 0.17885815 -0.15721731
-0.0660522 -0.3967543 0.09611047 0.07782119 -0.032100614 0.054104038 -0.060226846 -0.16522762
0.009290896 0.14597732 0.021835646 0.097355075 -0.31486362 -0.43266258 -0.055169847 -0.13971674
-0.053324487 -0.2620275 0.0992326 0.053095065 0.20250106 0.12868547 -0.00996747 -0.021543192

action_model._continuous_distribution.log_sigma f4 [1, 3]
00000000: 174a c6bf eaa1 77bf 6d07 72bf
-1.549136 -0.96731436 -0.9454258

action_model._continuous_distribution.mu.weight f4 [3, 128]
00000000: 71a2 f2bc 7a30 073d 9ced e83c 6ec2 63bb
00000010: 9bc7 edbc bd42 1b3a 2f6c 4e3b c906 ec3d
00000020: d1ca 50bc a834 74be 40e0 183c a180 85bd
00000030: e918 c4ba 7054 c5bd ab7d 21bc fbab 93bc
00000040: 8548 89bc 9e55 04bc 6cfc 05bd a472 423c
00000050: f19e 82bc 416c 8bbd a4de 49bd 3091 39bd
00000060: 8fe0 a9bd f5c0 263d c148 15bd 3538 1d3a
00000070: d2bc 81bc 7043 ae39 4190 083d f7fc a4bc
00000080: 468c c2bb c2da e8bb c137 febb 6617 83bc
00000090: 9b81 24be 988d dd3b 5e2d 433c 4a42 ad3b
000000a0: 1082 c8bb 2933 f7bd 5053 4ebe 2fa3 cfbd
000000b0: f021 043b 1c28 1a3d 2026 7f3b 62b9 bcbd
000000c0: 138e b3b8 61db 80bd e65e 44bd 8afc 53bd
000000d0: 2971 49bb 61c1 69bd d5aa ce3d 3108 70b9
000000e0: d2f4 68bc ab3b c8bd 9321 46bc db6d 6bbd
000000f0: f3d8 403d 7a8e 2c3d bd50 07bc 0066 aabc
00000100: 0324 5c3a 33f4 b13c 0e2d 0cbd 2710 b23a
00000110: fcaa a5ba 2cb4 a03d c51f babc a8bc 353c
00000120: 8ecf 53bd 96e3 623b 86a6 07bb adf1 383d
00000130: 684e 27bb a6bf 39bd 94de 8dbc 75cb 143b
00000140: a3be 49bc 9175 aa3a c70f 30bd 9db0 13be
00000150: 9ee8 4ebc 023f f2bc 1ff6 983b cb5b 3ebd
00000160: f4ae d93a 50c6 a0bb 7eae 1e3a b5bf 78bc
00000170: 9977 35bd 6da5 07bd ae2b 3f3b ecf2 60bd
00000180: 57b4 48bb 3ec0 88be 76a7 9abb d68d 8abd
00000190: 7be1 00be 953f bf3b 4deb c23c d9af abbc
000001a0: 00c4 6136 b80c f0bc d44b 0dbc a92f 0c3d
000001b0: 2db7 a23d 9ef2 6b3d 4706 34bc cee8 77bb
000001c0: faff 5d3c d21a da3c 0952 25bd e70d 7bbc
000001d0: 7543 93bd b196 d1bd cf58 02bd 34ea b7bc
000001e0: c9ec 21bd ecd8 febd b722 413c ee47 86bc
000001f0: 7438 c53d cdd5 e8ba f71a a4bd 2ffb 12bc
00000200: f091 20be 4380 b13d cf57 9e3c cda1 cbbd
00000210: fc3b 4dbd 1d37 65bc ef18 4b3c 4f70 b33d
00000220: 7340 0ebd 866e 42bd dc42 b83b ecd8 d9bd
00000230: 41d6 9ebd 79c3 acbd 7448 0fbd 4a55 19bd
00000240: e491 aabd b71f 323c e22a bf3c f7ca cb3c
00000250: e11b 04be c389 1ebe 13d1 0bbe c6e0 00be
00000260: 780e f3bd 16f8 0ebd c543 07be ad38 ac3b
00000270: 1f72 8cbd 4b9b 2e3b 1d7a 1a3e c487 08be
00000280: c00a 1b3e 2e3f 3939 30d2 0dbc bd0a b7bd
00000290: 80af dd3b cf5f 19bd 6ae1 3a3c a583 ccbb
000002a0: 3c2a 233a 05a3 e5bd 7750 403d 4766 12be
000002b0: 7f6b 1e3c 9a0b c23d 3bd0 573c 2a21 3fbe
000002c0: 750e 8b3b fbc0 c7bb ee1c afba e509 26be
000002d0: 62ba e93b 8762 253e b748 9e3d 8c0f 883b
000002e0: ff07 17be 5dfb 193e ffab 5dbd 805d 2fbe
000002f0: 34cf 0d3e 936f 1dbe d341 babc e5d3 a9bd
00000300: 4521 e83d 9d98 bb3c 5ba1 dfbd f94b 0abc
00000310: 7693 23bd c955 123d 0bc3 8ebb e13b b43c
00000320: fa89 813d 734a 0a3c 573a 2f3b 6c23 4c3d
00000330: b1cc e13a 9a2e 463e ec33 63bd 0d2b 243b
00000340: 2be1 04be 7928 4c3b 2b09 a7bd a4a6 8abd
00000350: 3ef4 13bb 3d12 88bc e8f9 a63c 2853 6c3d
00000360: 2c5b 453c 4893 b6ba b936 643b 519e eebd
00000370: 482d 443e d9c6 02be fefd e73b 616f edbd
00000380: 7965 09bb 4c6a cfbc ec30 7b3c a76a 7fbc
00000390: ec5c 983e a53f ce3d 5e55 0f3d 439c 0dbe
000003a0: ce49 083c 7c9f 1abe 68de cebd 45b8 48bd
000003b0: f7ec 003e 6e48 fb3d 2bc3 0fbd 97f3 6ebb
000003c0: 92f7 b6bd 83d6 0a3c 341f a8bc e8d9 3ebd
000003d0: efc8 c0bc b3ee bdbd bb57 bbbd fe2c b3bd
000003e0: e1b2 f0bd 4d8c 453d 7295 143e 50b5 16bc
000003f0: dd94 2e3e 5dec 933a ce1a 6b3e 1847 a9bc
-0.029618474 0.033005215 0.028433613 -0.003475334 -0.029025843 0.00059227255 0.0031497588 0.11524732
-0.012743668 -0.23848212 0.009330809 -0.06518675 -0.0014961037 -0.09635246 -0.009856622 -0.018026343
-0.016758213 -0.008077053 -0.03271143 0.011868153 -0.01594493 -0.06807757 -0.049284592 -0.045304477
-0.08294784 0.040711362 -0.036446337 0.000599745 -0.015837107 0.0003323811 0.033340696 -0.020140154
-0.005937132 -0.007106156 -0.007758111 -0.016002368 -0.16065066 0.006761264 0.011912672 0.0052874433
-0.0061190203 -0.12070305 -0.20148969 -0.10138547 0.002016183 0.037635908 0.0038932636 -0.092150465
-8.5618485e-05 -0.06291843 -0.047942065 -0.051754512 -0.0030737615 -0.057069186 0.100911774 -0.00022891235
-0.014218526 -0.09777006 -0.012092966 -0.057477813 0.0470819 0.042128064 -0.008258996 -0.02080059
0.00083977 0.021722889 -0.034222655 0.0013585136 -0.0012639458 0.07846865 -0.022720227 0.011092342
-0.05171161 0.0034620515 -0.002069862 0.045152355 -0.0025528912 -0.045348786 -0.017318048 0.0022704278
-0.012313518 0.0013005008 -0.042983796 -0.14422841 -0.012628702 -0.02957106 0.004668012 -0.04647426
0.0016607926 -0.004906453 0.0006053223 -0.015182425 -0.04430351 -0.033116747 0.0029170322 -0.05491917
-0.003062507 -0.2670917 -0.00471967 -0.06765334 -0.12586014 0.005836437 0.02379384 -0.020957874
3.36417e-06 -0.02930294 -0.008624036 0.03422514 0.07945094 0.057604425 -0.010987825 -0.0037827971
0.013549799 0.026624117 -0.040361438 -0.015323139 -0.07190601 -0.1023382 -0.031822976 -0.022450544
-0.039532457 -0.12443718 0.011788062 -0.01639172 0.09629908 -0.0017763913 -0.08012956 -0.00897102
-0.1568067 0.08667042 0.01932898 -0.099429704 -0.050106034 -0.013990191 0.012396081 0.087616555
-0.034729432 -0.047468685 0.0056232046 -0.10637078 -0.077557094 -0.08435721 -0.034981206 -0.037434854
-0.08328608 0.010871819 0.023335878 0.024877055 -0.1290126 -0.1548224 -0.13653974 -0.12585744
-0.11867994 -0.034904562 -0.13209446 0.0052557797 -0.06857704 0.0026642855 0.15085645 -0.1333304
0.1514082 0.00017666511 -0.00865607 -0.08937595 0.006765306 -0.037444886 0.011406282 -0.006241279
0.000622425 -0.11212734 0.046951737 -0.14296828 0.009669184 0.09474869 0.013172205 -0.18664995
0.004243667 -0.006096003 -0.0013360062 -0.16214712 0.0071328143 0.16150866 0.07728713 0.004152244
-0.14749144 0.15037294 -0.054119106 -0.17125511 0.13848573 -0.15374593 -0.022736466 -0.08292369
0.11334471 0.02289992 -0.10919448 -0.008440965 -0.03993555 0.035726342 -0.004356747 0.022001209
0.06325145 0.008440602 0.0026737654 0.04983847 0.001722714 0.19353715 -0.05546944 0.0025050074
-0.1297652 0.0031152053 -0.081560455 -0.067700654 -0.0022576 -0.01661026 0.020382836 0.05769649
0.012045663 -0.0013929391 0.0034822656 -0.1165129 0.19157898 -0.12771167 0.007079839 -0.115935095
-0.0020965023 -0.025319241 0.015331488 -0.015589393 0.29758394 0.10070733 0.034993522 -0.1382914
0.008318378 -0.15099901 -0.101010144 -0.049003858 0.12590395 0.12269674 -0.035098236 -0.0036461109
-0.08933939 0.008473995 -0.020522691 -0.04659453 -0.023533313 -0.09274044 -0.09147593 -0.08748816
-0.117528684 0.048229504 0.14510134 -0.009198502 0.17048974 0.0011285652 0.22959444 -0.020663783

action_model._continuous_distribution.mu.bias f4 [3]
00000000: 7e1d c93d cc39 8c3e 891e 273d
0.09820078 0.27387846 0.040800605

onnx::Div_51 f4 [22]
00000000: a825 3c3d 1675 1f41 4a1c 633d 826f 1f41
00000010: 632d 8e3d cb72 1f41 0f03 b33d 2781 1f41
00000020: a7f5 dc3d 769d 1f41 bf14 033e 52c9 1f41
00000030: 1f22 143e ad01 2041 52e0 1f3e 6e42 2041
00000040: ce88 223e ff83 2041 1e1c 1c3e fcc0 2041
00000050: c9c6 0f3e 5cea 2041
0.04593435 9.966085 0.0554469 9.964724 0.069422506 9.965526 0.08740818 9.969031
0.10789042 9.975943 0.12800883 9.98665 0.14466141 10.000409 0.15612915 10.016218
0.158725 10.032226 0.15245101 10.047115 0.14040674 10.057217
