results/random/3DBall/3DBall-1999809.onnx (onnx, 84847 bytes, 9 tensors)

network_body.observation_encoder.processors.0.normalizer.running_mean f4 [22]
0.00023102229 1.8141248 0.00036603422 1.8227572 0.0005785556 1.8278579 0.0008665825 1.8295362
0.001146614 1.8287505 0.0014586393 1.8257549 0.0017491668 1.820038 0.0018756781 1.8100513
0.0018106732 1.7931868 0.0015836454 1.7689939 0.0013636267 1.7416404
00000000: 933e 7239 3e35 e83f 48e8 bf39 1c50 e93f
00000010: 36aa 173a 3ff7 e93f 5e2b 633a 3e2e ea3f
00000020: fb49 963a 7f14 ea3f d02f bf3a 56b2 e93f
00000030: 4c44 e53a 01f7 e83f 50d9 f53a c3af e73f
00000040: 1c54 ed3a 2587 e53f 5292 cf3a 646e e23f
00000050: b8bb b23a 13ee de3f

network_body._body_endoder.seq_layers.0.weight f4 [128, 22]
0.017381404 -0.06479874 0.24082859 0.28297478 -0.290056 0.27712366 0.12290997 -0.15278158
-0.17896539 -0.17577508 -0.15920624 -0.04187543 0.09209907 -0.0846894 -0.0039030816 0.2386286
0.24273758 -0.13610037 0.0909342 0.060999904 -0.18151706 -0.0486685 0.3358582 -0.11961754
0.29697153 0.2804023 0.40496674 -0.112506084 -0.24376252 0.053515885 0.046226837 0.01125629
0.27033523 0.077105954 0.09815937 -0.26780084 -0.00029775593 -0.21944426 0.27418756 -0.065930635
-0.0018429025 0.19110458 -0.19115825 0.064708196 0.32015657 -0.14310226 -0.05740553 -0.3895304
-0.015206091 -0.00055917964 -0.15978591 0.10170161 -0.11356295 -0.36710685 -0.32400227 0.09257125
-0.14699163 0.038736027 0.20330818 0.23356651 0.33003095 0.12220901 -0.08610405 0.09521522
0.17698167 -0.032243147 0.10214664 0.015324302 0.078659385 0.22986044 0.17948094 -0.2803585
-0.11129476 -0.06352293 -0.25651354 0.25705692 -0.007946056 -0.44216618 -0.16037242 0.23032103
0.148993 0.06240436 0.22968945 0.15982644 0.0767935 0.0486344 -0.25450408 -0.17047685
0.41890886 0.098574884 -0.26029736 0.21460566 0.22446705 -0.090629324 -0.31831744 -0.070202954
0.11520273 -0.21294944 -0.0001086355 -0.0044773314 0.08952462 0.2850632 0.22954352 -0.36845863
0.089342736 0.030028129 0.17699412 0.17288578 0.21263006 -0.20035695 -0.1572283 -0.113783956
-0.22671294 0.3094743 -0.032295737 -0.028188657 -0.35201582 -0.24687375 0.1045541 -0.22196156
0.20041923 -0.16020223 -0.034106363 -0.018035866 0.13590045 0.07758188 0.4143399 0.05419259
-0.30085427 0.10718992 -0.040230773 -0.21638857 -0.062333763 0.11890859 -0.036481738 -0.23749354
0.2923597 -0.0660969 -0.21319444 -0.1520641 0.3213543 -0.10229747 0.1394328 -0.0054065147
0.3160051 0.34944835 -0.5000665 -0.016015299 -0.19153555 0.14239076 0.25441498 -0.061292727
-0.090377286 -0.1570124 0.40724483 0.14920406 0.37548018 0.020187601 -0.043269027 -0.14833488
-0.2652139 0.05838851 0.072695985 -0.12929484 0.24511734 -0.07519096 0.20463516 -0.20234413
0.07371779 0.10047372 -0.18572716 0.14952539 -0.18262994 -0.14762555 0.2121028 -0.04857329
-0.15383358 -0.31300887 -0.17530133 0.3042624 -0.29335815 0.23296048 -0.017503515 -0.060195405
-0.26088303 -0.3424349 -0.026663695 0.090662815 -0.12380037 0.14864416 0.035672158 -0.2244682
-0.18168472 -0.41044512 0.41688493 0.25853276 0.26195446 0.19531108 0.20353577 -0.5231981
-0.006664102 0.08890482 -0.049344163 0.12556332 -0.14043981 -0.07607768 0.33614865 -0.37312877
0.2509916 -0.18092161 -0.13173686 -0.021259291 -0.1842834 0.391687 -0.058750317 -0.07452409
0.27068794 0.39312103 0.42032793 0.1408061 0.45271653 -0.047721542 0.1492031 -0.11084187
-0.14995971 0.048133053 0.06976407 -0.45502427 -0.12788035 0.0107906945 0.34474942 0.092518866
0.27825534 -0.2765301 0.095623285 -0.40051183 0.10182828 -0.09025318 0.094998315 -0.070381925
0.066854954 0.07853623 0.54415184 0.06158137 -0.21830967 0.05751317 0.018589905 -0.38090625
-0.19525103 0.010968383 0.075328015 0.15201662 -0.052085306 0.40989485 -0.27826577 -0.36460596
00000000: 7263 8e3c 34b5 84bd c59b 763e 12e2 903e
00000010: 3882 94be 27e3 8d3e 39b8 fb3d c672 1cbe
00000020: b442 37be 62fe 33be f606 23be 9285 2bbd
00000030: 709e bc3d a371 adbd d8ca 7fbb 0e5b 743e
00000040: 3390 783e e55d 0bbe b63b ba3d 09db 793d
00000050: 9cdf 39be 9f58 47bd 9bf5 ab3e 0afa f4bd
00000060: a70c 983e e490 8f3e cd57 cf3e 9769 e6bd
00000070: e29c 79be 7933 5b3d 5a58 3d3d 4d6c 383c
00000080: 6169 8a3e bae9 9d3d c807 c93d 311d 89be
00000090: 201c 9cb9 ffb5 60be 5062 8c3e a406 87bd
000000a0: 8c8d f1ba ebb0 433e fdbe 43be bb85 843d
000000b0: 90eb a33e 6689 12be 1022 6bbd 8770 c7be
000000c0: f822 79bc e995 12ba eb9e 23be ef48 d03d
000000d0: b193 e8bd 6ef5 bbbe a0e3 a5be ff95 bd3d
000000e0: f984 16be aba9 1e3d 0530 503e 0f2c 6f3e
000000f0: d1f9 a83e b848 fa3d 5257 b0bd 3200 c33d
00000100: af3a 353e 6411 04bd 4232 d13d c812 7b3c
00000110: 2c18 a13d 8960 6b3e dac9 373e 268b 8fbe
00000120: 82ee e3bd 4f18 82bd be55 83be f79c 833e
00000130: 2d30 02bc 9b63 e2be ab38 24be 47d9 6b3e
00000140: 9f91 183e b79b 7f3d b633 6b3e 8ba9 233e
00000150: e945 9d3d dd34 473d 5c4e 82be 7c91 2ebe
00000160: 397b d63e a1e1 c93d b245 85be 96c1 5b3e
00000170: b1da 653e de9b b9bd 81fa a2be 91c6 8fbd
00000180: 69ef eb3d 6b0f 5abe 3dd3 e3b8 94b6 92bb
00000190: af58 b73d cef3 913e 750d 6b3e 9ca6 bcbe
000001a0: 53f9 b63d 8dfd f53c f23d 353e f808 313e
000001b0: b2bb 593e 5f2a 4dbe 7500 21be 9007 e9bd
000001c0: 7027 68be 6a73 9e3e 8948 04bd e6eb e6bc
000001d0: 6b3b b4be 79cc 7cbe 7620 d63d e449 63be
000001e0: b33a 4d3e 0e0c 24be 1db3 0bbd f4bf 93bc
000001f0: 7d29 0b3e 40e3 9e3d 5c24 d43e 0df9 5d3d
00000200: 9209 9abe 6486 db3d 06c9 24bd f794 5dbe
00000210: b051 7fbd 5986 f33d e06d 15bd 8231 73be
00000220: 2cb0 953e d05d 87bd a54f 5abe b1b6 1bbe
00000230: 8d88 a43e 5681 d1bd 79c7 0e3e 2229 b1bb
00000240: 6ccb a13e e5ea b23e 5c04 00bf 8432 83bc
00000250: e521 44be e2ce 113e ae42 823e 150e 7bbd
00000260: ba17 b9bd dcc7 20be 6582 d03e f3c8 183e
00000270: f03e c03e 7860 a53c dd3a 31bd 19e5 17be
00000280: 1eca 87be ca28 6f3d a2e1 943d de65 04be
00000290: 0a00 7b3e b8fd 99bd e18b 513e 4d33 4fbe
000002a0: 5af9 963d 2ac5 cd3d 432f 3ebe 2f1d 193e
000002b0: 5803 3bbe 272b 17be 7a31 593e c9f4 46bd
000002c0: 8d86 1dbe b342 a0be 3182 33be 48c8 9b3e
000002d0: 0a33 96be 318d 6e3e 8863 8fbc 758f 76bd
000002e0: 7692 85be a153 afbe d26d dabc 6dad b93d
000002f0: 0c8b fdbd 2d36 183e f81c 123d feda 65be
00000300: 8f0b 3abe dd25 d2be f171 d53e 685e 843e
00000310: e51e 863e a1ff 473e ae6b 503e 50f0 05bf
00000320: 8a5e dabb bb13 b63d 1b1d 4abd ac93 003e
00000330: 74cf 0fbe 9dce 9bbd ad1b ac3e bc0a bfbe
00000340: f981 803e 8443 39be 07e6 06be f727 aebc
00000350: cab4 3cbe 338b c83e 2ca4 70bd 16a0 98bd
00000360: 9c97 8a3e 2947 c93e 3935 d73e 792f 103e
00000370: 76ca e73e aa77 43bd b3c8 183e 1001 e3bd
00000380: 0a8f 19be 2a27 453d 77e0 8e3d f1f8 e8be
00000390: 11f3 02be 74cb 303c ff82 b03e 887a bd3d
000003a0: 7c77 8e3e 5a95 8dbe 24d6 c33d e30f cdbe
000003b0: 588b d03d a9d6 b8bd 7a8e c23d 6624 90bd
000003c0: 40eb 883d 9ad7 a03d 894d 0b3f bf3c 7c3d
000003d0: 928c 5fbe ee92 6b3d db49 983c 2506 c3be
000003e0: e3ef 47be bcb4 333c 9345 9a3d 3faa 1b3e
000003f0: 6757 55bd bddd d13e da78 8ebe a2ad babe

network_body._body_endoder.seq_layers.0.bias f4 [128]
0.0005264 -0.05355749 -0.02380814 -0.06185841 0.005309821 -0.15921046 -0.055442955 -0.06469372
0.049212225 0.04730523 -0.18707766 -0.065042466 0.049945723 -0.05880123 -0.086551115 -0.0896311
-0.06691015 0.11641348 0.03396463 0.1352313 0.2563405 -0.15608233 -0.0046766605 0.016132748
0.14823143 -0.07996262 -0.09821718 -0.0033005388 0.04651439 0.05212134 0.06328318 -0.0984051
-0.17743543 -0.261873 0.15781567 -0.071238264 0.008169093 0.0748915 -0.08682334 -0.087680236
0.014365465 -0.11955329 0.042313654 -0.14394833 -0.01663916 -0.0041756416 -0.065225065 0.08667709
0.15069838 0.061236363 0.041451 0.017659798 -0.058960088 0.080250986 0.035464965 -0.03055072
0.04721815 0.011595086 -0.1569639 0.13873377 -0.027258148 -0.13917576 -0.14921862 -0.041347798
0.11073457 0.06903185 0.021156613 -0.12116028 -0.028127357 -0.09264574 -0.05411098 0.11950167
0.06613207 -0.18461576 -0.11348181 -0.15149891 -0.04882126 0.10855096 -0.04369419 -0.097645104
-0.19608098 0.09239718 0.05282918 0.08495545 0.047269646 0.100356415 -0.17053491 -0.06788924
-0.19237158 -0.014001198 0.03166555 0.010781145 -0.14952476 0.012566593 -0.12925367 -0.01818737
0.19605832 0.07601377 -0.019091418 0.20995767 -0.14515607 0.033369657 0.111112386 0.07909594
0.17454752 -0.044105913 0.011031816 0.05073702 0.15846375 0.009882267 -0.0018390797 -0.0558464
-0.21227078 0.04348684 0.008473976 0.0058337436 0.08190375 0.1993096 -0.14260225 -0.01027721
0.1956922 -0.117399134 0.10795134 -0.0691887 -0.10765569 0.047919795 -0.042482708 -0.043305658
00000000: 1bfe 093a 195f 5bbd 4a09 c3bc 3e5f 7dbd
00000010: 02fe ad3b 1108 23be 2718 63bd 247e 84bd
00000020: c292 493d 21c3 413d 4991 3fbe fc34 85bd
00000030: e393 4c3d 8fd9 70bd b641 b1bd 8390 b7bd
00000040: 3008 89bd 316a ee3d 7f1e 0b3d 137a 0a3e
00000050: 103f 833e 0cd4 1fbe ac3e 99bb d328 843c
00000060: fbc9 173e 71c3 a3bd 1726 c9bd da4d 58bb
00000070: df85 3e3d 307d 553d 9d9a 813d 9d88 c9bd
00000080: a2b1 35be 3814 86be 6e9a 213e 5ee5 91bd
00000090: a9d7 053c b760 993d 6fd0 b1bd b291 b3bd
000000a0: 215d 6b3c 5bd8 f4bd 1551 2d3d 3167 13be
000000b0: d94e 88bc d2d3 88bb b894 85bd c283 b13d
000000c0: ad50 1a3e fbd2 7a3d 86c8 293d 48ab 903c
000000d0: 2280 71bd a15a a43d b643 113d 8145 fabc
000000e0: d267 413d 51f9 3d3c 25bb 20be 3a10 0e3e
000000f0: 7b4c dfbc 1784 0ebe c4cc 18be 4f5c 29bd
00000100: cec8 e23d 9260 8d3d a250 ad3c e222 f8bd
00000110: 586b e6bc 0dbd bdbd 7aa3 5dbd 4bbd f43d
00000120: 4070 873d ea0b 3dbe 2769 e8bd 8822 1bbe
00000130: cdf8 47bd f74f de3d aef8 32bd 28fa c7bd
00000140: 74c9 48be bc3a bd3d 6963 583d 1ffd ad3d
00000150: d19d 413d aa87 cd3d b4a0 2ebe 8409 8bbd
00000160: 0efd 44be 4865 65bc bcb3 013d 66a3 303c
00000170: 051d 19be 1ce4 4d3c 135b 04be aefd 94bc
00000180: 83c3 483e 1cad 9b3d 9b65 9cbc 25ff 563e
00000190: cba3 14be 9fae 083d e48e e33d 0dfd a13d
000001a0: 96bc 323e 67a8 34bd cabe 343c 9fd1 4f3d
000001b0: 5244 223e 3be9 213c 460d f1ba 32bf 64bd
000001c0: 835d 59be 421f 323d 6ed6 0a3c fd28 bf3b
000001d0: 27bd a73d d117 4c3e 5306 12be be61 28bc
000001e0: 8963 483e f56e f0bd 9815 dd3d ceb2 8dbd
000001f0: 967a dcbd 8c47 443d 5902 2ebd 4661 31bd

network_body._body_endoder.seq_layers.2.weight f4 [128, 128]
-0.054511346 0.040070944 0.07768525 -0.09631879 -0.092398256 0.026058152 -0.023578472 -0.06262933
-0.09015756 -0.005398645 0.011039149 0.067511916 -0.124394886 0.057173576 0.08632058 0.14370526
0.096245244 -0.19644889 0.1387855 -0.21559931 -0.15755804 0.011128283 0.06533768 -0.024846315
-0.17848457 0.175338 -0.07991248 -0.107790716 -0.07742765 -0.15106389 -0.27600577 0.10669863
0.08526769 0.11851165 -0.3054726 0.201465 -0.04507334 0.0935125 0.26272652 -0.009114092
0.1620302 -0.002029804 0.012436238 0.11271726 0.13519572 -0.09704383 0.12827986 -0.088208005
-0.22586586 -0.059426352 0.015466863 0.0012646476 0.06481377 -0.015013561 0.05708573 0.12717408
-0.064696915 -0.17362663 -0.022341078 -0.071364686 0.013298981 0.018340323 0.04380567 -0.076930724
-0.1363406 -0.055981014 -0.014216739 0.041697312 -0.07471761 -0.023956638 0.07258625 -0.1579117
-0.10564466 0.0936017 -0.07384982 0.10764229 0.09246128 0.087639704 -0.03212077 -0.06389688
0.17970008 0.02569608 -0.05984642 -0.07964414 0.071756825 -0.108614296 -0.06023625 0.11635949
0.19949119 0.11063145 -0.13191336 0.11811755 -0.13439842 0.06509451 -0.040921632 -0.024839835
-0.20493723 0.01668847 0.040974252 -0.13209078 0.045048676 0.08875486 0.13080472 0.09178409
0.031459197 0.23766018 0.12287882 0.08038475 -0.089678004 -0.15856345 -0.011844341 -0.1241015
0.23693883 0.020842535 -0.014222154 -0.08234478 -0.08250635 -0.09027972 0.097175464 -0.1349886
-0.20894054 0.051631775 0.035474505 0.010970162 -0.15681332 -0.15616603 0.09855293 -0.009346467
0.12705825 -0.09802035 0.15416667 0.08044855 0.06886256 -0.00055014767 0.02588786 -0.05990018
-0.14460994 -0.09278822 0.062495146 -0.12645856 -0.0074320715 0.0066453065 0.027584365 -0.0031897654
0.08850726 0.21877761 -0.13569397 -0.19002584 0.018253898 -0.05468022 -0.31310692 0.10264691
-0.06421419 -0.107153036 0.10495794 0.19031812 0.055951957 -0.13215278 0.028923351 0.04494615
0.017799776 0.075029224 0.053883124 0.06589795 -0.055375993 -0.24693531 -0.13271903 -0.13543577
0.107044436 -0.13768949 -0.07325136 0.057274107 0.079686575 -0.01178219 -0.0679422 -0.09418046
-0.15758418 -0.012163384 -0.07777206 0.08127604 0.12583663 -0.04721423 0.0925506 -0.0023018532
-0.04702108 -0.07866624 -0.14339414 -0.073920116 -0.0621469 -0.046957947 0.1292747 0.028230326
0.018589811 -0.15871695 -0.03226883 -0.015093463 0.036897942 0.04533376 -0.014374103 -0.14363642
-0.23060969 -0.012886821 0.06338612 0.08312846 0.09727606 -0.15681797 -0.13939923 0.0562621
-0.0521694 -0.07260601 -0.05094786 0.1171012 -0.025554623 -0.21000645 0.09106509 -0.060127046
0.11675334 -0.02824347 0.08234808 0.034353916 0.15040284 -0.113754556 -0.015535685 0.069424205
-0.10491837 -0.26073286 0.046911612 0.034404106 -0.043972015 -0.0035370388 -0.11223729 -0.2302261
-0.030307654 -0.18943423 0.014574366 0.17797238 -0.15407957 0.18274094 0.13010418 -0.114731275
0.011880203 -0.046898805 0.110828914 -0.03342675 -0.0055090385 -0.07536541 0.16646363 -0.044547513
-0.083604 -0.10242598 -0.1696956 0.07179609 0.04202606 0.06716916 0.13263597 0.05228161
00000000: 4a47 5fbd 6e21 243d 7219 9f3d c942 c5bd
00000010: 4c3b bdbd e877 d53c a427 c1bc ce43 80bd
00000020: 87a4 b8bd 1ee7 b0bb 8cdd 343c b043 8a3d
00000030: bfc2 febd d72e 6a3d d8c8 b03d 7927 133e
00000040: 3a1c c53d e629 49be c91d 0e3e 11c6 5cbe
00000050: e556 21be 6753 363c c3cf 853d 808a cbbc
00000060: a9c4 36be ce8b 333e 28a9 a3bd 61c1 dcbd
00000070: 6392 9ebd 7eb0 1abe a150 8dbe d084 da3d
00000080: d4a0 ae3d 3cb6 f23d e866 9cbe d74c 4e3e
00000090: d39e 38bd 7b83 bf3d 1784 863e 4653 15bc
000000a0: 3feb 253e 7606 05bb 5dc1 4b3c 4fd8 e63d
000000b0: bf70 0a3e eabe c6bd cc5b 033e 66a6 b4bd
000000c0: 6149 67be 0c69 73bd ba68 7d3c 88c2 a53a
000000d0: 15bd 843d 70fb 75bc bad2 693d ec39 023e
000000e0: d17f 84bd 2ecb 31be a304 b7bc a627 92bd
000000f0: f8e3 593c 723e 963c 936d 333d db8d 9dbd
00000100: df9c 0bbe 594c 65bd 53ed 68bc cdca 2a3d
00000110: 8c05 99bd b640 c4bc 1aa8 943d 9bb3 21be
00000120: 3a5c d8bd 40b2 bf3d 933e 97bd 9073 dc3d
00000130: 575c bd3d 727c b33d 1291 03bd 5edc 82bd
00000140: 4c03 383e 9680 d23c 8521 75bd 781c a3bd
00000150: 3ef5 923d 2c71 debd 49ba 76bd e24d ee3d
00000160: 6b47 4c3e be92 e23d 4c14 07be 9de7 f13d
00000170: bd9f 09be 4550 853d 719d 27bd e97c cbbc
00000180: 11db 51be 42b6 883c 9ed4 273d ce42 07be
00000190: f684 383d 1cc5 b53d acf1 053e 4cf9 bb3d
000001a0: 5cdb 003d 315d 733e e4a7 fb3d c3a0 a43d
000001b0: 1aa9 b7bd 755e 22be c40e 42bc ed28 febd
000001c0: 18a0 723e f7bd aa3c 0a04 69bc 61a4 a8bd
000001d0: 17f9 a8bd 93e4 b8bd ee03 c73d 743a 0abe
000001e0: 82f4 55be d77b 533d b74d 113d 32bc 333c
000001f0: ac93 20be fde9 1fbe 1ed6 c93d ed21 19bc
00000200: 8f1b 023e e5be c8bd dedd 1d3e 36c2 a43d
00000210: d007 8d3d c937 10ba c712 d43c e459 75bd
00000220: a114 14be c007 bebd e9fa 7f3d 5a7e 01be
00000230: bc88 f3bb dfc0 d93b 9bf8 e13c 620b 51bb
00000240: 4b43 b53d 3d07 603e 5cf3 0abe 2296 42be
00000250: 3389 953c 5ef8 5fbd 8d4f a0be 8b38 d23d
00000260: bb82 83bd 0d73 dbbd 30f4 d63d c1e2 423e
00000270: e12d 653d 0f53 07be aaf0 ec3c 7419 383d
00000280: d6d0 913c eca8 993d 8db4 5c3d 81f5 863d
00000290: f0d1 62bd 9cdc 7cbe 7fe7 07be adaf 0abe
000002a0: 1d3a db3d 79fe 0cbe cf04 96bd 4198 6a3d
000002b0: b732 a33d 160a 41bc 4825 8bbd afe1 c0bd
000002c0: bf5d 21be ee48 47bc f546 9fbd 0d74 a63d
000002d0: 51db 003e b563 41bd 2b8b bd3d b0da 16bb
000002e0: 2d99 40bd c41b a1bd ead5 12be 6e63 97bd
000002f0: bf8d 7ebd fa56 40bd 9660 043e 4943 e73c
00000300: a949 983c b286 22be 522c 04bd 924a 77bc
00000310: 4c22 173d e5af 393d 5c81 6bbc 6d15 13be
00000320: f224 6cbe 3f23 53bc 95d0 813d 413f aa3d
00000330: ac38 c73d e494 20be acbe 0ebe 1673 663d
00000340: 95af 55bd 76b2 94bd b4ae 50bd c1d2 ef3d
00000350: ee57 d1bc ee0b 57be 5580 ba3d c747 76bd
00000360: 601c ef3d d95e e7bc 1ca6 a83d b1b6 0c3d
00000370: 3403 1a3e 26f8 e8bd 6389 7ebc 472e 8e3d
00000380: 71df d6bd c77e 85be 6426 403d 52eb 0c3d
00000390: 001c 34bd aacd 67bb aadc e5bd 64c0 6bbe
000003a0: c247 f8bc 0cfb 41be 52c9 6e3c 643e 363e
000003b0: 09c7 1dbe 7120 3b3e 083a 053e 3bf8 eabd
000003c0: 2fa5 423c f618 40bd 45fa e23d 7dea 08bd
000003d0: 2a85 b4bb 2e59 9abd 7175 2a3e 7477 36bd
000003e0: 9338 abbd b6c4 d1bd afc4 2dbe d409 933d
000003f0: 8523 2c3d fc8f 893d b9d1 073e 3e25 563d

network_body._body_endoder.seq_layers.2.bias f4 [128]
-0.18503621 -0.17484894 -0.12125364 -0.061222915 -0.117169745 -0.10241895 -0.12267033 -0.16281717
-0.14803909 -0.11393255 -0.23444693 -0.15429874 -0.10906055 0.0101391245 0.1223651 0.0039287494
-0.07753864 -0.109897524 0.0055749007 -0.19813874 -0.01437253 -0.12492699 -0.04164096 -0.10305956
-0.13428186 0.08148439 0.070516825 -0.054553166 -0.12484317 -0.06603425 -0.040900532 -0.116077706
-0.13635261 -0.11539891 -0.09458188 -0.018917482 -0.07650004 -0.18090315 -0.05259837 -0.16932844
-0.043873228 -0.0774279 -0.022485763 -0.13871655 -0.007931324 -0.1418469 -0.15682776 -0.15719242
-0.08293665 -0.1631584 0.072746724 -0.13824275 -0.19546458 -0.014876583 -0.21641925 -0.07248821
-0.16882733 -0.00758753 -0.14822789 -0.07493497 0.07780417 -0.0727925 -0.05666797 -0.010824669
0.10350249 -0.18332133 -0.14256237 -0.02229943 -0.069440246 -0.13917205 -0.050318368 -0.14292489
-0.13718882 -0.021972984 -0.097498305 -0.09188419 0.031176971 -0.1167311 -0.010945705 -0.20814727
-0.037757993 0.0069154887 -0.2181028 -0.1344889 0.052040458 -0.106091164 -0.09847657 -0.17628211
0.1652577 -0.011862876 -0.13673055 -0.17850688 0.045384258 -0.12362097 -0.11329804 -0.040867247
-0.06098393 0.050745852 -0.15100218 -0.0045875423 -0.109637074 -0.1552631 -0.13987699 -0.1399535
0.05270321 -0.064325005 -0.008054919 -0.060836747 -0.033156075 -0.014537983 -0.16156903 -0.0333417
-0.17129697 0.12131526 -0.12544735 -0.116035014 -0.1577717 -0.08334121 -0.107039906 -0.009677719
-0.10801916 -0.16767943 -0.18632984 7.439393e-05 0.07076765 -0.0524746 -0.15102808 -0.09255718
00000000: 227a 3dbe 9a0b 33be d453 f8bd e1c4 7abd
00000010: b1f6 efbd 07c1 d1bd 953a fbbd 8bb9 26be
00000020: 8f97 17be 7855 e9bd db12 70be 7d00 1ebe
00000030: 235b dfbd 921e 263c 8e9a fa3d bdbc 803b
00000040: 94cc 9ebd f411 e1bd a8ad b63b e2e4 4abe
00000050: c37a 6bbc b9d9 ffbd b68f 2abd e410 d3bd
00000060: 2f81 09be 4ae1 a63d 206b 903d 2473 5fbd
00000070: c7ad ffbd f73c 87bd 5187 27bd 26ba edbd
00000080: 05a0 0bbe 4456 ecbd 25b4 c1bd d6f8 9abc
00000090: 0eac 9cbd ad3e 39be 6371 57bd 6f64 2dbe
000000a0: 6ab4 33bd 8592 9ebd 1034 b8bc b60b 0ebe
000000b0: 62f2 01bc 5040 11be 7597 20be 0df7 20be
000000c0: b1da a9bd ff12 27be 3cfc 943d 828f 0dbe
000000d0: de27 48be e9bc 73bc 029d 5dbe b374 94bd
000000e0: 12e1 2cbe d1a0 f8bb 0dc9 17be 8177 99bd
000000f0: cb57 9f3d 3c14 95bd ac1c 68bd f459 31bc
00000100: 1df9 d33d 96b8 3bbe dffb 11be 4bad b6bc
00000110: b036 8ebd 1e83 0ebe a21a 4ebd e75a 12be
00000120: 3a7b 0cbe b000 b4bc 31ad c7bd c72d bcbd
00000130: d966 ff3c b710 efbd 9d55 33bc 8f24 55be
00000140: 20a8 1abd 539b e23b 5756 5fbe 75b7 09be
00000150: 6028 553d 5346 d9bd 15ae c9bd 4c83 34be
00000160: 5139 293e 825c 42bc 1803 0cbe 82ca 36be
00000170: d8e4 393d fe2c fdbd ce08 e8bd 6a64 27bd
00000180: 49ca 79bd e2da 4f3d 51a0 1abe 1853 96bb
00000190: 6789 e0bd 4afd 1ebe ea3b 0fbe f84f 0fbe
000001a0: 52df 573d d4bc 83bd c7f8 03bc f42f 79bd
000001b0: aace 07bd b830 6ebc 5a72 25be 4e91 08bd
000001c0: 7968 2fbe 2374 f83d 4575 00be c4a3 edbd
000001d0: e88e 21be ccae aabd bd37 dbbd 4c8f 1ebc
000001e0: 2639 ddbd 28b4 2bbe 40cd 3ebe f003 9c38
000001f0: a1ee 903d 9bef 56bd 1ba7 1abe 9e8e bdbd

action_model._continuous_distribution.log_sigma f4 [1, 3]
-0.7326595 -0.37602445 -0.52565163
00000000: 938f 3bbf 4786 c0be 1b91 06bf

action_model._continuous_distribution.mu.weight f4 [3, 128]
0.024809083 -0.054725993 -0.07586307 -0.009070805 -0.094644934 -0.08644293 -0.058088362 -0.05495083
-0.15820803 -0.043097023 -0.13112143 -0.08143439 -0.004905866 0.020971797 0.041458637 -0.023867209
-0.022027956 -0.06043875 -0.114087574 -0.08479124 -0.010049386 -0.10382795 -0.035338018 -0.00017595247
-0.04625784 0.0067916834 -0.05550635 -0.039278544 -0.116393246 0.016622351 0.0005935123 -0.051270433
-0.115990415 -0.08109002 -0.012066533 -0.0029391954 0.025061337 -0.04746606 -0.04863655 -0.072332606
-0.006197991 -0.02847752 0.002694486 -0.026614554 -0.040223267 -0.04259347 0.0012569039 -0.08007102
-0.11076049 -0.11443663 0.0018807999 -0.10590509 -0.07878547 -0.00448391 -0.08042468 -0.0035661429
-0.10109805 -0.0058221165 -0.104349986 -0.061481133 -0.008140071 -0.114049286 -0.039681554 0.007118005
0.058390904 -0.10388085 -0.06797429 0.05404306 -0.042302795 -0.073671155 -0.014617216 -0.046019714
-0.07368514 -0.030346008 0.08023468 -0.049927376 0.012267727 -0.03869847 0.07262583 -0.10461771
0.094152495 -0.07782476 -0.10459057 0.010939816 0.032103557 -0.00029271544 0.038266573 -0.120261125
0.032273676 0.008604717 -0.051870257 -0.0774086 -0.030793007 -0.07426591 0.0060450323 0.02626076
-0.0033345183 -0.07430715 -0.025320131 -0.03321952 -0.036599096 -0.14598347 -0.08547276 -0.06723611
-0.005977686 -0.093242034 0.028532881 -0.0055804565 0.004067025 -0.014887515 -0.056895416 -0.020454878
-0.05707362 0.022936322 0.0010765127 -0.082755335 -0.050118323 0.016973818 0.065234184 0.043742683
-0.053477526 -0.08325034 -0.08910588 -0.017622711 -0.04540252 0.007180715 -0.07806081 -0.024812093
-0.05541075 -0.055171754 -0.027420314 0.026769137 -0.036651336 0.001238361 -0.058167487 -0.042669654
-0.10622739 -0.011652389 -0.02609125 -0.044197615 -0.07892562 -0.01663405 0.08344139 0.019678097
0.007376063 0.08436956 0.025954824 -0.07864171 0.029799394 -0.030397639 0.024565386 0.012570834
-0.10513819 0.1443928 0.02760037 0.047953382 0.021113971 -0.055331577 -0.0021012998 -0.0020000353
-0.04420364 -0.015879612 -0.027602782 0.022941338 -0.119186625 -0.056218173 0.008024676 -0.06611149
0.008885785 -0.012392779 0.05807564 -0.116122715 0.04985269 -0.0007551386 -0.15531625 -0.0653905
0.01927681 -0.06019734 0.0019268622 -0.03961003 -0.02240557 -0.0096298205 -0.07301979 -0.014597235
-0.09830244 0.021426046 -0.14709419 0.046584226 0.06965365 0.02274669 0.04504861 -0.013446262
0.15801395 0.030407818 -0.010153384 0.17698142 0.08560418 -0.021127969 -0.036435165 -0.08047658
-0.13213481 0.0021633792 -0.097539485 -0.008786998 0.025568606 -0.027169995 -0.024127284 -0.07147561
-0.18578993 0.037951685 -0.057816297 -0.14916667 0.01556396 -0.19222346 -0.14372662 -0.06312123
0.12333701 -0.031651884 -0.001893764 -0.16593748 0.040918615 -0.05853975 -0.19611458 -0.068335764
0.07770077 0.1336677 -0.066223584 -0.03598616 -0.06733572 -0.04486422 -0.03537728 -0.01762591
0.07908856 0.040899172 0.007892766 -0.010848866 -0.03560258 -0.0005688239 -0.030393906 0.004379213
-0.0709624 0.06635165 -0.00011234258 -0.03768218 -0.08198893 0.010494976 -0.124766745 0.013337252
-0.019470321 -0.073079884 -0.08749063 -0.027286284 0.05200295 -0.0061580627 -0.13615209 0.0005917589
00000000: 6b3c cb3c 5d28 60bd 195e 9bbd b79d 14bc
00000010: 34d5 c1bd fe08 b1bd 10ee 6dbd 1f14 61bd
00000020: 4901 22be 8186 30bd b244 06be 13c7 a6bd
00000030: 63c1 a0bb 0ccd ab3c 88d0 293d 2a85 c3bc
00000040: f973 b4bc 9f8e 77bd bfa6 e9bd 08a7 adbd
00000050: 2ea6 24bc c0a3 d4bd 99be 10bd e27f 38b9
00000060: dc78 3dbd c58c de3b a05a 63bd 8ae2 20bd
00000070: 955f eebd 992b 883c f095 1b3a f200 52bd
00000080: 628c edbd 8612 a6bd b5b2 45bc 849f 40bb
00000090: 6f4d cd3c c56b 42bd 1e37 47bd 1e23 94bd
000000a0: 8418 cbbb b049 e9bc f995 303b c406 dabc
000000b0: 27c1 24bd 7e76 2ebd b2be a43a 46fc a3bd
000000c0: 65d6 e2bd c05d eabd 2c85 f63a c5e4 d8bd
000000d0: 475a a1bd c3ed 92bb b2b5 a4bd f3b5 69bb
000000e0: 7f0c cfbd 74c7 bebb 72b5 d5bd a4d3 7bbd
000000f0: ef5d 05bc ac92 e9bd 2089 22bd 273e e93b
00000100: 4d2b 6f3d 7cbf d4bd 1b36 8bbd 415c 5d3d
00000110: b245 2dbd e7e0 96bd 0c7d 6fbc 2b7f 3cbd
00000120: 3ce8 96bd 3198 f8bc 1452 a43d a680 4cbd
00000130: 94fe 483c 4982 1ebd dabc 943d cf41 d6bd
00000140: 06d3 c03d 9662 9fbd 9533 d6bd ea3c 333c
00000150: 057f 033d 9a77 99b9 69bd 1c3d 774b f6bd
00000160: 6731 043d cdfa 0c3c e875 54bd 6688 9ebd
00000170: 9e41 fcbc ba18 98bd 6815 c63b ce20 d73c
00000180: ef87 5abb 592e 98bd 2a6c cfbc 3111 08bd
00000190: efe8 15bd b17c 15be 580c afbd 16b3 89bd
000001a0: 77e0 c3bb aef5 bebd cabd e93c 43dc b6bb
000001b0: ae44 853b c4ea 73bc 2b0b 69bd fd90 a7bc
000001c0: 07c6 69bd f4e4 bb3c c619 8d3a a17b a9bd
000001d0: df48 4dbd ad0c 8b3c 8099 853d 872b 333d
000001e0: 400b 5bbd 277f aabd 257d b6bd 815d 90bc
000001f0: fef7 39bd 344c eb3b 59de 9fbd bb42 cbbc
00000200: 62f6 62bd c7fb 61bd 91a0 e0bc f34a db3c
00000210: b61f 16bd 8050 a23a 0841 6ebd 60c6 2ebd
00000220: bf8d d9bd a9e9 3ebc 51bd d5bc 8f08 35bd
00000230: c1a3 a1bd 2244 88bc 52e3 aa3d f633 a13c
00000240: e7b2 f13b f3c9 ac3d 369f d43c e80e a1bd
00000250: dc1d f43c 7804 f9bc 593d c93c e6f5 4d3c
00000260: b152 d7bd b5db 133e 2c1a e23c c46a 443d
00000270: 35f7 ac3c 5da3 62bd f6b5 09bb 0613 03bb
00000280: e00e 35bd f615 82bc 3b1f e2bc 79ef bb3c
00000290: 1e18 f4bd 0745 66bd ee79 033c 7665 87bd
000002a0: af95 113c 150b 4bbc b9e0 6d3d bfd1 edbd
000002b0: 5632 4c3d 7ef4 45ba 390b 1fbe 74eb 85bd
000002c0: 67ea 9d3c 7c91 76bd c48e fc3a 203e 22bd
000002d0: e38b b7bc 65c6 1dbc 668b 95bd 3e29 6fbc
000002e0: ca52 c9bd ad85 af3c dc9f 16be 1acf 3e3d
000002f0: 93a6 8e3d 4457 ba3c e484 383d b64d 5cbc
00000300: 69ce 213e d119 f93c 615a 26bc 9e3a 353e
00000310: 3f51 af3d 9014 adbc 0a3d 15bd e8d0 a4bd
00000320: 594e 07be 7bc7 0d3b c8c2 c7bd 57f7 0fbc
00000330: 4175 d13c 9c93 debc 95a6 c5bc ce61 92bd
00000340: b73f 3ebe 3a73 1b3d c8d0 6cbd 26bf 18be
00000350: fbff 7e3c 3ad6 44be 122d 13be b445 81bd
00000360: 1d98 fc3d 68a5 01bd 2d38 f8ba 84eb 29be
00000370: 479a 273d 60c7 6fbd 43d2 48be 9ff3 8bbd
00000380: 9521 9f3d 30e0 083e 3ba0 87bd 3966 13bd
00000390: 4fe7 89bd 8bc3 37bd c4e7 10bd 3664 90bc
000003a0: 2ff9 a13d e485 273d a950 013c 71bf 31bc
000003b0: 03d4 11bd 201d 15ba a4fc f8bc 807f 8f3b
000003c0: bc54 91bd 60e3 873d 7799 ebb8 a158 1abd
000003d0: d0e9 a7bd 1ff3 2b3c b585 ffbd 7d84 5a3c
000003e0: 3980 9fbc e8aa 95bd 4a2e b3bd 7c87 dfbc
000003f0: 0c01 553d 93c9 c9bb 746b 0bbe 4420 1b3a

action_model._continuous_distribution.mu.bias f4 [3]
0.1512281 0.11603969 -0.13060184
00000000: 8adb 1a3e 38a6 ed3d 7dbc 05be

onnx::Div_51 f4 [22]
0.015213479 0.6931952 0.019140363 0.7135935 0.02405697 0.74085295 0.02943324 0.77054024
0.033848856 0.7988938 0.038170986 0.82282317 0.041792903 0.8417778 0.043273978 0.8533875
0.04251948 0.84952486 0.03976934 0.82456636 0.036910027 0.7862083
00000000: f541 793c 3e75 313f 40cc 9c3c 10ae 363f
00000010: 1f13 c53c 8aa8 3d3f fa1d f13c 2042 453f
00000020: 19a5 0a3d 4e84 4c3f 2e59 1c3d 8aa4 523f
00000030: 092f 2b3d c07e 573f 0e40 313d 9a77 5a3f
00000040: e828 2e3d 767a 593f 2de5 223d c816 533f
00000050: f82e 173d f244 493f
