results/random/3DBall/3DBall-2926176.onnx (onnx, 84847 bytes, 9 tensors)

network_body.observation_encoder.processors.0.normalizer.running_mean f4 [22]
000000 14 86 21 3b 78 70 3c 41 ad ff 69 3b a2 51 3d 41
       0.0024646567 11.777458 0.0035705373 11.83243
000010 a9 63 b5 3b e5 d5 3d 41 d5 61 0a 3c 0c 0c 3e 41
       0.005535562 11.86472 0.008446177 11.877941
000020 1f 52 46 3c 3f 0b 3e 41 e4 6c 84 3c 17 c8 3d 41
       0.01210454 11.877746 0.016165204 11.86135
000030 cf bd a6 3c 59 15 3d 41 2e 2c c6 3c 4a 91 3b 41
       0.02035418 11.817712 0.024190988 11.722971
000040 a7 10 d7 3c 24 3e 38 41 6a 2a d1 3c 7c 4d 2e 41
       0.026253058 11.515171 0.02553292 10.893917
000050 56 99 b9 3c cc 2b 18 41
       0.022656124 9.510693

network_body._body_endoder.seq_layers.0.weight f4 [128, 22]
000000 60 5f 4f 3e f0 05 e5 3e 3f 80 64 bd aa 57 f7 3e
       0.20251226 0.44731092 -0.055786368 0.4830907
000010 68 62 20 bc e9 be f8 3e 72 df 94 bd 1e 35 cf 3e
       -0.009789087 0.48583153 -0.07269181 0.40470213
000020 71 22 d9 3e b1 b8 2c 3e 02 96 75 3c 0f 50 05 3e
       0.4240909 0.16867329 0.014989378 0.13018821
000030 87 94 a0 3d 39 38 b1 bc 4e e8 af 3e cc 08 13 bd
       0.07840829 -0.021633254 0.34356922 -0.03589706
000040 1c e6 b7 ba 1f fc 82 3e 48 0e fc bd 38 2a 2a 3c
       -0.001403037 0.25582978 -0.123074114 0.010386042
000050 c6 7d ff be 2c 51 8a be 55 ed 73 3d 97 ff 7e 3e
       -0.49900645 -0.27015054 0.05955251 0.24902187
000060 71 37 1c be 10 b7 32 be 44 3e c4 3d 45 30 8c be
       -0.15255524 -0.17452645 0.09582189 -0.27380577
000070 00 84 87 3e ec 50 a6 3d d3 17 31 bd 21 ce 6c be
       0.26467896 0.081209034 -0.04323561 -0.23125507
000080 f8 6d 1a be 2e 1e 20 be ea 51 e1 bc 68 f2 de 3d
       -0.15081012 -0.15636513 -0.02750488 0.10886079
000090 e7 21 17 be 0a e4 04 3d 01 2e e9 3d 6e e7 a7 be
       -0.14759026 0.032444037 0.11385728 -0.32793754
0000a0 f7 66 5a 3d c4 dd aa bd 1a 33 a6 bd 79 5f d9 bc
       0.05332085 -0.0834308 -0.081152156 -0.026534783
0000b0 0c 2c 2a 3d a4 19 33 be 72 8f 0e 3e b6 47 24 3c
       0.041545913 -0.1749025 0.13921908 0.010026863
0000c0 84 72 b2 bd 45 41 b9 bd 6d a3 4f 3d 65 a4 06 3e
       -0.08713248 -0.09045652 0.050692964 0.13148649
0000d0 11 18 c2 3d eb 47 48 3e de 15 bc be 2b 0d 61 3c
       0.094772466 0.19558685 -0.36735433 0.01373605
0000e0 4f 92 ff bd 61 05 c4 be 62 12 82 3d fa 58 30 3d
       -0.12479078 -0.38285354 0.063511625 0.043053605
0000f0 9a cb d1 be a9 a8 d1 3e ba 15 5a be 83 09 22 3d
       -0.40975648 0.4094899 -0.2129735 0.039559852
000100 0b d6 87 bd 5f 3e b2 3b 12 a2 36 3e a3 72 7b bd
       -0.06632622 0.005439564 0.17835262 -0.061388623
000110 73 97 85 be 2a e3 f6 3e b4 58 b8 be 9a af 0a bc
       -0.2609211 0.48220187 -0.36005175 -0.008464718
000120 5d 77 41 be 81 df 2c 3d a3 af b6 be ae 82 f7 3d
       -0.1889319 0.042205337 -0.35680875 0.12085472
000130 49 e2 e2 be d6 24 ee bd 73 e6 c4 bd 11 5f 21 be
       -0.44313267 -0.1162812 -0.09614267 -0.15758921
000140 1c 04 6b 3e 8c 58 c4 3e 79 7a cb bc 39 c4 12 be
       0.22950786 0.38348806 -0.024838673 -0.14332666
000150 f3 f3 97 3e da d8 f0 bd e8 38 cf bd 70 61 69 be
       0.29678306 -0.11760111 -0.10118276 -0.22791076
000160 eb 21 e1 3c d7 d6 30 be 08 79 e0 be d5 54 bc bb
       0.027481994 -0.17269455 -0.4384234 -0.0057474175
000170 6c 01 1a 3e 68 d2 19 3e 56 3c 43 3e 1e bf 47 be
       0.15039605 0.1502167 0.19065985 -0.19506499
000180 81 27 1b 3e 07 19 d1 3d 5b 25 c9 3d 6d 8f cc 3b
       0.15151788 0.10209852 0.09821578 0.0062426836
000190 aa 31 b6 be b5 2a 9b bc c9 e8 55 3e a5 2d ff be
       -0.35584766 -0.018941263 0.20889582 -0.49839512
0001a0 0f de bb bd e4 0d 83 bd b5 7c a7 bd 12 a0 9d bb
       -0.09173214 -0.06399134 -0.08178083 -0.0048103416
0001b0 03 6d 77 bd c4 5c e8 3e 78 2f d7 be 6c 2d d1 be
       -0.060406696 0.45383275 -0.42028403 -0.40854967
0001c0 84 09 47 bd 8b 18 03 bd 83 16 56 3e 3c 0e 1e be
       -0.04859306 -0.032005828 0.20907025 -0.15435117
0001d0 29 5a 13 be d0 26 aa bb 78 bb bb 3d e2 16 0d 3e
       -0.14389862 -0.005192615 0.09166616 0.1377826
0001e0 67 ac de be 57 38 9e 3d 78 9d ac 3c 2d 90 4a 3e
       -0.43490908 0.0772559 0.02107118 0.19781561
0001f0 18 28 c2 3d 24 b5 a0 3d 28 ab 79 be cd 65 89 3e
       0.094803035 0.0784705 -0.24381697 0.2683548
000200 45 d7 b3 be da b1 fe 3b d3 fb 97 bc 47 f6 12 be
       -0.35125175 0.0077726664 -0.018552696 -0.1435176
000210 9b e6 c7 be 6f 29 de bd a8 09 76 bd 86 3b 92 3d
       -0.39043126 -0.108477466 -0.060067803 0.071402594
000220 83 07 e5 be d2 67 ee be 62 ca 81 be c4 2c 6d bd
       -0.44732293 -0.46563584 -0.25349718 -0.05790402
000230 46 47 c9 be b9 0a dc 3b 4e 3f 24 3e 7b 1d 6b bd
       -0.3931219 0.0067151454 0.16039774 -0.05740116
000240 e1 92 36 be c4 22 9b 3e b4 8c 8f be fe 8e 01 3f
       -0.17829467 0.30299962 -0.28037035 0.50608814
000250 37 be e0 be 91 4d a0 3e 07 b9 57 3e 05 15 2b 3e
       -0.43895122 0.31309178 0.21066676 0.16707237
000260 16 58 06 bf 60 02 00 be 61 fa c7 bd f8 fb 1b 3d
       -0.5247816 -0.12500906 -0.09764553 0.038082093
000270 bb 8c c9 bd c9 93 a0 bd 71 c4 01 be 05 56 9f 3e
       -0.09841295 -0.07840688 -0.12672593 0.31120315
000280 f6 90 15 3d 3b e9 18 be 43 eb 87 bd c6 87 bf be
       0.0365152 -0.1493272 -0.066366695 -0.37408274
000290 42 9e fd bb 1a 4f da 3a c5 55 51 3e bf 18 3d 3e
       -0.007739813 0.0016655654 0.20442875 0.18466471
0002a0 78 9f 77 3e c6 d6 21 bd 99 6e a3 be d2 b3 3c 3e
       0.24181926 -0.039511465 -0.31920317 0.18427971
0002b0 7b c2 82 3e da 8c d5 3d 5b 4c d5 be bf 2b 3c bc
       0.25539002 0.10427256 -0.41659817 -0.011485039
0002c0 cb 27 4c be 17 5d 2b bf 93 6d 21 bd 3b 5b 84 bd
       -0.19937055 -0.6693892 -0.03941114 -0.06462713
0002d0 c4 34 b1 be 2a 15 db 3d 20 95 d8 3e b2 bc 61 3e
       -0.3461057 0.10697396 0.42301273 0.22044638
0002e0 aa ab 87 be ee 1d c3 3e cd 87 6f be e0 43 1a bf
       -0.26498157 0.38108772 -0.23391648 -0.6025982
0002f0 6f b4 8c bd c3 fd b9 3c a6 2f 43 be 84 ce 10 bd
       -0.068703525 0.02270401 -0.19061145 -0.0353532
000300 0d 82 54 3a f0 13 f1 3e fc d2 35 be 4c 5d 8a ba
       0.0008106537 0.47085524 -0.17756265 -0.0010556369
000310 fb 41 91 3e 53 6f 9b 3e 02 39 e8 3d 80 36 13 3f
       0.28370652 0.3035837 0.113389984 0.57505035
000320 c2 f4 60 be 0f 47 51 3e eb 64 f5 3d 04 a2 96 3e
       -0.21968368 0.20437263 0.11982139 0.29420483
000330 15 e0 19 3e 02 ec 28 be f2 76 9f bd b6 08 b7 bc
       0.15026887 -0.1649628 -0.07786359 -0.02234302
000340 d0 95 96 3d e0 af 48 be 9a 73 82 be 93 4e bf be
       0.07352793 -0.19598341 -0.25478822 -0.37364635
000350 a5 22 a3 3e 68 90 f6 bc e8 3a 72 be 3f 11 1d be
       0.3186237 -0.030098155 -0.23655283 -0.1533861
000360 6b a1 62 bd e3 ad 82 be d6 6e dd bd 0e 52 0a bc
       -0.05532972 -0.2552329 -0.10812156 -0.008442415
000370 6e 52 19 3e ea c5 a8 be 3f 5c 98 3e 49 ce 4c 3e
       0.1497285 -0.32963496 0.29757878 0.20000567
000380 50 83 ee be ca df 5b 3d 01 26 0b 3e 9b 17 7b 3e
       -0.46584558 0.05368022 0.13588716 0.24520724
000390 07 47 98 3e 74 90 c3 be ee e7 5c be aa df 3d 3c
       0.2974169 -0.38196146 -0.21572849 0.01158897
0003a0 2d 10 7b 3e 0f 4e 93 be 5e 1c 34 3e cc 5c 76 be
       0.2451789 -0.2877049 0.17588946 -0.24058837
0003b0 35 c9 14 3b d1 51 24 3e e1 7a 1f bd bb 09 f8 3e
       0.0022702937 0.16046835 -0.038935546 0.48444924
0003c0 8e 74 8c 3d 97 47 bf bd 2b 2e a6 3e 39 74 56 3d
       0.068581685 -0.093398266 0.32457098 0.052356932
0003d0 38 f7 79 be c5 74 ce 3c fb a7 8f 3e a3 16 81 3e
       -0.24410713 0.025202164 0.28057846 0.25212583
0003e0 e7 06 4b 3e 19 76 e9 bd 42 5c 1f 3e 4f 55 30 bd
       0.19826852 -0.113994785 0.15562537 -0.043050107
0003f0 e4 da cf bd ea 4c 80 3e a1 ea c5 3d 3c c1 53 3e
       -0.10149172 0.2505868 0.096638925 0.20679182

network_body._body_endoder.seq_layers.0.bias f4 [128]
000000 89 ab 08 3e 64 0d 9c be 10 b5 05 3d 55 2b 3a 3d
       0.13346685 -0.30478966 0.032643378 0.04545148
000010 b9 5e 5a be 6d f9 e7 bd 64 8b 07 3e 42 a0 48 3d
       -0.21325196 -0.11326871 0.13236767 0.04898096
000020 21 6e 1b 3d f9 7b c7 bd 1a 0f a8 bd b0 51 5b bd
       0.037946824 -0.09740443 -0.082060054 -0.0535447
000030 38 7d 71 bd a9 7c 6f 3d ec d3 2b 3e c5 1e 32 3e
       -0.05895731 0.058468495 0.1678006 0.1739455
000040 7f ad c9 3d 10 90 00 3e 7a 6c 44 3e 59 cf 23 3d
       0.09847545 0.12554955 0.19182006 0.039992664
000050 3d 27 14 3e 0d 7d ab bb d4 42 ff 3d 26 6d 3d 3e
       0.14468093 -0.005233413 0.12463918 0.18498668
000060 76 51 8c bc e6 c4 b8 3d c9 a6 1b 3e a7 79 40 be
       -0.017128687 0.090219304 0.15200342 -0.18796407
000070 6c b6 a3 3d 5d 71 71 3e 37 85 eb 3d ba 03 27 3e
       0.079937786 0.23578401 0.11500018 0.16310015
000080 e2 5e 95 3e 3f 29 6f bd e1 fe 8c bd 78 da 04 be
       0.29173952 -0.058388945 -0.06884552 -0.12973964
000090 bc 00 17 bc bc 0a 7a 3d 7a 64 39 3d 59 e0 4b 3d
       -0.009216484 0.061045393 0.045261838 0.0497745
0000a0 a0 53 27 3e 19 9a 40 3e 49 ed 7a 3d d6 b0 46 3d
       0.16340494 0.18808784 0.06126145 0.048508488
0000b0 5c 44 35 3d 7c 91 ec bd ca 96 97 3d e6 4f 97 bd
       0.044254646 -0.115511864 0.074018076 -0.07388286
0000c0 61 b4 43 be 80 35 d2 3d 03 63 03 3e 4c 1c 04 3c
       -0.19111778 0.102641106 0.12830739 0.008063387
0000d0 1b 69 03 3e 23 fe ce ba 62 96 24 bd cd 0a e1 3d
       0.12833063 -0.0015792291 -0.04018248 0.10988388
0000e0 04 dd 16 3e ea 54 22 3d 07 a6 89 3e c0 96 0a bd
       0.14732748 0.03963176 0.2688448 -0.033835173
0000f0 75 c3 3a 3e fe 3d ae bd af 22 e5 bd 95 bd 27 be
       0.18238623 -0.08507918 -0.11188256 -0.16380914
000100 b1 0e 74 3e 45 1e fa 3c dd 1a 38 be d2 54 70 3e
       0.2383373 0.030532012 -0.17978998 0.23469856
000110 e7 10 84 3e a1 d4 47 3d f1 ca 42 be ff 7e 47 bd
       0.25794145 0.048786763 -0.19022729 -0.048705097
000120 14 63 66 3d 2d 8e 32 3e 68 56 5d 3e 3f cc 3e 3d
       0.056246832 0.17437048 0.21614993 0.046581503
000130 ee 5f 77 3c 3e 2c 9b bd 47 1d 29 be 01 20 80 bd
       0.015098555 -0.07576798 -0.16515075 -0.06256104
000140 d5 9e 82 bc db 41 33 3d 12 87 4e be cd 8e ac bc
       -0.015944878 0.043763977 -0.20168713 -0.021064186
000150 22 37 6e bd bb 6d 1e 3e d6 fc 65 bd 21 be 03 be
       -0.058158047 0.15471546 -0.056149326 -0.12865497
000160 eb 43 40 be c8 e4 11 3e ab 51 da bd 3d d2 89 3d
       -0.18775909 0.1424743 -0.10660108 0.06729553
000170 ca bb 00 be d3 74 96 bd 3b bb 4a bd 96 60 07 3e
       -0.12571636 -0.07346501 -0.049494963 0.13220438
000180 3c 53 c7 bd 1f 49 82 be c6 99 d6 bd 20 23 af bc
       -0.097326726 -0.25446412 -0.10478549 -0.021379054
000190 f0 75 3e 3e 73 3d 49 3e 8f 15 a5 3e b0 5c 89 bd
       0.18599677 0.19652347 0.3224301 -0.06707132
0001a0 e9 22 90 be c7 c2 5e bd f8 6b a4 3d 92 64 55 3e
       -0.28151634 -0.054384973 0.08028406 0.20839146
0001b0 68 fe 85 be d4 29 4b be c0 59 d3 bd df e8 82 3d
       -0.2617066 -0.19840175 -0.10319853 0.06392073
0001c0 b6 41 1d 3e 96 ee 84 be d9 b3 76 3d c3 84 e4 bd
       0.15357098 -0.25963277 0.06023011 -0.11158135
0001d0 b9 37 32 3e 74 2c 22 3e aa 5b 92 3e 75 8f 1b 3d
       0.17404069 0.1583727 0.2858556 0.03797861
0001e0 2d 62 be bc 72 6c b0 3c f2 ad de bc 18 51 84 bd
       -0.023240173 0.021536086 -0.027182553 -0.0646078
0001f0 10 70 56 bd 05 96 3f 3d fe c2 1b 3e 25 f0 8b bd
       -0.052352965 0.04677393 0.15211102 -0.06832913

network_body._body_endoder.seq_layers.2.weight f4 [128, 128]
000000 98 e8 3d bc f3 27 8c 3d b1 c2 2e 3d 86 f8 0d bd
       -0.011591099 0.06843557 0.04266614 -0.03466084
000010 d6 38 da 3c 21 96 74 bc 00 0f af be 39 88 33 bd
       0.02663843 -0.014928372 -0.34191132 -0.043831084
000020 e5 de 13 be a7 0a 8e 3d f6 cd 37 3c 74 3e 51 3e
       -0.14440496 0.069356255 0.0112185385 0.2043398
000030 f6 b7 e9 3c c3 be ca bc 54 91 cd bd fa 0c 63 bd
       0.028530102 -0.024749165 -0.10037485 -0.055432297
000040 0f 6c ad bd 74 6e c8 bd 0d 3b 18 be db f9 0b ba
       -0.08467876 -0.09786692 -0.14866276 -0.00053396606
000050 18 b3 04 be 78 8b 86 3d fa 4f 19 be b3 63 8e 3d
       -0.12958944 0.0656957 -0.14971915 0.0695261
000060 59 a4 14 bd ab 74 58 3c 64 4d ee bd d0 73 95 3a
       -0.036289547 0.01321141 -0.11635855 0.0011402313
000070 be 85 e9 bc 62 45 49 3c 4a 21 36 3d 9a 4a ad 3d
       -0.028506156 0.012284609 0.04446534 0.08461495
000080 08 34 19 be 4d cf b6 3d fc 23 58 bc 58 01 df 3c
       -0.14961255 0.08926258 -0.013192173 0.02722232
000090 ed c3 52 3d 74 79 55 3d 7f 0e 13 3e 8f 8a b5 bd
       0.05145638 0.05211778 0.14360999 -0.088643186
0000a0 dc 3b 8a be 84 aa 6c 3d 39 b0 ec bd 2e 18 f7 3c
       -0.26998794 0.057779804 -0.11557049 0.030162897
0000b0 5d 89 ea bd e7 d9 b8 bd b7 0b f9 bd 64 ce 29 bd
       -0.11451981 -0.090259366 -0.121604376 -0.041456595
0000c0 6c aa 87 bc fe bb 62 3d 0e 9d 21 bd 8b 16 97 3d
       -0.016560756 0.055355065 -0.03945642 0.073773466
0000d0 eb f1 f7 3c da cb 80 3d e0 11 61 be 80 d0 90 bd
       0.030266723 0.062888816 -0.21979475 -0.07071018
0000e0 88 c7 a7 bd aa 2a 15 3e 33 f8 05 be b7 84 cc 3c
       -0.081923544 0.14567056 -0.13082962 0.024965627
0000f0 bf a2 89 3e 80 86 7a 3e cf 5d e2 bd 72 9f 92 bd
       0.26881978 0.2446537 -0.11053049 -0.07159318
000100 34 18 50 be 20 8c f6 3d b2 3d c7 bd 4d 2b 72 be
       -0.20321733 0.120384455 -0.09728564 -0.2364933
000110 ef 73 95 be 00 37 21 be 37 10 82 3e d1 76 22 3d
       -0.29190013 -0.15743637 0.25402996 0.039664093
000120 26 f7 ea 3d 4f be e7 bb f7 3d 15 be fd bf b7 bd
       0.11472921 -0.007072247 -0.14574419 -0.08972166
000130 cc be c1 bd 2f 8e 19 be c8 2e 51 bd 09 a6 e9 bd
       -0.0946022 -0.14995645 -0.051070005 -0.11408622
000140 2c 54 89 bd a4 1a db 3d 24 59 aa 3c df 0a 16 bd
       -0.06705508 0.10698441 0.020794459 -0.03663146
000150 7d c3 6b bd 9f db f2 bd 40 11 ae 3d 0f 8c 28 bd
       -0.05755948 -0.11858296 0.08499384 -0.041149195
000160 50 c7 a0 3c fa 52 21 3d f1 c7 e2 3d 99 9e 58 be
       0.01962629 0.039385773 0.11073292 -0.2115425
000170 e9 24 4a 3e 3f 37 21 3e ea 98 57 3d b8 88 16 be
       0.19740643 0.15743731 0.052636065 -0.14700592
000180 f8 f9 9d bd 58 48 2c bd a3 54 a8 bd 79 1d b9 bd
       -0.077136934 -0.04206118 -0.08219268 -0.090388246
000190 5f 5b dc 3d 81 99 a4 3d 2c 86 85 be c0 3c c9 3d
       0.10759615 0.08037091 -0.26078928 0.0982604
0001a0 44 69 3a bd 01 46 77 3d 75 16 49 3e fe c7 1e be
       -0.045510545 0.060369495 0.19637473 -0.15505978
0001b0 a9 32 41 3e 31 1f 0c 3e 6c 97 14 3b 16 56 af bd
       0.18866982 0.13683774 0.0022673262 -0.085613415
0001c0 3e 35 cd be 57 1d 26 3e 86 21 0c bd 83 d4 27 bd
       -0.40079683 0.1622213 -0.034211658 -0.04097415
0001d0 72 14 05 be 18 c2 12 be dc fc 94 be 03 1e 95 bd
       -0.1299608 -0.14331853 -0.29099166 -0.07281115
0001e0 68 60 b5 bd f5 c7 72 bd b0 e2 da bd da 0b 1e 3c
       -0.08856279 -0.059272725 -0.106877685 0.00964638
0001f0 6a 48 16 be 3c 05 22 bd b8 41 8e be 82 15 aa 3d
       -0.14676061 -0.039555773 -0.27784514 0.083048835
000200 e6 f6 46 bd 36 61 c7 3d f5 f0 0c 3c 5b ad 05 3d
       -0.048575304 0.097353384 0.0086023705 0.032636028
000210 fd 06 d4 3c 7e e8 86 bd cb 7e 47 3d 4c f1 bb 3d
       0.025882239 -0.06587313 0.048704904 0.09176883
000220 3b 6c 27 3e 9e 57 11 be 03 c9 46 be e1 ba 78 bd
       0.1634988 -0.1419358 -0.19412617 -0.060725097
000230 fd a9 6b 3d f5 8b 78 3d c9 a1 dd 3d e0 41 30 3e
       0.05753516 0.06068035 0.10821874 0.1721263
000240 14 37 c4 bd ed 17 95 3b fc 2b 14 be 3f 2a 5c be
       -0.09580818 0.0045499713 -0.14469904 -0.2150049
000250 3f 00 c4 3d 96 c7 f3 bd e9 cf 87 bd ca 53 35 3d
       0.095703594 -0.11903302 -0.066314526 0.04426936
000260 f9 12 a6 3d 45 ab fa bd 90 84 4b 3c c9 e2 22 3d
       0.081090875 -0.12239698 0.012421742 0.03976706
000270 89 73 02 bd 3e bc c3 bd 71 dd 05 3d be 7b 14 be
       -0.031848464 -0.09557389 0.032681886 -0.14500329
000280 8f 54 f2 bd e3 3a a6 bd 22 cd 24 3d 5c 75 0a ba
       -0.118325345 -0.081167005 0.040234692 -0.000528177
000290 56 81 ca 3d e3 ff f0 bd 7e 7e 25 3d 50 83 a5 bd
       0.0988795 -0.117675565 0.040403835 -0.080816865
0002a0 33 0c 06 be 0d a1 d3 bc 94 80 0c bd 8c 82 9d 3d
       -0.13090591 -0.025833631 -0.03430231 0.076909155
0002b0 ec c7 ec 3d f0 ab 33 bd a4 fa b6 bd 80 df cd bc
       0.115615696 -0.043865144 -0.08934525 -0.025130987
0002c0 f4 26 cc 3d a2 b7 95 be 82 77 0f be 99 01 26 bd
       0.09968367 -0.29241663 -0.14010432 -0.040528867
0002d0 bd 0a 09 be d4 d1 e9 3d 15 26 b3 bd 6c 8a 14 bc
       -0.13383003 0.11416975 -0.08747498 -0.0090662055
0002e0 d7 64 d5 3d 63 aa 7b 3d 03 75 2e bb 72 ef ca 3c
       0.10419624 0.06144179 -0.0026620037 0.02477238
0002f0 92 86 33 bd 22 41 2c 3e 84 9a 91 3d 7e 6c 08 be
       -0.043829508 0.16821721 0.0710955 -0.13322636
000300 fb e0 f0 bd f0 6c 09 3e 49 79 58 bd b3 e7 04 be
       -0.117616616 0.13420463 -0.05285004 -0.12979011
000310 3d 0f 99 bd ab 42 2f 3d 5a 78 49 3d 8c d5 03 3e
       -0.074736096 0.04278819 0.04918704 0.1287443
000320 1f a3 71 bd b2 d5 01 3c fe 25 6c bc 6e 56 70 bd
       -0.058993455 0.007924484 -0.014413355 -0.058676176
000330 e8 77 5d 3d 55 8c 24 3e 92 68 83 bd 3f 56 fa bd
       0.05406943 0.16069157 -0.064164296 -0.122234814
000340 6d a3 04 3e cd bf 22 3d 10 e3 50 3d f3 4a 37 bd
       0.12952967 0.039733697 0.050997794 -0.04474921
000350 96 53 dc 3d 50 f6 08 3e d7 d5 1d bc 8c cd e1 bb
       0.1075813 0.13375211 -0.009633503 -0.006890958
000360 dd a9 ec bc e4 a6 4e 3d a3 5c 8c 3e 99 38 0f bc
       -0.02888959 0.050452128 0.27414426 -0.008741521
000370 5c 55 5a 3d 18 dc de 3b de ff ba ba c8 70 82 bc
       0.05330406 0.0068011396 -0.0014266928 -0.015922919
000380 f0 54 f3 3b 53 a8 14 be b6 3c 15 bd 30 91 ef bd
       0.007425897 -0.14517336 -0.03643485 -0.11697614
000390 7d 35 19 be d4 b8 a4 3c ce 11 45 bd 9a 07 2a bd
       -0.1496181 0.020107664 -0.048112683 -0.041511156
0003a0 2e 90 e4 bd af 67 e6 3d ef f2 cb bb d5 fa 97 bd
       -0.111603126 0.11250245 -0.0062240283 -0.07420889
0003b0 49 1a ce 3b 67 01 8c bd 90 5d 0b be d2 58 14 bd
       0.0062897545 -0.06836205 -0.1360991 -0.03621752
0003c0 f4 9a 99 3c 6f a7 7f 3d cf f3 7a 39 f1 4b eb 3c
       0.018750645 0.062415536 0.00023932684 0.028722735
0003d0 fa e1 16 3d 0f 0f 87 bd 7d 77 03 bd ef 59 b4 bd
       0.0368366 -0.06594669 -0.032096375 -0.08806216
0003e0 8d 1a 38 bd f5 93 ef bd ba 2a 5a 3c d1 52 57 39
       -0.044947196 -0.116981424 0.013315851 0.0002053485
0003f0 4f 4f c1 3d 33 ab 2f bd 29 21 d8 bd 15 71 a7 3d
       0.09438955 -0.042887878 -0.105532 0.081758656

network_body._body_endoder.seq_layers.2.bias f4 [128]
000000 c7 53 1d be f6 bb 82 bb ff 13 59 be 0e 93 00 be
       -0.1536399 -0.003989692 -0.21199034 -0.12556097
000010 6c d3 bc bd 09 98 63 be 79 c8 1d be 07 fb 82 bc
       -0.09220013 -0.22225966 -0.15408505 -0.01598884
000020 fd 58 90 bc b6 8c 20 be 1c df d4 bd f9 88 e7 bd
       -0.017620558 -0.15678677 -0.10394117 -0.11305422
000030 ce 2f 19 be bc 54 d4 be 81 33 4a be d1 b1 38 be
       -0.14959642 -0.41470897 -0.1974621 -0.18036582
000040 27 bc 37 3c 29 2a e0 3c a4 e1 20 3d b2 6f 54 be
       0.011214293 0.027363854 0.039277688 -0.20745733
000050 c0 71 3d be 02 2d 23 bd 3b b6 98 3d 44 01 85 bd
       -0.18500423 -0.039837845 0.07456633 -0.06494382
000060 4a a7 17 be ca 17 51 be 55 4f 5a bd 2d d1 92 bd
       -0.1480991 -0.20419231 -0.053298313 -0.07168803
000070 76 01 09 be e5 b8 53 be 8a 91 bc bd ae 50 b9 bd
       -0.13379464 -0.20676 -0.09207447 -0.090485916
000080 3c a6 ea bd 56 61 7a 3d d0 7d 8b bd c5 02 61 3b
       -0.11457488 0.061127983 -0.06811106 0.0034333926
000090 65 33 52 bc 8b cb 39 be b3 64 83 3d 39 58 9f bd
       -0.012829636 -0.18144052 0.06415691 -0.07780499
0000a0 8a 68 bd 3d 8e 2c 26 be ee 60 48 3e 69 71 4e be
       0.09248455 -0.16227934 0.19568226 -0.2016045
0000b0 e0 3c b3 bd 80 6e 27 3c 81 9e 08 be 2c ba ce 3d
       -0.08751845 0.010219216 -0.13341714 0.10094103
0000c0 83 9c 45 be 30 ca 29 be 25 d2 8d be 17 11 bb 3d
       -0.19297986 -0.16581035 -0.2769939 0.09134119
0000d0 77 8b 9b 3c 62 11 23 be e8 72 6a be 28 13 81 bd
       0.0189874 -0.159246 -0.22895396 -0.06302482
0000e0 4b 1a 37 bd c6 a7 df bd 4c d5 aa bc a0 40 36 be
       -0.04470281 -0.10920672 -0.020853661 -0.1779809
0000f0 9d 7f 1a be 1d e4 e7 bd 8b 11 61 be 34 1e 45 be
       -0.15087743 -0.11322806 -0.21979348 -0.19249803
000100 d2 fc 1c bd 08 76 03 be 11 82 47 be 8b 13 61 be
       -0.038327046 -0.12837994 -0.1948321 -0.21980111
000110 7a 95 e8 3d 39 e2 4e 3e f4 10 32 be 79 c7 db bd
       0.113566354 0.20203485 -0.1738928 -0.10731406
000120 6a 0f d0 3d 42 15 d6 bd 4f 6b d2 bd 80 e4 50 be
       0.1015919 -0.10453273 -0.10274374 -0.20399666
000130 42 73 dd 3d f2 d0 04 be f8 75 5e 3e d0 28 88 be
       0.10812999 -0.12970331 0.21724689 -0.26593637
000140 0f 03 9f 3d f2 39 8c bd 38 7d 44 3e f1 02 23 3d
       0.07764255 -0.0684699 0.19188392 0.039797727
000150 e1 80 49 be ef 79 b4 3d 3f 25 22 be 3a d3 10 be
       -0.1967807 0.088123195 -0.15834521 -0.14143077
000160 d1 d9 5e be 25 b8 ef bd 43 e6 ba 3d 60 fe 80 be
       -0.21762778 -0.11705045 0.0912595 -0.25194073
000170 95 23 bf bd 12 ee 07 3d 2c ae b5 bd 50 94 78 be
       -0.093329586 0.033186026 -0.08871111 -0.24275327
000180 ad ff be 3d 75 96 20 be 37 f3 5d 3e 55 34 34 3e
       0.0932611 -0.15682395 0.2167481 0.17598088
000190 8a 6f 5f 3a 5c fa e7 bc 20 99 73 3d f1 84 5b be
       0.00085233955 -0.028317623 0.059472203 -0.21437432
0001a0 76 1d f9 3c 24 6c e8 bc 96 e9 54 be 3b b9 45 3e
       0.030409556 -0.028371878 -0.20792231 0.19308941
0001b0 fa 4e cc bd f1 04 76 be 39 88 13 be 4d e8 84 bc
       -0.09976001 -0.24025322 -0.14407434 -0.01622405
0001c0 0c 61 8b bc d6 d1 be bd 4c f4 e1 bd d8 04 b8 3c
       -0.017014049 -0.09317367 -0.11032924 0.022463247
0001d0 4e e3 4f be 15 d7 98 be e4 ca 8b bd 4c e4 8d be
       -0.20301554 -0.29851595 -0.06825808 -0.2771324
0001e0 cf 6d 2a be a9 4e 41 be 9b 19 63 bd e3 16 54 be
       -0.16643451 -0.18877663 -0.05544434 -0.20711856
0001f0 c8 5b c6 3c 2b 12 c4 bd cb db 8e be 12 3b 91 3c
       0.024213687 -0.09573778 -0.27902064 0.017728362

action_model._continuous_distribution.log_sigma f4 [1, 3]
000000 9d 9a 85 bf 18 d5 89 bf 0c df 6a bf
       -1.0437809 -1.0768156 -0.9174659

action_model._continuous_distribution.mu.weight f4 [3, 128]
000000 5b 1e a6 bd 6a 9d 03 bc f8 d8 ec bc ec a7 fa 3c
       -0.081112586 -0.008033136 -0.028912053 0.03059765
000010 ca c5 c6 bb bd b4 20 bd 86 40 fc bc a8 2d 11 bd
       -0.0060660588 -0.039234865 -0.030792486 -0.03544393
000020 28 be 5d bb 90 5a d9 bc fc 04 10 bc 64 7b eb ba
       -0.0033835266 -0.026532441 -0.008790251 -0.001796585
000030 7e c5 ba bd 1e 34 93 bd 4c 73 72 bc af 4b 1a bc
       -0.091197 -0.07187675 -0.014797997 -0.009417458
000040 8a 78 e9 3c 39 9e bd 3c 44 c0 f2 bd ce d9 eb bb
       0.02849986 0.023146736 -0.11853078 -0.007197595
000050 2e 3d 44 bd ae b9 11 3d 75 38 29 bd f4 13 b6 3c
       -0.047909908 0.03557747 -0.041313607 0.022226311
000060 73 2f e1 bb 15 57 81 bd 7d 3d b4 bd ad 40 29 3d
       -0.0068721115 -0.06315438 -0.088007905 0.041321445
000070 af a8 11 bd b0 91 07 bd ab 59 2c 3b 64 74 c6 3c
       -0.03556126 -0.033097923 0.0026298563 0.024225421
000080 9d bf 19 bd d0 1a c5 3c 20 1c ca bd 43 f7 d9 3c
       -0.037536252 0.024060637 -0.09868646 0.026607161
000090 f8 bf 7c bd 1b 35 6e bc 78 98 91 3d 16 34 13 bc
       -0.061706513 -0.0145390285 0.07109159 -0.008984586
0000a0 8e 34 83 3d b6 3a 97 3b 4f f2 62 3d 72 fb b1 bb
       0.064065084 0.004615153 0.055406865 -0.005431586
0000b0 27 ed b8 bd 43 55 80 bc dc 4c 8f 3a 65 61 80 3d
       -0.09029608 -0.015665656 0.001093294 0.062685765
0000c0 03 64 af bb d4 7d c1 bc b6 66 37 bd 90 21 0f 3e
       -0.0053524985 -0.02361957 -0.044775687 0.13977647
0000d0 2d 18 0f be 5f 0a 11 bd b6 88 11 be 47 c8 53 ba
       -0.13974066 -0.03541028 -0.14212307 -0.0008078855
0000e0 da 7d b5 bc b8 91 0a 3c bc 89 7a ba 56 59 0c bd
       -0.022154737 0.008457594 -0.0009557267 -0.034264885
0000f0 5b 63 8d 3a d3 65 d7 ba 2a ce 12 3c d2 9a 03 bc
       0.0010787057 -0.0016433544 0.008960286 -0.0080325175
000100 f4 4e 4a 3d 1c 99 c0 bb cf a9 d0 bc 0c a3 97 bc
       0.0493917 -0.005877627 -0.025471596 -0.018510364
000110 58 88 20 bc 6e 34 06 3d c0 1d 3b 3c 1e 41 b9 bd
       -0.009798132 0.032764845 0.011420667 -0.09045623
000120 c2 3e a1 3d c0 70 e6 3a 48 35 c2 bc f8 bc 53 bc
       0.07873298 0.001758121 -0.023707047 -0.012923472
000130 8c ec 18 3d 54 4d c8 bd 6a b0 02 3e a1 34 f0 bc
       0.037334964 -0.09780374 0.12762609 -0.02932197
000140 b0 55 16 3d 8e 77 28 3d 16 d3 21 3d 65 17 ea 3c
       0.03670281 0.04112964 0.039507948 0.028575609
000150 e2 7c 7c bc 92 20 02 3d b8 b6 1e be c1 f7 b0 3c
       -0.015410634 0.031769343 -0.15499389 0.021602513
000160 11 83 1a bc f6 d8 53 3c 91 06 16 bd dd 86 86 bc
       -0.009430663 0.0129301455 -0.036627356 -0.01642173
000170 60 ee 39 bd 3c 05 c7 3c 57 3a 69 3c 6c fa 98 bd
       -0.045393348 0.024294488 0.014235101 -0.07469639
000180 5b 7d d6 3c 03 b9 60 3d d2 f2 c1 3d b6 7b 61 3c
       0.026182821 0.05486394 0.094701424 0.013762405
000190 dc f3 54 3d 76 dd 57 bd 9b 47 b2 b9 08 28 9e bb
       0.051990375 -0.052701436 -0.00034004156 -0.0048265494
0001a0 e6 ee a2 bd 34 d3 82 3c 91 b8 23 bd 16 5d 0f 3d
       -0.079557225 0.01596985 -0.039970938 0.035000883
0001b0 27 73 13 3c 41 17 52 bd 83 83 e6 bc c5 f6 1e 3b
       0.008999622 -0.051291708 -0.028138882 0.0024255973
0001c0 b9 6f ee 3b 13 f3 65 3d 79 74 16 bc 6b 36 5d be
       0.007276502 0.056140017 -0.009183043 -0.2160279
0001d0 1c 00 c4 bd af e2 ab bd 39 40 f4 3b b5 43 0d be
       -0.09570333 -0.08392846 0.007453945 -0.1379536
0001e0 8a 1c 69 bd 06 ef 98 bc 4f d1 5c 3b d4 a9 14 bd
       -0.056911983 -0.018668663 0.0033694094 -0.036294773
0001f0 84 45 9c 3c 24 1e 87 3b 79 46 73 bd 2d 9b 2a 3d
       0.019076116 0.004123466 -0.05939338 0.041651893
000200 64 73 74 bd ca 24 72 bd 4c 5d 1d bd 28 5f f3 bd
       -0.059680358 -0.059117116 -0.038419053 -0.11883384
000210 4b 9d 35 bd b8 6b a5 bd 1c 52 43 be be b7 14 bc
       -0.04433946 -0.08077186 -0.19074291 -0.009077011
000220 9d 11 e3 3a 21 6f 8f bd a1 0e 63 bb 29 32 4c be
       0.0017323975 -0.07003618 -0.003464617 -0.1994101
000230 18 89 de bd 2d 73 17 be b9 b6 34 be 47 e7 ef bd
       -0.10865992 -0.1479003 -0.17647828 -0.117140345
000240 b8 87 56 bc fe 37 d9 3d 2d d3 ba 3d eb 03 17 be
       -0.013093881 0.10606383 0.0912231 -0.14747588
000250 0c 13 bb bd 8b 84 0a bd 52 95 90 3b bf 56 39 bd
       -0.09134492 -0.03381781 0.0044123316 -0.045248743
000260 5f 1a eb bb 4d 9a fe bd b3 29 d5 bc 63 d4 ff bd
       -0.0071747745 -0.12431774 -0.02602086 -0.124916814
000270 22 8b fb bc aa 72 e4 bd c4 7c 20 bc 43 dc 5c bd
       -0.030705992 -0.11154683 -0.009795371 -0.053920995
000280 59 e9 ec bd ba 02 93 bd b4 36 8a bd 50 1b 52 3d
       -0.11567945 -0.071782544 -0.06748715 0.05129558
000290 05 9a 91 bd 4d 56 53 bc 87 2d e9 bc 78 0a 57 3c
       -0.07109455 -0.012898994 -0.028464092 0.013125055
0002a0 51 28 b2 bd 54 0e 7e bd 51 75 68 3d b4 0a 93 bd
       -0.08699096 -0.062025383 0.056752507 -0.07179776
0002b0 3e 83 87 3d 8c dd 86 bd e1 47 02 bd 82 2b 4a bd
       0.06616829 -0.065852255 -0.03180683 -0.0493579
0002c0 12 40 a8 bd 41 9e a4 bd c9 dd 10 be 55 7a b2 3d
       -0.082153454 -0.08037997 -0.14147104 0.08714739
0002d0 ca 82 8e b9 ca b7 a2 bd b6 03 cd bd b6 be 7f bd
       -0.00027181796 -0.07945211 -0.100104734 -0.062437735
0002e0 44 80 39 bd ae 43 05 be 62 1c a4 bd e5 fd ef bd
       -0.04528834 -0.13014099 -0.08013226 -0.117183484
0002f0 65 71 23 bb b2 36 b1 3a e0 37 e5 bd 08 f6 9f bc
       -0.0024939415 0.0013520329 -0.11192298 -0.019526497
000300 3a 2d df bd 0b fc 8a bb 3b 97 d9 bd 35 4c 27 be
       -0.10897298 -0.0042414716 -0.10624548 -0.16337664
000310 a6 6c 6b bc 1b b1 0c 3e f1 2b f5 bb d2 11 8b 3c
       -0.0143691655 0.13739435 -0.007482045 0.01697627
000320 b8 f1 70 bd 8a fc 26 bd 1a 1c be bd 87 c8 c6 bd
       -0.05882427 -0.040768184 -0.09282704 -0.09706216
000330 8f 07 91 bb 62 b1 d1 bd ba f2 22 3d e2 f0 9e bd
       -0.00442595 -0.10238911 0.039782263 -0.077607885
000340 0f 59 99 3c ae c0 2e be 59 56 88 3d 7e 20 76 bd
       0.018719224 -0.17065689 0.066570945 -0.06008958
000350 16 a4 54 bd 6f f8 13 3c 41 53 d6 3c 74 06 b1 bd
       -0.051914297 0.009031399 0.026162745 -0.08643809
000360 fe 07 c8 bc c5 d6 db bd 41 ef 27 3d 22 45 03 be
       -0.024417873 -0.107343234 0.040999655 -0.12819341
000370 8c 2f 4d bd ce 0d 89 bc 17 3a 28 bd 4a a3 95 bc
       -0.050094172 -0.016730215 -0.041071024 -0.018266339
000380 c9 9c d6 39 4a 56 e8 bd 80 d0 d4 3d 7d 08 9d 3d
       0.00040934075 -0.11344583 0.10391331 0.07667635
000390 f3 52 7f bd da 3d 15 bd e1 c0 fe 3a 37 1d a9 ba
       -0.062334966 -0.03643594 0.0019436145 -0.0012902383
0003a0 d5 2e 2c 3b 11 1f b6 bd bf 27 e5 bd a2 74 f1 3d
       0.0026273031 -0.08892644 -0.111892216 0.11789824
0003b0 7f be b4 bd 49 f3 0f 3d 38 34 63 bd ac 4a d7 3b
       -0.08825397 0.035144124 -0.05546972 0.006570181
0003c0 bb 5e a5 3b 58 6b ee bd df 3c 8f bd 4c 1c 25 3d
       0.005046693 -0.11641568 -0.06994032 0.04031019
0003d0 d4 ac be bd a7 69 11 3b 22 79 a0 bd 26 b1 4b be
       -0.09310308 0.0022188218 -0.07835604 -0.19891796
0003e0 ba 0f 48 bd a2 cc ab bd 08 96 67 ba 69 c4 78 bd
       -0.048843123 -0.0838864 -0.0008834307 -0.060734186
0003f0 40 3c e8 bc 12 84 70 bc af e8 35 be 9c a1 2b bd
       -0.028349042 -0.0146799255 -0.17764543 -0.04190217

action_model._continuous_distribution.mu.bias f4 [3]
000000 85 19 fb 3d 41 63 91 3e a5 0e 59 3e
       0.12260727 0.28396037 0.21196993

onnx::Div_51 f4 [22]
000000 b9 1b 4b 3d 15 96 50 41 19 56 74 3d 13 2d 50 41
       0.049586985 13.036641 0.05965242 13.011004
000010 1a f4 97 3d 77 f2 4f 41 77 6c bb 3d 53 e0 4f 41
       0.074196056 12.9966955 0.091515474 12.992267
000020 af f4 df 3d f4 e9 4f 41 56 23 01 3e bc 17 50 41
       0.109353416 12.994617 0.12611136 13.005795
000030 4f 99 10 3e 8b 80 50 41 c0 54 1d 3e e9 36 51 41
       0.14120983 13.031383 0.15364361 13.075906
000040 60 b9 23 3e fc 9e 51 41 32 86 21 3e 4e d9 4e 41
       0.15988684 13.101315 0.15773848 12.928053
000050 db 60 18 3e 12 78 44 41
       0.14880697 12.279314
