results/Random1_V0/3DBall/3DBall-1999896.pt (torch, 495670 bytes, 44 tensors)

network_body.observation_encoder.processors.0.normalizer.running_mean f4 [22]
0.0025926363 10.054643 0.0036896954 10.105685 0.005555799 10.14075 0.008204917 10.158472
0.011219071 10.160024 0.0142967375 10.143084 0.017683411 10.099483 0.021195618 10.011876
0.02354619 9.819968 0.023698235 9.318032 0.021608084 8.322672
00000000: 38e9 293b d1df 2041 d1ce 713b e3b0 2141
00000010: 6c0d b63b 8340 2241 eb6d 063c 1a89 2241
00000020: 32d0 373c 758f 2241 dd3c 6a3c 124a 2241
00000030: cddc 903c 7b97 2141 6fa2 ad3c a530 2041
00000040: f0e3 c03c 971e 1d41 cd22 c23c a916 1541
00000050: 7003 b13c aa29 0541

network_body.observation_encoder.processors.0.normalizer.running_variance f4 [22]
5172.564 3.084872e+08 7353.4688 3.076206e+08 11049.8955 3.0705357e+08 16275.57 3.068432e+08
22186.164 3.0694694e+08 28184.21 3.07429e+08 34740.727 3.0844842e+08 41491.62 3.0983827e+08
45982.074 3.0942858e+08 46272.004 2.9941546e+08 42281.89 2.713688e+08
00000000: 83a4 a145 2119 934d c0cb e545 58af 924d
00000010: 95a7 2c46 206a 924d 484e 7e46 7250 924d
00000020: 5454 ad46 1c5d 924d 6c30 dc46 f497 924d
00000030: bab4 0747 6514 934d 9f13 2247 0ebe 934d
00000040: 139e 3347 0b8c 934d 01c0 3447 bdc5 8e4d
00000050: e429 2547 1366 814d

network_body.processors.0.normalizer.running_mean f4 [22]
0.0025926363 10.054643 0.0036896954 10.105685 0.005555799 10.14075 0.008204917 10.158472
0.011219071 10.160024 0.0142967375 10.143084 0.017683411 10.099483 0.021195618 10.011876
0.02354619 9.819968 0.023698235 9.318032 0.021608084 8.322672
00000000: 38e9 293b d1df 2041 d1ce 713b e3b0 2141
00000010: 6c0d b63b 8340 2241 eb6d 063c 1a89 2241
00000020: 32d0 373c 758f 2241 dd3c 6a3c 124a 2241
00000030: cddc 903c 7b97 2141 6fa2 ad3c a530 2041
00000040: f0e3 c03c 971e 1d41 cd22 c23c a916 1541
00000050: 7003 b13c aa29 0541

network_body.processors.0.normalizer.running_variance f4 [22]
5172.564 3.084872e+08 7353.4688 3.076206e+08 11049.8955 3.0705357e+08 16275.57 3.068432e+08
22186.164 3.0694694e+08 28184.21 3.07429e+08 34740.727 3.0844842e+08 41491.62 3.0983827e+08
45982.074 3.0942858e+08 46272.004 2.9941546e+08 42281.89 2.713688e+08
00000000: 83a4 a145 2119 934d c0cb e545 58af 924d
00000010: 95a7 2c46 206a 924d 484e 7e46 7250 924d
00000020: 5454 ad46 1c5d 924d 6c30 dc46 f497 924d
00000030: bab4 0747 6514 934d 9f13 2247 0ebe 934d
00000040: 139e 3347 0b8c 934d 01c0 3447 bdc5 8e4d
00000050: e429 2547 1366 814d

network_body._body_endoder.seq_layers.0.weight f4 [128, 22]
0.11899129 0.42613754 0.013939413 0.44311595 0.05912686 0.4405243 -0.023477498 0.3752371
0.34740245 0.13587786 0.049268357 0.10659743 0.1180031 -0.054241642 0.36495075 -0.03647806
0.12676544 0.27627173 -0.10104873 0.023680242 -0.37387377 -0.25890404 0.10415157 0.22963955
-0.15636294 -0.18615444 0.10977328 -0.28023383 0.23579463 0.07123139 -0.0745695 -0.23370127
-0.120216556 -0.15000816 -0.013920518 0.11940338 -0.19544978 0.041005332 0.15731293 -0.330111
0.0059534637 -0.09025501 -0.1273583 -0.040762067 0.025976354 -0.17443158 0.18951131 0.014679058
-0.10320933 -0.08924288 0.051082034 0.13343148 0.117572926 0.20398502 -0.38277406 0.022275193
-0.14164609 -0.37393355 0.14334972 0.038517565 -0.40431592 0.40127257 -0.21673684 0.035920158
-0.12213059 0.009676317 0.1351346 -0.040671982 -0.23478274 0.49544108 -0.32286704 0.00055581296
-0.14396833 0.0575447 -0.3142294 0.12914032 -0.3742881 -0.11367298 -0.066152036 -0.16463788
0.24379633 0.39090785 0.02860323 -0.12309526 0.36103305 -0.09451432 -0.08036455 -0.19639982
-0.0323038 -0.19185898 -0.38974485 -0.020183152 0.21052936 0.14083326 0.20964722 -0.20305748
0.08830754 0.09570995 0.071644366 0.005736086 -0.3229838 -0.022642532 0.26174453 -0.49046537
-0.088601775 -0.055292387 -0.06472159 -0.01451548 -0.0976692 0.42112753 -0.41818264 -0.40960607
-0.044942122 -0.03702748 0.233225 -0.16057508 -0.11413959 -0.00764563 0.02100054 0.13942797
-0.41644612 0.075790055 -0.006615853 0.19052438 0.06564949 0.07756624 -0.21152592 0.25663015
-0.34248808 0.016310776 -0.045196384 -0.12299635 -0.36864105 -0.09927543 -0.049738053 0.0738978
-0.41822127 -0.46772408 -0.21236001 -0.057617728 -0.36489505 0.0071291695 0.18875867 -0.067646205
-0.14753407 0.28843534 -0.24956113 0.48480308 -0.3883704 0.30334234 0.23698542 0.16840267
-0.49219835 -0.110864416 -0.11540272 0.060038302 -0.05989882 -0.06365505 -0.051607165 0.32017818
0.094675474 -0.13491656 -0.07527437 -0.36710832 -0.04169227 0.0026290074 0.17705823 0.17861716
0.20899774 -0.03615539 -0.29547587 0.20057093 0.2944942 0.12029592 -0.38231376 0.0012155547
-0.17287213 -0.6601569 -0.013883381 -0.054550793 -0.28134722 0.112527385 0.4102671 0.22161272
-0.27226666 0.38811815 -0.2269209 -0.6031936 -0.012536488 0.019549642 -0.17938702 -0.052060198
0.02913473 0.46605757 -0.19184154 -0.015519612 0.31710193 0.28231108 0.07007253 0.54853845
-0.20966074 0.18366599 0.13043177 0.28059486 0.12126097 -0.17214121 -0.10163919 -0.025364548
0.0901793 -0.18654616 -0.22097446 -0.3626661 0.34114948 -0.0077022146 -0.24135543 -0.13819058
-0.01684381 -0.24546503 -0.12163839 -0.0021082098 0.14519735 -0.34237278 0.30704466 0.18323198
-0.4657967 0.03634509 0.14176303 0.22783011 0.28185245 -0.40618107 -0.17378095 -0.004302767
0.2587759 -0.3147827 0.26670453 -0.23784782 0.057232004 0.19013813 -0.085403584 0.50526285
0.046815094 -0.08341211 0.308593 0.041990776 -0.23993906 0.011441125 0.29532745 0.24136421
0.22266632 -0.12307569 0.18861413 -0.050029013 -0.082599804 0.2425078 0.051485 0.19948444
00000000: b5b1 f33d b32e da3e 2362 643c 18e0 e23e
00000010: 022f 723d 678c e13e e253 c0bc 141f c03e
00000020: bcde b13e 9123 0b3e 9ecd 493d c14f da3d
00000030: 9cab f13d 7c2c 5ebd d3da ba3e 056a 15bd
00000040: cdce 013e 7d73 8d3e a3f2 cebd 11fd c13c
00000050: 626c bfbe 128f 84be 6b4d d53d a126 6b3e
00000060: 9b1d 20be 459f 3ebe d0d0 e03d cf7a 8fbe
00000070: 2674 713e c3e1 913d e5b7 98bd 634f 6fbe
00000080: 1934 f6bd bd9b 19be e212 64bc c289 f43d
00000090: fd23 48be 35f5 273d a416 213e 4f04 a9be
000000a0: 4615 c33b 9ed7 b8bd 376a 02be 20f6 26bd
000000b0: 5dcc d43c 319e 32be 410f 423e 6f80 703c
000000c0: 6a5f d3bd f9c4 b6bd 653b 513d 43a2 083e
000000d0: 13ca f03d 73e1 503e f6fa c3be 777a b63c
000000e0: ac0b 11be 3874 bfbe 45ca 123e 98c4 1d3d
000000f0: 7f02 cfbe 9973 cd3e 43f0 5dbe 0421 133d
00000100: 9a1f fabd 6a89 1e3c b960 0a3e aa97 26bd
00000110: e36a 70be 74aa fd3e d44e a5be fab3 113a
00000120: 6f6c 13be feb3 6b3d ade2 a0be 5c3d 043e
00000130: b1a2 bfbe 61cd e8bd b87a 87bd d596 28be
00000140: bfa5 793e 1325 c83e 5251 ea3c 5e19 fcbd
00000150: 53d9 b83e b990 c1bd 2b96 a4bd 091d 49be
00000160: fd50 04bd ae76 44be a38c c7be 2357 a5bc
00000170: 0295 573e 9836 103e c3ad 563e 4dee 4fbe
00000180: 95da b43d 9403 c43d 48ba 923d c7f5 bb3b
00000190: 225e a5be d57c b9bc 6103 863e 471e fbbe
000001a0: d974 b5bd 457a 62bd c18c 84bd 56d2 6dbc
000001b0: ca06 c8bd 079e d73e 091c d6be e3b7 d1be
000001c0: 3b15 38bd 20aa 17bd 89d2 6e3e cb6d 24be
000001d0: 04c2 e9bd 3188 fabb 5309 ac3c 35c6 0e3e
000001e0: 6d38 d5be d137 9b3d ccc9 d8bb d318 433e
000001f0: 3d73 863d 0ddb 9e3d 409a 58be 0765 833e
00000200: 995a afbe 2d9e 853c d81f 39bd 83e5 fbbd
00000210: 85be bcbe eb50 cbbd 21ba 4bbd bb57 973d
00000220: 1921 d6be 8879 efbe e774 59be 9100 6cbd
00000230: 86d3 babe cf9b e93b f449 413e 188a 8abd
00000240: 2c13 17be ccad 933e f48c 7fbe 1c38 f83e
00000250: 7cd8 c6be b04f 9b3e 4eac 723e c071 2c3e
00000260: 6c01 fcbe e20c e3bd 4358 ecbd b9ea 753d
00000270: 7758 75bd 945d 82bd 0962 53bd 65ee a33e
00000280: 37e5 c13d 9127 0abe 7329 9abd 9ff5 bbbe
00000290: 84c5 2abd 6d4b 2c3b c14e 353e 6be7 363e
000002a0: 8103 563e ad17 14bd 9d48 97be 7762 4d3e
000002b0: f2c7 963e b55d f63d a1be c3be 3f53 9f3a
000002c0: 6405 31be 0b00 29bf 1f77 63bc a770 5fbd
000002d0: be0c 90be c274 e63d 880e d23e 72ee 623e
000002e0: 8966 8bbe 6cb7 c63e f45d 68be e56a 1abf
000002f0: d765 4dbc 9226 a03c 3bb1 37be 133d 55bd
00000300: f5ab ee3c 199f ee3e 1c72 44be f845 7ebc
00000310: 2f5b a23e 148b 903e 3082 8f3d 046d 0c3f
00000320: 4eb1 56be f012 3c3e e88f 053e 21aa 8f3e
00000330: ac57 f83d c945 30be 3528 d0bd 50c9 cfbc
00000340: edaf b83d f505 3fbe 2147 62be 5faf b9be
00000350: 25ab ae3e dc62 fcbb e125 77be d581 0dbe
00000360: 08fc 89bc 2f5b 7bbe 8c1d f9bd e429 0abb
00000370: 9dae 143e 7c4b afbe f534 9d3e 2aa1 3b3e
00000380: e87c eebe 97de 143d 542a 113e 4c4c 693e
00000390: f74e 903e f7f6 cfbe a2f3 31be 3afe 8cbb
000003a0: 467e 843e 332b a1be 7f8d 883e 618e 73be
000003b0: 1b6c 6a3d 92b3 423e 13e8 aebd e858 013f
000003c0: 2fc1 3f3d f8d3 aabd e7ff 9d3e 85fe 2b3d
000003d0: 96b2 75be 8e73 3b3c 2935 973e 2e28 773e
000003e0: a402 643e 1b0f fcbd 1024 413e 39eb 4cbd
000003f0: 162a a9bd f753 783e efe1 523d a645 4c3e

network_body._body_endoder.seq_layers.0.bias f4 [128]
0.046643686 -0.2644125 0.0347875 0.009163884 -0.17733102 -0.11688257 0.10072605 0.028393356
0.033590216 -0.08032803 -0.089243844 -0.06284069 -0.0495878 0.077687256 0.117422484 0.1316386
0.07918936 0.10500608 0.17539945 0.041138027 0.1112802 -0.010608443 0.10010727 0.102090836
-0.03012959 0.06590776 0.13771956 -0.15454866 0.053597096 0.20424958 0.0927627 0.09199886
0.250377 -0.054629985 -0.048042875 -0.099691845 -0.012991435 0.035650548 0.008143334 0.05599542
0.13730861 0.11030518 0.07294266 0.04165478 0.08548466 -0.1089675 0.061058916 -0.061166674
-0.18321097 0.078256905 0.08622214 0.046545047 0.09431715 -0.022234285 -0.019248348 0.110897645
0.08428647 0.05708043 0.22372079 -0.034059785 0.14745402 -0.07250179 -0.067973465 -0.16839078
0.20315793 0.056410033 -0.15606809 0.18463722 0.21787986 0.023726339 -0.16427721 -0.041754086
0.027292268 0.14466558 0.18303093 0.06719559 0.014819517 -0.04663862 -0.13900924 -0.056720477
-0.007518651 0.0002045388 -0.19136375 -0.03217722 -0.05393707 0.14472201 -0.043650277 -0.1387321
-0.17912227 0.11797073 -0.09503534 0.074470185 -0.090941384 -0.07601964 -0.036152508 0.096353516
-0.07183604 -0.2288544 -0.098585404 -0.0183548 0.17849417 0.17277797 0.28530714 -0.035408176
-0.22529493 -0.036369942 0.052846447 0.17994027 -0.23842272 -0.15568176 -0.09690153 0.06426004
0.11937369 -0.21726471 0.02664404 -0.09922109 0.14965668 0.139128 0.24800135 0.03678935
-0.024613513 0.01925161 0.0015289297 -0.038373612 -0.04883622 0.037639968 0.10716289 -0.05904576
00000000: 730d 3f3d 1361 87be 567d 0e3d 1e24 163c
00000010: 4396 35be 2160 efbd 7649 ce3d 2f99 e83c
00000020: e595 093d 0683 a4bd 7ac5 b6bd 9fb2 80bd
00000030: 941c 4bbd 7f1a 9f3d 337b f03d 45cc 063e
00000040: 082e a23d 6d0d d73d ea9b 333e 5980 283d
00000050: e0e6 e33d 09cf 2dbc 0a05 cd3d 0015 d13d
00000060: 54d2 f6bc a6fa 863d 5b06 0d3e 0142 1ebe
00000070: a188 5b3d cd26 513e 5ffa bd3d e669 bc3d
00000080: 6a31 803e b1c3 5fbd 9bc8 44bd 3d2b ccbd
00000090: 07da 54bc 4f06 123d 9e6b 053c 745b 653d
000000a0: a19a 0c3e afe7 e13d f662 953d 349e 2a3d
000000b0: 9512 af3d 5a2a dfbd ea18 7a3d e889 7abd
000000c0: a89b 3bbe 2845 a03d 3c95 b03d 05a6 3e3d
000000d0: 5a29 c13d ad24 b6bc b6ae 9dbc 4e1e e33d
000000e0: 639e ac3d 2bcd 693d 1017 653e 4682 0bbd
000000f0: 30fe 163e d27b 94bd ac35 8bbd a26e 2cbe
00000100: a208 503e 350e 673d 50d0 1fbe 8a11 3d3e
00000110: e61b 5f3e bd5d c23c 4938 28be 5506 2bbd
00000120: 0994 df3c 3723 143e 766c 3b3e d79d 893d
00000130: 8fcd 723c 2308 3fbd 7058 0ebe bb53 68bd
00000140: 045f f6bb 7779 5639 dcf4 43be 43cc 03bd
00000150: 1eed 5cbd 0232 143e a2ca 32bd ca0f 0ebe
00000160: d46b 37be a39a f13d e3a1 c2bd d383 983d
00000170: 7a3f babd 2fb0 9bbd a714 14bd fe54 c53d
00000180: c61e 93bd cf58 6abe 25e7 c9bd ce5c 96bc
00000190: 2dc7 363e b5ec 303e c713 923e 2a08 11bd
000001a0: b7b3 66be a6f8 14bd 8475 583d 4342 383e
000001b0: 1625 74be 0a6b 1fbe 4f74 c6bd c59a 833d
000001c0: 317a f43d a47a 5ebe 9a44 da3c 6d34 cbbd
000001d0: 9a3f 193e 9277 0e3e 11f4 7d3e 6eb0 163d
000001e0: 47a2 c9bc 8db5 9d3c 5e66 c83a a62d 1dbd
000001f0: 7d08 48bd 5e2c 1a3d 3878 db3d f8d9 71bd

network_body._body_endoder.seq_layers.2.weight f4 [128, 128]
-0.029250473 0.08377443 0.08166501 -0.024538763 -0.0543446 0.02429202 -0.27988645 -0.047034502
-0.15467311 0.0029515624 -0.018683113 0.21193162 0.007622297 -0.1413916 -0.112171955 0.0075144516
-0.04695746 -0.08514534 -0.14199358 0.01775897 -0.095188335 -0.008026702 -0.15585268 0.06989339
-0.0065225316 -0.017761648 -0.13537776 -0.026741913 -0.009084776 0.057212543 0.044764344 0.095782764
-0.1153087 0.034449544 -0.0026666953 0.02777657 0.055389304 0.0638683 0.08002863 -0.029118301
-0.1888018 0.047012024 -0.049885236 0.03564955 -0.096424416 -0.1222342 -0.14030893 -0.034549676
0.05673454 0.07019853 -0.039178457 0.05273157 0.052015647 0.084057555 -0.16567285 -0.045396525
-0.05481804 0.07810154 -0.07768547 0.011168555 0.23861611 0.22291356 -0.13257883 -0.09034723
-0.15269443 0.15015696 -0.10940189 -0.21586122 -0.2910019 -0.081452325 0.14779656 0.023144212
0.062614135 0.017270617 -0.12977305 -0.083191045 -0.09697734 -0.08120147 -0.03602613 -0.1542364
-0.07429252 0.11105041 0.006345038 -0.06426276 -0.06834797 -0.14335838 0.038304772 -0.10014941
-0.057116684 0.025406491 0.05585113 -0.2147961 0.14938328 0.1682842 0.06271225 -0.08689326
-0.08581759 -0.08215247 -0.09640057 -0.054592412 0.059819628 0.03808848 -0.21473491 0.08396851
-0.054230537 0.06289079 0.13546987 -0.104212984 0.1677239 0.061122525 -0.034996927 -0.019730495
-0.320598 0.14868128 -0.043129165 0.02146189 -0.11123972 -0.13355346 -0.2355552 -0.10814372
-0.080452226 -0.002241257 -0.11338892 -0.0019938357 -0.12755275 -0.033387367 -0.26209223 0.049190886
-0.057305735 0.090752184 -0.002449279 0.0068509174 -0.0064100996 -0.011759346 0.08046148 0.047852207
0.08463737 -0.1591347 -0.28691643 0.08046382 0.022380525 -0.043741796 0.10824585 0.11868139
-0.04521302 -0.023173966 -0.16693169 -0.20430839 0.12536906 -0.08957925 -0.13338271 0.036302317
0.103045814 -0.14554802 -0.005824363 0.017762529 -0.0018476901 -0.116122164 -0.028081603 -0.14563432
-0.07371248 -0.071582556 0.046274934 -0.0032022416 0.12968843 -0.036314975 0.026551582 -0.046408243
-0.037928414 -0.019973043 0.006268047 0.12002341 0.10097435 -0.07722746 -0.10845476 -0.0020389177
0.117300265 -0.20304498 -0.14832771 -0.017882213 -0.067969516 0.049464557 -0.067817345 0.004117473
0.14366816 -0.013523843 0.03460356 0.028429976 -0.082382955 0.13666183 0.09241761 -0.13532203
-0.09635102 0.15801936 -0.097284965 -0.11591775 -0.060560316 0.063753754 -0.05746333 0.08693186
-0.03528626 0.008637698 -0.051151834 -0.008762334 0.03700957 0.118354395 -0.051205397 -0.12367427
0.1280351 0.064519405 0.03864526 0.0065436875 0.1338388 0.053210307 0.011091118 0.042214
-0.018481662 0.06059089 0.25993788 0.010798048 0.0777625 0.04966302 -0.004891252 0.004893951
0.04995187 -0.20355733 -0.022089612 -0.071234375 -0.16494219 0.06411101 -0.021321489 -0.09670468
-0.11921599 0.036883052 -0.017001856 -0.04465005 0.015714912 -0.044559825 -0.103792466 0.0061806985
-0.016581388 0.07447871 0.10111915 0.06880536 -0.019741712 -0.1307074 0.028768908 -0.14359231
-0.04623518 -0.008464445 -0.009642617 0.032783598 0.10755809 -0.028618244 -0.11476928 0.08695781
00000000: b09e efbc ee91 ab3d fc3f a73d 8405 c9bc
00000010: 7198 5ebd 0f00 c73c 474d 8fbe 40a7 40bd
00000020: a162 1ebe 006f 413b 540d 99bc 9a04 593e
00000030: 76c4 f93b f6c8 10be 69ba e5bd ca3b f63b
00000040: 7756 40bd ae60 aebd c466 11be 427b 913c
00000050: 1af2 c2bd 6e82 03bc d897 1fbe 4424 8f3d
00000060: f6ba d5bb e080 91bc 78a0 0abe db11 dbbc
00000070: 50d8 14bc b357 6a3d d15a 373d c129 c43d
00000080: f826 ecbd f71a 0d3d b9c3 2ebb b08b e33c
00000090: e5df 623d 62cd 823d 0de6 a33d 8189 eebc
000000a0: 4255 41be ae8f 403d 7654 4cbd 4305 123d
000000b0: 2a7a c5bd ed55 fabd 25ad 0fbe f683 0dbd
000000c0: 7a62 683d 3fc4 8f3d 9779 20bd 0ffd 573d
000000d0: 5c0e 553d 5e26 ac3d 25a6 29be b5f1 39bd
000000e0: e288 60bd b3f3 9f3d 8f19 9fbd 51fc 363c
000000f0: c857 743e 7443 643e bfc2 07be f807 b9bd
00000100: ee5b 1cbe bfc2 193e 190e e0bd b90a 5dbe
00000110: 33fe 94be 7ad0 a6bd fb57 173e ee98 bd3c
00000120: d73b 803d 1c7b 8d3c 3ae3 04be 1160 aabd
00000130: 0e9c c6bd f54c a6bd 2390 13bd 26f0 1dbe
00000140: ad26 98bd 666e e33d 09ea cf3b 329c 83bd
00000150: 05fa 8bbd 8acc 12be 77e5 1c3d 221b cdbd
00000160: 2ff3 69bd 4621 d03c 28c4 643d 82f3 5bbe
00000170: eef7 183e b152 2c3e 486f 803d 18f5 b1bd
00000180: 22c1 afbd 8e3f a8bd a96d c5bd 4b9c 5fbd
00000190: 6d05 753d aa02 1c3d 78e3 5bbe aff7 ab3d
000001a0: d720 5ebd e3cc 803d 9db8 0a3e 9e6d d5bd
000001b0: d0bf 2b3e 9d5b 7a3d f058 0fbd d9a1 a1bc
000001c0: 6c25 a4be e83f 183e 35a8 30bd d8d0 af3c
000001d0: a6d1 e3bd 3dc2 08be 6235 71be 747a ddbd
000001e0: 23c4 a4bd 0ee2 12bb 7338 e8bd 03ab 02bb
000001f0: 309d 02be 31c1 08bd f430 86be 627c 493d
00000200: 6bb9 6abd 48dc b93d 1584 20bb a97d e03b
00000210: d00b d2bb 46aa 40bc fdc8 a43d ad00 443d
00000220: 5c56 ad3d 35f4 22be b6e6 92be 37ca a43d
00000230: 5d57 b73c 992a 33bd 00b0 dd3d 3b0f f33d
00000240: 4a31 39bd 54d7 bdbc 24f0 2abe 3836 51be
00000250: bf60 003e 5375 b7bd 7a95 08be bdb1 143d
00000260: af09 d33d 8a0a 15be 4cda bebb b982 913c
00000270: 312e f2ba 75d1 edbd 640b e6bc 2a21 15be
00000280: 92f6 96bd e099 92bd c98a 3d3d b3dc 51bb
00000290: 0bcd 043e 03bf 14bd b482 d93c 9216 3ebd
000002a0: d35a 1bbd 829e a3bc 3064 cd3b d5ce f53d
000002b0: a4cb ce3d 6e29 9ebd 871d debd 5d9f 05bb
000002c0: 1f3b f03d 06eb 4fbe 38e3 17be b87d 92bc
000002d0: 9a33 8bbd 599b 4a3d d2e3 8abd deeb 863b
000002e0: bf1d 133e 1c93 5dbc 76bc 0d3d fbe5 e83c
000002f0: 65b8 a8bd 14f1 0b3e 7245 bd3d dc91 0abe
00000300: af53 c5bd d4cf 213e 573d c7bd 4966 edbd
00000310: 180e 78bd 5491 823d ab5e 6bbd 5509 b23d
00000320: 5388 10bd 2285 0d3c 9684 51bd e48f 0fbc
00000330: 5997 173d ca63 f23d c0bc 51bd f048 fdbd
00000340: a21b 033e c022 843d 7e4a 1e3d 6e6c d63b
00000350: 0a0d 093e 0df3 593d 85b7 353c 96e8 2c3d
00000360: db66 97bc 272e 783d 9416 853e 4cea 303c
00000370: f241 9f3d 736b 4b3d cc46 a0bb 705d a03b
00000380: 559a 4c3d 5571 50be 46f5 b4bc 54e3 91bd
00000390: 9be6 28be a24c 833d 67aa aebc 1a0d c6bd
000003a0: 8327 f4bd af12 173d 7a47 8bbc f9e2 36bd
000003b0: 8fbc 803c 5d84 36bd 2591 d4bd 7587 ca3b
000003c0: b1d5 87bc 4b88 983d 8f17 cf3d d3e9 8c3d
000003d0: 5fb9 a1bc 29d8 05be c6ac eb3c dd09 13be
000003e0: 1a61 3dbd 75ae 0abc 11fc 1dbc 1848 063d
000003f0: 6a47 dc3d cf70 eabc 280c ebbd f016 b23d

network_body._body_endoder.seq_layers.2.bias f4 [128]
-0.13934462 -0.013409172 -0.16437247 -0.086977474 -0.044362683 -0.18639147 -0.14627975 -0.0063562505
0.05118687 -0.12157793 -0.048199937 -0.11276745 -0.12547442 -0.3078715 -0.17243962 -0.14657207
0.04994252 0.02548678 0.049769435 -0.18291044 -0.15582708 -0.006092849 0.0679614 -0.03174669
-0.11120544 -0.19091308 -0.05783835 -0.07351694 -0.09652452 -0.16768871 -0.052615043 -0.07677896
-0.113445885 0.045049526 -0.0772133 0.022175718 -0.02372897 -0.117342904 0.07190161 -0.025894184
0.078250624 -0.108158685 0.16227198 -0.13205309 -0.05914946 0.00023284309 -0.09888779 0.0857671
-0.16404256 -0.13406001 -0.23767777 0.10622578 0.00075071794 -0.113248475 -0.19965532 -0.030320456
-0.04284704 -0.08182235 -0.0020071827 -0.14051415 -0.08841634 -0.059485 -0.18524903 -0.16105157
-0.033380963 -0.045940917 -0.16989908 -0.18672454 0.09154963 0.19479728 -0.12320381 -0.11107681
0.08847295 -0.06769474 -0.0964897 -0.16151626 0.14434534 -0.136411 0.18634228 -0.23258097
0.064575225 -0.07835827 0.15237965 0.03498988 -0.16279586 0.08412872 -0.12837066 -0.1009312
-0.18259557 -0.090390794 0.09152681 -0.21907057 -0.10198733 0.044741936 -0.039271723 -0.21261899
0.06461691 -0.11765164 0.18466647 0.14522392 0.023804093 -0.025862752 0.09702792 -0.14046238
0.0183415 -0.027951889 -0.1879106 0.17898685 -0.07433071 -0.19866061 -0.112225555 0.028419208
0.016659522 -0.074623235 -0.097224586 0.028134083 -0.18192734 -0.24466369 -0.058672503 -0.24012339
-0.13525067 -0.14448322 0.020772804 -0.17522714 0.04900444 -0.04666267 -0.24493605 0.01723847
00000000: 5bb0 0ebe 25b2 5bbc 4251 28be 3f21 b2bd
00000010: a5b5 35bd 68dd 3ebe 5cca 15be 1848 d0bb
00000020: 53a9 513d dafd f8bd 4c6d 45bd 9ff2 e6bd
00000030: 5e7c 00be 55a1 9dbe 0394 30be fd16 16be
00000040: 8790 4c3d a7c9 d03c 09db 4b3d e04c 3bbe
00000050: 2291 1fbe 86a6 c7bb 592f 8b3d d108 02bd
00000060: adbf e3bd b87e 43be e8e7 6cbd 0d90 96bd
00000070: a6ae c5bd 97b6 2bbe df82 57bd 4a3e 9dbd
00000080: 5156 e8bd da85 383d 0222 9ebd daa9 b53c
00000090: 4263 c2bc 7a51 f0bd 2741 933d 0a20 d4bc
000000a0: dd41 a03d 4d82 ddbd a02a 263e ed38 07be
000000b0: b446 72bd 5727 7439 af85 cabd a9a6 af3d
000000c0: c6fa 27be 0747 09be cd61 73be e78c d93d
000000d0: d4cb 443a d1ee e7bd 7272 4cbe 9b62 f8bc
000000e0: 6180 2fbd 7a92 a7bd f08a 03bb f1e2 0fbe
000000f0: a013 b5bd 8ba6 73bd ecb1 3dbe b4ea 24be
00000100: 7aba 08bd 8b2c 3cbd 06fa 2dbe b834 3fbe
00000110: 5f7e bb3d f078 473e 4752 fcbd 3d7c e3bd
00000120: 4e31 b53d 8aa3 8abd 649c c5bd 8564 25be
00000130: 44cf 133e 53af 0bbe 83d0 3e3e b529 6ebe
00000140: 0440 843d 4d7a a0bd 6909 1c3e 8c51 0f3d
00000150: f5b3 26be ae4b ac3d 9973 03be 04b5 cebd
00000160: 55fa 3abe cf1e b9bd 6872 bb3d 0954 60be
00000170: bcde d0bd 5243 373d 63db 20bd cbb8 59be
00000180: df55 843d 58f3 f0bd 3519 3d3e 94b5 143e
00000190: cd00 c33c 1fde d3bc 93b6 c63d 5fd5 0fbe
000001a0: ea40 963c 5cfb e4bc a36b 40be 5448 373e
000001b0: b33a 98bd b06d 4bbe 83d6 e5bd 66cf e83c
000001c0: 8d79 883c 11d4 98bd af1d c7bd 7379 e63c
000001d0: 294b 3abe 1e89 7abe 9452 70bd e8e2 75be
000001e0: 277f 0abe 69f3 13be ba2b aa3c be6e 33be
000001f0: e1b8 483d 5b21 3fbd 84d0 7abe b137 8d3c

action_model._continuous_distribution.log_sigma f4 [1, 3]
-0.853047 -0.6528305 -0.5196969
00000000: 4a61 5abf e61f 27bf db0a 05bf

action_model._continuous_distribution.mu.weight f4 [3, 128]
-0.06960437 -0.024869159 -0.020588 0.07478705 0.007863142 -0.030469868 -0.011387009 -0.047593318
-0.025948763 -0.013271761 0.013764167 0.011776368 -0.08728193 -0.06467963 0.0034468465 0.009937125
0.011587335 -0.013433504 -0.11071016 0.01856822 -0.028644199 0.047401205 -0.05372634 0.043603364
-0.020260198 -0.042913783 -0.07141705 0.051553283 -0.012981798 -0.007195546 0.003493153 0.05573513
-0.03641572 0.010481933 -0.101232484 0.0029099474 -0.05368223 -0.0054451427 0.057523217 -0.0064109056
0.07072116 0.034876052 0.025793966 0.0067696976 -0.085148074 -0.022256607 0.012700619 0.04916133
0.0009310372 -0.0033829878 -0.04067675 0.109198324 -0.13856351 -0.012017603 -0.11721136 0.01547118
-0.033371776 0.03498721 -0.00087265205 -0.009792454 0.01922914 0.004066508 0.023073357 -0.01072251
0.06476871 0.009265097 -0.010928951 -0.011161611 -0.027115095 0.0129191615 -0.0062729223 -0.09266616
0.06895008 0.0149800265 -0.017574476 0.0012529031 0.06019884 -0.08102527 0.095605694 -0.010696383
0.024079965 0.0416052 0.0019733945 0.018703666 -0.007515001 0.020336136 -0.16804147 0.042068973
-0.004020276 0.04489121 -0.040193826 -0.012040096 -0.052826922 0.027979584 0.042608388 -0.06989378
0.0061929654 0.07918551 0.049386512 -0.0002856825 0.06974129 -0.05439143 0.0032499877 -0.005215386
-0.08296444 0.022307446 -0.035954863 0.04311249 0.018026559 -0.070379324 -0.025688615 0.011083682
0.03253135 0.079835646 -0.013061941 -0.19616489 -0.09852843 -0.05647712 0.0071449666 -0.120949686
-0.052958388 0.0118163 0.026693389 -0.028631127 0.0017580058 0.005373801 -0.029857302 0.031397633
-0.041742153 -0.040957253 -0.05656852 -0.119108684 -0.08434638 -0.09560072 -0.17765638 0.006736262
-0.010986698 -0.08214687 -0.009749824 -0.18968052 -0.08959327 -0.12879367 -0.1691866 -0.12855312
-0.002458199 0.006122492 0.08466502 -0.1562712 -0.111843124 -0.009658969 0.005011576 -0.012477258
0.00034431336 -0.10958262 -0.037753154 -0.12405165 -0.027304672 -0.14680201 -0.027348027 -0.05106721
-0.12301562 -0.06252397 -0.058818292 0.0003023541 -0.06435702 -0.024643973 0.025870154 -0.0044564474
-0.07047659 -0.06959387 0.07838971 -0.040933203 0.08692493 -0.053912323 -0.059836738 -0.04039154
-0.08876591 -0.08275731 -0.11622777 0.11138042 0.001545319 -0.095960595 -0.10222992 -0.08654594
-0.032868296 -0.14119337 -0.05926691 -0.12109945 -0.021831386 -0.0058879885 -0.12609898 -0.04143713
-0.092657894 1.25900115e-05 -0.08016737 -0.13658889 -0.0069305096 0.1437844 -0.003933121 0.037183195
-0.042104833 -0.07165492 -0.08202104 -0.09446935 0.038747698 -0.0816392 0.05092875 -0.08722625
0.017001802 -0.15599778 0.07070878 -0.050347112 -0.07217823 0.017768241 0.033723537 -0.096393846
-0.054072715 -0.12791798 0.044876114 -0.10333255 -0.03547456 -0.021203885 0.015584782 -0.006556035
0.01902458 -0.12640004 0.09784474 0.04531859 -0.04823261 -0.022242403 -0.0006453206 -0.028036917
-0.005316162 -0.07037735 -0.089126304 0.1080141 -0.10271119 0.021733606 -0.07219902 0.0009901649
0.014776012 -0.13323465 -0.06373017 0.026959024 -0.08113156 -0.019531744 -0.0779242 -0.17959382
-0.07490324 -0.06725963 -0.029684113 -0.07782477 -0.0026786758 -0.049239464 -0.17703976 -0.04754058
00000000: bc8c 8ebd 68ba cbbc 2aa8 a8bc f429 993d
00000010: 68d4 003c f29b f9bc 9490 3abc 36f1 42bd
00000020: 8092 d4bc cd71 59bc 1a83 613c abf1 403c
00000030: dec0 b2bd c176 84bd 7de4 613b 53cf 223c
00000040: ced8 3d3c 3318 5cbc 02bc e2bd 611c 983c
00000050: 3da7 eabc c427 423d 2710 5cbd 7199 323d
00000060: b7f8 a5bc 5dc6 2fbd 1a43 92bd 8929 533d
00000070: 9bb1 54bc 9dc8 ebbb 62ed 643b 854a 643d
00000080: a628 15bd 6abc 2b3c fa52 cfbd d1b4 3e3b
00000090: e6e1 5bbd 2b6d b2bb 779d 6b3d 9312 d2bb
000000a0: 41d6 903d 31da 0e3d de4d d33c 57d4 dd3b
000000b0: 1d62 aebd 7d53 b6bc 4216 503c 645d 493d
000000c0: d910 743a 1eb5 5dbb aa9c 26bd 5fa3 df3d
000000d0: 98e3 0dbe 7be5 44bc 820c f0bd d57a 7d3c
000000e0: d8b0 08bd c04e 0f3d b0c2 64ba 8770 20bc
000000f0: 6e86 9d3c 5740 853b 5604 bd3c 77ad 2fbc
00000100: 75a5 843d a2cc 173c 580f 33bc 31df 36bc
00000110: 7a20 debc e4aa 533c 168d cdbb c1c7 bdbd
00000120: b335 8d3d c96e 753c 59f8 8fbc 7438 a43a
00000130: 0f93 763d 94f0 a5bd ebcc c33d e23f 2fbc
00000140: 5943 c53c 376a 2a3d 1154 013b 6e38 993c
00000150: 6640 f6bb f897 a63c 1013 2cbe 8450 2c3d
00000160: 85bc 83bb d8df 373d 48a2 24bd d343 45bc
00000170: 0b61 58bd 7135 e53c 2286 2e3d 7824 8fbd
00000180: 5cee ca3b 032c a23d 8349 4a3d a8c7 95b9
00000190: 85d4 8e3d 8cc9 5ebd bffd 543b d4e5 aabb
000001a0: 43e9 a9bd 1bbe b63c 6845 13bd b996 303d
000001b0: 6fac 933c 0923 90bd ee70 d2bc 5598 353c
000001c0: 983f 053d df80 a33d c001 56bc 73df 48be
000001d0: 46c9 c9bd 8d54 67bd 5320 ea3b 78b4 f7bd
000001e0: e5ea 58bd 2899 413c 18ac da3c d38b eabc
000001f0: e36c e63a b616 b03b 4d97 f4bc ce9a 003d
00000200: d2f9 2abd cbc2 27bd 64b4 67bd 41ef f3bd
00000210: cbbd acbd 4fca c3bd 8eeb 35be dcbb dc3b
00000220: 8d01 34bc 9e3c a8bd babd 1fbc 9c3b 42be
00000230: ad7c b7bd 7de2 03be 413f 2dbe 6ea3 03be
00000240: bc19 21bb 2f9f c83b db64 ad3d 8f05 20be
00000250: 020e e5bd a740 1ebc 2638 a43b 6a6d 4cbc
00000260: f584 b439 da6c e0bd 0da3 1abd cb0e febd
00000270: 0cae dfbc 4453 16be f808 e0bc da2b 51bd
00000280: 9def fbbd 910c 80bd 73eb 70bd 4885 9e39
00000290: 9dcd 83bd 28e2 c9bc a5ed d33c 6407 92bb
000002a0: 0856 90bd 3b87 8ebd c98a a03d 93a9 27bd
000002b0: b305 b23d 2bd3 5cbd 5e17 75bd 9971 25bd
000002c0: e7ca b5bd aa7c a9bd d308 eebd 6b1b e43d
000002d0: 4d8c ca3a fd86 c4bd ec5d d1bd ff3e b1bd
000002e0: e8a0 06bd ff94 10be dcc1 72bd fd02 f8bd
000002f0: bcd7 b2bc 07f0 c0bb 1720 01be fbb9 29bd
00000300: 6cc3 bdbd b039 5337 ca2e a4bd f5dd 0bbe
00000310: 5419 e3bb 383c 133e 69e1 80bb 684d 183d
00000320: 1e76 2cbd d1bf 92bd a6fa a7bd 2679 c1bd
00000330: e8b5 1e3d 7432 a7bd aa9a 503d ada3 b2bd
00000340: 5d47 8b3c e2bd 1fbe c4cf 903d c638 4ebd
00000350: 2ed2 93bd b48e 913c b121 0a3d 236a c5bd
00000360: 5a7b 5dbd eefc 02be 04d0 373d 04a0 d3bd
00000370: c64d 11bd c5b3 adbc 5057 7f3c 02d4 d6bb
00000380: 70d9 9b3c 036f 01be d362 c83d fc9f 393d
00000390: 8f8f 45bd b335 b6bc bb2a 29ba adad e5bc
000003a0: 3333 aebb 0022 90bd da87 b6bd 7f36 dd3d
000003b0: 3f5a d2bd ad0a b23c 14dd 93bd 6cc8 813a
000003c0: 1617 723c aa6e 08be f784 82bd 2cd9 dc3c
000003d0: 4e28 a6bd 0901 a0bc b996 9fbd 71e7 37be
000003e0: df66 99bd 6bbf 89bd 192c f3bc 9862 9fbd
000003f0: b98c 2fbb 52af 49bd e949 35be e9b9 42bd

action_model._continuous_distribution.mu.bias f4 [3]
0.10776321 0.24973135 0.17576526
00000000: f5b2 dc3d 93b9 7f3e cffb 333e

exp_avg f4 [128, 22]
-3.1749765e-05 -0.0004955423 -3.7087197e-05 -0.00047904483 -7.846809e-06 -0.00049596216 2.1280266e-05 -0.0004701013
4.954303e-06 -0.0004546364 0.00021273231 -0.0004500608 -2.2897075e-07 -0.00044144643 0.0014720887 -0.000419228
0.0016583564 -0.00037215796 1.0911829e-05 -0.00045300036 1.6147478e-05 -0.0005379472 -0.00015988335 -0.0020683247
-0.00018949271 -0.0021088256 -0.00017275586 -0.0021553258 -0.00034562196 -0.002189101 -0.0002728824 -0.002006656
6.87368e-05 -0.0020053273 -3.086432e-05 -0.0019569034 -0.0013769267 -0.0017755287 -0.0015345954 -0.0018664999
-0.0006180576 -0.0018129975 -0.0005447074 -0.0016423755 1.6952847e-05 0.0006509052 1.5375143e-05 0.0006638197
2.9093517e-05 0.0006833648 -0.00010314729 0.000650218 -2.5420133e-05 0.0005803994 6.068495e-05 0.00057696726
5.5416298e-05 0.00056863466 0.0011491915 0.00051446824 6.407558e-05 0.00050739845 5.1986266e-05 0.00052665506
4.5156135e-05 0.0005010185 3.0774376e-05 0.00051519915 3.661913e-05 0.0005909462 4.4883855e-05 0.00059611775
4.4873934e-05 0.0006093831 7.852874e-05 0.0005663934 0.00013045152 0.00055939157 9.066949e-06 0.0005108621
0.002409572 0.0004964555 0.0024369874 0.0006100175 0.00036605593 0.0006188826 0.0002782339 0.0005749812
4.458916e-05 3.5276156e-05 1.6755543e-05 -1.3823243e-05 4.720138e-05 -2.7379196e-05 -8.9067034e-05 -4.5241206e-05
3.078206e-05 2.259243e-05 -6.5461936e-05 4.532392e-05 7.032269e-05 8.451211e-05 -0.0014966041 0.000111496774
-0.0017326038 -1.7593673e-05 4.778453e-05 -0.00012526105 0.00010417086 -0.00016953258 6.4610877e-06 0.00010786803
7.906763e-06 0.00011407067 1.9522167e-05 0.000123232 4.9299688e-05 0.00010902933 0.00010733825 7.475645e-05
1.6710928e-05 7.080201e-05 2.3035262e-05 6.4280146e-05 0.0007178827 4.0323153e-05 0.00021041815 2.505997e-05
3.377548e-05 8.4767846e-05 2.199347e-05 5.893786e-05 0.00012322918 0.0020304827 0.00014428621 0.0020272913
0.00017133984 0.0021181968 0.00023360763 0.0021533952 0.00032601596 0.0017501392 2.9150542e-05 0.0017327553
0.0004886382 0.0016783747 -2.8989627e-05 0.0013603665 -5.9487065e-06 0.0015766451 0.00043570017 0.0017970717
0.00036989266 0.001709455 9.6830394e-05 0.00094582624 0.00010427699 0.0009866096 0.00015200437 0.0010081736
0.00015933241 0.0009681181 0.0002692216 0.0008782654 9.3543604e-05 0.0008882646 0.00018532714 0.0008541825
0.0026957914 0.00075114483 0.00091406686 0.00072738604 0.0003035551 0.0007811664 0.00029081525 0.000569931
7.625608e-05 0.0012840994 8.625519e-05 0.0012865288 0.00011806632 0.0013283516 5.4892866e-05 0.0013582425
4.8461974e-05 0.0011868028 0.0001546405 0.0011815268 0.00030221065 0.0011559894 0.0008918152 0.0010491202
0.0007337245 0.00105893 0.00024602373 0.0010985292 0.00023937556 0.00094368326 -8.3937775e-06 -0.0008304697
-2.4252913e-05 -0.00081111956 -1.737284e-05 -0.00085189426 -7.909087e-05 -0.00076200964 -7.3699004e-05 -0.0005453029
0.00024048793 -0.0005542489 -4.8345653e-05 -0.00055203924 -0.0038063528 -0.00042981777 -0.0007086422 -0.00038563396
6.484837e-05 -0.0005725966 6.455097e-05 -0.0005946375 0.00010762152 0.0012228101 0.00011246739 0.0012302081
0.0001032164 0.0012320436 0.00015432488 0.0012165081 0.00043373473 0.0012053519 5.330518e-05 0.0012090874
-0.0002121783 0.0011862628 -0.00060208375 0.0010904255 -0.0012942796 0.001028304 0.00036666697 0.00092228747
0.00031286842 0.0008228086 -0.00015968696 -0.00069834734 -0.00017005528 -0.0006295235 -0.0001593283 -0.0006436449
-0.00047026912 -0.00065586984 -0.00083568005 -0.0006398423 -0.00029784176 -0.0007006599 -0.000120860444 -0.000770388
00000000: 0d2b 05b8 48e7 01ba 138e 1bb8 4f28 fbb9
00000010: caa5 03b7 7503 02ba 0683 b237 ee77 f6b9
00000020: 243d a636 445c eeb9 e510 5f39 23f6 ebb9
00000030: 00db 75b4 f071 e7b9 1af3 c03a d4cb dbb9
00000040: 355d d93a 321e c3b9 f311 3737 ae80 edb9
00000050: 7274 8737 0705 0dba 5ca6 27b9 bb8c 07bb
00000060: 90b2 46b9 3934 0abb cc25 35b9 5e40 0dbb
00000070: 9834 b5b9 0577 0fbb a811 8fb9 1a82 03bb
00000080: ca26 9038 cf6b 03bb 5074 01b8 643f 00bb
00000090: fe79 b4ba dbb8 e8ba 7a24 c9ba 58a5 f4ba
000000a0: 2505 22ba 1aa2 edba b2ca 0eba fa44 d7ba
000000b0: f635 8e37 82a1 2a3a def9 8037 3004 2e3a
000000c0: da0d f437 d623 333a c850 d8b8 6473 2a3a
000000d0: 523d d5b7 f225 183a f887 7e38 9e3f 173a
000000e0: cc6e 6838 6d10 153a 78a0 963a 61dd 063a
000000f0: 5160 8638 ef02 053a d40b 5a38 390f 0a3a
00000100: 0866 3d38 c856 033a bc13 0138 6e0e 073a
00000110: 7e97 1938 bae9 1a3a ac41 3c38 c944 1c3a
00000120: 0537 3c38 02bf 1f3a ccaf a438 057a 143a
00000130: d0c9 0839 22a4 123a 401e 1837 60eb 053a
00000140: e9e9 1d3b 9124 023a ddb5 1f3b 95e9 1f3a
00000150: 32eb bf39 823c 223a ecdf 9139 56ba 163a
00000160: 3f05 3b38 7cf5 1338 418e 8c37 60ea 67b7
00000170: 19fa 4538 60ac e5b7 80c9 bab8 60c1 3db8
00000180: fc1b 0138 e084 bd37 9c48 89b8 301a 3e38
00000190: 357a 9338 183c b138 b329 c4ba 60d3 e938
000001a0: 8918 e3ba 2096 93b7 406c 4838 8258 03b9
000001b0: 4e76 da38 8ec4 31b9 52cc d836 3537 e238
000001c0: 4aa7 0437 3a39 ef38 89c3 a337 d737 0139
000001d0: 23c7 4e38 ada6 e438 c91a e138 90c6 9c38
000001e0: 722e 8c37 8a7b 9438 d93b c137 24ce 8638
000001f0: 4b30 3c3a a820 2938 b1a3 5c39 e037 d237
00000200: 25aa 0d38 64c5 b138 9e7e b837 0c34 7738
00000210: 1537 0139 d911 053b 894b 1739 4edc 043b
00000220: b0a9 3339 72d1 0a3b 92f4 7439 fa1f 0d3b
00000230: 1fed aa39 ed64 e53a 5088 f437 9f1d e33a
00000240: f417 003a e9fc db3a c02e f3b7 534e b23a
00000250: 009b c7b6 6ea7 ce3a b06e e439 b88b eb3a
00000260: 27ee c139 cb0f e03a 6c11 cb38 53f1 773a
00000270: 48af da38 2051 813a 5d63 1f39 b124 843a
00000280: 7812 2739 4ec9 7d3a 5026 8d39 653b 663a
00000290: d72c c438 6eda 683a 6054 4239 38eb 5f3a
000002a0: e0ab 303b 7ae8 443a fd9d 6f3a 0dae 3e3a
000002b0: 7a26 9f39 31c7 4c3a 9078 9839 6c67 153a
000002c0: aceb 9f38 3a4f a83a e7e3 b438 bea0 a83a
000002d0: 5f9a f738 151c ae3a c43c 6638 0e07 b23a
000002e0: a643 4b38 7e8e 9b3a fe26 2239 76dd 9a3a
000002f0: 0772 9e39 9184 973a b4c8 693a a282 893a
00000300: 6b57 403a cbcb 8a3a bffc 8039 86fc 8f3a
00000310: e300 7b39 8361 773a 00d3 0cb7 e1b3 59ba
00000320: bc72 cbb7 50a1 54ba e4bb 91b7 a851 5fba
00000330: 96dd a5b8 9ac1 47ba da8e 9ab8 a8f2 0eba
00000340: 7d2b 7c39 044b 11ba c0c6 4ab8 bab6 10ba
00000350: 0174 79bb 2a59 e1b9 2cc4 39ba ea2e cab9
00000360: 34ff 8738 4f1a 16ba 8a5f 8738 72e1 1bba
00000370: ddb2 e138 b346 a03a 78dc eb38 ef3e a13a
00000380: e275 d838 867c a13a 45d2 2139 3d73 9f3a
00000390: e466 e339 e6fc 9d3a 0094 5f38 3e7a 9e3a
000003a0: 2e7c 5eb9 607c 9b3a 28d5 1dba 9cec 8e3a
000003b0: d1a4 a9ba 28c8 863a 353d c039 aac5 713a
000003c0: 7d08 a439 c0b1 573a a471 27b9 4c11 37ba
000003d0: de50 32b9 9b06 25ba 5d11 27b9 47ba 28ba
000003e0: 748e f6b9 aeee 2bba 8a11 5bba 17bb 27ba
000003f0: a527 9cb9 7dac 37ba 7576 fdb8 ddf3 49ba

exp_avg_sq f4 [128, 22]
1.0204972e-07 2.5692818e-06 8.011612e-08 2.5082436e-06 1.1127936e-07 2.484804e-06 3.664464e-07 2.5131155e-06
4.9339264e-06 2.5120594e-06 3.797347e-06 2.538984e-06 3.5829892e-06 2.5524444e-06 2.9182567e-05 2.5024826e-06
1.6517512e-05 2.586652e-06 6.058467e-07 2.6771386e-06 2.1804473e-07 2.68616e-06 5.046989e-07 2.9174586e-05
7.547494e-07 2.9768196e-05 3.5854766e-06 3.0310146e-05 4.2722786e-06 3.082296e-05 2.0417942e-06 3.1140276e-05
1.9779018e-06 3.1235177e-05 2.5121549e-06 3.0990752e-05 3.3369727e-06 3.0708063e-05 9.5091655e-06 3.0126019e-05
3.866527e-06 2.829389e-05 2.1187152e-06 2.4152185e-05 1.5602612e-07 2.5898864e-06 1.79016e-07 2.6243613e-06
1.6752158e-07 2.6730372e-06 2.1839507e-07 2.733873e-06 4.530159e-07 2.773247e-06 1.0757917e-07 2.808889e-06
1.8584164e-07 2.8355091e-06 2.405604e-06 2.853447e-06 1.656065e-07 2.8720024e-06 1.6462847e-07 2.7876831e-06
1.6219867e-07 2.5051518e-06 1.8867443e-07 9.773732e-06 1.02055914e-07 9.88621e-06 1.5988786e-07 1.0018756e-05
2.328156e-07 1.0198755e-05 3.1755607e-07 1.029191e-05 4.3323817e-07 1.03851135e-05 2.5588467e-06 1.0405785e-05
1.6567963e-05 1.0291253e-05 1.170436e-05 1.0199521e-05 2.6851844e-06 9.687644e-06 1.180358e-06 8.340257e-06
1.6869055e-07 1.5859721e-05 3.487066e-07 1.609697e-05 2.3019666e-06 1.6241378e-05 2.6350124e-06 1.6468211e-05
3.0394078e-06 1.6535127e-05 3.3529773e-06 1.6502301e-05 1.0062989e-06 1.645756e-05 1.2009864e-05 1.6363221e-05
6.8190307e-06 1.5970872e-05 1.6015854e-06 1.4945774e-05 1.4227041e-06 1.276353e-05 1.0539946e-08 9.866422e-07
6.001362e-08 9.887165e-07 5.0143063e-07 9.965701e-07 4.8380406e-07 1.0152158e-06 4.0304838e-07 1.0238075e-06
5.8476985e-08 1.0222909e-06 2.0163044e-07 1.026175e-06 6.509805e-07 1.0400365e-06 1.1980235e-07 1.0579407e-06
7.0773424e-08 1.0142222e-06 1.267857e-07 8.5798195e-07 6.6374537e-07 9.1407084e-05 9.697291e-07 9.2564034e-05
1.4113313e-06 9.416853e-05 2.0760717e-06 9.551627e-05 3.0347073e-06 9.624595e-05 1.1196455e-05 9.5957206e-05
6.9826115e-06 9.509704e-05 5.615501e-06 9.506942e-05 6.401802e-06 9.3725714e-05 6.9673138e-06 8.8638524e-05
5.4709913e-06 7.582345e-05 9.10151e-08 1.10819055e-05 1.5031964e-07 1.1226224e-05 4.6459743e-07 1.13646865e-05
5.9664336e-07 1.1576273e-05 1.6513383e-06 1.167466e-05 2.119489e-06 1.1719236e-05 3.0361794e-06 1.1702628e-05
8.861799e-06 1.1704093e-05 1.7408277e-06 1.1647349e-05 1.0629402e-06 1.11502395e-05 6.50911e-07 9.8615465e-06
1.223466e-07 1.2453916e-05 2.0732718e-07 1.2547631e-05 2.8192602e-07 1.2663294e-05 5.6741465e-07 1.2876507e-05
6.193717e-07 1.3118294e-05 7.0885824e-07 1.3347753e-05 1.0924671e-06 1.3426863e-05 1.5589684e-06 1.3504428e-05
2.4712783e-06 1.3563998e-05 9.398288e-07 1.3004068e-05 1.036867e-06 1.119297e-05 3.1244215e-07 1.197471e-05
2.1470062e-07 1.2118888e-05 1.2671251e-06 1.247959e-05 1.4333194e-06 1.2877165e-05 1.5406017e-06 1.3193696e-05
2.7157125e-06 1.3461931e-05 1.9639297e-06 1.3653919e-05 2.0468444e-05 1.3813368e-05 4.5855627e-06 1.3955137e-05
1.1961233e-06 1.33417e-05 8.016628e-07 1.1632088e-05 4.0030486e-07 5.006219e-06 4.726139e-07 5.0487033e-06
1.9913733e-07 5.054117e-06 3.7970412e-07 5.122346e-06 4.814851e-06 5.126789e-06 5.7438106e-06 5.1077695e-06
6.068995e-06 5.111808e-06 5.361016e-06 5.0358103e-06 4.473672e-06 4.955747e-06 1.1257941e-06 4.671482e-06
5.918814e-07 4.0309183e-06 1.5702739e-06 2.3231567e-05 1.4095045e-06 2.341705e-05 6.3128864e-06 2.337635e-05
7.0849437e-06 2.3705943e-05 1.2499905e-05 2.3880833e-05 5.6120507e-06 2.3951015e-05 4.374618e-06 2.4216866e-05
00000000: 6d26 db33 ed6b 2c36 4e0c ac33 4c53 2836
00000010: 7af8 ee33 9cc0 2636 02bc c434 ffa6 2836
00000020: 1b8e a536 da94 2836 edd5 7e36 6a63 2a36
00000030: 4973 7036 a94a 2b36 16cd f437 53f0 2736
00000040: 168f 8a37 5896 2d36 78a1 2235 e4a8 3336
00000050: ae1f 6a34 e143 3436 a57a 0735 f2bb f437
00000060: fc99 4a35 b7b6 f937 059e 7036 8b42 fe37
00000070: 985a 8f36 e747 0138 c205 0936 9e9c 0238
00000080: 18bc 0436 8402 0338 7e96 2836 11fc 0138
00000090: c1f0 5f36 88cc 0038 8e89 1f37 22b7 fc37
000000a0: 37bd 8136 ab58 ed37 402f 0e36 6c9a ca37
000000b0: 2288 2734 e9cd 2d36 8b37 4034 2f1e 3036
000000c0: fbdf 3334 6e62 3336 fb7f 6a34 9577 3736
000000d0: 0836 f334 051c 3a36 4606 e733 5880 3c36
000000e0: c38b 4734 ad49 3e36 f66f 2136 d97d 3f36
000000f0: 91d1 3134 a0bc 4036 bbc4 3034 0814 3b36
00000100: d528 2e34 2e1e 2836 6f96 4a34 dcf9 2337
00000110: d529 db33 f3dc 2537 a4ad 2b34 3b16 2837
00000120: ddfb 7934 521b 2b37 937c aa34 6bab 2c37
00000130: cd97 e834 b93b 2e37 a7b8 2b36 8294 2e37
00000140: 6efb 8a37 98a8 2c37 d85d 4437 9c1e 2b37
00000150: 1e33 3436 1d88 2237 cb6c 9e35 22ed 0b37
00000160: 4e21 3534 7e0a 8537 df35 bb34 fb07 8737
00000170: 7c7b 1a36 183e 8837 2bd5 3036 3725 8a37
00000180: a1f8 4b36 eab4 8a37 b603 6136 6c6e 8a37
00000190: 2b10 8735 570e 8a37 f97d 4937 c043 8937
000001a0: 07cf e436 30f9 8537 0ef6 d635 9cbf 7a37
000001b0: bef3 be35 f222 5637 2c13 3532 c56c 8435
000001c0: d6e0 8033 0ab4 8435 0d9a 0635 e3c1 8535
000001d0: c3de 0135 8d42 8835 8c62 d834 c269 8935
000001e0: 2028 7b33 a635 8935 c17f 5834 1bbb 8935
000001f0: 0abf 2e35 6297 8b35 05a3 0034 91fe 8d35
00000200: 1afc 9733 6920 8835 9622 0834 1250 6635
00000210: 3c2c 3235 ceb1 bf38 a327 8235 f01e c238
00000220: f96c bd35 587c c538 a452 0b36 e84f c838
00000230: e0a7 4b36 a7d7 c938 68d8 3b37 a23c c938
00000240: 2d4c ea36 d66e c738 c96c bc36 0260 c738
00000250: 0fcf d636 9c8e c438 c5c8 e936 72e3 b938
00000260: 7593 b736 6803 9f38 1574 c333 6cec 3937
00000270: 8c67 2134 4458 3c37 c96d f934 f5aa 3e37
00000280: 0529 2035 b737 4237 8da3 dd35 48de 4337
00000290: 8b3c 0e36 bc9d 4437 2ac1 4b36 6856 4437
000002a0: 23ad 1437 b25c 4437 62a6 e935 fc68 4337
000002b0: 59aa 8e35 ea11 3b37 43ba 2e35 0573 2537
000002c0: 615e 0334 29f1 5037 a99d 5e34 aa83 5237
000002d0: 9e5b 9734 6f74 5437 7050 1835 2d08 5837
000002e0: e642 2635 a516 5c37 5e48 3e35 2af0 5f37
000002f0: e2a0 9235 f043 6137 bf3d d135 1491 6237
00000300: 3dd8 2536 ee90 6337 8b48 7c35 0c2c 5a37
00000310: 7b2a 8b35 71c9 3b37 b9bd a734 fde6 4837
00000320: 7588 6634 3a52 4b37 1612 aa35 6e5f 5137
00000330: 7b60 c035 010b 5837 acc6 ce35 7e5a 5d37
00000340: 963f 3636 8eda 6137 0ecc 0336 2313 6537
00000350: a6b3 ab37 f7bf 6737 afdd 9936 db20 6a37
00000360: 7c8a a035 2ad6 5f37 d931 5735 7027 4337
00000370: 7be9 d634 18fb a736 8fbb fd34 0868 a936
00000380: 74d2 5534 8996 a936 23da cb34 9ee0 ab36
00000390: 418f a136 c806 ac36 f5ba c036 6863 ab36
000003a0: 45a4 cb36 1986 ab36 c7e2 b336 48f9 a836
000003b0: 8d1c 9636 8b49 a636 fe19 9735 babf 9c36
000003c0: c8e1 1e35 5341 8736 33c2 d235 69e1 c237
000003d0: 352e bd35 bb6f c437 48d3 d336 5418 c437
000003e0: 34bb ed36 20dc c637 afb6 5137 b353 c837
000003f0: 264f bc36 6aea c837 afc9 9236 5325 cb37

exp_avg f4 [128]
0.00019510042 0.0027738533 -0.00034317648 -0.0005971841 -0.00019650726 -0.00017910695 -0.002444755 -0.0018673973
-0.0018081652 8.604047e-05 -0.0016199669 0.00065067376 0.00073575764 -0.0016055502 -0.00066127494 -0.0011945425
0.00050063635 -0.002058906 -0.0029044778 -0.0007992576 -0.0001083659 -0.00082331616 -0.001867003 -1.847677e-05
-0.00037402782 -0.0016276843 -0.0027385238 0.00046057848 -0.0013217931 -0.0027245625 -0.002328327 0.0002599009
-0.0017539684 0.00014771885 0.0038457424 0.0020103366 0.0025968347 0.0004034615 -0.000838196 -0.001118155
-0.000156897 6.545552e-05 0.00093168905 0.0017879324 -0.00056072086 0.00029984396 -0.0006882272 -0.001675583
0.0012271088 -0.0006850709 0.00015406762 -0.0003215136 -0.0018879087 -0.0012054087 0.00011485706 -0.00047221174
-0.00025721238 -0.0014704037 -0.0033080382 0.0001024605 -0.0025602183 0.0030982702 0.0018934859 0.0003238092
-0.002547973 -0.00012546474 0.00019853102 -0.002053366 -0.0023062523 -0.00043572026 -0.0013158139 -0.00020283188
-0.0018947977 -0.0037327749 -0.0025601147 -0.0005404424 -0.0008437826 -0.00044559588 0.0031272161 -0.0006565711
0.00020196859 -0.0013834636 -0.00025414646 -0.0002451317 0.0021017126 -0.0049239304 9.909808e-05 0.00061084714
0.0004629581 -0.0007869663 0.00023487488 -0.00067247025 0.00011413545 0.00012651633 -0.0008968878 -0.0026856351
0.0007157421 5.0137955e-05 0.0003617525 -0.0005846692 -0.001962644 -0.0010393067 -0.004003871 8.1622245e-05
0.00018447584 -0.0010918415 -0.00074190245 -0.0027493094 0.0013668925 0.0010201676 0.0013870593 -6.6545035e-06
-0.003482362 0.0017573349 0.000294387 0.0006494629 -0.0022917783 -0.0048311325 -0.0022901734 -0.0016370022
-0.00012929516 0.00014675439 3.5694422e-05 0.0010236942 0.00015813342 -0.0014737238 -0.0006437275 0.000310275
00000000: df93 4c39 89c9 353b 5eec b3b9 598c 1cba
00000010: 840d 4eb9 a8ce 3bb9 2f38 20bb 75c3 f4ba
00000020: f5ff ecba a070 b438 1255 d4ba fa91 2a3a
00000030: dcdf 403a 5371 d2ba 6959 2dba 3292 9cba
00000040: 233d 033a b6ee 06bb 0d59 3ebb 4585 51ba
00000050: 8042 e3b8 d0d3 57ba 3ab6 f4ba 90fe 9ab7
00000060: 2a19 c4b9 0658 d5ba ce78 33bb cc79 f139
00000070: 0440 adba 938e 32bb d896 18bb 4f43 8839
00000080: 6ae5 e5ba fae4 1a39 da08 7c3b dabf 033b
00000090: a82f 2a3b b087 d339 62ba 5bba 0e8f 92ba
000000a0: b884 24b9 2a45 8938 983c 743a 0e59 ea3a
000000b0: 57fd 12ba 6034 9d39 256a 34ba 3c9f dbba
000000c0: f0d6 a03a 5496 33ba 368d 2139 d390 a8b9
000000d0: b473 f7ba cefe 9dba 6adf f038 3093 f7b9
000000e0: 76da 86b9 90ba c0ba accb 58bb 10e0 d638
000000f0: 56c9 27bb 590c 4b3b d82e f83a efc4 a939
00000100: e5fb 26bb 2f8f 03b9 c42c 5039 c491 06bb
00000110: 7e24 17bb 6271 e4b9 6377 acba 45af 54b9
00000120: dc5a f8ba 92a1 74bb 99c7 27bb 7aac 0dba
00000130: 4b31 5dba de9e e9b9 fbf1 4c3b be1d 2cba
00000140: 88c7 5339 5655 b5ba f63e 85b9 0585 80b9
00000150: e3bc 093b ec58 a1bb e0d2 cf38 4221 203a
00000160: 2fb9 f239 6a4c 4eba bf48 7639 b748 30ba
00000170: 015c ef38 78a9 0439 1f1d 6bba 7b01 30bb
00000180: a4a0 3b3a 384b 5238 99a9 bd39 7c44 19ba
00000190: b49f 00bb 5939 88ba e832 83bb 9c2c ab38
000001a0: db6f 4139 1f1c 8fba 3b7c 42ba c22d 34bb
000001b0: 4d29 b33a 25b7 853a fdcd b53a c049 dfb6
000001c0: 5738 64bb 6056 e63a f457 9a39 b840 2a3a
000001d0: a931 16bb 7a4e 9ebb bc16 16bb ae90 d6ba
000001e0: 6893 07b9 15e2 1939 98b6 1538 7a2d 863a
000001f0: 9ed0 2539 f729 c1ba d2bf 28ba 68ac a239

exp_avg_sq f4 [128]
4.7597805e-06 7.540332e-05 6.606005e-06 2.689794e-05 4.1600426e-05 2.7930778e-06 0.00024466123 2.7834341e-05
3.4217428e-05 3.2988395e-05 1.2879335e-05 6.0545e-05 9.096107e-06 1.7671357e-05 1.3170847e-05 2.2706032e-05
2.3991315e-05 4.5386638e-05 0.00020100878 1.9686988e-05 2.8323688e-05 3.0751333e-05 0.0001148714 2.906053e-06
9.862279e-06 1.528507e-05 9.952208e-05 4.840776e-06 5.0938947e-05 0.000103334685 4.1751486e-05 1.9282124e-06
9.6276744e-05 7.2568096e-06 0.000104305036 5.460206e-05 0.00035386835 2.6503832e-05 2.9708892e-05 1.4583998e-05
0.00033960064 3.8283e-06 1.8410708e-05 8.904522e-05 4.281491e-06 4.86126e-06 2.0345587e-05 0.000101322155
8.550168e-06 6.212972e-05 4.0651685e-06 4.0722784e-06 0.00030027915 1.4419465e-05 3.6449083e-07 1.9714043e-05
1.4715878e-05 3.4625275e-05 0.0002582286 7.324181e-06 0.00010593292 0.00036948762 5.0457482e-05 3.95393e-06
0.00010067514 2.2380154e-07 9.414497e-06 6.481512e-05 8.134056e-05 6.8064626e-05 0.00019440068 1.4200627e-06
0.00010293814 0.00015838939 0.00023327325 1.3212847e-05 1.7357732e-05 1.7471073e-05 0.00011690636 8.574599e-07
1.0025145e-06 2.3136045e-05 1.346033e-05 0.00017488953 0.00013137051 0.00025967928 3.5147175e-06 2.2118652e-06
1.5237977e-06 7.2852155e-05 7.794649e-06 2.0093994e-05 9.730043e-07 6.7355704e-06 7.675934e-06 0.00016938786
3.3031887e-05 0.00014078358 4.4071085e-06 1.1839834e-05 5.1093124e-05 5.945335e-05 0.00023258773 1.057759e-05
2.8193892e-06 1.968276e-05 0.00013191243 0.00011209236 5.1428444e-05 1.20725335e-05 4.889223e-05 3.138342e-06
0.00020059774 2.612733e-05 0.00044910147 9.355211e-06 0.00018134103 0.0002380973 9.982315e-05 0.0004105226
3.6366735e-06 3.895936e-06 9.0781873e-07 8.026457e-05 5.880727e-07 8.7594635e-05 2.0474768e-05 5.01911e-06
00000000: 34b6 9f36 d921 9e38 27a9 dd36 e3a2 e137
00000010: 1e7c 2e38 b670 3b36 e045 8039 cb7d e937
00000020: af84 0f38 055d 0a38 5314 5837 b3f1 7d38
00000030: 7b9b 1837 f33c 9437 5bf8 5c37 d578 be37
00000040: f540 c937 885d 3e38 e2c5 5239 7c25 a537
00000050: a898 ed37 fefa 0038 1de7 f038 9c05 4336
00000060: 2a76 2537 7038 8037 83b6 d038 f36d a236
00000070: 47a7 5538 63b5 d838 511e 2f38 7066 0136
00000080: 2fe8 c938 857f f336 57be da38 8404 6538
00000090: 6887 b939 8c54 de37 5c37 f937 cbad 7437
000000a0: 6d0c b239 d974 8036 b270 9a37 cabd ba38
000000b0: baa9 8f36 e81d a336 d1ab aa37 eb7c d438
000000c0: b172 0f37 a44b 8238 8867 8836 9ba4 8836
000000d0: c96e 9d39 21eb 7137 3daf c334 965f a537
000000e0: 37e4 7637 9b3a 1138 db62 8739 3cc2 f536
000000f0: 4e28 de38 cab7 c139 4fa2 5338 00ac 8436
00000100: 8e21 d338 194e 7034 f5f2 1d37 5aed 8738
00000110: 6195 aa38 ebbd 8e38 09d8 4b39 fc98 be35
00000120: 7ee0 d738 5415 2639 d09a 7439 bfac 5d37
00000130: 729b 9137 d88e 9237 a02b f538 322c 6635
00000140: 238e 8635 4714 c237 add3 6137 8d62 3739
00000150: 81c0 0939 9025 8839 63de 6b36 8e6f 1436
00000160: 4a85 cc35 34c8 9838 c3c5 0237 868f a837
00000170: 2c98 8235 1c02 e236 e3c7 0037 b59d 3139
00000180: b88b 0a38 4e9f 1339 c6e0 9336 b3a3 4637
00000190: d34c 5638 8c5d 7938 cbe2 7339 6776 3137
000001a0: bd34 3d36 681c a537 f951 0a39 2113 eb38
000001b0: dfb4 5738 238b 4a37 a211 4d38 4e9c 5236
000001c0: 8c57 5239 042c db37 6175 eb39 53f4 1c37
000001d0: 5d26 3e39 c2a9 7939 2558 d138 693b d739
000001e0: 930d 7436 d6b9 8236 d4b0 7335 b753 a838
000001f0: 0cdc 1d35 03b3 b738 3bc1 ab37 d469 a836
