results/Random1_V0/3DBall/3DBall-499988.pt (torch, 495601 bytes, 44 tensors)

network_body.observation_encoder.processors.0.normalizer.running_mean f4 [22]
000000 34 56 5c 3b 76 79 6d 40 69 25 96 3b 1a b6 72 40
       0.0033620717 3.7105384 0.0045820964 3.7923646
000010 59 c5 ce 3b e6 47 77 40 f7 0d 0a 3c 9e 09 7b 40
       0.006310147 3.8637633 0.008426181 3.922462
000020 5f 8d 1d 3c df 2e 7d 40 a3 3c 24 3c 9a 93 7d 40
       0.009616225 3.9559858 0.010024223 3.962134
000030 1a 1d 33 3c bb 0c 7c 40 4d 9d 40 3c 3e 8a 78 40
       0.010932231 3.938277 0.011756253 3.8834376
000040 f4 c9 4b 3c fd 7d 73 40 86 2a 4b 3c b4 a7 6d 40
       0.012438286 3.8045647 0.012400275 3.7133608
000050 d7 a2 37 3c f3 b7 67 40
       0.011208258 3.6206024

network_body.observation_encoder.processors.0.normalizer.running_variance f4 [22]
000000 2c 8b d1 44 a5 c0 9b 4b f8 97 0e 45 c3 8d 9d 4b
       1676.3491 2.0414794e+07 2281.498 2.0650886e+07
000010 75 01 44 45 b6 fb 9e 4b 00 94 82 45 f1 36 a0 4b
       3136.091 2.0838252e+07 4178.5 2.099965e+07
000020 13 d6 94 45 c7 f2 a0 4b 08 16 9b 45 94 21 a1 4b
       4762.7593 2.1095822e+07 4962.754 2.1119784e+07
000030 f8 f9 a8 45 16 ab a0 4b 1f 8f b5 45 92 76 9f 4b
       5407.246 2.1059116e+07 5809.89 2.0901156e+07
000040 28 f5 bf 45 d7 8d 9d 4b 00 61 bf 45 dc 67 9b 4b
       6142.6445 2.0650926e+07 6124.125 2.0369336e+07
000050 85 31 ad 45 78 22 99 4b
       5542.19 2.0071664e+07

network_body.processors.0.normalizer.running_mean f4 [22]
000000 34 56 5c 3b 76 79 6d 40 69 25 96 3b 1a b6 72 40
       0.0033620717 3.7105384 0.0045820964 3.7923646
000010 59 c5 ce 3b e6 47 77 40 f7 0d 0a 3c 9e 09 7b 40
       0.006310147 3.8637633 0.008426181 3.922462
000020 5f 8d 1d 3c df 2e 7d 40 a3 3c 24 3c 9a 93 7d 40
       0.009616225 3.9559858 0.010024223 3.962134
000030 1a 1d 33 3c bb 0c 7c 40 4d 9d 40 3c 3e 8a 78 40
       0.010932231 3.938277 0.011756253 3.8834376
000040 f4 c9 4b 3c fd 7d 73 40 86 2a 4b 3c b4 a7 6d 40
       0.012438286 3.8045647 0.012400275 3.7133608
000050 d7 a2 37 3c f3 b7 67 40
       0.011208258 3.6206024

network_body.processors.0.normalizer.running_variance f4 [22]
000000 2c 8b d1 44 a5 c0 9b 4b f8 97 0e 45 c3 8d 9d 4b
       1676.3491 2.0414794e+07 2281.498 2.0650886e+07
000010 75 01 44 45 b6 fb 9e 4b 00 94 82 45 f1 36 a0 4b
       3136.091 2.0838252e+07 4178.5 2.099965e+07
000020 13 d6 94 45 c7 f2 a0 4b 08 16 9b 45 94 21 a1 4b
       4762.7593 2.1095822e+07 4962.754 2.1119784e+07
000030 f8 f9 a8 45 16 ab a0 4b 1f 8f b5 45 92 76 9f 4b
       5407.246 2.1059116e+07 5809.89 2.0901156e+07
000040 28 f5 bf 45 d7 8d 9d 4b 00 61 bf 45 dc 67 9b 4b
       6142.6445 2.0650926e+07 6124.125 2.0369336e+07
000050 85 31 ad 45 78 22 99 4b
       5542.19 2.0071664e+07

network_body._body_endoder.seq_layers.0.weight f4 [128, 22]
000000 4a 90 0e 3e a5 41 7e 3e 27 ca d0 3b b5 39 71 3e
       0.1392223 0.24829729 0.0063717547 0.2355717
000010 7d f1 21 3e c8 3a 76 3e ff b7 88 3c 5f 0c 2f 3e
       0.15814777 0.24045861 0.016689299 0.17094563
000020 57 0e c1 3e ac a8 c8 bc cc 21 47 3d 10 4c 44 bc
       0.37706253 -0.024494492 0.048616216 -0.011981025
000030 73 26 cf 3d 00 5f 21 be df 46 b9 3e 4e ac c2 bd
       0.101147555 -0.15758896 0.36186883 -0.09505521
000040 84 4c 34 3e 22 cb 90 3e 23 ef dd bc fc e9 03 3d
       0.17607313 0.28279978 -0.027091568 0.032205567
000050 c3 5d 1a be 7a 0c 60 be 37 14 ae 3d 32 9b 5f 3e
       -0.1507483 -0.2187976 0.084999494 0.21836546
000060 d0 03 c6 bd 55 ae 40 be be 92 1a 3e f3 f8 8e be
       -0.09668696 -0.18816502 0.1509504 -0.27924308
000070 9d e6 99 3e b9 7a 79 3d f1 b9 d6 3d 3c 06 6b be
       0.30058756 0.060908053 0.10484684 -0.22951597
000080 0e df 8f bd 37 a8 19 be 59 23 4d 3d bd f1 0a 3e
       -0.07024966 -0.15005575 0.05008254 0.13568778
000090 f1 8a 83 be 13 f1 84 3d 7d 30 24 3e 13 04 99 be
       -0.2569194 0.06491294 0.16034122 -0.2988592
0000a0 41 eb 5d 3d 32 74 4a bd 63 67 04 be f7 58 d9 3b
       0.054179434 -0.04942722 -0.12930064 0.00663292
0000b0 27 ef 28 3d cc 5a 23 be b0 cb 49 3d 4d 64 0d 3d
       0.0412437 -0.15952605 0.049266517 0.034519482
0000c0 2f 50 2c be ad b3 a9 bd 18 98 51 bd cd cd 12 3e
       -0.16827463 -0.082862236 -0.05117044 0.1433632
0000d0 eb 7d 6e 3e 4a ce 52 3e c2 5d 56 be f4 27 07 3d
       0.23290221 0.20586506 -0.20934203 0.032997087
0000e0 06 69 79 bd cc 9a c7 be 33 b2 7c 3e 22 3f a3 bb
       -0.060891174 -0.38985288 0.24677353 -0.0049818913
0000f0 24 26 8e be 16 5b c3 3e cb 2b 2a be 0f d2 8b 3c
       -0.27763474 0.3815543 -0.16618268 0.017067937
000100 7a 6e bf bd 64 6b 3e bc b7 63 21 3e 9d a5 83 bd
       -0.093472436 -0.011622284 0.15760694 -0.064280726
000110 02 59 0c be 03 63 e6 3e 61 f5 7b be 14 b7 31 bd
       -0.13705829 0.44997415 -0.24605323 -0.043387488
000120 9b 78 dd bc cb 60 42 3c 5f e7 10 be b1 65 c8 3d
       -0.027035048 0.011863898 -0.14150761 0.09785021
000130 31 5f 4e be 35 34 06 be 2b bd 49 bc 98 1e 44 be
       -0.201535 -0.13105853 -0.012313168 -0.19152296
000140 e1 d5 aa 3e 7c ee c1 3e 67 18 f8 3d 70 f1 83 bd
       0.33366302 0.37877262 0.121140294 -0.06442535
000150 6b 76 b9 3e 32 db b9 bc 63 cf 6d bd 78 55 c5 bd
       0.36223158 -0.022687528 -0.058059108 -0.096354425
000160 c6 fd b8 3a 80 37 63 be 4e 6c b4 be 37 dd 30 bd
       0.0014113716 -0.2218914 -0.3523888 -0.043179717
000170 8e 18 2e 3e 84 b9 ff 3d d1 ea 5c 3e f4 53 52 be
       0.17001554 0.12486556 0.2157395 -0.20539838
000180 f8 33 68 3e 09 2c a4 3d ec 09 24 3e ea 6e 45 bb
       0.22676075 0.080162115 0.1601941 -0.0030125924
000190 f9 c6 8f be 78 73 e9 bb e8 09 97 3e e4 7d f7 be
       -0.28081492 -0.0071243607 0.29499745 -0.48338234
0001a0 75 89 04 be 4e 1e 4d bd e8 de 99 3b c6 e9 b2 bc
       -0.1294306 -0.05007773 0.004695762 -0.021839987
0001b0 d1 52 37 be 7e 88 b6 3e ae cc d8 be 1d 0e dc be
       -0.17902686 0.3565101 -0.42343658 -0.42979518
0001c0 f6 8b 55 bc 7f 58 48 bd fb 20 a2 3e 78 9d 37 be
       -0.013033858 -0.04891252 0.31665787 -0.17931163
0001d0 cb a4 69 bd f0 18 ff bc bd 94 39 3e 0f 60 e2 3d
       -0.057041924 -0.03113982 0.18123145 0.11053478
0001e0 0a 35 a8 be 74 ca 27 3d e0 8c a0 3d b3 6d 12 3e
       -0.32852966 0.04096456 0.0783937 0.1429966
0001f0 27 d9 49 3e 86 cb 5c bc 9b f1 1d be 7c 9b 14 3e
       0.19711743 -0.013476258 -0.15424196 0.14512438
000200 55 67 bb be b2 4d 3e bd 86 15 28 bd a2 da 34 be
       -0.36602274 -0.046460815 -0.04103615 -0.17661527
000210 7c b3 9d be 15 6b d4 bd 39 ad 19 3d 00 e6 67 3d
       -0.30800998 -0.10371987 0.037518714 0.05661583
000220 b1 ec bb be 79 cf fa be 4b 92 28 be d7 7d 9e bd
       -0.3670402 -0.48986414 -0.16462056 -0.07738846
000230 07 cd b3 be 79 a2 02 bd ae 2a 0f 3e 98 ec cc bd
       -0.3511736 -0.031893227 0.13981125 -0.10006064
000240 44 03 1e be 74 38 75 3e 33 8a 32 be 05 f8 cf 3e
       -0.15430933 0.23947316 -0.17435531 0.4061891
000250 cf c1 a6 be 16 ce 65 3e ac 3d 46 3e 11 1e d9 3d
       -0.3256974 0.22441897 0.19359463 0.10601438
000260 2c c8 d9 be 2b ce 1c be 24 4b 8e bb 9d 96 bf 3d
       -0.42535532 -0.15313022 -0.0043424536 0.09354899
000270 10 9e 2a 3b db 5a 13 bd b9 cc 44 bd 0e 56 b3 3e
       0.0026034154 -0.03597532 -0.0480468 0.35026592
000280 5a fa 9b 3d ca 66 c9 bd 3a a2 22 bc 8e 0f af be
       0.0761611 -0.098340586 -0.009926373 -0.34191555
000290 4d ea 7d bc 9a 08 36 3d 94 bb f6 3d 90 4a 43 3e
       -0.015497756 0.044441797 0.120474964 0.19071412
0002a0 0f 5f 89 3e ff 30 08 bd 6d 32 73 be 10 f2 5b 3e
       0.26830336 -0.03324985 -0.23749705 0.21479058
0002b0 91 64 ca 3e de 0a 04 3e 64 eb ad be 3f 93 f7 3a
       0.3952985 0.1289477 -0.3396865 0.0018888487
0002c0 68 a1 3d be 34 c0 2d bf 33 37 92 3d d3 a3 aa bd
       -0.18518603 -0.67871404 0.07139435 -0.08332028
0002d0 a4 b7 a7 be 91 7a a4 3d 60 59 f3 3e 0f 59 52 3e
       -0.32757294 0.0803119 0.47529125 0.20541786
0002e0 3f 4a 85 be e6 96 b4 3e ba 65 3a be ae 86 1d bf
       -0.26033208 0.35271376 -0.18202868 -0.6153363
0002f0 bd ad 3b bd e9 72 9b ba 98 67 93 be b0 1e b1 bd
       -0.045819987 -0.0011859807 -0.28789973 -0.08648431
000300 57 15 ee 3c ce 91 c9 3e c4 2c 33 be ad 79 a6 bd
       0.02906291 0.39369053 -0.17497545 -0.081286766
000310 64 eb cc 3e 05 e2 46 3e c8 bb 11 bd 09 7e 00 3f
       0.4002334 0.19422157 -0.035579473 0.50192314
000320 2c 18 6e be 90 09 12 3e 35 01 3c 3d 68 cd 76 3e
       -0.23251408 0.1426146 0.04589959 0.24101794
000330 d7 ab 30 3d a8 c7 60 be 1d 7e cd bd 1e 6a 08 bd
       0.04313263 -0.21951163 -0.1003382 -0.033304326
000340 55 0f f8 3d 0a f5 59 be e3 4f 25 be d9 0f c5 be
       0.12112299 -0.21284881 -0.16143756 -0.38488653
000350 ef a0 bf 3e 96 11 e2 b9 ed e3 69 be 31 e6 e8 bd
       0.3742747 -0.00043119182 -0.22840853 -0.113720305
000360 2f 89 aa 3d c2 25 73 be bd 99 80 bd 28 20 1d 3d
       0.08326947 -0.23744872 -0.06279323 0.038360745
000370 f1 7d 76 3e 22 c7 ae be 88 e5 c5 3e aa 40 2c 3e
       0.2407148 -0.341363 0.3865168 0.16821542
000380 0c 80 d2 be 8d 3c d8 3c 48 9d 0b 3e 87 c0 54 3e
       -0.41113317 0.02639606 0.13634217 0.20776568
000390 bd bd 87 3e 93 3b d7 be bd fa 7d be 4f 72 4d ba
       0.26511946 -0.4203764 -0.2480268 -0.00078371627
0003a0 ee 73 93 3e fb fe a3 be 99 1e aa 3e 2e cb 53 be
       0.28799385 -0.32030472 0.3322647 -0.20682976
0003b0 35 ec 25 3e 99 13 78 3e 82 54 04 bd 2a e5 04 3f
       0.16203387 0.24226226 -0.032307155 0.51912177
0003c0 9b df 27 bc 41 d3 89 bd df a5 51 3e 07 37 0d bb
       -0.010246183 -0.067297466 0.20473431 -0.0021547691
0003d0 d9 cc 6c be 7d 8c ec bc 00 e7 ab 3e cc ea 4d 3e
       -0.23125018 -0.028875584 0.33574677 0.20109099
0003e0 57 bf 4c 3e 3e 13 25 be 7a 8a 12 3e 75 10 a1 bd
       0.19994865 -0.16120622 0.14310637 -0.07864467
0003f0 10 50 d5 bd 6a b7 3d 3e 05 ac 1c 3d b9 14 21 3e
       -0.10415661 0.18526998 0.038249988 0.15730561

network_body._body_endoder.seq_layers.0.bias f4 [128]
000000 7b f2 6a bd 86 bb 20 be 16 40 f1 3b 45 c1 98 bd
       -0.057360154 -0.15696535 0.007362376 -0.07458738
000010 47 d3 cb bd ad 74 4f bd d6 9c 56 3d af f7 f3 bc
       -0.09952407 -0.05064838 0.052395664 -0.02978119
000020 00 5b 10 3d b4 ac 72 bb 23 28 9a bd 7f f7 51 bd
       0.035243034 -0.0037029209 -0.07527187 -0.05126142
000030 6c a5 5e bc a3 07 bf ba 56 a6 16 bb 83 9c bc 3c
       -0.013589244 -0.001457442 -0.0022987328 0.02302385
000040 6e e3 b3 3d 94 82 88 3c a2 bd cc 3d 4c 1e 14 3d
       0.08783613 0.016663827 0.09997107 0.036161706
000050 fd 1d 08 3d b8 89 24 bd 3c 5d 86 3d 82 e2 26 bd
       0.033231724 -0.0401704 0.06560752 -0.04074336
000060 24 87 92 3b d9 61 08 3a f8 8a ca 3d 92 54 85 bd
       0.0044716764 0.0005202569 0.098897874 -0.06510271
000070 4e 36 14 bc 3b 5c dd 3d 72 c4 af bb d1 e7 3f bd
       -0.00904615 0.10808607 -0.0053639943 -0.046851937
000080 89 33 fb 3d 94 d7 28 3c ff 8b 09 3c ac 45 d8 bc
       0.12265689 0.010305304 0.008395194 -0.02640041
000090 77 5c 4b 3a 10 98 dd bb 58 0b b2 bd 85 3d 81 3c
       0.0007757614 -0.006762512 -0.0869357 0.015776405
0000a0 8d ec a8 3d 15 c4 9e bc 35 6c 7c 3d ba aa 79 3d
       0.082482435 -0.019380609 0.06162663 0.060953833
0000b0 52 7a 69 3d ad 68 33 bd 9f 8d bf bb 5d 9a 29 bd
       0.05700142 -0.043801 -0.00584574 -0.041406978
0000c0 41 65 bc bd f2 2b 76 3a 86 27 3f bd ce f8 89 3d
       -0.09199 0.00093907036 -0.04666855 0.06736909
0000d0 36 21 cb 3b ad ce 5c bd 00 70 43 3c 97 d4 98 3d
       0.0061990274 -0.05390804 0.011928558 0.07462423
0000e0 17 01 55 bd d7 31 81 3c ca 2d b6 3d da 50 ba bc
       -0.052002992 0.015770836 0.08895452 -0.022743631
0000f0 6a 88 2e 3d c7 07 1c bd 14 b8 ad 3a 1b 80 d0 bd
       0.042610563 -0.038093355 0.0013253712 -0.10180684
000100 0d 7f c5 3d 04 16 00 bd 1f 35 cc bd 23 6a 07 3d
       0.09643374 -0.031270996 -0.099710695 0.033060204
000110 9b a0 89 3d b4 ad 14 3d 2a 01 f1 bd 38 52 3f bd
       0.06720086 0.03629847 -0.117678 -0.04670927
000120 1c 56 9e bc 9f ff 2f 3d b8 91 d9 3d fb 5c 32 3d
       -0.01932817 0.04296839 0.10623497 0.043545704
000130 9d 8e b7 ba ef c2 1a bd 28 77 83 bd 16 94 ae bc
       -0.0014004294 -0.03778356 -0.064192116 -0.021310847
000140 ba 36 3a bd c6 11 b2 bd 64 4d bd bd 1e ed ed bc
       -0.045462348 -0.08694796 -0.09243277 -0.02904373
000150 34 74 08 bd 07 a3 bc 3d ff 1a 3a bd 62 3d 01 be
       -0.033313945 0.092107825 -0.0454359 -0.12621072
000160 a1 42 f5 bd da a0 74 3d fa 56 b9 bd 6d d7 5d 3c
       -0.11975599 0.059723713 -0.090497926 0.013540131
000170 1e d1 d7 bc 51 70 df bc 38 08 24 bc bf 81 42 bc
       -0.026344832 -0.027275236 -0.010011725 -0.011871754
000180 02 6f b5 bc 82 c1 dd bd e3 8c 5d bd d9 dd 6d 3b
       -0.02214766 -0.10827924 -0.05408944 0.0036295562
000190 5a 1b bc 3d de 02 af 3d 88 e6 14 3e 6c 48 58 bb
       0.091849044 0.08545469 0.14541066 -0.0033002151
0001a0 dc 90 cd bd 88 c8 4e bd 21 84 c1 bc 8b db a7 3d
       -0.10037395 -0.05048421 -0.023622574 0.081961714
0001b0 a0 90 1b be 68 dc 7a bd 56 c2 d3 bc 02 6f d9 3c
       -0.15191889 -0.061245352 -0.025849503 0.02654219
0001c0 09 de 77 3d 2f ce 05 be 9b 4b 1a bd e6 64 12 bd
       0.060514484 -0.13066934 -0.03766976 -0.035740755
0001d0 c7 92 b6 3d 9a 6c 2a 3d c0 a3 de 3d 20 7a 5b 3c
       0.08914714 0.041607477 0.108710766 0.013395816
0001e0 51 d6 80 bd d7 c0 79 3d 8d e1 0a 3d 72 04 24 bc
       -0.062908776 0.060974922 0.03390651 -0.0100108255
0001f0 96 66 68 bc c6 4e 25 3c e0 3e c5 bb 9b 17 41 bd
       -0.014184615 0.010089582 -0.006019458 -0.047141653

network_body._body_endoder.seq_layers.2.weight f4 [128, 128]
000000 90 1d 94 bc 59 47 73 3d a0 28 11 3e 9e c2 12 3c
       -0.018080503 0.059394214 0.14175653 0.008957533
000010 d1 e0 a6 bd 6a 9e b6 3d f4 0d 58 be 17 7a 3b bd
       -0.08148349 0.08916934 -0.21099073 -0.04577073
000020 1b 36 aa bd 1d e6 80 3d ff a0 bb 3c c0 09 0e 3e
       -0.08311101 0.062938906 0.022903917 0.13870907
000030 76 bd 2f 3d 81 7c 50 be 6d e5 f7 bd 96 32 c8 3c
       0.042905293 -0.20359994 -0.12104306 0.024438184
000040 84 ff 80 bd 1d 84 a4 ba d4 f1 86 bd 88 c3 bd 3c
       -0.06298736 -0.001255158 -0.06589094 0.023164526
000050 d9 b1 d5 ba 50 3b 00 bc c8 90 c9 bd ad b9 43 3d
       -0.0016303613 -0.007826641 -0.09842068 0.047784496
000060 f1 52 36 3d 3b e9 b7 bd dd 20 f7 bc 39 80 72 bc
       0.044512693 -0.08980032 -0.030167038 -0.0148010785
000070 8a f3 cf bb b0 70 4f 3d ed 57 ab 3d 6a 43 e2 3d
       -0.006346171 0.050644577 0.0836638 0.110480145
000080 9d e8 a8 bd bb d5 3e 3c b4 9d 24 3d b1 9e d3 3c
       -0.082474925 0.011647637 0.04018946 0.025832506
000090 0c b6 48 3d ed 47 37 3d 78 ae cf 3d 37 ed b1 bc
       0.04900174 0.04474633 0.10140699 -0.021719558
0000a0 45 2a 0f be d1 4c 30 3d e7 d4 15 bd ad ee 7f 3d
       -0.13980968 0.043042008 -0.036579993 0.06248348
0000b0 7c c9 13 bc 5a f8 c6 bd 11 c4 1d be a4 32 97 bd
       -0.009020206 -0.09715338 -0.15406825 -0.07382706
0000c0 c3 48 9d 3d e3 2f 21 3d 74 a0 92 bc d4 44 ab 3d
       0.07679894 0.03935231 -0.017898776 0.08362737
0000d0 a2 10 5c bc 4c 1c 49 3d eb 22 bc bd 7c 7a d2 bd
       -0.0134317 0.04909925 -0.091863476 -0.10277268
0000e0 3b 04 ab bc 65 16 c0 ba 90 23 1e bd 49 1a b0 3d
       -0.02087604 -0.0014655112 -0.038608134 0.085987635
0000f0 0c a6 5e 3e bb fc 3b 3e 58 9b b3 bd cb ca 18 3c
       0.2174303 0.18358128 -0.08769864 0.009325693
000100 93 42 9f bd d9 73 2e 3e ab 69 33 3c 35 e2 45 be
       -0.0777637 0.1703638 0.010950486 -0.19324572
000110 3e 6b 7d be ec 95 66 bd 9c a7 f5 3d d2 79 80 3d
       -0.24747941 -0.05629532 0.119948596 0.062732354
000120 85 7b 90 3d e7 86 29 3c b9 13 0c be e5 db 2e be
       0.070548095 0.010347105 -0.13679399 -0.1707607
000130 2d 19 0d be 3e 21 98 b8 de 93 42 bc 04 3e 64 bd
       -0.13779135 -7.254117e-05 -0.011876075 -0.055723205
000140 f3 7f 9d bd a8 a4 83 3d 05 1e 11 bc af c2 bd bd
       -0.0769042 0.0642789 -0.008857255 -0.092656486
000150 4d 1f d4 bd fc 3b d6 bd 7b 0f 02 3d e5 39 54 be
       -0.10357533 -0.1046066 0.031753045 -0.2072521
000160 00 36 58 bd 1b ea 37 bd 58 71 8f 3d 45 c7 6a be
       -0.052785873 -0.044900995 0.070040405 -0.22927578
000170 c8 60 b8 38 15 d5 59 3e e8 c3 e5 3c 03 ae b8 bd
       8.7918306e-05 0.2127269 0.028047517 -0.09017565
000180 40 eb 07 bd c4 dc 25 bd 87 5a 82 bd bf 97 3e bc
       -0.033183336 -0.04049374 -0.06364923 -0.011632859
000190 bb 0a 1f 3d 33 31 91 3d ac 91 52 be 99 93 1a 3e
       0.038828593 0.07089462 -0.20563382 0.15095367
0001a0 a5 ce 41 3b 6d d4 cc 3b d1 e3 91 3d 80 e5 f4 bd
       0.0029572633 0.006250909 0.07123531 -0.11957836
0001b0 d9 62 2b 3e b7 10 bb 3d 47 ad c6 bc 16 80 0d bd
       0.16736926 0.091340475 -0.024252547 -0.03454598
0001c0 6d 83 e0 bd 60 98 b8 3d 6f be d1 bd f4 74 3a bc
       -0.109625675 0.09013438 -0.102414005 -0.011380423
0001d0 81 09 4b bd 24 78 c6 bc 63 53 57 be fd 49 28 bd
       -0.04956961 -0.02422721 -0.21027903 -0.041086186
0001e0 32 aa 7d bd 64 a9 fb 3b c5 a3 0d be d9 60 e8 3c
       -0.06192989 0.007680105 -0.13832004 0.028366493
0001f0 61 7c 19 be a1 5a 84 bd d4 8a 73 be e0 7b ca bd
       -0.14988853 -0.064625986 -0.23783427 -0.098869085
000200 63 af af bd 32 64 77 3d 41 e3 3f bc f1 3c fa bc
       -0.08578374 0.060398288 -0.011711896 -0.030546637
000210 0a 63 b1 bd 58 f1 90 3d 27 2d c9 3d c6 58 ac bc
       -0.08661468 0.07077283 0.09823065 -0.021038424
000220 c8 05 8c 3d ae 02 37 be b2 13 97 be 76 ef f4 3d
       0.0683704 -0.17872116 -0.29507214 0.11959736
000230 db b0 99 3c b7 ac c0 bd ed 6b b8 3d ce a3 72 3d
       0.01876109 -0.09407943 0.0900496 0.059238248
000240 53 d9 10 3c 71 46 37 3d 70 74 06 be 59 fc 1b be
       0.008840877 0.044744913 -0.13130355 -0.15232982
000250 86 af 06 3e 6a 6a 38 bd b9 42 33 be d8 2d 05 3a
       0.13152894 -0.04502336 -0.17505921 0.00050803786
000260 3a 55 c0 3d 7d b3 23 be 07 52 0e bb d8 53 0f bd
       0.09391256 -0.15986438 -0.0021716373 -0.03499207
000270 5e 19 bf bb d7 98 e2 bd 7f 04 25 bd 0f 52 32 be
       -0.0058318814 -0.11064308 -0.04028749 -0.17414115
000280 5a b9 aa bd 7c 06 a3 bc 94 18 61 3d 36 ff 29 bb
       -0.08336134 -0.019900553 0.05495508 -0.002593947
000290 12 1c f4 3d 25 97 ae 3c 7b 4b ed 3c 52 a0 5b bd
       0.119194165 0.021312306 0.028966656 -0.05361969
0002a0 6a 1c 46 bc 44 18 56 bd 89 ba fe 3c 4d db 09 3e
       -0.012091735 -0.052269235 0.031094806 0.13462563
0002b0 07 49 98 3d d9 a2 5d bd ab 0b 28 be 6c e5 99 bc
       0.07435804 -0.05411038 -0.16410701 -0.018786155
0002c0 67 58 23 3e 03 c7 37 be 4f 81 40 be d2 1a 8c 3d
       0.15951692 -0.1794701 -0.18799327 0.06841053
0002d0 80 b6 9b bd 4c 82 43 39 a0 f6 83 ba 07 ba eb bc
       -0.076031685 0.00018645189 -0.0010068007 -0.028775228
0002e0 b6 0e 0d 3e bc bd e5 bd 94 84 67 3d 6c a2 0b 3d
       0.13775143 -0.112178296 0.05652292 0.034090444
0002f0 6c 04 c6 bd 85 91 e4 3d 91 8a be 3d ad f6 e2 bd
       -0.09668812 0.11160568 0.09303773 -0.11082206
000300 ec 17 a4 bd 64 dc f0 3d 01 56 ff bd c2 77 c8 bd
       -0.08012375 0.11760786 -0.12467576 -0.09788467
000310 7a 02 b5 bc 59 a3 53 3d 23 9a c9 bd 98 ae d9 3c
       -0.022095907 0.051669452 -0.09843852 0.02657251
000320 a2 14 2a bd 25 b9 c2 ba 9e e7 a3 bd 64 66 47 bd
       -0.041523583 -0.0014856203 -0.08003162 -0.04868163
000330 e0 9e cf bc 83 89 6d 3d a6 09 1c bd 70 10 89 bd
       -0.025344312 0.05799247 -0.03809514 -0.06692588
000340 c5 85 e3 3d 96 0b 3b 3d de 28 a9 3c 4b 02 ae 3d
       0.11109499 0.045665346 0.02064937 0.08496531
000350 33 03 00 3e 86 6f 75 3d 25 71 01 bd 17 b8 ef 3b
       0.1250122 0.05992081 -0.031602044 0.0073156464
000360 11 ef 7d bd b4 be 1e 3d 52 59 61 3e 5d 40 bf bc
       -0.06199557 0.038756087 0.22006729 -0.02334612
000370 31 6a d8 3d 58 4d 2c 3d 1b 47 a9 3b 26 65 5e bd
       0.105671294 0.04206595 0.005165947 -0.05429568
000380 8b 4d 3d 3d f9 69 4f be aa ae 17 3c f1 be bc bd
       0.04621653 -0.20255269 0.009257952 -0.09216107
000390 e7 1f 0b be d1 c0 16 3d e6 8d 00 bc 0c fe 81 bd
       -0.13586389 0.036804978 -0.007846331 -0.06347284
0003a0 d9 32 08 be 3a a1 94 bd b5 6c 12 bd c5 4a bc bd
       -0.13300647 -0.07257314 -0.035748202 -0.09193949
0003b0 cd 1a dd 3b 7f 81 47 bd 45 18 34 bd 16 c4 d3 39
       0.0067475797 -0.04870748 -0.043968458 0.00040391152
0003c0 19 3e ee bc de d9 05 3d ad 3c ad 3d e8 19 63 3d
       -0.029082345 0.032678477 0.084588386 0.055444628
0003d0 fc da ff bc 2d 6d f1 bd d2 db 67 3d d4 09 bb bd
       -0.03123235 -0.11788402 0.05660612 -0.09132734
0003e0 6a 76 b0 bd 35 33 4a bc 23 7b 1b bd 21 ef d0 3c
       -0.08616336 -0.01234131 -0.03795923 0.02550465
0003f0 e7 d7 bb 3d be 07 8b bd c1 16 1c be 7e cc 06 3d
       0.091720395 -0.06788586 -0.15243055 0.032909863

network_body._body_endoder.seq_layers.2.bias f4 [128]
000000 8a f2 9f bd c3 db 08 3c e8 90 d8 bc 19 00 49 bd
       -0.078099325 0.0083531765 -0.026436284 -0.04907236
000010 00 50 14 3d 7e 20 c4 bd 5c e9 b8 bd 07 b7 b3 3b
       0.036209106 -0.0957651 -0.09028885 0.005484465
000020 95 b1 4e 3d 0f 0f b2 bc 9e a7 57 3b 24 b5 9c bd
       0.050462324 -0.021735696 0.0032906304 -0.07651737
000030 c1 6c df bc 17 67 0a be da 34 ba bd 0a 8b 62 bd
       -0.027273538 -0.13515888 -0.09092112 -0.05530838
000040 a5 55 ab 3d 95 a5 dd 3d 5a 67 1e 3d e6 ca d1 bd
       0.08365945 0.10822598 0.038672782 -0.10243778
000050 03 20 a1 bd 88 3f ad 3c af be 3c 3d 2a ff 45 3d
       -0.07867434 0.021148458 0.046080288 0.048339047
000060 88 a5 38 bd 3f 88 f8 bd f9 67 0a bd a3 8a 85 bd
       -0.045079738 -0.12135362 -0.033790562 -0.065205835
000070 89 f1 37 bd da b7 c7 bd 88 38 80 3d 0a 92 b6 bc
       -0.04490808 -0.09751864 0.062607825 -0.022286434
000080 60 38 7f bd 70 2c 0c 3d d1 11 ac bd e6 b5 a1 3d
       -0.062309623 0.034222066 -0.08401836 0.078960225
000090 a7 11 9b bc 58 2c 2b 3b 1b db f1 3d fe ac 85 3d
       -0.018929316 0.002611896 0.11809369 0.06527136
0000a0 e2 6b 6a 3d 9d 97 2b bd c0 ae d4 3d cf 71 2a bc
       0.05723179 -0.041892637 0.103848934 -0.010403111
0000b0 8b e5 8b bd b0 c7 6f 3c f7 88 88 bb 9f 78 6a 3d
       -0.06830891 0.014635012 -0.004166718 0.05724394
0000c0 17 7c c2 bd b4 ba 73 bd 21 1f ea bd d8 ed ba 3d
       -0.094963245 -0.059504226 -0.114317186 0.09127396
0000d0 2b 38 16 bd 3b 07 4c bc b9 ef ff bd fc 88 f4 3c
       -0.03667466 -0.012452896 -0.12496895 0.029850475
0000e0 95 29 24 3c 17 46 87 bc e1 91 a3 3d 70 b0 46 bd
       0.01001968 -0.016512914 0.079868086 -0.048508108
0000f0 cb 4d 04 bc c6 88 16 3d ee db c6 bd 6e 70 3a bd
       -0.008075188 0.03675153 -0.09709917 -0.045517378
000100 11 81 5c bb 6c 35 a6 3d be 8b a9 bd 0e 8b 9b bd
       -0.0033646266 0.08115658 -0.08278607 -0.07594882
000110 14 04 5f 3d 61 00 09 3e e7 36 9a bc 0f 8e a8 bd
       0.05444725 0.13379051 -0.018825008 -0.082302205
000120 4e 8a 8d 3d 51 b1 c0 3c 0b c3 7e bd 25 b2 7a bd
       0.06911145 0.023522051 -0.062197726 -0.061205048
000130 2f f0 d0 3d 20 30 d1 bd 00 09 03 3e 21 31 10 be
       0.102020614 -0.10214257 0.12796402 -0.14081241
000140 f6 53 c9 3c 09 7d 4f bd b9 41 ca 3d 10 35 69 3d
       0.024576169 -0.050656352 0.09875817 0.05693537
000150 af c8 3d bd b4 08 5a 3d 1b ef 4d bd e5 93 44 bd
       -0.046333965 0.053230956 -0.050276857 -0.047992606
000160 8b 29 b9 bd 63 83 56 bd 75 13 7f 3d 90 52 ba bd
       -0.09041127 -0.052371394 0.062274415 -0.09097779
000170 a9 ed b6 bd 50 40 85 3d 21 8b 22 3d b8 44 01 be
       -0.08932049 0.06506407 0.039683465 -0.1262387
000180 90 2c 1c 3d 1c d2 90 bd d3 61 03 3e 35 c7 b5 3d
       0.038128436 -0.07071325 0.12830286 0.08875886
000190 c1 a1 17 3d aa 82 e9 bc a8 2e fd 3d af c4 84 bd
       0.037019495 -0.028504688 0.123624146 -0.06482827
0001a0 38 69 7f bb f3 fb 3f 3a df b7 ea bd 77 f2 8b 3d
       -0.0038972627 0.0007323615 -0.11460852 0.06833356
0001b0 3a 62 c1 bb 61 e0 d1 bd 59 ea 05 bd 41 1f b9 3d
       -0.005901602 -0.10247875 -0.032694194 0.09039164
0001c0 b1 0b b4 bc e2 3e 37 bd 29 2a 09 bd b6 4a 93 bc
       -0.021978231 -0.044737704 -0.033487473 -0.01797996
0001d0 e7 b8 aa bd ed e5 dd bd 0a da c4 bc 93 89 06 be
       -0.083360486 -0.108348705 -0.02402975 -0.13138418
0001e0 02 fe 26 bd bd 01 4b bd a1 29 8f 3d 7d 4f 91 bd
       -0.040769584 -0.049562205 0.06990362 -0.07095239
0001f0 20 c7 6b 3d 98 c4 51 3d 47 fb 15 be b1 2f bc 3b
       0.057562947 0.051212877 -0.14646636 0.00574299

action_model._continuous_distribution.log_sigma f4 [1, 3]
000000 2b 96 36 be 76 fa 17 be 8d 99 11 bd
       -0.17830722 -0.14841637 -0.035546828

action_model._continuous_distribution.mu.weight f4 [3, 128]
000000 55 68 41 bd ab bd 72 bb 67 76 f2 3b ea d5 cf 3d
       -0.04721864 -0.003703932 0.0073993686 0.10148223
000010 94 31 00 3d 05 ce 4e bc a6 42 5c 3a 5f 7b 60 bc
       0.03129728 -0.012622361 0.00084022654 -0.013701289
000020 9e f5 e9 3b 84 ae a3 bb 15 fd bd 3c b9 3d 93 3c
       0.0071398756 -0.004995169 0.023191968 0.017973768
000030 77 01 a8 bc 6a 77 0a bd 5d 42 c6 ba 4d 06 af 3c
       -0.020508511 -0.03380529 -0.0015125979 0.02136531
000040 30 79 b2 3b fd 08 34 3c 9d 9b 3e bd 15 10 85 3b
       0.0054465756 0.010988471 -0.046535123 0.004060755
000050 01 3a 0a 3b f6 25 92 3d ec 61 f7 bc e1 3e c5 3c
       0.0021091702 0.07136147 -0.03019806 0.024077835
000060 d5 f9 88 bc cb 08 85 bd dc 15 8a bd 54 c1 e9 3c
       -0.016720692 -0.06495818 -0.067424506 0.028534569
000070 d0 92 42 bd ff 6e f3 3c 1d 16 d9 3b ed 12 2d 3d
       -0.047503293 0.029716013 0.0066249506 0.042254377
000080 1e 5c e3 bc fc e4 86 3c 10 de 58 bc ea e2 32 3d
       -0.027753886 0.01646661 -0.013236538 0.043673433
000090 c9 c1 24 bd 51 93 63 bc 82 20 f2 3c b9 2c f0 3b
       -0.04022387 -0.013890103 0.029556517 0.00732955
0000a0 4b 9b 86 3d ce 16 f7 3c 08 dc 56 bb 78 f7 a3 39
       0.065725885 0.030162241 -0.0032784957 0.0003127416
0000b0 9f b0 60 bd 0f e5 17 3c 95 89 63 3c 09 0a 20 3d
       -0.05485594 0.00927092 0.013887783 0.03907207
0000c0 82 71 0f 3c 60 08 45 3b af bb 86 bc d0 21 87 3d
       0.00875509 0.0030064806 -0.016446916 0.06598246
0000d0 86 a0 af bd 1c 6c 1a 3b e3 a4 a6 bd bb dd fc 3c
       -0.08575539 0.0023562973 -0.081369184 0.030867448
0000e0 95 d9 68 bb c2 48 05 3d e1 c6 4a 3c 6f 81 90 b9
       -0.003553008 0.03254009 0.012376518 -0.00027562256
0000f0 2d 96 41 3c 54 b9 5c 3d 88 48 8f 3c f5 be 1b ba
       0.01181559 0.05388768 0.01749064 -0.00059412356
000100 02 bc 7d 3d de 2c d1 3c 57 f7 84 3b ea cf cc 3b
       0.061946876 0.02553409 0.0040578055 0.006250371
000110 26 13 f7 bb 93 d2 18 3c 9f 72 66 bc 29 d7 85 bd
       -0.0075401245 0.009327549 -0.014065414 -0.06535179
000120 61 df 8d 3d 06 b3 e5 3c d4 cc 92 bb d1 b8 f2 3b
       0.06927372 0.028039467 -0.004479984 0.0074072857
000130 33 5a 8b 3d 60 2b 70 bd cb 06 b6 3d 15 f3 c4 bb
       0.068043135 -0.058635116 0.088880144 -0.006010423
000140 e0 5c 89 3c 2c ae 82 3d b1 73 22 bc a2 4a b7 3c
       0.016767919 0.06380877 -0.009915278 0.022374455
000150 85 13 05 bc aa f7 1a 3d 7f 5a 9e bd 48 0b 68 3d
       -0.00812233 0.037833847 -0.077321045 0.056651384
000160 cf f1 f2 bb 6a ae 65 3d 70 d8 14 bd ba a7 67 bc
       -0.0074140797 0.056074537 -0.036339223 -0.01413911
000170 40 07 ea bb 3a 6e 77 3c b7 d0 cd 3c 22 15 12 bd
       -0.0071419775 0.015101964 0.025123937 -0.035664685
000180 c7 2b 83 3c bf 88 93 3d e8 be cc 3b 59 e6 09 3b
       0.016012086 0.072038166 0.0062483437 0.002104184
000190 5e 46 ab 3d 4d 0e ca bc 1d b9 24 3d 52 04 c9 bc
       0.08363031 -0.024665022 0.0402156 -0.024538193
0001a0 3e 84 9e bd b5 b4 a3 3c 8e 3b d0 bc d9 3e 9e 3b
       -0.07740067 0.019983629 -0.025419023 0.0048292694
0001b0 bf 59 c2 3c 89 b3 79 bd 52 fc 4d bc 26 19 b1 3c
       0.023724435 -0.060962234 -0.012572365 0.021618437
0001c0 b3 24 3b 3d 1e 94 bd 3d bc ff 20 bb 0d 42 fe bd
       0.045689296 0.09256767 -0.0024566492 -0.12414942
0001d0 32 50 1d bd 05 43 21 bd c0 1f d7 3c 2e b6 80 bd
       -0.03840656 -0.039370555 0.026260257 -0.06284748
0001e0 9f 25 e6 bc ea 51 9c 3c 8f e3 96 3d 5d 38 56 3c
       -0.028094111 0.019082028 0.07367622 0.0130749615
0001f0 b4 b5 05 3d 4a c5 cc 3c 89 b3 7c bc ca 19 36 3d
       0.03264399 0.024996419 -0.015423664 0.044458188
000200 9c 09 31 bd 9d 40 e8 bb 21 34 42 bd 68 70 1d bd
       -0.043222055 -0.0070877806 -0.047412995 -0.038437277
000210 53 5d b6 bc 9c 90 4b bd ac 6f 61 bd a4 41 d7 bc
       -0.022261297 -0.049698457 -0.05503814 -0.026276417
000220 74 db 23 bc 07 57 1f bd 5f f8 00 3b db f5 97 bd
       -0.010001052 -0.038901355 0.001967929 -0.0741994
000230 a3 62 d8 bc a1 b7 32 bd db c8 7f bd 60 b4 0a bd
       -0.026414221 -0.043632153 -0.06244741 -0.033863425
000240 a7 e4 d2 3c 72 f1 22 3d b2 60 04 3d de 6f 43 bd
       0.025743796 0.03978104 0.03231878 -0.047714107
000250 a8 7a 47 bd bf 3b da bb 70 6b e4 3c 40 40 56 3a
       -0.04870096 -0.0066599543 0.027883261 0.0008173026
000260 11 10 af bc 72 b4 40 bd 39 a4 dd bd 3d 26 16 bd
       -0.021369966 -0.047047086 -0.108223386 -0.03665756
000270 c8 66 04 bd 0e 34 6e bd 0c a9 9f 3b 1d f6 92 bc
       -0.032324582 -0.058155112 0.004872447 -0.017939622
000280 dc 9e ef bc 10 c0 8b bc 19 e4 4c bd 0c be 40 3d
       -0.029250555 -0.017059356 -0.05002222 0.047056243
000290 61 1d 42 bd ec e5 a9 bb a9 6d 0e 3d 6d 71 de 3c
       -0.0473913 -0.0051848795 0.03477255 0.027153695
0002a0 7b 4f 6e bb 3b 87 4f bc ff eb 6f 3d 7a e9 87 3c
       -0.0036363292 -0.012666519 0.058574673 0.016590822
0002b0 23 cf 12 bd 1d f4 23 bb db 46 cd bc 5d c0 5d 3c
       -0.035842072 -0.002501733 -0.0250582 0.0135346325
0002c0 49 ac 95 bc 9d 13 6c bc 4e f2 cf bc 56 9d 49 3d
       -0.018270629 -0.014408973 -0.025384095 0.049222313
0002d0 f8 e9 eb bc 89 39 fb bc 77 c7 a4 bd 75 eb 88 bc
       -0.028798088 -0.030667083 -0.080458574 -0.016713837
0002e0 50 ad bd ba 5e 97 c9 bc 7a f4 33 3c 99 39 92 bc
       -0.0014471207 -0.02460831 0.010983581 -0.01784973
0002f0 dd 02 ae bb 80 c1 1d b9 1d 08 06 bd 56 c2 23 bd
       -0.0053104 -0.00015044771 -0.03272258 -0.039980255
000300 ef e8 32 bd c7 a5 05 3d 26 65 88 bc 6b b0 4b bd
       -0.043679174 0.0326288 -0.016649794 -0.049728792
000310 30 65 0f 3b b8 56 97 3d f8 3c b2 bc 93 26 ff bc
       0.002188038 0.07389587 -0.021757588 -0.031146323
000320 f9 68 23 bb 77 21 b4 bc 72 36 b2 ba 17 fe 76 bc
       -0.0024934395 -0.021988614 -0.0013596548 -0.015075228
000330 62 42 4b 3d 6a 40 13 bd fa 66 89 3d f3 58 d6 bc
       0.049623854 -0.035950102 0.06709094 -0.026165461
000340 a5 9f e1 3c e1 b8 68 bd 84 e3 8f 3d d0 c4 3b bc
       0.027541945 -0.05681694 0.07025817 -0.011460498
000350 d1 22 d6 bc 64 1f 19 3d 84 72 d9 bc 9f 83 d3 bc
       -0.026139649 0.037383452 -0.026543863 -0.025819598
000360 9e 28 b0 bc 38 a1 82 bc d0 a4 3a bb b4 45 e0 bc
       -0.021503743 -0.015946016 -0.0028479584 -0.027376987
000370 d3 c8 50 bc 22 58 3e 3b 1e a9 ad 3b 7b fb d5 bc
       -0.012743193 0.002904423 0.0052997014 -0.026120892
000380 6d 25 aa 3c ec f9 0b bd 86 f5 be 3d fe 2f 09 3d
       0.0207698 -0.03417389 0.09324174 0.033493035
000390 bd fc 83 3b 8c f2 7d bc 77 69 47 3d a4 23 67 bc
       0.0040279315 -0.015499722 0.048684563 -0.0141076185
0003a0 4a a5 1b bd a1 14 34 bc 18 a2 b0 bb a8 9b b3 3d
       -0.03799943 -0.010991246 -0.005390417 0.087699234
0003b0 79 e0 02 bd 6f 8f d8 bc c2 0d 37 bd 91 78 64 3d
       -0.031952355 -0.026435582 -0.044690855 0.055779044
0003c0 13 d9 04 3c b4 ce 22 bd 13 20 1f bd 06 fd 0e bc
       0.008108395 -0.03974791 -0.038848948 -0.008727318
0003d0 7c c4 2f bd f7 ba a2 bc 84 09 2f bd 4a 12 ae bd
       -0.04291199 -0.019864542 -0.042733684 -0.08499582
0003e0 9a 99 6c bd 0a 98 7d bc 99 f6 8c ba 52 83 62 bd
       -0.057763673 -0.0154781435 -0.0010754644 -0.055301018
0003f0 57 5b b0 3b d1 a1 58 bc 00 7d b3 bd 3e 77 2a bc
       0.0053819823 -0.013222174 -0.08764076 -0.010404406

action_model._continuous_distribution.mu.bias f4 [3]
000000 86 d9 38 3d 5d 18 bf 3d 0e 20 9b 3d
       0.04512932 0.09330819 0.07574473

exp_avg f4 [128, 22]
000000 72 43 30 38 c6 2a 1f b8 05 23 de 37 18 de 58 b8
       4.2024483e-05 -3.794839e-05 2.648077e-05 -5.1705254e-05
000010 ea cc 01 b8 39 75 9e b8 4e a2 d6 b8 be c7 c2 b8
       -3.0946838e-05 -7.5558615e-05 -0.00010234547 -9.287846e-05
000020 f9 e8 00 ba ce 6e e1 b8 30 95 6c b9 68 0b ec b8
       -0.0004917528 -0.00010749475 -0.0002256229 -0.000112554815
000030 7c 2d 87 b9 cc 82 df 37 40 95 f7 b8 f0 3e eb b7
       -0.00025783095 2.6644579e-05 -0.00011805678 -2.804349e-05
000040 26 05 ce b8 c8 c7 dd 37 b8 84 98 39 f4 1b 7b 38
       -9.8238044e-05 2.6438283e-05 0.00029090582 5.9869097e-05
000050 d7 4c b5 39 b8 b3 83 38 64 8d 9e b8 55 1a 35 b7
       0.0003458026 6.280042e-05 -7.560363e-05 -1.0794572e-05
000060 cf 81 96 b8 86 da 3a b7 be 6d bb b6 67 e3 c3 b7
       -7.176736e-05 -1.1137343e-05 -5.58581e-06 -2.3351704e-05
000070 68 41 67 37 11 3e aa b7 f7 a0 c3 b7 87 b4 d9 b7
       1.37839015e-05 -2.0294481e-05 -2.3320767e-05 -2.595248e-05
000080 b5 83 a1 b8 6f 27 5c b7 91 7d ab b7 2c 95 0c 36
       -7.7016106e-05 -1.3122203e-05 -2.044326e-05 2.0948455e-06
000090 80 99 a3 b7 e8 4e d1 b7 86 4d ef 38 66 5d 6b b8
       -1.9502593e-05 -2.4951485e-05 0.00011410848 -5.611535e-05
0000a0 44 94 b7 39 e2 01 53 b8 5e cd 8b 39 3a 40 80 b8
       0.00035014946 -5.0308074e-05 0.00026665156 -6.115479e-05
0000b0 b2 d0 5d b7 ac 0f 60 b8 5e 93 54 b7 bc 53 4d b8
       -1.3221217e-05 -5.3420357e-05 -1.2670496e-05 -4.8953792e-05
0000c0 02 88 fb b6 81 b2 31 b8 8f be 48 b7 12 7b 14 b8
       -7.4962163e-06 -4.2366333e-05 -1.1965297e-05 -3.5400568e-05
0000d0 b7 83 df 38 66 1c e0 b7 ce da b7 38 90 ea bd b7
       0.000106580024 -2.6716105e-05 8.7668755e-05 -2.2639782e-05
0000e0 0c eb 8c 38 67 e1 19 b8 10 5d 96 37 e9 25 ab b7
       6.719501e-05 -3.6687965e-05 1.7924729e-05 -2.0402442e-05
0000f0 f2 33 47 38 77 37 c9 b7 93 ad 08 37 88 94 e0 b7
       4.7493675e-05 -2.3986895e-05 8.146645e-06 -2.6772046e-05
000100 21 9a 37 36 f3 61 b2 b7 1e 25 97 b7 71 e2 c4 b8
       2.735884e-06 -2.1264865e-05 -1.8017887e-05 -9.388186e-05
000110 7a 0b bb b7 bc 81 d6 b8 c2 6e 38 b8 0e eb fa b8
       -2.2297481e-05 -0.0001022848 -4.397217e-05 -0.00011964711
000120 ea c4 7e b8 2f d0 11 b9 a2 84 9b b8 11 9e 16 b9
       -6.074171e-05 -0.00013905832 -7.415681e-05 -0.00014363999
000130 8c 56 a7 b8 7f 79 15 b9 16 73 a9 b8 62 03 48 b8
       -7.979301e-05 -0.00014255008 -8.0799844e-05 -4.7686866e-05
000140 f2 c5 1f b8 f4 9a 9e b8 30 bd 13 b9 58 d1 a3 b7
       -3.8092905e-05 -7.5628894e-05 -0.0001408949 -1.9528597e-05
000150 4e ab 75 39 70 c0 64 37 e2 0f 15 3a c4 93 07 b8
       0.00023428837 1.3634664e-05 0.00056862656 -3.2324126e-05
000160 88 38 9a 37 7c 03 c1 b7 e0 c9 c5 36 12 c0 61 b7
       1.8384555e-05 -2.3009015e-05 5.894559e-06 -1.3455765e-05
000170 9a b0 eb b7 90 76 89 b6 1b 94 c8 b7 8a 7c 4f 37
       -2.809642e-05 -4.0967207e-06 -2.3910825e-05 1.2367158e-05
000180 9e d8 9c 38 58 21 cf 36 f5 ed 08 39 11 2f 36 37
       7.479008e-05 6.1729625e-06 0.00013058617 1.0859004e-05
000190 28 cb 4b 39 d8 36 f7 37 3e 3d bf 37 cc 56 83 38
       0.0001943527 2.9470233e-05 2.2797492e-05 6.262734e-05
0001a0 aa 71 a4 36 90 2d 85 38 58 39 c8 b8 71 1d 93 38
       4.900813e-06 6.350421e-05 -9.547424e-05 7.01499e-05
0001b0 ef c4 56 b7 81 f3 a0 38 72 b3 86 b7 6e 4b 10 39
       -1.2801246e-05 7.674751e-05 -1.6057606e-05 0.0001376101
0001c0 4a be 8f 36 cf cd 18 39 66 61 d6 38 a9 88 1b 39
       4.2838847e-06 0.0001457252 0.00010222457 0.00014832862
0001d0 07 1f 9c 38 1b a3 1b 39 c5 40 f7 b8 77 b2 18 39
       7.444439e-05 0.00014842713 -0.00011789942 0.00014562333
0001e0 55 3a ac b7 b6 99 07 39 ce d2 ae 36 0b 33 cd 38
       -2.053116e-05 0.00012931865 5.210145e-06 9.784669e-05
0001f0 70 5b dd 37 bf 5f e5 38 67 6b 93 38 34 0e 51 38
       2.6387832e-05 0.00010937405 7.0295115e-05 4.984271e-05
000200 6d e1 a0 38 a6 6a 4c 38 95 2b a2 38 58 92 ee 37
       7.671383e-05 4.8736714e-05 7.73288e-05 2.8439958e-05
000210 3f ed c1 37 a9 0d 14 38 29 10 06 38 d8 9f 49 38
       2.311787e-05 3.529867e-05 3.196314e-05 4.8071e-05
000220 80 8a 16 38 1d bd 67 38 ae b3 21 38 dd 0b 6a 38
       3.5891775e-05 5.5250817e-05 3.855273e-05 5.5800996e-05
000230 44 fb 80 38 b8 ca aa 38 b6 b0 23 38 d4 f7 a1 38
       6.1503175e-05 8.143991e-05 3.9026803e-05 7.72324e-05
000240 93 81 e3 b7 a0 58 cb 36 1d 32 6d 38 b8 f5 97 37
       -2.7120846e-05 6.0601888e-06 5.6551875e-05 1.8115024e-05
000250 5b ac 82 38 40 ea 9e 38 7a 8e 46 37 68 b3 e0 37
       6.230987e-05 7.5776596e-05 1.1834893e-05 2.6786423e-05
000260 c6 8b 8e 38 b0 85 53 37 e3 f9 7e 37 dc d8 2f b8
       6.7971225e-05 1.2607707e-05 1.5197761e-05 -4.1925217e-05
000270 5d 5e 12 b7 ce cb 4c b8 f2 d3 61 b8 92 03 52 b8
       -8.724249e-06 -4.8827198e-05 -5.384157e-05 -5.0071227e-05
000280 d6 96 84 b8 5d 16 71 b8 a9 5e b2 38 6c 20 95 b8
       -6.322346e-05 -5.7479705e-05 8.505333e-05 -7.110913e-05
000290 29 7a 33 39 ac c7 7d b8 8e 8c 51 39 a0 c3 2c 36
       0.00017116278 -6.050586e-05 0.00019984154 2.5743866e-06
0002a0 59 c9 dc b8 18 6f 3c b8 a1 51 c1 b7 c0 73 d6 36
       -0.000105279214 -4.4926157e-05 -2.3045404e-05 6.391172e-06
0002b0 c0 44 ce 38 80 59 98 b6 0c 9a ed 38 70 40 64 37
       9.835651e-05 -4.540372e-06 0.00011329734 1.3604862e-05
0002c0 3c 69 a2 38 77 fb 82 39 e7 b4 a4 38 49 5c 8b 39
       7.7443634e-05 0.00024982888 7.853825e-05 0.00026580904
0002d0 3c 7a a3 38 a0 7f 97 39 a2 66 00 39 b8 51 9f 39
       7.7952136e-05 0.00028896052 0.00012245265 0.00030387728
0002e0 d0 97 83 38 ef c7 9d 39 4d 5d a4 38 8e b4 90 39
       6.274844e-05 0.00030094336 7.837508e-05 0.00027600344
0002f0 e0 a6 e9 37 aa fa 0c 39 7a 3c 00 b7 14 09 85 38
       2.7853472e-05 0.0001344482 -7.643475e-06 6.343625e-05
000300 46 d1 9e b9 20 ee 20 38 0d ee 38 ba 10 bb 04 37
       -0.0003029203 3.8368744e-05 -0.00070545153 7.911367e-06
000310 3b 87 22 bb 3f 9f 92 39 62 fd 35 b8 87 47 6d b9
       -0.0024799842 0.00027965938 -4.3389744e-05 -0.00022628727
000320 67 bf 59 b8 7f a5 81 b9 29 ae 6f b8 f8 79 88 b9
       -5.191509e-05 -0.00024728102 -5.714424e-05 -0.00026030815
000330 98 a0 95 b8 46 b7 8a b9 35 21 27 b9 bf 0d 83 b9
       -7.1347866e-05 -0.0002645796 -0.00015938732 -0.0002499651
000340 65 68 e0 b8 4c a4 6f b9 bd 25 10 b9 ca dc 0f b9
       -0.00010700597 -0.00022854022 -0.00013746969 -0.00013719793
000350 9b 0d 26 39 66 00 39 b9 a9 fa 3f 39 3b 9d 3b b9
       0.00015836062 -0.00017643123 0.00018308558 -0.00017892283
000360 1c d7 19 3a 43 8e 4d b9 68 33 71 3a b3 e4 7b b9
       0.00058685406 -0.0001960332 0.00092010805 -0.00024022422
000370 1c c5 6c b8 46 7e ac b8 15 c6 8e b8 a2 1e bd b8
       -5.6450357e-05 -8.2251194e-05 -6.807983e-05 -9.017928e-05
000380 c8 74 b1 b8 0d 9a e4 b8 a4 45 9f b7 a0 3f 02 b9
       -8.46177e-05 -0.000109005814 -1.8986706e-05 -0.00012421468
000390 c4 9a 44 ba 6d c7 00 b9 51 00 17 ba 9c f8 18 b9
       -0.00074998685 -0.00012281323 -0.000576024 -0.00014588464
0003a0 e2 c9 2d ba 58 98 cd b7 23 29 83 b8 c4 41 7f b8
       -0.0006629509 -2.4508845e-05 -6.254229e-05 -6.0857987e-05
0003b0 96 c5 22 38 2e 0e 99 b8 57 f7 ec 39 a8 ae 16 b8
       3.8807826e-05 -7.29825e-05 0.0004519771 -3.5925448e-05
0003c0 05 fc 44 3a ae 8d 9c b8 3c 99 de b7 86 77 c5 37
       0.00075143605 -7.4650496e-05 -2.6535818e-05 2.3539887e-05
0003d0 b3 ac 4d b7 c4 7a 58 37 9e c4 af 38 8e 39 b9 b6
       -1.2259162e-05 1.2903187e-05 8.381273e-05 -5.52013e-06
0003e0 80 c2 bd 36 54 3c ce b7 25 5c b9 b9 d0 36 5d b8
       5.6552817e-06 -2.4585206e-05 -0.00035354603 -5.2741554e-05
0003f0 20 56 81 b9 03 e1 9c b8 7a 17 21 b9 8d 7d a4 b8
       -0.00024668965 -7.4805714e-05 -0.00015362902 -7.843515e-05

exp_avg_sq f4 [128, 22]
000000 31 8e e0 34 a0 dd 32 35 88 02 76 34 71 3a 38 35
       4.182671e-07 6.6632674e-07 2.2911456e-07 6.8630385e-07
000010 5c 87 c8 34 45 f5 41 35 f8 93 c8 34 1d 53 49 35
       3.735139e-07 7.2255017e-07 3.7360564e-07 7.499928e-07
000020 3d 3b 13 36 9f cc 44 35 ed 93 6c 36 d2 45 42 35
       2.1939188e-06 7.331345e-07 3.5252845e-06 7.2372234e-07
000030 00 81 d4 36 41 23 3f 35 ae d7 d3 36 f5 56 3d 35
       6.33311e-06 7.1204346e-07 6.3133984e-06 7.0534526e-07
000040 da 98 04 37 09 d3 38 35 f1 1a 9d 36 bd 87 34 35
       7.903402e-06 6.885244e-07 4.682101e-06 6.725275e-07
000050 16 86 4b 36 df 31 31 35 1e fb 0d 33 c9 c2 3b 34
       3.0327406e-06 6.601021e-07 3.305751e-08 1.7486595e-07
000060 a0 c5 43 34 11 31 43 34 2d db 7e 35 be 39 47 34
       1.8232686e-07 1.817864e-07 9.4941316e-07 1.8554326e-07
000070 05 f0 a2 35 b5 9f 49 34 36 07 79 35 61 10 46 34
       1.2139795e-06 1.8777685e-07 9.277022e-07 1.8446146e-07
000080 ae 34 a1 34 e2 3b 3d 34 a9 bb 86 34 7d 54 37 34
       3.0026916e-07 1.7623782e-07 2.5095986e-07 1.707394e-07
000090 10 d4 d8 33 3a 35 31 34 43 51 11 36 ec 8e 28 34
       1.0096858e-07 1.6503773e-07 2.1653984e-06 1.5698214e-07
0000a0 91 57 1e 36 5a 82 21 34 d0 0a 17 36 fd ce 1c 34
       2.3594805e-06 1.5041715e-07 2.2507047e-06 1.4603934e-07
0000b0 b1 5f 58 33 b5 17 00 33 73 32 c5 32 19 b3 02 33
       5.037845e-08 2.9823884e-08 2.295676e-08 3.0430872e-08
0000c0 05 08 ba 32 59 95 0a 33 72 e5 84 33 6d ee 11 33
       2.1656897e-08 3.226646e-08 6.188465e-08 3.397729e-08
0000d0 0a 45 3b 34 55 b8 0d 33 ca 48 d0 33 25 93 14 33
       1.7440848e-07 3.299677e-08 9.698995e-08 3.4592762e-08
0000e0 01 86 af 34 c4 36 07 33 65 a0 b0 34 60 55 06 33
       3.269379e-07 3.1481946e-08 3.2899257e-07 3.1276954e-08
0000f0 74 2d 0b 33 21 a2 11 33 8a d8 cf 31 dc a0 0d 33
       3.24048e-08 3.39079e-08 6.0491105e-09 3.297542e-08
000100 1d 05 44 33 ef 62 0b 33 95 e1 84 34 34 56 d8 34
       4.5639457e-08 3.245344e-08 2.4751048e-07 4.0295856e-07
000110 15 ee 19 33 90 00 e0 34 9c e9 b7 32 9a df e8 34
       3.5839623e-08 4.172366e-07 2.1410237e-08 4.337606e-07
000120 c5 63 25 33 92 21 ef 34 fe dc bb 33 0a db ed 34
       3.8507796e-08 4.4541645e-07 8.748064e-08 4.4304062e-07
000130 d4 5d f5 34 40 76 e9 34 19 d4 d1 35 09 61 e3 34
       4.5703075e-07 4.348567e-07 1.5633442e-06 4.2352647e-07
000140 41 d6 10 36 3c ad db 34 5a 5f b6 36 76 ff d6 34
       2.1582384e-06 4.0917973e-07 5.435123e-06 4.0046478e-07
000150 d3 fa 97 36 9f 74 d1 34 eb c2 b4 36 1c 8f cd 34
       4.5293505e-06 3.9014137e-07 5.3871095e-06 3.828835e-07
000160 5d 35 b6 33 d3 0f 9a 34 7c 25 0c 34 ea 18 a3 34
       8.484742e-08 2.869625e-07 1.3052153e-07 3.0379243e-07
000170 cc 34 3b 35 d5 92 a7 34 ce 6e 9e 35 5f a1 aa 34
       6.973976e-07 3.1213008e-07 1.1804166e-06 3.178238e-07
000180 ca 39 f4 35 b8 05 aa 34 4a c9 e3 35 e9 2c a8 34
       1.8196235e-06 3.1669128e-07 1.6971401e-06 3.1325115e-07
000190 2b 5d a4 35 88 25 a5 34 3a 82 cd 35 5d fc 9a 34
       1.2246068e-06 3.0760953e-07 1.5311591e-06 2.8868354e-07
0001a0 b8 9e 85 35 bc d2 91 34 99 d0 13 35 50 ed 87 34
       9.955465e-07 2.7161684e-07 5.5065317e-07 2.5318377e-07
0001b0 fd 1b 5d 34 eb 0a 89 34 75 e1 09 33 fa 02 8d 34
       2.0592411e-07 2.5526182e-07 3.210285e-08 2.6265462e-07
0001c0 2c 96 2f 35 30 9c 90 34 ea 5a 4c 36 52 58 91 34
       6.541111e-07 2.6935732e-07 3.0451288e-06 2.7072616e-07
0001d0 4c b6 1a 36 cf f6 95 34 f2 f7 03 36 ce 7e 96 34
       2.30539e-06 2.793299e-07 1.9664844e-06 2.803194e-07
0001e0 9e 80 6c 34 c7 37 95 34 94 54 4e 35 d4 ab 8d 34
       2.2026003e-07 2.7793996e-07 7.686406e-07 2.6388318e-07
0001f0 2e b8 34 35 6a 5b 88 34 5f 48 a3 34 64 fa 80 34
       6.732324e-07 2.5398487e-07 3.0413773e-07 2.402404e-07
000200 dc 6c 14 33 44 e2 75 34 8e 5a 24 35 b6 75 67 34
       3.4557942e-08 2.2899718e-07 6.1226535e-07 2.1556374e-07
000210 27 7c 20 33 ef e3 e0 35 58 60 10 34 f9 6a ea 35
       3.736582e-08 1.6755638e-06 1.3446095e-07 1.7465492e-06
000220 38 9c 8d 33 f7 1c f2 35 eb 9a b4 33 24 e4 f6 35
       6.59424e-08 1.8038835e-06 8.4100826e-08 1.8394826e-06
000230 b0 89 0a 34 08 fb f7 35 1e 0e 80 35 64 93 f4 35
       1.2902342e-07 1.8475994e-06 9.540852e-07 1.8222313e-06
000240 48 a0 3f 35 79 98 ed 35 b8 69 a7 34 3b 39 e4 35
       7.1386285e-07 1.7702251e-06 3.1183095e-07 1.700398e-06
000250 1b 8a a1 34 45 b2 da 35 71 66 e7 34 45 8e d2 35
       3.0089072e-07 1.6294149e-06 4.310164e-07 1.5687625e-06
000260 00 ea 2a 34 4d ec c9 35 9d f1 fa 33 62 0f e7 34
       1.5917612e-07 1.504444e-06 1.16854814e-07 4.3038295e-07
000270 03 f8 33 34 4d d0 e4 34 51 39 ab 34 d2 d2 e2 34
       1.67609e-07 4.2619868e-07 3.1892935e-07 4.2249172e-07
000280 b5 d9 cd 34 56 ed e2 34 04 8c 1c 35 83 77 e0 34
       3.8342628e-07 4.2268465e-07 5.831828e-07 4.1810208e-07
000290 eb 28 a8 35 9f c7 dd 34 89 b8 2e 36 68 5f de 34
       1.2528884e-06 4.13097e-07 2.6035434e-06 4.142014e-07
0002a0 42 38 7a 36 95 55 e2 34 c3 4b 67 36 98 69 e2 34
       3.728565e-06 4.215805e-07 3.4465781e-06 4.217261e-07
0002b0 fd 49 8d 36 e5 17 e6 34 11 93 0a 36 0f c7 ec 34
       4.210741e-06 4.2858224e-07 2.0649206e-06 4.410326e-07
0002c0 b0 ac 7b 33 3b 71 df 35 8d 2b 5c 34 b7 19 e9 35
       5.859755e-08 1.6647749e-06 2.050494e-07 1.7367337e-06
0002d0 cd c1 c5 34 e7 9d f0 35 b4 25 66 35 c9 2a f4 35
       3.6835118e-07 1.7927349e-06 8.573654e-07 1.8191869e-06
0002e0 75 3b dd 34 a0 45 ef 35 7e 66 c2 34 4d 41 e6 35
       4.1207718e-07 1.7827151e-06 3.620989e-07 1.715534e-06
0002f0 4e e6 4e 35 c0 71 dd 35 85 5f 8a 35 58 c4 d3 35
       7.707612e-07 1.6498889e-06 1.0309601e-06 1.5777869e-06
000300 b1 6e 2e 37 6b c8 cb 35 0f dd 73 37 71 6e c4 35
       1.03969805e-05 1.5183008e-06 1.4535398e-05 1.4635281e-06
000310 20 87 41 38 74 1a c0 35 db 6a 77 34 17 9a bb 35
       4.614063e-05 1.4312814e-06 2.3042541e-07 1.3977432e-06
000320 6f e0 89 33 99 07 c8 35 95 03 4e 34 c5 54 d3 35
       6.420384e-08 1.4903372e-06 1.9186548e-07 1.5745396e-06
000330 69 01 c1 34 d5 2c d9 35 54 10 6e 35 85 3e dc 35
       3.5950077e-07 1.6180808e-06 8.868567e-07 1.6409473e-06
000340 f1 62 97 36 f8 44 d9 35 b3 05 c1 36 e6 d5 d4 35
       4.511669e-06 1.6187832e-06 5.7525117e-06 1.5857484e-06
000350 ab 57 77 37 21 09 d1 35 e3 fa 51 37 f6 2a c8 35
       1.4742759e-05 1.557437e-06 1.2515785e-05 1.4913664e-06
000360 86 e9 87 37 7f 60 be 35 2a 2c 5b 37 b2 a2 b7 35
       1.6201997e-05 1.4184187e-06 1.30637e-05 1.3681913e-06
000370 25 21 d8 34 b6 41 04 35 46 77 75 34 ee 22 0b 35
       4.025725e-07 4.9269454e-07 2.2860795e-07 5.1832365e-07
000380 03 98 37 34 91 54 12 35 50 70 9f 35 8c 8b 15 35
       1.7098505e-07 5.45123e-07 1.187911e-06 5.5709893e-07
000390 5f e0 d0 36 e3 49 10 35 65 0b 1c 37 ec 11 0e 35
       6.2250033e-06 5.37517e-07 9.300978e-06 5.29252e-07
0003a0 87 51 98 37 b3 74 04 35 8d 4b 89 37 3a af fd 34
       1.8157776e-05 4.934365e-07 1.6366854e-05 4.7252416e-07
0003b0 e9 3b 82 37 0c 2a fc 34 20 1c 1a 37 9b 8c f6 34
       1.5525105e-05 4.696925e-07 9.185664e-06 4.5923375e-07
0003c0 28 18 a0 36 18 c4 ee 34 95 bd a7 34 b5 12 a8 34
       4.7711837e-06 4.4473632e-07 3.1244113e-07 3.130605e-07
0003d0 d8 c7 5f 34 2d 3a ae 34 47 69 27 36 8c dc b4 34
       2.0841196e-07 3.2452354e-07 2.4946219e-06 3.3688082e-07
0003e0 79 d2 4f 36 a7 ee bb 34 bf f4 5e 36 7e a0 b9 34
       3.0967915e-06 3.5005107e-07 3.3223039e-06 3.457571e-07
0003f0 0a f7 b3 35 95 3f b2 34 2f 62 0b 35 d4 98 ae 34
       1.3408437e-06 3.3201346e-07 5.192441e-07 3.2521223e-07

exp_avg f4 [128]
000000 b5 07 28 3a 0d f4 f0 38 00 c3 32 b8 bb 89 1a 3a
       0.000640984 0.0001148955 -4.2620115e-05 0.0005895157
000010 ab 88 0c 38 d8 55 c5 b9 f4 c9 0e ba fe 73 ad 39
       3.3505883e-05 -0.00037638727 -0.00054469635 0.00033083552
000020 d5 60 90 ba 5c 6b 4d 3a 69 af c0 39 07 11 49 38
       -0.0011015186 0.0007836127 0.00036751785 4.7937992e-05
000030 bd 35 42 3a 9e cb 62 39 eb d5 1d 3a b5 a8 66 39
       0.00074085203 0.00021628893 0.0006020951 0.00021997358
000040 9f 63 cb ba 06 5c 11 b8 21 84 05 ba 05 04 10 3a
       -0.001551736 -3.4656397e-05 -0.0005093236 0.0005493763
000050 50 d1 ae 38 e7 60 ca b9 1b 29 16 b8 e5 91 80 3a
       8.335954e-05 -0.0003860064 -3.580107e-05 0.0009809105
000060 22 72 04 ba 95 4e 95 39 2e cb b6 b9 16 b6 05 3a
       -0.00050524075 0.00028478043 -0.00034865126 0.000510068
000070 38 be e1 b8 aa b3 53 b9 a0 17 f9 39 03 df 0c 3a
       -0.00010764267 -0.00020189458 0.00047510583 0.00053738075
000080 ef 43 00 b9 91 5f f4 b9 fc ed e8 37 5d ab 60 39
       -0.00012232338 -0.0004661051 2.7767375e-05 0.00021426142
000090 26 a0 5e 3a 87 e8 47 38 1d 20 b1 39 ea 2f a7 39
       0.0008492492 4.7661855e-05 0.00033783997 0.0003188842
0000a0 ae 0b 93 b9 e8 a2 50 3a bb 19 43 ba 91 e3 ee 38
       -0.00028046727 0.0007958845 -0.0007442494 0.00011391112
0000b0 f6 85 cd b9 c2 79 cd b9 cc af e4 b8 9d c7 72 b9
       -0.00039200456 -0.00039191364 -0.00010904632 -0.0002315328
0000c0 10 8a c8 b8 08 96 4b 3a de d5 0b 3a 23 5c 9a ba
       -9.562459e-05 0.0007766192 0.0005334298 -0.0011776726
0000d0 62 f4 f0 39 36 f2 53 3a 7b 7b a1 b8 bf 96 d8 b9
       0.00045958447 0.00080851035 -7.700078e-05 -0.00041311045
0000e0 ac d9 3f 39 60 a6 c7 38 e5 74 9c 39 80 77 27 3a
       0.00018296269 9.520049e-05 0.00029841732 0.00063883513
0000f0 87 2b d1 39 a5 0c 9c 3a bc 9f 61 b9 fc 4f 45 39
       0.00039896017 0.0011905624 -0.00021517178 0.0001881718
000100 b3 3c 89 39 15 5b b1 39 a3 de 1d 3a 5a 4e 9a 39
       0.000261759 0.00033827932 0.000602225 0.00029431545
000110 fe 7e 60 39 c7 6b 2e ba 30 c9 d7 39 93 b6 48 3a
       0.00021409613 -0.00066536333 0.00041157892 0.00076566
000120 ff b9 4e 3a 75 2e 68 39 fc fb d7 39 a2 0a a9 b9
       0.0007885992 0.00022142551 0.0004119574 -0.00032242114
000130 90 77 44 b8 43 58 a3 39 bf 2b 50 39 58 b6 d6 b9
       -4.6841393e-05 0.00031155543 0.00019852722 -0.00040953117
000140 70 0f 1e 3a ce e7 2b 3a 3a d9 7f b9 aa 9c 89 3a
       0.0006029522 0.0006557674 -0.00024399618 0.001049896
000150 f3 5c c8 39 76 92 b6 b9 d0 b1 ad 39 ac d3 38 37
       0.00038216225 -0.00034822867 0.00033129612 1.1016538e-05
000160 d3 a1 d0 39 92 90 1b 39 ce 23 36 39 05 0a 95 b9
       0.0003979342 0.00014835809 0.00017370211 -0.0002842696
000170 be 4c 90 b9 64 5a d4 39 51 a6 7c 37 38 35 83 39
       -0.00027522998 0.00040503137 1.5059094e-05 0.00025025918
000180 d5 bb 1c 3a c2 94 6a b9 e5 90 08 b9 85 40 c4 b9
       0.0005978917 -0.00022371396 -0.00013023948 -0.00037432104
000190 be 46 e5 b9 a5 f4 85 38 6f 08 50 39 5e 67 83 ba
       -0.0004373099 6.387503e-05 0.00019839568 -0.0010025313
0001a0 84 59 f0 b8 7b 45 b3 39 5d ff 23 3a 52 d5 85 b8
       -0.000114607654 0.00034193308 0.00062560086 -6.381668e-05
0001b0 45 f3 df 39 7a 49 23 3a 7a 56 29 3a 03 15 17 ba
       0.00042715124 0.00062289054 0.00064597244 -0.0005763324
0001c0 16 1e 4a b9 31 92 ba 39 1c 1a bf 39 34 f7 82 b9
       -0.00019275429 0.00035585606 0.00036449812 -0.00024979713
0001d0 70 84 0b ba c4 24 aa 38 88 63 af b7 88 49 da ba
       -0.0005322164 8.11308e-05 -2.0907974e-05 -0.0016653994
0001e0 f1 54 28 3a b4 c3 e8 b7 88 e5 35 ba 09 9b 88 39
       0.00064213487 -2.7747687e-05 -0.0006938805 0.00026055452
0001f0 9e 1a 25 38 ca 6b 4b ba e4 0d 22 3a ef ef bd b8
       3.9363855e-05 -0.0007759897 0.00061818794 -9.0569134e-05
