results/Random1_V0/3DBall/3DBall-1499849.pt (torch, 495670 bytes, 44 tensors)

network_body.observation_encoder.processors.0.normalizer.running_mean f4 [22]
000000 c3 1b 68 39 a4 52 ec 3f 1d dc be 39 03 4d ed 3f
       0.00022135586 1.846272 0.0003640362 1.8539127
000010 ca 72 20 3a be dd ed 3f 59 6e 7d 3a 7d e7 ed 3f
       0.00061206205 1.8583295 0.0009667627 1.858627
000020 ce 61 ad 3a 95 71 ed 3f ac fd e1 3a 21 7e ec 3f
       0.0013228001 1.8550287 0.0017241738 1.8475991
000030 ec 29 0a 3b ba fd ea 3f 76 0c 16 3b 34 e4 e8 3f
       0.0021082116 1.8358681 0.002289561 1.8194642
000040 ef c2 10 3b 08 10 e6 3f f8 8b fa 3a 35 78 e2 3f
       0.0022088846 1.7973642 0.00191152 1.7692934
000050 b1 9e d4 3a 48 80 de 3f
       0.001622161 1.7382898

network_body.observation_encoder.processors.0.normalizer.running_variance f4 [22]
000000 20 75 a6 43 d5 4a 2e 49 6c b1 08 44 d4 72 39 49
       332.91504 713901.3 546.7722 759597.25
000010 ca 9a 65 44 96 67 47 49 ab 34 b5 44 dc 1b 56 49
       918.4186 816761.4 1449.6459 876989.75
000020 2f cb f7 44 38 b0 64 49 64 69 21 45 25 66 71 49
       1982.3495 936707.5 2582.587 988770.3
000030 8a 45 45 45 e9 f3 7a 49 f2 31 56 45 74 0e 80 49
       3156.3462 1.02790256e+06 3427.1216 1.0490385e+06
000040 00 ab 4e 45 2d 12 7e 49 75 e7 32 45 50 cf 72 49
       3306.6875 1.0406748e+06 2862.466 994549.0
000050 2a e1 17 45 ac e8 61 49
       2430.0728 925322.75

network_body.processors.0.normalizer.running_mean f4 [22]
000000 c3 1b 68 39 a4 52 ec 3f 1d dc be 39 03 4d ed 3f
       0.00022135586 1.846272 0.0003640362 1.8539127
000010 ca 72 20 3a be dd ed 3f 59 6e 7d 3a 7d e7 ed 3f
       0.00061206205 1.8583295 0.0009667627 1.858627
000020 ce 61 ad 3a 95 71 ed 3f ac fd e1 3a 21 7e ec 3f
       0.0013228001 1.8550287 0.0017241738 1.8475991
000030 ec 29 0a 3b ba fd ea 3f 76 0c 16 3b 34 e4 e8 3f
       0.0021082116 1.8358681 0.002289561 1.8194642
000040 ef c2 10 3b 08 10 e6 3f f8 8b fa 3a 35 78 e2 3f
       0.0022088846 1.7973642 0.00191152 1.7692934
000050 b1 9e d4 3a 48 80 de 3f
       0.001622161 1.7382898

network_body.processors.0.normalizer.running_variance f4 [22]
000000 20 75 a6 43 d5 4a 2e 49 6c b1 08 44 d4 72 39 49
       332.91504 713901.3 546.7722 759597.25
000010 ca 9a 65 44 96 67 47 49 ab 34 b5 44 dc 1b 56 49
       918.4186 816761.4 1449.6459 876989.75
000020 2f cb f7 44 38 b0 64 49 64 69 21 45 25 66 71 49
       1982.3495 936707.5 2582.587 988770.3
000030 8a 45 45 45 e9 f3 7a 49 f2 31 56 45 74 0e 80 49
       3156.3462 1.02790256e+06 3427.1216 1.0490385e+06
000040 00 ab 4e 45 2d 12 7e 49 75 e7 32 45 50 cf 72 49
       3306.6875 1.0406748e+06 2862.466 994549.0
000050 2a e1 17 45 ac e8 61 49
       2430.0728 925322.75

network_body._body_endoder.seq_layers.0.weight f4 [128, 22]
000000 8a 3d e2 bc f6 5c c9 bc 4f a9 19 3e 22 84 9d 3e
       -0.027617235 -0.02458046 0.15005992 0.30764872
000010 9f 22 a9 be 27 03 96 3e 3d d2 d2 3d 0c 2b 11 be
       -0.33034226 0.2929928 0.10294006 -0.14176577
000020 43 f4 52 be 67 97 34 be 08 c1 1d be 40 b5 5f bd
       -0.20600991 -0.1763588 -0.15405667 -0.054616213
000030 6e 9e 87 3d 56 b4 e8 bd d7 9f 26 bc 32 83 4b 3e
       0.06622015 -0.11362521 -0.010169945 0.19874266
000040 e2 06 5b 3e d4 4e 34 be 9e 98 7d 3d 3f ca c8 3c
       0.21389344 -0.17608196 0.061913125 0.024510501
000050 0d 40 3a be 3c 13 b5 bd 23 ee ae 3e 2f b0 cd bd
       -0.18188496 -0.08841559 0.3416606 -0.1004337
000060 49 d5 93 3e a7 4e 91 3e 31 d2 de 3e 97 09 fc bd
       0.2887366 0.2838032 0.43519738 -0.123065166
000070 7b ea 4a be f2 03 46 3d 7f a2 c0 3d 6c 5a fe 3b
       -0.1981601 0.048343606 0.09405994 0.007762244
000080 30 aa 8e 3e 36 58 b9 3d 24 fd 85 3d 78 c6 73 be
       0.27864218 0.09050028 0.06542423 -0.23806179
000090 03 3e 8a bc 94 9d 33 be 30 5e 7a 3e 80 e0 5e bd
       -0.016875273 -0.1754058 0.24449992 -0.05441332
0000a0 94 9e 24 bc 82 c8 28 3e b2 84 32 be 58 06 78 3d
       -0.010047574 0.16482738 -0.17433432 0.060552925
0000b0 3b cd a5 3e bb 81 e0 bd 62 12 3b bd 1c 13 bd be
       0.3238314 -0.10962244 -0.045671828 -0.36928642
0000c0 4d bf 7a bc 46 29 dd 3c ca f2 a9 bd 46 80 fc 3d
       -0.015304399 0.02699722 -0.082982615 0.12329154
0000d0 dc e2 f6 bd e2 95 b7 be 2b fb 9e be f6 f8 cc 3d
       -0.12054989 -0.3585654 -0.31051 0.10008423
0000e0 98 ff 1e be 21 b0 81 3d ef 7e 2c 3e ca 42 7a 3e
       -0.15527189 0.06332422 0.16845296 0.2443954
0000f0 4b d2 8a 3e 05 ce 1e 3e c4 59 01 be 38 0c 06 3e
       0.27113566 0.15508278 -0.12631899 0.13090599
000100 86 f5 34 3e 94 1b 7a 39 16 32 05 3e e3 d6 3d bb
       0.17671785 0.00023852132 0.13007388 -0.0028967194
000110 f4 9e 9e 3d 7d b0 5e 3e 61 dc 56 3e 38 3b 91 be
       0.07745162 0.21747012 0.20982505 -0.28365493
000120 1b f5 bb bd 18 8d 98 bd 07 28 4a be 63 20 77 3e
       -0.091776095 -0.074487865 -0.19741832 0.24133448
000130 d5 f1 87 3c 29 c9 e6 be 56 00 09 be 6c fa 60 3e
       0.016594807 -0.45075348 -0.13379034 0.21970528
000140 6e ab 12 3e cb 4e 66 3d 3c a1 47 3e be c4 2a 3e
       0.14323208 0.056227487 0.194951 0.16676614
000150 c8 82 e1 bc 49 40 71 3d 27 fc 70 be 74 37 31 be
       -0.027528182 0.058899198 -0.23533688 -0.1730631
000160 f1 ed d2 3e c6 f9 ec 3d f6 a5 90 be 75 75 61 3e
       0.4119716 0.11571078 -0.28251618 0.22017463
000170 38 3d 5b 3e d0 ad 6e bd 9c cf b1 be e0 55 0f bd
       0.21410072 -0.05827123 -0.34728706 -0.034994006
000180 8b 18 27 3e bf 9c 44 be 6f 12 a9 39 24 a4 0d 3d
       0.16317956 -0.19200419 0.00032247926 0.034580365
000190 63 f4 ac 3d d0 b6 a2 3e 7e 97 7d 3e 46 d8 b7 be
       0.084450506 0.317801 0.24764821 -0.3590719
0001a0 17 03 65 3d 42 80 50 3c 08 9d 1b 3e d0 50 2c 3e
       0.05591115 0.012725892 0.15196621 0.16827703
0001b0 53 26 55 3e e0 c2 4d be 2c 14 2d be 25 99 ae bd
       0.20815401 -0.2009387 -0.16902226 -0.08525304
0001c0 1d 73 53 be 68 f4 9f 3e 94 00 2b ba 46 de fe bc
       -0.20649381 0.31241155 -0.00065232185 -0.031111848
0001d0 23 ef ac be d8 d0 83 be 0a 4d 0c 3e 2d 83 64 be
       -0.33776197 -0.25745273 0.13701263 -0.22315665
0001e0 7e 07 70 3e 19 e8 22 be 07 a8 f3 bc 57 4f ae ba
       0.23440358 -0.1590885 -0.029743208 -0.0013298792
0001f0 0f bd 3a 3e 55 26 c8 3d e5 3b c4 3e 9e 83 64 3d
       0.18236183 0.09772936 0.38326946 0.055789582
000200 d7 d6 af be 57 01 be 3d 12 f2 a7 bd 1c e5 66 be
       -0.34343597 0.09277599 -0.08200468 -0.22548336
000210 25 4b 3a bd a1 12 00 3e 97 09 ca 3c 15 4e 71 be
       -0.04548182 0.12507106 0.024662776 -0.23564942
000220 c3 91 9f 3e ee b0 15 bd 1a 02 71 be e5 9b 04 be
       0.31165895 -0.036545686 -0.23535958 -0.12950094
000230 2b 41 a7 3e d7 6b d4 bd bc 69 35 3e 22 f1 2e bd
       0.32666907 -0.10372131 0.17716116 -0.04271043
000240 eb dd bd 3e 3e 14 ab 3e 56 25 f8 be f2 8e d6 bc
       0.37083372 0.3341388 -0.48465985 -0.026191209
000250 01 7a 30 be c7 94 f9 3d ed be 74 3e a8 df a9 bd
       -0.17234041 0.1218658 0.23900957 -0.08294612
000260 b6 4b cc bd 12 18 38 be ac f6 cd 3e 8f 66 4f 3e
       -0.09975378 -0.17977932 0.40227258 0.20253967
000270 25 31 ba 3e 3e 57 32 3d d1 cd d6 3c 71 69 fe bd
       0.3636562 0.043540232 0.026221188 -0.12422455
000280 1c 6b 5a be 73 7d ac 3d 50 89 04 3e 4c 70 bb bd
       -0.21329921 0.08422365 0.12943006 -0.09152278
000290 f4 ff 8f 3e 29 09 1f bd 8d 74 5f 3e 31 f7 13 be
       0.28124964 -0.038827095 0.21821804 -0.14449765
0002a0 c1 ec 22 3c 42 e2 09 3e a9 c6 6f be a5 42 4e 3e
       0.009944142 0.13465217 -0.23415627 0.2014261
0002b0 fc 78 62 be d1 8e d6 bd a0 61 27 3e fb 36 9c bb
       -0.22116464 -0.10476459 0.16345835 -0.0047672964
0002c0 c0 d0 30 be a1 33 ac be fa 4b 01 be 38 b4 93 3e
       -0.17267132 -0.3363314 -0.12626639 0.28848433
0002d0 89 bf 98 be 42 df 68 3e c9 15 07 bd 77 8d 8c bd
       -0.2983363 0.22741416 -0.03297976 -0.0686292
0002e0 e0 8f 63 be df 9a b2 be 17 2f 3d 3d 88 23 b1 3d
       -0.22222853 -0.34883782 0.046187486 0.08649355
0002f0 c6 09 72 bd 2a b1 22 3e 3d dc dd 3d 77 b1 49 be
       -0.059091352 0.15887895 0.10833023 -0.19696604
000300 a3 7c 2e be 8c 04 c8 be fa 02 d9 3e fe 3e 80 3e
       -0.17039733 -0.3906597 0.42385083 0.2504806
000310 b5 84 80 3e 89 98 57 3e 82 ba 4f 3e 99 eb e2 be
       0.25101247 0.21054281 0.20285991 -0.44320372
000320 ac 14 bb 3c a6 cd 21 3e 48 23 83 bd 09 4a 45 3e
       0.022837006 0.15801105 -0.06403214 0.19266523
000330 6f 45 27 be 70 57 98 bc d5 16 9b 3e 1f d2 b2 be
       -0.1633508 -0.018596381 0.30290857 -0.34925935
000340 7d 54 80 3e 30 a3 3c be a5 41 f4 bd e4 8f 65 bc
       0.2506446 -0.18421626 -0.11926583 -0.014011357
000350 77 ad 49 be e6 be bc 3e 2e 92 1b bd 18 29 9d bd
       -0.19695078 0.36864394 -0.037981205 -0.07673854
000360 96 d7 86 3e a1 9a d2 3e 9f d8 dd 3e 50 04 23 3e
       0.26336354 0.41133597 0.4332933 0.15919614
000370 7c a4 e0 3e d3 bc 26 bd a6 92 0f 3e e5 a2 c3 bd
       0.43875492 -0.04070742 0.14020786 -0.09552554
000380 34 11 38 be de 93 ab 3d 5e 88 9c 3d ce f9 db be
       -0.17975312 0.08377813 0.076431975 -0.42964023
000390 c5 f2 05 be 10 dc f3 3c ab a6 b3 3e 98 7e d7 3d
       -0.1308089 0.02976802 0.35088095 0.10522193
0003a0 67 01 91 3e 08 f9 80 be 85 9a 12 3e 98 ce c1 be
       0.28321382 -0.25189996 0.14316757 -0.3785293
0003b0 56 06 19 3e f5 81 8d bd 0c bd aa 3d 78 78 7c bd
       0.14943823 -0.06909553 0.08336839 -0.061638325
0003c0 e0 1b e7 3d 2c 6a b9 3d 7b df 07 3f f3 d7 40 3d
       0.112846136 0.09053454 0.5307538 0.047080945
0003d0 fa f9 74 be c5 09 3b 3d e8 21 6b 3c 89 96 c5 be
       -0.23923483 0.045663614 0.014351346 -0.38591412
0003e0 dd a5 8b be 1c 27 72 3c b9 89 fc 3d 75 ea 25 3e
       -0.2727498 0.014779832 0.12330956 0.1620272
0003f0 20 a7 89 bc b3 7a dd 3e f5 73 8c be 73 20 a8 be
       -0.016803324 0.43257675 -0.27432218 -0.32837257

network_body._body_endoder.seq_layers.0.bias f4 [128]
000000 cf 0f 3b 3c 79 50 4f bd 8f 95 27 3c 37 a1 03 bd
       0.011417343 -0.050613854 0.010228529 -0.03213617
000010 71 b9 88 3c 84 63 06 be e8 f8 25 bd 16 5b ce ba
       0.016689988 -0.131239 -0.04052058 -0.0015743698
000020 45 40 75 3d 85 8d 73 3d 5c c4 3b be 3d 1b 84 bd
       0.059875745 0.059461135 -0.18336624 -0.06450508
000030 01 47 81 3d 49 2b b2 bd f7 f3 a3 bd 26 a2 1e bd
       0.06312371 -0.08699662 -0.08005517 -0.038728856
000040 46 ac 68 bd 42 18 c3 3d 5c bf 09 3d d7 0a e8 3d
       -0.056804918 0.09526111 0.03362976 0.113301925
000050 95 c0 6d 3e 22 5e 2e be b5 bb d6 bc 17 bf f6 3c
       0.23217995 -0.17028096 -0.026212553 0.030120416
000060 1e e2 fb 3d 8e a8 c0 bd cb 8f bc bd 7c e2 4b 3c
       0.12298988 -0.09407149 -0.09207114 0.012444135
000070 ce 27 8d 3d 40 ed 38 3d c4 2a 33 3d 1b 39 b6 bd
       0.06892358 0.045148134 0.043741956 -0.08897611
000080 3f 7b 3b be 72 39 75 be 5d b3 08 3e 54 97 57 bd
       -0.18308733 -0.23947695 0.13349672 -0.052634552
000090 30 9a e1 3c d4 3b 87 3d 9c da 95 bd c5 3f c4 bd
       0.027539343 0.06603208 -0.07317087 -0.095824756
0000a0 dc 7f 13 3d c7 40 ed bd 13 b5 06 3d 22 2c 07 be
       0.036010608 -0.11584621 0.03288753 -0.13200429
0000b0 8b b8 d5 bb 58 83 46 bb 93 d1 82 bd 7e f2 c9 3d
       -0.0065222434 -0.003029069 -0.06387629 0.09860705
0000c0 fb 32 fc 3d f7 b9 5b 3d 18 d4 d5 3c 3c 00 90 3c
       0.12314411 0.053644147 0.02610211 0.017578237
0000d0 31 0b 85 bd 63 01 82 3d b9 7a 41 3d a2 73 1c bc
       -0.06496275 0.06347921 0.047236178 -0.009549053
0000e0 d8 05 69 3d cd d5 1e 3c 12 b3 1b be 4a fe e3 3d
       0.05689034 0.009694529 -0.15205029 0.11132486
0000f0 08 58 b5 bc 74 4e 05 be aa 04 1e be 82 2b 6d bd
       -0.022136703 -0.13018209 -0.15431467 -0.05790282
000100 97 b6 d6 3d 72 fe aa 3d b5 a8 7e 3c 87 8c ef bd
       0.10484045 0.08349313 0.015543153 -0.11696725
000110 33 aa b5 bc 6e 06 a3 bd f3 33 1c bd ea 50 d0 3d
       -0.022175884 -0.07960211 -0.03813548 0.10171683
000120 60 4b 5d 3d 32 b3 1c be 78 63 88 bd d9 3f 07 be
       0.05402696 -0.15302733 -0.06659597 -0.1320795
000130 0e 9a ad bc 9e 8d bd 3d 6f f0 05 bd ae 8a b4 bd
       -0.021191623 0.09255527 -0.0327 -0.088155136
000140 06 3e 4c be 77 40 bd 3d eb 08 6e 3d 68 e8 85 3d
       -0.19945535 0.09240811 0.058113974 0.065384686
000150 f4 ab 29 3d 46 10 a1 3d 72 b5 18 be e9 c7 5e bd
       0.041423753 0.07864432 -0.14912966 -0.054389868
000160 68 c0 3d be 34 a5 19 3d c7 27 c4 3c fb 9c 1a 3c
       -0.18530428 0.037511066 0.023944749 0.009436841
000170 78 3e ff bd 00 71 37 3c 14 ae b8 bd b4 91 96 3b
       -0.12463087 0.011196375 -0.09017578 0.004595006
000180 f5 32 2d 3e e3 f3 92 3d 44 7a 2c 3c a2 e3 3d 3e
       0.1691397 0.07175424 0.010527197 0.18543866
000190 a7 bc f5 bd e5 da 63 3d 89 81 d1 3d 37 dd 63 3d
       -0.11998873 0.055628676 0.10229785 0.05563089
0001a0 50 a2 15 3e 98 e2 0a bd 7f d9 1e 3c 5a ff 1d 3d
       0.14612699 -0.033907503 0.00969541 0.0385736
0001b0 c1 58 08 3e 0c 13 40 3a 42 cb 14 3c f5 4e 06 bd
       0.13315107 0.0007327057 0.009081664 -0.032790143
0001c0 90 b4 47 be 51 95 3e 3d a2 03 63 3d 5c fd db 3c
       -0.19502473 0.046529118 0.055423386 0.02685421
0001d0 46 32 82 3d 39 2a 35 3e 21 86 0d be 8d c9 34 bb
       0.06357245 0.17691888 -0.13820697 -0.0027585954
0001e0 35 6d 40 3e 5a 50 d2 bd 4e 1d f8 3d 01 be 1e bd
       0.18791659 -0.10269232 0.121149644 -0.03875542
0001f0 17 90 9d bd 12 9c 6e 3d 60 8a 2b bd 60 05 17 bd
       -0.076934986 0.05825431 -0.04188001 -0.03687036

network_body._body_endoder.seq_layers.2.weight f4 [128, 128]
000000 6f 6f df bc 53 67 15 3d 6e d5 6e 3d 63 78 89 bd
       -0.027274815 0.03647549 0.05830901 -0.06712415
000010 23 b8 54 bd 5c 2d 8b 3d 04 a0 1f 3d e5 b0 be bc
       -0.05193342 0.06795761 0.038970962 -0.02327771
000020 ae 6a 03 be bb 77 ee bc a5 15 ec 3c 82 5f 5f 3d
       -0.12833664 -0.029109826 0.028818915 0.054534443
000030 72 27 d0 bd ba f5 5b 3d 19 14 d4 3d 60 6e df 3d
       -0.101637736 0.05370114 0.10355396 0.10909724
000040 04 9d 09 3e 81 e4 14 be 78 4f e4 3d 44 4a 63 be
       0.13438803 -0.14540292 0.1114797 -0.22196299
000050 64 1a 0f be 0a 49 c3 3c f5 8d ba 3d e9 33 3d bd
       -0.13974911 0.023838539 0.091091074 -0.046192084
000060 eb 3b 04 be db b6 4a 3e 1d 1c b6 bd 65 6e d5 bd
       -0.12913482 0.19796316 -0.08892081 -0.10421447
000070 44 49 ef bc fd 1f ba bd ad c9 6d be 73 b3 14 3e
       -0.02920974 -0.090881325 -0.23221464 0.1452158
000080 85 84 01 3e d1 d1 15 3e 5b b8 9f be 23 b0 3e 3e
       0.12648208 0.1463082 -0.3119534 0.18621878
000090 bf 42 37 bd b5 2e db 3d 53 13 81 3e ea 99 1d 3d
       -0.04474139 0.10702268 0.25210056 0.038476862
0000a0 00 86 f0 3d 2d 40 c5 bc f7 41 50 bc ec 72 f5 3d
       0.117443085 -0.024078453 -0.01271104 0.1198481
0000b0 49 1a 2a 3e d3 4d 76 bd 76 e0 02 3e 80 c6 73 bd
       0.1661159 -0.060132813 0.12780938 -0.059515476
0000c0 54 9a 3f be 70 1a 6d bd 77 6f 36 3d d8 9e 8e bb
       -0.18711215 -0.05788654 0.044539895 -0.0043524317
0000d0 75 32 8e 3d 92 33 fa bc 4a 01 81 3d a4 e2 dc 3d
       0.06943218 -0.030542169 0.06299074 0.10785416
0000e0 97 01 df bc 0f aa 11 be b6 52 85 bc 60 5e 49 3c
       -0.027222438 -0.14225028 -0.016274791 0.012290567
0000f0 bd 13 4a 3d 08 fb 93 bc d5 4a b0 3d 70 b0 8b bd
       0.04933523 -0.018064037 0.08608023 -0.06820762
000100 2f 1d 4a be 6c 18 bc bc 17 1e 61 3d e9 9d 83 3d
       -0.19737695 -0.022960864 0.054960337 0.06426603
000110 d3 7d 96 bd bf d6 2a bd 9f 27 68 3d dc 06 ef bd
       -0.07348218 -0.041708704 0.05667841 -0.1167123
000120 6b a4 06 be 1e c7 93 3d f7 af 26 bc 06 97 df 3d
       -0.13148658 0.07215713 -0.010173789 0.10917477
000130 8d 79 70 3d 8b c3 0c 3d d7 d4 75 3c ea 57 04 bd
       0.05870967 0.03436617 0.015004358 -0.032310404
000140 54 ed 44 3e 54 02 a7 bb 7d f9 db bd b4 4b da bd
       0.19231158 -0.005096713 -0.107409455 -0.106589705
000150 6c f9 f4 3d 8e 10 88 bd 2b 39 04 bd 8e 03 7e 3d
       0.11961636 -0.066437826 -0.032281082 0.06201511
000160 be f6 59 3e c5 6a fa 3d 2d 23 fa bd a6 ca d8 3d
       0.21285531 0.12227396 -0.122137405 0.10585527
000170 57 3c a9 bd 96 0f 8c 3d a4 95 b6 bc 93 71 d9 3a
       -0.08263462 0.0683891 -0.022288151 0.0016589634
000180 4c 22 2b be 13 fa 6d 3c 53 1c 81 3c 8a 6d f7 bd
       -0.16712302 0.014524954 0.015760576 -0.1208144
000190 9c 7b 90 3d 9b ab 95 3d 32 3f 08 3e fe 88 eb 3d
       0.070548266 0.07308122 0.13305357 0.115007386
0001a0 f2 31 21 3d 7b 2f 51 3e 83 36 e6 3d 06 1a ce 3d
       0.039354272 0.20428269 0.11240866 0.10063557
0001b0 73 29 87 bd 99 cc 3a be f9 5f ab ba 96 ee ef bd
       -0.06599703 -0.1824211 -0.0013074867 -0.117154285
0001c0 08 0e 73 3e 48 9c 8d 3c 34 23 04 bd 11 28 37 bd
       0.23735821 0.017286435 -0.032260135 -0.044715945
0001d0 47 1e 81 bd a5 d3 90 bd ea 1d df 3d c9 6d 91 bd
       -0.06304603 -0.07071618 0.108943775 -0.07101018
0001e0 28 45 49 be 37 bf b4 3d 09 6d 3a 3d bc c2 74 3c
       -0.19655287 0.08825534 0.04551414 0.014939006
0001f0 31 bb d2 bd 8b e8 02 be 38 2e a3 3d ec 1e aa bd
       -0.1028961 -0.1278402 0.079678 -0.08306679
000200 12 2d 25 3e 2e 12 a5 bd 3b fd 1e 3e 94 80 ae 3d
       0.16130474 -0.08060108 0.15526287 0.08520618
000210 8f 9e 23 3e 1d 6f 47 bc 81 ff 52 3d 98 c6 c0 bc
       0.15978454 -0.012172488 0.0515132 -0.023532197
000220 7e ba 0d be d7 0e d5 bd 47 e1 8f 3d 75 33 1b be
       -0.13840672 -0.10403221 0.0702539 -0.15156348
000230 2b f8 c7 3c 00 6a 29 3d 72 8e 3f bb 66 09 8e 3c
       0.024410328 0.041360855 -0.002922919 0.017338466
000240 3b 16 d6 3d 65 2b 61 3e e9 07 ab bd 70 5e 30 be
       0.10453459 0.2198921 -0.08351118 -0.17223525
000250 69 b2 22 3c 09 1e be bd dd 01 89 be 55 4b 86 3d
       0.009930232 -0.092830725 -0.26759234 0.06557337
000260 4e 30 77 bd da 9e a4 bd f2 4c 19 3e f7 5b 4c 3e
       -0.0603488 -0.08038111 0.14970759 0.19956957
000270 46 01 a0 3d 42 1c 02 be 20 2d a0 39 9e ae 01 3c
       0.07812743 -0.12706092 0.000305512 0.007915167
000280 c6 c1 cd bc e4 aa 9d 3d 66 8c a7 3d 04 fa 13 3d
       -0.025116812 0.076986104 0.08181076 0.036127105
000290 4c 79 74 bd a1 30 6b be f4 81 13 be 3a 0c 2c be
       -0.05968599 -0.22967769 -0.14405042 -0.16801539
0002a0 7a e0 c3 3d 4e 8a 17 be 4b 16 05 bd 1d 18 d8 3d
       0.095643 -0.14798853 -0.032491963 0.10551474
0002b0 4e eb c4 3d 03 31 23 bc bd 00 8b bd 44 8d f0 bd
       0.09615193 -0.009960416 -0.0678725 -0.11745694
0002c0 51 eb 9d bd 54 ea 1e 3a e1 80 c5 bc da 49 a0 3d
       -0.07710899 0.00060621393 -0.024109306 0.07826586
0002d0 72 24 0f 3e 09 b5 d5 3c 9c db a3 3d 13 a7 8e 3b
       0.13978747 0.0260873 0.080008715 0.004353413
0002e0 a8 0c 3c bd 2c e5 ac bd 9b c2 15 be d6 89 a6 bc
       -0.045910507 -0.084421486 -0.14625017 -0.020329397
0002f0 56 63 15 bd e2 53 1d bd a4 3b 01 3e 09 dd 00 3d
       -0.036471687 -0.038410075 0.12620407 0.031460796
000300 15 09 8a 3d eb 52 2d be 24 8e 3e 3c be dd 17 3d
       0.067400135 -0.16926162 0.011630569 0.037076704
000310 42 4b 99 3d 72 c1 ab 3c 6c 4e bc 3c 8e 2a 7e bd
       0.074850574 0.020966265 0.022986613 -0.062052302
000320 07 91 63 be ca 42 2c 3d fb 02 ae 3d 10 5e b0 3d
       -0.22223292 0.042055883 0.08496662 0.08611691
000330 8c 77 a6 3d c6 cf 10 be 9d 11 cb bd 0f 1c a9 3d
       0.081282705 -0.1414176 -0.09915469 0.08257305
000340 00 4f 79 bd 91 ad 92 bd 7f ac 8a bd 42 de d8 3d
       -0.060866356 -0.071620114 -0.06771182 0.10589267
000350 18 97 1d bd 7d f8 2a be 50 06 c5 3d f6 4d cd bc
       -0.038474172 -0.16696353 0.09620345 -0.025061589
000360 c3 aa d7 3d 92 cb 6f bd 0f e7 20 3e 35 7d ff 3c
       0.10530617 -0.05854375 0.15713142 0.031187633
000370 b3 11 28 3e 8e 59 ca bd 0a 47 6a bd 2a 50 ba 3d
       0.16413002 -0.098803625 -0.057196654 0.09097321
000380 16 f6 81 bd 3c 5c 33 be 17 96 d1 3c ab bf 74 3d
       -0.06345765 -0.17515653 0.025584264 0.0597531
000390 18 0e 98 bd 74 f4 5e 3d 8d e9 1f be e6 42 46 be
       -0.07424563 0.054432347 -0.15616436 -0.19361457
0003a0 60 56 a6 bc 54 9a 4b be ec f5 d0 3c ff 60 3d 3e
       -0.020304859 -0.1988309 0.02550789 0.18494032
0003b0 63 ae 00 be 29 a0 37 3e 3d 79 07 3e 8e 2a 13 be
       -0.12566523 0.1793219 0.13229842 -0.14371702
0003c0 ff 5a 3f 3c c6 7d cd bc 87 e0 0f 3e 65 eb 31 3c
       0.01167941 -0.025084388 0.14050494 0.010859345
0003d0 21 66 fe 3c 30 af 4b bd 9c e1 0b 3e 33 16 2d bd
       0.031054558 -0.04972762 0.13660282 -0.0422575
0003e0 0f 40 92 bd 85 b8 34 bd c0 98 2d be c1 a2 32 3d
       -0.071411245 -0.044121284 -0.16952801 0.043612245
0003f0 8f ff 0e 3d 86 a2 d1 3d 13 92 c9 3d c2 7c de 3c
       0.03491169 0.10236077 0.098423146 0.027159099

network_body._body_endoder.seq_layers.2.bias f4 [128]
000000 af 33 34 be 8f ab 15 be bd d6 df bd 8d 7d 82 bd
       -0.1759784 -0.14616226 -0.1092963 -0.06371603
000010 ab 2e b7 bd 54 0b c4 bd 90 c9 cd bd ef 88 03 be
       -0.08944448 -0.09572473 -0.100482106 -0.12845205
000020 08 9b ff bd 1c 4b bb bd 3e ac 4a be 84 d5 08 be
       -0.12480742 -0.09145185 -0.19792268 -0.133627
000030 d1 a2 a8 bd 09 96 84 3c be b4 ee 3d 58 e1 5d 3c
       -0.0823418 0.016184824 0.116555676 0.013542496
000040 44 cf 6f bd 64 2f b1 bd 83 97 a2 3c 16 00 31 be
       -0.058547273 -0.08651617 0.019847637 -0.17285189
000050 43 cb 18 bd c6 c1 cb bd ae 0d ee bc 3e 93 cb bd
       -0.03730322 -0.09949069 -0.029059257 -0.099401936
000060 c4 37 e9 bd f1 94 9d 3d 68 69 92 3d 77 91 07 bd
       -0.113875896 0.07694424 0.07149011 -0.03309771
000070 db 55 f7 bd 7e 51 3e bd 27 e7 01 bd bc 04 cf bd
       -0.120769225 -0.046464436 -0.031714585 -0.10108325
000080 45 57 dd bd 9b 88 c5 bd 67 57 a5 bd 10 d5 43 bc
       -0.10807661 -0.09645196 -0.08073311 -0.0119526535
000090 86 d2 78 bd 7c 48 27 be 41 93 3d bd 87 0b 13 be
       -0.060747646 -0.16336244 -0.04628301 -0.14359866
0000a0 b9 34 57 bd db 1f 8c bd b1 e5 2d bd 2e 96 f3 bd
       -0.052540515 -0.068420134 -0.04245538 -0.11893879
0000b0 c6 61 ca 3b 70 20 d4 bd b4 31 13 be 81 a6 fa bd
       0.0061762063 -0.103577495 -0.14374429 -0.12238789
0000c0 20 d7 79 bd ae d5 0c be 92 a7 98 3d f4 65 d9 bd
       -0.060996175 -0.13753387 0.074538365 -0.10615149
0000d0 67 a7 33 be a4 6f 1f bb 65 92 41 be ee d7 7c bd
       -0.17544328 -0.0024328018 -0.18903501 -0.061729364
0000e0 52 8f 11 be e1 b7 8a bb 58 5b fc bd c2 39 69 bd
       -0.14214829 -0.004233346 -0.1232211 -0.056939848
0000f0 8d 04 b5 3d 21 12 71 bd 92 3b 48 bd 22 76 17 bc
       0.088387586 -0.05885518 -0.048884936 -0.009244474
000100 74 8b c6 3d 8c 84 25 be 06 00 08 be e0 ee af bc
       0.09694567 -0.16163844 -0.13281259 -0.02147621
000110 08 18 1f bd c6 7a fa bd 90 c9 1c bd 58 1d ec bd
       -0.038841277 -0.122304484 -0.038278162 -0.115290344
000120 d2 90 dd bd 38 a8 20 bc 35 57 cd bd 93 3e 89 bd
       -0.10818638 -0.0098057315 -0.10026399 -0.06701388
000130 53 74 b1 3c 94 33 c9 bd 13 6f 85 bc 8e ad 3b be
       0.021661913 -0.09824291 -0.016288316 -0.18327925
000140 85 8c 22 bd 52 c0 be 3c 58 a3 42 be 4c e8 f1 bd
       -0.03968479 0.023285065 -0.19007623 -0.11811885
000150 7d 55 60 3d ec 38 c2 bd 11 5e b3 bd 5d 8d 1f be
       0.054769028 -0.09483513 -0.08758176 -0.1558127
000160 22 20 24 3e 18 11 84 3c 32 5e dd bd 51 21 24 be
       0.16027883 0.016121432 -0.10808982 -0.16028334
000170 d8 7f 3e 3d d4 ce d3 bd ee 23 e3 bd be d9 0d bd
       0.04650864 -0.10342184 -0.110908374 -0.034631483
000180 7c 73 70 bd 0d 1d 74 3d 29 33 07 be 2b dc 4a bb
       -0.058703884 0.059598017 -0.1320311 -0.0030953984
000190 45 62 b3 bd 58 d3 f3 bd 4e 06 fb bd 15 c7 f0 bd
       -0.08758978 -0.11905545 -0.12257062 -0.11756722
0001a0 c7 ef 63 3d 2c 4a 4c bd c2 1a 45 bd 7c 1f 3c bd
       0.05564859 -0.049875423 -0.04812122 -0.045928463
0001b0 c3 03 ce bc 4d a8 74 bc 3e 20 16 be 7c 21 92 bc
       -0.025148278 -0.014932704 -0.14660737 -0.017838232
0001c0 57 de 14 be 40 cb ea 3d 56 a1 da bd 90 f3 a8 bd
       -0.14537941 0.11464548 -0.10675304 -0.08249581
0001d0 dd 37 03 be 66 af ca bd 1c 46 d4 bd 7b 6c 29 bd
       -0.12814279 -0.09896736 -0.10364935 -0.04136322
0001e0 2a 48 c0 bd 6a d1 14 be ca e6 26 be 78 74 29 bc
       -0.09388764 -0.1453301 -0.16298977 -0.01034271
0001f0 4f 08 88 3d 23 9b 48 bd bb 10 05 be 39 75 9a bd
       0.0664221 -0.048976075 -0.12994663 -0.0754189

action_model._continuous_distribution.log_sigma f4 [1, 3]
000000 f9 f7 ff be 19 eb 44 be 74 2a e3 be
       -0.49993876 -0.19230308 -0.44368327

action_model._continuous_distribution.mu.weight f4 [3, 128]
000000 90 59 03 3d b8 a3 9d bd 85 7e 61 bd 95 14 e0 bc
       0.032067835 -0.076972425 -0.0550523 -0.027353564
000010 b8 58 b7 bd 4d e9 8f bd 1f a8 79 bd 62 e8 93 bc
       -0.08952469 -0.070269205 -0.06095135 -0.018055145
000020 4b f4 1f be 53 e7 11 bd 45 2b f7 bd 36 b2 60 bd
       -0.15620534 -0.035621 -0.120688 -0.054857455
000030 10 4c 88 bb b3 2e 56 3c 5d 45 fc 3c ad e9 15 bd
       -0.004159458 0.013072657 0.030794794 -0.036599804
000040 4f c1 8f bc 4b ea 50 bd d5 68 c2 bd 4b 54 92 bd
       -0.017548231 -0.05100469 -0.094926514 -0.07144984
000050 1e de 2a bc 1a a4 ad bd 72 6e f4 bc ac a3 ae 3c
       -0.010428933 -0.084785655 -0.02983782 0.02131828
000060 18 26 0f bd 7b 15 c0 3a c6 64 d8 bc 21 40 af bc
       -0.03494844 0.0014654839 -0.02641524 -0.021392884
000070 7b db f1 bd 99 d8 e6 3c 51 71 5b bc a9 87 74 bd
       -0.11809441 0.028179454 -0.013393716 -0.059699688
000080 10 2c f7 bd 84 e8 8d bd bf 36 e3 bc 3a 23 6f bc
       -0.12068951 -0.069291145 -0.027736066 -0.014595801
000090 dd 67 86 3c d1 fb 33 bd d3 09 16 bd 21 9c 3d bd
       0.016406948 -0.043941323 -0.036630463 -0.046291474
0000a0 d3 06 9e 3b 9f 40 4d bd 23 97 fa bb 51 34 ff bc
       0.004822591 -0.050110456 -0.0076474114 -0.031152876
0000b0 5c 98 25 bd 04 ac f0 bc 5e f7 ef 3b 34 83 9d bd
       -0.040428504 -0.029378898 0.0073231896 -0.07691041
0000c0 52 11 db bd 93 de d5 bd 70 40 7e 3b 10 a2 d2 bd
       -0.10696663 -0.10442843 0.0038795732 -0.10284817
0000d0 65 b8 a0 bd 03 a8 6a bc 7c 0f b1 bd 67 26 c8 bc
       -0.078476705 -0.014322284 -0.086455315 -0.024432374
0000e0 8c 4f ad bd 0b 18 02 bc ea db ad bd d7 07 86 bd
       -0.08462438 -0.007940303 -0.08489211 -0.06544464
0000f0 46 fa 81 3c 8c d4 da bd ac 21 48 bd 5e cf ce bc
       0.01586641 -0.10685071 -0.048860237 -0.025245365
000100 42 17 79 3d 78 42 de bd e0 6c 5a bd 02 c6 7c 3d
       0.060813196 -0.10852522 -0.053326488 0.061712272
000110 82 e3 09 bd f5 85 8d bd 86 49 7a bb 66 2f 50 bd
       -0.033664234 -0.06910316 -0.0038190796 -0.050826453
000120 7e d8 bf bd 0d 1b 4f bd f6 5e a4 3d 58 39 4f bd
       -0.093674645 -0.050562907 0.08025925 -0.050591797
000130 36 eb ac 3c 58 b2 f8 bc b3 6a 86 3d 37 01 f2 bd
       0.021108251 -0.030358478 0.0656332 -0.11816638
000140 8a bd 93 3d 7e 92 3c bd cc d5 b2 bd d2 6a 1a 3a
       0.07213886 -0.046038143 -0.08732185 0.0005890551
000150 27 72 2d 3d 07 b7 b5 3b ca ac 07 3d 57 df c4 bd
       0.042345192 0.0055455 0.03312377 -0.09612911
000160 db ef 3f 3c d1 2a 7e bc 63 2e 3e bd 1f 3d 5c bd
       0.011714901 -0.015513138 -0.046430957 -0.053769227
000170 cb 5d 2c bd 3a 03 a5 bd b9 a0 8a 3b f2 b3 1a bd
       -0.042081635 -0.08057256 0.0042305854 -0.037769265
000180 9e c5 0b bd ee 46 bc bd 97 05 3d ba 7e 95 89 bc
       -0.03412401 -0.09193216 -0.0007210611 -0.016794916
000190 f5 e1 0e bd 74 7a 03 be 6c 79 a4 bd 5b 91 60 bd
       -0.03488346 -0.12839681 -0.08030972 -0.05482612
0001a0 c1 2f 6c 39 15 ef be bd 1a 13 aa ba 24 f9 64 bd
       0.00022524504 -0.09322945 -0.0012975663 -0.05590166
0001b0 3e ac 9d bb 6d 84 2b bd 2f fb 2a bd 7f 6d 2d bd
       -0.0048117926 -0.041874338 -0.041743454 -0.04234075
0001c0 44 77 8e bd b7 c2 05 3d 99 49 d3 bc d5 bd e4 bd
       -0.06956342 0.032656398 -0.02579193 -0.1116902
0001d0 44 81 0c bd a6 22 2a bb fb 68 4a 3d bd 1d bf 3b
       -0.034302965 -0.0025960593 0.049416523 0.0058324025
0001e0 84 de 44 bd ee 28 7f bd 4d 97 87 bd 5c 0f c9 bc
       -0.04806377 -0.062294893 -0.06620655 -0.024543457
0001f0 8e f6 91 3c e0 3f af 3b 70 28 7f bd 29 41 16 bd
       0.017817762 0.0053481907 -0.062294424 -0.036683235
000200 a5 a2 86 bd b1 46 51 bd 61 46 5d bc ca 89 51 3d
       -0.06573991 -0.051092807 -0.013505549 0.051156797
000210 e6 8d ba bc 8e a0 a6 3c 8f f0 4b bd 6d 42 47 bb
       -0.02277274 0.02034023 -0.04978996 -0.0030404583
000220 0b df db bd b7 d3 5f 3c 53 73 ce bc 6b df 24 bd
       -0.107359014 0.013661317 -0.025201475 -0.04025213
000230 1a 86 89 bd 5c 02 99 bc 57 d0 97 3d 32 dc 19 3d
       -0.06715031 -0.018677883 0.074127845 0.03756351
000240 b4 dd 07 37 01 69 ac 3d 2e 5c 08 3d 02 8c 82 bd
       8.098246e-06 0.084184654 0.033291034 -0.063743606
000250 2f c3 58 3d 46 85 f0 bc e3 af f1 3c fe 92 ae 3c
       0.052920517 -0.029360425 0.029502815 0.021310326
000260 1c 70 be bd 47 63 13 3e ca d5 2e 3d f7 51 30 3d
       -0.09298727 0.1439334 0.042684354 0.043046918
000270 58 4a 7c 3d f7 b7 7d bd d1 7e a8 bc d3 0c de 3a
       0.061594337 -0.06194302 -0.020568283 0.0016941078
000280 ac fc 43 bd 96 88 47 bc b9 47 80 3b 58 1c 26 3d
       -0.04784839 -0.012178561 0.0039148 0.040554374
000290 63 ee fe bd 1c ee 5a bd 29 70 48 bc 08 c8 32 bd
       -0.124478124 -0.053449735 -0.012233772 -0.043647796
0002a0 5f 08 c3 3b 65 d7 33 bb 83 41 59 3d 81 33 e1 bd
       0.0059519256 -0.0027441618 0.053040992 -0.10996152
0002b0 69 c7 d2 3c 50 73 f4 3b 91 81 0e be 37 ca 66 bd
       0.025729852 0.0074600354 -0.13916613 -0.05634519
0002c0 71 a3 6d 3d 1e 79 84 bd fb a1 a2 bc 43 f2 3e bd
       0.058017198 -0.06468414 -0.019852629 -0.046617758
0002d0 ca 44 5a 3c 10 a9 5e bb d8 f9 50 bd d1 e4 05 3d
       0.013322065 -0.003397528 -0.05101952 0.03268892
0002e0 c4 3d c1 bd dd e4 9f 3c 88 84 19 be 7d 93 6f 3c
       -0.09435609 0.01951831 -0.14991963 0.014622566
0002f0 d9 b3 6c 3d 28 06 24 3d 02 81 d2 3c 47 0b d5 3c
       0.057788704 0.040044934 0.025696281 0.026006354
000300 86 a7 19 3e 62 9c af 3c 61 84 23 3b f1 ac 28 3e
       0.15005311 0.021436874 0.002495073 0.16472222
000310 6b a8 df 3d 71 f7 92 bc 41 21 fc bc bf 98 8f bd
       0.10920795 -0.017940255 -0.030777575 -0.07011556
000320 1c fa e4 bd 9d a6 39 3c 52 d4 c9 bd f8 96 a1 bb
       -0.11180517 0.011331228 -0.0985495 -0.004931327
000330 23 3e 58 3c de cd f2 bc fa 7e 64 bc fb fd 2b bd
       0.013198408 -0.02963918 -0.013946289 -0.04199026
000340 37 1a 2b be 6a cb 05 3d d3 91 51 bd 4a 6d 13 be
       -0.16709219 0.032664694 -0.05116446 -0.14397159
000350 0a 52 46 3d ee 52 24 be 8e 04 0a be 87 06 04 bd
       0.048418082 -0.1604726 -0.134783 -0.032232787
000360 02 22 f0 3d 03 f5 cd bc 2d 71 83 bc a9 60 1d be
       0.117252365 -0.025141245 -0.016045177 -0.15368904
000370 59 f8 5a 3d a0 26 51 bd c6 e4 1e be 10 38 14 bd
       0.0534595 -0.051062226 -0.15516958 -0.036186278
000380 40 b4 6d 3d 82 1e 82 3d fe a7 86 bd fd 56 2b bc
       0.058033228 0.06353475 -0.06575011 -0.010457751
000390 67 43 4c bd 09 cd fa bc d7 72 dd bb af 4b fc bc
       -0.049868967 -0.030615347 -0.0067580747 -0.030797807
0003a0 a3 f3 36 3d d4 e6 ac 3c 8e c2 06 3d 7b aa 66 3c
       0.044665944 0.021106161 0.032900386 0.014078732
0003b0 b5 3a 2e bd f3 e7 1d 3d 81 51 c8 bc c8 3a 0a 3c
       -0.042536456 0.038551282 -0.024452927 0.008436866
0003c0 f2 16 3f bd 65 28 d2 3d a6 2a 8a bc f9 c6 a7 bc
       -0.04665274 0.10261611 -0.01686604 -0.02048062
0003d0 70 c1 a6 bd e6 ae 26 bb b7 46 f1 bd 18 6d 11 3d
       -0.08142364 -0.0025433837 -0.11781066 0.03550443
0003e0 2a ec 78 bc e7 2e 89 bd 5c cc a6 bd 32 24 2f bc
       -0.015193025 -0.06698399 -0.08144447 -0.010689782
0003f0 e2 b6 d6 3c 5d 84 8d bc 85 81 05 be 83 a1 0c 3c
       0.026210252 -0.01727503 -0.13037689 0.008583429

action_model._continuous_distribution.mu.bias f4 [3]
000000 03 2a f9 3d 93 0c cd 3d b1 6f 00 be
       0.12166216 0.10012164 -0.12542607

exp_avg f4 [128, 22]
000000 12 3a 59 36 30 7e 9e b9 b8 27 84 36 d5 90 b2 b9
       3.2369321e-06 -0.00030230125 3.9385304e-06 -0.00034058714
000010 84 68 c4 36 7b 3a b5 b9 9f b9 04 37 8b c5 9a b9
       5.8534224e-06 -0.00034566582 7.911031e-06 -0.0002952035
000020 3a 42 1a 37 89 9a 98 b8 22 ba e3 37 05 2e b2 38
       9.194535e-06 -7.276709e-05 2.7147184e-05 8.496273e-05
000030 ac 66 e4 37 74 c2 38 39 8e 86 33 38 35 e5 80 39
       2.7227528e-05 0.00017620047 4.280224e-05 0.00024584835
000040 55 88 76 38 08 4c a5 39 9e a2 ef 37 4f 55 ba 39
       5.877794e-05 0.000315279 2.8566745e-05 0.00035540244
000050 db 1f 50 38 ac ba bb 39 4a 1e a6 b8 30 03 af 37
       4.9620732e-05 0.000358065 -7.9211386e-05 2.086311e-05
000060 66 f2 a2 b8 16 de 4a 39 62 4c 81 38 f3 6d 32 39
       -7.769912e-05 0.00019346955 6.165427e-05 0.00017016362
000070 78 72 66 38 e9 6b 16 39 5c cd 0f 39 56 6b 2d 39
       5.494288e-05 0.00014345314 0.00013714045 0.00016538551
000080 1c 81 64 b8 8a 9d 85 39 3a 97 3f b8 a7 89 a2 39
       -5.447968e-05 0.00025485113 -4.567879e-05 0.00031001607
000090 2b 85 2a b8 3e a7 c6 39 9b 05 ea b7 fc fc e1 39
       -4.065518e-05 0.00037890108 -2.7897584e-05 0.00043103832
0000a0 2f d1 89 37 91 f2 fc 39 58 48 c5 37 f7 79 ef 39
       1.6429081e-05 0.00048245912 2.3517918e-05 0.00045676503
0000b0 b8 b3 77 38 0f b9 6c 39 1b 19 7c 38 88 22 4d 39
       5.9056765e-05 0.00022575654 6.0104863e-05 0.00019563187
0000c0 9d de 58 38 af c7 46 39 74 e1 5b 38 c1 fe 31 39
       5.1705738e-05 0.0001895714 5.242364e-05 0.00016974939
0000d0 a8 e6 c2 b5 fd 04 8f 39 d4 6c 35 37 f2 db 0e 3a
       -1.4521256e-06 0.00027278802 1.0813779e-05 0.00054496445
0000e0 c7 51 45 37 3a 79 00 3a 1c e8 be b6 44 2e e2 39
       1.1761155e-05 0.00049008767 -5.6894623e-06 0.0004314055
0000f0 1d 3e 8c b7 1b 0c b7 39 12 85 38 b7 04 88 92 39
       -1.6718224e-05 0.000349135 -1.09982375e-05 0.0002794863
000100 42 a6 34 39 4a 3d 62 39 7f 88 f5 b8 2c f2 1b 39
       0.00017228074 0.00021575872 -0.00011707935 0.00014872168
000110 64 b2 f9 b8 a8 af a0 38 ab 79 da b8 c0 dc 21 b7
       -0.00011906473 7.662113e-05 -0.000104177125 -9.647745e-06
000120 f8 2a e1 b8 c2 2b 9e b8 18 07 63 b5 be 97 5e b9
       -0.000107368396 -7.5421776e-05 -8.457441e-07 -0.00021228098
000130 ea a2 5f b8 7e 4a 8e b9 a2 bd 6a b8 97 a6 a8 b9
       -5.331907e-05 -0.00027139852 -5.5966557e-05 -0.00032167576
000140 66 17 a7 b8 3a 98 c8 b9 8f f2 d7 b8 dc 8a ec b9
       -7.967539e-05 -0.0003826039 -0.00010297179 -0.00045116886
000150 f6 3b 42 b8 46 f6 01 ba 79 16 18 b7 f0 6d 07 ba
       -4.6309047e-05 -0.0004957657 -9.065138e-06 -0.0005166223
000160 cf 6b 5b b6 3c 4e 94 39 de a5 85 b6 d9 36 75 39
       -3.2696296e-06 0.0002828705 -3.9830184e-06 0.00023385453
000170 62 67 8e 35 9b 31 55 39 04 cc fe b6 d4 0c 47 39
       1.0609913e-06 0.00020331742 -7.5935404e-06 0.00018982898
000180 4c 3f ea b6 1b e8 72 39 90 4d 4b b8 f6 14 ae 39
       -6.981112e-06 0.00023165384 -4.8471207e-05 0.00033203483
000190 29 c0 2d b8 53 4f ad 39 64 d3 83 b8 36 76 bb 39
       -4.1425377e-05 0.00033056232 -6.285941e-05 0.00035755493
0001a0 31 3e 99 b8 7b c7 c0 39 f4 61 10 b8 e1 8d ca 39
       -7.3071926e-05 0.00036769718 -3.44235e-05 0.0003863415
0001b0 91 b0 aa 39 fd f4 98 39 73 03 00 b5 87 1b d9 b8
       0.0003255648 0.0002917423 -4.7688735e-07 -0.00010352494
0001c0 8a d5 93 34 6f 45 86 b7 3a 11 d3 36 fe c8 56 38
       2.7536254e-07 -1.6006377e-05 6.2902955e-06 5.1208764e-05
0001d0 60 61 7d 36 66 dd aa 38 6b c6 06 37 78 0c d2 38
       3.7756618e-06 8.14747e-05 8.03322e-06 0.00010015903
0001e0 06 94 b4 b6 b0 c0 0d 39 7c 16 4a b5 99 0e 19 39
       -5.38165e-06 0.0001351859 -7.5283583e-07 0.00014596655
0001f0 59 3e 33 b7 76 4f 58 39 6d a3 1f 37 41 02 8e 39
       -1.0683748e-05 0.00020628967 9.515189e-06 0.0002708603
000200 99 2f 54 b6 7a ca 9e 39 fa ba 2a b7 c3 48 97 39
       -3.1618167e-06 0.00030286965 -1.01763235e-05 0.00028855176
000210 9d fb 09 38 aa 0b 5a 38 ce ff 0a 38 88 91 9c 38
       3.289768e-05 5.1986113e-05 3.314e-05 7.465767e-05
000220 4d b3 89 38 6d 24 4c 38 99 9f 49 38 8a c8 0c 38
       6.5660664e-05 4.8671314e-05 4.807077e-05 3.3565368e-05
000230 70 f6 39 37 d2 36 ff 37 d5 01 9e b7 98 69 dd 36
       1.10842375e-05 3.0423897e-05 -1.883592e-05 6.598606e-06
000240 c0 d4 38 b6 15 74 72 b7 cf 31 55 b6 72 7c 07 b8
       -2.7541973e-06 -1.44513515e-05 -3.1768466e-06 -3.2302407e-05
000250 26 7a 24 b6 65 e9 59 b8 49 10 34 b7 cd 44 82 b8
       -2.4509004e-06 -5.1954197e-05 -1.0732628e-05 -6.211698e-05
000260 68 0d 06 b7 b8 71 92 b8 72 5b db b6 c5 b2 da 39
       -7.990144e-06 -6.983004e-05 -6.5373542e-06 0.00041713394
000270 92 e8 bc b6 b2 e6 ce 39 0c 58 04 37 a3 95 b7 39
       -5.6299114e-06 0.00039463263 7.888313e-06 0.00035015968
000280 a9 d8 03 b6 d5 f8 ad 39 c3 ee 23 b5 68 05 a2 39
       -1.9646634e-06 0.00033182526 -6.1069676e-07 0.00030903076
000290 1e c6 4c b8 3c f8 9a 39 34 de 2a b8 b2 1f 99 39
       -4.88219e-05 0.00029558118 -4.07381e-05 0.0002920605
0002a0 fe 9a 2a b8 d6 47 93 39 23 fe 2e b8 f8 b4 8f 39
       -4.0675506e-05 0.00028091547 -4.1721516e-05 0.00027409918
0002b0 b9 cf 1d b7 77 ac 86 39 7e c6 c1 39 07 e9 06 39
       -9.406293e-06 0.00025686968 0.00036959717 0.00012866045
0002c0 3f 17 a2 36 f0 2f a7 39 ef 22 22 37 8a bd d9 39
       4.8306824e-06 0.00031888438 9.664086e-06 0.00041530683
0002d0 15 51 12 37 08 dd 07 3a 06 c6 bd 37 ee 1d 07 3a
       8.7211565e-06 0.00051827775 2.2622768e-05 0.0005154301
0002e0 89 6a 2a 38 c8 36 2c 3a 03 36 c5 38 06 9c 63 3a
       4.0630377e-05 0.00065694423 9.4037525e-05 0.0008682612
0002f0 92 7e c1 38 6d aa 71 3a 68 5d bb 38 e1 61 88 3a
       9.226533e-05 0.0009218816 8.934253e-05 0.0010405147
000300 93 db d9 38 61 d6 94 3a d6 1a f9 37 41 69 9f 3a
       0.00010388265 0.0011355394 2.969561e-05 0.0012162105
000310 41 3e 07 39 4a 21 95 3a b0 a5 ac 38 2a 64 c7 39
       0.00012897795 0.0011377719 8.232461e-05 0.00038030866
000320 8c bc b1 38 00 1d 7d 39 90 f4 67 b7 6b 76 87 39
       8.475137e-05 0.00024138764 -1.3825615e-05 0.00025837435
000330 26 3d f8 b6 15 86 5f 39 cc e5 a4 b8 3d 29 9d 39
       -7.3980946e-06 0.00021316887 -7.8629324e-05 0.00029976098
000340 00 ba 22 38 28 f3 95 39 f2 69 1d 38 8c 37 78 39
       3.8797036e-05 0.0002860066 3.7530386e-05 0.00023671816
000350 71 b1 18 38 31 c3 1e 39 eb bc dc 37 0a f0 55 38
       3.640488e-05 0.00015140769 2.6314015e-05 5.100671e-05
000360 b1 7d 80 37 80 dd fa b8 62 26 1f 39 35 86 5e b9
       1.5317319e-05 -0.000119621865 0.0001517772 -0.00021221566
000370 0a cd a4 38 d0 e0 fe b6 c5 ef ab 38 65 63 55 39
       7.858321e-05 -7.5959615e-06 8.198576e-05 0.0002035029
000380 95 c1 bf 38 63 2e bc 39 95 95 cc 38 70 8f c7 39
       9.143647e-05 0.00035892715 9.75534e-05 0.00038063107
000390 31 40 17 38 cd da fe 39 65 64 13 38 e3 74 0f 3a
       3.606099e-05 0.00048609675 3.514103e-05 0.00054724346
0003a0 bd e7 20 38 9d 72 18 3a ef 84 56 38 66 2f 2a 3a
       3.8362796e-05 0.00058154186 5.114538e-05 0.0006492048
0003b0 e4 47 62 38 92 7a 38 3a 64 1b 74 38 cf e1 36 3a
       5.3949552e-05 0.00070373074 5.8199643e-05 0.0006976397
0003c0 4d 01 0e 38 30 fc 2d 3a 45 ca 92 38 fa a9 27 b8
       3.385665e-05 0.0006637005 6.999498e-05 -3.9974206e-05
0003d0 b4 07 94 38 5e 2d 02 b8 b4 31 8b 38 a0 ae d8 b7
       7.058625e-05 -3.1036667e-05 6.6372944e-05 -2.5830523e-05
0003e0 59 f9 90 38 f2 f6 ea b7 80 7f ee b4 08 2f 96 37
       6.9129e-05 -2.8009967e-05 -4.4423723e-07 1.7903294e-05
0003f0 d0 64 ff 36 2c 10 06 39 92 fa 04 37 49 20 fe 38
       7.6113283e-06 0.0001278526 7.926154e-06 0.000121176774

exp_avg_sq f4 [128, 22]
000000 62 8c 1e 32 7a f5 6e 36 44 4e 8b 32 bd 90 49 36
       9.22873e-09 3.560765e-06 1.621732e-08 3.0035583e-06
000010 7d 84 40 32 21 45 32 36 7a 50 e3 32 9f 14 16 36
       1.1205995e-08 2.6564305e-06 2.6462875e-08 2.2363745e-06
000020 b7 f5 1d 33 9d 7a 09 36 93 1f 4a 34 06 50 01 36
       3.6777887e-08 2.0485961e-06 1.8824203e-07 1.9269078e-06
000030 57 a7 54 34 7d 74 fe 35 1c 75 83 34 aa 09 01 36
       1.9804916e-07 1.8958377e-06 2.448586e-07 1.9228123e-06
000040 d2 86 d8 34 b2 4f 05 36 eb 16 a2 34 27 60 12 36
       4.033123e-07 1.9864933e-06 3.0191526e-07 2.1811663e-06
000050 18 a7 50 34 07 7c 27 36 63 ad e2 34 55 ea f3 36
       1.9432298e-07 2.4957133e-06 4.2221936e-07 7.269244e-06
000060 78 08 b3 36 24 64 46 36 a6 f0 c7 36 35 6a 23 36
       5.3356016e-06 2.9562589e-06 5.9586773e-06 2.4350713e-06
000070 38 f8 ad 36 79 9d 33 36 6f 57 a3 36 35 ac 20 36
       5.1846982e-06 2.676474e-06 4.867957e-06 2.3942096e-06
000080 c3 d7 c7 36 5a 93 d8 35 5c 65 bf 36 61 21 ab 35
       5.95578e-06 1.6136139e-06 5.7040434e-06 1.2750207e-06
000090 d0 5c 91 35 c4 65 cf 35 45 b5 6a 35 48 e6 f7 35
       1.0830354e-06 1.545232e-06 8.7435575e-07 1.8469955e-06
0000a0 c0 bb c2 34 05 1e 46 36 49 96 8b 34 aa 99 64 36
       3.6271922e-07 2.9521773e-06 2.6000114e-07 3.4064092e-06
0000b0 85 d4 fc 34 04 64 09 36 c3 54 23 35 d8 9f 10 36
       4.7093286e-07 2.0472808e-06 6.0845576e-07 2.1550713e-06
0000c0 ee 7c 59 35 9f fc 2f 36 e4 63 35 35 5c 72 3f 36
       8.1020596e-07 2.6224077e-06 6.7573114e-07 2.8527784e-06
0000d0 63 64 30 34 38 25 6a 36 29 72 36 34 f7 08 e6 36
       1.6427798e-07 3.4890381e-06 1.6991602e-07 6.855578e-06
0000e0 0a 4d 29 35 58 5b cd 36 2a 4e 74 34 a5 82 c5 36
       6.306951e-07 6.12011e-06 2.2752707e-07 5.8862665e-06
0000f0 8e 0d 30 34 4b 03 bf 36 83 e1 f4 33 19 4a cd 36
       1.6396208e-07 5.692627e-06 1.1403156e-07 6.118102e-06
000100 2e 94 99 34 b0 46 d0 36 41 d4 2b 35 b1 b3 94 36
       2.8606286e-07 6.207112e-06 6.4011334e-07 4.4316625e-06
000110 da c1 24 36 c9 af 25 36 c1 b9 2d 36 bc 6d 04 36
       2.455074e-06 2.4689236e-06 2.5887132e-06 1.9733407e-06
000120 df fb 10 36 56 b4 14 36 bd de d8 35 e9 04 33 36
       2.160428e-06 2.2158688e-06 1.615808e-06 2.6675937e-06
000130 16 b1 f3 35 5c b8 28 36 5a 5f 04 36 2b 62 27 36
       1.815645e-06 2.5141262e-06 1.9725035e-06 2.494208e-06
000140 00 fa 03 35 58 bc 2a 36 6c 47 02 35 f1 66 29 36
       4.91651e-07 2.5441605e-06 4.8532706e-07 2.5242882e-06
000150 13 d6 31 34 71 d1 39 36 46 e3 1f 33 5d ed 3f 36
       1.656229e-07 2.768906e-06 3.7226776e-08 2.8599381e-06
000160 8a 75 0d 34 98 c9 00 36 0f be 1f 34 d4 fe ea 35
       1.3174409e-07 1.919083e-06 1.4877172e-07 1.7508523e-06
000170 be b9 45 34 b2 49 c6 35 df aa 34 34 bb 23 b9 35
       1.8414627e-07 1.4773598e-06 1.6825969e-07 1.3793973e-06
000180 7c b5 61 34 92 5d a7 35 35 34 ba 34 75 b4 ab 35
       2.1020782e-07 1.2469702e-06 3.4683185e-07 1.2793013e-06
000190 d0 8d 11 35 cf 5b 99 35 91 43 17 35 30 2b 97 35
       5.4223074e-07 1.1426108e-06 5.6350206e-07 1.1262946e-06
0001a0 3d 12 fa 34 65 89 a7 35 17 b4 80 34 e9 bb c9 35
       4.65794e-07 1.2482457e-06 2.397289e-07 1.5030356e-06
0001b0 83 24 05 35 de dc d3 35 0a a4 f0 30 cd 1e db 35
       4.959949e-07 1.5785006e-06 1.7508921e-09 1.6325736e-06
0001c0 e4 d9 6e 31 2a 5e c6 35 c6 d5 1a 32 f2 48 a9 35
       3.4757415e-09 1.4779555e-06 9.012586e-09 1.2612711e-06
0001d0 de 40 99 32 f5 05 b7 35 53 23 90 33 ae f8 be 35
       1.7841042e-08 1.3636296e-06 6.711948e-08 1.4228478e-06
0001e0 cf 24 01 34 a0 47 be 35 10 73 29 34 57 12 ba 35
       1.2027452e-07 1.4176949e-06 1.5781211e-07 1.3863418e-06
0001f0 b4 07 6b 34 47 35 b6 35 99 8f 9a 34 3b 47 c3 35
       2.1888883e-07 1.3575562e-06 2.8789216e-07 1.4549363e-06
000200 1d a7 22 33 17 6f ee 35 1b 9a b4 32 4b 69 06 36
       3.7870553e-08 1.7764713e-06 2.1024837e-08 2.0028845e-06
000210 9f 15 83 34 a8 ed ac 37 27 27 ab 37 00 09 6c 35
       2.4416383e-07 2.0614665e-05 2.040302e-05 8.792995e-07
000220 19 67 ae 37 ad a6 be 35 12 27 ac 37 56 62 bc 35
       2.0790425e-05 1.4204612e-06 2.0522191e-05 1.4035711e-06
000230 4f f5 aa 37 94 85 a7 35 c6 ff a9 37 53 cf ab 35
       2.037981e-05 1.2481346e-06 2.0265474e-05 1.2800832e-06
000240 0c 58 ad 37 ef 43 97 35 c4 aa 69 34 2b 33 09 36
       2.0664207e-05 1.1270148e-06 2.176194e-07 2.0444375e-06
000250 a9 ea 1c 33 d1 94 d8 35 a4 ec 18 33 e6 a9 b6 35
       3.6535003e-08 1.6136565e-06 3.560548e-08 1.3609504e-06
000260 ed 02 d0 32 bc 90 a8 35 4e a5 6f 34 b2 a9 ef 37
       2.4215717e-08 1.2559099e-06 2.2318747e-07 2.857004e-05
000270 2a e8 e2 37 55 d2 2e 36 d6 32 e3 37 4c 7e 53 36
       2.704941e-05 2.605045e-06 2.7084181e-05 3.1514965e-06
000280 57 80 e2 37 74 8e 44 36 ae 3c e0 37 c5 87 2a 36
       2.7001062e-05 2.9289195e-06 2.6731137e-05 2.5411002e-06
000290 9d f1 e3 37 0f 42 0b 36 12 ed e2 37 f6 cd f0 35
       2.7173019e-05 2.0751065e-06 2.7051694e-05 1.7941336e-06
0002a0 a8 58 02 35 b9 b9 45 36 c9 83 86 34 04 2a 32 36
       4.8557786e-07 2.9463392e-06 2.505533e-07 2.6548523e-06
0002b0 73 3f 3f 33 da ba 38 36 9d d0 dc 34 bb a6 40 36
       4.452836e-08 2.7526899e-06 4.112998e-07 2.870728e-06
0002c0 4e d8 10 32 a6 3a b4 36 86 f5 b4 32 d3 c0 b0 36
       8.431085e-09 5.3712456e-06 2.1066409e-08 5.2676564e-06
0002d0 16 71 19 33 81 d5 ae 36 9a 89 b5 33 da 42 b1 36
       3.572594e-08 5.210459e-06 8.453499e-08 5.2827936e-06
0002e0 a0 f2 5e 34 c5 c5 af 36 72 7b 2c 35 60 3b ca 36
       2.0763628e-07 5.23843e-06 6.425463e-07 6.0269813e-06
0002f0 28 b1 59 35 37 70 bd 36 38 ca 65 35 49 36 b1 36
       8.1096596e-07 5.6457025e-06 8.5603415e-07 5.2813307e-06
000300 b7 d1 35 35 15 3c ab 36 9c bc d9 34 60 3b b9 36
       6.773293e-07 5.1031916e-06 4.055663e-07 5.520342e-06
000310 8e 4f 8d 34 46 72 ba 36 2d 26 a6 34 2f d5 85 36
       2.632118e-07 5.556535e-06 3.0947686e-07 3.9885267e-06
000320 a3 55 e6 35 89 24 57 36 fe bf 01 36 ef f4 47 36
       1.7161259e-06 3.2058763e-06 1.9334252e-06 2.979588e-06
000330 b6 3f d3 35 74 46 58 36 44 02 ca 35 29 40 53 36
       1.5739267e-06 3.2227517e-06 1.5050832e-06 3.1478796e-06
000340 50 8a d9 35 54 5a 4e 36 f1 62 3f 36 4c 9c 6c 36
       1.6208014e-06 3.074897e-06 2.851881e-06 3.5257717e-06
000350 f9 f4 29 35 53 b0 96 36 13 43 0a 35 fb b2 a0 36
       6.331389e-07 4.490875e-06 5.150661e-07 4.7892077e-06
000360 59 87 cf 34 c6 f8 bb 36 e9 e8 d3 34 1f 0e cc 36
       3.8655233e-07 5.6019953e-06 3.9471277e-07 6.0813177e-06
000370 fb 4f 01 34 97 d7 30 37 67 e3 06 37 37 ec 32 36
       1.2043158e-07 1.0540613e-05 8.039969e-06 2.6661562e-06
000380 32 fe 06 37 fc 92 38 36 d1 86 07 37 24 37 30 36
       8.046207e-06 2.7503693e-06 8.078016e-06 2.625814e-06
000390 87 01 06 37 60 32 2b 36 08 b4 07 37 b1 d6 22 36
       7.987378e-06 2.5510308e-06 8.088544e-06 2.4264848e-06
0003a0 b2 b6 0a 37 09 15 14 36 e6 53 d4 34 32 6f 24 36
       8.267978e-06 2.2065963e-06 3.954912e-07 2.4502629e-06
0003b0 6c b6 c8 34 7f fa 16 36 d1 e0 86 34 06 a8 1d 36
       3.7385632e-07 2.249755e-06 2.512302e-07 2.3492626e-06
0003c0 13 0b 31 34 ad e7 20 36 25 54 34 34 17 57 22 35
       1.6488438e-07 2.397671e-06 1.6794418e-07 6.0476435e-07
0003d0 b1 52 8a 34 6e eb 06 35 58 11 9c 34 bd a3 c5 34
       2.576467e-07 5.0261485e-07 2.9069884e-07 3.6813245e-07
0003e0 c1 1f 82 34 f3 cf fb 34 89 8e 06 34 02 4a 36 35
       2.423749e-07 4.6903696e-07 1.2531576e-07 6.790798e-07
0003f0 e1 b6 4e 34 95 2c 90 35 ea 06 d3 33 1b 3f 67 35
       1.9251776e-07 1.0741811e-06 9.826711e-08 8.6146036e-07

exp_avg f4 [128]
000000 78 49 63 b9 1a 86 27 b9 19 83 6a b9 32 3a 0e 3a
       -0.00021675776 -0.00015976318 -0.00022364817 0.0005425542
000010 61 ec 14 39 30 31 42 b9 b9 eb 1b 39 b8 d3 38 39
       0.00014202438 -0.00018519606 0.00014869765 0.00017626479
000020 24 b2 93 ba 91 32 10 ba c8 ba 5c ba 94 b2 ff b8
       -0.00112683 -0.0005500699 -0.00084201666 -0.0001219261
000030 2c 80 d2 38 b2 a6 3b b9 f7 f0 0b 3a 54 17 bc b8
       0.00010037454 -0.00017895809 0.0005338336 -8.968884e-05
000040 e4 6f 60 38 f4 c3 de 38 f6 b4 ac ba af b6 5b b8
       5.3509968e-05 0.00010622284 -0.0013176489 -5.2383806e-05
000050 1c 88 c1 38 2a 5f 38 39 d1 f5 c2 b9 4a 3d db b9
       9.2283095e-05 0.00017583059 -0.0003718571 -0.000418166
000060 39 33 b2 38 e0 70 99 b9 31 3e aa ba 8e ed 1b 38
       8.4972424e-05 -0.00029266533 -0.0012988505 3.717612e-05
000070 2f 3a 47 39 f0 cd a3 39 0c bc 9f 38 84 4a 6e 37
       0.00018999794 0.00031243218 7.616737e-05 1.4203255e-05
000080 ea 49 24 b7 96 b7 10 b9 80 fc 36 39 01 b8 8a 39
       -9.792371e-06 -0.00013801301 0.00017450936 0.00026458505
000090 8a 02 82 38 54 f2 56 39 05 81 a8 ba 0e e1 09 b8
       6.199356e-05 0.00020498905 -0.0012855834 -3.2872944e-05
0000a0 00 7c 48 b9 14 9c 33 ba 2f bb 2c ba fc 0d a9 b9
       -0.0001911968 -0.00068515656 -0.0006589172 -0.0003224461
0000b0 6a 5b 16 39 f1 37 bc 39 d7 25 89 b9 55 48 9f b9
       0.00014339169 0.00035899834 -0.0002615887 -0.00030380735
0000c0 87 3c 61 39 7a 24 6c 39 3a 71 fe b8 ed 7c 28 ba
       0.0002148022 0.00022520302 -0.00012132754 -0.0006427307
0000d0 93 d8 a7 ba 08 55 07 ba bc 40 03 ba 10 af a6 b7
       -0.0012805633 -0.0005162512 -0.00050068996 -1.9870262e-05
0000e0 3f 63 91 ba f6 2d 02 3a 38 0a 20 ba b7 82 87 39
       -0.00110922 0.0004965955 -0.00061050383 0.00025846597
0000f0 d4 f9 3f 3a 10 f7 e1 39 8e fc 9b b9 5a 2e 87 b9
       0.0007323299 0.0004309942 -0.00029752072 -0.0002578374
000100 63 f5 16 ba 90 86 e4 39 1e ab ed b8 66 42 99 39
       -0.00057586114 0.00043587806 -0.00011332914 0.00029231905
000110 20 9f a7 b8 52 76 a1 ba 82 28 e4 39 9f 95 83 b8
       -7.99282e-05 -0.0012318587 0.0004351773 -6.274436e-05
000120 28 dc a5 36 6f 0a b6 39 0e d6 cc 39 a4 e6 a1 b9
       4.9430128e-06 0.0003472152 0.00039069395 -0.00030880154
000130 96 ea 38 ba 5f d0 1a 39 2c 81 5c 38 92 a0 11 3a
       -0.0007053999 0.00014764209 5.2572388e-05 0.0005555238
000140 38 e4 a1 b9 7e 80 d3 ba c2 00 ab ba 97 e2 59 b9
       -0.0003087835 -0.0016136316 -0.001304649 -0.00020779144
000150 05 d3 0b b9 2d 1e 89 39 f7 01 15 3a 7e 85 d4 39
       -0.00013334684 0.0002615316 0.0005684192 0.0004053525
000160 09 55 09 ba 16 a7 c1 b8 2a 7e df 38 4c 0a a4 ba
       -0.00052388065 -9.234079e-05 0.000106569685 -0.0012515276
000170 98 15 0a b9 c2 60 89 b7 1b f4 1e ba 6a 69 89 b9
       -0.0001316875 -1.6376729e-05 -0.0006063596 -0.00026209216
000180 f4 25 c2 38 b9 ae d8 b9 83 e6 47 ba ec 46 34 39
       9.25771e-05 -0.0004132891 -0.00076255965 0.00017192558
000190 05 4d a4 b9 65 80 96 b9 5b 36 c4 b9 99 26 09 b9
       -0.00031337902 -0.0002870589 -0.0003742453 -0.00013079717
0001a0 8a e6 54 39 9d 47 ae ba 7d ab c4 ba 4c 12 72 39
       0.00020303778 -0.0013296489 -0.0015004721 0.00023085735
0001b0 c6 0d 5f 39 ab b3 13 ba c4 c7 8a 39 58 48 18 b8
       0.00021272068 -0.00056343776 0.00026470248 -3.6307e-05
0001c0 78 f6 ea b8 1d bc c1 ba 1a cf 0c 39 fa 99 13 b9
       -0.00011203898 -0.0014780794 0.00013428592 -0.00014076373
0001d0 d5 00 a8 b8 54 40 2e b7 5a b1 ac 39 16 46 64 38
       -8.011019e-05 -1.0386186e-05 0.00032938534 5.442471e-05
0001e0 95 5d 99 ba af c8 d8 b9 0e 99 d9 b9 21 f2 9a b9
       -0.0011700863 -0.0004134825 -0.000415035 -0.0002955357
0001f0 78 d1 35 3a a6 5f e0 39 66 63 85 39 02 bc d4 39
       0.00069358153 0.00042795873 0.00025441794 0.00040575868
