results/Random1_V0/3DBall/3DBall-2096253.pt (torch, 495670 bytes, 44 tensors)

network_body.observation_encoder.processors.0.normalizer.running_mean f4 [22]
0.00022802614 1.8123745 0.00036064294 1.822095 0.00056768017 1.8284066 0.00084579457 1.8312536
0.0011143729 1.8312473 0.0014230156 1.8287067 0.0017025615 1.823229 0.0018251596 1.813366
0.0017645772 1.7964293 0.0015508566 1.7717341 0.0013438227 1.7437685
00000000: 4d1a 6f39 e3fb e73f ad14 bd39 693a e93f
00000010: 5fd0 143a 3a09 ea3f 50b8 5d3a 8566 ea3f
00000020: 2610 923a 5066 ea3f 7b84 ba3a 1013 ea3f
00000030: 7c28 df3a 915f e93f 323a ef3a 611c e83f
00000040: 6349 e73a 65f1 e53f 1d46 cb3a 2fc8 e23f
00000050: 3523 b03a ce33 df3f

network_body.observation_encoder.processors.0.normalizer.running_variance f4 [22]
478.84863 1.0170351e+06 756.61993 1.085798e+06 1190.3865 1.1808465e+06 1772.4569 1.2879251e+06
2334.2932 1.3893982e+06 2979.817 1.4731449e+06 3563.957 1.5366154e+06 3819.994 1.5715832e+06
3693.543 1.546941e+06 3246.8726 1.4412886e+06 2814.3672 1.2928351e+06
00000000: a06c ef43 b24c 7849 ad27 3d44 308b 8449
00000010: 5ecc 9444 7425 9049 9f8e dd44 a937 9d49
00000020: b1e4 1145 b29a a949 123d 3a45 c7d3 b349
00000030: 50bf 5e45 3b93 bb49 e7bf 6e45 fad7 bf49
00000040: b0d8 6645 e8d5 bc49 f6ed 4a45 45f0 af49
00000050: e0e5 2f45 19d1 9d49

network_body.processors.0.normalizer.running_mean f4 [22]
0.00022802614 1.8123745 0.00036064294 1.822095 0.00056768017 1.8284066 0.00084579457 1.8312536
0.0011143729 1.8312473 0.0014230156 1.8287067 0.0017025615 1.823229 0.0018251596 1.813366
0.0017645772 1.7964293 0.0015508566 1.7717341 0.0013438227 1.7437685
00000000: 4d1a 6f39 e3fb e73f ad14 bd39 693a e93f
00000010: 5fd0 143a 3a09 ea3f 50b8 5d3a 8566 ea3f
00000020: 2610 923a 5066 ea3f 7b84 ba3a 1013 ea3f
00000030: 7c28 df3a 915f e93f 323a ef3a 611c e83f
00000040: 6349 e73a 65f1 e53f 1d46 cb3a 2fc8 e23f
00000050: 3523 b03a ce33 df3f

network_body.processors.0.normalizer.running_variance f4 [22]
478.84863 1.0170351e+06 756.61993 1.085798e+06 1190.3865 1.1808465e+06 1772.4569 1.2879251e+06
2334.2932 1.3893982e+06 2979.817 1.4731449e+06 3563.957 1.5366154e+06 3819.994 1.5715832e+06
3693.543 1.546941e+06 3246.8726 1.4412886e+06 2814.3672 1.2928351e+06
00000000: a06c ef43 b24c 7849 ad27 3d44 308b 8449
00000010: 5ecc 9444 7425 9049 9f8e dd44 a937 9d49
00000020: b1e4 1145 b29a a949 123d 3a45 c7d3 b349
00000030: 50bf 5e45 3b93 bb49 e7bf 6e45 fad7 bf49
00000040: b0d8 6645 e8d5 bc49 f6ed 4a45 45f0 af49
00000050: e0e5 2f45 19d1 9d49

network_body._body_endoder.seq_layers.0.weight f4 [128, 22]
0.0016893058 -0.08054678 0.24030016 0.267831 -0.27819484 0.2606807 0.123812266 -0.17127389
-0.18001425 -0.18910545 -0.1590482 -0.062472913 0.078558706 -0.107048586 -0.026308784 0.22017871
0.21924798 -0.16142157 0.08905585 0.035286013 -0.19187221 -0.07807462 0.33090654 -0.13645256
0.31789234 0.26196086 0.4263421 -0.116312385 -0.22839917 0.05053181 0.037612997 0.018038923
0.28283092 0.0811079 0.09249752 -0.25725392 -0.026844459 -0.20504381 0.26366985 -0.07351372
0.0011795713 0.18872653 -0.18153676 0.062673785 0.2920574 -0.12622024 -0.095745355 -0.37597397
-0.048133355 -0.006101278 -0.1927166 0.09280702 -0.12635599 -0.38545147 -0.33522132 0.08867616
-0.1476773 0.03683265 0.23864663 0.22355396 0.33357728 0.12440094 -0.07951242 0.09796961
0.1741681 -0.031947374 0.106161535 0.02275296 0.094764836 0.22723404 0.18295458 -0.2866627
-0.08970331 -0.067862935 -0.25454035 0.25638172 0.018414102 -0.44072092 -0.1491411 0.23454243
0.13419405 0.061618667 0.24668172 0.15672761 0.08184798 0.046336673 -0.27187094 -0.16979483
0.40354902 0.07322517 -0.2614901 0.19609748 0.22675133 -0.10460227 -0.31715685 -0.083842255
0.11246296 -0.22526632 0.0024735543 -0.027254231 0.093864664 0.26266813 0.22044528 -0.39859602
0.07556004 -0.007756858 0.16585058 0.1264624 0.18634656 -0.24245219 -0.1670021 -0.11628782
-0.24568836 0.30377498 -0.028130382 -0.03579913 -0.33960563 -0.25447866 0.11945313 -0.2276161
0.21728826 -0.17103773 -0.012887871 -0.030008622 0.1316279 0.070704095 0.4181304 0.0373589
-0.2889863 0.09504448 -0.032291465 -0.2305068 -0.034277797 0.1335505 -0.009534976 -0.2324834
0.3365645 -0.06674923 -0.1905478 -0.15252358 0.32277516 -0.11490655 0.1282575 -0.0094677005
0.2958568 0.344947 -0.5079532 -0.023833364 -0.17563495 0.14386387 0.26299337 -0.05712504
-0.084100686 -0.15169427 0.40365922 0.13816687 0.39827222 0.00147931 -0.032766968 -0.16035798
-0.2620022 0.04712729 0.06621081 -0.13243024 0.2525278 -0.089797795 0.20872606 -0.21525364
0.075774595 0.08286011 -0.16946542 0.12969047 -0.1718531 -0.167723 0.19282451 -0.06286296
-0.1398328 -0.3142575 -0.17746371 0.31286454 -0.28372538 0.23704024 -0.013235291 -0.05954092
-0.26077095 -0.339559 -0.032924596 0.102752835 -0.11644935 0.15882596 0.03857287 -0.21431726
-0.20518012 -0.40871912 0.41663173 0.25334835 0.25717026 0.18262225 0.21491322 -0.5053042
-0.020852942 0.10180442 -0.06243435 0.12659937 -0.15007755 -0.07968212 0.34734404 -0.38634327
0.24390359 -0.18621607 -0.13482584 -0.028715203 -0.1557485 0.38099468 -0.057740554 -0.06877607
0.25987345 0.3962563 0.43496385 0.13917999 0.4359439 -0.051939156 0.13800274 -0.111249186
-0.14811996 0.044003744 0.082677454 -0.4634073 -0.12401896 0.0038341265 0.35472786 0.080625184
0.28349409 -0.28962395 0.09751217 -0.41132048 0.10102191 -0.09569814 0.10139562 -0.08282457
0.06810465 0.053431895 0.51284266 0.06511699 -0.23020364 0.06811752 0.026744507 -0.361944
-0.17031328 0.017717997 0.08255639 0.16830087 -0.055515658 0.43195668 -0.29247037 -0.3439079
00000000: b26b dd3a b6f5 a4bd 3f11 763e 2521 893e
00000010: 8e6f 8ebe f177 853e 4991 fd3d 6c62 2fbe
00000020: a855 38be dca4 41be 88dd 22be 99e3 7fbd
00000030: 63e3 a03d 4a3c dbbd 8585 d7bc 8776 613e
00000040: 8b82 603e b24b 25be ea62 b63d 1188 103d
00000050: 267a 44be 96e5 9fbd 956c a93e 38ba 0bbe
00000060: c9c2 a23e bc1f 863e 8349 da3e 3035 eebd
00000070: 79e1 69be 71fa 4e3d 1610 1a3d 5dc6 933c
00000080: 37cf 903e e61b a63d 576f bd3d c9b6 83be
00000090: e9e8 dbbc 01f7 51be bcff 863e 5c8e 96bd
000000a0: d89b 9a3a 8741 413e c6e4 39be 1d5b 803d
000000b0: 8c88 953e e13f 01be 2416 c4bd a97f c0be
000000c0: 7b27 45bd 3bed c7bb 8057 45be 9b11 be3d
000000d0: 7763 01be e559 c5be 21a2 abbe d99b b53d
000000e0: b838 17be d5dd 163d c85f 743e 54eb 643e
000000f0: a4ca aa3e ecc5 fe3d 68d7 a2bd 4aa4 c83d
00000100: 1f59 323e 40db 02bd 386b d93d 6a64 ba3c
00000110: 1114 c23d 0ab0 683e 7258 3b3e 74c5 92be
00000120: 5eb6 b7bd b9fb 8abd 1d53 82be 7744 833e
00000130: 2cd9 963c 2ca6 e1be 72b8 18be e42b 703e
00000140: 2a6a 093e db63 7c3d 229a 7c3e 347d 203e
00000150: ea9f a73d 86cb 3d3d ab32 8bbe b2de 2dbe
00000160: fa9d ce3e 14f7 953d 08e2 85be c7cd 483e
00000170: 8031 683e b739 d6bd 6262 a2be 7db5 abbd
00000180: fb52 e63d 37ac 66be 5b1b 223b 4444 dfbc
00000190: 1e3c c03d 707c 863e 68bc 613e c714 ccbe
000001a0: 39bf 9a3d 3e2d febb bcd4 293e 5c7f 013e
000001b0: a2d1 3e3e 6345 78be 9902 2bbe 4f28 eebd
000001c0: bb95 7bbe 6588 9b3e b071 e6bc 1ca2 12bd
000001d0: cae0 adbe 074b 82be d8a3 f43d 3214 69be
000001e0: d080 5e3e 8424 2fbe a627 53bc a4d4 f5bc
000001f0: 77c9 063e 4fcd 903d 3015 d63e a505 193d
00000200: 03f6 93be aea6 c23d 0e44 04bd f909 6cbe
00000210: e066 0cbd 76c1 083e 9738 1cbc 2110 6ebe
00000220: 2f52 ac3e d2b3 88bd f61e 43be 242f 1cbe
00000230: c942 a53e 2054 ebbd ef55 033e 6a1e 1bbc
00000240: 8b7a 973e e59c b03e 3909 02bf 303e c3bc
00000250: a6d9 33be 0d51 133e 11a7 863e f2fb 69bd
00000260: fb3c acbd be55 1bbe 6cac ce3e 9e7b 0d3e
00000270: 56ea cb3e 68e5 c13a a836 06bd e234 24be
00000280: 2725 86be 8c08 413d 8899 873d cb9b 07be
00000290: 534b 813e e8e7 b7bd 49bc 553e 736b 5cbe
000002a0: b62f 9b3d 90b2 a93d 5888 2dbe 94cd 043e
000002b0: 42fa 2fbe 94bf 2bbe ca73 453e 4cbe 80bd
000002c0: 5430 0fbe 5ce6 a0be 0cb9 35be c82f a03e
000002d0: 7444 91be adba 723e d5d8 58bc 2ee1 73bd
000002e0: c583 85be adda adbe f1db 06bd 1470 d23d
000002f0: ff7c eebd 46a3 223e 96fe 1d3d fc75 5bbe
00000300: bd1a 52be a243 d1be c150 d53e e0b6 813e
00000310: d2ab 833e 5401 3b3e 3612 5c3e 9e5b 01bf
00000320: cad3 aabc d67e d03d 29bb 7fbd 44a3 013e
00000330: eead 19be 6130 a3bd 14d7 b13e c9ce c5be
00000340: ddc1 793e 6daf 3ebe c90f 0abe 253c ebbc
00000350: 897c 1fbe bc11 c33e 5c81 6cbd 78da 8cbd
00000360: 220e 853e 1be2 ca3e 95b3 de3e 3385 0e3e
00000370: 0a34 df3e 27be 54bd 9750 0d3e 9dd6 e3bd
00000380: c2ac 17be 453d 343d cc52 a93d b943 edbe
00000390: a7fd fdbd f845 7b3b e49e b53e d11e a53d
000003a0: 2326 913e 9749 94be 76b4 c73d 9998 d2be
000003b0: 93e4 ce3d 63fd c3bd 82a8 cf3d ee9f a9bd
000003c0: 737a 8b3d 67db 5a3d a849 033f 0e5c 853d
000003d0: 81ba 6bbe 3381 8b3d 4c17 db3c b950 b9be
000003e0: 9b66 2ebe 5525 913c 5313 a93d 1057 2c3e
000003f0: 6364 63bd 6d29 dd3e adbe 95be b214 b0be

network_body._body_endoder.seq_layers.0.bias f4 [128]
-0.0021868036 -0.054301094 -0.025217222 -0.057812292 -0.0032342 -0.16416997 -0.052696858 -0.07601796
0.04928224 0.052443422 -0.18172756 -0.06603607 0.05286796 -0.059996698 -0.097614616 -0.0935642
-0.08243052 0.1194517 0.041378327 0.13732384 0.25701746 -0.15790913 -0.0038919242 0.009911779
0.15490079 -0.0763708 -0.09433489 -0.009328871 0.043999452 0.050336868 0.07412132 -0.100646086
-0.17978552 -0.26331362 0.15973406 -0.07185287 0.0076674223 0.07541093 -0.083563 -0.08862142
0.019161193 -0.11615624 0.04238907 -0.14218801 -0.012196685 -0.0074972906 -0.071549855 0.08697163
0.1452433 0.066009186 0.04644573 0.019919375 -0.05178697 0.08350375 0.037662752 -0.031667538
0.05078835 0.018848905 -0.15461649 0.13780002 -0.03608781 -0.14664397 -0.14736293 -0.040462814
0.11393598 0.07074089 0.019209474 -0.12298586 -0.024984257 -0.088394165 -0.047586896 0.119790934
0.06426597 -0.19410323 -0.123012036 -0.14419994 -0.07265427 0.10627539 -0.050750412 -0.10078751
-0.19626994 0.100870214 0.05709772 0.09420743 0.04958116 0.10198048 -0.16930558 -0.07183381
-0.18763772 -0.02989936 0.037333038 0.016303947 -0.14649113 0.02302399 -0.13035034 -0.017712058
0.19711831 0.07959634 -0.019068725 0.21346502 -0.1494425 0.02704193 0.11421432 0.07937905
0.17610016 -0.040266406 0.020108229 0.051192485 0.16404904 0.013469122 0.0034643745 -0.05881756
-0.20837627 0.050295405 -0.0048463447 -0.004257412 0.08635656 0.1974558 -0.14578247 -0.014451915
0.20026764 -0.12872106 0.11148367 -0.08596004 -0.11170778 0.045658622 -0.045485858 -0.047667537
00000000: 7a50 0fbb d36a 5ebd 5994 cebc 95cc 6cbd
00000010: dff4 53bb 2c1c 28be a9d8 57bd 4eaf 9bbd
00000020: 2ddc 493d eace 563d ca16 3abe eb3d 87bd
00000030: 138c 583d 19bf 75bd 2cea c7bd 969e bfbd
00000040: 55d1 a8bd 18a3 f43d 527c 293d 9f9e 0c3e
00000050: cb97 833e eeb2 21be a70f 7fbb 0465 223c
00000060: 509e 1e3e 4b68 9cbd a732 c1bd 1fd8 18bc
00000070: c538 343d 082e 4e3d ebcc 973d 891f cebd
00000080: b219 38be 0bd1 86be 5391 233e 9927 93bd
00000090: 003f fb3b 0c71 9a3d 1423 abbd 267f b5bd
000000a0: eff7 9c3c 53e3 edbd 29a0 2d3d bc99 11be
000000b0: 9bd4 47bc d5ab f5bb bb88 92bd 2f1e b23d
000000c0: a9ba 143e d32f 873d e13d 3e3d f52d a33c
000000d0: 931e 54bd 0404 ab3d 4244 1a3d d2b5 01bd
000000e0: 7207 503d 0569 9a3c c953 1ebe 731b 0d3e
000000f0: d0d0 13bd d629 16be 4fe6 16be 56bc 25bd
00000100: 4457 e93d 9ae0 903d 305d 9d3c 03e0 fbbd
00000110: c9ab ccbc 0008 b5bd 7aea 42bd f354 f53d
00000120: e09d 833d ffc2 46be bced fbbd 26a9 13be
00000130: c3cb 94bd e9a6 d93d aadf 4fbd af69 cebd
00000140: fdfa 48be 0b95 ce3d 4ddf 693d d3ef c03d
00000150: 9d15 4b3d 24db d03d 715e 2dbe 9b1d 93bd
00000160: 1a24 40be 81ef f4bc 87ea 183d db8f 853c
00000170: c501 16be cf9c bc3c 8f7a 05be e118 91bc
00000180: 62d9 493e 6803 a33d 0436 9cbc 9396 5a3e
00000190: 7407 19be 0a87 dd3c 33e9 e93d 7c91 a23d
000001a0: 9a53 343e 63ee 24bd 03ba a43c 36af 513d
000001b0: 79fc 273e 98ad 5c3c 8f0a 633b afea 70bd
000001c0: 9760 55be 8e02 4e3d 16ce 9ebb c381 8bbb
000001d0: b5db b03d da31 4a3e 0048 15be bac7 6cbc
000001e0: f612 4d3e 74cf 03be 8d51 e43d d10b b0bd
000001f0: 0cc7 e4bd 8904 3b3d 614f 3abd 093f 43bd

network_body._body_endoder.seq_layers.2.weight f4 [128, 128]
-0.044054735 0.025866395 0.07291897 -0.10418469 -0.1054921 0.026574543 -0.027766274 -0.07069351
-0.08425466 -0.0100872805 0.0035123 0.080455214 -0.14201866 0.052742947 0.08818704 0.11350056
0.1069285 -0.20537442 0.12810026 -0.20542446 -0.16351119 0.018893661 0.048284147 -0.047959484
-0.18946178 0.16799587 -0.08003536 -0.082693845 -0.089615345 -0.13153443 -0.2898895 0.0690019
0.066883095 0.1075422 -0.3126573 0.209917 -0.06662596 0.08276804 0.268023 -0.055976883
0.20462845 0.0008430324 0.030210275 0.1007895 0.13106667 -0.10381246 0.1113368 -0.102052994
-0.24315074 -0.06152304 0.008039639 0.004361517 0.061823383 -0.025783593 0.023684295 0.12310325
-0.06541876 -0.15965362 -0.0294738 -0.08713096 0.0045865136 0.0029563338 0.055276953 -0.0748805
-0.12600519 -0.053164735 -0.022713097 0.046111993 -0.04069408 -0.02065787 0.10681945 -0.16505092
-0.09532596 0.10343495 -0.078377984 0.09198532 0.08204259 0.057947833 -0.04143178 -0.05424268
0.18234028 0.013958118 -0.06811368 -0.10739215 0.051027793 -0.10862353 -0.06639815 0.08412068
0.1923241 0.07985401 -0.1341055 0.11321196 -0.13102482 0.074021675 -0.03926832 -0.044130687
-0.22099116 0.0059055514 0.032847427 -0.16526423 0.055905655 0.09232826 0.11932345 0.066465996
0.0099753225 0.23293225 0.11166507 0.09243845 -0.117675126 -0.14107038 -0.0028435662 -0.13082014
0.21935888 0.018341662 -0.019728268 -0.10164736 -0.08700046 -0.11025429 0.10660878 -0.15941435
-0.2273445 0.042892225 0.014691805 0.013940521 -0.13548402 -0.15227807 0.11558881 0.016493276
0.13523015 -0.07382087 0.14600977 0.079500824 0.08873661 0.0027887693 0.021924388 -0.04373225
-0.12027048 -0.102695085 0.05977811 -0.11522387 -0.012808415 0.015051705 0.0083109755 0.009297591
0.08754223 0.20628683 -0.1223509 -0.19750078 0.005167932 -0.080750905 -0.29276985 0.1074754
-0.07686286 -0.0959326 0.11141315 0.17358285 0.061000496 -0.14347994 0.02336457 0.06262554
0.0020621333 0.07795891 0.04578969 0.047824755 -0.07940518 -0.2650435 -0.13450034 -0.12896626
0.08541924 -0.14013039 -0.06568527 0.06433559 0.0715673 -0.025819156 -0.04216776 -0.08949576
-0.15703961 -0.019553667 -0.09586551 0.051905643 0.1283393 -0.014659471 0.11149852 -0.035521906
-0.026653169 -0.106070705 -0.1480475 -0.0826722 -0.05747428 -0.025988637 0.1386413 0.027170694
0.02250414 -0.1818758 -0.01923746 -0.025901282 0.022413375 0.03675313 -0.03508828 -0.14464556
-0.2406627 0.02916367 0.09007889 0.087723464 0.12503469 -0.15903951 -0.11630881 0.04855236
-0.052800365 -0.08238886 -0.02064101 0.10919285 -0.05006723 -0.22407751 0.09209593 -0.035546135
0.1158929 -0.033331275 0.06395492 0.030475983 0.16346577 -0.13847263 -0.009798318 0.088677615
-0.11136067 -0.24805234 0.027041093 0.030191004 -0.052168902 0.028239623 -0.13623977 -0.23042293
-0.030331172 -0.18006477 0.010916412 0.1577949 -0.15698339 0.16538388 0.11275604 -0.13309102
0.04594497 -0.042204045 0.15022565 -0.008577722 -0.022276225 -0.08702885 0.15087543 -0.05405348
-0.083311275 -0.06556774 -0.17294657 0.087051764 0.031552624 0.03640318 0.10315769 0.029672954
00000000: bd72 34bd c3e5 d33c 8a56 953d c85e d5bd
00000010: 3e0c d8bd dbb2 d93c 1976 e3bc c2c7 90bd
00000020: b58d acbd 1f45 25bc 9e2e 663b b4c5 a43d
00000030: 576d 11be fd08 583d 689b b43d fb72 e83d
00000040: 54fd da3d ac4d 52be b72c 033e ca5a 52be
00000050: 7a6f 27be e1c6 9a3c 99c5 453d 2a71 44bd
00000060: 4502 42be 1c07 2c3e 94e9 a3bd 645b a9bd
00000070: 4088 b7bd f6b0 06be 666c 94be de50 8d3d
00000080: 01fa 883d 163f dc3d 9e14 a0be 7bf4 563e
00000090: 3173 88bd 4a82 a93d 503a 893e 0448 65bd
000000a0: 1f8a 513e f2fe 5c3a 8a7b f73c ba6a ce3d
000000b0: 5736 063e a19b d4bd 8c04 e43d 2901 d1bd
000000c0: 82fc 78be 95ff 7bbd b1b8 033c 0eeb 8e3b
000000d0: 843a 7d3d 1d38 d3bc 9105 c23c 8f1d fc3d
000000e0: 45fa 85bd 3d7c 23be 0a73 f1bc b771 b2bd
000000f0: 774a 963b 0dbf 413b 166a 623d f35a 99bd
00000100: 8107 01be 44c3 59bd d110 babc eedf 3c3d
00000110: d6ae 26bd b23a a9bc 28c4 da3d 1c03 29be
00000120: 423a c3bd b4d5 d33d a384 a0bd cd62 bc3d
00000130: f205 a83d b55a 6d3d 5fb4 29bd 932d 5ebd
00000140: 69b7 3a3e 97b0 643c 2f7f 8bbd 6af0 dbbd
00000150: 8502 513d 0376 debd c1fb 87bd 7747 ac3d
00000160: 9cf0 443e 808a a33d f452 09be acdb e73d
00000170: 5f2b 06be ad98 973d d1d7 20bd 61c2 34bd
00000180: 824b 62be 5b83 c13b 068b 063d 073b 29be
00000190: 54fd 643d 9916 bd3d da5f f43d 531f 883d
000001a0: 896f 233c cb85 6e3e a8b0 e43d 5f50 bd3d
000001b0: a8ff f0bd c174 10be 205b 3abb b7f5 05be
000001c0: 9d9f 603e 4141 963c 2d9d a1bc 7e2c d0bd
000001d0: 4c2d b2bd 00cd e1bd b455 da3d 843d 23be
000001e0: ffcc 68be c2af 2f3d e5b5 703c c866 643c
000001f0: 53bc 0abe c8ee 1bbe d3b9 ec3d e81c 873c
00000200: c679 0a3e 652f 97bd 9683 153e 54d1 a23d
00000210: 8abb b53d c9c3 363b c69a b33c 9620 33bd
00000220: 5f50 f6bd cd51 d2bd e4d9 743d 7efa ebbd
00000230: 63da 51bc 6d9b 763c c22a 083c ec54 183c
00000240: 5749 b33d db3c 533e 1c93 fabd a53d 4abe
00000250: c157 a93b bb60 a5bd eee5 95be 101c dc3d
00000260: 466a 9dbd 5078 c4bd 942c e43d b4bf 313e
00000270: a8db 793d 68ec 12be 0e67 bf3c d241 803d
00000280: db24 073b eca8 9f3d f88d 3b3d e4e3 433d
00000290: 2f9f a2bd c8b3 87be 75ba 09be bb0f 04be
000002a0: 48f0 ae3d 577e 0fbe 0086 86bd 61c2 833d
000002b0: e091 923d b282 d3bc 1ab8 2cbd 8e49 b7bd
000002c0: fece 20be 032f a0bc 2355 c4bd 039b 543d
000002d0: 616b 033e 472e 70bc 5659 e43d 6b7f 11bd
000002e0: bf57 dabc 993b d9bd c499 17be 0b50 a9bd
000002f0: 276a 6bbd 1fe6 d4bc fcf7 0d3e 1395 de3c
00000300: 9a5a b83c a63d 3abe e197 9dbc ed2e d4bc
00000310: 419c b73c 738a 163d bab8 0fbd f71d 14be
00000320: 4870 76be a6e8 ee3c 487b b83d 5ca8 b33d
00000330: 1809 003e 41db 22be 5033 eebd d7de 463d
00000340: 3245 58bd 7ebb a8bd 5617 a9bc 80a0 df3d
00000350: 4c13 4dbd 9374 65be ca9c bc3d d398 11bd
00000360: 4259 ed3d 6086 08bd ccfa 823d c5a8 f93c
00000370: 9263 273e c5cb 0dbe 2089 20bc 9c9c b53d
00000380: 1011 e4bd 6f01 7ebe 4885 dd3c 2053 f73c
00000390: 0faf 55bd c856 e73c 7082 0bbe fdf3 6bbe
000003a0: 1479 f8bc e662 38be c0da 323c fc94 213e
000003b0: 41c0 20be 645a 293e a4ec e63d 0349 08be
000003c0: cb30 3c3d 26de 2cbd c1d4 193e 9389 0cbc
000003d0: a17c b6bc 2f3c b2bd 177f 1a3e 2f67 5dbd
000003e0: 1a9f aabd 6148 86bd e818 31be 3248 b23d
000003f0: 533d 013d 801b 153d 5744 d33d b214 f33c

network_body._body_endoder.seq_layers.2.bias f4 [128]
-0.18389677 -0.18000399 -0.13058564 -0.05067544 -0.12770054 -0.11122201 -0.1284078 -0.17007619
-0.16245379 -0.12112906 -0.24655949 -0.16535862 -0.10722154 0.011902303 0.12818444 0.0002324793
-0.08219899 -0.11621949 -0.008059714 -0.20476878 -0.021164767 -0.14097905 -0.046839457 -0.099875696
-0.13888854 0.075964496 0.062453818 -0.06406059 -0.12930417 -0.06928891 -0.029804118 -0.12279307
-0.14913854 -0.12638499 -0.09614219 -0.01812634 -0.07018729 -0.18537793 -0.0691368 -0.17677076
-0.04420903 -0.077883124 -0.020803822 -0.13829999 -0.015159745 -0.14821742 -0.1569876 -0.16438676
-0.099539556 -0.17615059 0.075861156 -0.14866674 -0.20064239 -0.0031865647 -0.22754118 -0.068393774
-0.17809956 -0.0042592203 -0.15615308 -0.0846378 0.077377774 -0.08450786 -0.063652016 -0.0006229187
0.10608423 -0.1943455 -0.15194523 -0.021032203 -0.0822509 -0.14854778 -0.056446344 -0.1453393
-0.13579682 -0.032197002 -0.0871728 -0.103077196 0.031632133 -0.12471847 -0.0033889248 -0.21669653
-0.027124193 0.0068623326 -0.23006807 -0.13355465 0.061926883 -0.103091784 -0.09542468 -0.18906386
0.1660511 -0.003494545 -0.14249517 -0.18364654 0.03878233 -0.13320778 -0.11107917 -0.04168265
-0.061949477 0.042737216 -0.15522356 -0.0093052285 -0.11422552 -0.16740517 -0.15168813 -0.15438965
0.04939645 -0.071413755 -0.0052002245 -0.062024746 -0.028178165 -0.014205027 -0.1694257 -0.031701315
-0.17864797 0.120313324 -0.10976003 -0.12725891 -0.1617294 -0.08093924 -0.09950386 -0.011879286
-0.11534955 -0.17485255 -0.19511953 0.0074529406 0.06123008 -0.0401304 -0.14745106 -0.09628744
00000000: 6f4f 3cbe f752 38be 3eb8 05be 0d91 4fbd
00000010: eec3 02be 5dc8 e3bd 567d 03be 7428 2ebe
00000020: 495a 26be 8312 f8bd 177a 7cbe c553 29be
00000030: f796 dbbd e101 433c c842 033e b0c5 7339
00000040: f257 a8bd 7c04 eebd e40c 04bc e8ae 51be
00000050: bc61 adbc d05c 10be bbda 3fbd a18b ccbd
00000060: cc38 0ebe 4693 9b3d 93cf 7f3d 3332 83bd
00000070: 5068 04be 58e7 8dbd c427 f4bc ef7a fbbd
00000080: c6b7 18be 116b 01be 32e6 c4bd b17d 94bc
00000090: 5bbe 8fbd b6d3 3dbe 9897 8dbd 6503 35be
000000a0: 8714 35bd 3081 9fbd c76c aabc 839e 0dbe
000000b0: 9460 78bc 4fc6 17be 5bc1 20be 0155 28be
000000c0: 65db cbbd d260 34be 185d 9b3d 183c 18be
000000d0: 3375 4dbe afd5 50bb 8e00 69be 0912 8cbd
000000e0: bb5f 36be ee90 8bbb 98e6 1fbe 9556 adbd
000000f0: 3d78 9e3d 7512 adbd fd5b 82bd 5e4b 23ba
00000100: b042 d93d 8202 47be 8897 1bbe ba4b acbc
00000110: 2973 a8bd e91c 18be 4834 67bd d3d3 14be
00000120: 520e 0bbe 01e1 03bd a787 b2bd 231a d3bd
00000130: b290 013d 666c ffbd b918 5ebb b2e5 5dbe
00000140: 8e33 debc 6bdd e03b f796 6bbe 8dc2 08be
00000150: 0ba7 7d3d c921 d3bd 046e c3bd f599 41be
00000160: 4d09 2a3e bc04 65bb 41ea 11be d70d 3cbe
00000170: 38da 1e3d 9f67 08be 7a7d e3bd 6dbb 2abd
00000180: bcbe 7dbd 380d 2f3d edf2 1ebe f574 18bc
00000190: 12ef e9bd 436c 2bbe 2254 1bbe 5218 1ebe
000001a0: ef53 4a3d 6041 92bd a566 aabb a90d 7ebd
000001b0: e5d5 e6bc 34bc 68bc ee7d 2dbe 3dd9 01bd
000001c0: 7eef 36be d566 f63d dec9 e0bd 2950 02be
000001d0: 649c 25be 79c3 a5bd aec8 cbbd 56a1 42bc
000001e0: 633c ecbd 8c0c 33be 6acd 47be cc37 f43b
000001f0: 64cc 7a3d c65f 24bd 69fd 16be 5932 c5bd

action_model._continuous_distribution.log_sigma f4 [1, 3]
-0.7433677 -0.39366305 -0.5602908
00000000: 584d 3ebf 348e c9be 386f 0fbf

action_model._continuous_distribution.mu.weight f4 [3, 128]
0.026227845 -0.041975893 -0.07396134 0.002261036 -0.094810754 -0.085344866 -0.05351901 -0.045721974
-0.16539526 -0.042549103 -0.13196768 -0.08201442 -0.006916092 -0.00013851523 0.04597342 -0.01889862
-0.0029630102 -0.06894676 -0.10836675 -0.088342585 -0.017104268 -0.0910743 -0.019198917 0.008838005
-0.04637043 0.0068178484 -0.045396864 -0.039757177 -0.102478825 0.027609533 -0.0011174534 -0.050126374
-0.10455158 -0.07629966 -0.0013210747 0.007096046 0.019733973 -0.048505563 -0.03419528 -0.07271612
0.0003211411 -0.023834141 -0.022298794 -0.03268815 -0.03520971 -0.053446904 -0.0020619398 -0.08440208
-0.10318644 -0.118744284 0.021216583 -0.1068614 -0.06491903 0.002401257 -0.0639116 0.015990416
-0.10466211 -0.0003700673 -0.1084405 -0.057950858 0.001160283 -0.11707923 -0.036208726 0.02092172
0.052807678 -0.101974785 -0.06275924 0.06846015 -0.044156943 -0.07474992 -0.010172681 -0.049759597
-0.05766931 -0.016222654 0.09316344 -0.050829727 0.01221632 -0.035691634 0.08120869 -0.093051806
0.099803016 -0.07092748 -0.106912 -0.00155641 0.04340237 0.013443447 0.03442477 -0.11828921
0.037547022 0.027311286 -0.053228818 -0.07232854 -0.038494814 -0.08253916 0.019881045 -0.0018614475
-0.002498933 -0.08281092 -0.024653263 -0.0039875912 -0.03916252 -0.1441602 -0.089881726 -0.053477474
0.0220175 -0.09377206 0.01619882 0.012857046 -0.0036774753 -0.0002583783 -0.058713857 -0.0019829248
-0.043315392 0.017996961 -0.0043491903 -0.059727754 -0.05500756 0.011902438 0.07315477 0.009653306
-0.05269601 -0.0877856 -0.088668786 -0.016607527 -0.055802286 0.009435443 -0.06026058 -0.020229813
-0.04481396 -0.054155316 -0.026890876 0.0039349226 -0.035437323 0.017571365 -0.060553756 -0.039500337
-0.08502622 -0.001057131 -0.025162375 -0.046120875 -0.076279834 -0.037239987 0.09521421 0.014518903
0.011301614 0.08685357 0.026430395 -0.08123043 0.03544348 -0.025600636 0.022334535 -0.012443634
-0.101922356 0.14179605 0.033234213 0.055635635 0.027382486 -0.043866333 -0.011715761 -0.0006313588
-0.04588272 -0.017801734 -0.020949611 0.012798988 -0.12078976 -0.05445387 0.009648088 -0.06839153
0.0023939789 -0.013851841 0.043701675 -0.11783406 0.057355143 -0.005596732 -0.15126406 -0.06686581
0.0118127335 -0.058340132 0.004893125 -0.039970383 -0.026958792 -0.006899735 -0.06504903 -0.015485694
-0.0989291 0.023837801 -0.14941406 0.057309292 0.06674412 0.030799685 0.0472125 -0.012601156
0.16582489 0.04089018 -0.009073884 0.168362 0.09315442 -0.02075598 -0.029605754 -0.080411226
-0.13539727 -0.0023513364 -0.08441958 -0.0066666016 0.024482418 -0.028986337 -0.01088591 -0.07531165
-0.17993756 0.04397136 -0.055690043 -0.1491069 0.0010715914 -0.19204687 -0.14115167 -0.064269245
0.121627785 -0.034957647 -0.016502505 -0.17219603 0.055801198 -0.039805524 -0.19411191 -0.071848005
0.08832626 0.1425801 -0.053050883 -0.04547696 -0.06337248 -0.049011715 -0.02545716 -0.011558904
0.07623395 0.053358633 0.0034446106 -0.017387511 -0.049450338 0.0032061879 -0.029569944 0.0029027045
-0.06381064 0.0781679 -0.0036020584 -0.033889204 -0.08568098 -0.011057365 -0.11196791 -0.0022758122
-0.021135217 -0.075118795 -0.08639899 -0.043749325 0.051994015 -0.009475082 -0.13961688 0.0018935648
00000000: c7db d63c eaee 2bbd 0b79 97bd e42d 143b
00000010: 242c c2bd 4ac9 aebd c036 5bbd f746 3bbd
00000020: 605d 29be f847 2ebd 8922 07be 2df7 a7bd
00000030: 62a0 e2bb 663e 11b9 a04e 3c3d 47d1 9abc
00000040: 102f 42bb f533 8dbd 63ef ddbd f5ec b4bd
00000050: 401e 8cbc 2a85 babd 0c47 9dbc 48cd 103c
00000060: ecee 3dbd 4268 df3b 10f2 39bd 6cd8 22bd
00000070: 6be0 d1bd 632d e23c 8477 92ba 5051 4dbd
00000080: 241f d6bd ff42 9cbd e927 adba f385 e83b
00000090: 24a9 a13c c5ad 46bd 5a10 0cbd 30ec 94bd
000000a0: d45e a839 d13f c3bc f6ab b6bc 02e4 05bd
000000b0: 0f38 10bd 24eb 5abd 9c21 07bb ffda acbd
000000c0: 6a53 d3bd 3430 f3bd 66ce ad3c 26da dabd
000000d0: 45f4 84bd 685e 1d3b 16e4 82bd 55fe 823c
000000e0: 1759 d6bd 9805 c2b9 0e16 debd e15d 6dbd
000000f0: a314 983a 3cc7 efbd 9a4f 14bd 0764 ab3c
00000100: dd4c 583d 28d8 d0bd eb87 80bd d634 8c3d
00000110: e9dd 34bd 7c16 99bd 51ab 26bc b8d0 4bbd
00000120: a836 6cbd 5fe5 84bc 79cc be3d d532 50bd
00000130: f626 483c 6431 12bd be50 a63d f291 bebd
00000140: 8665 cc3d 6d42 91bd aef4 dabd 7400 ccba
00000150: afc6 313d e741 5c3c fd00 0d3d 9d41 f2bd
00000160: e8ca 193d ebbb df3c 7606 5abd fc20 94bd
00000170: bdac 1dbd 4b0a a9bd 93dd a23c d0fb f3ba
00000180: 24c5 23bb c698 a9bd a4f5 c9bc 57aa 82bb
00000190: e168 20bd bb9e 13be e913 b8bd 320b 5bbd
000001a0: 0b5e b43c 910b c0bd 63b3 843c 5ca6 523c
000001b0: cc01 71bb f376 87b9 f17d 70bd f5f3 01bb
000001c0: 7b6b 31bd 5d6e 933c a783 8ebb 17a5 74bd
000001d0: 9b4f 61bd 7102 433c 2bd2 953d e628 1e3c
000001e0: c5d7 57bd f0c8 b3bd fb97 b5bd 820c 88bc
000001f0: f090 64bd 1e97 1a3c ccd3 76bd feb8 a5bc
00000200: d88e 37bd f7d1 5dbd 414a dcbc 86f0 803b
00000210: ba26 11bd d3f1 8f3c 3707 78bd 1bcb 21bd
00000220: 3a22 aebd 6e8f 8aba 5321 cebc 3ee9 3cbd
00000230: 9a38 9cbd f588 18bd abff c23d b1e0 6d3c
00000240: 682a 393c 49e0 b13d 8e84 d83c 245c a6bd
00000250: 2f2d 113d 6db8 d1bc eaf6 b63c 62e0 4bbc
00000260: abbc d0bd fc32 113e 9920 083d 31e2 633d
00000270: 3c51 e03c 2fad 33bd 77f3 3fbc c681 25ba
00000280: 85ef 3bbd f1d4 91bc 859e abbc d9b2 513c
00000290: 9f60 f7bd 050b 5fbd 0413 1e3c dc10 8cbd
000002a0: 4de4 1c3b d5f2 62bc 8700 333d fc52 f1bd
000002b0: 3aed 6a3d ca64 b7bb f7e4 1abe f1f0 88bd
000002c0: 328a 413c 10f6 6ebd 8256 a03b fcb7 23bd
000002d0: afd8 dcbc 2c17 e2bb 6d38 85bd b5b7 7dbc
000002e0: 579b cabd 7e47 c33c 0000 19be 26bd 6a3d
000002f0: 24b1 883d 9f4f fc3c e561 413d 1475 4ebc
00000300: 00ce 293e 767c 273d a1aa 14bc 1767 2c3e
00000310: bfc7 be3d 7208 aabc c487 f2bc a4ae a4bd
00000320: 95a5 0abe e118 1abb 2ce4 acbd 8273 dabb
00000330: 5a8f c83c c174 edbc d15a 32bc ff3c 9abd
00000340: 8d41 38be 501b 343d 3e1b 64bd 7baf 18be
00000350: a474 8c3a efa7 44be 108a 10be 989f 83bd
00000360: fd17 f93d c02f 0fbd 4330 87bc 2854 30be
00000370: cc8f 643d 1e0b 23bd 46c5 46be 0c25 93bd
00000380: 66e4 b43d 8500 123e e24b 59bd 0c46 3abd
00000390: 6ec9 81bd 82c0 48bd 898b d0bc 8f61 3dbc
000003a0: 8c20 9c3d 958e 5a3d fabe 613b 4170 8ebc
000003b0: 708c 4abd e81e 523b ab3c f2bc 4d3b 3e3b
000003c0: 27af 82bd 7e16 a03d 8310 6cbb 68cf 0abd
000003d0: 8279 afbd f329 35bc 6e4f e5bd cb25 15bb
000003e0: c323 adbc e2d7 99bd f4f1 b0bd 7e32 33bd
000003f0: adf7 543d 603d 1bbc baf7 0ebe 7e31 f83a

action_model._continuous_distribution.mu.bias f4 [3]
0.15995593 0.11737336 -0.12974115
00000000: 7dcb 233e 7261 f03d ddda 04be

exp_avg f4 [128, 22]
-7.41485e-05 0.00012400749 4.2845586e-05 8.046223e-05 4.9647488e-06 0.00010632322 5.0709614e-06 0.00010177728
6.874092e-06 9.9555116e-05 7.2236408e-06 7.874936e-05 -8.944178e-07 0.000100021345 -4.008215e-06 9.124578e-05
1.7213017e-06 8.441891e-05 1.5561498e-06 7.885711e-05 1.1061147e-06 0.00011281178 0.0011434677 0.000101826125
0.0001918152 0.00076015084 6.4473956e-05 0.0006722362 6.4571235e-05 0.0005758265 8.278866e-05 0.00049110694
8.11091e-05 0.00042102108 2.3815302e-05 0.0003884558 -3.9062877e-05 0.00037230912 -5.52789e-05 0.0003209273
-5.5354325e-05 0.00029442133 -5.625763e-05 0.00026381933 0.0004224707 -0.00026403804 1.0485011e-05 -0.00011952911
-1.6618051e-06 -0.00022429861 -3.061422e-06 -9.625855e-05 -8.2642055e-06 -0.000107767395 -8.849385e-06 -6.981586e-05
-1.8862452e-06 -0.00011900289 -7.3622095e-06 -7.555768e-05 -7.228589e-06 3.8579165e-06 -6.516303e-06 8.070287e-05
-5.5175838e-06 0.0002659724 0.00052126904 -0.00046392262 0.000107320775 -0.0002530782 1.4338074e-05 -0.0003844558
1.4102652e-05 -0.0002663373 3.0100971e-05 -0.00038586158 2.6824146e-05 -0.0004260586 1.19361175e-05 -0.00077467336
-2.7697422e-06 -0.00076458434 3.1027175e-05 -0.00070443755 3.1131625e-05 -0.00064215134 3.0448984e-05 -0.00038947543
-0.000383956 0.00017360384 3.1172436e-05 -4.3096225e-05 2.7625078e-05 -1.4355028e-06 2.9773804e-05 3.8444035e-05
3.8608883e-05 4.887591e-05 4.1501236e-05 4.5297063e-05 2.011856e-05 5.38335e-05 3.267176e-06 5.485134e-05
-2.940734e-05 4.1477942e-05 -3.0558156e-05 1.8994979e-05 -3.1312946e-05 -7.1170325e-06 6.9297585e-06 0.0002462293
1.1558576e-05 0.0002498386 1.2021443e-05 0.00022877866 1.4841613e-05 0.0002531408 1.9128074e-05 0.00025309547
2.1940563e-05 0.00023735006 -3.3422557e-06 0.00025454882 7.7548066e-07 0.00020928982 5.703382e-07 0.00014321036
-1.090039e-06 9.865175e-05 -2.8510199e-06 5.774039e-05 1.470109e-06 -8.6903645e-05 -2.6701018e-05 -0.00010189488
-1.2470123e-05 -0.00013335394 -1.1173445e-05 -0.00011968041 5.0541857e-05 -7.7839686e-05 5.1348394e-05 -7.3299016e-05
3.9234168e-05 -0.00016509165 5.6531248e-05 -0.00015072925 1.9295177e-05 -0.000117616364 1.8810675e-05 -0.00010918133
1.8311915e-05 8.275041e-06 0.0008107624 0.000109048604 7.3661344e-05 0.00052136707 6.7265326e-05 0.00040715394
6.783661e-05 0.00035197547 8.8469555e-05 0.0003139737 8.764972e-05 0.00027155917 7.398114e-05 0.00024059752
9.896928e-06 0.00023632187 5.986094e-07 0.0001985337 2.456186e-07 0.0001662495 -1.0915801e-07 0.00013394655
6.876411e-05 0.0002617673 -1.928393e-05 0.00023454084 7.5090475e-06 0.00013572739 8.770778e-06 0.0001126554
1.2172342e-05 9.593681e-05 1.3560091e-05 6.889515e-05 -6.498316e-05 0.00011033453 -6.663018e-05 0.00012921481
-4.825501e-05 0.00012207025 -4.884358e-05 0.00013921916 -4.929488e-05 0.00018365055 0.0002798419 -2.360315e-05
-0.00012923355 7.328596e-05 -0.00010200595 -6.709539e-06 -0.00010370053 4.61929e-05 -0.00015016376 0.000113909904
-0.00014826731 0.00017068759 -0.00011117133 0.00029943488 -1.4734778e-05 0.00032842683 1.870357e-05 0.00045960143
1.9278212e-05 0.00058096525 1.9971096e-05 0.00077651435 -4.1695926e-05 0.00037428667 3.6863607e-05 0.00030257175
3.441183e-05 0.0003575086 3.8922797e-05 0.00039601378 3.6178277e-05 0.00038615486 3.940273e-05 0.00035117922
-4.11559e-05 0.00036990436 -5.0971605e-05 0.0003443113 -4.1764746e-05 0.0002878327 -4.4288616e-05 0.00023889501
-4.6889e-05 0.00018743472 -4.985375e-06 4.622015e-05 3.824845e-06 1.7602542e-05 -7.5582816e-06 -7.718446e-05
-7.297719e-06 -6.7796536e-05 -1.0428638e-05 -6.310831e-05 -1.0110601e-05 -7.030407e-05 -6.8415548e-06 -8.480991e-05
00000000: 2c80 9bb8 0208 0239 19b5 3338 d5bd a838
00000010: de96 a636 d8f9 de38 3a27 aa36 4371 d538
00000020: 00a8 e636 3fc8 d038 9a62 f236 3e26 a538
00000030: ec17 70b5 8dc2 d138 4e7e 86b6 355b bf38
00000040: 7a07 e735 0f0a b138 e6dc d035 1760 a538
00000050: d075 9435 5d95 ec38 69e0 953a 7c8b d538
00000060: 0022 4939 dc44 473a 3136 8738 0239 303a
00000070: 6b6a 8738 10f3 163a d39e ad38 a1bd 003a
00000080: 1e19 aa38 7ebc dc39 f9c6 c737 a8a9 cb39
00000090: 72d7 23b8 7c32 c339 44db 67b8 2242 a839
000000a0: 412c 68b8 905c 9a39 2cf6 6bb8 3b51 8a39
000000b0: 0f7f dd39 966e 8ab9 c8e8 2f37 b4ab fab8
000000c0: 300b dfb5 b331 6bb9 d472 4db6 6ade c9b8
000000d0: 7ea6 0ab7 2e01 e2b8 d277 14b7 1b6a 92b8
000000e0: e42a fdb5 3191 f9b8 e608 f7b6 b874 9eb8
000000f0: 1b8d f2b6 4073 8136 9ea6 dab6 063f a938
00000100: af23 b9b6 3672 8b39 c6a5 083a a43a f3b9
00000110: 6711 e138 95af 84b9 8f8d 7037 c990 c9b9
00000120: 6e9a 6c37 30a3 8bb9 5881 fc37 774d cab9
00000130: 6a04 e137 9e60 dfb9 3c41 4837 7313 4bba
00000140: cfdf 39b6 636e 48ba 2d23 0238 01aa 38ba
00000150: 5493 0238 0c56 28ba b26c ff37 8232 ccb9
00000160: b44d c9b9 6d09 3639 26bf 0238 38c2 34b8
00000170: 67bc e737 80ab c0b5 c2c2 f937 f83e 2138
00000180: f9ef 2138 1c00 4d38 9d11 2e38 5afd 3d38
00000190: 47c4 a837 48cb 6138 a841 5b36 2e10 6638
000001a0: c8af f6b7 9af8 2d38 922b 00b8 6857 9f37
000001b0: 0556 03b8 d8ce eeb6 2c86 e836 5618 8139
000001c0: b5eb 4137 c5fc 8239 b4af 4937 4ee4 6f39
000001d0: 3e00 7937 fcb7 8439 3a75 a037 e6b1 8439
000001e0: 000d b837 2ce1 7839 844b 60b6 f774 8539
000001f0: a02a 5035 cf74 5b39 5819 1935 bd2a 1639
00000200: 744d 92b5 41e3 ce38 2654 3fb6 462e 7238
00000210: 9050 c535 0a40 b6b8 00fc dfb7 66b0 d5b8
00000220: c536 51b7 edd4 0bb9 9575 3bb7 eefc fab8
00000230: e8fc 5338 dd3d a3b8 eb5e 5738 1cb8 99b8
00000240: 5e8f 2438 741c 2db9 f71b 6d38 130d 1eb9
00000250: 14dc a137 cea8 f6b8 9ecb 9d37 48f8 e4b8
00000260: 8a9c 9937 08d5 0a37 5889 543a 06b1 e438
00000270: a27a 9a38 5aac 083a cc10 8d38 4777 d539
00000280: 8143 8e38 5989 b839 bb88 b938 d69c a439
00000290: 96d0 b738 0e60 8e39 5226 9b38 e848 7c39
000002a0: fb0a 2637 2bcd 7739 20b0 2035 7c2d 5039
000002b0: 90dd 8334 4353 2e39 406a eab3 0174 0c39
000002c0: 7335 9038 d03d 8939 edc3 a1b7 14ef 7539
000002d0: 3af6 fb36 0b52 0e39 3426 1337 6841 ec38
000002e0: d037 4c37 af31 c938 2680 6337 cd7b 9038
000002f0: 9247 88b8 6663 e738 cebb 8bb8 d67d 0739
00000300: 6c65 4ab8 f7ff ff38 65dd 4cb8 5cfb 1139
00000310: f9c1 4eb8 5292 4039 beb7 9239 61ff c5b7
00000320: de82 07b9 1ab1 9938 07ec d5b8 8022 e1b6
00000330: cc79 d9b8 40bf 4138 4775 1db9 eae2 ee38
00000340: 3478 1bb9 9afa 3239 a724 e9b8 78fd 9c39
00000350: 6435 77b7 b430 ac39 9ce5 9c37 a9f6 f039
00000360: a5b7 a137 eb4b 183a 9a87 a737 ff8e 4b3a
00000370: a9e2 2eb8 e83b c439 ff9d 1a38 7ea2 9e39
00000380: 6c55 1038 fe6f bb39 0941 2338 12a0 cf39
00000390: 21be 1738 d474 ca39 5c44 2538 7a1e b839
000003a0: d09e 2cb8 b9ef c139 58ca 55b8 ae84 b439
000003b0: 8e2c 2fb8 40e8 9639 8ac2 39b8 e47f 7a39
000003c0: aeaa 44b8 208a 4439 0c48 a7b6 82dc 4138
000003d0: 2b57 8036 2ca9 9337 259d fdb6 17de a1b8
000003e0: eede f4b6 fd2d 8eb8 a9f6 2eb7 0459 84b8
000003f0: b3a0 29b7 3670 93b8 8290 e5b6 f9db b1b8

exp_avg_sq f4 [128, 22]
2.163831e-08 1.189829e-06 3.520659e-08 1.4241791e-06 1.1011671e-08 1.4412803e-06 1.512486e-08 1.3379746e-06
7.260005e-09 1.2678225e-06 1.4475428e-08 1.3316177e-06 3.0974082e-08 1.4615407e-06 7.130574e-08 1.7255232e-06
1.2678179e-07 1.7528414e-06 7.6175446e-08 1.9767544e-06 1.9012504e-08 2.538342e-06 7.0234273e-07 1.8120338e-06
1.3121319e-06 2.441227e-06 5.5564846e-07 3.0570345e-06 3.7501152e-07 2.9156288e-06 7.9923005e-08 2.7443816e-06
1.206458e-07 2.4972644e-06 2.0638919e-07 2.4046008e-06 3.197587e-07 2.527301e-06 5.1031753e-07 6.0542957e-06
3.4083632e-07 9.017002e-06 6.158597e-08 1.0650145e-05 7.76735e-08 1.7535281e-06 3.22734e-08 1.8472791e-06
3.093888e-08 2.6854455e-06 1.8329544e-08 3.6653746e-06 2.2459014e-08 4.1800718e-06 3.089781e-08 9.4315465e-06
1.8286303e-07 1.2310992e-05 2.7702347e-07 1.2959995e-05 3.71121e-07 1.4630551e-05 2.4655046e-07 1.4295603e-05
1.3225817e-07 1.4550309e-05 3.1367412e-07 4.067175e-06 4.2873512e-07 4.6746236e-06 3.945644e-07 4.646165e-06
3.7541594e-07 4.884088e-06 5.0168516e-08 4.9455734e-06 9.114493e-08 5.0226286e-06 2.5178423e-07 9.979501e-06
3.8004288e-07 1.02062e-05 9.294346e-07 9.932766e-06 5.117137e-07 1.0335239e-05 7.349275e-08 1.1094144e-05
5.6605806e-08 4.2084156e-07 2.1799158e-08 3.9276316e-07 1.5914498e-08 3.6355488e-07 9.629282e-09 3.5960346e-07
1.3063593e-08 3.595076e-07 1.90668e-08 3.5970854e-07 3.50946e-08 3.7140754e-07 1.02156115e-07 3.503237e-07
1.253503e-07 3.6211523e-07 1.2726535e-07 4.393335e-07 9.5051874e-08 4.5211314e-07 6.4242465e-09 9.52788e-07
8.9722105e-09 1.015805e-06 8.6950065e-09 1.1090915e-06 2.9833373e-08 1.1789409e-06 4.360996e-08 1.1957237e-06
7.367301e-08 1.1907921e-06 8.419984e-08 1.198049e-06 1.2707518e-07 1.1428368e-06 2.3184437e-07 1.2458357e-06
7.2968895e-08 1.436689e-06 5.946989e-08 1.3910998e-06 1.695865e-08 5.536324e-07 1.6069181e-07 4.4252246e-07
1.9641863e-07 5.0193296e-07 1.744589e-07 6.423887e-07 1.2321028e-07 8.019392e-07 1.4042433e-07 1.0088188e-06
3.6398959e-07 2.1786545e-06 8.6315005e-08 2.1524036e-06 2.8175046e-08 2.1082324e-06 3.0523472e-07 1.933376e-06
2.5754363e-07 1.943426e-06 3.3681624e-07 2.6777465e-07 7.57712e-08 3.528712e-07 3.2710687e-08 3.3789752e-07
4.3849433e-08 3.1874475e-07 5.8398786e-08 2.9574576e-07 9.3451476e-08 2.7995756e-07 1.15252085e-07 2.716369e-07
8.771243e-08 2.7142698e-07 4.8815703e-08 2.6762459e-07 3.594589e-08 2.5524454e-07 9.154864e-08 3.1273257e-07
2.9985183e-09 2.273897e-06 3.559773e-08 3.1009972e-06 5.0199556e-09 3.688461e-06 1.8105945e-08 3.5946323e-06
2.3236483e-08 3.480486e-06 3.3621173e-08 3.5704325e-06 5.100501e-08 3.7267419e-06 1.1159493e-07 3.7353989e-06
2.1167705e-07 4.1991498e-06 4.206803e-07 4.7419394e-06 6.8969297e-07 7.658118e-06 2.6962613e-07 5.3469557e-06
6.5299304e-07 7.0096526e-06 1.8408969e-07 8.433107e-06 2.7193516e-07 8.755735e-06 5.522126e-07 8.857199e-06
5.6885057e-07 1.1787549e-05 1.1929363e-06 1.4878004e-05 5.9912946e-07 1.72805e-05 3.7323866e-07 2.0387834e-05
2.510847e-07 2.3434883e-05 4.6182166e-07 2.4791056e-05 2.3292733e-08 1.6952876e-06 2.2671784e-08 1.6962066e-06
1.5301659e-08 1.8052583e-06 2.5399455e-08 1.926777e-06 3.9708635e-08 2.0218965e-06 7.120223e-08 2.052915e-06
1.1907929e-07 2.0183788e-06 1.446241e-07 1.943071e-06 1.2631898e-07 1.9461859e-06 7.7470716e-08 2.1261956e-06
9.103672e-08 7.1432055e-06 5.2050087e-08 5.5163156e-07 2.3091976e-08 5.542767e-07 2.1397533e-08 6.126459e-07
2.996544e-08 1.7341201e-06 6.844793e-09 1.825919e-06 1.9923672e-09 1.7678836e-06 4.6506106e-09 1.6325151e-06
00000000: 26df b932 37b2 9f35 0e36 1733 6c26 bf35
00000010: d72d 3d32 0472 c135 ebeb 8132 7594 b335
00000020: ae73 f931 0d2a aa35 9baf 7832 09ba b235
00000030: 5d08 0533 282a c435 bf20 9933 8798 e735
00000040: 8321 0834 2c43 eb35 e595 a333 62a8 0436
00000050: f050 a332 6258 2a36 a088 3c35 0235 f335
00000060: 821c b035 f6d3 2336 df27 1535 7427 4d36
00000070: 3155 c934 1faa 4336 23a2 ab33 1e2c 3836
00000080: dd8a 0134 ad96 2736 d49b 5d34 ba5e 2136
00000090: 4dab ab34 b39a 2936 c1fc 0835 0126 cb36
000000a0: 30fc b634 bb47 1737 3f41 8433 06ae 3237
000000b0: 75cd a633 c45a eb35 fb9c 0a33 07f0 f735
000000c0: a9e1 0433 9a37 3436 1873 9d32 a8fa 7536
000000d0: e5eb c032 8b42 8c36 80b4 0433 2f3c 1e37
000000e0: 0259 4434 4f8b 4e37 d1b9 9434 c16e 5937
000000f0: 7b3e c734 bd75 7537 a35d 8434 26d7 6f37
00000100: d902 0e34 1a1d 7437 0b67 a834 c478 8836
00000110: e82c e634 b6da 9c36 85d4 d334 41e6 9b36
00000120: c68c c934 ffe1 a336 de78 5733 27f2 a536
00000130: 75bb c333 0d88 a836 f62c 8734 a16d 2737
00000140: b208 cc34 4c3b 2b37 427e 7935 e8a4 2637
00000150: b35c 0935 8365 2d37 11d3 9d33 fc20 3a37
00000160: be1e 7333 06f0 e134 db40 bb32 f5dc d234
00000170: 5ab4 8832 9a2e c334 086e 2532 860f c134
00000180: 4a6e 6032 5902 c134 56c8 a332 f71d c134
00000190: ecba 1633 dd65 c734 eb60 db33 1f14 bc34
000001a0: 0798 0634 bd68 c234 6fa6 0834 89dd eb34
000001b0: 521f cc33 f5b9 f234 45bc dc31 18c3 7f35
000001c0: 3324 1a32 cb56 8835 0b61 1532 18dc 9435
000001d0: 2422 0033 1a3c 9e35 a84d 3b33 c17c a035
000001e0: 2a36 9e33 4ed3 9f35 5ad1 b433 a6cc a035
000001f0: 2972 0834 9363 9935 e5f0 7834 9736 a735
00000200: 13b3 9c33 42d4 c035 d66b 7f33 d3b5 ba35
00000210: 77ac 9132 549d 1435 a18a 2c34 d393 ed34
00000220: 24e7 5234 92bc 0635 e652 3b34 9e70 2c35
00000230: c94b 0434 d844 5735 8cc7 1634 c066 8735
00000240: 596a c334 0035 1236 2d5c b933 0372 1036
00000250: 9505 f232 287b 0d36 24df a334 26bf 0136
00000260: 8744 8a34 ce6b 0236 acd3 b434 abc2 8f34
00000270: a8b7 a233 4072 bd34 c87d 0c33 4868 b534
00000280: f654 3c33 f21f ab34 25d2 7a33 fdc6 9e34
00000290: 7eaf c833 134d 9634 8180 f733 7ed5 9134
000002a0: 6b5c bc33 a4b8 9134 6fa9 5133 0bae 8f34
000002b0: ed62 1a33 8b08 8934 6699 c433 a3e5 a734
000002c0: 7e0e 4e31 4199 1836 1ee4 1833 ba1a 5036
000002d0: ff7b ac31 4787 7736 6587 9b32 503b 7136
000002e0: 9199 c732 4b92 6936 df66 1033 909b 6f36
000002f0: 9a10 5b33 f018 7a36 f6a5 ef33 aaad 7a36
00000300: 5849 6334 6ce6 8c36 dcd9 e134 f31c 9f36
00000310: 5723 3935 5e7b 0037 22c1 9034 006a b336
00000320: 5749 2f35 7534 eb36 30aa 4534 eb7b 0d37
00000330: 7cfe 9134 98e5 1237 c33b 1435 6199 1437
00000340: 1db3 1835 23c3 4537 fb1c a035 8a9c 7937
00000350: ddd3 2035 97f5 9037 8861 c834 8a06 ab37
00000360: d2cc 8634 0796 c437 49f0 f734 63f6 cf37
00000370: 4315 c832 a389 e335 c8bf c232 37a9 e335
00000380: b470 8332 344c f235 fe2d da32 c74d 0136
00000390: 1b8c 2a33 ebaf 0736 d7e7 9833 d0c4 0936
000003a0: 88b8 ff33 7c73 0736 f849 1b34 b565 0236
000003b0: 4ca2 0734 389b 0236 fa5d a633 c3af 0e36
000003c0: f77f c333 abaf ef36 ad8d 5f33 d513 1435
000003d0: cb5b c632 9bc9 1435 accd b732 b574 2435
000003e0: 5ab3 0033 eabf e835 702f eb31 1912 f535
000003f0: 18ea 0831 0548 ed35 34cb 9f31 cb1c db35

exp_avg f4 [128]
-6.277061e-05 -3.96077e-05 0.00027255126 4.328777e-05 -0.00044606306 -0.00063678 -0.00018897523 -0.00013537862
-0.00023814318 0.0002300857 -0.0009761728 -5.485482e-05 5.1103518e-05 -0.00010554748 0.0009531216 -0.00013598878
0.00017391669 0.000113176124 5.592921e-05 0.00034337936 0.00055237714 7.021184e-05 -0.00043851224 0.00020121607
0.0002056112 -0.0002254516 -0.0010471785 0.00037028463 0.00034842922 0.0005421182 0.00072030653 -0.00034699266
0.00046186382 -0.0011977174 -0.0003614505 0.00037404595 0.0006143806 0.00080400787 -0.0010585474 -0.00037066103
0.0002637019 -0.0010435261 -0.00038188495 -2.4666006e-05 0.00031205252 0.00020496684 -0.00028027102 -4.5755296e-06
6.403021e-05 0.00041873165 0.0005825458 0.00011807983 -0.00044579833 -0.0005215856 -0.000164197 0.00039096206
-0.0002459463 0.0006243523 -0.0010607147 3.5752382e-05 0.00040424598 -0.00028999988 -0.00032035995 0.00019843163
0.00013061514 0.0009339836 5.8831356e-06 0.0006831509 0.00062564726 -0.0010730448 0.0004762556 0.00017242016
3.035037e-05 -0.00019434068 -0.00040130562 -0.0002857747 0.00025166836 0.0002359981 -0.00025842697 -0.0005450728
-0.0005520578 0.00022653854 -0.00040730956 -0.0005139538 0.0003439257 0.0010832 -9.14609e-06 -0.0008633673
-0.0015832984 -9.616058e-05 0.0011128176 0.00019567186 -0.00072867883 6.349316e-05 -0.0004448006 -0.00044139117
0.0007083769 0.00027966296 0.00025121082 0.0005740099 -0.00077449775 -0.00012486413 0.0005383173 0.00011398961
0.0004469776 -0.0011284167 -6.2584455e-05 0.00034993328 8.2441526e-05 -0.00010103901 4.6846442e-05 0.00022232562
-0.00045570676 -0.00010138174 0.0004380066 -1.0710701e-05 0.00063720223 -0.00014223412 0.000444494 0.000115866795
0.00053829845 -0.00015365452 0.0005490564 -6.721108e-05 -0.00011830779 0.0009975209 0.00086623325 3.6676218e-05
00000000: b7a3 83b8 7220 26b8 36e5 8e39 e48f 3538
00000010: 92dd e9b9 95ed 26ba a727 46b9 6cf4 0db9
00000020: 13b6 79b9 2943 7139 d9e5 7fba ea13 66b8
00000030: fc57 5638 5f59 ddb8 e8da 793a 3698 0eb9
00000040: 685d 3639 f858 ed38 8895 6a38 9907 b439
00000050: 67cd 103a b23e 9338 1ee8 e5b9 87fd 5239
00000060: 5699 5739 3467 6cb9 7b41 89ba c322 c239
00000070: 61ad b639 f01c 0e3a f4d2 3c3a 91ec b5b9
00000080: 5026 f239 bafc 9cba 1181 bdb9 991b c439
00000090: 620e 213a 0ec4 523a f5be 8aba 4855 c2b9
000000a0: 7841 8a39 edc6 88ba bb37 c8b9 d8e9 ceb7
000000b0: fb9a a339 5eec 5639 57f1 92b9 8087 99b6
000000c0: f547 8638 3689 db39 fdb5 183a a0a1 f738
000000d0: 0aba e9b9 04bb 08ba 4c2c 2cb9 0afa cc39
000000e0: 5bf2 80b9 93ab 233a ae07 8bba d4f4 1538
000000f0: faf0 d339 200b 98b9 fcf5 a7b9 1612 5039
00000100: bcf5 0839 94d6 743a c067 c536 7b15 333a
00000110: 7a02 243a 69a5 8cba f2b1 f939 afcb 3439
00000120: ec98 fe37 eec7 4bb9 5466 d2b9 08d4 95b9
00000130: 5bf2 8339 4276 7739 7b7d 87b9 37e3 0eba
00000140: f9b7 10ba fa8a 6d39 2a8c d5b9 dbba 06ba
00000150: ed50 b439 29fa 8d3a 2872 19b7 9953 62ba
00000160: ae86 cfba d1a9 c9b8 f6db 913a 442d 4d39
00000170: cf04 3fba a127 8538 2034 e9b9 856a e7b9
00000180: 5eb2 393a ba9f 9239 f2b4 8339 2779 163a
00000190: aa07 4bba f6ed 02b9 dd1d 0d3a b50d ef38
000001a0: 5158 ea39 62e7 93ba c63f 83b8 4077 b739
000001b0: 75e4 ac38 e8e4 d3b8 fc7c 4438 1420 6939
000001c0: edeb eeb9 e89c d4b8 40a4 e539 1cb2 33b7
000001d0: eb09 273a ae24 15b9 fa0a e939 83fd f238
000001e0: 991c 0d3a 521e 21b9 8dee 0f3a acf3 8cb8
000001f0: 031c f8b8 3fbf 823a ee13 633a cad4 1938

exp_avg_sq f4 [128]
1.837727e-06 3.2137068e-06 7.064699e-06 1.968783e-06 1.690896e-06 4.1376225e-06 1.261755e-06 1.013429e-06
7.50746e-06 1.371238e-05 9.003554e-06 1.1245686e-06 6.3408474e-06 3.7281864e-06 5.92551e-06 1.1771833e-06
2.0200457e-06 1.1834335e-05 1.3905381e-05 1.7840162e-05 4.716087e-05 3.0893902e-06 3.1534423e-06 1.6648322e-06
9.157417e-06 2.736171e-06 1.51592285e-05 4.789759e-06 4.836137e-06 4.3497453e-06 1.0320902e-05 5.5845258e-06
2.0167379e-06 1.35497685e-05 1.8040108e-05 2.5202214e-06 7.05193e-06 2.091463e-05 1.617631e-05 9.325759e-06
6.2912222e-06 1.367952e-05 9.968556e-06 2.5117236e-06 6.3863204e-06 3.683122e-06 1.7679456e-06 4.3265572e-06
2.2182892e-05 1.14991035e-05 5.1264174e-06 4.9273825e-05 2.5751851e-05 1.2234097e-05 4.581563e-06 4.159865e-06
1.6834314e-05 5.665244e-06 1.1765384e-05 2.2738272e-05 5.78418e-06 1.4650452e-05 2.8118918e-06 1.4406971e-06
1.3485535e-05 1.2627852e-05 1.0329427e-05 3.8628787e-06 2.735243e-06 1.9701523e-05 2.1695528e-06 1.672531e-05
4.9497253e-06 6.1386895e-06 5.073111e-06 2.385382e-06 8.280794e-07 1.0821983e-05 1.5354715e-06 7.1155614e-06
4.641374e-06 6.412741e-05 1.46247685e-05 1.1607345e-05 1.5051347e-05 2.1622918e-05 3.5566816e-06 8.05446e-06
1.89614e-05 5.828556e-07 1.31886245e-05 2.5586254e-05 7.568469e-06 2.7213603e-06 3.7844661e-06 1.8237915e-06
2.5576368e-05 1.2298046e-05 1.5771217e-05 2.72286e-05 7.98202e-06 3.494502e-06 3.731901e-05 1.4036497e-05
2.5330652e-05 2.6080692e-05 4.2468506e-05 6.705366e-06 2.492074e-05 5.059674e-06 4.663128e-06 6.3293514e-06
7.863786e-06 3.830412e-05 6.430158e-07 8.7605656e-07 8.946605e-06 2.0275733e-05 2.1557616e-06 2.2617478e-06
7.4372874e-05 1.789323e-06 1.3339146e-05 8.8034e-07 4.44507e-06 8.688084e-06 3.0245005e-06 2.2968552e-06
00000000: d2a7 f635 10ab 5736 4d0d ed36 6f1f 0436
00000010: bff2 e235 e8d5 8a36 9259 a935 2805 8835
00000020: 97e8 fb36 390e 6637 f80d 1737 e2ef 9635
00000030: 77c3 d436 c131 7a36 bed3 c636 b6ff 9d35
00000040: 1f90 0736 158c 4637 284b 6937 75a7 9537
00000050: 99ce 4538 5253 4f36 ba9f 5336 3373 df35
00000060: cea2 1937 0f9f 3736 6454 7e37 b7b7 a036
00000070: 1a46 a236 07f4 9136 f027 2d37 b662 bb36
00000080: 4b57 0736 d053 6337 d654 9737 1321 2936
00000090: 9e9f ec36 d371 af37 5cb2 8737 d475 1c37
000000a0: 3019 d336 1781 6537 9f3e 2737 158f 2836
000000b0: 134a d636 8e2b 7736 264a ed35 d82c 9136
000000c0: 6615 ba37 46ec 4037 9703 ac36 5eab 4e38
000000d0: ae05 d837 0c41 4d37 54bb 9936 f894 8b36
000000e0: 6a37 8d37 1318 be36 f163 4537 11be be37
000000f0: ba15 c236 36cb 7537 efb3 3c36 fa5d c135
00000100: ef3f 6237 36dc 5337 8d4c 2d37 e09d 8136
00000110: 1e8f 3736 b344 a537 a298 1136 544d 8c37
00000120: d115 a636 f1fa cd36 b139 aa36 8d14 2036
00000130: 2f49 5e35 1090 3537 6616 ce35 35c2 ee36
00000140: 19bd 9b36 247c 8638 e75c 7537 2bbd 4237
00000150: 0b85 7c37 dd62 b537 53af 6e36 a421 0737
00000160: 4c0f 9f37 8875 1c35 b644 5d37 10a2 d637
00000170: a7f4 fd36 9da0 3636 a2f8 7d36 00c9 f435
00000180: d58c d637 b553 4e37 6e4c 8437 f968 e437
00000190: 84ea 0537 1683 6a36 fb86 1c38 4c7e 6b37
000001a0: 297d d437 dcc7 da37 3620 3238 a8fe e036
000001b0: e20c d137 45c6 a936 f777 9c36 b760 d436
000001c0: b4ee 0337 bca8 2038 b69b 2c35 262a 6b35
000001d0: 6019 1637 ce15 aa37 b4ab 1036 88c8 1736
000001e0: a2f8 9b38 ac28 f035 32cb 5f37 8150 6c35
000001f0: dc26 9536 09c3 1137 86f8 4a36 ac23 1a36
