results/Random1_V0/3DBall/3DBall-499988.onnx (onnx, 84847 bytes, 9 tensors)

network_body.observation_encoder.processors.0.normalizer.running_mean f4 [22]
0.0033620717 3.7105384 0.0045820964 3.7923646 0.006310147 3.8637633 0.008426181 3.922462
0.009616225 3.9559858 0.010024223 3.962134 0.010932231 3.938277 0.011756253 3.8834376
0.012438286 3.8045647 0.012400275 3.7133608 0.011208258 3.6206024
00000000: 3456 5c3b 7679 6d40 6925 963b 1ab6 7240
00000010: 59c5 ce3b e647 7740 f70d 0a3c 9e09 7b40
00000020: 5f8d 1d3c df2e 7d40 a33c 243c 9a93 7d40
00000030: 1a1d 333c bb0c 7c40 4d9d 403c 3e8a 7840
00000040: f4c9 4b3c fd7d 7340 862a 4b3c b4a7 6d40
00000050: d7a2 373c f3b7 6740

network_body._body_endoder.seq_layers.0.weight f4 [128, 22]
0.1392223 0.24829729 0.0063717547 0.2355717 0.15814777 0.24045861 0.016689299 0.17094563
0.37706253 -0.024494492 0.048616216 -0.011981025 0.101147555 -0.15758896 0.36186883 -0.09505521
0.17607313 0.28279978 -0.027091568 0.032205567 -0.1507483 -0.2187976 0.084999494 0.21836546
-0.09668696 -0.18816502 0.1509504 -0.27924308 0.30058756 0.060908053 0.10484684 -0.22951597
-0.07024966 -0.15005575 0.05008254 0.13568778 -0.2569194 0.06491294 0.16034122 -0.2988592
0.054179434 -0.04942722 -0.12930064 0.00663292 0.0412437 -0.15952605 0.049266517 0.034519482
-0.16827463 -0.082862236 -0.05117044 0.1433632 0.23290221 0.20586506 -0.20934203 0.032997087
-0.060891174 -0.38985288 0.24677353 -0.0049818913 -0.27763474 0.3815543 -0.16618268 0.017067937
-0.093472436 -0.011622284 0.15760694 -0.064280726 -0.13705829 0.44997415 -0.24605323 -0.043387488
-0.027035048 0.011863898 -0.14150761 0.09785021 -0.201535 -0.13105853 -0.012313168 -0.19152296
0.33366302 0.37877262 0.121140294 -0.06442535 0.36223158 -0.022687528 -0.058059108 -0.096354425
0.0014113716 -0.2218914 -0.3523888 -0.043179717 0.17001554 0.12486556 0.2157395 -0.20539838
0.22676075 0.080162115 0.1601941 -0.0030125924 -0.28081492 -0.0071243607 0.29499745 -0.48338234
-0.1294306 -0.05007773 0.004695762 -0.021839987 -0.17902686 0.3565101 -0.42343658 -0.42979518
-0.013033858 -0.04891252 0.31665787 -0.17931163 -0.057041924 -0.03113982 0.18123145 0.11053478
-0.32852966 0.04096456 0.0783937 0.1429966 0.19711743 -0.013476258 -0.15424196 0.14512438
-0.36602274 -0.046460815 -0.04103615 -0.17661527 -0.30800998 -0.10371987 0.037518714 0.05661583
-0.3670402 -0.48986414 -0.16462056 -0.07738846 -0.3511736 -0.031893227 0.13981125 -0.10006064
-0.15430933 0.23947316 -0.17435531 0.4061891 -0.3256974 0.22441897 0.19359463 0.10601438
-0.42535532 -0.15313022 -0.0043424536 0.09354899 0.0026034154 -0.03597532 -0.0480468 0.35026592
0.0761611 -0.098340586 -0.009926373 -0.34191555 -0.015497756 0.044441797 0.120474964 0.19071412
0.26830336 -0.03324985 -0.23749705 0.21479058 0.3952985 0.1289477 -0.3396865 0.0018888487
-0.18518603 -0.67871404 0.07139435 -0.08332028 -0.32757294 0.0803119 0.47529125 0.20541786
-0.26033208 0.35271376 -0.18202868 -0.6153363 -0.045819987 -0.0011859807 -0.28789973 -0.08648431
0.02906291 0.39369053 -0.17497545 -0.081286766 0.4002334 0.19422157 -0.035579473 0.50192314
-0.23251408 0.1426146 0.04589959 0.24101794 0.04313263 -0.21951163 -0.1003382 -0.033304326
0.12112299 -0.21284881 -0.16143756 -0.38488653 0.3742747 -0.00043119182 -0.22840853 -0.113720305
0.08326947 -0.23744872 -0.06279323 0.038360745 0.2407148 -0.341363 0.3865168 0.16821542
-0.41113317 0.02639606 0.13634217 0.20776568 0.26511946 -0.4203764 -0.2480268 -0.00078371627
0.28799385 -0.32030472 0.3322647 -0.20682976 0.16203387 0.24226226 -0.032307155 0.51912177
-0.010246183 -0.067297466 0.20473431 -0.0021547691 -0.23125018 -0.028875584 0.33574677 0.20109099
0.19994865 -0.16120622 0.14310637 -0.07864467 -0.10415661 0.18526998 0.038249988 0.15730561
00000000: 4a90 0e3e a541 7e3e 27ca d03b b539 713e
00000010: 7df1 213e c83a 763e ffb7 883c 5f0c 2f3e
00000020: 570e c13e aca8 c8bc cc21 473d 104c 44bc
00000030: 7326 cf3d 005f 21be df46 b93e 4eac c2bd
00000040: 844c 343e 22cb 903e 23ef ddbc fce9 033d
00000050: c35d 1abe 7a0c 60be 3714 ae3d 329b 5f3e
00000060: d003 c6bd 55ae 40be be92 1a3e f3f8 8ebe
00000070: 9de6 993e b97a 793d f1b9 d63d 3c06 6bbe
00000080: 0edf 8fbd 37a8 19be 5923 4d3d bdf1 0a3e
00000090: f18a 83be 13f1 843d 7d30 243e 1304 99be
000000a0: 41eb 5d3d 3274 4abd 6367 04be f758 d93b
000000b0: 27ef 283d cc5a 23be b0cb 493d 4d64 0d3d
000000c0: 2f50 2cbe adb3 a9bd 1898 51bd cdcd 123e
000000d0: eb7d 6e3e 4ace 523e c25d 56be f427 073d
000000e0: 0669 79bd cc9a c7be 33b2 7c3e 223f a3bb
000000f0: 2426 8ebe 165b c33e cb2b 2abe 0fd2 8b3c
00000100: 7a6e bfbd 646b 3ebc b763 213e 9da5 83bd
00000110: 0259 0cbe 0363 e63e 61f5 7bbe 14b7 31bd
00000120: 9b78 ddbc cb60 423c 5fe7 10be b165 c83d
00000130: 315f 4ebe 3534 06be 2bbd 49bc 981e 44be
00000140: e1d5 aa3e 7cee c13e 6718 f83d 70f1 83bd
00000150: 6b76 b93e 32db b9bc 63cf 6dbd 7855 c5bd
00000160: c6fd b83a 8037 63be 4e6c b4be 37dd 30bd
00000170: 8e18 2e3e 84b9 ff3d d1ea 5c3e f453 52be
00000180: f833 683e 092c a43d ec09 243e ea6e 45bb
00000190: f9c6 8fbe 7873 e9bb e809 973e e47d f7be
000001a0: 7589 04be 4e1e 4dbd e8de 993b c6e9 b2bc
000001b0: d152 37be 7e88 b63e aecc d8be 1d0e dcbe
000001c0: f68b 55bc 7f58 48bd fb20 a23e 789d 37be
000001d0: cba4 69bd f018 ffbc bd94 393e 0f60 e23d
000001e0: 0a35 a8be 74ca 273d e08c a03d b36d 123e
000001f0: 27d9 493e 86cb 5cbc 9bf1 1dbe 7c9b 143e
00000200: 5567 bbbe b24d 3ebd 8615 28bd a2da 34be
00000210: 7cb3 9dbe 156b d4bd 39ad 193d 00e6 673d
00000220: b1ec bbbe 79cf fabe 4b92 28be d77d 9ebd
00000230: 07cd b3be 79a2 02bd ae2a 0f3e 98ec ccbd
00000240: 4403 1ebe 7438 753e 338a 32be 05f8 cf3e
00000250: cfc1 a6be 16ce 653e ac3d 463e 111e d93d
00000260: 2cc8 d9be 2bce 1cbe 244b 8ebb 9d96 bf3d
00000270: 109e 2a3b db5a 13bd b9cc 44bd 0e56 b33e
00000280: 5afa 9b3d ca66 c9bd 3aa2 22bc 8e0f afbe
00000290: 4dea 7dbc 9a08 363d 94bb f63d 904a 433e
000002a0: 0f5f 893e ff30 08bd 6d32 73be 10f2 5b3e
000002b0: 9164 ca3e de0a 043e 64eb adbe 3f93 f73a
000002c0: 68a1 3dbe 34c0 2dbf 3337 923d d3a3 aabd
000002d0: a4b7 a7be 917a a43d 6059 f33e 0f59 523e
000002e0: 3f4a 85be e696 b43e ba65 3abe ae86 1dbf
000002f0: bdad 3bbd e972 9bba 9867 93be b01e b1bd
00000300: 5715 ee3c ce91 c93e c42c 33be ad79 a6bd
00000310: 64eb cc3e 05e2 463e c8bb 11bd 097e 003f
00000320: 2c18 6ebe 9009 123e 3501 3c3d 68cd 763e
00000330: d7ab 303d a8c7 60be 1d7e cdbd 1e6a 08bd
00000340: 550f f83d 0af5 59be e34f 25be d90f c5be
00000350: efa0 bf3e 9611 e2b9 ede3 69be 31e6 e8bd
00000360: 2f89 aa3d c225 73be bd99 80bd 2820 1d3d
00000370: f17d 763e 22c7 aebe 88e5 c53e aa40 2c3e
00000380: 0c80 d2be 8d3c d83c 489d 0b3e 87c0 543e
00000390: bdbd 873e 933b d7be bdfa 7dbe 4f72 4dba
000003a0: ee73 933e fbfe a3be 991e aa3e 2ecb 53be
000003b0: 35ec 253e 9913 783e 8254 04bd 2ae5 043f
000003c0: 9bdf 27bc 41d3 89bd dfa5 513e 0737 0dbb
000003d0: d9cc 6cbe 7d8c ecbc 00e7 ab3e ccea 4d3e
000003e0: 57bf 4c3e 3e13 25be 7a8a 123e 7510 a1bd
000003f0: 1050 d5bd 6ab7 3d3e 05ac 1c3d b914 213e

network_body._body_endoder.seq_layers.0.bias f4 [128]
-0.057360154 -0.15696535 0.007362376 -0.07458738 -0.09952407 -0.05064838 0.052395664 -0.02978119
0.035243034 -0.0037029209 -0.07527187 -0.05126142 -0.013589244 -0.001457442 -0.0022987328 0.02302385
0.08783613 0.016663827 0.09997107 0.036161706 0.033231724 -0.0401704 0.06560752 -0.04074336
0.0044716764 0.0005202569 0.098897874 -0.06510271 -0.00904615 0.10808607 -0.0053639943 -0.046851937
0.12265689 0.010305304 0.008395194 -0.02640041 0.0007757614 -0.006762512 -0.0869357 0.015776405
0.082482435 -0.019380609 0.06162663 0.060953833 0.05700142 -0.043801 -0.00584574 -0.041406978
-0.09199 0.00093907036 -0.04666855 0.06736909 0.0061990274 -0.05390804 0.011928558 0.07462423
-0.052002992 0.015770836 0.08895452 -0.022743631 0.042610563 -0.038093355 0.0013253712 -0.10180684
0.09643374 -0.031270996 -0.099710695 0.033060204 0.06720086 0.03629847 -0.117678 -0.04670927
-0.01932817 0.04296839 0.10623497 0.043545704 -0.0014004294 -0.03778356 -0.064192116 -0.021310847
-0.045462348 -0.08694796 -0.09243277 -0.02904373 -0.033313945 0.092107825 -0.0454359 -0.12621072
-0.11975599 0.059723713 -0.090497926 0.013540131 -0.026344832 -0.027275236 -0.010011725 -0.011871754
-0.02214766 -0.10827924 -0.05408944 0.0036295562 0.091849044 0.08545469 0.14541066 -0.0033002151
-0.10037395 -0.05048421 -0.023622574 0.081961714 -0.15191889 -0.061245352 -0.025849503 0.02654219
0.060514484 -0.13066934 -0.03766976 -0.035740755 0.08914714 0.041607477 0.108710766 0.013395816
-0.062908776 0.060974922 0.03390651 -0.0100108255 -0.014184615 0.010089582 -0.006019458 -0.047141653
00000000: 7bf2 6abd 86bb 20be 1640 f13b 45c1 98bd
00000010: 47d3 cbbd ad74 4fbd d69c 563d aff7 f3bc
00000020: 005b 103d b4ac 72bb 2328 9abd 7ff7 51bd
00000030: 6ca5 5ebc a307 bfba 56a6 16bb 839c bc3c
00000040: 6ee3 b33d 9482 883c a2bd cc3d 4c1e 143d
00000050: fd1d 083d b889 24bd 3c5d 863d 82e2 26bd
00000060: 2487 923b d961 083a f88a ca3d 9254 85bd
00000070: 4e36 14bc 3b5c dd3d 72c4 afbb d1e7 3fbd
00000080: 8933 fb3d 94d7 283c ff8b 093c ac45 d8bc
00000090: 775c 4b3a 1098 ddbb 580b b2bd 853d 813c
000000a0: 8dec a83d 15c4 9ebc 356c 7c3d baaa 793d
000000b0: 527a 693d ad68 33bd 9f8d bfbb 5d9a 29bd
000000c0: 4165 bcbd f22b 763a 8627 3fbd cef8 893d
000000d0: 3621 cb3b adce 5cbd 0070 433c 97d4 983d
000000e0: 1701 55bd d731 813c ca2d b63d da50 babc
000000f0: 6a88 2e3d c707 1cbd 14b8 ad3a 1b80 d0bd
00000100: 0d7f c53d 0416 00bd 1f35 ccbd 236a 073d
00000110: 9ba0 893d b4ad 143d 2a01 f1bd 3852 3fbd
00000120: 1c56 9ebc 9fff 2f3d b891 d93d fb5c 323d
00000130: 9d8e b7ba efc2 1abd 2877 83bd 1694 aebc
00000140: ba36 3abd c611 b2bd 644d bdbd 1eed edbc
00000150: 3474 08bd 07a3 bc3d ff1a 3abd 623d 01be
00000160: a142 f5bd daa0 743d fa56 b9bd 6dd7 5d3c
00000170: 1ed1 d7bc 5170 dfbc 3808 24bc bf81 42bc
00000180: 026f b5bc 82c1 ddbd e38c 5dbd d9dd 6d3b
00000190: 5a1b bc3d de02 af3d 88e6 143e 6c48 58bb
000001a0: dc90 cdbd 88c8 4ebd 2184 c1bc 8bdb a73d
000001b0: a090 1bbe 68dc 7abd 56c2 d3bc 026f d93c
000001c0: 09de 773d 2fce 05be 9b4b 1abd e664 12bd
000001d0: c792 b63d 9a6c 2a3d c0a3 de3d 207a 5b3c
000001e0: 51d6 80bd d7c0 793d 8de1 0a3d 7204 24bc
000001f0: 9666 68bc c64e 253c e03e c5bb 9b17 41bd

network_body._body_endoder.seq_layers.2.weight f4 [128, 128]
-0.018080503 0.059394214 0.14175653 0.008957533 -0.08148349 0.08916934 -0.21099073 -0.04577073
-0.08311101 0.062938906 0.022903917 0.13870907 0.042905293 -0.20359994 -0.12104306 0.024438184
-0.06298736 -0.001255158 -0.06589094 0.023164526 -0.0016303613 -0.007826641 -0.09842068 0.047784496
0.044512693 -0.08980032 -0.030167038 -0.0148010785 -0.006346171 0.050644577 0.0836638 0.110480145
-0.082474925 0.011647637 0.04018946 0.025832506 0.04900174 0.04474633 0.10140699 -0.021719558
-0.13980968 0.043042008 -0.036579993 0.06248348 -0.009020206 -0.09715338 -0.15406825 -0.07382706
0.07679894 0.03935231 -0.017898776 0.08362737 -0.0134317 0.04909925 -0.091863476 -0.10277268
-0.02087604 -0.0014655112 -0.038608134 0.085987635 0.2174303 0.18358128 -0.08769864 0.009325693
-0.0777637 0.1703638 0.010950486 -0.19324572 -0.24747941 -0.05629532 0.119948596 0.062732354
0.070548095 0.010347105 -0.13679399 -0.1707607 -0.13779135 -7.254117e-05 -0.011876075 -0.055723205
-0.0769042 0.0642789 -0.008857255 -0.092656486 -0.10357533 -0.1046066 0.031753045 -0.2072521
-0.052785873 -0.044900995 0.070040405 -0.22927578 8.7918306e-05 0.2127269 0.028047517 -0.09017565
-0.033183336 -0.04049374 -0.06364923 -0.011632859 0.038828593 0.07089462 -0.20563382 0.15095367
0.0029572633 0.006250909 0.07123531 -0.11957836 0.16736926 0.091340475 -0.024252547 -0.03454598
-0.109625675 0.09013438 -0.102414005 -0.011380423 -0.04956961 -0.02422721 -0.21027903 -0.041086186
-0.06192989 0.007680105 -0.13832004 0.028366493 -0.14988853 -0.064625986 -0.23783427 -0.098869085
-0.08578374 0.060398288 -0.011711896 -0.030546637 -0.08661468 0.07077283 0.09823065 -0.021038424
0.0683704 -0.17872116 -0.29507214 0.11959736 0.01876109 -0.09407943 0.0900496 0.059238248
0.008840877 0.044744913 -0.13130355 -0.15232982 0.13152894 -0.04502336 -0.17505921 0.00050803786
0.09391256 -0.15986438 -0.0021716373 -0.03499207 -0.0058318814 -0.11064308 -0.04028749 -0.17414115
-0.08336134 -0.019900553 0.05495508 -0.002593947 0.119194165 0.021312306 0.028966656 -0.05361969
-0.012091735 -0.052269235 0.031094806 0.13462563 0.07435804 -0.05411038 -0.16410701 -0.018786155
0.15951692 -0.1794701 -0.18799327 0.06841053 -0.076031685 0.00018645189 -0.0010068007 -0.028775228
0.13775143 -0.112178296 0.05652292 0.034090444 -0.09668812 0.11160568 0.09303773 -0.11082206
-0.08012375 0.11760786 -0.12467576 -0.09788467 -0.022095907 0.051669452 -0.09843852 0.02657251
-0.041523583 -0.0014856203 -0.08003162 -0.04868163 -0.025344312 0.05799247 -0.03809514 -0.06692588
0.11109499 0.045665346 0.02064937 0.08496531 0.1250122 0.05992081 -0.031602044 0.0073156464
-0.06199557 0.038756087 0.22006729 -0.02334612 0.105671294 0.04206595 0.005165947 -0.05429568
0.04621653 -0.20255269 0.009257952 -0.09216107 -0.13586389 0.036804978 -0.007846331 -0.06347284
-0.13300647 -0.07257314 -0.035748202 -0.09193949 0.0067475797 -0.04870748 -0.043968458 0.00040391152
-0.029082345 0.032678477 0.084588386 0.055444628 -0.03123235 -0.11788402 0.05660612 -0.09132734
-0.08616336 -0.01234131 -0.03795923 0.02550465 0.091720395 -0.06788586 -0.15243055 0.032909863
00000000: 901d 94bc 5947 733d a028 113e 9ec2 123c
00000010: d1e0 a6bd 6a9e b63d f40d 58be 177a 3bbd
00000020: 1b36 aabd 1de6 803d ffa0 bb3c c009 0e3e
00000030: 76bd 2f3d 817c 50be 6de5 f7bd 9632 c83c
00000040: 84ff 80bd 1d84 a4ba d4f1 86bd 88c3 bd3c
00000050: d9b1 d5ba 503b 00bc c890 c9bd adb9 433d
00000060: f152 363d 3be9 b7bd dd20 f7bc 3980 72bc
00000070: 8af3 cfbb b070 4f3d ed57 ab3d 6a43 e23d
00000080: 9de8 a8bd bbd5 3e3c b49d 243d b19e d33c
00000090: 0cb6 483d ed47 373d 78ae cf3d 37ed b1bc
000000a0: 452a 0fbe d14c 303d e7d4 15bd adee 7f3d
000000b0: 7cc9 13bc 5af8 c6bd 11c4 1dbe a432 97bd
000000c0: c348 9d3d e32f 213d 74a0 92bc d444 ab3d
000000d0: a210 5cbc 4c1c 493d eb22 bcbd 7c7a d2bd
000000e0: 3b04 abbc 6516 c0ba 9023 1ebd 491a b03d
000000f0: 0ca6 5e3e bbfc 3b3e 589b b3bd cbca 183c
00000100: 9342 9fbd d973 2e3e ab69 333c 35e2 45be
00000110: 3e6b 7dbe ec95 66bd 9ca7 f53d d279 803d
00000120: 857b 903d e786 293c b913 0cbe e5db 2ebe
00000130: 2d19 0dbe 3e21 98b8 de93 42bc 043e 64bd
00000140: f37f 9dbd a8a4 833d 051e 11bc afc2 bdbd
00000150: 4d1f d4bd fc3b d6bd 7b0f 023d e539 54be
00000160: 0036 58bd 1bea 37bd 5871 8f3d 45c7 6abe
00000170: c860 b838 15d5 593e e8c3 e53c 03ae b8bd
00000180: 40eb 07bd c4dc 25bd 875a 82bd bf97 3ebc
00000190: bb0a 1f3d 3331 913d ac91 52be 9993 1a3e
000001a0: a5ce 413b 6dd4 cc3b d1e3 913d 80e5 f4bd
000001b0: d962 2b3e b710 bb3d 47ad c6bc 1680 0dbd
000001c0: 6d83 e0bd 6098 b83d 6fbe d1bd f474 3abc
000001d0: 8109 4bbd 2478 c6bc 6353 57be fd49 28bd
000001e0: 32aa 7dbd 64a9 fb3b c5a3 0dbe d960 e83c
000001f0: 617c 19be a15a 84bd d48a 73be e07b cabd
00000200: 63af afbd 3264 773d 41e3 3fbc f13c fabc
00000210: 0a63 b1bd 58f1 903d 272d c93d c658 acbc
00000220: c805 8c3d ae02 37be b213 97be 76ef f43d
00000230: dbb0 993c b7ac c0bd ed6b b83d cea3 723d
00000240: 53d9 103c 7146 373d 7074 06be 59fc 1bbe
00000250: 86af 063e 6a6a 38bd b942 33be d82d 053a
00000260: 3a55 c03d 7db3 23be 0752 0ebb d853 0fbd
00000270: 5e19 bfbb d798 e2bd 7f04 25bd 0f52 32be
00000280: 5ab9 aabd 7c06 a3bc 9418 613d 36ff 29bb
00000290: 121c f43d 2597 ae3c 7b4b ed3c 52a0 5bbd
000002a0: 6a1c 46bc 4418 56bd 89ba fe3c 4ddb 093e
000002b0: 0749 983d d9a2 5dbd ab0b 28be 6ce5 99bc
000002c0: 6758 233e 03c7 37be 4f81 40be d21a 8c3d
000002d0: 80b6 9bbd 4c82 4339 a0f6 83ba 07ba ebbc
000002e0: b60e 0d3e bcbd e5bd 9484 673d 6ca2 0b3d
000002f0: 6c04 c6bd 8591 e43d 918a be3d adf6 e2bd
00000300: ec17 a4bd 64dc f03d 0156 ffbd c277 c8bd
00000310: 7a02 b5bc 59a3 533d 239a c9bd 98ae d93c
00000320: a214 2abd 25b9 c2ba 9ee7 a3bd 6466 47bd
00000330: e09e cfbc 8389 6d3d a609 1cbd 7010 89bd
00000340: c585 e33d 960b 3b3d de28 a93c 4b02 ae3d
00000350: 3303 003e 866f 753d 2571 01bd 17b8 ef3b
00000360: 11ef 7dbd b4be 1e3d 5259 613e 5d40 bfbc
00000370: 316a d83d 584d 2c3d 1b47 a93b 2665 5ebd
00000380: 8b4d 3d3d f969 4fbe aaae 173c f1be bcbd
00000390: e71f 0bbe d1c0 163d e68d 00bc 0cfe 81bd
000003a0: d932 08be 3aa1 94bd b56c 12bd c54a bcbd
000003b0: cd1a dd3b 7f81 47bd 4518 34bd 16c4 d339
000003c0: 193e eebc ded9 053d ad3c ad3d e819 633d
000003d0: fcda ffbc 2d6d f1bd d2db 673d d409 bbbd
000003e0: 6a76 b0bd 3533 4abc 237b 1bbd 21ef d03c
000003f0: e7d7 bb3d be07 8bbd c116 1cbe 7ecc 063d

network_body._body_endoder.seq_layers.2.bias f4 [128]
-0.078099325 0.0083531765 -0.026436284 -0.04907236 0.036209106 -0.0957651 -0.09028885 0.005484465
0.050462324 -0.021735696 0.0032906304 -0.07651737 -0.027273538 -0.13515888 -0.09092112 -0.05530838
0.08365945 0.10822598 0.038672782 -0.10243778 -0.07867434 0.021148458 0.046080288 0.048339047
-0.045079738 -0.12135362 -0.033790562 -0.065205835 -0.04490808 -0.09751864 0.062607825 -0.022286434
-0.062309623 0.034222066 -0.08401836 0.078960225 -0.018929316 0.002611896 0.11809369 0.06527136
0.05723179 -0.041892637 0.103848934 -0.010403111 -0.06830891 0.014635012 -0.004166718 0.05724394
-0.094963245 -0.059504226 -0.114317186 0.09127396 -0.03667466 -0.012452896 -0.12496895 0.029850475
0.01001968 -0.016512914 0.079868086 -0.048508108 -0.008075188 0.03675153 -0.09709917 -0.045517378
-0.0033646266 0.08115658 -0.08278607 -0.07594882 0.05444725 0.13379051 -0.018825008 -0.082302205
0.06911145 0.023522051 -0.062197726 -0.061205048 0.102020614 -0.10214257 0.12796402 -0.14081241
0.024576169 -0.050656352 0.09875817 0.05693537 -0.046333965 0.053230956 -0.050276857 -0.047992606
-0.09041127 -0.052371394 0.062274415 -0.09097779 -0.08932049 0.06506407 0.039683465 -0.1262387
0.038128436 -0.07071325 0.12830286 0.08875886 0.037019495 -0.028504688 0.123624146 -0.06482827
-0.0038972627 0.0007323615 -0.11460852 0.06833356 -0.005901602 -0.10247875 -0.032694194 0.09039164
-0.021978231 -0.044737704 -0.033487473 -0.01797996 -0.083360486 -0.108348705 -0.02402975 -0.13138418
-0.040769584 -0.049562205 0.06990362 -0.07095239 0.057562947 0.051212877 -0.14646636 0.00574299
00000000: 8af2 9fbd c3db 083c e890 d8bc 1900 49bd
00000010: 0050 143d 7e20 c4bd 5ce9 b8bd 07b7 b33b
00000020: 95b1 4e3d 0f0f b2bc 9ea7 573b 24b5 9cbd
00000030: c16c dfbc 1767 0abe da34 babd 0a8b 62bd
00000040: a555 ab3d 95a5 dd3d 5a67 1e3d e6ca d1bd
00000050: 0320 a1bd 883f ad3c afbe 3c3d 2aff 453d
00000060: 88a5 38bd 3f88 f8bd f967 0abd a38a 85bd
00000070: 89f1 37bd dab7 c7bd 8838 803d 0a92 b6bc
00000080: 6038 7fbd 702c 0c3d d111 acbd e6b5 a13d
00000090: a711 9bbc 582c 2b3b 1bdb f13d feac 853d
000000a0: e26b 6a3d 9d97 2bbd c0ae d43d cf71 2abc
000000b0: 8be5 8bbd b0c7 6f3c f788 88bb 9f78 6a3d
000000c0: 177c c2bd b4ba 73bd 211f eabd d8ed ba3d
000000d0: 2b38 16bd 3b07 4cbc b9ef ffbd fc88 f43c
000000e0: 9529 243c 1746 87bc e191 a33d 70b0 46bd
000000f0: cb4d 04bc c688 163d eedb c6bd 6e70 3abd
00000100: 1181 5cbb 6c35 a63d be8b a9bd 0e8b 9bbd
00000110: 1404 5f3d 6100 093e e736 9abc 0f8e a8bd
00000120: 4e8a 8d3d 51b1 c03c 0bc3 7ebd 25b2 7abd
00000130: 2ff0 d03d 2030 d1bd 0009 033e 2131 10be
00000140: f653 c93c 097d 4fbd b941 ca3d 1035 693d
00000150: afc8 3dbd b408 5a3d 1bef 4dbd e593 44bd
00000160: 8b29 b9bd 6383 56bd 7513 7f3d 9052 babd
00000170: a9ed b6bd 5040 853d 218b 223d b844 01be
00000180: 902c 1c3d 1cd2 90bd d361 033e 35c7 b53d
00000190: c1a1 173d aa82 e9bc a82e fd3d afc4 84bd
000001a0: 3869 7fbb f3fb 3f3a dfb7 eabd 77f2 8b3d
000001b0: 3a62 c1bb 61e0 d1bd 59ea 05bd 411f b93d
000001c0: b10b b4bc e23e 37bd 292a 09bd b64a 93bc
000001d0: e7b8 aabd ede5 ddbd 0ada c4bc 9389 06be
000001e0: 02fe 26bd bd01 4bbd a129 8f3d 7d4f 91bd
000001f0: 20c7 6b3d 98c4 513d 47fb 15be b12f bc3b

action_model._continuous_distribution.log_sigma f4 [1, 3]
-0.17830722 -0.14841637 -0.035546828
00000000: 2b96 36be 76fa 17be 8d99 11bd

action_model._continuous_distribution.mu.weight f4 [3, 128]
-0.04721864 -0.003703932 0.0073993686 0.10148223 0.03129728 -0.012622361 0.00084022654 -0.013701289
0.0071398756 -0.004995169 0.023191968 0.017973768 -0.020508511 -0.03380529 -0.0015125979 0.02136531
0.0054465756 0.010988471 -0.046535123 0.004060755 0.0021091702 0.07136147 -0.03019806 0.024077835
-0.016720692 -0.06495818 -0.067424506 0.028534569 -0.047503293 0.029716013 0.0066249506 0.042254377
-0.027753886 0.01646661 -0.013236538 0.043673433 -0.04022387 -0.013890103 0.029556517 0.00732955
0.065725885 0.030162241 -0.0032784957 0.0003127416 -0.05485594 0.00927092 0.013887783 0.03907207
0.00875509 0.0030064806 -0.016446916 0.06598246 -0.08575539 0.0023562973 -0.081369184 0.030867448
-0.003553008 0.03254009 0.012376518 -0.00027562256 0.01181559 0.05388768 0.01749064 -0.00059412356
0.061946876 0.02553409 0.0040578055 0.006250371 -0.0075401245 0.009327549 -0.014065414 -0.06535179
0.06927372 0.028039467 -0.004479984 0.0074072857 0.068043135 -0.058635116 0.088880144 -0.006010423
0.016767919 0.06380877 -0.009915278 0.022374455 -0.00812233 0.037833847 -0.077321045 0.056651384
-0.0074140797 0.056074537 -0.036339223 -0.01413911 -0.0071419775 0.015101964 0.025123937 -0.035664685
0.016012086 0.072038166 0.0062483437 0.002104184 0.08363031 -0.024665022 0.0402156 -0.024538193
-0.07740067 0.019983629 -0.025419023 0.0048292694 0.023724435 -0.060962234 -0.012572365 0.021618437
0.045689296 0.09256767 -0.0024566492 -0.12414942 -0.03840656 -0.039370555 0.026260257 -0.06284748
-0.028094111 0.019082028 0.07367622 0.0130749615 0.03264399 0.024996419 -0.015423664 0.044458188
-0.043222055 -0.0070877806 -0.047412995 -0.038437277 -0.022261297 -0.049698457 -0.05503814 -0.026276417
-0.010001052 -0.038901355 0.001967929 -0.0741994 -0.026414221 -0.043632153 -0.06244741 -0.033863425
0.025743796 0.03978104 0.03231878 -0.047714107 -0.04870096 -0.0066599543 0.027883261 0.0008173026
-0.021369966 -0.047047086 -0.108223386 -0.03665756 -0.032324582 -0.058155112 0.004872447 -0.017939622
-0.029250555 -0.017059356 -0.05002222 0.047056243 -0.0473913 -0.0051848795 0.03477255 0.027153695
-0.0036363292 -0.012666519 0.058574673 0.016590822 -0.035842072 -0.002501733 -0.0250582 0.0135346325
-0.018270629 -0.014408973 -0.025384095 0.049222313 -0.028798088 -0.030667083 -0.080458574 -0.016713837
-0.0014471207 -0.02460831 0.010983581 -0.01784973 -0.0053104 -0.00015044771 -0.03272258 -0.039980255
-0.043679174 0.0326288 -0.016649794 -0.049728792 0.002188038 0.07389587 -0.021757588 -0.031146323
-0.0024934395 -0.021988614 -0.0013596548 -0.015075228 0.049623854 -0.035950102 0.06709094 -0.026165461
0.027541945 -0.05681694 0.07025817 -0.011460498 -0.026139649 0.037383452 -0.026543863 -0.025819598
-0.021503743 -0.015946016 -0.0028479584 -0.027376987 -0.012743193 0.002904423 0.0052997014 -0.026120892
0.0207698 -0.03417389 0.09324174 0.033493035 0.0040279315 -0.015499722 0.048684563 -0.0141076185
-0.03799943 -0.010991246 -0.005390417 0.087699234 -0.031952355 -0.026435582 -0.044690855 0.055779044
0.008108395 -0.03974791 -0.038848948 -0.008727318 -0.04291199 -0.019864542 -0.042733684 -0.08499582
-0.057763673 -0.0154781435 -0.0010754644 -0.055301018 0.0053819823 -0.013222174 -0.08764076 -0.010404406
00000000: 5568 41bd abbd 72bb 6776 f23b ead5 cf3d
00000010: 9431 003d 05ce 4ebc a642 5c3a 5f7b 60bc
00000020: 9ef5 e93b 84ae a3bb 15fd bd3c b93d 933c
00000030: 7701 a8bc 6a77 0abd 5d42 c6ba 4d06 af3c
00000040: 3079 b23b fd08 343c 9d9b 3ebd 1510 853b
00000050: 013a 0a3b f625 923d ec61 f7bc e13e c53c
00000060: d5f9 88bc cb08 85bd dc15 8abd 54c1 e93c
00000070: d092 42bd ff6e f33c 1d16 d93b ed12 2d3d
00000080: 1e5c e3bc fce4 863c 10de 58bc eae2 323d
00000090: c9c1 24bd 5193 63bc 8220 f23c b92c f03b
000000a0: 4b9b 863d ce16 f73c 08dc 56bb 78f7 a339
000000b0: 9fb0 60bd 0fe5 173c 9589 633c 090a 203d
000000c0: 8271 0f3c 6008 453b afbb 86bc d021 873d
000000d0: 86a0 afbd 1c6c 1a3b e3a4 a6bd bbdd fc3c
000000e0: 95d9 68bb c248 053d e1c6 4a3c 6f81 90b9
000000f0: 2d96 413c 54b9 5c3d 8848 8f3c f5be 1bba
00000100: 02bc 7d3d de2c d13c 57f7 843b eacf cc3b
00000110: 2613 f7bb 93d2 183c 9f72 66bc 29d7 85bd
00000120: 61df 8d3d 06b3 e53c d4cc 92bb d1b8 f23b
00000130: 335a 8b3d 602b 70bd cb06 b63d 15f3 c4bb
00000140: e05c 893c 2cae 823d b173 22bc a24a b73c
00000150: 8513 05bc aaf7 1a3d 7f5a 9ebd 480b 683d
00000160: cff1 f2bb 6aae 653d 70d8 14bd baa7 67bc
00000170: 4007 eabb 3a6e 773c b7d0 cd3c 2215 12bd
00000180: c72b 833c bf88 933d e8be cc3b 59e6 093b
00000190: 5e46 ab3d 4d0e cabc 1db9 243d 5204 c9bc
000001a0: 3e84 9ebd b5b4 a33c 8e3b d0bc d93e 9e3b
000001b0: bf59 c23c 89b3 79bd 52fc 4dbc 2619 b13c
000001c0: b324 3b3d 1e94 bd3d bcff 20bb 0d42 febd
000001d0: 3250 1dbd 0543 21bd c01f d73c 2eb6 80bd
000001e0: 9f25 e6bc ea51 9c3c 8fe3 963d 5d38 563c
000001f0: b4b5 053d 4ac5 cc3c 89b3 7cbc ca19 363d
00000200: 9c09 31bd 9d40 e8bb 2134 42bd 6870 1dbd
00000210: 535d b6bc 9c90 4bbd ac6f 61bd a441 d7bc
00000220: 74db 23bc 0757 1fbd 5ff8 003b dbf5 97bd
00000230: a362 d8bc a1b7 32bd dbc8 7fbd 60b4 0abd
00000240: a7e4 d23c 72f1 223d b260 043d de6f 43bd
00000250: a87a 47bd bf3b dabb 706b e43c 4040 563a
00000260: 1110 afbc 72b4 40bd 39a4 ddbd 3d26 16bd
00000270: c866 04bd 0e34 6ebd 0ca9 9f3b 1df6 92bc
00000280: dc9e efbc 10c0 8bbc 19e4 4cbd 0cbe 403d
00000290: 611d 42bd ece5 a9bb a96d 0e3d 6d71 de3c
000002a0: 7b4f 6ebb 3b87 4fbc ffeb 6f3d 7ae9 873c
000002b0: 23cf 12bd 1df4 23bb db46 cdbc 5dc0 5d3c
000002c0: 49ac 95bc 9d13 6cbc 4ef2 cfbc 569d 493d
000002d0: f8e9 ebbc 8939 fbbc 77c7 a4bd 75eb 88bc
000002e0: 50ad bdba 5e97 c9bc 7af4 333c 9939 92bc
000002f0: dd02 aebb 80c1 1db9 1d08 06bd 56c2 23bd
00000300: efe8 32bd c7a5 053d 2665 88bc 6bb0 4bbd
00000310: 3065 0f3b b856 973d f83c b2bc 9326 ffbc
00000320: f968 23bb 7721 b4bc 7236 b2ba 17fe 76bc
00000330: 6242 4b3d 6a40 13bd fa66 893d f358 d6bc
00000340: a59f e13c e1b8 68bd 84e3 8f3d d0c4 3bbc
00000350: d122 d6bc 641f 193d 8472 d9bc 9f83 d3bc
00000360: 9e28 b0bc 38a1 82bc d0a4 3abb b445 e0bc
00000370: d3c8 50bc 2258 3e3b 1ea9 ad3b 7bfb d5bc
00000380: 6d25 aa3c ecf9 0bbd 86f5 be3d fe2f 093d
00000390: bdfc 833b 8cf2 7dbc 7769 473d a423 67bc
000003a0: 4aa5 1bbd a114 34bc 18a2 b0bb a89b b33d
000003b0: 79e0 02bd 6f8f d8bc c20d 37bd 9178 643d
000003c0: 13d9 043c b4ce 22bd 1320 1fbd 06fd 0ebc
000003d0: 7cc4 2fbd f7ba a2bc 8409 2fbd 4a12 aebd
000003e0: 9a99 6cbd 0a98 7dbc 99f6 8cba 5283 62bd
000003f0: 575b b03b d1a1 58bc 007d b3bd 3e77 2abc

action_model._continuous_distribution.mu.bias f4 [3]
0.04512932 0.09330819 0.07574473
00000000: 86d9 383d 5d18 bf3d 0e20 9b3d

onnx::Div_51 f4 [22]
0.057903126 6.3898735 0.0675507 6.4267163 0.07919798 6.4558053 0.09141763 6.480758
0.09759984 6.495581 0.099627934 6.499269 0.10399389 6.489928 0.107796274 6.465542
0.110840246 6.4267225 0.11067303 6.3827553 0.105283536 6.335946
00000000: d42b 6d3d d879 cc40 0558 8a3d a9a7 cd40
00000010: 8d32 a23d f595 ce40 2b39 bb3d 5f62 cf40
00000020: 6de2 c73d cddb cf40 bb09 cc3d 03fa cf40
00000030: c0fa d43d 7dad cf40 4bc4 dc3d b8e5 ce40
00000040: 3600 e33d b6a7 cd40 8ba8 e23d 883f cc40
00000050: e59e d73d 12c0 ca40
