results/Random1_V0/3DBall/3DBall-801.onnx (onnx, 84394 bytes, 8 tensors)

network_body.observation_encoder.processors.0.normalizer.running_mean f4 [22]
0.0137157105 2.9939482 0.009975062 3.019058 0.006234413 3.0588117 0.0074812975 3.1192155
0.007481298 3.1595366 0.013715711 3.2193274 0.011221945 3.2520964 0.014962594 3.2594175
0.016209476 3.2474627 0.011221944 3.227188 0.0074812975 3.2059681
00000000: dcb7 603c d99c 3f40 716e 233c 3f38 4140
00000010: 0c4a cc3b 92c3 4340 ac25 f53b 3aa1 4740
00000020: ad25 f53b d935 4a40 ddb7 603c 7609 4e40
00000030: 40dc 373c 5922 5040 ab25 753c 4c9a 5040
00000040: bcc9 843c 6ed6 4f40 3fdc 373c 408a 4e40
00000050: ac25 f53b 952e 4d40

network_body._body_endoder.seq_layers.0.weight f4 [128, 22]
0.324452 -0.09156793 0.24160592 0.32015187 0.4785348 -0.50134534 0.118415125 -0.04100277
-0.17161621 0.05618475 -0.08578133 -0.7389104 0.22968557 0.10419827 0.22489838 -0.019167284
0.18956758 0.12050531 -0.15347762 0.17059693 -0.18120949 0.4179079 0.14460409 -0.41505957
0.1597711 0.2731228 0.11390297 -0.036207523 -0.12876658 -0.48623118 -0.1139787 -0.2787451
-0.21308567 -0.3165263 -0.09604315 0.028239375 0.16273466 0.0479286 -0.13176605 -0.11603992
-0.12688312 -0.13896897 0.11288311 0.073796466 -0.3300293 0.17215663 0.1609362 0.19927442
0.03437147 0.44269237 0.046873488 -0.42459133 -0.21380706 -0.17792028 0.38454044 0.17720509
0.08850094 -0.34756175 -0.007015158 -0.5681141 0.40905482 -0.058224853 -0.0006802108 0.039069485
0.2118002 -0.15068568 0.1052044 0.22150888 0.29395628 -0.10829904 -0.049220573 -0.03907685
-0.37133825 0.06464425 -0.07974571 -0.2565881 -0.2628952 0.06894609 0.20310064 -0.097000346
0.04608993 0.0062980903 -0.08542669 0.26479012 -0.48568326 0.1609561 -0.033333655 -0.062229376
-0.07003557 -0.07580585 0.060417425 -0.13696007 0.29860765 -0.028291054 -0.24323834 0.12114077
-0.2849157 0.19896026 -0.23437311 -0.44189072 -0.05672494 -0.03640132 -0.007377796 -0.12724027
-0.37400174 -0.4879189 0.052798975 0.0106992675 -0.09056469 0.045661934 0.113025606 -0.080495656
0.4003358 0.3491533 0.0928598 0.21808298 0.36756247 -0.21582243 0.11290282 -0.32150003
0.21436346 0.12866813 -0.1773376 0.012678647 0.11360388 0.18554878 -0.15177986 0.120332666
-0.122272626 0.116863646 0.120182864 -0.12872273 0.23517278 -0.10481951 -0.02957792 0.04684288
0.14974561 0.07288061 0.19529611 -0.30624354 -0.3436415 -0.14231254 -0.30398172 0.1391494
0.035536055 0.37872714 0.19924243 0.27955183 -0.09041712 0.20215169 -0.122914955 0.058025353
0.08833647 0.05604957 -0.012419069 0.13138421 0.22242089 -0.085462205 0.14883026 -0.039664082
0.32238728 0.30162945 -0.06198769 -0.28668308 0.029929323 -0.056139212 0.30789766 -0.07514812
-0.20106839 -0.18176487 -0.12114793 0.22035284 1.5725867e-05 0.2363044 -0.17663579 0.004402353
-0.08591582 -0.0920779 0.11732885 -0.47639185 0.06080217 0.18169077 -0.10859058 -0.18400332
0.22989939 -0.2317179 -0.202044 0.44580314 0.16662681 0.09396818 -0.17707321 0.086276904
0.03385645 0.12795591 -0.18129513 0.010265325 -0.018580453 -0.14841597 0.13036631 0.03221723
-0.35538706 -0.04027117 -0.029150162 -0.22945635 -0.14757113 0.27572584 0.16572784 -0.03353474
-0.24857089 0.11648375 0.12854922 -0.20172681 0.113644086 0.17295991 -0.12425848 -0.016804049
0.22096603 -0.068205655 -0.12990107 0.22347413 -0.24417038 -0.17701992 -0.006658608 0.016063692
0.13584882 0.32147393 -0.10732963 -0.012013332 0.23955728 -0.02814888 0.047244262 -0.42779842
0.3583089 0.0568709 -0.07396061 -0.23153186 0.12884595 0.07804671 0.100762844 -0.3229962
0.11225669 -0.1557964 -0.0152253825 0.08258117 -0.05609082 -0.053709667 -0.23483127 -0.030053468
-0.05605852 -0.36140904 -0.21532911 0.10631278 -0.048181787 0.31837097 0.4555087 -0.024053007
00000000: 931e a63e f887 bbbd 8b67 773e f2ea a33e
00000010: 8302 f53e 2b58 00bf a183 f23d 85f2 27bd
00000020: 29bc 2fbe fb21 663d 1fae afbd 3b29 3dbf
00000030: b232 6b3e e765 d53d c34b 663e b504 9dbc
00000040: 011e 423e 7dcb f63d 3d29 1dbe f6b0 2e3e
00000050: fb8e 39be 06f8 d53e 1813 143e b082 d4be
00000060: 099b 233e c0d6 8b3e f645 e93d 574e 14bd
00000070: 63db 03be 4bf3 f8be aa6d e9bd aeb7 8ebe
00000080: 2133 5abe bc0f a2be 45b2 c4bd 4356 e73c
00000090: eaa3 263e c850 443d aeed 06be 56a6 edbd
000000a0: a6ed 01be e24d 0ebe 432f e73d 9a22 973d
000000b0: 9af9 a8be d449 303e 76cc 243e 980e 4c3e
000000c0: 19c9 0c3d 93a8 e23e 6afe 3f3d 0964 d9be
000000d0: 3df0 5abe bc30 36be 7ce2 c43e 4075 353e
000000e0: fb3f b53d 9df3 b1be 69df e5bb ed6f 11bf
000000f0: a26f d13e 2f7d 6ebd 2d50 32ba 5307 203d
00000100: 27e2 583e 594d 1abe 6875 d73d 39d3 623e
00000110: 7081 963e e3cb ddbd 839b 49bd 0c0f 20bd
00000120: 0c20 bebe 3464 843d b851 a3bd 845f 83be
00000130: 339a 86be 9c33 8d3d 9df9 4f3e 1ea8 c6bd
00000140: cbc8 3c3d 3660 ce3b 30f4 aebd 9292 873e
00000150: 7aab f8be add1 243e df88 08bd 3be4 7ebd
00000160: cf6e 8fbd 1940 9bbd 4378 773d 433f 0cbe
00000170: 1ae3 983e a4c2 e7bc 7913 79be a718 f83d
00000180: 78e0 91be 3dbc 4b3e 81ff 6fbe 803f e2be
00000190: 6958 68bd 8d19 15bd 70c1 f1bb 464b 02be
000001a0: 287d bfbe 82d0 f9be bd43 583d fb4b 2f3c
000001b0: fb79 b9bd 0208 3b3d f879 e73d e8da a4bd
000001c0: d0f8 cc3e 39c4 b23e 472d be3d 2551 5f3e
000001d0: 2631 bc3e 8e00 5dbe 9839 e73d a79b a4be
000001e0: 1882 5b3e 94c1 033e fd97 35be 1aba 4f3c
000001f0: 27a9 e83d 8000 3e3e 2e6c 1bbe f970 f63d
00000200: 126a fabd 3556 ef3d 6f22 f63d e4cf 03be
00000210: 22d1 703e 9cab d6bd 654d f2bc 52de 3f3d
00000220: ea56 193e 6e42 953d b4fb 473e f4cb 9cbe
00000230: c7f1 afbe 61ba 11be 7ea3 9bbe 2e7d 0e3e
00000240: 418e 113d 86e8 c13e 3506 4c3e 6b21 8f3e
00000250: 9c2c b9bd da00 4f3e d6ba fbbd feab 6d3d
00000260: c0e9 b43d 3c94 653d 5a79 4bbc 9589 063e
00000270: 4dc2 633e cf06 afbd f666 183e ce76 22bd
00000280: f20f a53e 2d6f 9a3e cee6 7dbd 20c8 92be
00000290: 572e f53c 3bf2 65bd c3a4 9d3e 42e7 99bd
000002a0: dfe4 4dbe 9220 3abe 681c f8bd 2da4 613e
000002b0: 0beb 8337 c8f9 713e 03e0 34be 9d41 903b
000002c0: a2f4 afbd 5793 bcbd 1c4a f03d a2e9 f3be
000002d0: b20b 793d 250d 3a3e bd64 debd 5e6b 3cbe
000002e0: bf6a 6b3e 7547 6dbe 9fe4 4ebe 4f40 e43e
000002f0: 38a0 2a3e 6472 c03d ae52 35be f2b1 b03d
00000300: 10ad 0a3d e006 033e 6ea5 39be e52f 283c
00000310: 0936 98bc 5bfa 17be bf7e 053e 37f6 033d
00000320: 4bf5 b5be 62f3 24bd 52cc eebc 9bf6 6abe
00000330: e31c 17be f02b 8d3e 8fb4 293e b95b 09bd
00000340: 5e89 7ebe 088f ee3d 68a2 033e 7991 4ebe
00000350: 3bbe e83d 671c 313e 3b7b febd a5a8 89bc
00000360: eb44 623e 68af 8bbd c904 05be 67d6 643e
00000370: cd07 7abe b644 35be 7430 dabb 0198 833c
00000380: f41b 0b3e 3b98 a43e a3cf dbbd 91d3 44bc
00000390: 814e 753e 7b98 e6bc 3383 413d 6508 dbbe
000003a0: 4474 b73e 76f1 683d a978 97bd b016 6dbe
000003b0: 31f0 033e f4d6 9f3d c05c ce3d c25f a5be
000003c0: d6e6 e53d 1789 1fbe e273 79bc 5120 a93d
000003d0: 7dbf 65bd abfe 5bbd 9c77 70be b132 f6bc
000003e0: 9e9d 65bd 9b0a b9be 3c7f 5cbe 84ba d93d
000003f0: 445a 45bd 8501 a33e 7038 e93e d00a c5bc

network_body._body_endoder.seq_layers.0.bias f4 [128]
0.0 0.0 0.0 0.0 0.0 0.0 0.0 0.0
0.0 0.0 0.0 0.0 0.0 0.0 0.0 0.0
0.0 0.0 0.0 0.0 0.0 0.0 0.0 0.0
0.0 0.0 0.0 0.0 0.0 0.0 0.0 0.0
0.0 0.0 0.0 0.0 0.0 0.0 0.0 0.0
0.0 0.0 0.0 0.0 0.0 0.0 0.0 0.0
0.0 0.0 0.0 0.0 0.0 0.0 0.0 0.0
0.0 0.0 0.0 0.0 0.0 0.0 0.0 0.0
0.0 0.0 0.0 0.0 0.0 0.0 0.0 0.0
0.0 0.0 0.0 0.0 0.0 0.0 0.0 0.0
0.0 0.0 0.0 0.0 0.0 0.0 0.0 0.0
0.0 0.0 0.0 0.0 0.0 0.0 0.0 0.0
0.0 0.0 0.0 0.0 0.0 0.0 0.0 0.0
0.0 0.0 0.0 0.0 0.0 0.0 0.0 0.0
0.0 0.0 0.0 0.0 0.0 0.0 0.0 0.0
0.0 0.0 0.0 0.0 0.0 0.0 0.0 0.0
00000000: 0000 0000 0000 0000 0000 0000 0000 0000
00000010: 0000 0000 0000 0000 0000 0000 0000 0000
00000020: 0000 0000 0000 0000 0000 0000 0000 0000
00000030: 0000 0000 0000 0000 0000 0000 0000 0000
00000040: 0000 0000 0000 0000 0000 0000 0000 0000
00000050: 0000 0000 0000 0000 0000 0000 0000 0000
00000060: 0000 0000 0000 0000 0000 0000 0000 0000
00000070: 0000 0000 0000 0000 0000 0000 0000 0000
00000080: 0000 0000 0000 0000 0000 0000 0000 0000
00000090: 0000 0000 0000 0000 0000 0000 0000 0000
000000a0: 0000 0000 0000 0000 0000 0000 0000 0000
000000b0: 0000 0000 0000 0000 0000 0000 0000 0000
000000c0: 0000 0000 0000 0000 0000 0000 0000 0000
000000d0: 0000 0000 0000 0000 0000 0000 0000 0000
000000e0: 0000 0000 0000 0000 0000 0000 0000 0000
000000f0: 0000 0000 0000 0000 0000 0000 0000 0000
00000100: 0000 0000 0000 0000 0000 0000 0000 0000
00000110: 0000 0000 0000 0000 0000 0000 0000 0000
00000120: 0000 0000 0000 0000 0000 0000 0000 0000
00000130: 0000 0000 0000 0000 0000 0000 0000 0000
00000140: 0000 0000 0000 0000 0000 0000 0000 0000
00000150: 0000 0000 0000 0000 0000 0000 0000 0000
00000160: 0000 0000 0000 0000 0000 0000 0000 0000
00000170: 0000 0000 0000 0000 0000 0000 0000 0000
00000180: 0000 0000 0000 0000 0000 0000 0000 0000
00000190: 0000 0000 0000 0000 0000 0000 0000 0000
000001a0: 0000 0000 0000 0000 0000 0000 0000 0000
000001b0: 0000 0000 0000 0000 0000 0000 0000 0000
000001c0: 0000 0000 0000 0000 0000 0000 0000 0000
000001d0: 0000 0000 0000 0000 0000 0000 0000 0000
000001e0: 0000 0000 0000 0000 0000 0000 0000 0000
000001f0: 0000 0000 0000 0000 0000 0000 0000 0000

network_body._body_endoder.seq_layers.2.weight f4 [128, 128]
-0.0066541014 -0.043054633 -0.06155861 0.015890596 0.052862756 0.11962481 0.031517617 0.09976832
-0.0072965045 0.036847625 -0.00492249 0.03165546 0.106683515 -0.013135098 -0.13882251 -0.015028967
0.015598501 -0.066645354 -0.17175123 -0.049753375 0.022013793 0.025294093 -0.09183057 0.031847402
0.080616616 -0.05166623 0.021698633 0.074188866 -0.032133766 -0.17264424 -0.065366484 0.03182146
0.060055632 0.034508236 0.017542262 0.03637939 0.06245548 0.12701085 -0.006291074 -0.04867018
-0.056711335 0.02993966 -0.05223741 0.06386905 0.009929733 0.022145556 0.12697288 0.12175178
-0.028524168 0.053774536 0.08792402 -0.012067913 -0.08907063 0.00034576328 -0.083914004 0.008945904
0.056605596 0.11291095 -0.11146979 -0.041554138 0.05517441 0.00962678 -0.004723878 -0.057332948
-0.041128058 0.06756453 -0.04570507 -0.058988865 0.057848815 0.09842814 -0.0947492 -0.08721041
-0.020558752 -0.11610502 -0.059711833 0.08959682 -0.08554548 -0.14284962 -0.026135743 -0.011139157
-0.042373378 0.15601812 0.14625637 -0.003881416 0.0029439286 -0.02126418 -0.16250776 -0.06964871
-0.02926827 0.056008007 0.14894538 -0.064212665 0.079916894 0.071884006 -0.0030397878 0.042710613
0.17634256 -0.036299985 -0.124940686 0.20845363 0.0817062 -0.07756942 0.0047686337 -0.034757122
-0.06824827 -0.026963884 0.046588305 -0.040799655 -0.20663965 0.15342377 0.06831069 0.14511505
-0.008179891 -0.074244134 0.0792316 0.009693105 -0.042991977 0.037168846 0.1856716 -0.045221053
-0.030487476 -0.0049164193 0.104740635 0.01168002 -0.0039004474 0.10645562 0.049984682 0.030859597
0.15143801 0.05283496 -0.1326209 0.030887304 -0.14511923 0.1369891 0.027107669 -0.04713899
-0.013044491 0.039047692 0.027706165 -0.21310201 0.18497334 -0.10777158 0.04300726 0.16322103
0.009149174 0.0101520615 -0.04158834 0.042113625 0.00086956396 0.09831489 -0.031371422 0.2039921
0.024716742 -0.011013113 0.124756105 -0.2021359 0.07171539 0.1848397 -0.07497593 -0.15042152
-0.14254233 0.014497424 -0.13049825 0.041278064 -0.1691792 0.03603437 0.05519725 0.12200928
-0.10146342 0.028000817 0.047163628 0.010001501 -0.24601981 0.09852272 0.06958376 -0.020166999
0.004540671 -0.08035974 0.21238498 -0.025471142 -0.090762876 -0.028705146 -0.06826781 -0.035430234
-0.18965447 -0.036518857 -0.15154518 -0.2163588 0.039297167 0.054729693 -0.10613467 -0.013518961
-0.13523982 -0.06383149 -0.05562 0.08834918 0.10789619 -0.22331798 -0.025053602 0.007679171
0.13815363 -0.08054782 -0.058641993 0.07491844 -0.122010306 -0.020950206 0.0606772 -0.16658895
-0.04082826 0.0577025 0.031640273 -0.11266106 0.045619365 -0.025899787 -0.1145961 0.009054082
-0.018891592 0.056984093 -0.27248874 0.0371262 0.0063851816 0.0577228 0.055531543 0.17845361
-0.0326128 -0.011551727 0.067862734 -0.086252525 0.0025921967 0.09733022 -0.08064326 -0.04370297
0.023477983 0.009841084 -0.0020357182 0.027157165 -0.12553594 0.104155734 -0.14955162 -0.08225576
0.12576404 0.10858963 -0.13319339 0.014425749 0.15773064 0.0135628395 -0.04314999 -0.060714137
-0.08409767 -0.026472306 0.038637966 0.0043276115 -0.018397791 0.06828283 -0.016966917 0.0904172
00000000: a60a dabb 0e5a 30bd e224 7cbd ff2c 823c
00000010: 9e86 583d dafd f43d 9e18 013d 5553 cc3d
00000020: 8417 efbb 89ed 163d d74c a1bb 28a9 013d
00000030: e37c da3d 9834 57bc 7d27 0ebe 0e3c 76bc
00000040: db90 7f3c 5c7d 88bd 8edf 2fbe 32ca 4bbd
00000050: 4556 b43c 8f35 cf3c aa11 bcbd 6c72 023d
00000060: 531a a53d f89f 53bd 55c1 b13c 55f0 973d
00000070: b29e 03bd a7c9 30be ddde 85bd 3857 023d
00000080: e5fc 753d 8258 0d3d cab4 8f3c 8e02 153d
00000090: 51d1 7f3d 220f 023e 5b25 cebb 625a 47bd
000000a0: 254a 68bd 0544 f53c e5f6 55bd c7cd 823d
000000b0: 52b0 223c 996a b53c 2e05 023e ff58 f93d
000000c0: 84ab e9bc b042 5c3d 8211 b43d 7fb8 45bc
000000d0: aa6a b6bd 9047 b539 1bdb abbd d791 123c
000000e0: 45db 673d db3d e73d 464a e4bd ac34 2abd
000000f0: 90fe 613d a4b9 1d3c c3ca 9abb f4d5 6abd
00000100: e575 28bd 465f 8a3d 3d35 3bbd 4f9e 71bd
00000110: e1f2 6c3d b194 c93d de0b c2bd 5f9b b2bd
00000120: d46a a8bc 78c8 edbd 6594 74bd 8a7e b73d
00000130: 7832 afbd 2c47 12be a01a d6bc 0381 36bc
00000140: b58f 2dbd 37c3 1f3e 3bc4 153e 5b5f 7ebb
00000150: edee 403b 3832 aebc 6f68 26be fca3 8ebd
00000160: 03c4 efbc a768 653d 2385 183e ee81 83bd
00000170: 78ab a33d ec37 933d 2d37 47bb 53f1 2e3d
00000180: 2593 343e 4baf 14bd e7e0 ffbd de74 553e
00000190: 9555 a73d b7dc 9ebd 3342 9c3b 7c5d 0ebd
000001a0: c0c5 8bbd 5de3 dcbc 61d3 3e3d 8a1d 27bd
000001b0: 5899 53be 1f1b 1d3e 7ae6 8b3d 0a99 143e
000001c0: f304 06bc 4f0d 98bd 2d44 a23d d4cf 1e3c
000001d0: 5b18 30bd 5c3e 183d b220 3e3e b639 39bd
000001e0: dfc0 f9bc ea19 a1bb 4282 d63d 8e5d 3f3c
000001f0: a69e 7fbb 6705 da3d bdbc 4c3d 44cd fc3c
00000200: 9112 1b3e 7969 583d c6cd 07be 5f07 fd3c
00000210: 239a 14be df46 0c3e e710 de3c d014 41bd
00000220: 90b8 55bc 79f0 1f3d 0af8 e23c 6a37 5abe
00000230: a769 3d3e 59b7 dcbd 6128 303d 6a23 273e
00000240: 6be6 153c d554 263c 8958 2abd 567f 2c3d
00000250: 73f3 633a 5159 c93d 527f 00bd 4ee3 503e
00000260: c47a ca3c 5870 34bc 2180 ff3d b7fc 4ebe
00000270: 85df 923d 9e46 3d3e fb8c 99bd 1908 1abe
00000280: 9ef6 11be 9a86 6d3c 55a1 05be 3013 293d
00000290: 503d 2dbe c798 133d 8316 623d 00e0 f93d
000002a0: 0ecc cfbd f861 e53c a62e 413d 56dd 233c
000002b0: 9eec 7bbe 48c6 c93d ee81 8e3d 4335 a5bc
000002c0: e9c9 943b a693 a4bd 737b 593e dba8 d0bc
000002d0: e3e1 b9bd 0e27 ebbc fecf 8bbd 4b1f 11bd
000002e0: c834 42be cc94 15bd a92e 1bbe 298d 5dbe
000002f0: 11f6 203d 3e2c 603d 225d d9bd a27e 5dbc
00000300: 4f7c 0abe 16ba 82bd ccd1 63bd 6af0 b43d
00000310: adf8 dc3d 78ad 64be 363d cdbc 8ea1 fb3b
00000320: 2578 0d3e 41f6 a4bd 9632 70bd d76e 993d
00000330: 8ae0 f9bd c49f abbc a888 783d 4b96 2abe
00000340: 893b 27bd 7559 6c3d 3b99 013d d8ba e6bd
00000350: 5fdb 3a3d ca2b d4bc 5cb1 eabd 9357 143c
00000360: 8ac2 9abc 2768 693d a583 8bbe a411 183d
00000370: c93a d13b be6e 6c3d 0b75 633d 8bbc 363e
00000380: 0095 05bd 7443 3dbc 9efb 8a3d 2aa5 b0bd
00000390: d8e1 293b 1155 c73d 4b28 a5bd e301 33bd
000003a0: e654 c03c 7f3c 213c af69 05bb b478 de3c
000003b0: 7e8c 00be 9a4f d53d 0f24 19be b575 a8bd
000003c0: 4ac8 003e 3d64 de3d d963 08be fa59 6c3c
000003d0: 2484 213e ac36 5e3c 0bbe 30bd 63af 78bd
000003e0: 663b acbd 73dc d8bc d842 1e3d a3ce 8d3b
000003f0: f7b6 96bc ded7 8b3d 34fe 8abc a72c b93d

action_model._continuous_distribution.log_sigma f4 [1, 3]
0.0 0.0 0.0
00000000: 0000 0000 0000 0000 0000 0000

action_model._continuous_distribution.mu.weight f4 [3, 128]
-0.014829281 0.0074084573 -0.0050107525 -0.05534025 0.0050838864 0.0040820404 -0.02033165 0.007262077
0.016852194 0.003294775 -0.007161482 -0.0029274898 -0.006088396 0.008004549 0.025705129 -0.014141403
-0.0101605635 -0.010171052 0.007333363 0.008543283 -0.0069050738 0.018224213 -0.01991925 -0.016227728
-0.02737918 0.023565732 -0.01171043 0.0031979845 -0.0031430572 0.013843651 -0.02071674 0.037609063
-0.005456259 0.008839087 -0.022020934 0.020488499 -0.0050825435 -0.014942366 -0.004559701 -0.014396235
0.0021846427 0.013447197 -0.0072199325 0.01340952 0.001957589 0.005352612 0.0032394987 0.0005280901
-0.0027289446 -0.0012873297 0.0011305348 -0.02479101 -0.0046782442 0.0006612078 0.0063745836 -0.018978644
0.014408364 -0.011197073 0.02514878 0.00981599 0.028563995 0.00081728626 0.018453224 -0.0048798616
-0.024491664 -0.0110006165 -0.019676363 -0.030149756 -0.0048392853 -0.0124721695 -0.014268882 0.00799077
0.0015093171 0.0005188409 0.00034099424 -0.046477426 -0.018789133 -0.01622969 -0.0071530263 -0.0035539845
-0.005216421 0.02436327 -0.010228257 0.0017738857 0.013542408 -0.004805932 0.016140712 0.017830726
0.015707789 0.019732071 -8.434688e-05 -0.0042157164 0.011010299 -0.007883194 -0.005638516 -0.010016369
0.007216656 0.0016971376 0.0055829096 0.0031780766 0.017800266 0.0052941344 -0.008815254 -0.0024449332
0.0077802115 -0.0021026821 0.016740663 -0.015076503 -0.015225032 -0.008627561 0.01612865 -0.021810887
-0.011662823 0.02386787 0.0012050732 0.023657905 0.020400403 -0.005971966 -0.012924551 0.008269369
-0.0014787269 -0.005454676 -0.024689257 0.004455783 -0.011819114 0.021337999 0.02170105 -0.02372422
-0.010564222 0.004722339 0.006814731 -0.016463473 -0.020615332 -0.0007174701 -0.0017229252 -0.02172046
0.018601008 -0.022686098 -0.017028628 -0.01647686 0.031282086 0.04180103 -0.00010501494 0.020825062
-0.00096429884 0.021807915 0.015121159 0.019045679 0.0091735 -0.0064845756 -0.026084399 0.001666493
-0.017505199 -2.8686558e-05 -0.0068840617 0.011351173 0.0016780803 0.058211625 -0.0026892964 0.016883565
-0.017083867 0.005887657 0.009472708 -0.002355191 0.013588259 -0.017081415 0.009705356 -0.0173713
0.009944106 -0.028853206 -0.02438842 0.005200085 0.03444059 -0.0331282 -0.006845446 -0.010582524
-0.0027860303 0.03217965 0.031510133 0.013628296 0.02433729 0.01715788 -0.019955901 0.012877402
0.0051735025 0.02192699 -0.0014437836 0.004469739 -0.0020129855 0.0061902865 -0.007658119 -0.00025578003
7.224667e-05 0.03237778 0.0028341152 -0.016002381 0.005163877 0.029707188 0.01070911 0.013068485
0.013208549 0.006546508 -0.015017562 0.0047304477 0.025769148 0.0021481044 0.03186923 -0.009775976
0.004235977 -0.0021324905 0.014918526 0.015372935 -0.0037878067 -0.004451992 -0.003890595 -0.013776285
0.021375889 0.0054500415 -0.035731446 0.029794896 -0.0037241827 -0.019935725 0.0141794775 0.00092655653
-0.021700634 -0.00083126355 -0.0049987803 -0.01616365 0.034617085 -0.01652691 0.0017244179 0.021073176
-0.025081804 -2.0605408e-05 -0.019192234 -0.012739979 -0.013184029 0.011168626 -0.031530794 -0.00365804
0.0036022493 -0.0028181 0.010844842 0.0043598125 0.012003297 0.0025805735 0.0002638885 -0.01839692
0.0064627356 0.026004693 0.005721418 0.009346855 -0.018348178 -0.012767084 -0.029203087 0.03841563
00000000: 83f6 72bc a5c2 f23b 3d31 a4bb 75ac 62bd
00000010: bb96 a63b a3c2 853b 8f8e a6bc b8f6 ed3b
00000020: 9d0d 8a3c 27ed 573b ddaa eabb 21db 3fbb
00000030: 2b81 c7bb 8325 033c 9093 d23c 58b1 67bc
00000040: 7e78 26bc 7ca4 26bc b54c f03b 20f9 0b3c
00000050: f543 e2bb f24a 953c b22d a3bc 03f0 84bc
00000060: 4d4a e0bc ec0c c13c 1add 3fbc 4795 513b
00000070: c0fb 4dbb 7bd0 623c 27b6 a9bc f60b 1a3d
00000080: 6bca b2bb d1d1 103c 3f65 b4bc 7fd7 a73c
00000090: 778b a6bb d3d0 74bc 8b69 95bb 30de 6bbc
000000a0: 392c 0f3b a251 5c3c 2f95 ecbb 9ab3 5b3c
000000b0: e54a 003b f764 af3b c54d 543b 876f 0a3a
000000c0: 18d8 32bb 9ebb a8ba 742e 943a 8416 cbbc
000000d0: f54b 99bb e854 2d3a e2e1 d03b 1a79 9bbc
000000e0: 0f11 6c3c ee73 37bc d004 ce3c 3fd3 203c
000000f0: 0aff e93c 273f 563a 372b 973c 3fe7 9fbb
00000100: bea2 c8bc ee3b 34bc 5330 a1bc 9ffc f6bc
00000110: de92 9ebb 1258 4cbc 07c8 69bc b8eb 023c
00000120: 47d4 c53a d302 083a 79c7 b239 1d5f 3ebd
00000130: abeb 99bc 20f4 84bc ef63 eabb f7e9 68bb
00000140: 83ee aabb 7b95 c73c 6b94 27bc ba81 e83a
00000150: fae0 5d3c 147b 9dbb 8739 843c be11 923c
00000160: 9fad 803c 27a5 a13c 63e3 b0b8 fe23 8abb
00000170: 8b64 343c 8328 01bc 4dc3 b8bb b21b 24bc
00000180: b379 ec3b 7d72 de3a d7f0 b63b 4747 503b
00000190: ddd1 913c 6b7a ad3b db6d 10bc 2c3b 20bb
000001a0: 25f1 fe3b 27cd 09bb b723 893c 7003 77bc
000001b0: 6a72 79bc 9d5a 0dbc 3b20 843c bfac b2bc
000001c0: 6d15 3fbc 8d86 c33c 8cf3 9d3a 39ce c13c
000001d0: bf1e a73c 7bb0 c3bb 7fc1 53bc 3f7c 073c
000001e0: d7d1 c1ba 24bd b2bb 2041 cabc d101 923b
000001f0: f5a4 41bc 07cd ae3c 67c6 b13c 4c59 c2bc
00000200: 8f15 2dbc dabd 9a3b 1b4e df3b 68de 86bc
00000210: 7ce1 a8bc 9a14 3cba c7d3 e1ba 1bef b1bc
00000220: 2461 983c 32d8 b9bc 9f7f 8bbc 7bfa 86bc
00000230: a521 003d 8f37 2b3d 773b dcb8 5299 aa3c
00000240: 00c9 7cba 83a6 b23c bdbe 773c af05 9c3c
00000250: 734c 163c 907c d4bb f3ae d5bc 3a6e da3a
00000260: 1067 8fbc eaa3 f0b7 b293 e1bb 45fa 393c
00000270: 08f3 db3a 506f 6e3d e83e 30bb 674f 8a3c
00000280: 77f3 8bbc 3fed c03b 6b33 1b3c 8c59 1abb
00000290: 4aa1 5e3c 53ee 8bbc 3703 1f3c 424e 8ebc
000002a0: 9bec 223c 8f5d ecbc 39ca c7bc 7a65 aa3b
000002b0: 9311 0d3d 6fb1 07bd c34f e0bb 5362 2dbc
000002c0: d595 36bb cfce 033d c510 013d 3749 5f3c
000002d0: ff5e c73c af8e 8c3c 8f7a a3bc bdfb 523c
000002e0: 7c86 a93b 3ba0 b33c 573d bdba e376 923b
000002f0: 4bec 03bb e3d7 ca3b f5f0 fabb 371a 86b9
00000300: 2383 9738 909e 043d 90bc 393b 6d17 83bc
00000310: bd35 a93b 7d5c f33c 4375 2f3c 331d 563c
00000320: ab68 583c 1784 d63b 380c 76bc df01 9b3b
00000330: d219 d33c 36c7 0c3b 4f89 023d 6a2b 20bc
00000340: f3cd 8a3b 41c1 0bbb d56c 743c c3de 7b3c
00000350: da3c 78bb 04e2 91bb 5af9 7ebb edb5 61bc
00000360: 7d1c af3c 4396 b23b 235b 12bd 6d14 f43c
00000370: 6b11 74bb 3f50 a3bc 0a51 683c 28e4 723a
00000380: 87c5 b1bc 27e9 59ba cfcc a3bb a269 84bc
00000390: a5ca 0d3d 7163 87bc dd05 e23a a7a1 ac3c
000003a0: 5b78 cdbc c7d9 acb7 0839 9dbc 58bb 50bc
000003b0: d301 58bc 9dfc 363c 6f26 01bd babb 6fbb
000003c0: b713 6c3b dfaf 38bb 90ae 313c c2dc 8e3b
000003d0: 7aa9 443c d71e 293b 845a 8a39 23b5 96bc
000003e0: 5bc5 d33b cb07 d53c bc7a bb3b 8d23 193c
000003f0: eb4e 96bc 082d 51bc 503b efbc b559 1d3d

action_model._continuous_distribution.mu.bias f4 [3]
0.0 0.0 0.0
00000000: 0000 0000 0000 0000 0000 0000

onnx::Div_51 f4 [22]
0.12155029 5.7649384 0.10546299 5.766959 0.086269505 5.7680883 0.093124695 5.769045
0.093124695 5.7698894 0.12155029 5.772628 0.11109859 5.776965 0.12643415 5.7795486
0.1311244 5.7848296 0.11109859 5.7895994 0.093124695 5.792946
00000000: 5cef f83d 607a b840 fbfc d73d ee8a b840
00000010: 11ae b03d 2e94 b840 29b8 be3d 049c b840
00000020: 29b8 be3d efa2 b840 5cef f83d 5eb9 b840
00000030: a887 e33d e6dc b840 f477 013e 10f2 b840
00000040: 7a45 063e 531d b940 a887 e33d 6644 b940
00000050: 29b8 be3d d05f b940
