results/currentRun/3DBall/3DBall-2554.pt (torch, 212482 bytes, 21 tensors)

network_body.observation_encoder.processors.0.normalizer.running_mean f4 [62]
00000000: f27c 133c 44a0 0f40 bba9 063c c8a1 0f40
00000010: 2040 003c 37c6 0f40 2040 003c 78b3 0f40
00000020: baa9 063c 5caa 0f40 baa9 063c 8897 0f40
00000030: 2040 003c bfa3 0f40 1f40 003c 2fa9 0f40
00000040: 9c06 da3b 88b3 0f40 9e06 da3b b9cb 0f40
00000050: d4d9 e63b 87c4 0f40 08ad f33b abbc 0f40
00000060: bca9 063c 82bd 0f40 2040 003c 8ac8 0f40
00000070: bba9 063c 84d2 0f40 bba9 063c c1bb 0f40
00000080: 0bad f33b 13bb 0f40 2040 003c 55b1 0f40
00000090: 0bad f33b aab9 0f40 2040 003c b5ac 0f40
000000a0: 9e06 da3b 5eb3 0f40 d4d9 e63b 46bb 0f40
000000b0: d4d9 e63b 17b7 0f40 9e06 da3b 7fa8 0f40
000000c0: 0bad f33b b3bc 0f40 9e06 da3b afcb 0f40
000000d0: 0aad f33b a09d 0f40 1f40 003c 03a6 0f40
000000e0: bba9 063c d697 0f40 bba9 063c 01a7 0f40
000000f0: bba9 063c 57a0 0f40
0.009001957 2.2441568 0.008219178 2.2442493 0.007827789 2.246473 0.007827789 2.245329
0.008219177 2.244773 0.008219177 2.2436237 0.007827789 2.2443693 0.007827788 2.2447011
0.00665362 2.2453327 0.006653621 2.2468092 0.00704501 2.24637 0.0074363984 2.2458904
0.008219179 2.2459416 0.007827789 2.246615 0.008219178 2.2472239 0.008219178 2.2458346
0.0074364 2.245793 0.007827789 2.2451985 0.0074364 2.245707 0.007827789 2.2449162
0.006653621 2.2453227 0.00704501 2.2458053 0.00704501 2.24555 0.006653621 2.2446592
0.0074364 2.2458923 0.006653621 2.2468069 0.0074363993 2.2439957 0.007827788 2.2445076
0.008219178 2.2436423 0.008219178 2.244568 0.008219178 2.2441614

network_body.observation_encoder.processors.0.normalizer.running_variance f4 [62]
00000000: f857 be41 5006 f446 829e ae41 f41a f446
00000010: 61bf a641 cf55 f446 61bf a641 df44 f446
00000020: 839e ae41 742f f446 839e ae41 3a1f f446
00000030: 61bf a641 5c41 f446 60bf a641 554e f446
00000040: 5a18 8f41 507f f446 5918 8f41 0f9b f446
00000050: 4bfc 9641 6194 f446 a4de 9e41 a997 f446
00000060: 839e ae41 209c f446 60bf a641 28b6 f446
00000070: 839e ae41 97ba f446 839e ae41 d9a4 f446
00000080: a3de 9e41 f9bb f446 60bf a641 39b0 f446
00000090: a2de 9e41 20ce f446 60bf a641 3fc0 f446
000000a0: 5818 8f41 c3ee f446 4afc 9641 3afd f446
000000b0: 4afc 9641 bf06 f546 5818 8f41 ed04 f546
000000c0: a2de 9e41 6314 f546 5818 8f41 fe38 f546
000000d0: a2de 9e41 1304 f546 5ebf a641 8616 f546
000000e0: 829e ae41 800d f546 829e ae41 3f2f f546
000000f0: 829e ae41 2430 f546
23.792953 31235.156 21.827396 31245.477 20.843447 31274.904 20.843447 31266.436
21.827398 31255.727 21.827398 31247.613 20.843447 31264.68 20.843445 31271.166
17.88689 31295.656 17.886889 31309.53 18.87319 31306.19 19.858711 31307.83
21.827398 31310.062 20.843445 31323.078 21.827398 31325.295 21.827398 31314.424
19.85871 31325.986 20.843445 31320.111 19.858707 31335.062 20.843445 31328.123
17.886887 31351.38 18.873188 31358.613 18.873188 31363.373 17.886887 31362.463
19.858707 31370.193 17.886887 31388.496 19.858707 31362.037 20.843441 31371.262
21.827396 31366.75 21.827396 31383.623 21.827396 31384.07

network_body.processors.0.normalizer.running_mean f4 [62]
00000000: f27c 133c 44a0 0f40 bba9 063c c8a1 0f40
00000010: 2040 003c 37c6 0f40 2040 003c 78b3 0f40
00000020: baa9 063c 5caa 0f40 baa9 063c 8897 0f40
00000030: 2040 003c bfa3 0f40 1f40 003c 2fa9 0f40
00000040: 9c06 da3b 88b3 0f40 9e06 da3b b9cb 0f40
00000050: d4d9 e63b 87c4 0f40 08ad f33b abbc 0f40
00000060: bca9 063c 82bd 0f40 2040 003c 8ac8 0f40
00000070: bba9 063c 84d2 0f40 bba9 063c c1bb 0f40
00000080: 0bad f33b 13bb 0f40 2040 003c 55b1 0f40
00000090: 0bad f33b aab9 0f40 2040 003c b5ac 0f40
000000a0: 9e06 da3b 5eb3 0f40 d4d9 e63b 46bb 0f40
000000b0: d4d9 e63b 17b7 0f40 9e06 da3b 7fa8 0f40
000000c0: 0bad f33b b3bc 0f40 9e06 da3b afcb 0f40
000000d0: 0aad f33b a09d 0f40 1f40 003c 03a6 0f40
000000e0: bba9 063c d697 0f40 bba9 063c 01a7 0f40
000000f0: bba9 063c 57a0 0f40
0.009001957 2.2441568 0.008219178 2.2442493 0.007827789 2.246473 0.007827789 2.245329
0.008219177 2.244773 0.008219177 2.2436237 0.007827789 2.2443693 0.007827788 2.2447011
0.00665362 2.2453327 0.006653621 2.2468092 0.00704501 2.24637 0.0074363984 2.2458904
0.008219179 2.2459416 0.007827789 2.246615 0.008219178 2.2472239 0.008219178 2.2458346
0.0074364 2.245793 0.007827789 2.2451985 0.0074364 2.245707 0.007827789 2.2449162
0.006653621 2.2453227 0.00704501 2.2458053 0.00704501 2.24555 0.006653621 2.2446592
0.0074364 2.2458923 0.006653621 2.2468069 0.0074363993 2.2439957 0.007827788 2.2445076
0.008219178 2.2436423 0.008219178 2.244568 0.008219178 2.2441614

network_body.processors.0.normalizer.running_variance f4 [62]
00000000: f857 be41 5006 f446 829e ae41 f41a f446
00000010: 61bf a641 cf55 f446 61bf a641 df44 f446
00000020: 839e ae41 742f f446 839e ae41 3a1f f446
00000030: 61bf a641 5c41 f446 60bf a641 554e f446
00000040: 5a18 8f41 507f f446 5918 8f41 0f9b f446
00000050: 4bfc 9641 6194 f446 a4de 9e41 a997 f446
00000060: 839e ae41 209c f446 60bf a641 28b6 f446
00000070: 839e ae41 97ba f446 839e ae41 d9a4 f446
00000080: a3de 9e41 f9bb f446 60bf a641 39b0 f446
00000090: a2de 9e41 20ce f446 60bf a641 3fc0 f446
000000a0: 5818 8f41 c3ee f446 4afc 9641 3afd f446
000000b0: 4afc 9641 bf06 f546 5818 8f41 ed04 f546
000000c0: a2de 9e41 6314 f546 5818 8f41 fe38 f546
000000d0: a2de 9e41 1304 f546 5ebf a641 8616 f546
000000e0: 829e ae41 800d f546 829e ae41 3f2f f546
000000f0: 829e ae41 2430 f546
23.792953 31235.156 21.827396 31245.477 20.843447 31274.904 20.843447 31266.436
21.827398 31255.727 21.827398 31247.613 20.843447 31264.68 20.843445 31271.166
17.88689 31295.656 17.886889 31309.53 18.87319 31306.19 19.858711 31307.83
21.827398 31310.062 20.843445 31323.078 21.827398 31325.295 21.827398 31314.424
19.85871 31325.986 20.843445 31320.111 19.858707 31335.062 20.843445 31328.123
17.886887 31351.38 18.873188 31358.613 18.873188 31363.373 17.886887 31362.463
19.858707 31370.193 17.886887 31388.496 19.858707 31362.037 20.843441 31371.262
21.827396 31366.75 21.827396 31383.623 21.827396 31384.07

network_body._body_endoder.seq_layers.0.weight f4 [128, 62]
00000000: df9b 12be ae9a 4dbe 18cb 3c3d a6bb 0fbe
00000010: 48ea 123e 6a84 96bd 768f 0e3d 0068 2dbe
00000020: c943 21be a0e3 3e3e 7b4b 91bd 312f d1bd
00000030: 1cf9 5cbe 4d86 423c c41d 24be 1fbc ea3d
00000040: 75c3 853d bdb3 143e e0ec 9f3d bad8 cebc
00000050: 3a8a f63d 6fbd fa3c 1588 b73d 6081 7dbd
00000060: e805 f23d e4ce da3d b75d c0bd 66ab 5f3d
00000070: 7863 e23d d514 30be bea4 a6bb ca16 b93c
00000080: ad6d 32be 998a 563e f9aa 50bd 34ee 403e
00000090: fae4 523d d38a ff3d 26f1 a8ba ba50 fb3d
000000a0: 8d5c 93be fef0 073d 91c4 3cbe aa10 e23d
000000b0: bf4c 52bd 8d65 823e 363b 92bd a738 e7be
000000c0: 63e2 52bb 920e afbb 94dc 3c3d 95e8 68be
000000d0: e3fd a1bd 43d8 47be d659 a6bd af79 223e
000000e0: 2c92 b2bd d9b0 2a3e f99b c13d 9769 60be
000000f0: 7008 89bd adf1 e4bc 3c5f 1dbe 43ba 03be
00000100: dc60 44bd 9753 343b 73c0 d93d 578d 5b3c
00000110: fd2f a43c d1dc 64bd 0949 3d3d 7280 783e
00000120: 71f6 14be 9cd2 c8bb 6da0 41bd 21c3 1dbb
00000130: a3fb 4bbe cf82 be3d 427c 633e e7fd bbbd
00000140: e117 023e 0b17 1e3e 3d22 adbd ce64 cd3e
00000150: 3ced 79bc f53c 49be 1300 4dbd b4da 2ebd
00000160: 7732 d93c e43e cb3d d5bc d03d b2f7 f63c
00000170: a4b8 3d3c 8c99 3f3e 5cb9 f63d 6a95 263e
00000180: ee5f e83d 8cd4 df3d 4101 7d3d ec0b e1bc
00000190: a22b 103e e7bf 81bc 8aa1 60be 3a01 4abe
000001a0: e10c e13d dc14 1b3e e418 96bd 1ba8 a4bd
000001b0: f04f 1a3d f07f 893d 25d8 33be fef7 8e3d
000001c0: 8ec6 063c ba7b 25bd f804 c5bd 3353 513d
000001d0: 5eee 60bd 7950 3f3e a0f2 523e 9cb3 723a
000001e0: 0b14 f6bd 263e 96bd 5067 03bd 070a 77be
000001f0: 03e9 c63b d8ae 4d3e 77f9 9ebd e6b1 d2bb
00000200: b348 b5bc 4324 ee3d 4ccc 80bd 4a8f 63bd
00000210: efdd 793e b61a 65b9 ba28 1d3d a803 4d3e
00000220: 51c3 8f3c 5877 81be a113 393d fb98 50be
00000230: 9336 adba 5f3c 953d 9c9f 95bc a6f1 d3bd
00000240: 328e 23bd 3e8b a8bd 70e7 81be a13f 243e
00000250: bef9 b8bc c690 8ebd 246e 48be 2230 91bd
00000260: 024f d03d c50b e1bc 793d b33d 4674 403e
00000270: dc08 a83d d973 34be 4b09 76be 99b0 0d3e
00000280: 3e4d dfbd e77f d8bd c900 093e 9bd0 093e
00000290: e2da 2e3d 9914 8c3d e68d 343c 2dad 14be
000002a0: 40ac 353e 9843 5a3e 8174 68be 139d 5c3e
000002b0: 15c4 a6bd 1ff1 21be d4c5 233d 93a9 3dbb
000002c0: d09b 8bbd 3ac3 d7bd bb9d 69b9 323b 0b3e
000002d0: 6f55 0c3e b4b3 12be 5ba9 13bd 8f7c 3e3e
000002e0: 2f01 14be 4ae3 5ebc 840a d63d ce6e 0f3d
000002f0: 3ed9 7dbe 71b9 763e ae35 333e cdb6 243d
00000300: 75f6 95bd d970 0fbd fe6a ba3d 7461 d4bc
00000310: 7fe0 963d 53de 1d3d 8953 32bd 0f61 0cbd
00000320: 1ade 04bd 6ee6 81bc a4fd 84bd 60ea 2a3e
00000330: 0f3b 3c3d 4b56 cc3d 15cf af3b 308d 233e
00000340: c6fc d63d 0fc5 05bd 65f8 8b3d 78cd cebd
00000350: 9d1e a0bd 7c13 fbbd 712a 3abe 89c2 473d
00000360: d49d 6b3e 8bc0 8e3d cb61 0d3e 400b 11be
00000370: 58d0 ef3d b66d 68bd f1ae f2bb 9b8d 2a3d
00000380: 7631 1ebd 8eb5 a33e 71d6 4a3e 4a24 503d
00000390: b9ba 5f3d e9e8 e83d c078 a63d 09d0 3f3d
000003a0: 8098 5a3c 6ff4 dd3d 78b8 3abd 9950 91bc
000003b0: ad9d 943d 0d40 183d 01bb 233e 1e71 e93d
000003c0: 9bce 88bd 6e62 95be 1a8b 5f3b 2bba c1bb
000003d0: 3716 a7bc f236 9b3c b262 d7bc 151d e63c
000003e0: 7780 43be 0cdd 5b3d 8c80 53bc cd86 f3bd
000003f0: 5638 933d 04b5 ca3d b887 96bd c507 3cbd
-0.14317273 -0.20078537 0.046092123 -0.14036426 0.14347184 -0.07349475 0.034804784 -0.16934204
-0.15748514 0.1864152 -0.07094475 -0.10214079 -0.21579403 0.01187284 -0.1602698 0.114616625
0.06531421 0.1452169 0.07808852 -0.025249828 0.120380834 0.030607907 0.089615025 -0.06189096
0.11817533 0.106839925 -0.09392875 0.054606818 0.110541284 -0.17195447 -0.005085557 0.022593874
-0.1742465 0.20951308 -0.050944302 0.18840867 0.0514879 0.124776505 -0.0012889251 0.12271257
-0.28781548 0.033188812 -0.18434359 0.11038335 -0.051342722 0.25468102 -0.071402 -0.4516041
-0.0032178394 -0.005342313 0.046108797 -0.22744973 -0.07909753 -0.19516091 -0.081226036 0.15866731
-0.08719286 0.16669025 0.094535775 -0.2191528 -0.066910625 -0.027947271 -0.1536836 -0.12864022
-0.047943935 0.0027515644 0.1063241 0.013400397 0.020042414 -0.05587465 0.04621223 0.24267748
-0.14547135 -0.006128622 -0.047272135 -0.0024072605 -0.1992021 0.093022935 0.2221537 -0.091792874
0.12704422 0.15438478 -0.08453796 0.4011597 -0.015254315 -0.1965216 -0.0500489 -0.04268904
0.026513321 0.09924105 0.10192267 0.030147407 0.011579666 0.18710917 0.12047073 0.16267934
0.11346422 0.10929212 0.061768774 -0.027471505 0.14079145 -0.015838576 -0.21936622 -0.1972703
0.109887846 0.15144676 -0.07328966 -0.08039876 0.03767389 0.06713855 -0.17562921 0.069808945
0.00822605 -0.040401198 -0.09620088 0.051104736 -0.054914825 0.18683042 0.20600367 0.0009258331
-0.12015542 -0.073360726 -0.03208095 -0.24124919 0.0060702576 0.20086229 -0.077624254 -0.0064298986
-0.022129392 0.1162801 -0.062889665 -0.055556573 0.24401067 -0.00021849092 0.038368918 0.20020926
0.017549189 -0.25286365 0.045184735 -0.20370857 -0.0013215117 0.072869055 -0.018264584 -0.10348825
-0.03993053 -0.08229683 -0.25371885 0.16039898 -0.022580024 -0.06961207 -0.19573265 -0.07089259
0.101713195 -0.027471432 0.08751959 0.18794355 0.08204815 -0.17622317 -0.24026982 0.13836898
-0.10903405 -0.105712704 0.13379206 0.13458483 0.04268921 0.06839866 0.011020159 -0.14519186
0.1774149 0.21314847 -0.22700693 0.21544294 -0.081428684 -0.15814637 0.039983585 -0.0028940185
-0.06816828 -0.105352834 -0.00022279371 0.135968 0.13704465 -0.14326364 -0.03605018 0.18602203
-0.14453577 -0.013603995 0.104512244 0.03501778 -0.24789903 0.24094178 0.17500946 0.040213395
-0.073223986 -0.03501973 0.091024384 -0.025925376 0.07367038 0.038542103 -0.043536697 -0.03427225
-0.032438375 -0.015856948 -0.064936906 0.1669097 0.04595476 0.099773966 0.0053652623 0.15971828
0.104974315 -0.032658633 0.06834487 -0.10097784 -0.07818339 -0.12259576 -0.18180253 0.048769508
0.23009425 0.069703184 0.13806836 -0.14164448 0.1170966 -0.056745254 -0.0074061085 0.04163895
-0.03862139 0.31974453 0.19808365 0.050815858 0.054621432 0.11372549 0.081285 0.046829257
0.013342023 0.10837638 -0.04558608 -0.017738627 0.07256637 0.03717046 0.15989305 0.113985285
-0.06680032 -0.29176658 0.003411001 -0.0059120855 -0.020396335 0.018947098 -0.026292179 0.02809004
-0.19091974 0.053677604 -0.012909066 -0.118909456 0.071884796 0.09897807 -0.07350105 -0.045905847

network_body._body_endoder.seq_layers.0.bias f4 [128]
00000000: 0000 0000 0000 0000 0000 0000 0000 0000
00000010: 0000 0000 0000 0000 0000 0000 0000 0000
00000020: 0000 0000 0000 0000 0000 0000 0000 0000
00000030: 0000 0000 0000 0000 0000 0000 0000 0000
00000040: 0000 0000 0000 0000 0000 0000 0000 0000
00000050: 0000 0000 0000 0000 0000 0000 0000 0000
00000060: 0000 0000 0000 0000 0000 0000 0000 0000
00000070: 0000 0000 0000 0000 0000 0000 0000 0000
00000080: 0000 0000 0000 0000 0000 0000 0000 0000
00000090: 0000 0000 0000 0000 0000 0000 0000 0000
000000a0: 0000 0000 0000 0000 0000 0000 0000 0000
000000b0: 0000 0000 0000 0000 0000 0000 0000 0000
000000c0: 0000 0000 0000 0000 0000 0000 0000 0000
000000d0: 0000 0000 0000 0000 0000 0000 0000 0000
000000e0: 0000 0000 0000 0000 0000 0000 0000 0000
000000f0: 0000 0000 0000 0000 0000 0000 0000 0000
00000100: 0000 0000 0000 0000 0000 0000 0000 0000
00000110: 0000 0000 0000 0000 0000 0000 0000 0000
00000120: 0000 0000 0000 0000 0000 0000 0000 0000
00000130: 0000 0000 0000 0000 0000 0000 0000 0000
00000140: 0000 0000 0000 0000 0000 0000 0000 0000
00000150: 0000 0000 0000 0000 0000 0000 0000 0000
00000160: 0000 0000 0000 0000 0000 0000 0000 0000
00000170: 0000 0000 0000 0000 0000 0000 0000 0000
00000180: 0000 0000 0000 0000 0000 0000 0000 0000
00000190: 0000 0000 0000 0000 0000 0000 0000 0000
000001a0: 0000 0000 0000 0000 0000 0000 0000 0000
000001b0: 0000 0000 0000 0000 0000 0000 0000 0000
000001c0: 0000 0000 0000 0000 0000 0000 0000 0000
000001d0: 0000 0000 0000 0000 0000 0000 0000 0000
000001e0: 0000 0000 0000 0000 0000 0000 0000 0000
000001f0: 0000 0000 0000 0000 0000 0000 0000 0000
0.0 0.0 0.0 0.0 0.0 0.0 0.0 0.0
0.0 0.0 0.0 0.0 0.0 0.0 0.0 0.0
0.0 0.0 0.0 0.0 0.0 0.0 0.0 0.0
0.0 0.0 0.0 0.0 0.0 0.0 0.0 0.0
0.0 0.0 0.0 0.0 0.0 0.0 0.0 0.0
0.0 0.0 0.0 0.0 0.0 0.0 0.0 0.0
0.0 0.0 0.0 0.0 0.0 0.0 0.0 0.0
0.0 0.0 0.0 0.0 0.0 0.0 0.0 0.0
0.0 0.0 0.0 0.0 0.0 0.0 0.0 0.0
0.0 0.0 0.0 0.0 0.0 0.0 0.0 0.0
0.0 0.0 0.0 0.0 0.0 0.0 0.0 0.0
0.0 0.0 0.0 0.0 0.0 0.0 0.0 0.0
0.0 0.0 0.0 0.0 0.0 0.0 0.0 0.0
0.0 0.0 0.0 0.0 0.0 0.0 0.0 0.0
0.0 0.0 0.0 0.0 0.0 0.0 0.0 0.0
0.0 0.0 0.0 0.0 0.0 0.0 0.0 0.0

network_body._body_endoder.seq_layers.2.weight f4 [128, 128]
00000000: c72a edbd 9e6a 5fbd d009 42bd 296f e2bd
00000010: 3468 de3d 9162 513d d84a 76bd c0d7 053e
00000020: c33b f4bd 905b a93d 948b 053e 8797 c1bb
00000030: 0d26 70bd 3ae8 24be e400 6b3d df62 fcbd
00000040: 406d c5bd 6f52 bd3d 02b9 60bd 9e0f 4b3d
00000050: 2937 e53d 7b7e b0bd 6117 633d b5e0 f8bc
00000060: fbe6 f5bd e95a 003e 44d8 c03b 2101 04bd
00000070: 1013 853d 82a9 0d3d df18 83bd cd9c c9bc
00000080: d350 5bbd 3f6a ed3d 98dc 8fbd c8fc fbbd
00000090: 2b99 9b3d 87d4 893e 7683 9fbb eb15 8f3d
000000a0: 9e35 55bb b88f ae3c ee60 073d 8092 37be
000000b0: de1d 3ebd 52e9 673d f91f afbd 6ce2 e0bc
000000c0: 9811 b03d 450d 343e d182 e63d a97e f73c
000000d0: 9604 033e 4b52 2abc 14e0 a83d a3a2 94bd
000000e0: ccfb d43d 52e8 7c3d 36af 6bbd 086d 063e
000000f0: dac1 0f3d 6bf8 2e3c 2400 93bd 023c fa3c
00000100: 13a5 13be 8948 a33c a17e a43d c03d b93c
00000110: 8cbe 2abd 0055 013e 8ed2 0abd 4eb0 b53d
00000120: f7b3 b5bd 7910 243d 4caf 163d fb9f 10bc
00000130: dfc7 a33d 1da1 0c3e fdb5 e1bc 6b5f 153c
00000140: 0b7d fbbc a9c5 b83d 8880 0e3d 508b 873d
00000150: 249e d03d 73da f8bd 54db 6cbd f377 0a3d
00000160: cd02 dbbd dd9d bc3d 1a10 34ba 77fd 14be
00000170: dd36 20be 6940 173e 3bf5 70bd d120 383e
00000180: 00dc d23d 8528 1abd eb5e 273d 8bfa 3dbd
00000190: b691 6dbd 2702 1b3d f041 0cbe 489b 8cbd
000001a0: 2ba1 ffba a41e 0bbe f1fb 28bd ea28 bfbd
000001b0: baa1 993d 1739 453d 781d 12be dfc0 3cbc
000001c0: aca1 a13c d6e5 ae3d 0109 d6bd 211c 37bd
000001d0: d4d9 91ba 41a7 9fbd 0e69 c5bd 681d f23d
000001e0: da71 2e3d b2f9 fb3d 9538 05bd ef7f 03bc
000001f0: d841 06bd 289d 91bb 8975 71bd 0d96 a13d
00000200: c23f 253d 718f 6a3e 3cec f83d 22c9 703c
00000210: 922d abbd ae04 093d e021 09be 43ff 98bd
00000220: 8f43 11be e855 413d 3ea7 b5bd 2236 a83d
00000230: 62fc 013d f05b 1cbb 6fdc 403d 4891 b53d
00000240: 9fff 52bd 0b4c 63bd e7a4 0abd 0f5f af3d
00000250: a1b2 f7bd 7f35 d7bd d455 d13d 580d c0bc
00000260: 2b95 36bd 4157 b33c 8f66 d2bd 7d2b 2a3d
00000270: 9471 173e 51f4 763c 24d5 febc f456 fbbc
00000280: c254 f73c 5de1 bbbd 8da3 c4bd 5873 7b3d
00000290: 9240 8c3c f9e5 a73c 2066 a0bd 0392 cabd
000002a0: b722 083d 3c16 323d 75f5 fabb 9e36 103c
000002b0: 3181 b8bd eea3 823c 2f13 a23d 54b8 86bc
000002c0: cdd0 d2bd 6bb5 74bc 8b3d c33c 0d61 3a3e
000002d0: a4c6 613d f769 9c3d 7cbe 2f3e 9b52 d53d
000002e0: b27b a5bd 7812 4e3d 8e74 74bd 575a 97bd
000002f0: 34b2 bb3b 1466 c9bd 0e50 51bd 59db 32be
00000300: 5c4a a93d 3ba3 99bc 635e c2bd 5061 b03c
00000310: b34f 66bb 4a4e a33c f0b8 163e 9080 f33d
00000320: a155 28bc fb9a 123c a1f4 88bd 65ae a73d
00000330: b188 8b3d 030a 16be 985c 0b3d e4eb 40be
00000340: 763c c0bd d9f7 213d 4f97 89bb 2890 a1bd
00000350: 71c9 173d 15c2 fbbb c99e 7c3c a7a4 253e
00000360: 7160 8a3d df96 65bd a44e 3c3e 8a7e df3c
00000370: e35b a13d 9c1e dd3d 4ef1 c9bd 5207 c0bd
00000380: 4328 09be d5bc c1b9 6d54 1cbe 3844 e33d
00000390: 6562 e8bd f2ff a7b8 0214 c4bd a703 a23c
000003a0: 80f1 4ebd 2ed3 0b3d c8fc 523d d984 3abd
000003b0: c680 8fbc 8a52 0cbe 59ba 18be 5274 2ebe
000003c0: 036d f7bb 65d6 c5bd 6719 90bd e8a6 273a
000003d0: a5e8 86bc 5ccf 3f3d 0412 b4bd 752b 333c
000003e0: d0da d6bc 48cb 30bd 4933 0c3e 81b5 0d3e
000003f0: 5117 583d 6a57 28bd a3b5 443c e234 813c
-0.11580425 -0.054545037 -0.04737264 -0.11056358 0.10859719 0.05111939 -0.06012997 0.13070583
-0.11925461 0.08269417 0.13041526 -0.005907956 -0.058630038 -0.16104212 0.057373896 -0.12323546
-0.096399784 0.092442386 -0.054863937 0.04957544 0.111921616 -0.08617874 0.055442218 -0.030380586
-0.12006947 0.1253468 0.005885156 -0.03222764 0.064977765 0.034585483 -0.06401228 -0.024610901
-0.053543877 0.115925305 -0.07024497 -0.123040736 0.07597574 0.26919958 -0.0048679663 0.069866024
-0.003253318 0.021308765 0.033051424 -0.17926979 -0.046415202 0.056618996 -0.0855102 -0.027451716
0.08597106 0.17583187 0.1125542 0.030211763 0.12794718 -0.010395597 0.082458645 -0.07257583
0.10399589 0.061744995 -0.05754014 0.1312753 0.03509698 0.010679345 -0.07177761 0.030546192
-0.1441844 0.019932048 0.08031965 0.022612453 -0.041685626 0.12630081 -0.033892207 0.08871518
-0.08872216 0.040054772 0.03678827 -0.008827205 0.07997107 0.13733335 -0.0275526 0.009116988
-0.030699274 0.09022076 0.034790546 0.066183686 0.10186413 -0.12151041 -0.057826355 0.0338058
-0.106938936 0.092097975 -0.00068688544 -0.14549814 -0.15645929 0.14770664 -0.05882762 0.17981268
0.10295868 -0.0376363 0.040862005 -0.046381515 -0.05800029 0.03784385 -0.13697028 -0.06865555
-0.0019502988 -0.13585907 -0.041255895 -0.093339756 0.0750155 0.04815015 -0.14269054 -0.011520593
0.019730411 0.085399315 -0.10450936 -0.04470456 -0.001112754 -0.07795573 -0.09639178 0.11822015
0.042589046 0.12303485 -0.032524664 -0.008026107 -0.032777637 -0.0044437833 -0.05894998 0.07889948
0.040344007 0.22906281 0.12154433 0.014696391 -0.08358301 0.03345173 -0.13391829 -0.07470562
-0.14185928 0.047201067 -0.088697895 0.0821345 0.03173483 -0.002385851 0.04708522 0.08865601
-0.05151331 -0.055492442 -0.03384867 0.08563053 -0.12094618 -0.105082504 0.102214485 -0.023443863
-0.04457585 0.021892192 -0.10273468 0.04154538 0.1478942 0.015072898 -0.031107493 -0.03068111
0.030191783 -0.09173844 -0.09601507 0.061389297 0.017120633 0.020495402 -0.07831979 -0.09891131
0.03323623 0.043478236 -0.0076586553 0.008802084 -0.09009016 0.015947308 0.07913815 -0.016445316
-0.10293732 -0.014935832 0.023833057 0.18201084 0.05512108 0.07637399 0.17162508 0.10416146
-0.08080234 0.050310582 -0.059681468 -0.07390278 0.0057280306 -0.09833923 -0.051101737 -0.17466487
0.08266136 -0.018754592 -0.09490659 0.021530777 -0.003514272 0.019934792 0.14718986 0.11889756
-0.010274322 0.008948083 -0.06687284 0.0818756 0.06813181 -0.14652257 0.03402385 -0.18839985
-0.09386532 0.039543007 -0.0041989456 -0.07888824 0.037057344 -0.0076830485 0.015418717 0.16176091
0.06756676 -0.056052085 0.18389374 0.027282018 0.07878854 0.10796854 -0.09860478 -0.09376396
-0.13394265 -0.0003695252 -0.15266581 0.11096996 -0.11346892 -8.010854e-05 -0.09574129 0.019777132
-0.05052328 0.034136944 0.051510602 -0.04553685 -0.017517459 -0.13703361 -0.14914836 -0.1703656
-0.007550837 -0.09660033 -0.07036095 0.00063954154 -0.016468355 0.046828613 -0.08792499 0.010935654
-0.026227385 -0.043162614 0.13691439 0.1383877 0.05275661 -0.04109899 0.012006196 0.015772287

network_body._body_endoder.seq_layers.2.bias f4 [128]
00000000: 0000 0000 0000 0000 0000 0000 0000 0000
00000010: 0000 0000 0000 0000 0000 0000 0000 0000
00000020: 0000 0000 0000 0000 0000 0000 0000 0000
00000030: 0000 0000 0000 0000 0000 0000 0000 0000
00000040: 0000 0000 0000 0000 0000 0000 0000 0000
00000050: 0000 0000 0000 0000 0000 0000 0000 0000
00000060: 0000 0000 0000 0000 0000 0000 0000 0000
00000070: 0000 0000 0000 0000 0000 0000 0000 0000
00000080: 0000 0000 0000 0000 0000 0000 0000 0000
00000090: 0000 0000 0000 0000 0000 0000 0000 0000
000000a0: 0000 0000 0000 0000 0000 0000 0000 0000
000000b0: 0000 0000 0000 0000 0000 0000 0000 0000
000000c0: 0000 0000 0000 0000 0000 0000 0000 0000
000000d0: 0000 0000 0000 0000 0000 0000 0000 0000
000000e0: 0000 0000 0000 0000 0000 0000 0000 0000
000000f0: 0000 0000 0000 0000 0000 0000 0000 0000
00000100: 0000 0000 0000 0000 0000 0000 0000 0000
00000110: 0000 0000 0000 0000 0000 0000 0000 0000
00000120: 0000 0000 0000 0000 0000 0000 0000 0000
00000130: 0000 0000 0000 0000 0000 0000 0000 0000
00000140: 0000 0000 0000 0000 0000 0000 0000 0000
00000150: 0000 0000 0000 0000 0000 0000 0000 0000
00000160: 0000 0000 0000 0000 0000 0000 0000 0000
00000170: 0000 0000 0000 0000 0000 0000 0000 0000
00000180: 0000 0000 0000 0000 0000 0000 0000 0000
00000190: 0000 0000 0000 0000 0000 0000 0000 0000
000001a0: 0000 0000 0000 0000 0000 0000 0000 0000
000001b0: 0000 0000 0000 0000 0000 0000 0000 0000
000001c0: 0000 0000 0000 0000 0000 0000 0000 0000
000001d0: 0000 0000 0000 0000 0000 0000 0000 0000
000001e0: 0000 0000 0000 0000 0000 0000 0000 0000
000001f0: 0000 0000 0000 0000 0000 0000 0000 0000
0.0 0.0 0.0 0.0 0.0 0.0 0.0 0.0
0.0 0.0 0.0 0.0 0.0 0.0 0.0 0.0
0.0 0.0 0.0 0.0 0.0 0.0 0.0 0.0
0.0 0.0 0.0 0.0 0.0 0.0 0.0 0.0
0.0 0.0 0.0 0.0 0.0 0.0 0.0 0.0
0.0 0.0 0.0 0.0 0.0 0.0 0.0 0.0
0.0 0.0 0.0 0.0 0.0 0.0 0.0 0.0
0.0 0.0 0.0 0.0 0.0 0.0 0.0 0.0
0.0 0.0 0.0 0.0 0.0 0.0 0.0 0.0
0.0 0.0 0.0 0.0 0.0 0.0 0.0 0.0
0.0 0.0 0.0 0.0 0.0 0.0 0.0 0.0
0.0 0.0 0.0 0.0 0.0 0.0 0.0 0.0
0.0 0.0 0.0 0.0 0.0 0.0 0.0 0.0
0.0 0.0 0.0 0.0 0.0 0.0 0.0 0.0
0.0 0.0 0.0 0.0 0.0 0.0 0.0 0.0
0.0 0.0 0.0 0.0 0.0 0.0 0.0 0.0

action_model._continuous_distribution.log_sigma f4 [1, 3]
00000000: 0000 0000 0000 0000 0000 0000
0.0 0.0 0.0

action_model._continuous_distribution.mu.weight f4 [3, 128]
00000000: 80e2 d53b 15ee b73b 4501 653c d56c af3c
00000010: 4f47 a53b 2b96 9dbc 3f96 653c 6853 b2bc
00000020: 1897 d3bb 9515 8bbb cda3 273c e3ba d83b
00000030: 6206 aabc 094e b3bb fb6d 4b3c 43cf da3b
00000040: d362 10bc 2d02 7bba e515 5e3c d394 043c
00000050: 258e d53b 36d0 8ab9 aade 173c df63 ddbc
00000060: 9ead 2d3d 9301 96bb 455e edbb 6682 06bc
00000070: 8ebc 913a 4b01 0e3c 4df0 4e3c 0514 af3c
00000080: 8560 d63c 37a6 263c 1363 17bb c3f7 19bc
00000090: 5dcb 02bb d29b 6c3b 8dd3 8a3c b3dc a0bc
000000a0: f7f5 25bc 604f 61bc 1f5f b1ba 5cf4 3c3c
000000b0: b283 54bd 9752 6e3b 91e9 a63c 2051 0ebc
000000c0: 9936 2ebb 4d7b 18bc 6b30 05bd 736c aebb
000000d0: 3d5b e33c 17c5 713c e21b bc3c 30c2 b8bc
000000e0: fd40 1fbc 559a 37bd 59e4 ab3c 5ba6 f1ba
000000f0: 5d2c 703c 67e4 cc3b 49c9 a33c 636d 0b3c
00000100: dd08 183c 7913 803b ee9f 9c3b 7f7e 553c
00000110: ffdd 66b8 59be 1c39 3520 38bc a3e4 25bb
00000120: a3db f93c 22d1 013c 4798 91bc cd00 483a
00000130: 1ef4 103d 1757 27bb 84fa 86bb 63d0 40bb
00000140: eb37 b0ba 3dc2 2339 742c cabc f187 043c
00000150: 7fd0 b73c 63d3 983b 2d6f 523c a14d 0d3c
00000160: 4912 b4bb c36d d2bb bfda e0bc 9cbd 46bc
00000170: 5bcf 823c 22db a1bc 077d 973a b18b 83bc
00000180: 88bf 0dbd 5b4f ea3b 8bda 48bb 4883 6cbc
00000190: 8709 89bc e073 31bb efbe bcbc d307 84bb
000001a0: 8429 35bc d7fd aabc 3579 d4bb 16eb 98bb
000001b0: 90da dd39 703a a9bb cf0b b93a d253 fb3c
000001c0: 2bba 92bc e3f4 263c bd2e 3cbc f2a9 71bb
000001d0: 4abd f03b 0b0f 4dbc 4afc 803b f085 483c
000001e0: b79a cf3c 6c22 16bc b176 b53c 6013 20bb
000001f0: 004c ecbb 5749 5f3c 0ef9 1a3c 2043 b63c
00000200: 5d24 1fbc 6132 893c b37f bebb 6725 253b
00000210: a7ed 11bd 0ac0 0c3d 5a91 993c 8363 01bd
00000220: a787 55bc 6b42 733b b762 8c3c d2e4 9abb
00000230: 7b5a 6e3a 0b15 ddbc d317 733b 896c 8cbc
00000240: 4dc6 ed3a 83f0 5ebb 3777 b4bc 5915 b83a
00000250: f1a6 3ebb 9f7e 55bb e3c4 36bc f05f d03b
00000260: 4790 1e3d 4bff 3abc cb62 debc cd2c dd3c
00000270: ba83 56bc 0e70 8e3b 80a5 753c a72b 123b
00000280: 27f1 dfba f678 1fbb d13c 3f3d 4cc8 c4bb
00000290: 0f67 ad3b 0329 fd3b fe3a 483c efed f43c
000002a0: 3f48 85ba dd2f d13c bb4b 8f3c 2733 ff3b
000002b0: a56f 43bc c796 c83c f6a7 be3c 312d 8eb9
000002c0: 936f 043c 5df4 51bc c955 b63a 0e2a ae3b
000002d0: 5d8b a0bb 63a0 ba3c 3b63 6ebc fbbe 7bbc
000002e0: ba85 38bc 75ec 4db8 dfdb bc3b 0328 9fbc
000002f0: 9ec5 023d 5e03 48ba 0353 853b 23c9 c2bb
00000300: cff6 ccbc 9afb 71bc 08d7 eab9 d8c1 fd3b
00000310: 59c6 403b f233 c0bc 6870 27bd b241 4ebb
00000320: 0622 183d 0332 04bb 53b9 d1bb 3f7e e33a
00000330: cabf 283b bbb9 2ebc 25ef 7e3c e8a9 753c
00000340: 2ba8 3cbc 4313 11bc c440 90bb 51ca 163d
00000350: cde4 b53b a788 22bb f3f6 ca3b bada 123c
00000360: 1733 13bc f794 7abc 43a1 2e3b 73e6 44bc
00000370: 80ba 143a 8345 fe3a ff11 37bc 2f5a 9dbb
00000380: d7c7 16bd f38d 40bb ac00 953b ae66 943b
00000390: 699a 19bd f893 b3bb 1727 863b 32de b03b
000003a0: 124c 5fbc ad5a 603c 030e 783b aba3 73bb
000003b0: 6454 22bc 8f19 dbbb d217 f639 05e7 cd3b
000003c0: a5a3 38bb 30bb 56bc 4e80 473c 2dac 75bc
000003d0: f27c 093c 5ba3 82bc 4a3b cf3a cbe7 0f3c
000003e0: 35e1 cebb 8b17 063d 5315 f6bb 6f11 613c
000003f0: a68d a63c 6a1c dcbb f2f1 323d 1be0 03bd
0.006527245 0.0056130984 0.013977353 0.0214142 0.005043901 -0.019236645 0.014012872 -0.021768287
-0.0064572208 -0.004244516 0.010231924 0.0066140755 -0.020754997 -0.005471949 0.012416358 0.0066775396
-0.008812624 -0.00095752144 0.013555025 0.008092123 0.006517189 -0.0002647654 0.009269396 -0.027025161
0.042401902 -0.0045778244 -0.007243904 -0.0082098 0.0011118816 0.0086673 0.012630534 0.02137185
0.026169071 0.010171465 -0.0023099824 -0.00939745 -0.001995764 0.0036103618 0.016946578 -0.019636488
-0.010129443 -0.013751835 -0.0013532377 0.011532869 -0.051883407 0.0036365145 0.020375045 -0.008686334
-0.0026582836 -0.009306741 -0.032516878 -0.0053229867 0.027753467 0.014756463 0.022962514 -0.022553533
-0.009720084 -0.044824917 0.020982908 -0.0018436419 0.0146590145 0.0062528136 0.019993441 0.008509967
0.009279457 0.0039085713 0.0047798073 0.013030647 -5.5043023e-05 0.0001494823 -0.0112381475 -0.002531328
0.030500239 0.007923396 -0.017772807 0.0007629514 0.03538906 -0.0025534087 -0.0041192193 -0.0029421083
-0.0013444399 0.00015617251 -0.0246794 0.008089052 0.022438286 0.004663871 0.012843889 0.008624465
-0.005495344 -0.006421776 -0.027448056 -0.012130167 0.015968015 -0.019757811 0.0011557647 -0.016057821
-0.034606487 0.007150573 -0.003064784 -0.014435597 -0.016728176 -0.0027077124 -0.023040263 -0.004029253
-0.011057261 -0.020872993 -0.0064841756 -0.0046666963 0.00042315247 -0.005164437 0.0014117899 0.030679617
-0.017911037 0.0101902215 -0.011485753 -0.0036874977 0.0073467838 -0.012515794 0.003936325 0.012238964
0.025342328 -0.00916348 0.022151323 -0.002442561 -0.0072112083 0.013628325 0.009458793 0.022248805
-0.0097132595 0.016747655 -0.005813563 0.0025199295 -0.035627034 0.03436283 0.018746067 -0.031589042
-0.01303283 0.0037118446 0.017136915 -0.0047269845 0.0009092462 -0.026987573 0.0037093058 -0.017141597
0.0018140763 -0.0034017868 -0.022029502 0.0014044448 -0.0029091204 -0.0032576693 -0.01115534 0.006359093
0.038711812 -0.011413406 -0.027146718 0.026998902 -0.0130929295 0.004346854 0.014993072 0.002230385
-0.0017085419 -0.0024333573 0.04668886 -0.0060053226 0.0052918266 0.0077258362 0.012221096 0.029898612
-0.0010168626 0.025535518 0.017492166 0.0077880803 -0.011928474 0.024485959 0.02327345 -0.0002711802
0.008083242 -0.012814608 0.0013911064 0.005315072 -0.004899426 0.022781556 -0.014550026 -0.0153653575
-0.011262352 -4.9096026e-05 0.0057635154 -0.019428259 0.031926744 -0.0007629896 0.0040687337 -0.0059443875
-0.025020031 -0.014769459 -0.0004479217 0.0077440552 0.00294151 -0.02346227 -0.040878683 -0.0031472263
0.037141822 -0.002017141 -0.006400266 0.001735635 0.002574908 -0.010664399 0.015559946 0.014994122
-0.011514704 -0.00885469 -0.004402252 0.036814038 0.005550957 -0.002480069 0.0061939894 0.008963281
-0.008984349 -0.015294305 0.0026646412 -0.012017834 0.00056735426 0.0019399378 -0.011173724 -0.0048020105
-0.036811676 -0.0029381483 0.0045471992 0.004528842 -0.037500773 -0.0054802857 0.0040940153 0.0053975815
-0.013628976 0.013693494 0.0037850149 -0.003717641 -0.009907816 -0.0066863964 0.00046938524 0.006283643
-0.0028173712 -0.013106152 0.012176586 -0.014994663 0.008391606 -0.015947035 0.0015810516 0.008783291
-0.006313468 0.032737296 -0.0075098663 0.013737067 0.020331215 -0.0067172544 0.04368777 -0.032196146

action_model._continuous_distribution.mu.bias f4 [3]
00000000: 0000 0000 0000 0000 0000 0000
0.0 0.0 0.0

action_model._discrete_distribution.branches.0.weight f4 [1, 128]
00000000: 9226 1aba 1a45 353c 777a 163a a731 37bc
00000010: 7229 683b 8b83 3fbb bbc3 2ebc 84f2 48bc
00000020: c81d bb3b 0069 0abb f809 5a3a 20c6 ee3b
00000030: f260 a03b 702d 993c 93f6 b5bb 4abe 503b
00000040: 132f 40bc 934a 4a3c 9fe3 97bb 00b2 f2bb
00000050: 9603 453c e322 db3b eefb a03b ff2a cc3b
00000060: e169 023c 751f 353c 323b 2e3b 91be 9d3a
00000070: aa1e 56bb b5dd 3ebb 7194 9dbc b8bc 5bbb
00000080: d2dc 88bb 170a 4839 71aa 8cbc 9300 f63a
00000090: e740 94bc f82a 6e3b 6751 aa3b d4a8 bdbb
000000a0: a698 0ebc 58bb eeba a7cf d5bb 55e5 ab3c
000000b0: 6ae2 aa3b 0b55 033b fb67 04bb eb46 04b6
000000c0: 0b8f bebc e877 b0bb d780 2a3c 5f68 a1bc
000000d0: 9845 eabb be3c 0d3c de4b 4c3b 6f74 423b
000000e0: 7755 cd3b af18 653c 5daa 9bbc 8c1e 0e3c
000000f0: b410 03bb df19 01bc 62bb 203c 3f6f 19bc
00000100: 33a8 463a 2a4d fb3a e9f3 87bc 97f9 e1bb
00000110: a013 22bb ef04 6c3b 610e 233a 24ac 933b
00000120: 2a7c a2bb 6b94 893c d58d 423c f501 8e3b
00000130: 473a 80b9 ffac f2bb 32a4 70bc 1006 f0bb
00000140: 0af2 c03b 2166 45bc 38f3 83bb 90c9 653c
00000150: 27de f33a 2f48 673b e799 5f3c 04dd 943c
00000160: c8b5 3bbb 7a69 cabc 9220 6ebc 6936 9bbc
00000170: 9fe5 96bb 835b 0e3c 8525 22bb 8882 673c
00000180: 1e15 303c 6fbe cfba 9f1e 2c3c b9c1 27bb
00000190: 221b b9bb 9365 0d3c 5afa e73b d7ca 233c
000001a0: 8f9d ec3b 2296 513c e51a 1e3b 4e7d 9b3a
000001b0: 5907 c6bb bdcd bb3a 9bbf 923c af71 15bb
000001c0: e747 c23b 0b49 bebc 4d80 2bbc 0bf7 0e3c
000001d0: 81fb 22bc ed34 7ebc 905f 54ba e59d 233b
000001e0: 2aef fd3b b0e2 a739 f62e 3c3b 0940 0abc
000001f0: 3e75 813c 2fa4 48bc 8abd 233c afaa 443b
-0.0005880381 0.011063838 0.00057402946 -0.011181272 0.0035425094 -0.0029222693 -0.010666783 -0.0122648515
0.0057103373 -0.0021119714 0.00083175255 0.007286802 0.0048943693 0.018698424 -0.0055530756 0.0031851702
-0.011729973 0.012346881 -0.004635289 -0.007406473 0.012024781 0.0066875084 0.004912845 0.0062307115
0.007959814 0.011054863 0.0026585576 0.0012034943 -0.0032672086 -0.0029123847 -0.019235821 -0.0033529233
-0.0041767145 0.00019077245 -0.017171117 0.0018768482 -0.018097354 0.003634153 0.005197692 -0.005787948
-0.008703386 -0.0018213792 -0.006524998 0.020983377 0.005214979 0.0020039703 -0.0020203579 -1.9710812e-06
-0.023261568 -0.0053853877 0.010406694 -0.019703088 -0.0071494095 0.008620439 0.003117315 0.002967145
0.0062662917 0.013982936 -0.019002134 0.008674275 -0.001999897 -0.007879703 0.009810301 -0.009364902
0.0007578164 0.0019172777 -0.016595798 -0.0068962085 -0.0024730936 0.0036013683 0.0006220099 0.0045066047
-0.004958649 0.016794404 0.011874636 0.0043337294 -0.00024457483 -0.0074058766 -0.014687585 -0.0073249415
0.0058882283 -0.012048275 -0.0040267967 0.014025107 0.0018605635 0.0035290828 0.013647533 0.018171795
-0.0028642286 -0.024708498 -0.014534133 -0.018946843 -0.0046050097 0.00868881 -0.0024741602 0.014130242
0.010747222 -0.00158496 0.0105053475 -0.0025597645 -0.0056489864 0.008630174 0.007079405 0.009997091
0.007220931 0.012792142 0.0024124917 0.0011862905 -0.0060433564 0.0014328283 0.01791363 -0.0022803356
0.0059289816 -0.023228189 -0.010467601 0.008725892 -0.0099476585 -0.015515548 -0.0008101398 0.0024965939
0.007749458 0.00032021618 0.0028714514 -0.008438119 0.015802976 -0.012246176 0.00999392 0.0030008962

network_body.observation_encoder.processors.0.normalizer.running_mean f4 [62]
00000000: f27c 133c 44a0 0f40 bba9 063c c8a1 0f40
00000010: 2040 003c 37c6 0f40 2040 003c 78b3 0f40
00000020: baa9 063c 5caa 0f40 baa9 063c 8897 0f40
00000030: 2040 003c bfa3 0f40 1f40 003c 2fa9 0f40
00000040: 9c06 da3b 88b3 0f40 9e06 da3b b9cb 0f40
00000050: d4d9 e63b 87c4 0f40 08ad f33b abbc 0f40
00000060: bca9 063c 82bd 0f40 2040 003c 8ac8 0f40
00000070: bba9 063c 84d2 0f40 bba9 063c c1bb 0f40
00000080: 0bad f33b 13bb 0f40 2040 003c 55b1 0f40
00000090: 0bad f33b aab9 0f40 2040 003c b5ac 0f40
000000a0: 9e06 da3b 5eb3 0f40 d4d9 e63b 46bb 0f40
000000b0: d4d9 e63b 17b7 0f40 9e06 da3b 7fa8 0f40
000000c0: 0bad f33b b3bc 0f40 9e06 da3b afcb 0f40
000000d0: 0aad f33b a09d 0f40 1f40 003c 03a6 0f40
000000e0: bba9 063c d697 0f40 bba9 063c 01a7 0f40
000000f0: bba9 063c 57a0 0f40
0.009001957 2.2441568 0.008219178 2.2442493 0.007827789 2.246473 0.007827789 2.245329
0.008219177 2.244773 0.008219177 2.2436237 0.007827789 2.2443693 0.007827788 2.2447011
0.00665362 2.2453327 0.006653621 2.2468092 0.00704501 2.24637 0.0074363984 2.2458904
0.008219179 2.2459416 0.007827789 2.246615 0.008219178 2.2472239 0.008219178 2.2458346
0.0074364 2.245793 0.007827789 2.2451985 0.0074364 2.245707 0.007827789 2.2449162
0.006653621 2.2453227 0.00704501 2.2458053 0.00704501 2.24555 0.006653621 2.2446592
0.0074364 2.2458923 0.006653621 2.2468069 0.0074363993 2.2439957 0.007827788 2.2445076
0.008219178 2.2436423 0.008219178 2.244568 0.008219178 2.2441614

network_body.observation_encoder.processors.0.normalizer.running_variance f4 [62]
00000000: f857 be41 5006 f446 829e ae41 f41a f446
00000010: 61bf a641 cf55 f446 61bf a641 df44 f446
00000020: 839e ae41 742f f446 839e ae41 3a1f f446
00000030: 61bf a641 5c41 f446 60bf a641 554e f446
00000040: 5a18 8f41 507f f446 5918 8f41 0f9b f446
00000050: 4bfc 9641 6194 f446 a4de 9e41 a997 f446
00000060: 839e ae41 209c f446 60bf a641 28b6 f446
00000070: 839e ae41 97ba f446 839e ae41 d9a4 f446
00000080: a3de 9e41 f9bb f446 60bf a641 39b0 f446
00000090: a2de 9e41 20ce f446 60bf a641 3fc0 f446
000000a0: 5818 8f41 c3ee f446 4afc 9641 3afd f446
000000b0: 4afc 9641 bf06 f546 5818 8f41 ed04 f546
000000c0: a2de 9e41 6314 f546 5818 8f41 fe38 f546
000000d0: a2de 9e41 1304 f546 5ebf a641 8616 f546
000000e0: 829e ae41 800d f546 829e ae41 3f2f f546
000000f0: 829e ae41 2430 f546
23.792953 31235.156 21.827396 31245.477 20.843447 31274.904 20.843447 31266.436
21.827398 31255.727 21.827398 31247.613 20.843447 31264.68 20.843445 31271.166
17.88689 31295.656 17.886889 31309.53 18.87319 31306.19 19.858711 31307.83
21.827398 31310.062 20.843445 31323.078 21.827398 31325.295 21.827398 31314.424
19.85871 31325.986 20.843445 31320.111 19.858707 31335.062 20.843445 31328.123
17.886887 31351.38 18.873188 31358.613 18.873188 31363.373 17.886887 31362.463
19.858707 31370.193 17.886887 31388.496 19.858707 31362.037 20.843441 31371.262
21.827396 31366.75 21.827396 31383.623 21.827396 31384.07

network_body.processors.0.normalizer.running_mean f4 [62]
00000000: f27c 133c 44a0 0f40 bba9 063c c8a1 0f40
00000010: 2040 003c 37c6 0f40 2040 003c 78b3 0f40
00000020: baa9 063c 5caa 0f40 baa9 063c 8897 0f40
00000030: 2040 003c bfa3 0f40 1f40 003c 2fa9 0f40
00000040: 9c06 da3b 88b3 0f40 9e06 da3b b9cb 0f40
00000050: d4d9 e63b 87c4 0f40 08ad f33b abbc 0f40
00000060: bca9 063c 82bd 0f40 2040 003c 8ac8 0f40
00000070: bba9 063c 84d2 0f40 bba9 063c c1bb 0f40
00000080: 0bad f33b 13bb 0f40 2040 003c 55b1 0f40
00000090: 0bad f33b aab9 0f40 2040 003c b5ac 0f40
000000a0: 9e06 da3b 5eb3 0f40 d4d9 e63b 46bb 0f40
000000b0: d4d9 e63b 17b7 0f40 9e06 da3b 7fa8 0f40
000000c0: 0bad f33b b3bc 0f40 9e06 da3b afcb 0f40
000000d0: 0aad f33b a09d 0f40 1f40 003c 03a6 0f40
000000e0: bba9 063c d697 0f40 bba9 063c 01a7 0f40
000000f0: bba9 063c 57a0 0f40
0.009001957 2.2441568 0.008219178 2.2442493 0.007827789 2.246473 0.007827789 2.245329
0.008219177 2.244773 0.008219177 2.2436237 0.007827789 2.2443693 0.007827788 2.2447011
0.00665362 2.2453327 0.006653621 2.2468092 0.00704501 2.24637 0.0074363984 2.2458904
0.008219179 2.2459416 0.007827789 2.246615 0.008219178 2.2472239 0.008219178 2.2458346
0.0074364 2.245793 0.007827789 2.2451985 0.0074364 2.245707 0.007827789 2.2449162
0.006653621 2.2453227 0.00704501 2.2458053 0.00704501 2.24555 0.006653621 2.2446592
0.0074364 2.2458923 0.006653621 2.2468069 0.0074363993 2.2439957 0.007827788 2.2445076
0.008219178 2.2436423 0.008219178 2.244568 0.008219178 2.2441614

network_body.processors.0.normalizer.running_variance f4 [62]
00000000: f857 be41 5006 f446 829e ae41 f41a f446
00000010: 61bf a641 cf55 f446 61bf a641 df44 f446
00000020: 839e ae41 742f f446 839e ae41 3a1f f446
00000030: 61bf a641 5c41 f446 60bf a641 554e f446
00000040: 5a18 8f41 507f f446 5918 8f41 0f9b f446
00000050: 4bfc 9641 6194 f446 a4de 9e41 a997 f446
00000060: 839e ae41 209c f446 60bf a641 28b6 f446
00000070: 839e ae41 97ba f446 839e ae41 d9a4 f446
00000080: a3de 9e41 f9bb f446 60bf a641 39b0 f446
00000090: a2de 9e41 20ce f446 60bf a641 3fc0 f446
000000a0: 5818 8f41 c3ee f446 4afc 9641 3afd f446
000000b0: 4afc 9641 bf06 f546 5818 8f41 ed04 f546
000000c0: a2de 9e41 6314 f546 5818 8f41 fe38 f546
000000d0: a2de 9e41 1304 f546 5ebf a641 8616 f546
000000e0: 829e ae41 800d f546 829e ae41 3f2f f546
000000f0: 829e ae41 2430 f546
23.792953 31235.156 21.827396 31245.477 20.843447 31274.904 20.843447 31266.436
21.827398 31255.727 21.827398 31247.613 20.843447 31264.68 20.843445 31271.166
17.88689 31295.656 17.886889 31309.53 18.87319 31306.19 19.858711 31307.83
21.827398 31310.062 20.843445 31323.078 21.827398 31325.295 21.827398 31314.424
19.85871 31325.986 20.843445 31320.111 19.858707 31335.062 20.843445 31328.123
17.886887 31351.38 18.873188 31358.613 18.873188 31363.373 17.886887 31362.463
19.858707 31370.193 17.886887 31388.496 19.858707 31362.037 20.843441 31371.262
21.827396 31366.75 21.827396 31383.623 21.827396 31384.07

network_body._body_endoder.seq_layers.0.weight f4 [128, 62]
00000000: 2273 ac3d efba 64bd 80e7 a83d a15c c13d
00000010: ccdf 8dbe ed94 81bd aa90 81bc dd07 34bc
00000020: 2a3a 083d 06af 8bbe 43e4 cfbd 8693 15bd
00000030: a6d0 86bc 88c8 04be 9bd4 1ebe 5893 1f3e
00000040: 2170 193d 0c01 4d3d 51c3 5c3e 9b78 3fbe
00000050: d114 df3d fec8 d43d 78dc ce3d d66a 963d
00000060: a24d a23c 7729 6b3e 0269 83be dd74 13be
00000070: c4ab 633c f829 b93b b9ab fbbc 9c9e dc3d
00000080: c62b 0ebc 4cbd 913d 2d89 313d e475 153e
00000090: 2cad 433c 7a47 f7bb cbe4 273a 3768 24bd
000000a0: e653 25be 6434 233d b2f5 003d 92e2 923d
000000b0: 6e5f 18be 1a37 edbd fa17 bf3d 4d57 b6bd
000000c0: d48d 67bd 74b5 75bc 1132 7a3e 6284 663d
000000d0: 9e92 77bd 0cb0 0bbe e6cb 463e dec6 c73d
000000e0: a1db 61bb ba39 eb3d c4c6 11be d2f2 2ebc
000000f0: dfe7 883e 3e32 0cbd ff0d afbd 4a7c 223c
00000100: caf0 1bbc 130f cd3d 29f9 363d 1941 123d
00000110: 2120 fc3d 6bd1 c53c d65f 153e 1855 d1bc
00000120: 074d 323e 7e40 acbd 13cf 6ebd 67e2 353e
00000130: ddbb e8bd 3c4a f7bd 0375 a8bd 90d6 c13d
00000140: c660 81bd 2361 a2bd 4ac0 d7bd 641e 553e
00000150: f208 803d 0461 debd d02e 1dbe 36fb 1a3e
00000160: d3b6 66bd a1fc ba3d b013 3ebc dc62 6bbd
00000170: 32df 203e f26c 4cbd 12ea 3f3e cd45 ef3d
00000180: 17a9 a3be 843d 5bbe f97e d83d 2e64 ecbd
00000190: 3a77 c63d 8112 d63d 263b afbe a58b bcbd
000001a0: 2dbe 71ba 6e89 d13c 1f4c d7bc b70f 98bc
000001b0: 226e c9be 0cd0 e03b c91d 073e 9812 083e
000001c0: 8e22 42be 6a46 c9bd cbdd 1b3e 3228 7abe
000001d0: 9083 e13d 4afc 90bd 7f8a 0c3d e766 80be
000001e0: 9e75 d6bc 6fa1 9e3d 528a 813c 12f9 43be
000001f0: 311d 553b cdd0 13be d817 a3bd 524b d1be
00000200: 6cff 65be 56d3 43bd 7b5f 623e b88f 29bb
00000210: c2ee 9e3a 6abc a63d db1e 51be c7a8 e8bd
00000220: bf6e 093d b2bc e2bd 038f a13e 773e 4bbe
00000230: 6811 c03b 99db 6abc 723a 473d 017c c33c
00000240: 1af7 95bc c586 043d 5a26 d2bd 777c 0cbe
00000250: 79df 64bd 8cb9 083d c8e3 32be 129a 1bbe
00000260: 19c4 5cbe c64c 19be 4184 3cbe 3300 403e
00000270: aed7 813e a57a 05be 40df 073d a8f8 93be
00000280: 2255 683e 581f ce3c 1a6a 99be f93f 9bbd
00000290: 32d6 143d 6d0b d43b 81b7 013e dda9 113e
000002a0: fd42 b73c 6f41 92bd 379b 063d 3820 9d3c
000002b0: e074 563e 14bd 193e 6833 823e 0f82 013e
000002c0: bc20 ddbd 6b22 f6bd d24f e1bd 7867 0c3d
000002d0: 4d9b f8bd fa87 853d 9b13 bfbc 4c99 3cbd
000002e0: 1e1d 353e da30 fa3c 4d0a 8ebc 1180 b8bd
000002f0: 2c9d 46be 0f06 f73d 9f7c 30be 100a 04be
00000300: e5e3 643e b767 4c3c 354e 103e 20a2 033e
00000310: 5a4b 7d3d 6cd5 96bd 1a40 533d 22a5 bebc
00000320: dc70 8e3e afbc ac3c f0e3 cf3d 4724 12be
00000330: fd33 b43d 0315 d5be 6723 1d3e 551a d7bd
00000340: dcba 953d f0a4 0fbe 39b0 e13c 0daf 973e
00000350: e5bc 36bd 7c73 efbc ebfb d6bd afec 4a3d
00000360: 6434 7dbe 32ff 403e d8fe 32bd 260f 0e3e
00000370: 4715 9cbd 8440 163c 497c ef3c 420f aabd
00000380: 5001 0b3e 669b 8bbd a27e 8fbc 9825 34bd
00000390: 1dcd 7ebe 4afd 5d3d 9340 fb3c 6105 a9be
000003a0: 9fb5 a53d 485a 0e3d cf2f 4cbd c2fb 7f3d
000003b0: 2f42 863d beac e8bd 223e 973c e955 d0bd
000003c0: 877a 94bd 9ba0 693e 0f29 5d3e f7f8 1a3d
000003d0: 91e8 9f3d e987 9bbd e864 0a3d f8ef d6bd
000003e0: 22c3 d3bd 87e3 fb3c b513 f13d 2264 24be
000003f0: d46d 913c 8bda 403d 7cd0 e5bc 8880 183d
0.08420397 -0.055842336 0.0824728 0.09441496 -0.27709806 -0.063272335 -0.015816052 -0.010988203
0.033258595 -0.2728197 -0.10150959 -0.036517642 -0.016456913 -0.12967122 -0.1551079 0.15583551
0.03746045 0.050049827 0.21558882 -0.18698351 0.10892642 0.10389899 0.10100645 0.07344596
0.019812409 0.22965036 -0.25666052 -0.14400049 0.013895933 0.005650755 -0.030721532 0.1077244
-0.008677429 0.07116184 0.04334371 0.14595753 0.011943143 -0.0075463625 0.0006404637 -0.04013845
-0.16145286 0.039844885 0.031484313 0.07172121 -0.14880154 -0.115827754 0.09330745 -0.0890337
-0.056531742 -0.014996875 0.24433161 0.056278594 -0.06044256 -0.13641375 0.19413719 0.09754728
-0.0034463184 0.1148562 -0.1423598 -0.01067801 0.26739404 -0.034227602 -0.085475914 0.009917328
-0.009517858 0.10012641 0.04467121 0.035706613 0.123108156 0.02414771 0.1458734 -0.025553271
0.17412196 -0.084107384 -0.05830295 0.17762147 -0.11363957 -0.12074706 -0.08225443 0.09464753
-0.06317286 -0.079286836 -0.10534723 0.20812374 0.06251706 -0.10858348 -0.15349889 0.15134892
-0.0563267 0.091302164 -0.011601374 -0.057467327 0.15710142 -0.049908586 0.18741634 0.11683235
-0.31964943 -0.21410185 0.10571093 -0.11542545 0.096907094 0.10452748 -0.34224814 -0.092063226
-0.0009221759 0.025578227 -0.026281415 -0.01856218 -0.39341837 0.0068607386 0.13194956 0.13288343
-0.18958494 -0.098278835 0.15221326 -0.24429396 0.11011422 -0.0707937 0.034311768 -0.25078508
-0.026179131 0.07745635 0.015813027 -0.19137982 0.003251862 -0.1443512 -0.07963532 -0.40877777
-0.22460717 -0.047808968 0.22106735 -0.0025873017 0.0012125599 0.08141406 -0.20421927 -0.11360317
0.03355288 -0.11071147 0.31554422 -0.19848047 0.00586145 -0.014334583 0.048639722 0.02386284
-0.018306304 0.03235509 -0.10261221 -0.13719355 -0.055877183 0.033380076 -0.17469704 -0.15195492
-0.2155918 -0.14970693 -0.18409826 0.18750076 0.25359863 -0.13035066 0.033171892 -0.28900647
0.22688726 0.02516143 -0.29963762 -0.07580561 0.036337085 0.0064710886 0.12667657 0.14224954
0.02237081 -0.07141387 0.03286287 0.019180402 0.20943022 0.15013534 0.25429845 0.1264727
-0.10797259 -0.120182835 -0.11001553 0.034278363 -0.12138996 0.06520076 -0.023324778 -0.046044633
0.17686889 0.030540872 -0.017338896 -0.09008802 -0.19395894 0.120617025 -0.17235039 -0.12894464
0.2235256 0.012475899 0.14092334 0.12854815 0.06183944 -0.07364926 0.051574804 -0.0232721
0.2782048 0.021086065 0.101508975 -0.14271651 0.087989785 -0.41617593 0.15345536 -0.10503069
0.07311031 -0.14027762 0.02754985 0.2962574 -0.044613738 -0.029229872 -0.10497268 0.049542125
-0.24727017 0.1884735 -0.04370007 0.13872966 -0.07621246 0.009170655 0.029234068 -0.083036914
0.1357472 -0.06816749 -0.017516438 -0.043981165 -0.24882932 0.054196633 0.03067044 -0.33011916
0.08091282 0.034754068 -0.04985028 0.062495954 0.06555592 -0.11361073 0.018462244 -0.10172636
-0.07249933 0.22815172 0.21597694 0.037835088 0.078080304 -0.07594282 0.033787638 -0.10494989
-0.10339953 0.030748142 0.11771337 -0.16053823 0.017752565 0.04708342 -0.028053515 0.037231952

network_body._body_endoder.seq_layers.0.bias f4 [128]
00000000: 0000 0000 0000 0000 0000 0000 0000 0000
00000010: 0000 0000 0000 0000 0000 0000 0000 0000
00000020: 0000 0000 0000 0000 0000 0000 0000 0000
00000030: 0000 0000 0000 0000 0000 0000 0000 0000
00000040: 0000 0000 0000 0000 0000 0000 0000 0000
00000050: 0000 0000 0000 0000 0000 0000 0000 0000
00000060: 0000 0000 0000 0000 0000 0000 0000 0000
00000070: 0000 0000 0000 0000 0000 0000 0000 0000
00000080: 0000 0000 0000 0000 0000 0000 0000 0000
00000090: 0000 0000 0000 0000 0000 0000 0000 0000
000000a0: 0000 0000 0000 0000 0000 0000 0000 0000
000000b0: 0000 0000 0000 0000 0000 0000 0000 0000
000000c0: 0000 0000 0000 0000 0000 0000 0000 0000
000000d0: 0000 0000 0000 0000 0000 0000 0000 0000
000000e0: 0000 0000 0000 0000 0000 0000 0000 0000
000000f0: 0000 0000 0000 0000 0000 0000 0000 0000
00000100: 0000 0000 0000 0000 0000 0000 0000 0000
00000110: 0000 0000 0000 0000 0000 0000 0000 0000
00000120: 0000 0000 0000 0000 0000 0000 0000 0000
00000130: 0000 0000 0000 0000 0000 0000 0000 0000
00000140: 0000 0000 0000 0000 0000 0000 0000 0000
00000150: 0000 0000 0000 0000 0000 0000 0000 0000
00000160: 0000 0000 0000 0000 0000 0000 0000 0000
00000170: 0000 0000 0000 0000 0000 0000 0000 0000
00000180: 0000 0000 0000 0000 0000 0000 0000 0000
00000190: 0000 0000 0000 0000 0000 0000 0000 0000
000001a0: 0000 0000 0000 0000 0000 0000 0000 0000
000001b0: 0000 0000 0000 0000 0000 0000 0000 0000
000001c0: 0000 0000 0000 0000 0000 0000 0000 0000
000001d0: 0000 0000 0000 0000 0000 0000 0000 0000
000001e0: 0000 0000 0000 0000 0000 0000 0000 0000
000001f0: 0000 0000 0000 0000 0000 0000 0000 0000
0.0 0.0 0.0 0.0 0.0 0.0 0.0 0.0
0.0 0.0 0.0 0.0 0.0 0.0 0.0 0.0
0.0 0.0 0.0 0.0 0.0 0.0 0.0 0.0
0.0 0.0 0.0 0.0 0.0 0.0 0.0 0.0
0.0 0.0 0.0 0.0 0.0 0.0 0.0 0.0
0.0 0.0 0.0 0.0 0.0 0.0 0.0 0.0
0.0 0.0 0.0 0.0 0.0 0.0 0.0 0.0
0.0 0.0 0.0 0.0 0.0 0.0 0.0 0.0
0.0 0.0 0.0 0.0 0.0 0.0 0.0 0.0
0.0 0.0 0.0 0.0 0.0 0.0 0.0 0.0
0.0 0.0 0.0 0.0 0.0 0.0 0.0 0.0
0.0 0.0 0.0 0.0 0.0 0.0 0.0 0.0
0.0 0.0 0.0 0.0 0.0 0.0 0.0 0.0
0.0 0.0 0.0 0.0 0.0 0.0 0.0 0.0
0.0 0.0 0.0 0.0 0.0 0.0 0.0 0.0
0.0 0.0 0.0 0.0 0.0 0.0 0.0 0.0
