results/currentRun/3DBall/3DBall-1802.pt (torch, 171010 bytes, 21 tensors)

network_body.observation_encoder.processors.0.normalizer.running_mean f4 [22]
00000000: ab64 113a 5aae 1c40 0017 da3a d268 1c40
00000010: 2c70 7e3b d63d 1c40 ab64 113b 4513 1c40
00000020: 0217 da3a 3808 1c40 ab64 913a 1305 1c40
00000030: 0017 5a3b fb17 1c40 d6bd b53b 9ff7 1b40
00000040: f67a 1a3c 2714 1d40 f67a 1a3c 18b1 1e40
00000050: 6aea 473c c1c0 1f40
0.0005546312 2.4481416 0.0016638935 2.4438977 0.0038824184 2.4412742 0.0022185247 2.438676
0.0016638937 2.4380016 0.0011092623 2.4378097 0.003327787 2.4389637 0.005546312 2.4369886
0.00942873 2.454355 0.00942873 2.479559 0.012201885 2.4961398

network_body.observation_encoder.processors.0.normalizer.running_variance f4 [22]
00000000: d3ed ff3f b1ab 1d47 37ae 7f40 98a3 1d47
00000010: 6021 ff40 9d91 1d47 4db7 9f40 4a94 1d47
00000020: 38ae 7f40 86a5 1d47 a7db 3f40 7fca 1d47
00000030: 6f5c df40 a2c8 1d47 d31c 2f41 00b9 1d47
00000040: bbb7 8e41 4cdb 1d47 bcb7 8e41 5f13 1e47
00000050: 3cda b541 8529 1e47
1.9994453 40363.69 3.9950082 40355.594 7.972824 40337.613 4.9911256 40340.29
3.9950085 40357.523 2.9977815 40394.496 6.9800334 40392.633 10.944537 40377.0
17.839712 40411.297 17.839714 40467.37 22.73156 40489.52

network_body.processors.0.normalizer.running_mean f4 [22]
00000000: ab64 113a 5aae 1c40 0017 da3a d268 1c40
00000010: 2c70 7e3b d63d 1c40 ab64 113b 4513 1c40
00000020: 0217 da3a 3808 1c40 ab64 913a 1305 1c40
00000030: 0017 5a3b fb17 1c40 d6bd b53b 9ff7 1b40
00000040: f67a 1a3c 2714 1d40 f67a 1a3c 18b1 1e40
00000050: 6aea 473c c1c0 1f40
0.0005546312 2.4481416 0.0016638935 2.4438977 0.0038824184 2.4412742 0.0022185247 2.438676
0.0016638937 2.4380016 0.0011092623 2.4378097 0.003327787 2.4389637 0.005546312 2.4369886
0.00942873 2.454355 0.00942873 2.479559 0.012201885 2.4961398

network_body.processors.0.normalizer.running_variance f4 [22]
00000000: d3ed ff3f b1ab 1d47 37ae 7f40 98a3 1d47
00000010: 6021 ff40 9d91 1d47 4db7 9f40 4a94 1d47
00000020: 38ae 7f40 86a5 1d47 a7db 3f40 7fca 1d47
00000030: 6f5c df40 a2c8 1d47 d31c 2f41 00b9 1d47
00000040: bbb7 8e41 4cdb 1d47 bcb7 8e41 5f13 1e47
00000050: 3cda b541 8529 1e47
1.9994453 40363.69 3.9950082 40355.594 7.972824 40337.613 4.9911256 40340.29
3.9950085 40357.523 2.9977815 40394.496 6.9800334 40392.633 10.944537 40377.0
17.839712 40411.297 17.839714 40467.37 22.73156 40489.52

network_body._body_endoder.seq_layers.0.weight f4 [128, 22]
00000000: 4443 a03e fafe 31be ffc7 7d3d b4ca 6f3d
00000010: 2c30 413e 7d13 7fbd c84e 24be 7e1f dbbd
00000020: 9249 013e db88 2b3e 1cbc c53d e33c a6bc
00000030: a028 b23d 49f0 513e fe90 c73e ada2 6fbd
00000040: a960 9dbe a6ff 29bb b9cf 03bd 83a2 6a3e
00000050: cfde 293c 5a1b 1abe 3a65 23be bbf6 b23d
00000060: 6f39 49be 2636 933e e22d 2a3e 7d94 32be
00000070: f1fd 3a3e 2e1b d5ba 738a bd3e e9e0 53be
00000080: 5ef0 0a3b 800a 7c3e 8fdf 0dbe bb3b 113e
00000090: 305d 8b3d b9a5 7a3d 3a0b 74be 8133 953e
000000a0: 430e d0bc e493 953e 2ec1 763e 25b8 17be
000000b0: ada7 e53d 4c19 693e 5168 0cbf a0e4 ac3d
000000c0: 49f8 1bbe c826 f13d 7829 ce3e 61bf 043d
000000d0: 002b dcbd 70a0 ca3e 53db 0f3e 642d 5bbc
000000e0: 5f32 c3be 91aa 453d f036 4ebe 2e84 083e
000000f0: 9e95 c1be 5793 c7bd 6acd 4b3e f51c 10bd
00000100: 8d82 58be 1cf6 4cbd e951 023e a851 aa3d
00000110: 2839 393c 91e2 9cbe 14df 993d 0d52 17be
00000120: 3590 e83d 1496 15be e665 f93b e342 b4bd
00000130: e02b 443e 1830 203e 5521 4bbd 4bc6 44be
00000140: d6b0 2f3e 2065 d93e 7af7 44be 92ab 4ebd
00000150: e0d1 7bbd bb10 48be ae4c edbe b3ac 3fbe
00000160: 6173 31be e2f6 423e 0ba8 22be 3d8e 8a3e
00000170: 7098 9b3e 50de 80bd be02 603d fd12 2b3d
00000180: 51f5 55bd d388 a33e b4c2 60bc 9ce8 36bd
00000190: 56ed 01be a919 653e 09c4 813e 0a1a 2e3e
000001a0: 8220 4c3e e71b 333d b01a 9c3e e2ef 613d
000001b0: 8e53 ec3c 20c6 703e 3796 5cbe a01c 8cbe
000001c0: c65c bb3e 6a52 0c3d 2db1 8abd dd2a 973e
000001d0: 9bdd 4d3c d948 cdbe cf4c 093c aa7f babe
000001e0: ba2c 8e3e 9233 ef3e 16e5 90be 760c ef3c
000001f0: e765 cd3d a67a 14be fbd5 f43c ee5c 853e
00000200: 55dd 18bd 2bf2 7bbd 4445 b9bc aa15 0b3d
00000210: 645b ccbe 32b1 9ebe 455b c63e fc2b d7bc
00000220: 1f37 0d3e 83cc e9be 3d36 f3bd b897 9fbd
00000230: 143c 87bb 88bc 11be 7a44 57be d36f 02be
00000240: 9d00 053e 5358 83bc 9a93 473e 4178 92bd
00000250: 27fd e1be ab94 b4be a39c 2c3d fb1a 533e
00000260: 16f8 633e 7f0b 82be 8ef9 2d3d 66cf 50bb
00000270: ff06 ccbd 0838 30bc 3f14 4cbe 54df b8be
00000280: 8d9a 8f3e 86c2 aa3e df90 a33d f661 27be
00000290: 4ecd acbd 8663 e2bd 2ebb 2f3e 8490 cebe
000002a0: 395e 833d a317 1d3e 1301 d0bd 0788 8cbb
000002b0: edd6 03bd beb2 3ebd 6dfb 48be cab0 303d
000002c0: 8ea5 1a3d 101a 7dbe 5fad 9f3d 03af 7fbe
000002d0: bb20 7b3e 1860 83be 139a 69bc 26c2 3e3e
000002e0: 0f21 32bd f998 ecbd 1d7e c1bd 8421 713d
000002f0: d972 64be 4026 2abd 0093 1abe c88d 0ebe
00000300: 0d00 fa3c 3ea5 3d3e 8a36 82be 89a5 523c
00000310: 8299 d8bd 683d afbe c3ad e7bd 2bdc 86bd
00000320: b57d 9c3e 974a b5bc debf 02bf f076 a33c
00000330: cc9e 34be 1d3f c8be 641e b73c 3603 64be
00000340: ac62 933a 3713 9b3e 2087 383d f471 623e
00000350: 74dd 023e 3405 c23e 06f3 0c3e d3ef d0be
00000360: 474c 103b 677f 233e d38f bc3e d9c1 b83d
00000370: 0f99 6c3e 167a 9ebb d232 833e 0c78 503d
00000380: 65a4 663e 72f0 763e 8e4b 223e a27e 37bd
00000390: 7f2b 5fbe c4b0 5fbe 379f 803e 2d1e 77bd
000003a0: 50fd 7a3e ba63 95bc a2ce ad3d 4ef0 e4be
000003b0: 8de3 f1bd 65a3 a1be d6b3 183e 079c 943b
000003c0: b5b3 523e 8f17 46be c0dc adbd 4680 05bd
000003d0: 369a 203c 650f 1b3e 352d f53e 3e20 b83c
000003e0: 4520 84be aafd afbb 0d68 5bbe 4647 8bbe
000003f0: c882 3d3d 8199 08be 8d56 00bf 312e a13e
0.3130132 -0.17382422 0.06195831 0.058542922 0.18866032 -0.062274445 -0.16045678 -0.10699366
0.12625721 0.16751425 0.0965502 -0.020292705 0.08699155 0.20501818 0.38977808 -0.05850475
-0.30737808 -0.0025939732 -0.03218052 0.22913556 0.010368063 -0.15049496 -0.15956584 0.08738466
-0.19650815 0.2875225 0.16619065 -0.17439456 0.18260933 -0.001625871 0.3701969 -0.20691265
0.00212004 0.2461338 -0.13854812 0.14182942 0.068048835 0.0611932 -0.23832408 0.29140857
-0.025397426 0.29214394 0.2409713 -0.1481634 0.11213622 0.22763556 -0.54846674 0.08442044
-0.15231432 0.11774975 0.40266013 0.032409076 -0.10750389 0.3957553 0.1404851 -0.013377521
-0.38124368 0.048258368 -0.20138144 0.13331673 -0.3780946 -0.097449 0.19902578 -0.035183866
-0.21143551 -0.050039396 0.12726559 0.08316356 0.011305131 -0.30641606 0.07513252 -0.14777394
0.1135563 -0.14608032 0.007611024 -0.0880182 0.19157362 0.15643346 -0.049592335 -0.19216268
0.17157301 0.42459965 -0.1923503 -0.05045659 -0.06147945 -0.19537632 -0.46347564 -0.18718223
-0.1732917 0.19039491 -0.15884416 0.27061644 0.30389738 -0.06292403 0.054690115 0.041766156
-0.052235905 0.31940326 -0.013718296 -0.044655427 -0.12688193 0.2237307 0.25344875 0.1700212
0.19934276 0.04372778 0.3048911 0.05516041 0.028848436 0.23513079 -0.21541677 -0.2736559
0.36594218 0.034258284 -0.06772075 0.2952489 0.012565042 -0.4009464 0.008380129 -0.36425525
0.277685 0.46719033 -0.2829978 0.029180747 0.10029202 -0.14499912 0.02988719 0.26047462
-0.037320454 -0.061510246 -0.022616036 0.033956207 -0.39913476 -0.30994564 0.38741508 -0.02626609
0.13790558 -0.45663843 -0.118755795 -0.0779261 -0.004127035 -0.14232075 -0.21022215 -0.1273797
0.12988515 -0.016033327 0.194899 -0.07151843 -0.44138452 -0.35269675 0.042141568 0.20615761
0.22262606 -0.25399396 0.042474322 -0.00318619 -0.09962272 -0.010755546 -0.19929598 -0.36107886
0.280476 0.33351535 0.07986616 -0.16345963 -0.08437596 -0.11054139 0.17161247 -0.40344632
0.06414456 0.15341048 -0.10156455 -0.0042886767 -0.03218739 -0.04655718 -0.19627161 0.04313735
0.03775554 -0.24716973 0.0779674 -0.24969105 0.24524204 -0.2565925 -0.014257926 0.18628749
-0.04348856 -0.11552615 -0.09447882 0.058869854 -0.22309436 -0.041540384 -0.15095139 -0.13921273
0.030517602 0.18520066 -0.25432235 0.0128568495 -0.10576154 -0.34226537 -0.11312439 -0.065849625
0.30564657 -0.022130294 -0.51074016 0.019954175 -0.17638701 -0.39110652 0.022353359 -0.2226685
0.0011244616 0.30288097 0.04505074 0.22113782 0.1277979 0.37894595 0.13764581 -0.4080797
0.002201812 0.15966569 0.3682848 0.090213485 0.23105262 -0.004836331 0.2562471 0.050895736
0.22523649 0.2411516 0.15849134 -0.0447985 -0.21793936 -0.21844774 0.2512147 -0.060331512
0.24510694 -0.01823603 0.08486678 -0.44714588 -0.1181098 -0.31569973 0.14912352 0.0045352015
0.20576365 -0.19344924 -0.0848937 -0.032593034 0.009802392 0.15142591 0.47886053 0.022476312
-0.2580587 -0.0053708153 -0.21426411 -0.27202815 0.0462673 -0.13339807 -0.50132066 0.31480554

network_body._body_endoder.seq_layers.0.bias f4 [128]
00000000: 0000 0000 0000 0000 0000 0000 0000 0000
00000010: 0000 0000 0000 0000 0000 0000 0000 0000
00000020: 0000 0000 0000 0000 0000 0000 0000 0000
00000030: 0000 0000 0000 0000 0000 0000 0000 0000
00000040: 0000 0000 0000 0000 0000 0000 0000 0000
00000050: 0000 0000 0000 0000 0000 0000 0000 0000
00000060: 0000 0000 0000 0000 0000 0000 0000 0000
00000070: 0000 0000 0000 0000 0000 0000 0000 0000
00000080: 0000 0000 0000 0000 0000 0000 0000 0000
00000090: 0000 0000 0000 0000 0000 0000 0000 0000
000000a0: 0000 0000 0000 0000 0000 0000 0000 0000
000000b0: 0000 0000 0000 0000 0000 0000 0000 0000
000000c0: 0000 0000 0000 0000 0000 0000 0000 0000
000000d0: 0000 0000 0000 0000 0000 0000 0000 0000
000000e0: 0000 0000 0000 0000 0000 0000 0000 0000
000000f0: 0000 0000 0000 0000 0000 0000 0000 0000
00000100: 0000 0000 0000 0000 0000 0000 0000 0000
00000110: 0000 0000 0000 0000 0000 0000 0000 0000
00000120: 0000 0000 0000 0000 0000 0000 0000 0000
00000130: 0000 0000 0000 0000 0000 0000 0000 0000
00000140: 0000 0000 0000 0000 0000 0000 0000 0000
00000150: 0000 0000 0000 0000 0000 0000 0000 0000
00000160: 0000 0000 0000 0000 0000 0000 0000 0000
00000170: 0000 0000 0000 0000 0000 0000 0000 0000
00000180: 0000 0000 0000 0000 0000 0000 0000 0000
00000190: 0000 0000 0000 0000 0000 0000 0000 0000
000001a0: 0000 0000 0000 0000 0000 0000 0000 0000
000001b0: 0000 0000 0000 0000 0000 0000 0000 0000
000001c0: 0000 0000 0000 0000 0000 0000 0000 0000
000001d0: 0000 0000 0000 0000 0000 0000 0000 0000
000001e0: 0000 0000 0000 0000 0000 0000 0000 0000
000001f0: 0000 0000 0000 0000 0000 0000 0000 0000
0.0 0.0 0.0 0.0 0.0 0.0 0.0 0.0
0.0 0.0 0.0 0.0 0.0 0.0 0.0 0.0
0.0 0.0 0.0 0.0 0.0 0.0 0.0 0.0
0.0 0.0 0.0 0.0 0.0 0.0 0.0 0.0
0.0 0.0 0.0 0.0 0.0 0.0 0.0 0.0
0.0 0.0 0.0 0.0 0.0 0.0 0.0 0.0
0.0 0.0 0.0 0.0 0.0 0.0 0.0 0.0
0.0 0.0 0.0 0.0 0.0 0.0 0.0 0.0
0.0 0.0 0.0 0.0 0.0 0.0 0.0 0.0
0.0 0.0 0.0 0.0 0.0 0.0 0.0 0.0
0.0 0.0 0.0 0.0 0.0 0.0 0.0 0.0
0.0 0.0 0.0 0.0 0.0 0.0 0.0 0.0
0.0 0.0 0.0 0.0 0.0 0.0 0.0 0.0
0.0 0.0 0.0 0.0 0.0 0.0 0.0 0.0
0.0 0.0 0.0 0.0 0.0 0.0 0.0 0.0
0.0 0.0 0.0 0.0 0.0 0.0 0.0 0.0

network_body._body_endoder.seq_layers.2.weight f4 [128, 128]
00000000: 9e9e 493e 19b8 9a3d 9959 4dbc f152 3cbe
00000010: 5858 71be b387 35bd 8051 b43c 3046 583c
00000020: 4c3e 923d 2c82 583d 938c 853b ec6b f73c
00000030: ed1e f3bc 006c 203d 44c0 1abd 34a5 00bd
00000040: ed88 bcbc c13a a9bd aa0b 17be 1809 f13d
00000050: 3b5a a53c e44c e0bd 6edc 96bd 4281 10be
00000060: c377 d5bc 6582 393d db16 38be fff8 01be
00000070: c9bc 0d3d 766e 893d 48c3 f3bd ea26 f1bd
00000080: e428 bcbb f47b 89bc e135 4e3e 1c8b 823d
00000090: 569d f0bc add5 b2bc 3f62 a83d a1e4 cabd
000000a0: f871 27bd 4caa 72bd c29b ab3d 1395 07bd
000000b0: 54ed c8bc 89f6 fdb9 8505 de3d 3557 e03c
000000c0: 3f31 2abc 79bb 523d 715f 353e 6178 09bd
000000d0: a19e f93c aaef c23d 8c55 5dbe f0e9 a5bb
000000e0: a0c2 113d 3e21 d5bc 9d00 2abe 8e48 1dbd
000000f0: b678 1bbe 2dcb 5f3d 9e65 a0bd 4069 183d
00000100: c347 03bd ae14 323d 7d24 333d 1bae c43d
00000110: 5d98 943d 1e15 143e 1dc4 003d 8f48 bfbd
00000120: 6bd9 23bb e88c 74bd 9263 97bd bcfa ea3c
00000130: 188f f3bd a782 acbd 1ce3 013d 3e8b 88bb
00000140: f2a0 8e3d e500 e0bd fc0f 8239 902f 37be
00000150: 13a1 03be b796 ec3c c6e4 9cbd ea07 8f3d
00000160: ce13 89bd 8526 f23d 5904 38bd ecc7 f13c
00000170: a7ac 56bd 1323 abbd f6ec da3c bf83 203d
00000180: 40a1 08bd 3266 853d 0de1 c03d 1875 30bd
00000190: 794d 753d 8b1d 103d 614f 80bd 4e8a 83bd
000001a0: b572 8e3d 23b4 953d 051e 8dbd 2233 003c
000001b0: 0508 a0bc 0aa7 7a3e f3ce 2ebd 3365 dd3b
000001c0: 9600 bf3c 68eb 5f3d 5bc6 88bd 5bce 4fbd
000001d0: aea8 78bc 2b22 3abd 9d71 0c3d 5cb8 363d
000001e0: 276b 9b3d a3e4 09be 1e4f 4cbe f542 283e
000001f0: 3573 963d 1806 c9bb af42 1fbd be2d eb3d
00000200: ffa5 fd3b 63a0 4e3e 3343 ee3b 0ab0 a4bd
00000210: 8841 a8bc f25e c63d 8787 de3d 1657 103e
00000220: 68e1 253e 92fc b6bd 979a cdbd 3ec1 113e
00000230: 71c4 dbbc ca94 06be 8ad6 f33c 23ca b0bd
00000240: 6b1d 0f3e a308 b03d 81a8 9c3c f4ac ccbd
00000250: 7d41 c73d f4bc 823d c2dc d4bd 803b 2cbd
00000260: c7ae 70bd f5cc 02bd 3c3d 173d 4fe4 cfbd
00000270: f12e 413d b5eb 8a3d 1734 763d a430 5bbd
00000280: 9c69 41be e67d a1bd e89a 363c 890f 20bd
00000290: cd10 af3d 29c2 0abd 66b6 6c3e 40a1 d3bd
000002a0: ceb2 a13c ea9e ffbd c594 893c be82 01bc
000002b0: b3ac 6bbc dfd9 dbbc 35f0 94bd a025 12be
000002c0: 8234 cabb 2fd4 d3bc 94ba 783d 6555 263d
000002d0: 7bb2 9c3c 8908 bc3d 0155 163d a911 cd3d
000002e0: 8c40 cfbd 0d6e 40bd ed6f b0bd 36b1 03be
000002f0: a11c b9bd 418b 153d eb3d 7a3d bb5a 883d
00000300: 27d6 6ebd 6723 c8bd a444 d53d fc9a 0c3e
00000310: 3c9e fe3d e28d 33bd 8897 9dbd c995 f83c
00000320: c78d fe3d 38ec 5f3e cbd3 01bc b6e5 acbc
00000330: 176d 523c 3ec4 2cbd 50d4 843e 526d 73bd
00000340: 3f74 ce3d d6b8 04be 637f e43d f7a8 abbc
00000350: ddff 4c3d a9c0 013e 7589 cebd f565 543c
00000360: f34c 1d3e 9580 0fbb 7948 103d 2eaa 8abd
00000370: e391 023e 77d5 3f3d a5eb 94bb 1bb4 5cbb
00000380: 7e13 173e 47ed dcbc 02e6 4fbd 9e01 5a3a
00000390: 69d3 413e 244c 1bbd a402 8abd 69d7 013e
000003a0: 7b8d 41bc e666 36be 190c 12be e213 393d
000003b0: f34f 423d 4716 863e 398c 473c a20d 383d
000003c0: f86a ab3d fc91 d03d 684d 08bd bcff 233e
000003d0: f936 843d 6b64 1dbd 4686 523d 1534 75bc
000003e0: d69b 1e3c aa5a 09be d279 87bd 1365 3d3e
000003f0: 1ee0 e6bd 35e4 7f3d af70 ccbd f88d b7ba
0.19689414 0.07554645 -0.012533569 -0.18391015 -0.23568857 -0.044318866 0.022011518 0.013200328
0.071407884 0.052858517 0.0040755956 0.030202828 -0.029677832 0.039165497 -0.037781015 -0.03140755
-0.02301451 -0.082631595 -0.14750543 0.117693126 0.020184627 -0.10952166 -0.073662624 -0.14111808
-0.026058083 0.04529037 -0.17977469 -0.1269264 0.034603868 0.06710522 -0.11902481 -0.117750004
-0.005742179 -0.016782738 0.2013774 0.06374189 -0.029371899 -0.021830404 0.08221864 -0.09906889
-0.040880173 -0.05924444 0.08379318 -0.033101153 -0.02452723 -0.00048439603 0.108408965 0.027385334
-0.010387718 0.05144832 0.1771219 -0.033562068 0.030471148 0.095183685 -0.21614665 -0.005063288
0.035586 -0.026016828 -0.16601796 -0.03839927 -0.15182766 0.054637123 -0.07831882 0.03720975
-0.03205086 0.043476753 0.04373597 0.096035205 0.072556235 0.1446118 0.03143703 -0.09340011
-0.0025001417 -0.05970469 -0.073920384 0.028684013 -0.11892527 -0.084233575 0.03171073 -0.0041669896
0.06964292 -0.109376706 0.00024807442 -0.17889237 -0.12854414 0.02888046 -0.076608226 0.06983931
-0.066932306 0.11823753 -0.04492602 0.029514275 -0.052410748 -0.08356299 0.02672432 0.039188143
-0.033356905 0.06513633 0.09417925 -0.04308042 0.059888337 0.035184424 -0.0626514 -0.06422864
0.069554724 0.07309749 -0.068904914 0.007824691 -0.019535074 0.24477783 -0.04267783 0.0067564487
0.02331571 0.05466786 -0.06678458 -0.050733905 -0.015176935 -0.04544274 0.034288038 0.044609413
0.07588797 -0.13466124 -0.19952056 0.16431792 0.07346193 -0.0061347596 -0.038881954 0.11483334
0.0077407355 0.2017837 0.0072711944 -0.08041389 -0.02053906 0.09686078 0.108656935 0.1409572
0.16199267 -0.08934893 -0.10039251 0.14233872 -0.026827069 -0.13142696 0.029765386 -0.086323045
0.13976066 0.08595397 0.019123318 -0.09993926 0.09729288 0.06383696 -0.10393669 -0.04204893
-0.05876043 -0.031933744 0.036923632 -0.10150968 0.047163907 0.06783239 0.06010827 -0.053513184
-0.18887943 -0.07885341 0.011145331 -0.039077315 0.08548126 -0.03387657 0.23116454 -0.1033349
0.019738581 -0.12481482 0.016794572 -0.0079047065 -0.014384436 -0.026837287 -0.07272378 -0.14272165
-0.00617081 -0.025858013 0.06072481 0.040608782 0.019128075 0.091813155 0.03670216 0.10013134
-0.10119733 -0.046979953 -0.08615098 -0.1286057 -0.09038664 0.036509756 0.061094206 0.066579305
-0.0583097 -0.097723775 0.10413483 0.13730997 0.124325246 -0.043836482 -0.07694918 0.03034486
0.12429386 0.21867454 -0.007924031 -0.021105628 0.012843392 -0.04217934 0.25943232 -0.059430428
0.10080766 -0.12961134 0.111571096 -0.020954592 0.050048698 0.1267115 -0.100848116 0.012963762
0.15361385 -0.002189671 0.035225365 -0.067707404 0.12750964 0.046834435 -0.0045446926 -0.0033676687
0.1475353 -0.026968611 -0.050756462 0.0008316281 0.18928303 -0.03791441 -0.06738785 0.12679829
-0.011813517 -0.1781269 -0.14262427 0.045184977 0.047439527 0.2618887 0.012179428 0.044934876
0.08370012 0.10184094 -0.033276945 0.16015524 0.06455798 -0.038425844 0.051397584 -0.014966031
0.009680709 -0.13413492 -0.06615032 0.18495588 -0.11273216 0.062473495 -0.0998243 -0.0014004102

network_body._body_endoder.seq_layers.2.bias f4 [128]
00000000: 0000 0000 0000 0000 0000 0000 0000 0000
00000010: 0000 0000 0000 0000 0000 0000 0000 0000
00000020: 0000 0000 0000 0000 0000 0000 0000 0000
00000030: 0000 0000 0000 0000 0000 0000 0000 0000
00000040: 0000 0000 0000 0000 0000 0000 0000 0000
00000050: 0000 0000 0000 0000 0000 0000 0000 0000
00000060: 0000 0000 0000 0000 0000 0000 0000 0000
00000070: 0000 0000 0000 0000 0000 0000 0000 0000
00000080: 0000 0000 0000 0000 0000 0000 0000 0000
00000090: 0000 0000 0000 0000 0000 0000 0000 0000
000000a0: 0000 0000 0000 0000 0000 0000 0000 0000
000000b0: 0000 0000 0000 0000 0000 0000 0000 0000
000000c0: 0000 0000 0000 0000 0000 0000 0000 0000
000000d0: 0000 0000 0000 0000 0000 0000 0000 0000
000000e0: 0000 0000 0000 0000 0000 0000 0000 0000
000000f0: 0000 0000 0000 0000 0000 0000 0000 0000
00000100: 0000 0000 0000 0000 0000 0000 0000 0000
00000110: 0000 0000 0000 0000 0000 0000 0000 0000
00000120: 0000 0000 0000 0000 0000 0000 0000 0000
00000130: 0000 0000 0000 0000 0000 0000 0000 0000
00000140: 0000 0000 0000 0000 0000 0000 0000 0000
00000150: 0000 0000 0000 0000 0000 0000 0000 0000
00000160: 0000 0000 0000 0000 0000 0000 0000 0000
00000170: 0000 0000 0000 0000 0000 0000 0000 0000
00000180: 0000 0000 0000 0000 0000 0000 0000 0000
00000190: 0000 0000 0000 0000 0000 0000 0000 0000
000001a0: 0000 0000 0000 0000 0000 0000 0000 0000
000001b0: 0000 0000 0000 0000 0000 0000 0000 0000
000001c0: 0000 0000 0000 0000 0000 0000 0000 0000
000001d0: 0000 0000 0000 0000 0000 0000 0000 0000
000001e0: 0000 0000 0000 0000 0000 0000 0000 0000
000001f0: 0000 0000 0000 0000 0000 0000 0000 0000
0.0 0.0 0.0 0.0 0.0 0.0 0.0 0.0
0.0 0.0 0.0 0.0 0.0 0.0 0.0 0.0
0.0 0.0 0.0 0.0 0.0 0.0 0.0 0.0
0.0 0.0 0.0 0.0 0.0 0.0 0.0 0.0
0.0 0.0 0.0 0.0 0.0 0.0 0.0 0.0
0.0 0.0 0.0 0.0 0.0 0.0 0.0 0.0
0.0 0.0 0.0 0.0 0.0 0.0 0.0 0.0
0.0 0.0 0.0 0.0 0.0 0.0 0.0 0.0
0.0 0.0 0.0 0.0 0.0 0.0 0.0 0.0
0.0 0.0 0.0 0.0 0.0 0.0 0.0 0.0
0.0 0.0 0.0 0.0 0.0 0.0 0.0 0.0
0.0 0.0 0.0 0.0 0.0 0.0 0.0 0.0
0.0 0.0 0.0 0.0 0.0 0.0 0.0 0.0
0.0 0.0 0.0 0.0 0.0 0.0 0.0 0.0
0.0 0.0 0.0 0.0 0.0 0.0 0.0 0.0
0.0 0.0 0.0 0.0 0.0 0.0 0.0 0.0

action_model._continuous_distribution.log_sigma f4 [1, 3]
00000000: 0000 0000 0000 0000 0000 0000
0.0 0.0 0.0

action_model._continuous_distribution.mu.weight f4 [3, 128]
00000000: 0d19 b5bc f1ad 86bc 810e 903c 3568 c2ba
00000010: 3ba9 a63c b384 95bc 6ca2 293b cd2f e9bb
00000020: 67ee 903c bd6e 873a 53ff cbbc 8fc1 32bc
00000030: 9138 873c 5c7a 87bc 2f00 bbbc 7766 483c
00000040: ab0e 923c 841c 9c3c 0781 a5bc 3297 d53c
00000050: ad9d f53b cc51 4c3d 6ac7 663c 3afb 5dbc
00000060: e108 043c d79c 07bd a593 6d3c 727d d13c
00000070: 5ceb 903c 1ace b33c 2989 c2ba 857f 343b
00000080: 5340 61bc 55c7 f6bc b5e9 02bd fa6d 913c
00000090: 082e fb3b 2b0e 8b3c 5e76 42bb 4160 003c
000000a0: ed2b a03b 1b20 cbbc a29f 1c3c cfca e8bc
000000b0: 6789 26bb 8e0c 0bbb a0c3 ae3c 379c 48ba
000000c0: 59f9 40bc 7f66 c03c dbc3 92bc fd8f 6f3c
000000d0: 4b72 8dbc eb03 8bbc eb78 4ebb 7fe3 b5ba
000000e0: b8ee 1abb e7a0 ddbb 4c4f c4bb bb37 febb
000000f0: 6d9d eeba 0e59 19bc f016 023c c369 24bd
00000100: e254 59bb b639 47bc 154d 0dbc 9b5b 9cbc
00000110: 4324 2d3d ee24 2c3c 5b0b a6bc f497 babc
00000120: f37d f3bc 0b17 bb3b f47c 1b3c bf5d a0bb
00000130: a0cc debc 0a26 0c3d 6b64 10bd 4d89 a23b
00000140: d65f 2bbc aa53 e73c c921 acbb c3cf 053c
00000150: 7f11 8dba 6395 6dbc 8bbe 09bc 275e 203b
00000160: 3c12 9a3c 2b8c 2b3c aadf 00bc 88b4 eabb
00000170: 925f 2bbd 0977 85bc 5746 b63c 0fd4 c53b
00000180: e841 4fbc ffb8 aebc b594 5e3c 1974 3bbd
00000190: c8e6 d7bb 1fdb c13b 49c9 8c3c 8f23 49bc
000001a0: b1f9 11bb e69f 0cba 4610 86ba 4893 0c3c
000001b0: 1bf8 053d 0cfd b1bc 11d7 2abc e32a 70bc
000001c0: 005d e73b dd6a 7ebb a176 973b 4d0f a6bc
000001d0: 0b36 e23c e0d9 f43c 1f4a 5bbd b0ed f43c
000001e0: 8441 9dbc 6231 32bb 4a4a 11bc 2a97 8b3b
000001f0: 4dbc e9bb ef8a 4c3c b9f2 093b b996 1d3c
00000200: b8dd 153b a3b7 55bb e795 373b 3d2d 553b
00000210: 9cf4 bbbc 159d e2bb e9de 81bb b1de b4bb
00000220: 60b3 1f3d c718 5b3c 768d a23c 93f3 32bc
00000230: b73c 643b 5780 febc e4ec 073a 12f4 e03c
00000240: 8b88 81bb 2ad2 24bd df16 c7bc 99f4 2ebb
00000250: dae0 7e3c 5087 3a3b 12cc 9b3c 93ed 0f3c
00000260: cedf 493c b95b 9f3c 8f71 d33c 0082 d3bc
00000270: db84 603c 08e4 32bc 49d0 033d ea6a 40bc
00000280: 8ff3 1d3d 7283 92bc 6ac2 e83c 1264 14bc
00000290: 651a e8bc 9089 34bc 736b f3bc c898 5fbc
000002a0: c0ff 80bc 48d9 49bc cbb1 26bb 544d c93a
000002b0: 677b 34bc 8fe9 52bc 01b6 a1bc fd6c 7d3c
000002c0: c233 753c 9371 8ebc c588 e0ba 7ef3 c63c
000002d0: daa5 163b cade 303b 8513 cabc c7ea 893c
000002e0: bc4e 113a 1879 983c 70df a2bb f9b5 8a3c
000002f0: 7af7 feba 47b8 89bc cf29 fbbc a7e8 8fbc
00000300: bf9a 31bc a10b c5bb 8b97 263b 221a 8a3c
00000310: dadd c4bc 87b5 05bc fd79 e3bb 1fcd 4abc
00000320: 65a0 d03c 9790 973b 80b2 653c dae8 953b
00000330: f7dd 1e3b e8ec 35bc 2fca 33bc 9283 e3bb
00000340: dfb3 dfbc 33ae 51bc 6796 8abc a5dc 59bd
00000350: a7de 85bc b2af d6bb 6f0b 7cbc 1ff9 5cbc
00000360: c427 87bc 12ec 1a3c 694c 93ba f2d9 ccbc
00000370: de98 b73a eb15 81bc 6325 543b a34f 683c
00000380: a0d6 343c 0b3b 5bbc 5b87 a1bc 4085 933c
00000390: 1f05 b9b9 0bdc ddbc ce9c 82bb 4879 6f3b
000003a0: 39de 2fbc a3c6 8abc 7d51 ea3b 589b 683c
000003b0: cfae c4bb 5d6d 6d3d d6aa 013d 4d5d dabb
000003c0: 242c 843b d6ea c6bb a5be 163b dea9 883c
000003d0: c7d8 1fbc 1755 e0bb d029 423c 40f9 093c
000003e0: 1ef9 27bc fd74 fabb ff64 3e3c 199d 88bc
000003f0: 0d13 793c 1b04 f1bb a4fd 38bc d35e ddbc
-0.022106672 -0.016440364 0.017585041 -0.0014832082 0.020344367 -0.018251752 0.0025884164 -0.007116294
0.017691804 0.0010332685 -0.024902022 -0.010910406 0.016506465 -0.016537838 -0.022827236 0.012231461
0.01782926 0.019056566 -0.020203127 0.026073072 0.007495603 0.049882695 0.01408563 -0.013548667
0.0080587575 -0.03310856 0.014500533 0.025572512 0.017690353 0.021948863 -0.0014841902 0.0027541828
-0.013748246 -0.030124346 -0.03196116 0.017752636 0.0076653995 0.01697453 -0.0029672603 0.007835449
0.004888049 -0.024795583 0.009559544 -0.02841702 -0.0025411488 -0.00212172 0.021333516 -0.00076526724
-0.011778199 0.023486374 -0.017915657 0.014621732 -0.017266413 -0.016969642 -0.0031505178 -0.0013877003
-0.0023640823 -0.006763566 -0.0059908982 -0.0077581084 -0.0018204876 -0.009359611 0.007940039 -0.040139925
-0.0033162166 -0.012159755 -0.008624335 -0.01908665 0.04227091 0.010506852 -0.020269087 -0.022777535
-0.029723143 0.005709534 0.00949024 -0.004893988 -0.027197182 0.034215964 -0.035252016 0.004960215
-0.010459861 0.028238136 -0.005253051 0.00816721 -0.001076266 -0.014500949 -0.008407245 0.0024470182
0.018807523 0.01047043 -0.007865826 -0.0071626343 -0.04183919 -0.016292112 0.022250338 0.0060372422
-0.012649991 -0.021328447 0.013585259 -0.045765016 -0.0065887906 0.005916014 0.017185824 -0.012276544
-0.0022274072 -0.0005364403 -0.0010228239 0.008580036 0.032707315 -0.021727107 -0.010427252 -0.0146586625
0.007060647 -0.003882102 0.004622296 -0.020270968 0.02761366 0.029889047 -0.053537484 0.029898494
-0.01919628 -0.002719008 -0.00886781 0.0042599635 -0.007133043 0.012484296 0.0021049215 0.009618455
0.002286775 -0.0032610677 0.0028012933 0.0032528185 -0.022943787 -0.0069156983 -0.0039633405 -0.005519711
0.038989425 0.013372607 0.019842844 -0.01092233 0.0034826228 -0.031067057 0.0005185141 0.027460132
-0.003953045 -0.04023949 -0.024302898 -0.0026696085 0.0155565385 0.0028462 0.019018207 0.008784669
0.012321426 0.019452916 0.025810985 -0.025818825 0.01370355 -0.010918625 0.032181058 -0.01174424
0.038562354 -0.017884944 0.028413016 -0.009057062 -0.028332898 -0.011019126 -0.029714322 -0.013647266
-0.015746951 -0.01231987 -0.0025435563 0.0015358129 -0.01101575 -0.0128730675 -0.019740107 0.015467879
0.014965953 -0.01738814 -0.0017130604 0.024286028 0.0022987039 0.0026988261 -0.02466751 0.016835583
0.00055430434 0.01861243 -0.0049704835 0.016932474 -0.0019452416 -0.016811503 -0.030659584 -0.017566992
-0.010840117 -0.006013349 0.0025419916 0.016858164 -0.024031568 -0.008160955 -0.0069420324 -0.012378006
0.025467107 0.0046253907 0.0140196085 0.004574877 0.0024241188 -0.011103846 -0.010973497 -0.0069431746
-0.027307449 -0.01279788 -0.01691742 -0.05318894 -0.01634152 -0.006551706 -0.015383585 -0.0134871295
-0.016498454 0.009455698 -0.0011237982 -0.025006268 0.001400735 -0.015757522 0.0032370917 0.014179143
0.011037499 -0.013380776 -0.019717863 0.018007874 -0.00035289765 -0.027082464 -0.0039859777 0.0036540795
-0.010734134 -0.01694042 0.0071508274 0.014197193 -0.006002284 0.057965625 0.031657062 -0.0066639544
0.0040335823 -0.006070475 0.0023001817 0.016682561 -0.009756274 -0.006846081 0.011850789 0.008421242
-0.010252265 -0.0076433406 0.011620759 -0.016676472 0.015202296 -0.0073552257 -0.011290941 -0.027022755

action_model._continuous_distribution.mu.bias f4 [3]
00000000: 0000 0000 0000 0000 0000 0000
0.0 0.0 0.0

action_model._discrete_distribution.branches.0.weight f4 [1, 128]
00000000: a7b0 103b 4a42 99bb fbb7 abbb dff3 02bc
00000010: 33d3 ab3c 345b 8fba 37a5 b938 f740 713c
00000020: 6317 b23a fb81 803b 0dfd 5d3c dbed 7c3c
00000030: 49b5 8cbb 28ce e53b 41e0 4b3b f99a 8cbb
00000040: b92d 41bc c351 b6ba aee1 453c 1a4d 4bbc
00000050: 4f56 88bb 98de 8d38 8552 d33b 9a3a da3b
00000060: 7b3a a7bb 584d 143c 4ff7 24bc 64a2 a63b
00000070: c261 3b38 a6e5 b7bb 1220 48bb c3b2 b83a
00000080: 06a8 01bc 9f3d 2a3c 72c4 bfbc 0eb5 8cbb
00000090: 459d 213c d3e8 13bc d997 0abc af12 edba
000000a0: 352a 00bc 5027 8cbc 93b4 b23c d832 4dbc
000000b0: 7b02 e33b 378f 96bc 88c4 853a 6aa7 71bc
000000c0: 673b d73b 0e7a 86bc ddc4 aabc ef78 21bb
000000d0: c9f1 abba df35 c2ba b312 fa3a b884 0cbc
000000e0: 33f7 703b dfec a93b 93f1 4ebc 7328 d33a
000000f0: 3a88 1fbc 178c 20b9 0882 d4bb 3ad6 e93b
00000100: 4b15 923b a22a e23b 43fd 553c ca03 3939
00000110: 3984 963b a231 24bc 9393 e1bb 5840 98ba
00000120: 86f1 49bb 0957 05bc a05d 49bc b9c7 193a
00000130: 4edc 8ebc b440 803b fa70 eb3b 88cc 40bc
00000140: 05cd 7a3b a297 caba a506 c33b 6d1d 8bbc
00000150: ab72 0cbc 5fb6 94bc 2658 483a 2356 51bc
00000160: ff37 8abb bb8f 63bc 872a 2b3a ac23 03bc
00000170: 8377 85b9 9308 33bc cdc7 78bc e908 ae3b
00000180: 3ffe 01bb 0da3 043c cfed a73a 6439 0ebc
00000190: 9323 36bc 8c43 133c b9c7 343c 43e1 f2ba
000001a0: f604 813b c802 acbb 53b4 1dbb cf3a 9fbb
000001b0: 276f 5fbc 87bd c73b f7e5 2abc 4851 1abc
000001c0: 4a59 593c 13db 67bb 88f6 683c 8efe 4b3b
000001d0: 4a3c 59bc 594c bd3b fb24 143c e43a 83bb
000001e0: 6b93 8e3b 52a5 5bbc 6ac7 e7bb c956 afbb
000001f0: eda4 56bc f304 c0ba 0a5c 113a 85a2 4e3c
0.002207795 -0.0046770917 -0.005240438 -0.007992714 0.020974731 -0.0010937215 8.852261e-05 0.0147249615
0.0013587292 0.003921745 0.013549102 0.015437569 -0.004294072 0.007013101 0.0031109008 -0.004290935
-0.011790686 -0.0013909865 0.012077732 -0.012408519 -0.0041606794 6.764865e-05 0.006449046 0.006659818
-0.005103407 0.009051643 -0.010068729 0.0050852764 4.467532e-05 -0.005612093 -0.0030536694 0.0014091361
-0.007913595 0.010390668 -0.023409102 -0.0042940443 0.009864156 -0.009027678 -0.008459055 -0.0018087233
-0.007822563 -0.01710859 0.02181462 -0.012524329 0.006927786 -0.018378837 0.0010205666 -0.014749387
0.0065683606 -0.016415622 -0.020845825 -0.0024638732 -0.0013118322 -0.001481708 0.0019079059 -0.0085765645
0.0036768436 0.005185708 -0.012630838 0.0016110077 -0.009737069 -0.00015310977 -0.0064852275 0.0071361335
0.0044581047 0.006902055 0.013060871 0.00017644386 0.004593399 -0.010021599 -0.0068840473 -0.0011615856
-0.0030814125 -0.008138427 -0.012290388 0.0005866248 -0.017439034 0.003913963 0.0071850987 -0.011767514
0.0038269174 -0.0015456567 0.00595172 -0.016981805 -0.008572261 -0.018153368 0.00076425297 -0.012776884
-0.004218101 -0.0138892485 0.00065294694 -0.00800411 -0.0002545678 -0.010927337 -0.015184355 0.0053111208
-0.001983538 0.008095515 0.0012811961 -0.008680675 -0.01111688 0.008988272 0.011033946 -0.0018530268
0.003937359 -0.005249355 -0.002406378 -0.0048593055 -0.013637341 0.0060955915 -0.010430804 -0.009418793
0.013265917 -0.003537838 0.014218934 0.0031127068 -0.013259003 0.0057769236 0.00904202 -0.004004823
0.0043510697 -0.013406115 -0.0070733326 -0.005350922 -0.013100845 -0.0014649912 0.0005545026 0.01261199

network_body.observation_encoder.processors.0.normalizer.running_mean f4 [22]
00000000: ab64 113a 5aae 1c40 0017 da3a d268 1c40
00000010: 2c70 7e3b d63d 1c40 ab64 113b 4513 1c40
00000020: 0217 da3a 3808 1c40 ab64 913a 1305 1c40
00000030: 0017 5a3b fb17 1c40 d6bd b53b 9ff7 1b40
00000040: f67a 1a3c 2714 1d40 f67a 1a3c 18b1 1e40
00000050: 6aea 473c c1c0 1f40
0.0005546312 2.4481416 0.0016638935 2.4438977 0.0038824184 2.4412742 0.0022185247 2.438676
0.0016638937 2.4380016 0.0011092623 2.4378097 0.003327787 2.4389637 0.005546312 2.4369886
0.00942873 2.454355 0.00942873 2.479559 0.012201885 2.4961398

network_body.observation_encoder.processors.0.normalizer.running_variance f4 [22]
00000000: d3ed ff3f b1ab 1d47 37ae 7f40 98a3 1d47
00000010: 6021 ff40 9d91 1d47 4db7 9f40 4a94 1d47
00000020: 38ae 7f40 86a5 1d47 a7db 3f40 7fca 1d47
00000030: 6f5c df40 a2c8 1d47 d31c 2f41 00b9 1d47
00000040: bbb7 8e41 4cdb 1d47 bcb7 8e41 5f13 1e47
00000050: 3cda b541 8529 1e47
1.9994453 40363.69 3.9950082 40355.594 7.972824 40337.613 4.9911256 40340.29
3.9950085 40357.523 2.9977815 40394.496 6.9800334 40392.633 10.944537 40377.0
17.839712 40411.297 17.839714 40467.37 22.73156 40489.52

network_body.processors.0.normalizer.running_mean f4 [22]
00000000: ab64 113a 5aae 1c40 0017 da3a d268 1c40
00000010: 2c70 7e3b d63d 1c40 ab64 113b 4513 1c40
00000020: 0217 da3a 3808 1c40 ab64 913a 1305 1c40
00000030: 0017 5a3b fb17 1c40 d6bd b53b 9ff7 1b40
00000040: f67a 1a3c 2714 1d40 f67a 1a3c 18b1 1e40
00000050: 6aea 473c c1c0 1f40
0.0005546312 2.4481416 0.0016638935 2.4438977 0.0038824184 2.4412742 0.0022185247 2.438676
0.0016638937 2.4380016 0.0011092623 2.4378097 0.003327787 2.4389637 0.005546312 2.4369886
0.00942873 2.454355 0.00942873 2.479559 0.012201885 2.4961398

network_body.processors.0.normalizer.running_variance f4 [22]
00000000: d3ed ff3f b1ab 1d47 37ae 7f40 98a3 1d47
00000010: 6021 ff40 9d91 1d47 4db7 9f40 4a94 1d47
00000020: 38ae 7f40 86a5 1d47 a7db 3f40 7fca 1d47
00000030: 6f5c df40 a2c8 1d47 d31c 2f41 00b9 1d47
00000040: bbb7 8e41 4cdb 1d47 bcb7 8e41 5f13 1e47
00000050: 3cda b541 8529 1e47
1.9994453 40363.69 3.9950082 40355.594 7.972824 40337.613 4.9911256 40340.29
3.9950085 40357.523 2.9977815 40394.496 6.9800334 40392.633 10.944537 40377.0
17.839712 40411.297 17.839714 40467.37 22.73156 40489.52

network_body._body_endoder.seq_layers.0.weight f4 [128, 22]
00000000: 81de febd 1016 a5bc 3d6e 6e3e fe4a a9bc
00000010: 188f f23d 904b 81be b626 9dbd 4c34 41be
00000020: bb48 29be d24e 4f3e 20a5 d6bb a56a 00bf
00000030: a3a2 92bc 3f5b c1be 162e 913e 3ec2 0b3e
00000040: 27a5 99be e1a9 86be 05f3 80bd 2e6f f03c
00000050: f363 7dbe b6f8 733e 98dc fb3d bd6b 86bd
00000060: 4913 0abe fdb4 9ebe 6b98 28be 96ca 88bd
00000070: 5c03 da3d a8e2 b73e 24df 91be 5143 903e
00000080: 8836 843e bd4c f3bd aedf 39be 4093 cd3d
00000090: 2298 8fbd 0eeb a43d 7a14 e0ba a0ff 9f3d
000000a0: abc9 9fbd f813 83be 56b7 42be 746b 073e
000000b0: c837 b73d b142 f63d 8486 1b3d 9c13 c9be
000000c0: 4778 9c3e 893e 13be c6dd c03e b018 a3bd
000000d0: ecd8 f3bd 1db2 89bd 026a d03e 5b28 1f3e
000000e0: b870 59bd b6ea 663e 8429 0c3d 4407 55bc
000000f0: 538d 20bd 4a15 51be e9f4 e9bd b7bb 493e
00000100: 9b6b d23e 5f89 df3d 6fd1 c93e b105 b5be
00000110: 17ea 153d d101 5ebe d8a5 a73d 219f aabe
00000120: b78c c83e 3dde 51bd 400e d23e e754 2b3e
00000130: b76b b0be c6e3 833e 2add d6bd 41b8 4cbe
00000140: a320 483d 47c1 ae3b 9665 a5be 5537 b43d
00000150: b199 ac3e e4c7 dbbc 3b28 4bbe e239 023e
00000160: 5c8d 803e 7cca 903d da12 b9bd b16a 2a3e
00000170: d339 8abc 56aa bcbe 78a4 bbbe 8e00 453c
00000180: fc19 4f3d d8c0 203e 3115 1fbe a63e 0a3d
00000190: 6374 01be 7483 8ebc 86fe 55be 4940 c0be
000001a0: f4b5 823d f422 ae3d 9964 073e 74d3 2bbe
000001b0: 2df4 5ebd 2ae6 1d3e 5725 783e cfc9 5b3e
000001c0: f1e0 37be 693b f7bd 2e5e e3bd 3d50 d63e
000001d0: 18f8 e7ba 8180 093e 7aa4 1ebe 39af c83d
000001e0: d870 3fbd cf82 31be 440f 1b3e 8c5a 93bd
000001f0: b92c de3e b4ba 7dbe ec6b 9abe f150 f3bd
00000200: 12d3 d3bd 676e 19be 37c0 1e3e 5754 c0bd
00000210: 9e5b 51bd ca0c 30be 8e7c 9abc 4f05 123e
00000220: 5543 b53d 624f 94be 722f edbc 75cf 3b3e
00000230: 1d18 99be 9d26 bcbd 3954 1fbe a590 2fbf
00000240: 5dc6 2e3e cf21 ac3d 9e51 333d 9ddd f9bd
00000250: de6b 90bd 5f4b 47bd 18ce 763e b6cc 9fbd
00000260: 2b99 8e3a 2eef 65bd 7793 45be b2d4 8b3d
00000270: aa1f a93d 14a5 293d a6cb 14be 1ef0 bebc
00000280: 223a 863e eca3 3fbe 86fc d0bc 6eb5 1bbe
00000290: f18a b7bd ed41 ebbd 4f47 853e e1f4 3c3d
000002a0: 293f 1b3e 92f7 a93e 7df1 7cbd 31c4 cc3d
000002b0: 535d dbbd 4abd f43e 44df 943d baaf d33d
000002c0: cd4e 3ebe 2fc5 b3be 189e e83d 269b e33c
000002d0: 0908 bebe 1fe9 003e 1709 5dbe f7ce 973d
000002e0: c68e 7f3e ee17 63be c0ae 453d 8a1f 043e
000002f0: 4e13 573e b783 523d e970 e33d 80e4 493e
00000300: aa41 833e 15f7 ab3d b0c2 31be 995f 7abd
00000310: a295 863d 6f1c 30be b36c e4be 85e7 023e
00000320: 72f5 8c3d be96 903d 7506 2abe 2bf8 afbe
00000330: 2eea bdbd 8665 953d 9806 fc3d 872c a63c
00000340: bff7 8f3d d024 a9bb 2ed5 69be b483 9f3e
00000350: 10bd 1cbe 8cf2 ac3b 1f48 753e 8e2f 213e
00000360: 385c 323e 9df0 70be bb68 bdbd eb0a 943e
00000370: 840f 9abe 1f09 753e b1f3 01be 0866 57be
00000380: e294 1bbe 2c0a 7bbd 34a2 d63c 6202 043d
00000390: 6e07 c83a 2ac8 bcbc 9abe 8a3e 54ed 253e
000003a0: c272 b23e d27d fc3d e423 263e db82 f93d
000003b0: 8d76 44bd e4c3 573c f83c 18be f5f5 803d
000003c0: abee 3abe 74b1 9a3e ef3a f9bb b14f 1fbb
000003d0: a3c6 85bc 1528 133d 254b 943d 5a89 be3e
000003e0: 4f29 083e 5d1c 1b3e 49fa 843e f9bc c2bd
000003f0: 0610 fcbd 6cf4 8e3e 8db5 e9be 03d2 653e
-0.12444783 -0.020152122 0.2328424 -0.020665642 0.11843699 -0.25252962 -0.07673399 -0.18867606
-0.1653165 0.20244911 -0.006550446 -0.50162727 -0.017899817 -0.37764928 0.28355473 0.13648316
-0.30008814 -0.26301482 -0.06296352 0.02934989 -0.24745159 0.23825344 0.12297934 -0.06563518
-0.13483919 -0.30997458 -0.16464393 -0.06679265 0.10645172 0.35915112 -0.28490555 0.28176358
0.25822854 -0.11879871 -0.18151733 0.10037851 -0.07011439 0.080526456 -0.0017095946 0.078124285
-0.07802137 -0.25601172 -0.1901525 0.13224584 0.08946186 0.12024439 0.03797008 -0.39272773
0.30560514 -0.14379324 0.376692 -0.07963693 -0.11906609 -0.067234255 0.40705878 0.15542738
-0.053086013 0.22550473 0.03421928 -0.013002221 -0.039197277 -0.20418277 -0.11423666 0.19700514
0.4109772 0.10914873 0.39417598 -0.35355905 0.0366002 -0.2168038 0.08185929 -0.3332453
0.39169857 -0.051237334 0.41026497 0.16731606 -0.3445718 0.25759715 -0.104914024 -0.19992162
0.04885925 0.005333099 -0.32304066 0.08799616 0.33711007 -0.026828714 -0.19839565 0.12717393
0.2510785 0.07069871 -0.09036799 0.16642262 -0.016873276 -0.36848706 -0.36648917 0.012024058
0.05056189 0.15698564 -0.15535428 0.033751152 -0.12642054 -0.017396666 -0.20897874 -0.37549046
0.06382361 0.085027605 0.13221969 -0.16779882 -0.054432083 0.15419832 0.24232994 0.21463703
-0.17956902 -0.120718785 -0.11101948 0.41858092 -0.0017697839 0.13427927 -0.1549243 0.09799046
-0.046738476 -0.17335056 0.15142542 -0.07195005 0.43393496 -0.24778253 -0.30160463 -0.11880673
-0.10342993 -0.14983521 0.15503012 -0.093910865 -0.051112764 -0.17192379 -0.01885822 0.14259838
0.08850733 -0.28966814 -0.028953288 0.18340857 -0.2990121 -0.091870524 -0.15559472 -0.68580085
0.17067857 0.08404886 0.043779008 -0.122004725 -0.07051824 -0.048655864 0.24102056 -0.078027174
0.0010879388 -0.056136303 -0.19294535 0.06827678 0.082579926 0.041417196 -0.1453081 -0.023307856
0.26216227 -0.18714875 -0.025511038 -0.15205929 -0.08962048 -0.11487184 0.26030967 0.046131972
0.15160812 0.33196694 -0.06175374 0.09998358 -0.107111596 0.47800666 0.07269147 0.103362516
-0.18584748 -0.35111377 0.11358279 0.027783941 -0.37115505 0.12588929 -0.21585499 0.07412522
0.24956807 -0.22177097 0.048262358 0.12902656 0.21003458 0.051395144 0.1110552 0.19716072
0.25636035 0.083967365 -0.17359424 -0.061126325 0.06571509 -0.17198347 -0.4461418 0.1278363
0.068827525 0.07060002 -0.16604026 -0.34369025 -0.09273182 0.07294755 0.12305945 0.020284904
0.07029676 -0.005161859 -0.22835228 0.3115517 -0.15306497 0.0052779373 0.23953293 0.15740797
0.17417991 -0.23529287 -0.092484914 0.2891458 -0.30089962 0.2392926 -0.12690617 -0.21035016
-0.15193513 -0.061288998 0.026200391 0.032228835 0.0015261003 -0.023044664 0.27098542 0.16203815
0.34853178 0.12328686 0.16224629 0.12183162 -0.04796462 0.013169263 -0.14867008 0.062969126
-0.18255107 0.3021351 -0.0076059024 -0.0024308974 -0.016330069 0.035926897 0.07240895 0.37214166
0.13297008 0.15147538 0.25972202 -0.095087 -0.12307744 0.27920854 -0.45646325 0.22443394

network_body._body_endoder.seq_layers.0.bias f4 [128]
00000000: 0000 0000 0000 0000 0000 0000 0000 0000
00000010: 0000 0000 0000 0000 0000 0000 0000 0000
00000020: 0000 0000 0000 0000 0000 0000 0000 0000
00000030: 0000 0000 0000 0000 0000 0000 0000 0000
00000040: 0000 0000 0000 0000 0000 0000 0000 0000
00000050: 0000 0000 0000 0000 0000 0000 0000 0000
00000060: 0000 0000 0000 0000 0000 0000 0000 0000
00000070: 0000 0000 0000 0000 0000 0000 0000 0000
00000080: 0000 0000 0000 0000 0000 0000 0000 0000
00000090: 0000 0000 0000 0000 0000 0000 0000 0000
000000a0: 0000 0000 0000 0000 0000 0000 0000 0000
000000b0: 0000 0000 0000 0000 0000 0000 0000 0000
000000c0: 0000 0000 0000 0000 0000 0000 0000 0000
000000d0: 0000 0000 0000 0000 0000 0000 0000 0000
000000e0: 0000 0000 0000 0000 0000 0000 0000 0000
000000f0: 0000 0000 0000 0000 0000 0000 0000 0000
00000100: 0000 0000 0000 0000 0000 0000 0000 0000
00000110: 0000 0000 0000 0000 0000 0000 0000 0000
00000120: 0000 0000 0000 0000 0000 0000 0000 0000
00000130: 0000 0000 0000 0000 0000 0000 0000 0000
00000140: 0000 0000 0000 0000 0000 0000 0000 0000
00000150: 0000 0000 0000 0000 0000 0000 0000 0000
00000160: 0000 0000 0000 0000 0000 0000 0000 0000
00000170: 0000 0000 0000 0000 0000 0000 0000 0000
00000180: 0000 0000 0000 0000 0000 0000 0000 0000
00000190: 0000 0000 0000 0000 0000 0000 0000 0000
000001a0: 0000 0000 0000 0000 0000 0000 0000 0000
000001b0: 0000 0000 0000 0000 0000 0000 0000 0000
000001c0: 0000 0000 0000 0000 0000 0000 0000 0000
000001d0: 0000 0000 0000 0000 0000 0000 0000 0000
000001e0: 0000 0000 0000 0000 0000 0000 0000 0000
000001f0: 0000 0000 0000 0000 0000 0000 0000 0000
0.0 0.0 0.0 0.0 0.0 0.0 0.0 0.0
0.0 0.0 0.0 0.0 0.0 0.0 0.0 0.0
0.0 0.0 0.0 0.0 0.0 0.0 0.0 0.0
0.0 0.0 0.0 0.0 0.0 0.0 0.0 0.0
0.0 0.0 0.0 0.0 0.0 0.0 0.0 0.0
0.0 0.0 0.0 0.0 0.0 0.0 0.0 0.0
0.0 0.0 0.0 0.0 0.0 0.0 0.0 0.0
0.0 0.0 0.0 0.0 0.0 0.0 0.0 0.0
0.0 0.0 0.0 0.0 0.0 0.0 0.0 0.0
0.0 0.0 0.0 0.0 0.0 0.0 0.0 0.0
0.0 0.0 0.0 0.0 0.0 0.0 0.0 0.0
0.0 0.0 0.0 0.0 0.0 0.0 0.0 0.0
0.0 0.0 0.0 0.0 0.0 0.0 0.0 0.0
0.0 0.0 0.0 0.0 0.0 0.0 0.0 0.0
0.0 0.0 0.0 0.0 0.0 0.0 0.0 0.0
0.0 0.0 0.0 0.0 0.0 0.0 0.0 0.0

network_body._body_endoder.seq_layers.2.weight f4 [128, 128]
00000000: 430b 15be 2f89 a93c 0f26 bcbd 0137 b5bd
00000010: 2be3 363c b19b 41bc 604d a33c a000 2fbd
00000020: bc1d 413d e63b ec3d a277 78bd 7b4a e13d
00000030: 128d 093d 5ebf 51bd b7ab 233e 5d26 41bd
00000040: bffb b5bd 9611 8cbd d9a7 6dbd 6118 e43d
00000050: 2386 cf3d a9f9 60bc a6fa cd3d 827a 8e3d
00000060: 22bc 82bd d992 18bd 216f 09bc a6d9 c93d
00000070: 72b7 c93d 37da c0bb 7c50 7e3d 38b2 22bc
00000080: f947 943d 3569 e93c a188 553d 6bde 0abe
00000090: a55c cf3c dbd8 71bc 98be cfbc 17db 533d
000000a0: 0b63 99bc b0f6 ad3b f808 0bbd 2746 a53c
000000b0: 4ce8 a8bd df24 31bd 51ba 56bc f546 f13d
000000c0: 9c38 01be 6c3c 5abd 722f 09bd 5d2c 973d
000000d0: 9732 383d 580f 573d ac9a 333d 04cc ac3a
000000e0: 99f1 98bd e746 d63d a440 153d d920 e13d
000000f0: 272f 113d 27ba 3c3d 011a c9bd 3f2a 29bc
00000100: a5a8 84bd d7c7 003c b8a4 3e3d 166a 983d
00000110: 07e5 1e3e 0c99 203d e3e3 a73d 84bf 1c3e
00000120: b81a 44be ab48 373e dcc9 293c c489 8cbd
00000130: 3818 cbbd 26ce 073c 9a6b 32bd b12c 1e3c
00000140: a823 28bd 0f08 45be 1235 90bd a616 ba3c
00000150: 556f aebb d4e9 393e cf4d e13c cea0 063e
00000160: 9e55 2cbd e129 0a3c c0c9 6ebd e37a 803c
00000170: ac13 4fbd 4fd1 2d3c ffba 4fbc 8263 cabc
00000180: 11e3 d33d ca3f fc3d 5dc7 3ebe 2f4f 9f3a
00000190: c109 823d d8f9 013d 16c8 523d a9e2 0a3b
000001a0: 6a9f e13c fa47 8e3c 03cc 093e f9b5 c33c
000001b0: 5bd4 223c 9afe 48bc 912c fabd baf7 293d
000001c0: e00f 993d ea5b 723c a60f 06be 9516 443d
000001d0: 4acd 69bd b661 aa3c 1ed7 27bb b840 adb9
000001e0: 3475 2c3e 959c 7cbc d7e9 1dbd 8d2a ea3c
000001f0: e753 753d e708 dbbc 9405 0d3e 8145 2fbd
00000200: 3380 463e e868 72ba 52e9 c83d fc19 2b3e
00000210: d9e1 c1bc 6c2c bb3d 3ab7 d0bd 078f 40bd
00000220: 729e 3fbe f132 403d c7b3 173d 4eb8 1fbc
00000230: 3a72 3bbc 421d 3c3d cb5e 053c 68df 183c
00000240: ad56 4bbd 5059 26be 7efd 0cbe b007 333d
00000250: e9b2 223d 9f13 2cbd a073 af3d b5ac 543e
00000260: 031a 98bd ee16 ed3b ff09 bf3d 4b92 8f3d
00000270: 04d0 313e c2c2 62bd 8522 f5bc 63df a43d
00000280: 017c f7ba 1978 643c 9b03 5c3c 595c 853c
00000290: 0c36 5cbd 3541 a53c 6b36 413a 5208 e93c
000002a0: 14c3 f33d 4f7d 1b3d 3b37 553e 309c df3d
000002b0: e7c6 a13d 4e27 af3d fb58 fe3c 7acf 5fbd
000002c0: 7443 65bd d7b5 53bd 2719 84bd cd40 08bd
000002d0: 1fdd a6bc 1a38 3ebd 989c 1c3e 41e7 a9bd
000002e0: 27a2 003d c6cb 01bd 16ba 973d 89e0 f8bc
000002f0: 9d49 edbc 99e8 bfbc b55c d63b e75a bcbd
00000300: 370f 88bc 260f c83d 415e 293e 2f3d 103e
00000310: 136f 983d bf10 573d 992d e33c f902 1abc
00000320: d3a1 84bd 34fd 04be 2439 20bc f1b0 dfbd
00000330: 06b9 863b 4826 96bc ff16 24bd 254d c33b
00000340: 47d5 4f3d f636 c93d ce57 303d f418 3ebd
00000350: 9945 22bc dc10 af3c 8d49 073d c0d1 053e
00000360: f918 a43d 1db2 1c3e 4db7 cabd 66fb 92bc
00000370: b341 af3d d724 493d 381d 1fbe 579f 883d
00000380: 0a95 a33c e1d8 023e a8a8 01be a0e0 003e
00000390: 05cb 33bc 5058 263d 153c 01be 6953 42be
000003a0: 6ad9 f4bc fd4b a5bd 8a08 a7bd 7715 ecbc
000003b0: 7766 c73d 6ad7 aabd 8196 cb3d ec1f 303d
000003c0: 1d10 e0bd 8834 60bd 77b7 f4bd 87a6 48bd
000003d0: 5c60 3a39 c746 093e d37d 6e3c 42a6 433b
000003e0: bc24 18be 350f c13d eed7 a0bd cf53 87bc
000003f0: f48d 23bd e26d 28bc f724 2d3d eb28 303e
-0.14555077 0.020695297 -0.091869466 -0.08848382 0.0111625595 -0.011816905 0.019934356 -0.042725205
0.047147498 0.11534862 -0.060660966 0.11000534 0.0335818 -0.051207893 0.15983473 -0.047155727
-0.088859074 -0.06839292 -0.0580214 0.111374624 0.101330064 -0.013731399 0.10057573 0.0695696
-0.0638354 -0.03724942 -0.008388312 0.09855966 0.098494425 -0.0058853882 0.062088475 -0.009930186
0.0724029 0.02849255 0.052132253 -0.13561408 0.025312731 -0.014761175 -0.025359437 0.051722612
-0.018723985 0.0053089485 -0.0339441 0.020175053 -0.08247432 -0.043248054 -0.013105945 0.11781112
-0.12619251 -0.05328028 -0.033492513 0.073815085 0.04497012 0.052504867 0.04384868 0.001318336
-0.07467956 0.10462742 0.0364386 0.10992593 0.03544536 0.046075966 -0.09819413 -0.010325014
-0.06477479 0.0078601455 0.046543807 0.07442109 0.15517054 0.039208457 0.08197763 0.15307432
-0.19150817 0.17898814 0.010363068 -0.06862214 -0.09916729 0.008288896 -0.043559648 0.00965421
-0.04104963 -0.19241355 -0.07041372 0.022715878 -0.0053233304 0.18155605 0.027502922 0.1314728
-0.04207384 0.008432836 -0.058297873 0.015683597 -0.05055587 0.010608985 -0.012678861 -0.024705652
0.10346044 0.12316854 -0.18630739 0.0012154336 0.06349517 0.03173241 0.051460348 0.002119223
0.027541835 0.017368305 0.1345673 0.023890482 0.009938325 -0.012267733 -0.122155316 0.041496016
0.07473731 0.014792422 -0.13091907 0.0478731 -0.057080545 0.020798545 -0.0025610398 -0.0003304535
0.16841584 -0.015418191 -0.038553085 0.028584743 0.05989447 -0.026737643 0.13771659 -0.042790893
0.19384842 -0.00092471996 0.09810127 0.16709131 -0.023667263 0.09139332 -0.10191198 -0.0470114
-0.18712786 0.04692358 0.037036683 -0.0097485315 -0.011440808 0.04592634 0.008140276 0.009330608
-0.049643207 -0.16245008 -0.13768575 0.043708503 0.039721403 -0.0420109 0.085669756 0.20769008
-0.07426836 0.0072353994 0.093280785 0.07010325 0.17364508 -0.055361517 -0.029923687 0.0805042
-0.001888156 0.013944649 0.013428594 0.016279386 -0.05376248 0.020172695 0.00073704746 0.02844635
0.119024426 0.0379613 0.2082185 0.10918462 0.07899266 0.08552419 0.031048289 -0.054641224
-0.05597253 -0.051687088 -0.0645011 -0.033264924 -0.02036911 -0.04644022 0.15294111 -0.08296061
0.03140464 -0.031688474 0.0740854 -0.030380504 -0.028965766 -0.02342634 0.0065418133 -0.09197026
-0.016608818 0.09768514 0.16539861 0.1408584 0.07443061 0.052506205 0.027731704 -0.009400123
-0.06476178 -0.12987214 -0.009779248 -0.10922421 0.004111412 -0.0183288 -0.040060993 0.005960124
0.050740507 0.09824936 0.043052487 -0.046410516 -0.009904289 0.021370344 0.033029128 0.13068295
0.08012576 0.1530232 -0.09898243 -0.017942142 0.08557453 0.0491074 -0.1553849 0.06671017
0.019968528 0.12778045 -0.12661994 0.12585688 -0.010973697 0.040611565 -0.12620576 -0.18977131
-0.029888827 -0.08071134 -0.081559256 -0.028818829 0.097363405 -0.08341868 0.09940816 0.042999193
-0.10940573 -0.054737598 -0.11949056 -0.048986938 0.00017774239 0.13405906 0.014556366 0.0029853736
-0.14857763 0.09426729 -0.07853685 -0.016519455 -0.0399303 -0.010280104 0.04227158 0.17203109

network_body._body_endoder.seq_layers.2.bias f4 [128]
00000000: 0000 0000 0000 0000 0000 0000 0000 0000
00000010: 0000 0000 0000 0000 0000 0000 0000 0000
00000020: 0000 0000 0000 0000 0000 0000 0000 0000
00000030: 0000 0000 0000 0000 0000 0000 0000 0000
00000040: 0000 0000 0000 0000 0000 0000 0000 0000
00000050: 0000 0000 0000 0000 0000 0000 0000 0000
00000060: 0000 0000 0000 0000 0000 0000 0000 0000
00000070: 0000 0000 0000 0000 0000 0000 0000 0000
00000080: 0000 0000 0000 0000 0000 0000 0000 0000
00000090: 0000 0000 0000 0000 0000 0000 0000 0000
000000a0: 0000 0000 0000 0000 0000 0000 0000 0000
000000b0: 0000 0000 0000 0000 0000 0000 0000 0000
000000c0: 0000 0000 0000 0000 0000 0000 0000 0000
000000d0: 0000 0000 0000 0000 0000 0000 0000 0000
000000e0: 0000 0000 0000 0000 0000 0000 0000 0000
000000f0: 0000 0000 0000 0000 0000 0000 0000 0000
00000100: 0000 0000 0000 0000 0000 0000 0000 0000
00000110: 0000 0000 0000 0000 0000 0000 0000 0000
00000120: 0000 0000 0000 0000 0000 0000 0000 0000
00000130: 0000 0000 0000 0000 0000 0000 0000 0000
00000140: 0000 0000 0000 0000 0000 0000 0000 0000
00000150: 0000 0000 0000 0000 0000 0000 0000 0000
00000160: 0000 0000 0000 0000 0000 0000 0000 0000
00000170: 0000 0000 0000 0000 0000 0000 0000 0000
00000180: 0000 0000 0000 0000 0000 0000 0000 0000
00000190: 0000 0000 0000 0000 0000 0000 0000 0000
000001a0: 0000 0000 0000 0000 0000 0000 0000 0000
000001b0: 0000 0000 0000 0000 0000 0000 0000 0000
000001c0: 0000 0000 0000 0000 0000 0000 0000 0000
000001d0: 0000 0000 0000 0000 0000 0000 0000 0000
000001e0: 0000 0000 0000 0000 0000 0000 0000 0000
000001f0: 0000 0000 0000 0000 0000 0000 0000 0000
0.0 0.0 0.0 0.0 0.0 0.0 0.0 0.0
0.0 0.0 0.0 0.0 0.0 0.0 0.0 0.0
0.0 0.0 0.0 0.0 0.0 0.0 0.0 0.0
0.0 0.0 0.0 0.0 0.0 0.0 0.0 0.0
0.0 0.0 0.0 0.0 0.0 0.0 0.0 0.0
0.0 0.0 0.0 0.0 0.0 0.0 0.0 0.0
0.0 0.0 0.0 0.0 0.0 0.0 0.0 0.0
0.0 0.0 0.0 0.0 0.0 0.0 0.0 0.0
0.0 0.0 0.0 0.0 0.0 0.0 0.0 0.0
0.0 0.0 0.0 0.0 0.0 0.0 0.0 0.0
0.0 0.0 0.0 0.0 0.0 0.0 0.0 0.0
0.0 0.0 0.0 0.0 0.0 0.0 0.0 0.0
0.0 0.0 0.0 0.0 0.0 0.0 0.0 0.0
0.0 0.0 0.0 0.0 0.0 0.0 0.0 0.0
0.0 0.0 0.0 0.0 0.0 0.0 0.0 0.0
0.0 0.0 0.0 0.0 0.0 0.0 0.0 0.0
