results/currentRun/3DBall/3DBall-1802.onnx (onnx, 87586 bytes, 9 tensors)

network_body.observation_encoder.processors.0.normalizer.running_mean f4 [22]
0.0005546312 2.4481416 0.0016638935 2.4438977 0.0038824184 2.4412742 0.0022185247 2.438676
0.0016638937 2.4380016 0.0011092623 2.4378097 0.003327787 2.4389637 0.005546312 2.4369886
0.00942873 2.454355 0.00942873 2.479559 0.012201885 2.4961398
00000000: ab64 113a 5aae 1c40 0017 da3a d268 1c40
00000010: 2c70 7e3b d63d 1c40 ab64 113b 4513 1c40
00000020: 0217 da3a 3808 1c40 ab64 913a 1305 1c40
00000030: 0017 5a3b fb17 1c40 d6bd b53b 9ff7 1b40
00000040: f67a 1a3c 2714 1d40 f67a 1a3c 18b1 1e40
00000050: 6aea 473c c1c0 1f40

network_body._body_endoder.seq_layers.0.weight f4 [128, 22]
0.3130132 -0.17382422 0.06195831 0.058542922 0.18866032 -0.062274445 -0.16045678 -0.10699366
0.12625721 0.16751425 0.0965502 -0.020292705 0.08699155 0.20501818 0.38977808 -0.05850475
-0.30737808 -0.0025939732 -0.03218052 0.22913556 0.010368063 -0.15049496 -0.15956584 0.08738466
-0.19650815 0.2875225 0.16619065 -0.17439456 0.18260933 -0.001625871 0.3701969 -0.20691265
0.00212004 0.2461338 -0.13854812 0.14182942 0.068048835 0.0611932 -0.23832408 0.29140857
-0.025397426 0.29214394 0.2409713 -0.1481634 0.11213622 0.22763556 -0.54846674 0.08442044
-0.15231432 0.11774975 0.40266013 0.032409076 -0.10750389 0.3957553 0.1404851 -0.013377521
-0.38124368 0.048258368 -0.20138144 0.13331673 -0.3780946 -0.097449 0.19902578 -0.035183866
-0.21143551 -0.050039396 0.12726559 0.08316356 0.011305131 -0.30641606 0.07513252 -0.14777394
0.1135563 -0.14608032 0.007611024 -0.0880182 0.19157362 0.15643346 -0.049592335 -0.19216268
0.17157301 0.42459965 -0.1923503 -0.05045659 -0.06147945 -0.19537632 -0.46347564 -0.18718223
-0.1732917 0.19039491 -0.15884416 0.27061644 0.30389738 -0.06292403 0.054690115 0.041766156
-0.052235905 0.31940326 -0.013718296 -0.044655427 -0.12688193 0.2237307 0.25344875 0.1700212
0.19934276 0.04372778 0.3048911 0.05516041 0.028848436 0.23513079 -0.21541677 -0.2736559
0.36594218 0.034258284 -0.06772075 0.2952489 0.012565042 -0.4009464 0.008380129 -0.36425525
0.277685 0.46719033 -0.2829978 0.029180747 0.10029202 -0.14499912 0.02988719 0.26047462
-0.037320454 -0.061510246 -0.022616036 0.033956207 -0.39913476 -0.30994564 0.38741508 -0.02626609
0.13790558 -0.45663843 -0.118755795 -0.0779261 -0.004127035 -0.14232075 -0.21022215 -0.1273797
0.12988515 -0.016033327 0.194899 -0.07151843 -0.44138452 -0.35269675 0.042141568 0.20615761
0.22262606 -0.25399396 0.042474322 -0.00318619 -0.09962272 -0.010755546 -0.19929598 -0.36107886
0.280476 0.33351535 0.07986616 -0.16345963 -0.08437596 -0.11054139 0.17161247 -0.40344632
0.06414456 0.15341048 -0.10156455 -0.0042886767 -0.03218739 -0.04655718 -0.19627161 0.04313735
0.03775554 -0.24716973 0.0779674 -0.24969105 0.24524204 -0.2565925 -0.014257926 0.18628749
-0.04348856 -0.11552615 -0.09447882 0.058869854 -0.22309436 -0.041540384 -0.15095139 -0.13921273
0.030517602 0.18520066 -0.25432235 0.0128568495 -0.10576154 -0.34226537 -0.11312439 -0.065849625
0.30564657 -0.022130294 -0.51074016 0.019954175 -0.17638701 -0.39110652 0.022353359 -0.2226685
0.0011244616 0.30288097 0.04505074 0.22113782 0.1277979 0.37894595 0.13764581 -0.4080797
0.002201812 0.15966569 0.3682848 0.090213485 0.23105262 -0.004836331 0.2562471 0.050895736
0.22523649 0.2411516 0.15849134 -0.0447985 -0.21793936 -0.21844774 0.2512147 -0.060331512
0.24510694 -0.01823603 0.08486678 -0.44714588 -0.1181098 -0.31569973 0.14912352 0.0045352015
0.20576365 -0.19344924 -0.0848937 -0.032593034 0.009802392 0.15142591 0.47886053 0.022476312
-0.2580587 -0.0053708153 -0.21426411 -0.27202815 0.0462673 -0.13339807 -0.50132066 0.31480554
00000000: 4443 a03e fafe 31be ffc7 7d3d b4ca 6f3d
00000010: 2c30 413e 7d13 7fbd c84e 24be 7e1f dbbd
00000020: 9249 013e db88 2b3e 1cbc c53d e33c a6bc
00000030: a028 b23d 49f0 513e fe90 c73e ada2 6fbd
00000040: a960 9dbe a6ff 29bb b9cf 03bd 83a2 6a3e
00000050: cfde 293c 5a1b 1abe 3a65 23be bbf6 b23d
00000060: 6f39 49be 2636 933e e22d 2a3e 7d94 32be
00000070: f1fd 3a3e 2e1b d5ba 738a bd3e e9e0 53be
00000080: 5ef0 0a3b 800a 7c3e 8fdf 0dbe bb3b 113e
00000090: 305d 8b3d b9a5 7a3d 3a0b 74be 8133 953e
000000a0: 430e d0bc e493 953e 2ec1 763e 25b8 17be
000000b0: ada7 e53d 4c19 693e 5168 0cbf a0e4 ac3d
000000c0: 49f8 1bbe c826 f13d 7829 ce3e 61bf 043d
000000d0: 002b dcbd 70a0 ca3e 53db 0f3e 642d 5bbc
000000e0: 5f32 c3be 91aa 453d f036 4ebe 2e84 083e
000000f0: 9e95 c1be 5793 c7bd 6acd 4b3e f51c 10bd
00000100: 8d82 58be 1cf6 4cbd e951 023e a851 aa3d
00000110: 2839 393c 91e2 9cbe 14df 993d 0d52 17be
00000120: 3590 e83d 1496 15be e665 f93b e342 b4bd
00000130: e02b 443e 1830 203e 5521 4bbd 4bc6 44be
00000140: d6b0 2f3e 2065 d93e 7af7 44be 92ab 4ebd
00000150: e0d1 7bbd bb10 48be ae4c edbe b3ac 3fbe
00000160: 6173 31be e2f6 423e 0ba8 22be 3d8e 8a3e
00000170: 7098 9b3e 50de 80bd be02 603d fd12 2b3d
00000180: 51f5 55bd d388 a33e b4c2 60bc 9ce8 36bd
00000190: 56ed 01be a919 653e 09c4 813e 0a1a 2e3e
000001a0: 8220 4c3e e71b 333d b01a 9c3e e2ef 613d
000001b0: 8e53 ec3c 20c6 703e 3796 5cbe a01c 8cbe
000001c0: c65c bb3e 6a52 0c3d 2db1 8abd dd2a 973e
000001d0: 9bdd 4d3c d948 cdbe cf4c 093c aa7f babe
000001e0: ba2c 8e3e 9233 ef3e 16e5 90be 760c ef3c
000001f0: e765 cd3d a67a 14be fbd5 f43c ee5c 853e
00000200: 55dd 18bd 2bf2 7bbd 4445 b9bc aa15 0b3d
00000210: 645b ccbe 32b1 9ebe 455b c63e fc2b d7bc
00000220: 1f37 0d3e 83cc e9be 3d36 f3bd b897 9fbd
00000230: 143c 87bb 88bc 11be 7a44 57be d36f 02be
00000240: 9d00 053e 5358 83bc 9a93 473e 4178 92bd
00000250: 27fd e1be ab94 b4be a39c 2c3d fb1a 533e
00000260: 16f8 633e 7f0b 82be 8ef9 2d3d 66cf 50bb
00000270: ff06 ccbd 0838 30bc 3f14 4cbe 54df b8be
00000280: 8d9a 8f3e 86c2 aa3e df90 a33d f661 27be
00000290: 4ecd acbd 8663 e2bd 2ebb 2f3e 8490 cebe
000002a0: 395e 833d a317 1d3e 1301 d0bd 0788 8cbb
000002b0: edd6 03bd beb2 3ebd 6dfb 48be cab0 303d
000002c0: 8ea5 1a3d 101a 7dbe 5fad 9f3d 03af 7fbe
000002d0: bb20 7b3e 1860 83be 139a 69bc 26c2 3e3e
000002e0: 0f21 32bd f998 ecbd 1d7e c1bd 8421 713d
000002f0: d972 64be 4026 2abd 0093 1abe c88d 0ebe
00000300: 0d00 fa3c 3ea5 3d3e 8a36 82be 89a5 523c
00000310: 8299 d8bd 683d afbe c3ad e7bd 2bdc 86bd
00000320: b57d 9c3e 974a b5bc debf 02bf f076 a33c
00000330: cc9e 34be 1d3f c8be 641e b73c 3603 64be
00000340: ac62 933a 3713 9b3e 2087 383d f471 623e
00000350: 74dd 023e 3405 c23e 06f3 0c3e d3ef d0be
00000360: 474c 103b 677f 233e d38f bc3e d9c1 b83d
00000370: 0f99 6c3e 167a 9ebb d232 833e 0c78 503d
00000380: 65a4 663e 72f0 763e 8e4b 223e a27e 37bd
00000390: 7f2b 5fbe c4b0 5fbe 379f 803e 2d1e 77bd
000003a0: 50fd 7a3e ba63 95bc a2ce ad3d 4ef0 e4be
000003b0: 8de3 f1bd 65a3 a1be d6b3 183e 079c 943b
000003c0: b5b3 523e 8f17 46be c0dc adbd 4680 05bd
000003d0: 369a 203c 650f 1b3e 352d f53e 3e20 b83c
000003e0: 4520 84be aafd afbb 0d68 5bbe 4647 8bbe
000003f0: c882 3d3d 8199 08be 8d56 00bf 312e a13e

network_body._body_endoder.seq_layers.0.bias f4 [128]
0.0 0.0 0.0 0.0 0.0 0.0 0.0 0.0
0.0 0.0 0.0 0.0 0.0 0.0 0.0 0.0
0.0 0.0 0.0 0.0 0.0 0.0 0.0 0.0
0.0 0.0 0.0 0.0 0.0 0.0 0.0 0.0
0.0 0.0 0.0 0.0 0.0 0.0 0.0 0.0
0.0 0.0 0.0 0.0 0.0 0.0 0.0 0.0
0.0 0.0 0.0 0.0 0.0 0.0 0.0 0.0
0.0 0.0 0.0 0.0 0.0 0.0 0.0 0.0
0.0 0.0 0.0 0.0 0.0 0.0 0.0 0.0
0.0 0.0 0.0 0.0 0.0 0.0 0.0 0.0
0.0 0.0 0.0 0.0 0.0 0.0 0.0 0.0
0.0 0.0 0.0 0.0 0.0 0.0 0.0 0.0
0.0 0.0 0.0 0.0 0.0 0.0 0.0 0.0
0.0 0.0 0.0 0.0 0.0 0.0 0.0 0.0
0.0 0.0 0.0 0.0 0.0 0.0 0.0 0.0
0.0 0.0 0.0 0.0 0.0 0.0 0.0 0.0
00000000: 0000 0000 0000 0000 0000 0000 0000 0000
00000010: 0000 0000 0000 0000 0000 0000 0000 0000
00000020: 0000 0000 0000 0000 0000 0000 0000 0000
00000030: 0000 0000 0000 0000 0000 0000 0000 0000
00000040: 0000 0000 0000 0000 0000 0000 0000 0000
00000050: 0000 0000 0000 0000 0000 0000 0000 0000
00000060: 0000 0000 0000 0000 0000 0000 0000 0000
00000070: 0000 0000 0000 0000 0000 0000 0000 0000
00000080: 0000 0000 0000 0000 0000 0000 0000 0000
00000090: 0000 0000 0000 0000 0000 0000 0000 0000
000000a0: 0000 0000 0000 0000 0000 0000 0000 0000
000000b0: 0000 0000 0000 0000 0000 0000 0000 0000
000000c0: 0000 0000 0000 0000 0000 0000 0000 0000
000000d0: 0000 0000 0000 0000 0000 0000 0000 0000
000000e0: 0000 0000 0000 0000 0000 0000 0000 0000
000000f0: 0000 0000 0000 0000 0000 0000 0000 0000
00000100: 0000 0000 0000 0000 0000 0000 0000 0000
00000110: 0000 0000 0000 0000 0000 0000 0000 0000
00000120: 0000 0000 0000 0000 0000 0000 0000 0000
00000130: 0000 0000 0000 0000 0000 0000 0000 0000
00000140: 0000 0000 0000 0000 0000 0000 0000 0000
00000150: 0000 0000 0000 0000 0000 0000 0000 0000
00000160: 0000 0000 0000 0000 0000 0000 0000 0000
00000170: 0000 0000 0000 0000 0000 0000 0000 0000
00000180: 0000 0000 0000 0000 0000 0000 0000 0000
00000190: 0000 0000 0000 0000 0000 0000 0000 0000
000001a0: 0000 0000 0000 0000 0000 0000 0000 0000
000001b0: 0000 0000 0000 0000 0000 0000 0000 0000
000001c0: 0000 0000 0000 0000 0000 0000 0000 0000
000001d0: 0000 0000 0000 0000 0000 0000 0000 0000
000001e0: 0000 0000 0000 0000 0000 0000 0000 0000
000001f0: 0000 0000 0000 0000 0000 0000 0000 0000

network_body._body_endoder.seq_layers.2.weight f4 [128, 128]
0.19689414 0.07554645 -0.012533569 -0.18391015 -0.23568857 -0.044318866 0.022011518 0.013200328
0.071407884 0.052858517 0.0040755956 0.030202828 -0.029677832 0.039165497 -0.037781015 -0.03140755
-0.02301451 -0.082631595 -0.14750543 0.117693126 0.020184627 -0.10952166 -0.073662624 -0.14111808
-0.026058083 0.04529037 -0.17977469 -0.1269264 0.034603868 0.06710522 -0.11902481 -0.117750004
-0.005742179 -0.016782738 0.2013774 0.06374189 -0.029371899 -0.021830404 0.08221864 -0.09906889
-0.040880173 -0.05924444 0.08379318 -0.033101153 -0.02452723 -0.00048439603 0.108408965 0.027385334
-0.010387718 0.05144832 0.1771219 -0.033562068 0.030471148 0.095183685 -0.21614665 -0.005063288
0.035586 -0.026016828 -0.16601796 -0.03839927 -0.15182766 0.054637123 -0.07831882 0.03720975
-0.03205086 0.043476753 0.04373597 0.096035205 0.072556235 0.1446118 0.03143703 -0.09340011
-0.0025001417 -0.05970469 -0.073920384 0.028684013 -0.11892527 -0.084233575 0.03171073 -0.0041669896
0.06964292 -0.109376706 0.00024807442 -0.17889237 -0.12854414 0.02888046 -0.076608226 0.06983931
-0.066932306 0.11823753 -0.04492602 0.029514275 -0.052410748 -0.08356299 0.02672432 0.039188143
-0.033356905 0.06513633 0.09417925 -0.04308042 0.059888337 0.035184424 -0.0626514 -0.06422864
0.069554724 0.07309749 -0.068904914 0.007824691 -0.019535074 0.24477783 -0.04267783 0.0067564487
0.02331571 0.05466786 -0.06678458 -0.050733905 -0.015176935 -0.04544274 0.034288038 0.044609413
0.07588797 -0.13466124 -0.19952056 0.16431792 0.07346193 -0.0061347596 -0.038881954 0.11483334
0.0077407355 0.2017837 0.0072711944 -0.08041389 -0.02053906 0.09686078 0.108656935 0.1409572
0.16199267 -0.08934893 -0.10039251 0.14233872 -0.026827069 -0.13142696 0.029765386 -0.086323045
0.13976066 0.08595397 0.019123318 -0.09993926 0.09729288 0.06383696 -0.10393669 -0.04204893
-0.05876043 -0.031933744 0.036923632 -0.10150968 0.047163907 0.06783239 0.06010827 -0.053513184
-0.18887943 -0.07885341 0.011145331 -0.039077315 0.08548126 -0.03387657 0.23116454 -0.1033349
0.019738581 -0.12481482 0.016794572 -0.0079047065 -0.014384436 -0.026837287 -0.07272378 -0.14272165
-0.00617081 -0.025858013 0.06072481 0.040608782 0.019128075 0.091813155 0.03670216 0.10013134
-0.10119733 -0.046979953 -0.08615098 -0.1286057 -0.09038664 0.036509756 0.061094206 0.066579305
-0.0583097 -0.097723775 0.10413483 0.13730997 0.124325246 -0.043836482 -0.07694918 0.03034486
0.12429386 0.21867454 -0.007924031 -0.021105628 0.012843392 -0.04217934 0.25943232 -0.059430428
0.10080766 -0.12961134 0.111571096 -0.020954592 0.050048698 0.1267115 -0.100848116 0.012963762
0.15361385 -0.002189671 0.035225365 -0.067707404 0.12750964 0.046834435 -0.0045446926 -0.0033676687
0.1475353 -0.026968611 -0.050756462 0.0008316281 0.18928303 -0.03791441 -0.06738785 0.12679829
-0.011813517 -0.1781269 -0.14262427 0.045184977 0.047439527 0.2618887 0.012179428 0.044934876
0.08370012 0.10184094 -0.033276945 0.16015524 0.06455798 -0.038425844 0.051397584 -0.014966031
0.009680709 -0.13413492 -0.06615032 0.18495588 -0.11273216 0.062473495 -0.0998243 -0.0014004102
00000000: 9e9e 493e 19b8 9a3d 9959 4dbc f152 3cbe
00000010: 5858 71be b387 35bd 8051 b43c 3046 583c
00000020: 4c3e 923d 2c82 583d 938c 853b ec6b f73c
00000030: ed1e f3bc 006c 203d 44c0 1abd 34a5 00bd
00000040: ed88 bcbc c13a a9bd aa0b 17be 1809 f13d
00000050: 3b5a a53c e44c e0bd 6edc 96bd 4281 10be
00000060: c377 d5bc 6582 393d db16 38be fff8 01be
00000070: c9bc 0d3d 766e 893d 48c3 f3bd ea26 f1bd
00000080: e428 bcbb f47b 89bc e135 4e3e 1c8b 823d
00000090: 569d f0bc add5 b2bc 3f62 a83d a1e4 cabd
000000a0: f871 27bd 4caa 72bd c29b ab3d 1395 07bd
000000b0: 54ed c8bc 89f6 fdb9 8505 de3d 3557 e03c
000000c0: 3f31 2abc 79bb 523d 715f 353e 6178 09bd
000000d0: a19e f93c aaef c23d 8c55 5dbe f0e9 a5bb
000000e0: a0c2 113d 3e21 d5bc 9d00 2abe 8e48 1dbd
000000f0: b678 1bbe 2dcb 5f3d 9e65 a0bd 4069 183d
00000100: c347 03bd ae14 323d 7d24 333d 1bae c43d
00000110: 5d98 943d 1e15 143e 1dc4 003d 8f48 bfbd
00000120: 6bd9 23bb e88c 74bd 9263 97bd bcfa ea3c
00000130: 188f f3bd a782 acbd 1ce3 013d 3e8b 88bb
00000140: f2a0 8e3d e500 e0bd fc0f 8239 902f 37be
00000150: 13a1 03be b796 ec3c c6e4 9cbd ea07 8f3d
00000160: ce13 89bd 8526 f23d 5904 38bd ecc7 f13c
00000170: a7ac 56bd 1323 abbd f6ec da3c bf83 203d
00000180: 40a1 08bd 3266 853d 0de1 c03d 1875 30bd
00000190: 794d 753d 8b1d 103d 614f 80bd 4e8a 83bd
000001a0: b572 8e3d 23b4 953d 051e 8dbd 2233 003c
000001b0: 0508 a0bc 0aa7 7a3e f3ce 2ebd 3365 dd3b
000001c0: 9600 bf3c 68eb 5f3d 5bc6 88bd 5bce 4fbd
000001d0: aea8 78bc 2b22 3abd 9d71 0c3d 5cb8 363d
000001e0: 276b 9b3d a3e4 09be 1e4f 4cbe f542 283e
000001f0: 3573 963d 1806 c9bb af42 1fbd be2d eb3d
00000200: ffa5 fd3b 63a0 4e3e 3343 ee3b 0ab0 a4bd
00000210: 8841 a8bc f25e c63d 8787 de3d 1657 103e
00000220: 68e1 253e 92fc b6bd 979a cdbd 3ec1 113e
00000230: 71c4 dbbc ca94 06be 8ad6 f33c 23ca b0bd
00000240: 6b1d 0f3e a308 b03d 81a8 9c3c f4ac ccbd
00000250: 7d41 c73d f4bc 823d c2dc d4bd 803b 2cbd
00000260: c7ae 70bd f5cc 02bd 3c3d 173d 4fe4 cfbd
00000270: f12e 413d b5eb 8a3d 1734 763d a430 5bbd
00000280: 9c69 41be e67d a1bd e89a 363c 890f 20bd
00000290: cd10 af3d 29c2 0abd 66b6 6c3e 40a1 d3bd
000002a0: ceb2 a13c ea9e ffbd c594 893c be82 01bc
000002b0: b3ac 6bbc dfd9 dbbc 35f0 94bd a025 12be
000002c0: 8234 cabb 2fd4 d3bc 94ba 783d 6555 263d
000002d0: 7bb2 9c3c 8908 bc3d 0155 163d a911 cd3d
000002e0: 8c40 cfbd 0d6e 40bd ed6f b0bd 36b1 03be
000002f0: a11c b9bd 418b 153d eb3d 7a3d bb5a 883d
00000300: 27d6 6ebd 6723 c8bd a444 d53d fc9a 0c3e
00000310: 3c9e fe3d e28d 33bd 8897 9dbd c995 f83c
00000320: c78d fe3d 38ec 5f3e cbd3 01bc b6e5 acbc
00000330: 176d 523c 3ec4 2cbd 50d4 843e 526d 73bd
00000340: 3f74 ce3d d6b8 04be 637f e43d f7a8 abbc
00000350: ddff 4c3d a9c0 013e 7589 cebd f565 543c
00000360: f34c 1d3e 9580 0fbb 7948 103d 2eaa 8abd
00000370: e391 023e 77d5 3f3d a5eb 94bb 1bb4 5cbb
00000380: 7e13 173e 47ed dcbc 02e6 4fbd 9e01 5a3a
00000390: 69d3 413e 244c 1bbd a402 8abd 69d7 013e
000003a0: 7b8d 41bc e666 36be 190c 12be e213 393d
000003b0: f34f 423d 4716 863e 398c 473c a20d 383d
000003c0: f86a ab3d fc91 d03d 684d 08bd bcff 233e
000003d0: f936 843d 6b64 1dbd 4686 523d 1534 75bc
000003e0: d69b 1e3c aa5a 09be d279 87bd 1365 3d3e
000003f0: 1ee0 e6bd 35e4 7f3d af70 ccbd f88d b7ba

action_model._continuous_distribution.log_sigma f4 [1, 3]
0.0 0.0 0.0
00000000: 0000 0000 0000 0000 0000 0000

action_model._continuous_distribution.mu.weight f4 [3, 128]
-0.022106672 -0.016440364 0.017585041 -0.0014832082 0.020344367 -0.018251752 0.0025884164 -0.007116294
0.017691804 0.0010332685 -0.024902022 -0.010910406 0.016506465 -0.016537838 -0.022827236 0.012231461
0.01782926 0.019056566 -0.020203127 0.026073072 0.007495603 0.049882695 0.01408563 -0.013548667
0.0080587575 -0.03310856 0.014500533 0.025572512 0.017690353 0.021948863 -0.0014841902 0.0027541828
-0.013748246 -0.030124346 -0.03196116 0.017752636 0.0076653995 0.01697453 -0.0029672603 0.007835449
0.004888049 -0.024795583 0.009559544 -0.02841702 -0.0025411488 -0.00212172 0.021333516 -0.00076526724
-0.011778199 0.023486374 -0.017915657 0.014621732 -0.017266413 -0.016969642 -0.0031505178 -0.0013877003
-0.0023640823 -0.006763566 -0.0059908982 -0.0077581084 -0.0018204876 -0.009359611 0.007940039 -0.040139925
-0.0033162166 -0.012159755 -0.008624335 -0.01908665 0.04227091 0.010506852 -0.020269087 -0.022777535
-0.029723143 0.005709534 0.00949024 -0.004893988 -0.027197182 0.034215964 -0.035252016 0.004960215
-0.010459861 0.028238136 -0.005253051 0.00816721 -0.001076266 -0.014500949 -0.008407245 0.0024470182
0.018807523 0.01047043 -0.007865826 -0.0071626343 -0.04183919 -0.016292112 0.022250338 0.0060372422
-0.012649991 -0.021328447 0.013585259 -0.045765016 -0.0065887906 0.005916014 0.017185824 -0.012276544
-0.0022274072 -0.0005364403 -0.0010228239 0.008580036 0.032707315 -0.021727107 -0.010427252 -0.0146586625
0.007060647 -0.003882102 0.004622296 -0.020270968 0.02761366 0.029889047 -0.053537484 0.029898494
-0.01919628 -0.002719008 -0.00886781 0.0042599635 -0.007133043 0.012484296 0.0021049215 0.009618455
0.002286775 -0.0032610677 0.0028012933 0.0032528185 -0.022943787 -0.0069156983 -0.0039633405 -0.005519711
0.038989425 0.013372607 0.019842844 -0.01092233 0.0034826228 -0.031067057 0.0005185141 0.027460132
-0.003953045 -0.04023949 -0.024302898 -0.0026696085 0.0155565385 0.0028462 0.019018207 0.008784669
0.012321426 0.019452916 0.025810985 -0.025818825 0.01370355 -0.010918625 0.032181058 -0.01174424
0.038562354 -0.017884944 0.028413016 -0.009057062 -0.028332898 -0.011019126 -0.029714322 -0.013647266
-0.015746951 -0.01231987 -0.0025435563 0.0015358129 -0.01101575 -0.0128730675 -0.019740107 0.015467879
0.014965953 -0.01738814 -0.0017130604 0.024286028 0.0022987039 0.0026988261 -0.02466751 0.016835583
0.00055430434 0.01861243 -0.0049704835 0.016932474 -0.0019452416 -0.016811503 -0.030659584 -0.017566992
-0.010840117 -0.006013349 0.0025419916 0.016858164 -0.024031568 -0.008160955 -0.0069420324 -0.012378006
0.025467107 0.0046253907 0.0140196085 0.004574877 0.0024241188 -0.011103846 -0.010973497 -0.0069431746
-0.027307449 -0.01279788 -0.01691742 -0.05318894 -0.01634152 -0.006551706 -0.015383585 -0.0134871295
-0.016498454 0.009455698 -0.0011237982 -0.025006268 0.001400735 -0.015757522 0.0032370917 0.014179143
0.011037499 -0.013380776 -0.019717863 0.018007874 -0.00035289765 -0.027082464 -0.0039859777 0.0036540795
-0.010734134 -0.01694042 0.0071508274 0.014197193 -0.006002284 0.057965625 0.031657062 -0.0066639544
0.0040335823 -0.006070475 0.0023001817 0.016682561 -0.009756274 -0.006846081 0.011850789 0.008421242
-0.010252265 -0.0076433406 0.011620759 -0.016676472 0.015202296 -0.0073552257 -0.011290941 -0.027022755
00000000: 0d19 b5bc f1ad 86bc 810e 903c 3568 c2ba
00000010: 3ba9 a63c b384 95bc 6ca2 293b cd2f e9bb
00000020: 67ee 903c bd6e 873a 53ff cbbc 8fc1 32bc
00000030: 9138 873c 5c7a 87bc 2f00 bbbc 7766 483c
00000040: ab0e 923c 841c 9c3c 0781 a5bc 3297 d53c
00000050: ad9d f53b cc51 4c3d 6ac7 663c 3afb 5dbc
00000060: e108 043c d79c 07bd a593 6d3c 727d d13c
00000070: 5ceb 903c 1ace b33c 2989 c2ba 857f 343b
00000080: 5340 61bc 55c7 f6bc b5e9 02bd fa6d 913c
00000090: 082e fb3b 2b0e 8b3c 5e76 42bb 4160 003c
000000a0: ed2b a03b 1b20 cbbc a29f 1c3c cfca e8bc
000000b0: 6789 26bb 8e0c 0bbb a0c3 ae3c 379c 48ba
000000c0: 59f9 40bc 7f66 c03c dbc3 92bc fd8f 6f3c
000000d0: 4b72 8dbc eb03 8bbc eb78 4ebb 7fe3 b5ba
000000e0: b8ee 1abb e7a0 ddbb 4c4f c4bb bb37 febb
000000f0: 6d9d eeba 0e59 19bc f016 023c c369 24bd
00000100: e254 59bb b639 47bc 154d 0dbc 9b5b 9cbc
00000110: 4324 2d3d ee24 2c3c 5b0b a6bc f497 babc
00000120: f37d f3bc 0b17 bb3b f47c 1b3c bf5d a0bb
00000130: a0cc debc 0a26 0c3d 6b64 10bd 4d89 a23b
00000140: d65f 2bbc aa53 e73c c921 acbb c3cf 053c
00000150: 7f11 8dba 6395 6dbc 8bbe 09bc 275e 203b
00000160: 3c12 9a3c 2b8c 2b3c aadf 00bc 88b4 eabb
00000170: 925f 2bbd 0977 85bc 5746 b63c 0fd4 c53b
00000180: e841 4fbc ffb8 aebc b594 5e3c 1974 3bbd
00000190: c8e6 d7bb 1fdb c13b 49c9 8c3c 8f23 49bc
000001a0: b1f9 11bb e69f 0cba 4610 86ba 4893 0c3c
000001b0: 1bf8 053d 0cfd b1bc 11d7 2abc e32a 70bc
000001c0: 005d e73b dd6a 7ebb a176 973b 4d0f a6bc
000001d0: 0b36 e23c e0d9 f43c 1f4a 5bbd b0ed f43c
000001e0: 8441 9dbc 6231 32bb 4a4a 11bc 2a97 8b3b
000001f0: 4dbc e9bb ef8a 4c3c b9f2 093b b996 1d3c
00000200: b8dd 153b a3b7 55bb e795 373b 3d2d 553b
00000210: 9cf4 bbbc 159d e2bb e9de 81bb b1de b4bb
00000220: 60b3 1f3d c718 5b3c 768d a23c 93f3 32bc
00000230: b73c 643b 5780 febc e4ec 073a 12f4 e03c
00000240: 8b88 81bb 2ad2 24bd df16 c7bc 99f4 2ebb
00000250: dae0 7e3c 5087 3a3b 12cc 9b3c 93ed 0f3c
00000260: cedf 493c b95b 9f3c 8f71 d33c 0082 d3bc
00000270: db84 603c 08e4 32bc 49d0 033d ea6a 40bc
00000280: 8ff3 1d3d 7283 92bc 6ac2 e83c 1264 14bc
00000290: 651a e8bc 9089 34bc 736b f3bc c898 5fbc
000002a0: c0ff 80bc 48d9 49bc cbb1 26bb 544d c93a
000002b0: 677b 34bc 8fe9 52bc 01b6 a1bc fd6c 7d3c
000002c0: c233 753c 9371 8ebc c588 e0ba 7ef3 c63c
000002d0: daa5 163b cade 303b 8513 cabc c7ea 893c
000002e0: bc4e 113a 1879 983c 70df a2bb f9b5 8a3c
000002f0: 7af7 feba 47b8 89bc cf29 fbbc a7e8 8fbc
00000300: bf9a 31bc a10b c5bb 8b97 263b 221a 8a3c
00000310: dadd c4bc 87b5 05bc fd79 e3bb 1fcd 4abc
00000320: 65a0 d03c 9790 973b 80b2 653c dae8 953b
00000330: f7dd 1e3b e8ec 35bc 2fca 33bc 9283 e3bb
00000340: dfb3 dfbc 33ae 51bc 6796 8abc a5dc 59bd
00000350: a7de 85bc b2af d6bb 6f0b 7cbc 1ff9 5cbc
00000360: c427 87bc 12ec 1a3c 694c 93ba f2d9 ccbc
00000370: de98 b73a eb15 81bc 6325 543b a34f 683c
00000380: a0d6 343c 0b3b 5bbc 5b87 a1bc 4085 933c
00000390: 1f05 b9b9 0bdc ddbc ce9c 82bb 4879 6f3b
000003a0: 39de 2fbc a3c6 8abc 7d51 ea3b 589b 683c
000003b0: cfae c4bb 5d6d 6d3d d6aa 013d 4d5d dabb
000003c0: 242c 843b d6ea c6bb a5be 163b dea9 883c
000003d0: c7d8 1fbc 1755 e0bb d029 423c 40f9 093c
000003e0: 1ef9 27bc fd74 fabb ff64 3e3c 199d 88bc
000003f0: 0d13 793c 1b04 f1bb a4fd 38bc d35e ddbc

action_model._continuous_distribution.mu.bias f4 [3]
0.0 0.0 0.0
00000000: 0000 0000 0000 0000 0000 0000

action_model._discrete_distribution.branches.0.weight f4 [1, 128]
0.002207795 -0.0046770917 -0.005240438 -0.007992714 0.020974731 -0.0010937215 8.852261e-05 0.0147249615
0.0013587292 0.003921745 0.013549102 0.015437569 -0.004294072 0.007013101 0.0031109008 -0.004290935
-0.011790686 -0.0013909865 0.012077732 -0.012408519 -0.0041606794 6.764865e-05 0.006449046 0.006659818
-0.005103407 0.009051643 -0.010068729 0.0050852764 4.467532e-05 -0.005612093 -0.0030536694 0.0014091361
-0.007913595 0.010390668 -0.023409102 -0.0042940443 0.009864156 -0.009027678 -0.008459055 -0.0018087233
-0.007822563 -0.01710859 0.02181462 -0.012524329 0.006927786 -0.018378837 0.0010205666 -0.014749387
0.0065683606 -0.016415622 -0.020845825 -0.0024638732 -0.0013118322 -0.001481708 0.0019079059 -0.0085765645
0.0036768436 0.005185708 -0.012630838 0.0016110077 -0.009737069 -0.00015310977 -0.0064852275 0.0071361335
0.0044581047 0.006902055 0.013060871 0.00017644386 0.004593399 -0.010021599 -0.0068840473 -0.0011615856
-0.0030814125 -0.008138427 -0.012290388 0.0005866248 -0.017439034 0.003913963 0.0071850987 -0.011767514
0.0038269174 -0.0015456567 0.00595172 -0.016981805 -0.008572261 -0.018153368 0.00076425297 -0.012776884
-0.004218101 -0.0138892485 0.00065294694 -0.00800411 -0.0002545678 -0.010927337 -0.015184355 0.0053111208
-0.001983538 0.008095515 0.0012811961 -0.008680675 -0.01111688 0.008988272 0.011033946 -0.0018530268
0.003937359 -0.005249355 -0.002406378 -0.0048593055 -0.013637341 0.0060955915 -0.010430804 -0.009418793
0.013265917 -0.003537838 0.014218934 0.0031127068 -0.013259003 0.0057769236 0.00904202 -0.004004823
0.0043510697 -0.013406115 -0.0070733326 -0.005350922 -0.013100845 -0.0014649912 0.0005545026 0.01261199
00000000: a7b0 103b 4a42 99bb fbb7 abbb dff3 02bc
00000010: 33d3 ab3c 345b 8fba 37a5 b938 f740 713c
00000020: 6317 b23a fb81 803b 0dfd 5d3c dbed 7c3c
00000030: 49b5 8cbb 28ce e53b 41e0 4b3b f99a 8cbb
00000040: b92d 41bc c351 b6ba aee1 453c 1a4d 4bbc
00000050: 4f56 88bb 98de 8d38 8552 d33b 9a3a da3b
00000060: 7b3a a7bb 584d 143c 4ff7 24bc 64a2 a63b
00000070: c261 3b38 a6e5 b7bb 1220 48bb c3b2 b83a
00000080: 06a8 01bc 9f3d 2a3c 72c4 bfbc 0eb5 8cbb
00000090: 459d 213c d3e8 13bc d997 0abc af12 edba
000000a0: 352a 00bc 5027 8cbc 93b4 b23c d832 4dbc
000000b0: 7b02 e33b 378f 96bc 88c4 853a 6aa7 71bc
000000c0: 673b d73b 0e7a 86bc ddc4 aabc ef78 21bb
000000d0: c9f1 abba df35 c2ba b312 fa3a b884 0cbc
000000e0: 33f7 703b dfec a93b 93f1 4ebc 7328 d33a
000000f0: 3a88 1fbc 178c 20b9 0882 d4bb 3ad6 e93b
00000100: 4b15 923b a22a e23b 43fd 553c ca03 3939
00000110: 3984 963b a231 24bc 9393 e1bb 5840 98ba
00000120: 86f1 49bb 0957 05bc a05d 49bc b9c7 193a
00000130: 4edc 8ebc b440 803b fa70 eb3b 88cc 40bc
00000140: 05cd 7a3b a297 caba a506 c33b 6d1d 8bbc
00000150: ab72 0cbc 5fb6 94bc 2658 483a 2356 51bc
00000160: ff37 8abb bb8f 63bc 872a 2b3a ac23 03bc
00000170: 8377 85b9 9308 33bc cdc7 78bc e908 ae3b
00000180: 3ffe 01bb 0da3 043c cfed a73a 6439 0ebc
00000190: 9323 36bc 8c43 133c b9c7 343c 43e1 f2ba
000001a0: f604 813b c802 acbb 53b4 1dbb cf3a 9fbb
000001b0: 276f 5fbc 87bd c73b f7e5 2abc 4851 1abc
000001c0: 4a59 593c 13db 67bb 88f6 683c 8efe 4b3b
000001d0: 4a3c 59bc 594c bd3b fb24 143c e43a 83bb
000001e0: 6b93 8e3b 52a5 5bbc 6ac7 e7bb c956 afbb
000001f0: eda4 56bc f304 c0ba 0a5c 113a 85a2 4e3c

onnx::Div_70 f4 [22]
0.03330097 4.7314863 0.04707182 4.731012 0.066497944 4.7299576 0.052614007 4.7301145
0.047071822 4.731125 0.040775765 4.733291 0.062220126 4.733182 0.07791137 4.732266
0.099470906 4.7342753 0.099470906 4.737559 0.11228371 4.7388554
00000000: 9966 083d 5668 9740 61ce 403d 7364 9740
00000010: 1330 883d d05b 9740 c981 573d 195d 9740
00000020: 62ce 403d 6065 9740 7d04 273d 1f77 9740
00000030: 88da 7e3d 3a76 9740 ff8f 9f3d b96e 9740
00000040: 67b7 cb3d 2f7f 9740 67b7 cb3d 159a 9740
00000050: 00f5 e53d b4a4 9740
