results/currentRun/3DBall/3DBall-3756.pt (torch, 212482 bytes, 21 tensors)

network_body.observation_encoder.processors.0.normalizer.running_mean f4 [62]
0.009582114 2.3888187 0.009315943 2.3888133 0.009582114 2.390665 0.009315944 2.3906577
0.009315944 2.3911586 0.009582115 2.3922744 0.009848285 2.3942263 0.009582114 2.3959475
0.009315944 2.3968875 0.009848285 2.397552 0.009848285 2.3981361 0.009315944 2.3995762
0.009049774 2.3996189 0.008251265 2.4004726 0.007985096 2.4005349 0.0079850955 2.4020236
0.007718926 2.4047549 0.0074527566 2.40665 0.0079850955 2.4063745 0.0079850955 2.405917
0.008517434 2.405677 0.008783605 2.4100711 0.009049773 2.410106 0.009049773 2.4114993
0.009049773 2.4101176 0.008251266 2.4109075 0.008251266 2.4114482 0.008251265 2.410819
0.008251265 2.4123294 0.008251265 2.4128473 0.007718925 2.4141607
00000000: 4dfe 1c3c 68e2 1840 e6a1 183c 51e2 1840
00000010: 4dfe 1c3c a800 1940 e7a1 183c 8900 1940
00000020: e7a1 183c be08 1940 4efe 1c3c 061b 1940
00000030: b35a 213c 013b 1940 4dfe 1c3c 3457 1940
00000040: e7a1 183c 9b66 1940 b35a 213c 7e71 1940
00000050: b35a 213c 107b 1940 e7a1 183c a892 1940
00000060: 8145 143c 5b93 1940 5030 073c 58a1 1940
00000070: ecd3 023c 5da2 1940 ebd3 023c c1ba 1940
00000080: 0bef fc3b 81e7 1940 4136 f43b 8e06 1a40
00000090: ebd3 023c 0a02 1a40 ebd3 023c 8bfa 1940
000000a0: b58c 0b3c 9df6 1940 1ce9 0f3c 9b3e 1a40
000000b0: 8045 143c 2d3f 1a40 8045 143c 0156 1a40
000000c0: 8045 143c 5e3f 1a40 5130 073c 4f4c 1a40
000000d0: 5130 073c 2b55 1a40 5030 073c dc4a 1a40
000000e0: 5030 073c 9b63 1a40 5030 073c 176c 1a40
000000f0: 09ef fc3b 9c81 1a40

network_body.observation_encoder.processors.0.normalizer.running_variance f4 [62]
36.65504 74828.62 35.673943 74829.125 36.65504 74850.91 35.673943 74857.79
35.673943 74864.14 36.65504 74867.58 37.635616 74885.7 36.65504 74893.05
35.673943 74913.516 37.635616 74908.28 37.635616 74915.234 35.673943 74931.03
34.69231 74931.37 31.744207 74945.48 30.760445 74944.23 30.760445 74959.98
29.776152 74978.94 28.791323 75005.79 30.760448 74998.58 30.760448 74985.164
32.727444 74972.95 33.710144 75019.63 34.69231 75015.31 34.69231 75017.87
34.69231 74993.36 31.74421 75010.66 31.74421 75013.84 31.74421 75000.32
31.744211 75014.375 31.744211 75020.29 29.776152 75043.35
00000000: c39e 1242 4f26 9247 1eb2 0e42 9026 9247
00000010: c39e 1242 7431 9247 1eb2 0e42 e534 9247
00000020: 1eb2 0e42 1238 9247 c39e 1242 ca39 9247
00000030: df8a 1642 da42 9247 c39e 1242 8646 9247
00000040: 1eb2 0e42 c250 9247 df8a 1642 244e 9247
00000050: df8a 1642 9e51 9247 1eb2 0e42 8459 9247
00000060: edc4 0a42 af59 9247 23f4 fd41 bd60 9247
00000070: 6415 f641 1d60 9247 6415 f641 fd67 9247
00000080: 8f35 ee41 7871 9247 a154 e641 e57e 9247
00000090: 6615 f641 4a7b 9247 6615 f641 9574 9247
000000a0: e7e8 0242 7a6e 9247 30d7 0642 d185 9247
000000b0: edc4 0a42 a883 9247 edc4 0a42 ef84 9247
000000c0: edc4 0a42 ae78 9247 24f4 fd41 5481 9247
000000d0: 24f4 fd41 ec82 9247 24f4 fd41 297c 9247
000000e0: 25f4 fd41 3083 9247 25f4 fd41 2586 9247
000000f0: 8f35 ee41 ad91 9247

network_body.processors.0.normalizer.running_mean f4 [62]
0.009582114 2.3888187 0.009315943 2.3888133 0.009582114 2.390665 0.009315944 2.3906577
0.009315944 2.3911586 0.009582115 2.3922744 0.009848285 2.3942263 0.009582114 2.3959475
0.009315944 2.3968875 0.009848285 2.397552 0.009848285 2.3981361 0.009315944 2.3995762
0.009049774 2.3996189 0.008251265 2.4004726 0.007985096 2.4005349 0.0079850955 2.4020236
0.007718926 2.4047549 0.0074527566 2.40665 0.0079850955 2.4063745 0.0079850955 2.405917
0.008517434 2.405677 0.008783605 2.4100711 0.009049773 2.410106 0.009049773 2.4114993
0.009049773 2.4101176 0.008251266 2.4109075 0.008251266 2.4114482 0.008251265 2.410819
0.008251265 2.4123294 0.008251265 2.4128473 0.007718925 2.4141607
00000000: 4dfe 1c3c 68e2 1840 e6a1 183c 51e2 1840
00000010: 4dfe 1c3c a800 1940 e7a1 183c 8900 1940
00000020: e7a1 183c be08 1940 4efe 1c3c 061b 1940
00000030: b35a 213c 013b 1940 4dfe 1c3c 3457 1940
00000040: e7a1 183c 9b66 1940 b35a 213c 7e71 1940
00000050: b35a 213c 107b 1940 e7a1 183c a892 1940
00000060: 8145 143c 5b93 1940 5030 073c 58a1 1940
00000070: ecd3 023c 5da2 1940 ebd3 023c c1ba 1940
00000080: 0bef fc3b 81e7 1940 4136 f43b 8e06 1a40
00000090: ebd3 023c 0a02 1a40 ebd3 023c 8bfa 1940
000000a0: b58c 0b3c 9df6 1940 1ce9 0f3c 9b3e 1a40
000000b0: 8045 143c 2d3f 1a40 8045 143c 0156 1a40
000000c0: 8045 143c 5e3f 1a40 5130 073c 4f4c 1a40
000000d0: 5130 073c 2b55 1a40 5030 073c dc4a 1a40
000000e0: 5030 073c 9b63 1a40 5030 073c 176c 1a40
000000f0: 09ef fc3b 9c81 1a40

network_body.processors.0.normalizer.running_variance f4 [62]
36.65504 74828.62 35.673943 74829.125 36.65504 74850.91 35.673943 74857.79
35.673943 74864.14 36.65504 74867.58 37.635616 74885.7 36.65504 74893.05
35.673943 74913.516 37.635616 74908.28 37.635616 74915.234 35.673943 74931.03
34.69231 74931.37 31.744207 74945.48 30.760445 74944.23 30.760445 74959.98
29.776152 74978.94 28.791323 75005.79 30.760448 74998.58 30.760448 74985.164
32.727444 74972.95 33.710144 75019.63 34.69231 75015.31 34.69231 75017.87
34.69231 74993.36 31.74421 75010.66 31.74421 75013.84 31.74421 75000.32
31.744211 75014.375 31.744211 75020.29 29.776152 75043.35
00000000: c39e 1242 4f26 9247 1eb2 0e42 9026 9247
00000010: c39e 1242 7431 9247 1eb2 0e42 e534 9247
00000020: 1eb2 0e42 1238 9247 c39e 1242 ca39 9247
00000030: df8a 1642 da42 9247 c39e 1242 8646 9247
00000040: 1eb2 0e42 c250 9247 df8a 1642 244e 9247
00000050: df8a 1642 9e51 9247 1eb2 0e42 8459 9247
00000060: edc4 0a42 af59 9247 23f4 fd41 bd60 9247
00000070: 6415 f641 1d60 9247 6415 f641 fd67 9247
00000080: 8f35 ee41 7871 9247 a154 e641 e57e 9247
00000090: 6615 f641 4a7b 9247 6615 f641 9574 9247
000000a0: e7e8 0242 7a6e 9247 30d7 0642 d185 9247
000000b0: edc4 0a42 a883 9247 edc4 0a42 ef84 9247
000000c0: edc4 0a42 ae78 9247 24f4 fd41 5481 9247
000000d0: 24f4 fd41 ec82 9247 24f4 fd41 297c 9247
000000e0: 25f4 fd41 3083 9247 25f4 fd41 2586 9247
000000f0: 8f35 ee41 ad91 9247

network_body._body_endoder.seq_layers.0.weight f4 [128, 62]
0.047057185 0.076378345 -0.053139128 0.06421618 -0.16104756 0.10672055 0.1195378 -0.20631725
-0.061922994 -0.09302865 -0.0052315025 -0.07448969 -0.33625048 0.08821701 0.07677146 0.20009555
0.08921261 0.1305144 -0.2057601 0.10676812 0.07752476 0.039286967 -0.06285014 0.07443642
-0.0071152197 0.28001678 -0.040068157 -0.15551136 -0.10473241 -0.038160864 0.09380721 0.07830742
0.1342509 -0.21356894 -0.17647858 0.15453483 -0.07124088 0.11704586 -0.103959545 -0.10559168
-0.0034014806 0.21910927 -0.09489997 -0.028982054 -0.06191624 0.07093969 0.05151514 0.14103895
-0.1144929 -0.21911709 0.02801497 -0.028013745 0.11027538 0.105981715 -0.03958549 0.11351292
0.050154395 -0.1259157 -0.030457042 -0.025873348 0.08066929 -0.2512864 0.18165098 -0.09889407
0.11899826 -0.048815235 0.1976066 -0.3935329 -0.06336595 0.16857742 -0.026539627 -0.21949896
-0.037925463 -0.17257091 0.15392905 -0.021663303 0.21061957 0.019948753 0.17523609 -0.07300736
0.04829815 0.09972078 -0.12867469 -0.098347366 -0.016819 0.08693356 -0.03176937 0.05163792
-0.20038633 0.03845557 0.0178351 -0.016199376 0.11074917 0.058027364 0.06603902 0.013851935
0.040244326 0.05753152 0.17930755 -0.10809463 -0.09832978 0.07974124 0.011082593 0.10829873
0.14836952 0.18786137 -0.06974865 -0.1841517 -0.08151804 -0.11189389 0.18137133 -0.35626942
0.30854803 -0.062807165 -0.013189937 -0.035711 -0.26375812 -0.05462289 0.10803224 0.052773893
0.111273065 -0.112441935 0.098375246 -0.14812793 0.071542025 -0.061075777 -0.043057956 -0.010888638
0.20849676 -0.19040945 -0.037714288 -0.0859052 -0.021166343 -0.1251311 0.1397952 0.026233109
0.016605388 0.07252696 0.07481417 0.20013769 0.18296306 0.053813864 -0.1390899 -0.110866494
0.17322792 0.12014034 -0.010133556 -0.04794845 -0.06446967 0.15273647 -0.10382214 0.033999108
-0.103211015 -0.06657553 -0.07430354 0.07066395 -0.3061702 0.04308607 0.07527462 0.050025143
-0.117657565 -0.030821892 -0.01456939 0.044067003 0.1436089 -0.07319758 0.03249967 -0.16653231
-0.07851427 0.010612917 0.2865711 0.14816108 0.047636457 -0.28666037 0.10383695 -0.0029775663
0.0994252 -0.000844807 -0.12181046 -0.22939329 -0.25569573 -0.1517904 -0.08292021 -0.14495768
-0.008486059 0.19776851 0.02265171 -0.119675174 0.10282061 -0.032203503 0.007839939 -0.11025756
0.13526201 0.30520967 0.016652122 -0.09142726 0.0908064 -0.044797704 0.050511092 0.109040625
-0.0032822115 0.16897823 -0.09582448 0.2929784 0.03335778 -0.21054904 0.2571624 0.041529927
-0.15472728 0.07618904 -0.060478374 -0.055755027 -0.1473495 -0.26120353 0.15283893 -0.037585255
0.078718446 0.070521116 0.008246995 0.08053467 -0.033629414 0.06490187 -0.108471766 -0.010440241
-0.085949264 -0.06216192 0.07556233 -0.060062435 -0.013499548 -0.08699254 -0.18687701 0.06618048
-0.09223298 0.06090277 0.03500039 -0.07939261 0.11780486 -0.23475258 0.07303367 -0.073498175
-0.023133392 0.07924009 0.07917872 -0.00089642085 0.048775222 -0.059821174 0.020201214 -0.17096454
0.30118006 -0.009656832 0.23612489 -0.07740144 -0.16826503 -0.11235081 -0.035990845 0.05755301
00000000: 09bf 403d 406c 9c3d 6aa8 59bd c683 833d
00000010: a7e9 24be 4e90 da3d 3cd0 f43d d444 53be
00000020: f7a2 7dbd ce85 bebd 066d abbb 0d8e 98bd
00000030: 0629 acbe 1fab b43d 5b3a 9d3d d9e5 4c3e
00000040: 1ab5 b63d 91a5 053e c7b2 52be 3ea9 da3d
00000050: 4dc5 9e3d 5feb 203d 93b7 80bd 1f72 983d
00000060: ca26 e9bb 5c5e 8f3e 821e 24bd 5f3e 1fbe
00000070: f27d d6bd 914e 1cbd ff1d c03d a45f a03d
00000080: 1179 093e d1b1 5abe cdb6 34be 613e 1e3e
00000090: bde6 91bd bdb5 ef3d bee8 d4bd 7340 d8bd
000000a0: 60eb 5ebb 2e5e 603e ea5a c2bd c66b edbc
000000b0: e29b 7dbd d448 913d 8a01 533d 846c 103e
000000c0: 417b eabd 3b60 60be a67f e53c 157d e5bc
000000d0: 0fd8 e13d f10c d93d 6524 22bd 7679 e83d
000000e0: b26e 4d3d 0cf0 00be 0c81 f9bc 58f4 d3bc
000000f0: f135 a53d 9ca8 80be b702 3a3e f988 cabd
00000100: 5cb5 f33d 7cf2 47bd 6259 4a3e 257d c9be
00000110: 02c6 81bd 8f9f 2c3e a269 d9bc 56c4 60be
00000120: bb57 1bbd 6eb6 30be 949f 1d3e 3d77 b1bc
00000130: a8ac 573e 916b a33c 1771 333e e284 95bd
00000140: 48d4 453d 693a cc3d 4cc3 03be 586a c9bd
00000150: 00c8 89bc 390a b23d 9920 02bd 4982 533d
00000160: 1332 4dbe 9683 1d3d ea1a 923c 8eb4 84bc
00000170: 76d0 e23d 1aae 6d3d 773f 873d 3af3 623c
00000180: 3cd7 243d 2ca6 6b3d 669c 373e b860 ddbd
00000190: 2061 c9bd 604f a33d c493 353c b9cb dd3d
000001a0: 2eee 173e bb5e 403e 61d8 8ebd 4392 3cbe
000001b0: eef2 a6bd a028 e5bd 68b9 393e f268 b6be
000001c0: 02fa 9d3e 0ba1 80bd 9b1a 58bc b345 12bd
000001d0: 4e0b 87be 40bc 5fbd 0240 dd3d 7029 583d
000001e0: 22e3 e33d f547 e6bd f678 c93d d9ae 17be
000001f0: a084 923d 982a 7abd 8a5d 30bd 4266 32bc
00000200: 2d80 553e b2fa 42be 4c7a 1abd 11ef afbd
00000210: 0a65 adbc 5e22 00be 7926 0f3e d1e6 d63c
00000220: 0608 883c 0489 943d 2c38 993d e5f0 4c3e
00000230: ab5a 3b3e ed6b 5c3d 956d 0ebe f90d e3bd
00000240: a962 313e 230c f63d 3707 26bc 9865 44bd
00000250: ad08 84bd f366 1c3e b4a0 d4bd a642 0b3d
00000260: 4c60 d3bd c058 88bd 742c 98bd 43b8 903d
00000270: 57c2 9cbe 057b 303d 9429 9a3d 2ae7 4c3d
00000280: 73f6 f0bd 317e fcbc 73b4 6ebc 9a7f 343d
00000290: 360e 133e 9de8 95bd 601e 053d 7287 2abe
000002a0: 17cc a0bd cde1 2d3c 72b9 923e 8ab7 173e
000002b0: 721e 433d 26c5 92be 78a8 d43d 4623 43bb
000002c0: 709f cb3d 0a76 5dba c377 f9bd 13e6 6abe
000002d0: 8dea 82be f16e 1bbe 12d2 a9bd c96f 14be
000002e0: 1c09 0bbc d483 4a3e 1490 b93c 4218 f5bd
000002f0: 9d93 d23d d2e7 03bd 1673 003c b7ce e1bd
00000300: 2082 0a3e 7144 9c3e 086a 883c 373e bbbd
00000310: b5f8 b93d cc7d 37bd b8e4 4e3d b150 df3d
00000320: 5f1a 57bb a108 2d3e a03f c4bd 4401 963e
00000330: 2ba2 083d 2b9a 57be caaa 833e 491b 2a3d
00000340: d470 1ebe 0009 9c3d 2cb8 77bd 625f 64bd
00000350: cae2 16be 78bc 85be cf81 1c3e fff2 19bd
00000360: 2337 a13d 606d 903d 671e 073c 5cef a43d
00000370: ffbe 09bd 46eb 843d 7226 debd 8b0d 2bbc
00000380: 2b06 b0bd 7f9d 7ebd 6cc0 9a3d 0704 76bd
00000390: 352d 5dbc 2529 b2bd b05c 3fbe a289 873d
000003a0: a5e4 bcbd 2f75 793d 925c 0f3d 9898 a2bd
000003b0: ad43 f13d fb62 70be ad92 953d 3686 96bd
000003c0: 3d82 bdbc a148 a23d 7428 a23d c9fd 6aba
000003d0: 87c8 473d 0c07 75bd 047d a53c 5411 2fbe
000003e0: 4634 9a3e b037 1ebc b9ca 713e a584 9ebd
000003f0: ab4d 2cbe 2e18 e6bd 236b 13bd b4bc 6b3d

network_body._body_endoder.seq_layers.0.bias f4 [128]
0.0 0.0 0.0 0.0 0.0 0.0 0.0 0.0
0.0 0.0 0.0 0.0 0.0 0.0 0.0 0.0
0.0 0.0 0.0 0.0 0.0 0.0 0.0 0.0
0.0 0.0 0.0 0.0 0.0 0.0 0.0 0.0
0.0 0.0 0.0 0.0 0.0 0.0 0.0 0.0
0.0 0.0 0.0 0.0 0.0 0.0 0.0 0.0
0.0 0.0 0.0 0.0 0.0 0.0 0.0 0.0
0.0 0.0 0.0 0.0 0.0 0.0 0.0 0.0
0.0 0.0 0.0 0.0 0.0 0.0 0.0 0.0
0.0 0.0 0.0 0.0 0.0 0.0 0.0 0.0
0.0 0.0 0.0 0.0 0.0 0.0 0.0 0.0
0.0 0.0 0.0 0.0 0.0 0.0 0.0 0.0
0.0 0.0 0.0 0.0 0.0 0.0 0.0 0.0
0.0 0.0 0.0 0.0 0.0 0.0 0.0 0.0
0.0 0.0 0.0 0.0 0.0 0.0 0.0 0.0
0.0 0.0 0.0 0.0 0.0 0.0 0.0 0.0
00000000: 0000 0000 0000 0000 0000 0000 0000 0000
00000010: 0000 0000 0000 0000 0000 0000 0000 0000
00000020: 0000 0000 0000 0000 0000 0000 0000 0000
00000030: 0000 0000 0000 0000 0000 0000 0000 0000
00000040: 0000 0000 0000 0000 0000 0000 0000 0000
00000050: 0000 0000 0000 0000 0000 0000 0000 0000
00000060: 0000 0000 0000 0000 0000 0000 0000 0000
00000070: 0000 0000 0000 0000 0000 0000 0000 0000
00000080: 0000 0000 0000 0000 0000 0000 0000 0000
00000090: 0000 0000 0000 0000 0000 0000 0000 0000
000000a0: 0000 0000 0000 0000 0000 0000 0000 0000
000000b0: 0000 0000 0000 0000 0000 0000 0000 0000
000000c0: 0000 0000 0000 0000 0000 0000 0000 0000
000000d0: 0000 0000 0000 0000 0000 0000 0000 0000
000000e0: 0000 0000 0000 0000 0000 0000 0000 0000
000000f0: 0000 0000 0000 0000 0000 0000 0000 0000
00000100: 0000 0000 0000 0000 0000 0000 0000 0000
00000110: 0000 0000 0000 0000 0000 0000 0000 0000
00000120: 0000 0000 0000 0000 0000 0000 0000 0000
00000130: 0000 0000 0000 0000 0000 0000 0000 0000
00000140: 0000 0000 0000 0000 0000 0000 0000 0000
00000150: 0000 0000 0000 0000 0000 0000 0000 0000
00000160: 0000 0000 0000 0000 0000 0000 0000 0000
00000170: 0000 0000 0000 0000 0000 0000 0000 0000
00000180: 0000 0000 0000 0000 0000 0000 0000 0000
00000190: 0000 0000 0000 0000 0000 0000 0000 0000
000001a0: 0000 0000 0000 0000 0000 0000 0000 0000
000001b0: 0000 0000 0000 0000 0000 0000 0000 0000
000001c0: 0000 0000 0000 0000 0000 0000 0000 0000
000001d0: 0000 0000 0000 0000 0000 0000 0000 0000
000001e0: 0000 0000 0000 0000 0000 0000 0000 0000
000001f0: 0000 0000 0000 0000 0000 0000 0000 0000

network_body._body_endoder.seq_layers.2.weight f4 [128, 128]
-0.035039872 -0.029621478 0.14605643 -0.002236695 0.06150316 0.09124292 0.080511406 0.05005082
0.020323288 0.0147190755 0.011581348 0.06234336 -0.13759276 -0.019161446 0.07827865 0.09664342
0.06583387 -0.045380797 0.00020173525 -0.08520757 0.03052276 0.026665246 -0.0085326275 0.10801606
-0.047139447 -0.0064537493 0.06831772 0.03402227 0.0336461 -0.070671126 0.16625376 0.088213734
0.026835216 -0.115098216 -0.05155873 0.0030660403 0.027238902 0.13736622 0.10513303 -0.056661922
0.054610256 -0.08483398 -0.059745017 -0.07301642 -0.11271535 -0.16270651 0.01389493 0.023570355
-0.15726061 -0.141471 0.16173053 -0.01770787 -0.1493635 0.037215658 -0.018865028 0.034062956
0.0061769728 0.03779252 -0.036010012 0.14171977 -0.11503861 0.110126965 -0.023829315 0.07971857
0.06278286 0.0070839683 -0.0661529 -0.022208197 0.07824789 -0.13443331 0.010578471 -0.047924608
-0.12937284 0.008637525 -0.07212324 0.0676126 -0.09830237 -0.032538835 0.08159209 0.057801787
-0.004349954 -0.05547522 0.043294847 0.059972703 -0.03695373 -0.09448495 0.020377055 -0.03097504
0.14234518 0.0994218 -0.039662458 -0.020973928 0.09189294 -0.09517627 -0.0798656 -0.12480691
-0.1282978 0.22696564 0.04211866 -0.1843346 0.016713547 0.18654957 0.012785578 0.11990692
-0.22161737 -0.022227215 -0.14594065 0.056020886 0.12361787 0.032555852 0.06746428 -0.05247585
0.0923782 0.06796873 0.06527607 0.028264513 0.060241953 -0.13679008 0.00084290165 0.11261846
-0.03127975 0.105287746 -0.08666121 0.025397034 0.013268685 0.2550673 0.053366464 -0.0049007856
-0.0067048874 0.022069888 -0.07200073 0.06848101 0.0067221094 0.028772632 -0.03190226 -0.08571095
-0.0072131907 -0.018796168 0.086372055 -0.07894159 -0.30381694 0.03894551 0.05779778 0.108757265
0.023369761 0.19926003 0.0002131363 -0.014175854 0.04649137 0.09547916 -0.107589915 -0.13254952
-0.057625357 0.06988594 0.08938391 0.025613083 -0.108447105 0.10757084 -0.14003849 -0.15866995
0.06106373 0.007972472 0.050777383 0.10155283 -0.013377969 -0.025214104 0.04077717 0.12625201
-0.022406666 -0.17412862 -0.008886919 0.11004987 -0.008109209 -0.10220426 -0.018147726 -0.008397395
-0.1130119 0.07484437 -0.07654326 0.032837804 -0.06632298 0.054815024 -0.008572393 -0.07271056
-0.11471955 -0.00479501 0.10868065 0.02422529 0.0019417389 -0.020410778 -0.034440957 -0.07195522
-0.029198831 -0.021667017 0.03597351 -0.13613006 -0.08984293 -0.11191831 0.055064246 0.0869617
0.032722604 -0.029747438 -0.1644867 -0.03474707 -0.080871075 -0.015559118 -0.039600044 -0.119630784
-0.074624725 -0.052061282 0.20699257 -0.037158642 0.083093554 -0.030896237 -0.06391818 -0.014690865
-0.009416587 0.05940391 -0.1021147 0.043357927 0.023405978 0.12699048 0.064039506 0.04926767
-0.18709268 0.13574472 -0.12543547 -0.11492161 0.03779318 -0.04044935 -0.09532914 0.045958363
-0.11505591 -0.03945215 0.024633147 -0.0111723365 -0.06626794 -0.019595679 0.17184044 0.042969916
0.0012757825 -0.05446301 -0.012132467 -0.026945537 0.051186927 0.11089524 0.033036526 -0.025191
-0.094702505 -0.05595612 -0.054316565 0.0014845956 0.0047331955 -0.013258674 0.117972866 0.06563405
00000000: f885 0fbd bea8 f2bc d18f 153e 8495 12bb
00000010: bdea 7b3d 91dd ba3d 2ae3 a43d 1702 4d3d
00000020: 067d a63c 4728 713c b2bf 3d3c c05b 7f3d
00000030: 1ee5 0cbe 77f8 9cbc 8f50 a03d fcec c53d
00000040: e8d3 863d 37e1 39bd e588 5339 4e81 aebd
00000050: de0a fa3c 1371 da3c 6fcc 0bbc 8637 dd3d
00000060: 4b15 41bd f979 d3bb 29ea 8b3d f05a 0b3d
00000070: 7ed0 093d 06bc 90bd 6d3e 2a3e 67a9 b43d
00000080: 87d5 db3c 9db8 ebbd 3f2f 53bd 9fef 483b
00000090: 1e24 df3c bba9 0c3e fc4f d73d 5516 68bd
000000a0: 01af 5f3d 70bd adbd 31b7 74bd a289 95bd
000000b0: 4ed7 e6bd 899c 26be 8fa7 633c 9e16 c13c
000000c0: ed08 21be c6dd 10be b09c 253e 1810 91bc
000000d0: bff2 18be 726f 183d d58a 9abc 9985 0b3d
000000e0: 3468 ca3b 54cc 1a3d 3c7f 13bd fd1e 113e
000000f0: 5d99 ebbd 3f8a e13d b235 c3bc 7d43 a33d
00000100: 4d94 803d a220 e83b 2c7b 87bd f7ed b5bc
00000110: 6e40 a03d e3a8 09be 5351 2d3c 984c 44bd
00000120: 507a 04be 6884 0d3c 59b5 93bd 7a78 8a3d
00000130: c152 c9bd 7147 05bd c119 a73d 91c1 6c3d
00000140: 0f8a 8ebb fc39 63bd f055 313d f0a5 753d
00000150: cb5c 17bd 5381 c1bd c8ed a63c 5ebf fdbc
00000160: efc2 113e a89d cb3d 1a75 22bd 84d1 abbc
00000170: 5e32 bc3d c7eb c2bd 9390 a3bd c49a ffbd
00000180: 8060 03be ae69 683e 9e84 2c3d 36c2 3cbe
00000190: d9ea 883c da06 3f3e 9a7a 513c c291 f53d
000001a0: aaef 62be d915 b6bc 7771 15be 2876 653d
000001b0: 5e2b fd3d 4959 053d b62a 8a3d ebf0 56bd
000001c0: c830 bd3d 3133 8b3d 76af 853d fb8a e73c
000001d0: 44c0 763d b312 0cbe 2cf6 5c3a 82a4 e63d
000001e0: 321f 00bd 1aa1 d73d 6f7b b1bd 710d d03c
000001f0: e664 593c 2e98 823e cb96 5a3d c596 a0bb
00000200: acb4 dbbb e9cb b43c 1e75 93bd c63f 8c3d
00000210: 2445 dc3b 95b4 eb3c f2ab 02bd 3989 afbd
00000220: a15c ecbb 6cfa 99bc d5e3 b03d 21ac a1bd
00000230: e58d 9bbe 5485 1f3d 5dbd 6c3d 21bc de3d
00000240: f171 bf3c d20a 4c3e 577d 5f39 d741 68bc
00000250: bc6d 3e3d 948a c33d 1a58 dcbd 10bb 07be
00000260: 9108 6cbd 5c20 8f3d e90e b73d 87d2 d13c
00000270: 8419 debd 1a4e dc3d 4066 0fbe 607a 22be
00000280: f61d 7a3d f99e 023c f2fb 4f3d eefa cf3d
00000290: 452f 5bbc cf8d cebc f605 273d 3548 013e
000002a0: 2f8e b7bc c64e 32be 719a 11bc d461 e13d
000002b0: 7ddc 04bc 7850 d1bd 8aaa 94bc 3a95 09bc
000002c0: c872 e7bd 0148 993d b6c2 9cbd ef80 063d
000002d0: 58d4 87bd b885 603d 3973 0cbc 46e9 94bd
000002e0: 15f2 eabd 761f 9dbb f693 de3d 1e74 c63c
000002f0: f281 fe3a 8134 a7bc f611 0dbd 425d 93bd
00000300: 6332 efbc 077f b1bc f658 133d ae65 0bbe
00000310: 92ff b7bd 6d35 e5bd 0c8b 613d fa18 b23d
00000320: 2308 063d e6b0 f3bc 346f 28be f252 0ebd
00000330: bc9f a5bd aceb 7ebc a833 22bd fc00 f5bd
00000340: d9d4 98bd 363e 55bd dcf5 533e a933 18bd
00000350: f42c aa3d 1b1a fdbc 89e7 82bd f4b1 70bc
00000360: 0748 1abc 8451 733d 8321 d1bd 1598 313d
00000370: e5bd bf3c cb09 023e 2527 833d e5cc 493d
00000380: 3995 3fbe aa00 0b3e 2872 00be 055c ebbd
00000390: 06cd 1a3d 38ae 25bd ed3b c3bd d63e 3c3d
000003a0: 6fa2 ebbd 9498 21bd 74cb c93c 2d0c 37bc
000003b0: 7cb7 87bd 1e87 a0bc f1f6 2f3e 3901 303d
000003c0: 2838 a73a 9b14 5fbd 41c7 46bc e3bc dcbc
000003d0: 62a9 513d 0b1d e33d 4f51 073d 5b5d cebc
000003e0: 63f3 c1bd 3f32 65bd 0c7b 5ebd c396 c23a
000003f0: ec18 9b3b e93a 59bc c29b f13d 256b 863d

network_body._body_endoder.seq_layers.2.bias f4 [128]
0.0 0.0 0.0 0.0 0.0 0.0 0.0 0.0
0.0 0.0 0.0 0.0 0.0 0.0 0.0 0.0
0.0 0.0 0.0 0.0 0.0 0.0 0.0 0.0
0.0 0.0 0.0 0.0 0.0 0.0 0.0 0.0
0.0 0.0 0.0 0.0 0.0 0.0 0.0 0.0
0.0 0.0 0.0 0.0 0.0 0.0 0.0 0.0
0.0 0.0 0.0 0.0 0.0 0.0 0.0 0.0
0.0 0.0 0.0 0.0 0.0 0.0 0.0 0.0
0.0 0.0 0.0 0.0 0.0 0.0 0.0 0.0
0.0 0.0 0.0 0.0 0.0 0.0 0.0 0.0
0.0 0.0 0.0 0.0 0.0 0.0 0.0 0.0
0.0 0.0 0.0 0.0 0.0 0.0 0.0 0.0
0.0 0.0 0.0 0.0 0.0 0.0 0.0 0.0
0.0 0.0 0.0 0.0 0.0 0.0 0.0 0.0
0.0 0.0 0.0 0.0 0.0 0.0 0.0 0.0
0.0 0.0 0.0 0.0 0.0 0.0 0.0 0.0
00000000: 0000 0000 0000 0000 0000 0000 0000 0000
00000010: 0000 0000 0000 0000 0000 0000 0000 0000
00000020: 0000 0000 0000 0000 0000 0000 0000 0000
00000030: 0000 0000 0000 0000 0000 0000 0000 0000
00000040: 0000 0000 0000 0000 0000 0000 0000 0000
00000050: 0000 0000 0000 0000 0000 0000 0000 0000
00000060: 0000 0000 0000 0000 0000 0000 0000 0000
00000070: 0000 0000 0000 0000 0000 0000 0000 0000
00000080: 0000 0000 0000 0000 0000 0000 0000 0000
00000090: 0000 0000 0000 0000 0000 0000 0000 0000
000000a0: 0000 0000 0000 0000 0000 0000 0000 0000
000000b0: 0000 0000 0000 0000 0000 0000 0000 0000
000000c0: 0000 0000 0000 0000 0000 0000 0000 0000
000000d0: 0000 0000 0000 0000 0000 0000 0000 0000
000000e0: 0000 0000 0000 0000 0000 0000 0000 0000
000000f0: 0000 0000 0000 0000 0000 0000 0000 0000
00000100: 0000 0000 0000 0000 0000 0000 0000 0000
00000110: 0000 0000 0000 0000 0000 0000 0000 0000
00000120: 0000 0000 0000 0000 0000 0000 0000 0000
00000130: 0000 0000 0000 0000 0000 0000 0000 0000
00000140: 0000 0000 0000 0000 0000 0000 0000 0000
00000150: 0000 0000 0000 0000 0000 0000 0000 0000
00000160: 0000 0000 0000 0000 0000 0000 0000 0000
00000170: 0000 0000 0000 0000 0000 0000 0000 0000
00000180: 0000 0000 0000 0000 0000 0000 0000 0000
00000190: 0000 0000 0000 0000 0000 0000 0000 0000
000001a0: 0000 0000 0000 0000 0000 0000 0000 0000
000001b0: 0000 0000 0000 0000 0000 0000 0000 0000
000001c0: 0000 0000 0000 0000 0000 0000 0000 0000
000001d0: 0000 0000 0000 0000 0000 0000 0000 0000
000001e0: 0000 0000 0000 0000 0000 0000 0000 0000
000001f0: 0000 0000 0000 0000 0000 0000 0000 0000

action_model._continuous_distribution.log_sigma f4 [1, 3]
0.0 0.0 0.0
00000000: 0000 0000 0000 0000 0000 0000

action_model._continuous_distribution.mu.weight f4 [3, 128]
0.0021007464 -0.023145353 -0.026600024 -0.009286867 -0.00040712353 -0.011304017 0.01074224 0.027938256
0.0026889022 0.0059242803 -0.013631587 -0.015165836 0.02347637 0.012667407 -0.012145214 -0.007401476
0.022448657 0.011319276 0.015057193 0.008077079 -0.002967348 -0.015099845 -0.01560995 -0.024092764
-0.015310344 0.017589007 -0.006032865 -0.004403619 -0.01257082 -0.006394196 0.0030614976 -0.02731355
0.02431289 -0.041527238 -0.010892146 0.004443165 0.01848725 -0.012651326 0.030676529 0.0050146175
-0.006699912 -0.019566504 0.0026300098 -0.0017262716 -0.00078976416 0.011113795 -0.007265083 -0.007511382
0.022335442 0.011905525 0.0010474648 0.025268728 -0.007501349 0.0046659643 0.038241755 -0.023365166
-0.021867424 0.013615225 0.02476983 0.022719946 0.019179218 -0.04502101 0.005619962 -0.0007894516
-0.043883674 -0.02702997 -0.012801858 0.0046722083 -0.0006341576 0.011680749 0.0021742664 -0.031151487
-0.0025232814 0.019214172 -0.006046373 -0.010841353 -0.010258463 -0.015362899 0.014081867 0.005919182
0.022912016 -0.0082260445 0.0087895645 0.002654912 -0.004236503 0.013774857 0.02466116 0.009775369
0.033479534 0.0015930732 0.033441715 -0.030523127 -0.004324868 0.0122171985 -0.015240851 0.01765781
-0.01739395 0.014538147 -0.009086611 0.007931404 0.011575853 0.0012769391 -0.02826717 0.027555255
-0.0029457628 -0.013269687 -0.010327912 -0.013758103 -0.029990524 -0.025468973 0.011745412 0.0072222725
-0.015240486 -0.009233292 0.021954922 0.004041351 0.0030926229 -0.0027292073 -0.0055150995 0.0025085912
-0.0060925907 0.0059215785 -0.01667135 -0.018025285 -0.023899965 -0.0022797016 0.016790723 0.026292121
0.014847839 -0.009613535 0.03256299 0.011624544 -0.014354902 0.02391199 -0.007289843 0.008758622
-0.008081198 -0.0022986548 -0.004472161 0.04864088 0.037959248 -0.0051457644 -0.07010815 0.029016826
0.0024043003 -0.001746074 -0.022610003 -0.0028360214 -0.02507841 0.010544798 -0.014595078 0.008604097
-0.037837762 -0.0019588734 -0.010614681 -0.0100856945 -0.00021840248 0.008496397 0.029880557 -0.016154194
0.010242929 0.0035080586 -0.02706459 -0.010858499 -0.037131827 0.0049036643 -0.007239417 -0.00634335
-0.0014332643 0.0036273 -0.00825067 0.00027582198 0.0044647944 0.00090966775 -0.0053838706 0.029777765
0.0002791884 -0.0011058083 -0.0025522152 -0.0114758015 -0.0056886347 0.003120075 0.0070899003 -0.022420634
-0.0058542 -0.027946657 0.036931735 -0.023133174 0.012228287 0.002579443 0.029659962 -0.0214741
-0.010778499 0.012073164 -0.024128338 -0.015462426 -0.0043575224 -0.037145983 0.0013503601 -0.020179257
0.019647324 -0.00032799348 -0.007114486 -0.0052306107 -0.02774438 -0.0059515866 0.0006068183 -0.0068819425
-0.004991196 -0.014470664 0.0130354455 0.008255198 0.00908736 0.01515404 -0.030190317 -0.01842534
-0.010569833 -0.022306493 -0.0051909885 0.019619353 0.008996339 0.0024394763 0.0025577287 0.04522973
0.00431966 0.0038723357 0.013057761 0.032417517 0.008345133 0.001618431 -0.00479216 -0.053859856
-0.009403488 -0.04663348 0.009420714 -0.00966408 0.054639887 -0.015840499 0.0042798077 -0.01654937
0.0320823 0.01624309 0.010393303 -0.025726814 -0.028387 0.03186084 -0.00097562274 0.001956089
0.013162314 -0.008736745 -0.01039767 0.019796427 -0.0026405093 0.0030115526 -0.013468529 0.0046375575
00000000: adac 093b 539b bdbc 4be8 d9bc f227 18bc
00000010: 3273 d5b9 7c34 39bc 3800 303c c5de e43c
00000020: 4b38 303b 7720 c23b 0557 5fbc 207a 78bc
00000030: 8451 c03c f58a 4f3c b8fc 46bc 1588 f2bb
00000040: 3fe6 b73c 7c74 393c 72b2 763c ba55 043c
00000050: d777 42bb 5765 77bc e0c0 7fbc 305e c5bc
00000060: 3dd8 7abc d216 903c 57af c5bb 3c4c 90bb
00000070: d7f5 4dbc 6786 d1bb 68a3 483b aac0 dfbc
00000080: d32b c73c 7718 2abd f974 32bc f897 913b
00000090: 9372 973c 8247 4fbc 584d fb3c a951 a43b
000000a0: ef8a dbbb ef49 a0bc 3e5c 2c3b 1044 e2ba
000000b0: 2d08 4fba a316 363c ef0f eebb 0a22 f6bb
000000c0: d1f8 b63c 640f 433c 164b 893a 5d00 cf3c
000000d0: e0cd f5bb f2e4 983b 63a3 1c3d 4e68 bfbc
000000e0: 5023 b3bc 6512 5f3c 19ea ca3c 2e1f ba3c
000000f0: bc1d 9d3c f367 38bd a827 b83b 33f3 4eba
00000100: 5ebf 33bd f56d ddbc e2be 51bc 5319 993b
00000110: 993d 26ba 9d60 3f3c 237e 0e3b 6731 ffbc
00000120: a35d 25bb 0a67 9d3c a720 c6bb ee9f 31bc
00000130: 1d13 28bc abb4 7bbc a2b7 663c b3f5 c13b
00000140: fbb1 bb3c 88c6 06bc 1b02 103c 08fe 2d3b
00000150: 5dd2 8abb f0af 613c 3306 ca3c df28 203c
00000160: d621 093d abce d03a 2efa 083d a30b fabc
00000170: 9fb7 8dbb a52a 483c c3b4 79bc 1da7 903c
00000180: c27d 8ebc 6831 6e3c 02e0 14bc b8f2 013c
00000190: a6a8 3d3c f75e a73a 8d90 e7bc 8fbb e13c
000001a0: b30d 41bb 1a69 59bc 6736 29bc ab69 61bc
000001b0: b0ae f5bc 4fa4 d0bc d46f 403c d0a8 ec3b
000001c0: 3bb3 79bc 3c47 17bc cfda b33c 4f6d 843b
000001d0: 9aad 4a3b 80dc 32bb 02b8 b4bb 2d67 243b
000001e0: 5ba4 c7bb cd09 c23b 5b92 88bc c3a9 93bc
000001f0: dcc9 c3bc 0c67 15bb b38c 893c 9362 d73c
00000200: 5a44 733c 1782 1dbc c560 053d df74 3e3c
00000210: d330 6bbc 14e3 c33c a3df eebb 5380 0f3c
00000220: 0067 04bc 07a5 16bb 358b 92bb a93b 473d
00000230: 287b 1b3d cd9d a8bb dd94 8fbd b2b4 ed3c
00000240: 7791 1d3b 85dc e4ba 9d38 b9bc 8bdc 39bb
00000250: 3d71 cdbc 17c4 2c3c 3220 6fbc 33f8 0c3c
00000260: c5fb 1abd 7160 00bb 33e9 2dbc 783e 25bc
00000270: f802 65b9 7934 0b3c 12c8 f43c cd55 84bc
00000280: f5d1 273c 75e7 653b 8fb6 ddbc d9e7 31bc
00000290: 8b17 18bd ebae a03b a238 edbb e0db cfbb
000002a0: 5fdc bbba ffb7 6d3b d12d 07bc 339c 9039
000002b0: 694d 923b c576 6e3a 2e6b b0bb 80f0 f33c
000002c0: 0860 9239 c5f0 90ba 1143 27bb 0005 3cbc
000002d0: ba67 babb 2c7a 4c3b 6552 e83b 7aab b7bc
000002e0: 97d4 bfbb 63f0 e4bc bb45 173d c881 bdbc
000002f0: 2759 483c df0b 293b 73f9 f23c 74ea afbc
00000300: 4d98 30bc 85ce 453c cba8 c5bc 1d56 7dbc
00000310: 8cc9 8ebb 6326 18bd 91fe b03a f84e a5bc
00000320: 6df3 a03c 8af6 abb9 a220 e9bb 8b65 abbb
00000330: 2f48 e3bc 8705 c3bb e312 1f3a eb81 e1bb
00000340: 308d a3bb 5d16 6dbc 9f92 553c cf40 073c
00000350: 27e3 143c a748 783c af51 f7bc bdf0 96bc
00000360: 182d 2dbc 1bbc b6bc 2b19 aabb c4b8 a03c
00000370: 6165 133c 9fdf 1f3b 919f 273b cf42 393d
00000380: ef8b 8d3b 03c7 7d3b 38f0 553c 3bc8 043d
00000390: 06ba 083c 8821 d43a 8d07 9dbb 279c 5cbd
000003a0: 1611 1abc bf02 3fbd 5759 1a3c 1756 1ebc
000003b0: 13ce 5f3d efc3 81bc a13d 8c3b 8b92 87bc
000003c0: bb68 033d 3b10 853c ac48 2a3c 0ac1 d2bc
000003d0: db8b e8bc 8380 023d efc0 7fba ba31 003b
000003e0: bfa6 573c 9124 0fbc fd5a 2abc 1e2c a23c
000003f0: 650c 2dbb 785d 453b 1bab 5cbc a7f6 973b

action_model._continuous_distribution.mu.bias f4 [3]
0.0 0.0 0.0
00000000: 0000 0000 0000 0000 0000 0000

action_model._discrete_distribution.branches.0.weight f4 [1, 128]
-0.0025338044 -0.007261514 -0.008462765 -0.00072189624 0.004251608 -0.010371573 -0.0057794414 -0.021905495
0.006540306 0.00400723 -0.007196858 -0.019297596 -0.027503654 0.004583381 -0.013905497 -0.00230811
-0.0076955273 0.01521138 -0.0022362499 0.0050519276 0.007589865 0.013885665 0.0010562377 0.012718424
-0.01192727 0.011702173 0.001225172 0.0029862328 0.0028868986 -0.01129956 -0.009846512 0.0071800663
0.0017902954 0.0039164713 0.0002450304 -0.0063782977 0.008766046 0.005663987 -0.00748676 -0.010013467
0.0068706893 0.004312574 0.0052990247 0.017387694 0.005864686 -0.017642416 0.0008753195 -0.01579122
-0.0017337548 0.0049320287 -0.0010264332 -0.0077826357 0.0102762375 -0.011314675 0.0071669235 -0.0031147804
-0.0068436684 -0.0076932753 0.015694795 -0.0036539324 -0.0017137624 -0.007161134 -0.00039232764 -0.0017117724
0.012682128 -0.010775046 -0.01612305 0.006916405 0.00940716 0.003333263 0.0048000994 -0.010291542
-0.008010203 0.0068985657 0.0008042641 0.0073076286 -0.0044983183 0.0052572787 0.0049621724 -0.004867157
-0.002700338 0.006119499 0.0023850247 -0.010209296 -0.004046641 0.009251463 -0.008251932 0.0035228815
0.0042390134 0.0032084757 -0.003566814 0.00068266253 0.009251056 0.01727604 0.004597215 -0.0019320945
0.015904153 -0.0066914456 0.0011648525 -0.005317991 -0.0033030682 -0.016116302 0.0013552086 -0.001109843
0.017065471 0.0021464878 -0.008108688 0.006884807 -0.0023381903 -0.0038113543 0.0075328164 0.02037951
-0.014574604 -0.021073777 -0.004915933 0.010347203 -0.00690841 0.0118464045 0.00068666524 -0.011889342
-0.0032026153 -0.0061357445 -0.014763092 0.011612324 0.007134632 0.0097362455 0.0095545845 0.00705869
00000000: 2f0e 26bb fff1 edbb 69a7 0abc a33d 3dba
00000010: 1351 8b3b 88ed 29bc 7861 bdbb 2773 b3bc
00000020: 1050 d63b 154f 833b 9fd3 ebbb fe15 9ebc
00000030: 584f e1bc 3030 963b e2d3 63bc a943 17bb
00000040: c32a fcbb 2739 793c 0c8e 12bb a48a a53b
00000050: 67b4 f83b b380 633c 7571 8a3a f060 503c
00000060: 996a 43bc 79ba 3f3c f395 a03a acb4 433b
00000070: 1f32 3d3b ca21 39bc 4453 21bc c346 eb3b
00000080: 58a8 ea3a be55 803b 6c77 8039 0a01 d1bb
00000090: 769f 0f3c f798 b93b 7f53 f5bb 860f 24bc
000000a0: 8523 e13b 7e50 8d3b 71a3 ad3b a370 8e3c
000000b0: 8d2c c03b d486 90bc b375 653a 975c 81bc
000000c0: 283f e3ba db9c a13b 6289 86ba 7b05 ffbb
000000d0: aa5d 283c 3061 39bc 83d8 ea3b 5821 4cbb
000000e0: da40 e0bb df17 fcbb 5f92 803c d076 6fbb
000000f0: 53a0 e0ba f2a7 eabb 53b1 cdb9 8d5d e0ba
00000100: b3c8 4f3c d289 30bc 7d14 84bc 03a3 e23b
00000110: 7d20 1a3c e072 5a3b 274a 9d3b db9d 28bc
00000120: 3a3d 03bc 5d0d e23b 40d5 523a d574 ef3b
00000130: a166 93bb 4045 ac3b b899 a23b ac7c 9fbb
00000140: 27f8 30bb 1486 c83b 134e 1c3b e444 27bc
00000150: af99 84bb 7393 173c 1d33 07bc 25e0 663b
00000160: 6ce7 8a3b 4a45 523b 35c1 69bb b5f4 323a
00000170: be91 173c 7b86 8d3c 3ca4 963b 553e fdba
00000180: 6d49 823c ea43 dbbb f7ad 983a 8b42 aebb
00000190: 4a78 58bb 5606 84bc 41a1 b13a 2778 91ba
000001a0: e3cc 8b3c 17ac 0c3b 4dda 04bc f299 e13b
000001b0: 533c 19bb eac7 79bb d8d5 f63b eef2 a63c
000001c0: 52ca 6ebc eaa2 acbc d615 a1bb 5187 293c
000001d0: f25f e2bb 6c17 423c 5301 343a 84cb 42bc
000001e0: f8e2 51bb 5b0e c9bb e5e0 71bc 9e41 3e3c
000001f0: a2c9 e93b c684 1f3c d58a 1c3c 954c e73b

network_body.observation_encoder.processors.0.normalizer.running_mean f4 [62]
0.009582114 2.3888187 0.009315943 2.3888133 0.009582114 2.390665 0.009315944 2.3906577
0.009315944 2.3911586 0.009582115 2.3922744 0.009848285 2.3942263 0.009582114 2.3959475
0.009315944 2.3968875 0.009848285 2.397552 0.009848285 2.3981361 0.009315944 2.3995762
0.009049774 2.3996189 0.008251265 2.4004726 0.007985096 2.4005349 0.0079850955 2.4020236
0.007718926 2.4047549 0.0074527566 2.40665 0.0079850955 2.4063745 0.0079850955 2.405917
0.008517434 2.405677 0.008783605 2.4100711 0.009049773 2.410106 0.009049773 2.4114993
0.009049773 2.4101176 0.008251266 2.4109075 0.008251266 2.4114482 0.008251265 2.410819
0.008251265 2.4123294 0.008251265 2.4128473 0.007718925 2.4141607
00000000: 4dfe 1c3c 68e2 1840 e6a1 183c 51e2 1840
00000010: 4dfe 1c3c a800 1940 e7a1 183c 8900 1940
00000020: e7a1 183c be08 1940 4efe 1c3c 061b 1940
00000030: b35a 213c 013b 1940 4dfe 1c3c 3457 1940
00000040: e7a1 183c 9b66 1940 b35a 213c 7e71 1940
00000050: b35a 213c 107b 1940 e7a1 183c a892 1940
00000060: 8145 143c 5b93 1940 5030 073c 58a1 1940
00000070: ecd3 023c 5da2 1940 ebd3 023c c1ba 1940
00000080: 0bef fc3b 81e7 1940 4136 f43b 8e06 1a40
00000090: ebd3 023c 0a02 1a40 ebd3 023c 8bfa 1940
000000a0: b58c 0b3c 9df6 1940 1ce9 0f3c 9b3e 1a40
000000b0: 8045 143c 2d3f 1a40 8045 143c 0156 1a40
000000c0: 8045 143c 5e3f 1a40 5130 073c 4f4c 1a40
000000d0: 5130 073c 2b55 1a40 5030 073c dc4a 1a40
000000e0: 5030 073c 9b63 1a40 5030 073c 176c 1a40
000000f0: 09ef fc3b 9c81 1a40

network_body.observation_encoder.processors.0.normalizer.running_variance f4 [62]
36.65504 74828.62 35.673943 74829.125 36.65504 74850.91 35.673943 74857.79
35.673943 74864.14 36.65504 74867.58 37.635616 74885.7 36.65504 74893.05
35.673943 74913.516 37.635616 74908.28 37.635616 74915.234 35.673943 74931.03
34.69231 74931.37 31.744207 74945.48 30.760445 74944.23 30.760445 74959.98
29.776152 74978.94 28.791323 75005.79 30.760448 74998.58 30.760448 74985.164
32.727444 74972.95 33.710144 75019.63 34.69231 75015.31 34.69231 75017.87
34.69231 74993.36 31.74421 75010.66 31.74421 75013.84 31.74421 75000.32
31.744211 75014.375 31.744211 75020.29 29.776152 75043.35
00000000: c39e 1242 4f26 9247 1eb2 0e42 9026 9247
00000010: c39e 1242 7431 9247 1eb2 0e42 e534 9247
00000020: 1eb2 0e42 1238 9247 c39e 1242 ca39 9247
00000030: df8a 1642 da42 9247 c39e 1242 8646 9247
00000040: 1eb2 0e42 c250 9247 df8a 1642 244e 9247
00000050: df8a 1642 9e51 9247 1eb2 0e42 8459 9247
00000060: edc4 0a42 af59 9247 23f4 fd41 bd60 9247
00000070: 6415 f641 1d60 9247 6415 f641 fd67 9247
00000080: 8f35 ee41 7871 9247 a154 e641 e57e 9247
00000090: 6615 f641 4a7b 9247 6615 f641 9574 9247
000000a0: e7e8 0242 7a6e 9247 30d7 0642 d185 9247
000000b0: edc4 0a42 a883 9247 edc4 0a42 ef84 9247
000000c0: edc4 0a42 ae78 9247 24f4 fd41 5481 9247
000000d0: 24f4 fd41 ec82 9247 24f4 fd41 297c 9247
000000e0: 25f4 fd41 3083 9247 25f4 fd41 2586 9247
000000f0: 8f35 ee41 ad91 9247

network_body.processors.0.normalizer.running_mean f4 [62]
0.009582114 2.3888187 0.009315943 2.3888133 0.009582114 2.390665 0.009315944 2.3906577
0.009315944 2.3911586 0.009582115 2.3922744 0.009848285 2.3942263 0.009582114 2.3959475
0.009315944 2.3968875 0.009848285 2.397552 0.009848285 2.3981361 0.009315944 2.3995762
0.009049774 2.3996189 0.008251265 2.4004726 0.007985096 2.4005349 0.0079850955 2.4020236
0.007718926 2.4047549 0.0074527566 2.40665 0.0079850955 2.4063745 0.0079850955 2.405917
0.008517434 2.405677 0.008783605 2.4100711 0.009049773 2.410106 0.009049773 2.4114993
0.009049773 2.4101176 0.008251266 2.4109075 0.008251266 2.4114482 0.008251265 2.410819
0.008251265 2.4123294 0.008251265 2.4128473 0.007718925 2.4141607
00000000: 4dfe 1c3c 68e2 1840 e6a1 183c 51e2 1840
00000010: 4dfe 1c3c a800 1940 e7a1 183c 8900 1940
00000020: e7a1 183c be08 1940 4efe 1c3c 061b 1940
00000030: b35a 213c 013b 1940 4dfe 1c3c 3457 1940
00000040: e7a1 183c 9b66 1940 b35a 213c 7e71 1940
00000050: b35a 213c 107b 1940 e7a1 183c a892 1940
00000060: 8145 143c 5b93 1940 5030 073c 58a1 1940
00000070: ecd3 023c 5da2 1940 ebd3 023c c1ba 1940
00000080: 0bef fc3b 81e7 1940 4136 f43b 8e06 1a40
00000090: ebd3 023c 0a02 1a40 ebd3 023c 8bfa 1940
000000a0: b58c 0b3c 9df6 1940 1ce9 0f3c 9b3e 1a40
000000b0: 8045 143c 2d3f 1a40 8045 143c 0156 1a40
000000c0: 8045 143c 5e3f 1a40 5130 073c 4f4c 1a40
000000d0: 5130 073c 2b55 1a40 5030 073c dc4a 1a40
000000e0: 5030 073c 9b63 1a40 5030 073c 176c 1a40
000000f0: 09ef fc3b 9c81 1a40

network_body.processors.0.normalizer.running_variance f4 [62]
36.65504 74828.62 35.673943 74829.125 36.65504 74850.91 35.673943 74857.79
35.673943 74864.14 36.65504 74867.58 37.635616 74885.7 36.65504 74893.05
35.673943 74913.516 37.635616 74908.28 37.635616 74915.234 35.673943 74931.03
34.69231 74931.37 31.744207 74945.48 30.760445 74944.23 30.760445 74959.98
29.776152 74978.94 28.791323 75005.79 30.760448 74998.58 30.760448 74985.164
32.727444 74972.95 33.710144 75019.63 34.69231 75015.31 34.69231 75017.87
34.69231 74993.36 31.74421 75010.66 31.74421 75013.84 31.74421 75000.32
31.744211 75014.375 31.744211 75020.29 29.776152 75043.35
00000000: c39e 1242 4f26 9247 1eb2 0e42 9026 9247
00000010: c39e 1242 7431 9247 1eb2 0e42 e534 9247
00000020: 1eb2 0e42 1238 9247 c39e 1242 ca39 9247
00000030: df8a 1642 da42 9247 c39e 1242 8646 9247
00000040: 1eb2 0e42 c250 9247 df8a 1642 244e 9247
00000050: df8a 1642 9e51 9247 1eb2 0e42 8459 9247
00000060: edc4 0a42 af59 9247 23f4 fd41 bd60 9247
00000070: 6415 f641 1d60 9247 6415 f641 fd67 9247
00000080: 8f35 ee41 7871 9247 a154 e641 e57e 9247
00000090: 6615 f641 4a7b 9247 6615 f641 9574 9247
000000a0: e7e8 0242 7a6e 9247 30d7 0642 d185 9247
000000b0: edc4 0a42 a883 9247 edc4 0a42 ef84 9247
000000c0: edc4 0a42 ae78 9247 24f4 fd41 5481 9247
000000d0: 24f4 fd41 ec82 9247 24f4 fd41 297c 9247
000000e0: 25f4 fd41 3083 9247 25f4 fd41 2586 9247
000000f0: 8f35 ee41 ad91 9247

network_body._body_endoder.seq_layers.0.weight f4 [128, 62]
0.03926567 0.19043478 -0.14866792 0.10221427 -0.112978704 -0.11669167 -0.24967016 -0.07315439
-0.09338844 -0.0023140088 -0.054613568 -0.16993327 0.114943065 -0.014925081 -0.031179674 0.083681755
0.24051133 -0.031866618 -0.0077882023 -0.10148007 0.063030906 -0.12528093 -0.045787595 -0.068839855
-0.15161498 0.095865674 0.062856145 0.12147384 0.1412644 -0.092387035 -0.03589919 0.055403173
0.0652089 -0.086036175 -0.06672514 -0.056661326 0.119321704 -0.019316137 0.07391499 -0.120772816
0.09485256 0.01689583 0.0751817 -0.057280157 0.037986547 -0.19673015 0.07510121 0.08737634
-0.009610578 -0.1244257 -0.06926057 0.0081237005 0.041114956 0.0068061375 0.04279463 0.21952371
-0.083761916 0.06147669 0.14455825 0.07501388 -0.18705699 -0.061931025 -0.065314926 0.018734144
0.19257745 0.008029466 0.11483844 0.005716489 0.17799585 -0.17550725 -0.16810529 0.04473044
0.08534845 0.07150227 -0.018416073 0.20883258 0.025543952 -0.26823482 0.062395357 0.14915264
0.0123030925 -0.059244227 -0.013650734 0.008733586 -0.21718098 0.10079161 0.047301967 0.021404753
0.18496051 -0.30240273 0.028611053 0.07628111 -0.029151104 0.004702515 0.034343608 0.17526245
-0.15287423 -0.02831749 0.13693324 -0.03303512 -0.22061941 0.18287237 0.08050093 0.12206117
0.037320483 0.21161042 0.07851078 0.171137 0.04694593 0.051989824 0.07249435 -0.020335557
-0.068676926 0.1890242 0.09337929 0.12832801 0.2397208 -0.124704756 0.05635883 -0.0048770434
0.116798855 -0.084621504 -0.0075038187 0.18595603 -0.1093797 -0.018362978 -0.30200633 0.09150807
-0.024223518 -0.04110716 -0.020985901 0.0330129 0.18843101 0.13799341 -0.015921883 -0.16732839
0.0969909 -0.029521026 0.049296185 0.31102112 -0.08041891 -0.057439238 0.010861548 -0.048019536
0.063396305 -0.0701258 -0.061762318 0.1617806 0.09126741 -0.12837939 -0.01910102 -0.07325275
-0.038537174 0.11749622 0.104694344 -0.023214875 -0.21901944 0.045724712 -0.049455848 -0.00023965948
-0.102469325 -0.02155569 0.056707293 -0.03600413 0.077375315 -0.093720935 0.025989275 0.11943462
0.0078060273 -0.028975366 -0.20218354 -0.081177875 0.059313234 0.06631137 -0.1650426 -0.034583807
-0.22607568 -0.14647059 0.122027725 -0.134356 -0.17800303 0.17155847 -0.061742667 0.054041494
-0.16458374 -0.16809547 0.18732265 0.049719937 -0.1345717 -0.038528174 -0.19862352 0.10730247
-0.03774655 0.14661838 -0.013967857 -0.0019590552 0.11471526 -0.17330022 -0.020666867 -0.117233545
-0.08162596 0.12003385 -0.21225272 -0.075141005 0.12744384 -0.049831185 0.1774059 0.07443787
-0.11349501 -0.23843315 0.14786777 0.11822415 0.14231445 -0.20511621 0.06322868 -0.013903491
-0.0812876 -0.040963832 -0.00027566406 -0.31004736 -0.089520484 0.059983235 0.3062997 0.025794076
-0.039593175 -0.110642105 -0.1257579 0.06827995 0.12538116 0.0017751779 0.14690088 0.23276204
-0.1510941 -0.16395202 -0.029189426 -0.04240244 -0.14297092 -0.06457784 -0.30960038 -0.20119573
-0.02785171 0.07570846 -0.12757161 -0.08956835 0.1518115 0.10153884 -0.14123115 -0.036857884
-0.14960153 -0.104632325 -0.023801904 -0.2216467 0.119525306 0.06943083 -0.09692256 -0.016894864
00000000: 0ad5 203d 5601 433e 673c 18be b755 d13d
00000010: 6161 e7bd 0bfc eebd 89a9 7fbe f8d1 95bd
00000020: 7042 bfbd a0a6 17bb 7ab2 5fbd fd02 2ebe
00000030: 4567 eb3d 5488 74bc 846c ffbc 5761 ab3d
00000040: 9a48 763e 9286 02bd 2d34 ffbb c8d4 cfbd
00000050: 5916 813d a549 00be c68b 3bbd e9fb 8cbd
00000060: f540 1bbe 3955 c43d b9ba 803d 47c7 f83d
00000070: 9da7 103e 6a35 bdbd 070b 13bd 70ee 623d
00000080: 3e8c 853d bc33 b0bd 31a7 88bd b515 68bd
00000090: f05e f43d e03c 9ebc be60 973d bd57 f7bd
000000a0: 0f42 c23d 2069 8a3c ddf8 993d 999e 6abd
000000b0: c897 1b3d a173 49be aace 993d 5ef2 b23d
000000c0: b075 1dbc e7d2 febd 7cd8 8dbd 4519 053c
000000d0: 2868 283d 0506 df3b 6c49 2f3d d3ca 603e
000000e0: 5e8b abbd fbce 7b3d 1407 143e e1a0 993d
000000f0: de8b 3fbe 63ab 7dbd d5c3 85bd 5978 993c
00000100: 0633 453e 058e 033c 6b30 eb3d 6351 bb3b
00000110: 8b44 363e 2cb8 33be cb23 2cbe 4437 373d
00000120: 2bcb ae3d c86f 923d 4edd 96bc 35d8 553e
00000130: 8d41 d13c 1356 89be 4692 7f3d 78bb 183e
00000140: e992 493c 13aa 72bd 54a7 5fbc 5117 0f3c
00000150: b164 5ebe d56b ce3d b5bf 413d 0559 af3c
00000160: 4a66 3d3e 88d4 9abe ba61 ea3c 4539 9c3d
00000170: 4cce eebc 8e17 9a3b e2ab 0c3d 0078 333e
00000180: 108b 1cbe 15fa e7bc 3a38 0c3e d64f 07bd
00000190: 0eea 61be e542 3b3e acdd a43d 35fb f93d
000001a0: 5ddd 183d 67b0 583e 43ca a03d 8a3e 2f3e
000001b0: 604a 403d 48f3 543d eb77 943d c196 a6bc
000001c0: 7da6 8cbd 8f8f 413e a43d bf3d 6b68 033e
000001d0: 5f79 753e 3565 ffbd 84d8 663d 9bcf 9fbb
000001e0: 3d34 ef3d 0a4e adbd 98e2 f5bb 426b 3e3e
000001f0: 7702 e0bd f56d 96bc 93a0 9abe 9568 bb3d
00000200: 6670 c6bc fb5f 28bd a0ea abbc 8938 073d
00000210: 0ff4 403e 254e 0d3e 9c6e 82bc 2258 2bbe
00000220: 2aa3 c63d 14d6 f1bc ccea 493d 293e 9f3e
00000230: abb2 a4bd 6845 6bbd a2f4 313c 22b0 44bd
00000240: ecd5 813d 1e9e 8fbd 7cfa 7cbd d0a9 253e
00000250: 68ea ba3d e375 03be be79 9cbc 8a05 96bd
00000260: 28d9 1dbd dca1 f03d fd69 d63d 1f2d bebc
00000270: a246 60be d649 3b3d 3792 4abd 1a4d 7bb9
00000280: 70db d1bd 8f95 b0bc e845 683d 1179 13bd
00000290: f376 9e3d c3f0 bfbd 76e7 d43c 239a f43d
000002a0: b4c9 ff3b bf5d edbc 3409 4fbe 9640 a6bd
000002b0: 6ff2 723d 41ce 873d ed00 29be c0a7 0dbd
000002c0: 6280 67be 63fc 15be ace9 f93d 9f94 09be
000002d0: 6d46 36be 06ad 2f3e e1e5 7cbd 9d5a 5d3d
000002e0: a488 28be 3821 2cbe 82d1 3f3e 22a7 4b3d
000002f0: 2acd 09be b8cf 1dbd f763 4bbe 66c1 db3d
00000300: 209c 1abd 2123 163e 70d9 64bc 7e63 00bb
00000310: d6ef ea3d 9d75 31be 904d a9bc 2418 f0bd
00000320: 832b a7bd 4fd4 f53d c758 59be 87e3 99bd
00000330: a380 023e c91b 4cbd e4a9 353e e272 983d
00000340: 1270 e8bd d227 74be a66a 173e 811f f23d
00000350: e1ba 113e fc09 52be 0a7e 813d 78cb 63bc
00000360: 1d7a a6bd b1c9 27bd 0187 90b9 87be 9ebe
00000370: 8456 b7bd fbb0 753d 50d3 9c3e 194e d33c
00000380: 742c 22bd 5498 e2bd aec6 00be 5cd6 8b3d
00000390: eb63 003e 16ad e83a 2f6d 163e 2c59 6e3e
000003a0: 69b8 1abe 0ae3 27be aa1e efbc 2eae 2dbd
000003b0: f866 12be 6341 84bd f183 9ebe 4106 4ebe
000003c0: 4529 e4bc 090d 9b3d 22a2 02be 9c6f b7bd
000003d0: 7974 1b3e 98f3 cf3d e69e 10be 4bf8 16bd
000003e0: 2531 19be 7949 d6bd 36fc c2bc 5af7 62be
000003f0: afc9 f43d c031 8e3d 567f c6bd 1967 8abc

network_body._body_endoder.seq_layers.0.bias f4 [128]
0.0 0.0 0.0 0.0 0.0 0.0 0.0 0.0
0.0 0.0 0.0 0.0 0.0 0.0 0.0 0.0
0.0 0.0 0.0 0.0 0.0 0.0 0.0 0.0
0.0 0.0 0.0 0.0 0.0 0.0 0.0 0.0
0.0 0.0 0.0 0.0 0.0 0.0 0.0 0.0
0.0 0.0 0.0 0.0 0.0 0.0 0.0 0.0
0.0 0.0 0.0 0.0 0.0 0.0 0.0 0.0
0.0 0.0 0.0 0.0 0.0 0.0 0.0 0.0
0.0 0.0 0.0 0.0 0.0 0.0 0.0 0.0
0.0 0.0 0.0 0.0 0.0 0.0 0.0 0.0
0.0 0.0 0.0 0.0 0.0 0.0 0.0 0.0
0.0 0.0 0.0 0.0 0.0 0.0 0.0 0.0
0.0 0.0 0.0 0.0 0.0 0.0 0.0 0.0
0.0 0.0 0.0 0.0 0.0 0.0 0.0 0.0
0.0 0.0 0.0 0.0 0.0 0.0 0.0 0.0
0.0 0.0 0.0 0.0 0.0 0.0 0.0 0.0
00000000: 0000 0000 0000 0000 0000 0000 0000 0000
00000010: 0000 0000 0000 0000 0000 0000 0000 0000
00000020: 0000 0000 0000 0000 0000 0000 0000 0000
00000030: 0000 0000 0000 0000 0000 0000 0000 0000
00000040: 0000 0000 0000 0000 0000 0000 0000 0000
00000050: 0000 0000 0000 0000 0000 0000 0000 0000
00000060: 0000 0000 0000 0000 0000 0000 0000 0000
00000070: 0000 0000 0000 0000 0000 0000 0000 0000
00000080: 0000 0000 0000 0000 0000 0000 0000 0000
00000090: 0000 0000 0000 0000 0000 0000 0000 0000
000000a0: 0000 0000 0000 0000 0000 0000 0000 0000
000000b0: 0000 0000 0000 0000 0000 0000 0000 0000
000000c0: 0000 0000 0000 0000 0000 0000 0000 0000
000000d0: 0000 0000 0000 0000 0000 0000 0000 0000
000000e0: 0000 0000 0000 0000 0000 0000 0000 0000
000000f0: 0000 0000 0000 0000 0000 0000 0000 0000
00000100: 0000 0000 0000 0000 0000 0000 0000 0000
00000110: 0000 0000 0000 0000 0000 0000 0000 0000
00000120: 0000 0000 0000 0000 0000 0000 0000 0000
00000130: 0000 0000 0000 0000 0000 0000 0000 0000
00000140: 0000 0000 0000 0000 0000 0000 0000 0000
00000150: 0000 0000 0000 0000 0000 0000 0000 0000
00000160: 0000 0000 0000 0000 0000 0000 0000 0000
00000170: 0000 0000 0000 0000 0000 0000 0000 0000
00000180: 0000 0000 0000 0000 0000 0000 0000 0000
00000190: 0000 0000 0000 0000 0000 0000 0000 0000
000001a0: 0000 0000 0000 0000 0000 0000 0000 0000
000001b0: 0000 0000 0000 0000 0000 0000 0000 0000
000001c0: 0000 0000 0000 0000 0000 0000 0000 0000
000001d0: 0000 0000 0000 0000 0000 0000 0000 0000
000001e0: 0000 0000 0000 0000 0000 0000 0000 0000
000001f0: 0000 0000 0000 0000 0000 0000 0000 0000
