results/currentRun/3DBall/3DBall-999808.pt (torch, 495601 bytes, 44 tensors)

network_body.observation_encoder.processors.0.normalizer.running_mean f4 [22]
0	0x35863e4d	1.000191e-06
1	0x3fcaff4b	1.5859159
2	0x35863e4d	1.000191e-06
3	0x3fccc691	1.5998098
4	0x36495d70	3.0005722e-06
5	0x3fceabdd	1.6146199
6	0x36495d70	3.0005722e-06
7	0x3fd055ce	1.6276186
8	0x36c95d72	6.0011453e-06
9	0x3fd15a73	1.6355728
10	0x36495d65	3.0005697e-06
11	0x3fd17165	1.636273
12	0x36863e61	4.000773e-06
13	0x3fd09439	1.6295234
14	0x35863e61	1.0001933e-06
15	0x3fcee8d7	1.6164807
16	0x36a7cdd7	5.0009508e-06
17	0x3fccba32	1.5994322
18	0x36063e5c	2.0003854e-06
19	0x3fca63fe	1.5811765
20	0x00000000	0.0
21	0x3fc83601	1.5641481

network_body.observation_encoder.processors.0.normalizer.running_variance f4 [22]
0	0x3ffffff8	1.999999
1	0x4815dc28	153456.62
2	0x3ffffff8	1.999999
3	0x4819b5c4	157399.06
4	0x407fffc6	3.9999862
5	0x481fb4fa	163539.9
6	0x407fffc0	3.9999847
7	0x482723fb	171151.92
8	0x40dfff75	6.9999337
9	0x482ec2cb	178955.17
10	0x407fffb8	3.9999828
11	0x48359b45	185965.08
12	0x409fff5f	4.999923
13	0x483b4d1b	191796.42
14	0x3ffffff0	1.9999981
15	0x483f336e	195789.72
16	0x40bfffa8	5.999958
17	0x4840f678	197593.88
18	0x403fffd6	2.99999
19	0x4840e28e	197514.22
20	0x3f800000	1.0
21	0x483f56eb	195931.67

network_body.processors.0.normalizer.running_mean f4 [22]
0	0x35863e4d	1.000191e-06
1	0x3fcaff4b	1.5859159
2	0x35863e4d	1.000191e-06
3	0x3fccc691	1.5998098
4	0x36495d70	3.0005722e-06
5	0x3fceabdd	1.6146199
6	0x36495d70	3.0005722e-06
7	0x3fd055ce	1.6276186
8	0x36c95d72	6.0011453e-06
9	0x3fd15a73	1.6355728
10	0x36495d65	3.0005697e-06
11	0x3fd17165	1.636273
12	0x36863e61	4.000773e-06
13	0x3fd09439	1.6295234
14	0x35863e61	1.0001933e-06
15	0x3fcee8d7	1.6164807
16	0x36a7cdd7	5.0009508e-06
17	0x3fccba32	1.5994322
18	0x36063e5c	2.0003854e-06
19	0x3fca63fe	1.5811765
20	0x00000000	0.0
21	0x3fc83601	1.5641481

network_body.processors.0.normalizer.running_variance f4 [22]
0	0x3ffffff8	1.999999
1	0x4815dc28	153456.62
2	0x3ffffff8	1.999999
3	0x4819b5c4	157399.06
4	0x407fffc6	3.9999862
5	0x481fb4fa	163539.9
6	0x407fffc0	3.9999847
7	0x482723fb	171151.92
8	0x40dfff75	6.9999337
9	0x482ec2cb	178955.17
10	0x407fffb8	3.9999828
11	0x48359b45	185965.08
12	0x409fff5f	4.999923
13	0x483b4d1b	191796.42
14	0x3ffffff0	1.9999981
15	0x483f336e	195789.72
16	0x40bfffa8	5.999958
17	0x4840f678	197593.88
18	0x403fffd6	2.99999
19	0x4840e28e	197514.22
20	0x3f800000	1.0
21	0x483f56eb	195931.67

network_body._body_endoder.seq_layers.0.weight f4 [128, 22]
0	0xbe0108b0	-0.1260097
1	0x3e99a79c	0.30010688
2	0xbdd36da7	-0.10323649
3	0x3ebca62b	0.36845526
4	0x3d9c196b	0.076220356
5	0x3e1e5cfb	0.15465157
6	0x3e58eb16	0.21183428
7	0xbe4ff814	-0.20309478
8	0x3e468b6d	0.19389124
9	0x3defc990	0.11708367
10	0x3e347318	0.1762203
11	0xbecfd3a1	-0.40591148
12	0xbebbdb79	-0.36690882
13	0xbbeb33db	-0.0071778125
14	0xbde7e9c5	-0.11323885
15	0x3d4a6945	0.0494168
16	0xbee28ea8	-0.44249463
17	0xbd5a9290	-0.05336243
18	0xbde90c55	-0.11379305
19	0xbd5f9ec1	-0.05459476
20	0x3d9ad517	0.07560175
21	0x3d759b98	0.05996284
22	0x3df4f6e1	0.11961151
23	0xbe793ca3	-0.24339537
24	0xbddd75a8	-0.10813457
25	0x3e151298	0.14557874
26	0xbc32153b	-0.01086932
27	0x3bd1fd2a	0.0064083533
28	0xbdee2776	-0.1162862
29	0x3dcc84cb	0.09986266
30	0x3dcb01a5	0.09912423
31	0xbeab5458	-0.33462787
32	0xbe13aef6	-0.14422211
33	0x3eb2a427	0.34890863
34	0x3e526ed5	0.20550092
35	0x3e7770eb	0.24164169
36	0xbe33a81b	-0.17544596
37	0xbe50df0d	-0.20397587
38	0x3f084f10	0.5324564
39	0x3e026233	0.12732773
40	0xbdcfda6f	-0.10149085
41	0xbdb2ba7d	-0.08726976
42	0xbec754f1	-0.38931993
43	0xbd2a8b51	-0.04163677
44	0x3d5e4158	0.054261535
45	0xbe9c8b3f	-0.30574986
46	0xbb47a334	-0.0030462267
47	0x3d6f7e5a	0.058470108
48	0x3db2e82c	0.087356895
49	0x3e792af2	0.24332789
50	0x3d8e9059	0.06961126
51	0x3e973cdb	0.29538617
52	0xbd253aaf	-0.04033917
53	0x3e335fd4	0.17517024
54	0xbdf0d444	-0.117592365
55	0x3dd8d01e	0.1058657
56	0xbcf083ca	-0.029359717
57	0x3e99b9b4	0.30024493
58	0x3d4a7ec8	0.049437314
59	0xbeff94b6	-0.49918145
60	0xba585226	-0.0008251987
61	0xbf4f9b7d	-0.8109663
62	0x3deaaf65	0.11459235
63	0x3e9916c2	0.29900175
64	0xbe2d3adf	-0.16916989
65	0xbc4c2501	-0.012459994
66	0xbe84e143	-0.2595311
67	0xbe54c637	-0.20778738
68	0xbe75347b	-0.23945801
69	0x3dd41ff6	0.103576586
70	0xbe1ad09a	-0.15118638
71	0x3b1f73bd	0.002433046
72	0xbc7969ec	-0.015223008
73	0x3e328b06	0.17435846
74	0xbdf5ca42	-0.12001468
75	0xbe74e5b2	-0.23915747
76	0x3e99964c	0.2999748
77	0x3e4a7bb5	0.19773753
78	0xbdf82d68	-0.121180356
79	0xbcdba099	-0.026809977
80	0xbe46033f	-0.19337176
81	0x3d210eb8	0.039320678
82	0xbd857379	-0.06516165
83	0x3e0b7a2c	0.13620824
84	0x3dbe7006	0.092987105
85	0x3d9c450c	0.07630357
86	0x3d31dd39	0.043423865
87	0xbe820a91	-0.25398687
88	0x3b23e770	0.0025009774
89	0x3c89ba04	0.016812332
90	0x3e74b943	0.23898797
91	0x3d7a9c14	0.061184004
92	0x3e07704d	0.13226433
93	0x3d557ed1	0.052122895
94	0xbda4cb8b	-0.08046635
95	0xbd153364	-0.036425963
96	0x3eb25c55	0.3483607
97	0x3d97751f	0.07395386
98	0x3e578efd	0.2105064
99	0xbd3686a1	-0.044561986
100	0x3d92cde6	0.07168178
101	0xbe29d1af	-0.16583894
102	0x3d801f78	0.06256002
103	0x3e734d69	0.23759998
104	0xbd64a7f1	-0.055824224
105	0xbe1cf4d9	-0.15327777
106	0x3dcbe8e7	0.09956532
107	0x3d71485e	0.058906905
108	0x3e7a3b8f	0.24436782
109	0xbe427345	-0.18989284
110	0xbd4eb5b2	-0.050466247
111	0x3e7e94f8	0.24861515
112	0x3e44da33	0.19223861
113	0xbe7fa612	-0.24965695
114	0xbe708ebc	-0.23491949
115	0x3cd9e438	0.026598081
116	0xbe362859	-0.17788829
117	0xbd6ec4b3	-0.058293056
118	0x3d6506f4	0.055914834
119	0x3e83c83f	0.25738713
120	0x3e3a5d2f	0.18199609
121	0x3e453ba0	0.19261026
122	0x3eba14ca	0.36343986
123	0xbe87d206	-0.26527423
124	0x3defb890	0.117051244
125	0x3d894cd0	0.06704104
126	0xbc1d503d	-0.00960165
127	0xbdda7416	-0.10666673
128	0xbe4ca4fb	-0.1998481
129	0x3e48b11a	0.19598809
130	0x3e10190f	0.14072059
131	0xbe920039	-0.28515795
132	0xbc993459	-0.01870172
133	0x3c73c367	0.0148781305
134	0x3da347b5	0.079726614
135	0x3e29f7e2	0.16598466
136	0x3e2da232	0.16956404
137	0xbd77df0c	-0.06051545
138	0x3ca1911f	0.01972252
139	0xbea6324a	-0.32460243
140	0xbeb01892	-0.34393746
141	0x3e3a562c	0.18196934
142	0x3e9e2d07	0.30893728
143	0xbda74cf8	-0.081689775
144	0x3c474147	0.012161559
145	0xbe0177e9	-0.12643398
146	0xbe65a3c8	-0.22425759
147	0x3eb113d6	0.34585446
148	0x3e2e1e6c	0.17003793
149	0xbd110ec5	-0.035414476
150	0x3df05927	0.117357545
151	0x3e7ddc89	0.24791159
152	0xbdabf865	-0.08396987
153	0xbe780f57	-0.24224602
154	0x3e387f36	0.18017277
155	0x3e51cfa6	0.20489368
156	0x3d7b8de2	0.061414607
157	0x3cc11443	0.023569232
158	0x3e71a8f5	0.23599608
159	0x3e946144	0.28980458
160	0x3dec29c8	0.11531407
161	0x3a9dcba2	0.0012038837
162	0x3ed4981c	0.415223
163	0x3ee9f23b	0.4569262
164	0x3e851da6	0.25999182
165	0x3e323618	0.17403448
166	0xbd0dffd7	-0.034667816
167	0xbe57dec9	-0.2108108
168	0x3a1d19ac	0.00059929
169	0xbd870c12	-0.06594099
170	0x3e5d0780	0.21584892
171	0xbe9c7e5c	-0.30565155
172	0x3ed94f0f	0.4244313
173	0xbf033779	-0.5125652
174	0x3e6c8832	0.2309883
175	0xbda0843e	-0.07837723
176	0x3a749a80	0.00093308836
177	0xbe7a7e93	-0.24462347
178	0xbe0c6d0b	-0.13713472
179	0x3d819004	0.06326297
180	0xbb91e89c	-0.004452778
181	0xbeaff206	-0.34364337
182	0x3da6d48f	0.08146011
183	0x3e6b87ce	0.23001024
184	0x3d1bc790	0.038032115
185	0x3ebebd03	0.3725358
186	0xbd8464e7	-0.06464558
187	0xbd986b43	-0.074423335
188	0x3e1a4e09	0.1506883
189	0xbec3260c	-0.38114965
190	0x3d092c94	0.03348978
191	0x3cd6d2b6	0.026223522
192	0xbe823570	-0.25431395
193	0xbd9cc943	-0.07655575
194	0x3dfcae73	0.12337961
195	0x3d89062d	0.06690631
196	0x3d9c0ba8	0.07619411
197	0x3e697990	0.22800279
198	0x3dc74f98	0.09731978
199	0xbd24374c	-0.040091798
200	0xbe25bdeb	-0.16185729
201	0x3e0c991d	0.13730283
202	0xbe96ca47	-0.294512
203	0xbe3f1646	-0.1866084
204	0x3e1f3c3f	0.15550326
205	0xbdbc597b	-0.091967545
206	0x3dc45a8b	0.09587582
207	0x3dec971f	0.115522616
208	0x3e9ee8d1	0.31037
209	0x3deb65cc	0.114940256
210	0x3e02be6d	0.12767954
211	0xbe536094	-0.2064231
212	0xbf0cc9d5	-0.5499547
213	0x3dff24b0	0.124581695
214	0x3dd0eb5a	0.1020114
215	0x3e8565e4	0.260543
216	0xbec5aa2b	-0.3860639
217	0xbe39c355	-0.1814092
218	0xbe27b12a	-0.16376176
219	0xbcc4b08f	-0.024009971
220	0xbf11fe44	-0.57028604
221	0x3e675c18	0.22593725
222	0xbdecc486	-0.11560921
223	0xbe0aafbb	-0.13543598
224	0x3e2f861d	0.17141004
225	0x3e342790	0.17593217
226	0x3e823a58	0.25435138
227	0xbe0d6467	-0.13807832
228	0x3e9719ff	0.2951202
229	0x3e25e7d2	0.16201714
230	0x3e413919	0.18869437
231	0xbf02376a	-0.50865805
232	0x3e9acf44	0.30236256
233	0xbea77faf	-0.32714602
234	0xbd4092f8	-0.04701516
235	0x3d62d116	0.05537518
236	0x3ed99abe	0.4250087
237	0x3cb40460	0.021974742
238	0x3dc559ed	0.096362926
239	0x3d9d4caf	0.07680642
240	0xbe31ffd5	-0.17382748
241	0x3c92fefe	0.017943855
242	0x3df85e4a	0.12127359
243	0xbe84a611	-0.2590795
244	0x3de2c4e5	0.11072711
245	0xbd1bbfa4	-0.03802456
246	0x3ea041c2	0.3130017
247	0x3c90cc57	0.017675562
248	0x3e8b2af2	0.27181202
249	0x3e5c0976	0.21487984
250	0xbd19d5b9	-0.037557337
251	0xbdb7080b	-0.08937081
252	0x3e1bb081	0.1520405
253	0x3e07b1fa	0.13251486
254	0x3e2dd0c3	0.16974168
255	0xbea65d49	-0.32493046

network_body._body_endoder.seq_layers.0.bias f4 [128]
0	0xbdbe6d08	-0.0929814
1	0xbb2a480e	-0.002598289
2	0xbd4820cc	-0.048859403
3	0xbce12bbb	-0.027486673
4	0xbdb5a517	-0.08869379
5	0xbd8b24c1	-0.067941196
6	0xbd78cb34	-0.060740665
7	0xbdf48f5d	-0.11941407
8	0x3d5f038e	0.05444675
9	0x3cf4db07	0.029889597
10	0xbd950371	-0.07276047
11	0xbd0732ce	-0.033007436
12	0xbd828f23	-0.063749574
13	0xbd571e10	-0.052518904
14	0xbb05971b	-0.0020384255
15	0x3c81abaf	0.015828935
16	0x3cbdd4bb	0.023172727
17	0x3cca85da	0.024722029
18	0xbb33ae5b	-0.0027417156
19	0x3c37150c	0.011174452
20	0x3db91ea8	0.0903905
21	0x3db5e560	0.088816404
22	0x3cbcd815	0.023052255
23	0xbd93b5b9	-0.07212395
24	0xbb972d9d	-0.004613592
25	0xbd6a4322	-0.05719293
26	0xbd56f9a5	-0.052484173
27	0xbd10c396	-0.035342775
28	0xbe1ae3fa	-0.15126029
29	0xbdacca8b	-0.084370695
30	0xbd89734c	-0.06711444
31	0xbd6bace1	-0.057537917
32	0xbde1e405	-0.110298194
33	0xbdabcf4f	-0.0838915
34	0xbcc32b1a	-0.023824263
35	0xbd7a893b	-0.06116603
36	0xbda38a51	-0.07985366
37	0x3d91b765	0.07115058
38	0xbd79e018	-0.061004728
39	0xbd55c893	-0.052193236
40	0xbd743d79	-0.059628937
41	0xbcfa75c6	-0.030573737
42	0xbde2e489	-0.11078746
43	0xbcb60e33	-0.022223568
44	0x3bd8ec38	0.0066199563
45	0xbd150dc9	-0.0363901
46	0xbd51f528	-0.05125919
47	0xbd88ff0d	-0.06689272
48	0xbdd17fc4	-0.102294475
49	0xbdb50ee3	-0.0884073
50	0xbca44725	-0.020053456
51	0xbbb8749b	-0.005629135
52	0xbd9cfd40	-0.07665491
53	0x3dadcb1d	0.084860064
54	0xbcbbd5ef	-0.02292916
55	0xbcaaa4d9	-0.020830559
56	0x3cd74c58	0.02628152
57	0xbdee30f1	-0.116304286
58	0xbd83893e	-0.06422661
59	0xbcd75107	-0.026283754
60	0xbc7c45c6	-0.015397495
61	0xbdf53460	-0.1197288
62	0xbdb21915	-0.0869619
63	0xbcf89830	-0.030346006
64	0xbda65a65	-0.0812271
65	0xbdee269b	-0.11628457
66	0xbdcb649d	-0.099313
67	0x3cd99705	0.02656127
68	0x3bdfa59c	0.006825162
69	0xbdfa9b7a	-0.12236686
70	0xbd7cb445	-0.061695356
71	0xbe03f3de	-0.12885997
72	0x3be80223	0.007080333
73	0xbcc4f8a1	-0.024044337
74	0xbd2f7269	-0.04283372
75	0xbc506838	-0.01272016
76	0xbd3237e3	-0.04351033
77	0x3cdef69a	0.027217198
78	0xbd659726	-0.05605235
79	0xbdb2e849	-0.08735711
80	0x3d79e339	0.061007712
81	0x3d3e81f1	0.04651064
82	0xbdbaef0e	-0.09127627
83	0x3c10cbee	0.008837683
84	0x3c43836b	0.011933188
85	0xbcf795a8	-0.030222729
86	0xbdee0e08	-0.1162377
87	0xbe1ab6ff	-0.1510887
88	0x3d2118f1	0.039330427
89	0x3c9d69fc	0.019215576
90	0xbdbb308e	-0.091401204
91	0xbdaff16c	-0.085909694
92	0x3d719853	0.05898316
93	0xbd850a72	-0.06496133
94	0x3d20fb65	0.03930225
95	0xbc29ad2a	-0.010356227
96	0x3cc09a71	0.023511143
97	0xbd06f7ef	-0.03295129
98	0xbd82d024	-0.06387356
99	0xbda3f86c	-0.08006367
100	0xbdba78be	-0.09105061
101	0xbc3b63f1	-0.011437402
102	0xbda6a2bf	-0.0813651
103	0xbcacf46f	-0.021112649
104	0xbd965129	-0.07339699
105	0xbcc7ab6a	-0.024373729
106	0xbe142bf0	-0.14469886
107	0xbccbf5de	-0.024897512
108	0x3bb6fe0f	0.0055844854
109	0xbd6f22b4	-0.058382705
110	0xbd3ca685	-0.046057243
111	0xbc0e77ea	-0.008695582
112	0xbc154b8f	-0.009112253
113	0x3c5260e1	0.012840481
114	0xbd832e30	-0.06405294
115	0xbd926222	-0.071476236
116	0xbb4842d8	-0.003055742
117	0x3caa79f6	0.020810109
118	0xbdfa5495	-0.12223164
119	0xbcf16209	-0.029465692
120	0xbd31cbcf	-0.043407258
121	0xbd6d556d	-0.057942796
122	0xbd0af5b1	-0.033925716
123	0xbde259ac	-0.1105226
124	0xbcf880c8	-0.030334845
125	0xbc43a454	-0.011941034
126	0xbd7dabea	-0.06193153
127	0xbd314c26	-0.04328551

network_body._body_endoder.seq_layers.2.weight f4 [128, 128]
0	0xbdb0145d	-0.08597634
1	0xbc7bb2bc	-0.015362438
2	0x3e57a5db	0.21059363
3	0xbdb248e9	-0.08705313
4	0xbd8dbdc7	-0.06920963
5	0xbd8c9f95	-0.06866375
6	0x3c49676c	0.012292724
7	0x3caf0c9d	0.02136832
8	0x3cd8cc7e	0.026464697
9	0xbd7300dd	-0.059326995
10	0x3e0eaf76	0.1393412
11	0x3d68eb81	0.05686522
12	0x3dd27ac4	0.10277322
13	0x3dc6b24a	0.09701975
14	0xbdacb626	-0.084331796
15	0xbd0df7e8	-0.03466025
16	0xbe3abdbc	-0.1823644
17	0xbd8d2f8e	-0.06893836
18	0xbd5fb0dc	-0.054612026
19	0x3c91f1d9	0.017815517
20	0xbdee86e9	-0.11646826
21	0xbe1a7fce	-0.15087816
22	0xbca79f5a	-0.020461727
23	0xbb33b57e	-0.002742141
24	0xbd8db7af	-0.069198005
25	0x3e62ab9c	0.22135776
26	0x3d8f58cb	0.06999358
27	0xbd08f89f	-0.03344023
28	0x3d4671a9	0.04844824
29	0x3ea4e0e0	0.32202816
30	0x3e000dce	0.12505266
31	0x3cf3064c	0.029666089
32	0xbe316f70	-0.17327666
33	0x3d7514a3	0.059834134
34	0x3cd0e9af	0.025502054
35	0x3da40d3d	0.080103375
36	0x3d450dce	0.04810887
37	0xbdd36bd1	-0.10323299
38	0x3c89da3e	0.016827699
39	0x3d0417e3	0.032249343
40	0xbcd07ade	-0.025449213
41	0xbc5a35f2	-0.013318526
42	0x3da4103a	0.080109075
43	0x3dd4b2c0	0.10385656
44	0xbdb47845	-0.08812002
45	0x3e9c1fc4	0.30492985
46	0xbd75a4b0	-0.05997151
47	0x3e16c498	0.14723432
48	0x3d240648	0.040045053
49	0xbdefb770	-0.1170491
50	0xbd9e5443	-0.077309154
51	0x3e4016b1	0.18758656
52	0xbe176b9e	-0.14787146
53	0xbd9cf6e5	-0.07664279
54	0xbe1c63de	-0.15272471
55	0xbd746d6b	-0.05967466
56	0xbd5c289c	-0.053749666
57	0xbdc7dbd4	-0.09758726
58	0xbdf5e261	-0.12006069
59	0x3d71e608	0.059057266
60	0x3d297c35	0.04137822
61	0x3cc81d37	0.024427993
62	0x3c786d5a	0.01516279
63	0x3d6f89ac	0.058480904
64	0x3d71158d	0.058858443
65	0x3dd83a2c	0.105579704
66	0xbcd21fdb	-0.025649955
67	0xbabd3572	-0.0014435484
68	0xbd7b1edf	-0.061308738
69	0x3d30ed04	0.043194786
70	0xbcad0210	-0.021119148
71	0x3dded4a1	0.108803995
72	0x3cc8b01d	0.02449804
73	0xbc72cb0f	-0.014818921
74	0x3cc8c298	0.024506852
75	0x3d655b6d	0.055995394
76	0x3d558c6a	0.052135862
77	0x3e3a04e5	0.1816593
78	0xbe1857d4	-0.14877254
79	0xbcbaaf45	-0.022788653
80	0x3cf43a0f	0.02981284
81	0xbe3570b6	-0.17718777
82	0xbc3c0330	-0.011475369
83	0xbdbb10d8	-0.09134072
84	0x3ca1c443	0.019746905
85	0x3e460624	0.1933828
86	0x3e053610	0.13008904
87	0x3da86085	0.08221535
88	0x3d059e0f	0.03262144
89	0xbe0fc386	-0.1403943
90	0xbb02b43c	-0.0019943854
91	0xbe251698	-0.161219
92	0xbe312486	-0.17299089
93	0xbde9e4a6	-0.11420564
94	0x3e6e5cff	0.23277663
95	0xbe6b439f	-0.22975014
96	0xbdbb1abe	-0.0913596
97	0xbe2dd33b	-0.1697511
98	0x3e05d530	0.13069606
99	0x3c92b6be	0.017909404
100	0xbd979ad9	-0.07402582
101	0xbdbfb240	-0.0936017
102	0x3d7dc02f	0.06195086
103	0x3d02b088	0.031906635
104	0xbd8b1d60	-0.06792712
105	0xbd8eed7c	-0.0697889
106	0xbd5445df	-0.051824447
107	0xbe1c1e80	-0.1524601
108	0x3d35dfa9	0.044402752
109	0x3c19740b	0.009366046
110	0xbdaa4fdb	-0.083160125
111	0xbc7437ac	-0.014905851
112	0x3df5fa52	0.120106354
113	0xbd2dabaf	-0.04240006
114	0x3d30e775	0.043189485
115	0x3cd2df7d	0.025741333
116	0xbdc8db87	-0.098074965
117	0x3d606de2	0.054792292
118	0x3da0b356	0.078467056
119	0xbd362bc0	-0.044475317
120	0xbd8bfbca	-0.06835134
121	0x3d9d90d1	0.07693637
122	0xbcfba359	-0.030717539
123	0xbdc356b5	-0.095380224
124	0xbd015b48	-0.031581193
125	0x3dde867c	0.108654946
126	0xbcdbaea7	-0.02681668
127	0x3ce2d5b7	0.027689798
128	0xbdc1e76b	-0.094679676
129	0x3c596736	0.013269236
130	0x3da43ca0	0.08019376
131	0x3d5afe83	0.053465378
132	0xbc0260b3	-0.007957625
133	0x3e0b231b	0.1358761
134	0x3e0047ca	0.12527385
135	0x3d9d0578	0.07667059
136	0xbc91eec9	-0.017814057
137	0xbd2a1a50	-0.041529
138	0xbcf3bfb1	-0.029754492
139	0x3c4eec56	0.012629589
140	0xbc9ae69f	-0.018908797
141	0x3e1e5383	0.15461545
142	0x3e22a968	0.15884936
143	0xbdd3ccc6	-0.10341792
144	0x3e5cc16d	0.21558161
145	0xbe2e32d7	-0.17011581
146	0x3c6f5795	0.0146082835
147	0xbdc6333b	-0.0967774
148	0xbe2eb8d3	-0.17062692
149	0xbdec1cef	-0.11528956
150	0xbe0b7d60	-0.13622046
151	0xbd4d0fa2	-0.050063737
152	0x3c362187	0.011116392
153	0x3df25ac0	0.118337154
154	0xbb40d09b	-0.0029421214
155	0xbe0850b3	-0.13312034
156	0xbc224615	-0.009904404
157	0x3def1702	0.1167431
158	0xbdc61b2f	-0.096731536
159	0xbd7175d4	-0.05895026
160	0xbddf202c	-0.10894808
161	0xbc46b65b	-0.012128438
162	0x3d911c51	0.07085479
163	0x3e253dcb	0.16136853
164	0xbdbcaf0e	-0.092130765
165	0x3a9fb0b5	0.00121834
166	0x3b52bab3	0.0032154738
167	0x3e005e54	0.12535983
168	0x3dbaa5c3	0.09113648
169	0x3d914bbe	0.07094525
170	0x3dbb500d	0.09146128
171	0xbcf312f7	-0.02967213
172	0xbe3eb159	-0.1862234
173	0xbc7196f7	-0.0147454655
174	0x3be7d827	0.007075328
175	0xbd5cde43	-0.053922903
176	0xbde7d5a7	-0.11320048
177	0xbc9be53d	-0.019030208
178	0xbdc79206	-0.09744649
179	0xbd715802	-0.05892182
180	0x3ddec592	0.10877527
181	0x3d46d05d	0.048538554
182	0xbd9e320a	-0.07724388
183	0xbd6badc4	-0.057538763
184	0xbc32827a	-0.010895366
185	0xbb9c6bf1	-0.00477361
186	0x3d83f9c2	0.06444122
187	0xbdb53272	-0.08847512
188	0xbde106c0	-0.109876156
189	0xbccdc4e3	-0.025118297
190	0x3d5ba022	0.05361951
191	0x3cedcbbe	0.029027816
192	0x3cb4f0d3	0.02208749
193	0xbdc6201f	-0.09674095
194	0x3b8f9a24	0.0043823887
195	0x3d04a32b	0.03238217
196	0xbe7defd0	-0.24798512
197	0x3d5904fe	0.052983277
198	0x3db3a0e9	0.087709256
199	0xbc41a47d	-0.011819002
200	0x3e062e68	0.1310364
201	0xbe033ac6	-0.12815389
202	0x3dd11ebf	0.102109425
203	0x3c2f1d87	0.010688192
204	0x3c3ac1c9	0.011398741
205	0xbb7ea076	-0.0038852966
206	0xbc926ea4	-0.017875023
207	0xbd94f477	-0.072731905
208	0xbe8acffc	-0.27111804
209	0xbd77beab	-0.06048457
210	0xbcac2366	-0.021012973
211	0xbe750413	-0.23927335
212	0x3db5823c	0.08862731
213	0xbdd651d0	-0.10464823
214	0x3dbb3df6	0.091426775
215	0xbca82994	-0.020527638
216	0xbd6a6510	-0.057225287
217	0x3d34f376	0.044177495
218	0xbdc46a2c	-0.09590563
219	0x3e3859b3	0.18002968
220	0xbe61f73c	-0.22066969
221	0xbcc3a1e0	-0.023880899
222	0xbe616d39	-0.22014321
223	0x3d866637	0.06562465
224	0xbba0a298	-0.004902195
225	0xbd0d56b7	-0.034506526
226	0xbe5750fe	-0.2102699
227	0x3d478459	0.0487102
228	0x3df0b73b	0.117536984
229	0xbdc1aebc	-0.09457156
230	0x3c3a0b9e	0.011355309
231	0xbe25c20d	-0.16187306
232	0x3e26b690	0.1628058
233	0x3d464378	0.048404187
234	0x3dce91e1	0.10086418
235	0x3e188ded	0.1489789
236	0x3d96283d	0.073318936
237	0xbd9af390	-0.07565987
238	0x3e37ea56	0.17960486
239	0xbdc43f3c	-0.095823735
240	0x3cc27be3	0.023740714
241	0xbe4c05a6	-0.1992403
242	0x3db2839b	0.08716508
243	0xbda80945	-0.08204893
244	0x3db5d7d4	0.088790566
245	0xbd381c2a	-0.044948734
246	0x3d8b34d2	0.06797184
247	0x3e29b237	0.1657189
248	0x3cf72aac	0.030171715
249	0x3df5815f	0.11987566
250	0xbdbbcb04	-0.091695815
251	0xb9f7621b	-0.00047184606
252	0xbd88ed37	-0.0668587
253	0xbdb4bbfc	-0.08824918
254	0xbe10ef26	-0.14153728
255	0x3e2614fc	0.16218942

network_body._body_endoder.seq_layers.2.bias f4 [128]
0	0xbdb9aa8f	-0.090657346
1	0xbdacdc60	-0.08440471
2	0xbb6f42a9	-0.0036508238
3	0x3cf1ed2a	0.029532034
4	0xbde89ba0	-0.11357808
5	0xbd19cbec	-0.03754799
6	0xbb1f2063	-0.0024280779
7	0x399b0ae2	0.00029572012
8	0x3cd23c86	0.025663625
9	0x3c87f2c2	0.016595248
10	0xbd55c81f	-0.052192803
11	0x3bff93b4	0.00779959
12	0xbc788d5c	-0.015170421
13	0xbcd49d4f	-0.025953917
14	0xbd44916f	-0.04799026
15	0xbd21e5ad	-0.039525677
16	0xbd520bdb	-0.051280838
17	0xbcee62a1	-0.029099764
18	0x3da8f166	0.08249168
19	0xbcb325ee	-0.021868672
20	0xbc8816b7	-0.016612394
21	0xbc34bd71	-0.0110314945
22	0xbce19b21	-0.027539792
23	0x3cafcf05	0.02146102
24	0x3cce7c74	0.025205828
25	0xbc7c7b6b	-0.0154102845
26	0xbc49c1a4	-0.012314234
27	0xbdb7bad4	-0.089711815
28	0xbd5974e1	-0.05308998
29	0xbda3c10a	-0.07995804
30	0xbc92c495	-0.017916003
31	0xbd8c1ddd	-0.068416335
32	0xbdc0a925	-0.09407262
33	0xbcb0be24	-0.021575041
34	0xbd8246d9	-0.06361169
35	0x3d1cef71	0.038314287
36	0xbd0386bd	-0.03211092
37	0x3b865e37	0.0041005868
38	0x3c94a4c4	0.018144973
39	0xbd3a7f03	-0.045531284
40	0x3cbfe989	0.023426788
41	0xbdc704ad	-0.09717689
42	0x3c8b1853	0.016979372
43	0xbda7bc5b	-0.08190223
44	0xba69706f	-0.00089049985
45	0x3e005d79	0.12535657
46	0xbd3eca5b	-0.0465797
47	0xbc8f2f75	-0.017478684
48	0xbd8bb05d	-0.06820748
49	0xbd1888d9	-0.037239883
50	0x3d366338	0.044528216
51	0x3d9a1019	0.07522602
52	0x3cb76478	0.022386774
53	0xbde0443f	-0.10950517
54	0xbcd47141	-0.02593291
55	0xbc97306e	-0.01845571
56	0x3ca3129e	0.019906338
57	0xbe08a0cf	-0.13342594
58	0xbd9f0481	-0.07764531
59	0x3b223f89	0.0024757108
60	0x3c53973c	0.012914475
61	0xbc960354	-0.018312134
62	0x3c8bf2dd	0.01708358
63	0xbd1f0ef2	-0.038832612
64	0x3c59d47d	0.01329529
65	0xbd98e01f	-0.07464623
66	0xbd23b584	-0.03996803
67	0x3cfe48c0	0.03104055
68	0x3d28eb1d	0.041239846
69	0xbc1f9ebf	-0.009742438
70	0xbd03a137	-0.03213617
71	0x3c09f29b	0.008419658
72	0xbd2574ef	-0.04039472
73	0x3bac8e96	0.005266021
74	0x3cc479a4	0.023983784
75	0xbd54ac80	-0.05192232
76	0xbd8a2b8e	-0.06746589
77	0x3c165829	0.009176292
78	0x3b3449dd	0.0027509846
79	0xbd95811c	-0.07300016
80	0xbdd93912	-0.106065884
81	0xbd470302	-0.048586853
82	0xbcb7d9af	-0.022442667
83	0xbcbb31c7	-0.022850884
84	0xbdd0c9a9	-0.101947136
85	0xbc762bc8	-0.015025087
86	0xbd1b1167	-0.037858393
87	0x3cf7041a	0.030153323
88	0x3d31d3ce	0.043414883
89	0x3d587359	0.05284438
90	0xbaae8a7c	-0.0013316418
91	0xbd1cfbb1	-0.03832597
92	0xbcae74ea	-0.021295983
93	0x3cb3ea6a	0.021962363
94	0x3caa98fb	0.0208249
95	0xbc647bae	-0.013945503
96	0xbd0bcf80	-0.034133434
97	0x398663ea	0.00025632913
98	0x3c5bbd2a	0.013411799
99	0xbd4c16ae	-0.049826317
100	0xbcb066bf	-0.021533368
101	0xbbe6a327	-0.0070384922
102	0xbddd383a	-0.1080174
103	0x3d051c2f	0.03249758
104	0xbbd36646	-0.006451401
105	0xbc296d78	-0.010341041
106	0xbd83e1cb	-0.06439551
107	0x3b8537cd	0.00406549
108	0x3da4a5ac	0.08039412
109	0x3d134afb	0.03596018
110	0xbdc0c0f9	-0.094118066
111	0xbc323877	-0.01087772
112	0xbd0bde0c	-0.034147307
113	0xbd7e597d	-0.06209706
114	0xbd870e74	-0.065945536
115	0xbdb209f0	-0.08693302
116	0xbd4b9d3b	-0.049710494
117	0xbd32eb01	-0.04368115
118	0x3d8039f6	0.06261055
119	0x3c8dcf61	0.0173108
120	0x3d5e0988	0.05420831
121	0xbbec99e5	-0.007220494
122	0xbd86e9aa	-0.06587537
123	0x3c920982	0.0178268
124	0xbd88e403	-0.06684115
125	0xbbc3b962	-0.005973027
126	0x3c1e1cf4	0.009650458
127	0x3c33b62f	0.010968729

action_model._continuous_distribution.log_sigma f4 [1, 3]
0	0xbe76db49	-0.24107088
1	0xbec455a7	-0.38346598
2	0xbe3032e8	-0.17206919

action_model._continuous_distribution.mu.weight f4 [3, 128]
0	0xbd0866b7	-0.03330108
1	0xbd69202a	-0.05691544
2	0xbc615b8c	-0.013754737
3	0x3ca61e85	0.020278225
4	0xbd45df1d	-0.04830848
5	0xbba64bd4	-0.0050749574
6	0xbc2a918f	-0.01041068
7	0xbafddb0c	-0.0019367649
8	0x3cc840a9	0.024444895
9	0x3ca88916	0.02057318
10	0xbcee2044	-0.02906812
11	0xbbc221aa	-0.005924423
12	0x3b2b7ba4	0.0026166225
13	0x3d2a50e0	0.041581035
14	0x3c9db828	0.019252852
15	0xbceada7f	-0.02866864
16	0x3bba1aef	0.0056794803
17	0xbba22bb1	-0.004949056
18	0x3d9b28e3	0.07576158
19	0xbc0eb890	-0.008710995
20	0xbb81115e	-0.003938838
21	0xbb02fe82	-0.0019988124
22	0xbbc6d0fe	-0.0060673943
23	0xbc803758	-0.01565139
24	0x389b9efd	7.42059e-05
25	0x3d97b3c9	0.07407338
26	0x3b1b1039	0.0023660793
27	0xbc13fe5d	-0.009032813
28	0xbbcd8bfc	-0.006272791
29	0xbd571a43	-0.05251528
30	0x3cc68539	0.024233447
31	0xbc66cf6a	-0.014087537
32	0xbcb6022a	-0.022217829
33	0xbc381e78	-0.011237733
34	0x3b4fbb43	0.003169731
35	0x3c791a62	0.015204044
36	0x3d06f8c8	0.0329521
37	0xbc0fff64	-0.008788917
38	0xbae50781	-0.001747355
39	0xbc00b28e	-0.007855071
40	0x3da0b652	0.07847275
41	0xbca49d32	-0.020094488
42	0xbbbb8ded	-0.005723706
43	0xbc71f20e	-0.014767183
44	0xbaac25df	-0.0013133845
45	0x3e03856f	0.1284387
46	0xbbb167c6	-0.005413982
47	0x3b467580	0.0030282438
48	0x3ca3cf76	0.019996386
49	0xbc056a09	-0.0081429565
50	0x3cd616d0	0.026133925
51	0x3c8cdd29	0.017195301
52	0x379aafb0	1.8440041e-05
53	0xbc9fbb78	-0.019498572
54	0x3c2c4013	0.010513323
55	0x3cc4512b	0.023964485
56	0x3b1c177e	0.0023817713
57	0xbca60e58	-0.020270512
58	0xbcbcbdd9	-0.023039745
59	0x3adac7c4	0.0016691615
60	0xbb83e538	-0.0040251277
61	0x3a199169	0.00058581546
62	0xb97451f8	-0.00023300189
63	0x3c6dd621	0.014516384
64	0x3cb3baae	0.021939602
65	0xbc1c91a1	-0.009556205
66	0xbc5ee064	-0.013603304
67	0x3b21d42b	0.0024693112
68	0x3ce659a9	0.028118925
69	0xbb67f713	-0.003539507
70	0xbbbf71ba	-0.0058424147
71	0x3d29271b	0.04129706
72	0xbc576c90	-0.013148442
73	0xbc617b6f	-0.013762339
74	0xbc1011c9	-0.008793303
75	0xbba353d9	-0.0049843607
76	0xbc27d79d	-0.010244277
77	0x3cfc181b	0.030773213
78	0xbc172634	-0.009225417
79	0xbc8e6e76	-0.017386656
80	0xbc5ab492	-0.013348715
81	0xbc104218	-0.0088048205
82	0x3d116521	0.035496835
83	0xb9549fdc	-0.00020277448
84	0xbd887e8b	-0.06664761
85	0x3a907189	0.0011020164
86	0xbac0b89b	-0.0014703454
87	0x3da1083b	0.07862898
88	0x3ba92248	0.0051615573
89	0x3d1fa7ff	0.038978573
90	0x3c97219c	0.018448643
91	0xbcc52f4b	-0.024070403
92	0xbc955da4	-0.018233128
93	0x3bc799a9	0.0060913158
94	0xbb4e1126	-0.0031443327
95	0x3c836e2a	0.016043741
96	0xbc90a60d	-0.017657304
97	0xbb835a05	-0.004008534
98	0x3cea61d4	0.028611101
99	0xbb9893e8	-0.0046563037
100	0xbbee89dd	-0.007279618
101	0xbc5768bd	-0.01314753
102	0xbd14cef5	-0.036330182
103	0x3b8ae604	0.004238846
104	0xb8f31c29	-0.00011592388
105	0xbc167d7e	-0.009185193
106	0xbcaa9283	-0.020821815
107	0x3c28395b	0.010267581
108	0x3d87f6ff	0.06638908
109	0x3c7db4c4	0.015484992
110	0xbc47da1e	-0.012197999
111	0xbca22078	-0.019790873
112	0xbc32eefa	-0.010921234
113	0xbcd30227	-0.025757862
114	0xbcaecfab	-0.021339258
115	0xbc75e0fd	-0.015007255
116	0x3c8cb7aa	0.017177422
117	0x3c789d9d	0.015174297
118	0x3d941731	0.07230986
119	0x3bb77572	0.0055987174
120	0x3c418ba5	0.011813079
121	0xbbdd4d07	-0.006753567
122	0xbbcae293	-0.0061915605
123	0xbc859d0d	-0.01631024
124	0x3d37e5ea	0.044896998
125	0x3d5359ea	0.05159942
126	0x3d0d5961	0.034509066
127	0x3cb4a83e	0.02205288
128	0x3c072975	0.00824963
129	0xbb900956	-0.004395644
130	0xbd2dca29	-0.042429123
131	0xbd0d4571	-0.034490053
132	0xbbd8145f	-0.0065942253
133	0xbb8ff839	-0.004393604
134	0xbd27c7c6	-0.040962003
135	0x3c4cabd5	0.01249214
136	0xbcce098f	-0.025151042
137	0x3b3a4646	0.0028423234
138	0xbca96f67	-0.020683004
139	0x3c1d8228	0.009613551
140	0xbc19686b	-0.009363274
141	0x3c4ed031	0.012622879
142	0xbb5780fb	-0.0032883275
143	0x3c987a32	0.018612955
144	0x3c82ac5b	0.015951326
145	0xbc80fd66	-0.01574583
146	0x3c8eb50a	0.01742031
147	0xbb883a78	-0.0041573606
148	0xbc311b63	-0.010809752
149	0xbd0a68f4	-0.033791497
150	0xbbddbd8c	-0.0067669805
151	0x3d173d81	0.03692389
152	0xbbcb472a	-0.006203552
153	0x3d4b03e4	0.049564257
154	0x3bdb1fea	0.006687154
155	0xbc142cf4	-0.009043921
156	0xbc0c8f34	-0.008579064
157	0xbd084556	-0.03326925
158	0x3c41abcf	0.0118207475
159	0x3b583eb7	0.0032996365
160	0x39bf6e82	0.00036512694
161	0xbb1d10b7	-0.0023966262
162	0xbc2da352	-0.010598021
163	0xbbd8f27b	-0.006620703
164	0x3daeb994	0.0853149
165	0xbbfedeb5	-0.0077780136
166	0x3c015bc5	0.007895415
167	0xbcc4c0d4	-0.024017729
168	0x3c9edf63	0.019393628
169	0xbd015af0	-0.031580865
170	0x3ca3ed18	0.020010516
171	0xbccedaf3	-0.025250887
172	0x3ba35a42	0.004985125
173	0x3c85ee2d	0.016348923
174	0xbc9b690c	-0.018970989
175	0xbbe6e9ba	-0.0070469053
176	0xbb8cf27b	-0.004301367
177	0x3c7934d9	0.015210354
178	0xbc6f5293	-0.01460709
179	0x3b46156d	0.0030225173
180	0x3b327feb	0.002723689
181	0x3c8ee452	0.017442856
182	0x3b8b5519	0.004252088
183	0xbd67ff19	-0.056639764
184	0x3bfcf505	0.0077196383
185	0x3c00814b	0.007843326
186	0x3d81316e	0.06308256
187	0x3b0aa785	0.0021156978
188	0x3a0a876b	0.0005284461
189	0xbc86ddd3	-0.016463196
190	0xba6647ec	-0.0008784521
191	0xbca1f8f4	-0.01977203
192	0xbcaf0303	-0.02136374
193	0xbc858d3c	-0.016302697
194	0x3cbd0037	0.023071392
195	0x3a1f40c4	0.00060750195
196	0xbcad27b0	-0.021137089
197	0x3bbcfb31	0.005767249
198	0x3c774ab4	0.015093494
199	0xbd6c9444	-0.057758585
200	0xbb90b5fd	-0.004416226
201	0xbd082ef1	-0.03324789
202	0x3b5cdcd3	0.0033700957
203	0xbb228666	-0.0024799346
204	0xbc94d764	-0.018169113
205	0x3c937e61	0.018004598
206	0x3c8c52a9	0.01712926
207	0xbd3b5f16	-0.045744978
208	0xbcc6c9a8	-0.024266079
209	0xbb670540	-0.0035250932
210	0x3beedfba	0.007289854
211	0xbcc346df	-0.023837505
212	0x3c854c1a	0.01627164
213	0xbbc3136f	-0.0059532444
214	0xbc688c34	-0.014193583
215	0x3cbbf6df	0.022944866
216	0x3cad38f3	0.02114532
217	0x3c3f60a6	0.011680758
218	0xbbfc5a12	-0.007701167
219	0x3dd3202d	0.103088714
220	0x3b50b838	0.0031848084
221	0x3c231d61	0.009955735
222	0x3bd4e93b	0.00649753
223	0x3bf57f01	0.0074919467
224	0xbd0dbcf1	-0.034604017
225	0xbb2935cf	-0.0025819426
226	0xb93f463c	-0.00018241344
227	0xbc279b59	-0.010229909
228	0x3b836653	0.0040100007
229	0xbcc0bd85	-0.02352787
230	0xbc39a8cf	-0.011331751
231	0xbb077000	-0.0020666122
232	0xbb9d443c	-0.004799394
233	0xbcb8acce	-0.022543337
234	0x3cb5bf10	0.022185832
235	0xbc8c87a9	-0.017154532
236	0xbc3d95ad	-0.01157133
237	0xbbbbbc13	-0.0057292073
238	0xbd21cfe5	-0.039504904
239	0xbc0a7187	-0.008449919
240	0xbc8dd461	-0.017313184
241	0xbd66dc2d	-0.05636232
242	0x3b3db3ec	0.0028946353
243	0xbb4dd461	-0.0031407105
244	0xbc53aba9	-0.012919345
245	0xbbdd3916	-0.00675119
246	0x3ca5d54e	0.020243313
247	0x3c28fcff	0.010314225
248	0xbb983d91	-0.004646011
249	0xbc66d418	-0.014088653
250	0xbbd1223d	-0.0063822553
251	0x3c948562	0.018130008
252	0x3cac73e4	0.021051355
253	0x3ca1a47c	0.019731753
254	0xbd6818f4	-0.056664422
255	0x3b4c52e2	0.0031177332

action_model._continuous_distribution.mu.bias f4 [3]
0	0x3d97ff12	0.07421698
1	0xbc809d34	-0.01569996
2	0x3d82107f	0.06350803

exp_avg f4 [128, 22]
0	0xb3d177ec	-9.7541346e-08
1	0x3990c098	0.00027609314
2	0xb3d177ec	-9.7541346e-08
3	0x39bd10b4	0.00036061334
4	0xb45e2cd4	-2.069167e-07
5	0x39d081e9	0.00039769642
6	0xb45e2cd5	-2.0691671e-07
7	0x39b2a02a	0.00034070137
8	0xb4a7f2fa	-3.1282963e-07
9	0x398d2204	0.0002691896
10	0xb45e2cc5	-2.0691648e-07
11	0x3900ce2c	0.00012283836
12	0xb4847b16	-2.4676473e-07
13	0xb6e60264	-6.8548125e-06
14	0xb3d1780a	-9.754156e-08
15	0xb88950d6	-6.547726e-05
16	0xb4972bd2	-2.8157825e-07
17	0xb89f5e8a	-7.59932e-05
18	0xb42b07e2	-1.5928484e-07
19	0xb8851680	-6.346125e-05
20	0x00000000	0.0
21	0xb8c3045d	-9.299137e-05
22	0xb3106bdf	-3.362572e-08
23	0x37e22f97	2.696346e-05
24	0xb3106bdf	-3.362572e-08
25	0x388b5de0	6.645522e-05
26	0xb3992e9f	-7.133098e-08
27	0x38c0f18c	9.200265e-05
28	0xb3992ea1	-7.1330994e-08
29	0x3885dc80	6.3830055e-05
30	0xb3e7972c	-1.0784274e-07
31	0xb6c356c2	-5.821553e-06
32	0xb3992e9f	-7.133098e-08
33	0xb848860c	-4.7808557e-05
34	0xb3b6ae95	-8.506792e-08
35	0xb89329c8	-7.0172886e-05
36	0xb3106bff	-3.3625835e-08
37	0xb895cb0b	-7.142693e-05
38	0xb3d0746b	-9.706931e-08
39	0xb8950c05	-7.1071125e-05
40	0xb36bd706	-5.4910764e-08
41	0xb8b25182	-8.5028834e-05
42	0x00000000	0.0
43	0xb8d4910b	-0.00010135964
44	0x35173997	5.633569e-07
45	0x3903c50f	0.00012566544
46	0x35173997	5.633569e-07
47	0xb8068758	-3.207414e-05
48	0x35a06603	1.1950618e-06
49	0xb881e57a	-6.193943e-05
50	0x35a06604	1.1950619e-06
51	0x3845ae60	4.713086e-05
52	0x35f28020	1.8067694e-06
53	0x38bdac86	9.044357e-05
54	0x35a06600	1.1950615e-06
55	0x3886fca6	6.436677e-05
56	0x35bf49b9	1.4252065e-06
57	0x38a7f77e	8.0092796e-05
58	0x351739af	5.6335824e-07
59	0x395b567a	0.00020917683
60	0x35da4663	1.6262751e-06
61	0x39b3001a	0.00034141616
62	0x3576f33b	9.199609e-07
63	0x39dfb998	0.00042672153
64	0x00000000	0.0
65	0x39e72bb2	0.0004409231
66	0xb360eb2a	-5.2367945e-08
67	0x3818fa64	3.647282e-05
68	0xb360eb2a	-5.2367945e-08
69	0x3893324e	7.018876e-05
70	0xb3ee9003	-1.1108934e-07
71	0x38bb41a6	8.929083e-05
72	0xb3ee9004	-1.1108935e-07
73	0x38ba32e2	8.878649e-05
74	0xb434563d	-1.679518e-07
75	0x38b6b1f5	8.711583e-05
76	0xb3ee8ff9	-1.1108927e-07
77	0x38520f20	5.0081988e-05
78	0xb40e409c	-1.3248285e-07
79	0x36e07564	6.6893863e-06
80	0xb360eb4f	-5.2368076e-08
81	0xb81fd512	-3.810699e-05
82	0xb4225247	-1.5117358e-07
83	0xb8ac33b2	-8.211228e-05
84	0xb3b7a555	-8.551675e-08
85	0xb8ca2a1d	-9.639955e-05
86	0x00000000	0.0
87	0xb8bc121a	-8.96791e-05
88	0x33db11b1	1.02012e-07
89	0x390857ae	0.00013002634
90	0x33db11b1	1.02012e-07
91	0x38e231c0	0.000107857864
92	0x34685bac	2.1640034e-07
93	0x38b97ee2	8.845121e-05
94	0x34685bae	2.1640037e-07
95	0x389393fb	7.03707e-05
96	0x34afa591	3.2716756e-07
97	0x38542cb6	5.058638e-05
98	0x34685ba6	2.1640025e-07
99	0xb3f0ba00	-1.1209704e-07
100	0x348a8d84	2.580747e-07
101	0xb84502cb	-4.697106e-05
102	0x33db11d5	1.0201226e-07
103	0xb8147682	-3.539632e-05
104	0x349e198e	2.9448387e-07
105	0x3795a0de	1.7837094e-05
106	0x3432dea6	1.6658541e-07
107	0x38a18c18	7.703173e-05
108	0x00000000	0.0
109	0x38c6766d	9.463434e-05
110	0x342a9b5d	1.5889005e-07
111	0xb8e2f221	-0.0001082162
112	0x342a9b5d	1.5889005e-07
113	0xb8f9017f	-0.00011873524
114	0x34b4f4c3	3.37057e-07
115	0xb906bb22	-0.00012848948
116	0x34b4f4c6	3.370571e-07
117	0xb94dd8b5	-0.00019631053
118	0x3508ca58	5.0958397e-07
119	0xb9b7cade	-0.00035055628
120	0x34b4f4b9	3.3705672e-07
121	0xb9b72946	-0.0003493523
122	0x34d7cdf8	4.0196733e-07
123	0xb9a48f40	-0.00031387247
124	0x342a9b78	1.5889043e-07
125	0xb965a649	-0.00021901088
126	0x34f64019	4.5867708e-07
127	0xb8fd872e	-0.00012089159
128	0x348b4ce5	2.5946716e-07
129	0xb895f658	-7.150759e-05
130	0x00000000	0.0
131	0xb873dc30	-5.814078e-05
132	0xb482b881	-2.434863e-07
133	0xb83eb0de	-4.546425e-05
134	0xb482b881	-2.434863e-07
135	0x38098cea	3.279458e-05
136	0xb50aa685	-5.1651324e-07
137	0x38758db4	5.8544523e-05
138	0xb50aa684	-5.165132e-07
139	0x38197bee	3.659346e-05
140	0xb5519ed2	-7.808968e-07
141	0x382e1208	4.1501626e-05
142	0xb50aa67f	-5.165129e-07
143	0x388faaa6	6.850557e-05
144	0xb5255a0a	-6.1598314e-07
145	0x38bb8f38	8.9435314e-05
146	0xb482b897	-2.4348694e-07
147	0x38086ef7	3.252827e-05
148	0xb53cadf8	-7.0288615e-07
149	0xb8a49598	-7.8479934e-05
150	0xb4d5777a	-3.9761272e-07
151	0xb934dd9d	-0.00017248695
152	0x00000000	0.0
153	0xb942f28c	-0.00018591637
154	0x34e8c720	4.335825e-07
155	0x372f8870	1.046258e-05
156	0x34e8c720	4.335825e-07
157	0xb85d9ab0	-5.283457e-05
158	0x3576e603	9.197685e-07
159	0xb8a22790	-7.732131e-05
160	0x3576e603	9.197685e-07
161	0xb922c647	-0.00015523388
162	0x35baa364	1.3905633e-06
163	0xb9c7f8cb	-0.00038141603
164	0x3576e5f8	9.197679e-07
165	0xb9c01b25	-0.00036641318
166	0x3593391a	1.0968972e-06
167	0xb99b92d8	-0.0002967331
168	0x34e8c746	4.3358358e-07
169	0xb92f7dad	-0.00016736118
170	0x35a7fe4a	1.2516477e-06
171	0xb89abbc6	-7.378268e-05
172	0x353e1019	7.080394e-07
173	0xb719c3e0	-9.165116e-06
174	0x00000000	0.0
175	0x382833ea	4.010267e-05
176	0x331bc850	3.6270933e-08
177	0xb9439a05	-0.00018654026
178	0x331bc850	3.6270933e-08
179	0xb9775e3e	-0.00023590864
180	0x33a53b7f	7.6942335e-08
181	0xb98d2917	-0.0002692423
182	0x33a53b82	7.694236e-08
183	0xb986f8e6	-0.00025743915
184	0x33f9cf02	1.16326206e-07
185	0xb9772668	-0.00023570063
186	0x33a53b80	7.694234e-08
187	0xb934b16a	-0.0001723223
188	0x33c50d8a	9.17599e-08
189	0xb8df90ac	-0.00010660416
190	0x331bc86b	3.627103e-08
191	0xb877ceaa	-5.908186e-05
192	0x33e0da64	1.0470538e-07
193	0xb7099906	-8.201465e-06
194	0x337e647c	5.9230373e-08
195	0x37f25f31	2.8892975e-05
196	0x00000000	0.0
197	0x381ff8d2	3.8140286e-05
198	0xb490115a	-2.6834715e-07
199	0xb99c4270	-0.00029804138
200	0xb490115a	-2.6834715e-07
201	0xb988a3c6	-0.00026061962
202	0xb518cea1	-5.69251e-07
203	0xb9835eee	-0.00025056995
204	0xb518cea0	-5.692509e-07
205	0xb98538f8	-0.00025410182
206	0xb56705fd	-8.606292e-07
207	0xb9737675	-0.00023218415
208	0xb518ce9e	-5.692508e-07
209	0xb8b3fb90	-8.582242e-05
210	0xb5363c14	-6.788771e-07
211	0x386651a6	5.4912314e-05
212	0xb4901174	-2.683479e-07
213	0x385e00af	5.292956e-05
214	0xb54ff1c2	-7.7465313e-07
215	0xb8466272	-4.7298563e-05
216	0xb4eb432d	-4.3821038e-07
217	0xb9247052	-0.00015682101
218	0x00000000	0.0
219	0xb9365778	-0.00017389457
220	0x3468b986	2.1674177e-07
221	0x393166f0	0.00016918383
222	0x3468b986	2.1674177e-07
223	0x37d6f828	2.5626345e-05
224	0x34f6d79a	4.5977941e-07
225	0xb85ea2c2	-5.3080505e-05
226	0x34f6d79c	4.5977947e-07
227	0xb73fbcfc	-1.14284885e-05
228	0x353a9884	6.951234e-07
229	0x38f69e5e	0.00011759692
230	0x34f6d794	4.5977924e-07
231	0x394f37cf	0.00019761849
232	0x35133084	5.4832367e-07
233	0x3984c39c	0.00025322742
234	0x3468b9ae	2.1674234e-07
235	0x39a0c8cf	0.00030667192
236	0x3527f47c	6.256812e-07
237	0x39c731a9	0.00037993237
238	0x34be0502	3.5393901e-07
239	0x39f0973e	0.0004588905
240	0x00000000	0.0
241	0x3a00338d	0.0004890494
242	0xb46a69ce	-2.183144e-07
243	0xb623ad80	-2.4389883e-06
244	0xb46a69ce	-2.183144e-07
245	0x388415d3	6.2983156e-05
246	0xb4f8a216	-4.6311533e-07
247	0x38ca737f	9.6536234e-05
248	0xb4f8a215	-4.631153e-07
249	0x38ea435d	0.00011170537
250	0xb53bf315	-7.001666e-07
251	0x392bc0b4	0.00016379618
252	0xb4f8a20c	-4.6311504e-07
253	0x39249b3e	0.00015698091
254	0xb51441e5	-5.5230186e-07
255	0x39084764	0.00012996566

exp_avg_sq f4 [128, 22]
0	0x2fe403e6	4.1475728e-10
1	0x3526a4cb	6.2079624e-07
2	0x2fe403e6	4.1475728e-10
3	0x353b25f7	6.9718175e-07
4	0x2c158dc0	2.125286e-12
5	0x353b3fa2	6.9755527e-07
6	0x2c158e87	2.1253292e-12
7	0x351d7ece	5.867158e-07
8	0x2caaecfb	4.8580007e-12
9	0x34fadce9	4.6726862e-07
10	0x2c158fca	2.1253992e-12
11	0x34ce305c	3.8405676e-07
12	0x2c54b49f	3.0227277e-12
13	0x34b8eae1	3.4443568e-07
14	0x2b04f063	4.7229424e-13
15	0x34acdf50	3.2199978e-07
16	0x2c8a7a5c	3.9357805e-12
17	0x34a32e5a	3.039484e-07
18	0x2bb1408a	1.259452e-12
19	0x34a41c9f	3.0568205e-07
20	0x00000000	0.0
21	0x34b0b68e	3.291538e-07
22	0x2f2d4ee9	1.5762293e-10
23	0x3496f345	2.811668e-07
24	0x2f2d4ee9	1.5762293e-10
25	0x349a1ad7	2.8704264e-07
26	0x2bacf9c0	1.2290655e-12
27	0x3496f092	2.8114715e-07
28	0x2bac0f8c	1.222565e-12
29	0x348b2691	2.5918828e-07
30	0x2c44a3af	2.7944138e-12
31	0x3477632a	2.3039743e-07
32	0x2bac0f0b	1.222551e-12
33	0x345fb090	2.0832726e-07
34	0x2bf4b771	1.7388158e-12
35	0x344b15f4	1.8913835e-07
36	0x2a98f131	2.7167984e-13
37	0x343c3590	1.752835e-07
38	0x2c1f5545	2.2642593e-12
39	0x3437eda3	1.7129655e-07
40	0x2b4beb32	7.2446487e-13
41	0x343a37c1	1.7342883e-07
42	0x00000000	0.0
43	0x3440609c	1.791654e-07
44	0x309c8241	1.1387514e-09
45	0x361894dd	2.2736415e-06
46	0x309c8241	1.1387514e-09
47	0x36250f44	2.4595802e-06
48	0x2d8a2aa0	1.5707713e-11
49	0x363d28d9	2.818697e-06
50	0x2d729d8b	1.3791089e-11
51	0x36566e50	3.1952695e-06
52	0x2e0a9485	3.150948e-11
53	0x36635baf	3.3879003e-06
54	0x2d72838f	1.3785319e-11
55	0x364d00e4	3.0547899e-06
56	0x2dac7519	1.9606138e-11
57	0x361ca46f	2.3341524e-06
58	0x2c57918a	3.0634128e-12
59	0x35e99995	1.7404551e-06
60	0x2de08cf0	2.552844e-11
61	0x35cd3ee9	1.5292e-06
62	0x2d0fb66d	8.1691156e-12
63	0x35cd9280	1.5316327e-06
64	0x00000000	0.0
65	0x35d84565	1.611345e-06
66	0x2c1b5193	2.2072108e-12
67	0x33ac71ab	8.03005e-08
68	0x2c1b5193	2.2072108e-12
69	0x33b58632	8.452879e-08
70	0x2aeb920f	4.1845734e-13
71	0x33b353f6	8.3506094e-08
72	0x2acee949	3.6754825e-13
73	0x33a234d0	7.5533194e-08
74	0x2b6c79db	8.401315e-13
75	0x33929c6d	6.8271085e-08
76	0x2acef0ca	3.6760032e-13
77	0x338900ef	6.3797295e-08
78	0x2b13200b	5.226936e-13
79	0x337d1b11	5.893077e-08
80	0x29b7e730	8.166937e-14
81	0x33722df6	5.6386817e-08
82	0x2b3f92b9	6.806045e-13
83	0x336a0bce	5.4493107e-08
84	0x2a75343a	2.1778491e-13
85	0x336406f7	5.309172e-08
86	0x00000000	0.0
87	0x336355d6	5.2930623e-08
88	0x2e918bd1	6.618673e-11
89	0x347ea474	2.3715421e-07
90	0x2e918bd1	6.618673e-11
91	0x346eb97e	2.2232959e-07
92	0x2c1c6aba	2.2228178e-12
93	0x3462310f	2.1065738e-07
94	0x2ba64fc5	1.181715e-12
95	0x3463480b	2.1167232e-07
96	0x2c3dff85	2.7000357e-12
97	0x347dd6c4	2.3640592e-07
98	0x2ba63f26	1.1812537e-12
99	0x34859c20	2.4886776e-07
100	0x2bec72bf	1.6800657e-12
101	0x347db82e	2.3629465e-07
102	0x2a93c64c	2.6250042e-13
103	0x3461e516	2.1038099e-07
104	0x2c19ee4c	2.187489e-12
105	0x343efa70	1.7786238e-07
106	0x2b450825	6.999976e-13
107	0x342afb8a	1.5923993e-07
108	0x00000000	0.0
109	0x3427f560	1.5642354e-07
110	0x31193d52	2.2299287e-09
111	0x3531f238	6.6290113e-07
112	0x31193d52	2.2299287e-09
113	0x35386091	6.8685864e-07
114	0x2c974f14	4.3004576e-12
115	0x354c88a7	7.619478e-07
116	0x2c7631fc	3.498645e-12
117	0x35668e44	8.58887e-07
118	0x2d0caf7a	7.997042e-12
119	0x35788b7a	9.2590165e-07
120	0x2c763313	3.4987054e-12
121	0x35660c94	8.569998e-07
122	0x2caf13e8	4.976009e-12
123	0x353d0f9a	7.043069e-07
124	0x2b5ad775	7.7748165e-13
125	0x3519697a	5.715043e-07
126	0x2ce3f552	6.478964e-12
127	0x35019763	4.827654e-07
128	0x2c11e4ae	2.0732682e-12
129	0x34e85ff9	4.3283197e-07
130	0x00000000	0.0
131	0x34dfcc39	4.1685578e-07
132	0x30aefa88	1.2731372e-09
133	0x352a0674	6.3339326e-07
134	0x30aefa88	1.2731372e-09
135	0x35237a4a	6.0900186e-07
136	0x2c79d67a	3.5504087e-12
137	0x35194809	5.7101767e-07
138	0x2c5c3ad6	3.129654e-12
139	0x3515d1e0	5.5812234e-07
140	0x2cfbabf5	7.15294e-12
141	0x3522ab4e	6.0598984e-07
142	0x2c5c36a5	3.1294214e-12
143	0x352c8c31	6.4279e-07
144	0x2c9c9b17	4.451005e-12
145	0x352e454e	6.49209e-07
146	0x2b43c1e0	6.954697e-13
147	0x3525e5de	6.180179e-07
148	0x2ccbef8e	5.796203e-12
149	0x35114e54	5.413069e-07
150	0x2c027ec4	1.854448e-12
151	0x3501637a	4.8201e-07
152	0x00000000	0.0
153	0x34f197d2	4.5000212e-07
154	0x31129537	2.1330615e-09
155	0x35bd9390	1.4124544e-06
156	0x31129537	2.1330615e-09
157	0x35c9ab64	1.5025548e-06
158	0x2d12b494	8.3392356e-12
159	0x35e6bd01	1.7191343e-06
160	0x2d108792	8.215555e-12
161	0x360835a4	2.0296802e-06
162	0x2da52d61	1.877848e-11
163	0x361992c4	2.2884205e-06
164	0x2d108789	8.215547e-12
165	0x360a4867	2.0605746e-06
166	0x2d4d8e6a	1.1684523e-11
167	0x35c97977	1.5011018e-06
168	0x2c007883	1.8256791e-12
169	0x35932c7b	1.0965299e-06
170	0x2d85d2e2	1.5214e-11
171	0x3579cf1a	9.30611e-07
172	0x2cab4b86	4.868497e-12
173	0x356f68b2	8.918679e-07
174	0x00000000	0.0
175	0x3576223b	9.1691953e-07
176	0x2d1fbace	9.079583e-12
177	0x34fa58d3	4.6630757e-07
178	0x2d1fbace	9.079583e-12
179	0x3508c242	5.094663e-07
180	0x2c8ecb2b	4.058439e-12
181	0x351cc776	5.840478e-07
182	0x2c1efd90	2.2593906e-12
183	0x35344828	6.7160227e-07
184	0x2cb58117	5.1586613e-12
185	0x35319766	6.615795e-07
186	0x2c1ec99f	2.2565073e-12
187	0x3518e8a9	5.696298e-07
188	0x2c61d77e	3.2094045e-12
189	0x34f6f267	4.5997442e-07
190	0x2b0d2504	5.014463e-13
191	0x34d4bc0f	3.9624908e-07
192	0x2c930666	4.1787017e-12
193	0x34c00c55	3.577176e-07
194	0x2bbc3049	1.3371605e-12
195	0x34b8cf55	3.4423525e-07
196	0x00000000	0.0
197	0x34b40c9f	3.3536796e-07
198	0x2ec3194e	8.8720684e-11
199	0x358a2651	1.0292953e-06
200	0x2ec3194e	8.8720684e-11
201	0x3582388a	9.70221e-07
202	0x2cbe1ec6	5.4035413e-12
203	0x357bac24	9.3755284e-07
204	0x2cbdeab6	5.3977612e-12
205	0x3585499f	9.930699e-07
206	0x2d590c89	1.2337805e-11
207	0x359b7012	1.1581017e-06
208	0x2cbdeaa4	5.3977534e-12
209	0x35a36bda	1.2175835e-06
210	0x2d070e7a	7.677076e-12
211	0x35959f7a	1.1147779e-06
212	0x2ba8d08f	1.1995005e-12
213	0x35818571	9.650086e-07
214	0x2d2fdbbd	9.99639e-12
215	0x355cf54c	8.231334e-07
216	0x2c611627	3.198672e-12
217	0x3543d175	7.294796e-07
218	0x00000000	0.0
219	0x353d6e46	7.0568456e-07
220	0x2b71f02b	8.59537e-13
221	0x3596306c	1.1189964e-06
222	0x2b71f02b	8.59537e-13
223	0x358ca7dc	1.0479666e-06
224	0x2c9c9f3f	4.4514665e-12
225	0x357ab8f1	9.340138e-07
226	0x2c9c9ded	4.45132e-12
227	0x355a83e5	8.140326e-07
228	0x2d32fded	1.0174511e-11
229	0x35492010	7.492499e-07
230	0x2c9c9de4	4.451316e-12
231	0x3543d02c	7.294609e-07
232	0x2cdebf95	6.3308894e-12
233	0x3546ff75	7.4132487e-07
234	0x2b8b3850	9.892174e-13
235	0x3549c97e	7.5171545e-07
236	0x2d110960	8.244377e-12
237	0x35498f7a	7.508712e-07
238	0x2c399ecf	2.6378238e-12
239	0x354c36b8	7.607555e-07
240	0x00000000	0.0
241	0x355002d8	7.7490176e-07
242	0x30164a7a	5.467552e-10
243	0x34a5f869	3.0914387e-07
244	0x30164a7a	5.467552e-10
245	0x34a4bb33	3.0683586e-07
246	0x2c8944b9	3.901404e-12
247	0x34a6b29d	3.1049868e-07
248	0x2bdc48d2	1.5652152e-12
249	0x34a7ff59	3.1291964e-07
250	0x2c7b9a26	3.5754815e-12
251	0x34b02763	3.2811212e-07
252	0x2bdc22d6	1.5641609e-12
253	0x34b9a2dc	3.457743e-07
254	0x2c1c8fc5	2.2248741e-12
255	0x34bb5701	3.4894768e-07

exp_avg f4 [128]
0	0x39109a2f	0.00013790348
1	0x3847658f	4.753988e-05
2	0xba50ca4b	-0.00079647143
3	0x389b449c	7.4037554e-05
4	0xb9173adb	-0.00014422408
5	0xb96b8ccd	-0.00022463799
6	0x39b47b18	0.00034423987
7	0xba20b185	-0.0006129968
8	0xb8571521	-5.1279672e-05
9	0x39c6e895	0.0003793879
10	0xb9a0a824	-0.00030642853
11	0x39a1d28e	0.00030865188
12	0x39066f6c	0.00012820744
13	0xb9f42567	-0.00046567174
14	0xb9852a6a	-0.00025399338
15	0x399600b5	0.00028610756
16	0x3a1764be	0.00057752046
17	0x38cb0c09	9.682036e-05
18	0xb870824f	-5.734182e-05
19	0x399edbed	0.00030299966
20	0x3a6a6b1c	0.0008942352
21	0x398a7762	0.00026410358
22	0x38f622e8	0.00011736696
23	0x38c43a4e	9.3568684e-05
24	0xb9a1f941	-0.00030894022
25	0x3898b9c0	7.2825234e-05
26	0x38db3c96	0.00010454019
27	0xb8b74eec	-8.74082e-05
28	0xb9f6be23	-0.0004706244
29	0xb89200e4	-6.9619884e-05
30	0xb9e4b2fc	-0.00043620903
31	0x392cfb33	0.00016496777
32	0x390a7162	0.00013202944
33	0x39b43b0a	0.00034376263
34	0x399b8eda	0.00029670337
35	0xb946b4ec	-0.0001895015
36	0xb9d339ff	-0.00040288267
37	0x39dce3ee	0.0004213149
38	0xb7d01e8a	-2.4809753e-05
39	0xb9d9fb8f	-0.0004157689
40	0xb9d5c423	-0.0004077266
41	0xb9b7f9e8	-0.00035090675
42	0xba8684eb	-0.0010263001
43	0x39ad85c9	0.0003309681
44	0x39a55088	0.00031531253
45	0xb92ce20c	-0.00016487407
46	0xb9d0efed	-0.0003985161
47	0xb92594b3	-0.00015791021
48	0x39a3576a	0.0003115491
49	0x37e1837c	2.6883317e-05
50	0x39d40e1a	0.00040446297
51	0xb8942dab	-7.065696e-05
52	0x386d5ad5	5.6589797e-05
53	0x39c576f9	0.0003766341
54	0x3a3f6d62	0.0007302371
55	0xb9135056	-0.0001404894
56	0x393fdfc8	0.00018298544
57	0xb9277087	-0.00015968281
58	0xb92087b7	-0.00015309347
59	0xb9c53a37	-0.00037618142
60	0xb9471dd4	-0.00018989231
61	0xb998ccb6	-0.0002914422
62	0xb7cbcb7e	-2.4294244e-05
63	0xb96b2464	-0.00022424903
64	0x3709bfd0	8.210496e-06
65	0xba1cd534	-0.00059826975
66	0xb98dd4d0	-0.00027052173
67	0x399cd91d	0.000299164
68	0x3a336e9b	0.00068447896
69	0xb92a9aac	-0.00016270083
70	0xb9797492	-0.00023789916
71	0x39857c1b	0.00025460203
72	0x38580b94	5.1509196e-05
73	0xb9ee5c3c	-0.00045463617
74	0xb97970b7	-0.0002378848
75	0x386de7dc	5.672114e-05
76	0xb8dff1b4	-0.00010678489
77	0xb8f8cbc0	-0.00011863513
78	0xba0bf1d1	-0.00053384627
79	0xb9f0ba1d	-0.00045915032
80	0x3a377b98	0.0006999313
81	0x3a2b184e	0.0006526754
82	0xb9d0a288	-0.00039793947
83	0x3874aa7c	5.833291e-05
84	0x39bdbb10	0.00036188262
85	0xb6aefb19	-5.2148357e-06
86	0xba05b7d7	-0.00051009416
87	0xb9f95c2a	-0.00047561649
88	0x3991df91	0.00027823125
89	0x384e2850	4.915177e-05
90	0xba5f86d1	-0.0008526864
91	0xb96d0f54	-0.00022607791
92	0x39c80289	0.00038148861
93	0x398132ac	0.0002464255
94	0x38718342	5.758112e-05
95	0x39d99349	0.000414992
96	0x39bc7b1e	0.00035949884
97	0xb996daa6	-0.00028773135
98	0xb9c1f7e0	-0.0003699651
99	0x38c4cf22	9.38459e-05
100	0xba247e2c	-0.00062749046
101	0xb85856da	-5.15793e-05
102	0xb97f1e04	-0.00024329877
103	0x398d997c	0.0002700797
104	0x39b0edb2	0.00033746433
105	0xb9b082d3	-0.00033666808
106	0xb7d00cf5	-2.4801566e-05
107	0xb9cbe7d1	-0.00038891894
108	0xba28f012	-0.00064444647
109	0x3a072a62	0.0005156157
110	0xb9ca5854	-0.00038594252
111	0x3808574b	3.2506225e-05
112	0x39b57a00	0.00034613907
113	0x389e6699	7.5531374e-05
114	0xba22f0bc	-0.0006215682
115	0x38b3cdae	8.573696e-05
116	0x392115e7	0.00015362316
117	0x39ef75e8	0.0004567348
118	0xb9e691ab	-0.0004397755
119	0xb99d282d	-0.00029975307
120	0x3a0919a9	0.0005229959
121	0xb7b29d14	-2.1292399e-05
122	0xb9bd6c75	-0.00036129696
123	0xb9ef18f8	-0.00045604235
124	0x3962d810	0.00021633529
125	0xb94a02ed	-0.00019265311
126	0xb90da394	-0.00013507745
127	0x383f287e	4.557566e-05
