results/currentRun/3DBall/3DBall-200300.onnx (onnx, 84847 bytes, 9 tensors)

network_body.observation_encoder.processors.0.normalizer.running_mean f4 [22]
0	0x00000000	0.0
1	0x3fb9654a	1.4484036
2	0x00000000	0.0
3	0x3fb97640	1.4489212
4	0x00000000	0.0
5	0x3fb9a3d8	1.4503126
6	0x00000000	0.0
7	0x3fb9eaed	1.4524819
8	0x00000000	0.0
9	0x3fba4c92	1.4554617
10	0x00000000	0.0
11	0x3fbac471	1.4591199
12	0x00000000	0.0
13	0x3fbb41dd	1.4629475
14	0x00000000	0.0
15	0x3fbbc893	1.4670585
16	0x00000000	0.0
17	0x3fbc4b02	1.471039
18	0x00000000	0.0
19	0x3fbccfdb	1.4750932
20	0x00000000	0.0
21	0x3fbd6043	1.4795002

network_body._body_endoder.seq_layers.0.weight f4 [128, 22]
0	0xbd8e1cc4	-0.0693908
1	0xbec27962	-0.37983233
2	0xbe5f8955	-0.21829732
3	0x3e491a18	0.1963886
4	0x3e08f938	0.1337632
5	0x3e5f3f5d	0.21801515
6	0xbd71d1b2	-0.05903787
7	0xbecd1330	-0.400537
8	0x3d156392	0.03647191
9	0xbd85aba6	-0.0652688
10	0x3e51b3d0	0.2047875
11	0xbc226e67	-0.009914017
12	0x3eeaea11	0.45881703
13	0x3e9c9fdc	0.30590713
14	0x3d610339	0.054934714
15	0xbdbcf97f	-0.09227275
16	0x3ece4c20	0.40292454
17	0x3e8cc13c	0.27491176
18	0xbe8bec66	-0.27328795
19	0x3e113b4b	0.14182775
20	0xbe2d670f	-0.16933845
21	0xbe6509bc	-0.22366995
22	0xbea4ce50	-0.32188654
23	0x3ed32b04	0.41243756
24	0x3e2bbf4f	0.16772197
25	0x3d39b7c8	0.045341283
26	0xbd6a7a6e	-0.057245664
27	0x3e4f8126	0.2026411
28	0xbe1aa989	-0.15103735
29	0xbeb11ba9	-0.34591416
30	0xbd0349ad	-0.032052685
31	0xbdb0897f	-0.08619975
32	0xbeb37140	-0.3504734
33	0xbe038fa0	-0.12847757
34	0xbdc20edf	-0.09475493
35	0x3edd8909	0.43268612
36	0x3ec01e94	0.3752333
37	0x3e839c1a	0.25705034
38	0x3e866b9e	0.2625398
39	0xbe2a798f	-0.16647933
40	0x3dd0d6b4	0.10197201
41	0x3e44a846	0.19204816
42	0xbe696813	-0.22793607
43	0x3ebc8220	0.36818027
44	0x3d29705f	0.04136693
45	0xbe86cc03	-0.26327524
46	0x3ce6d51a	0.028177787
47	0xbdc71fd4	-0.097228676
48	0x3d75b95a	0.05999122
49	0x3cf703f1	0.030153247
50	0x3e72f040	0.2372446
51	0x3d0bb1dc	0.034105167
52	0xbdd0e221	-0.10199381
53	0x3e08b8dc	0.13351768
54	0xbe18b541	-0.14912893
55	0x3db07c24	0.08617428
56	0xbf0569ec	-0.5211475
57	0xbdfa2009	-0.122131415
58	0xbee3b41c	-0.4447335
59	0xbc5313ef	-0.0128831705
60	0x3d9c6576	0.0763654
61	0xbcbdc11f	-0.023163376
62	0x3e70479e	0.2346482
63	0xbd7f8aee	-0.062388353
64	0x3d0dbe43	0.034605276
65	0xbcd5a975	-0.02608178
66	0xbeaab41b	-0.33340535
67	0xbe502450	-0.20326352
68	0x3dc43a53	0.09581437
69	0x3eb115be	0.345869
70	0xbdfc524a	-0.12320383
71	0x3e57adf8	0.21062458
72	0x3d9688e6	0.0735033
73	0xbd8e793f	-0.069567196
74	0x3dde3850	0.108505845
75	0xbe8f23a5	-0.27956882
76	0xbdd9405e	-0.1060798
77	0x3de3c524	0.11121586
78	0xbe0a4e9b	-0.13506548
79	0x3d83035a	0.06397124
80	0x3e09a0df	0.13440274
81	0x3df6ac69	0.120446034
82	0x3ab728ff	0.001397401
83	0xbdc2096b	-0.094744526
84	0x3e9b02a6	0.30275458
85	0xbe0d9077	-0.1382464
86	0x3df07586	0.11741166
87	0xbd1bdc30	-0.038051784
88	0x3e816e15	0.25279298
89	0x3d4ca66b	0.049963396
90	0x3e98840f	0.29788253
91	0x3e84df44	0.25951588
92	0xbc16576c	-0.009176116
93	0x3eb94332	0.36184078
94	0xbcace503	-0.021105295
95	0xbe5134ec	-0.20430344
96	0xbe0487e2	-0.1294246
97	0xbe774bee	-0.24150059
98	0xbe9bec80	-0.30453873
99	0xbbdb12e3	-0.006685601
100	0xbd43489d	-0.04767667
101	0x3cc4b08d	0.024009967
102	0xbdd5cbab	-0.10439237
103	0xbd785539	-0.06062815
104	0x3c3b035b	0.011414374
105	0xbe5fe4c2	-0.21864608
106	0x3e6cbc65	0.23118742
107	0xbe183f76	-0.14867958
108	0x3e1723c6	0.1475974
109	0xbd6db696	-0.058035456
110	0xbe706b58	-0.23478448
111	0xbcf1606e	-0.029464927
112	0xbd884b6c	-0.066550106
113	0x3e3d5208	0.18488324
114	0x3d1d1973	0.03835435
115	0xbb79db61	-0.0038125145
116	0xbdae7613	-0.085186146
117	0xbe3212b8	-0.17389953
118	0x3c9c8e9a	0.019110966
119	0xbda5e788	-0.08100802
120	0x3e191e2a	0.14952913
121	0x3de22177	0.11041539
122	0xbb8970a6	-0.004194337
123	0xbea3e775	-0.32012525
124	0xbd81435c	-0.06311676
125	0x3ea771cc	0.32704008
126	0x3e8c79ce	0.2743668
127	0x3d495497	0.049152937
128	0x3e99eb67	0.3006241
129	0xbeb265dd	-0.3484334
130	0x3b4be5e1	0.003111236
131	0x3e926fae	0.2860083
132	0x3e538b99	0.20658721
133	0x3d168332	0.03674621
134	0xbd5a4f83	-0.053298485
135	0x3dbe7bad	0.09300933
136	0x3da281b4	0.07934895
137	0x3db48b50	0.08815634
138	0xbda78977	-0.08180516
139	0x3e250969	0.16116871
140	0xbd469f49	-0.04849175
141	0x3e78e624	0.24306542
142	0x3e0271e0	0.12738752
143	0xbd6e8d7a	-0.05824039
144	0x3d565ffb	0.052337628
145	0xbea9a706	-0.3313524
146	0xbdaca5f5	-0.08430091
147	0xbe24ee50	-0.16106534
148	0x3ea97711	0.33098653
149	0xbe5e3dff	-0.21703337
150	0xbed65af3	-0.41866264
151	0xbd50c1ac	-0.05096595
152	0x3ed73633	0.42033538
153	0xbe3a9dc7	-0.1822425
154	0x3bfa7e05	0.007644417
155	0x3eab34ff	0.3343887
156	0xbe4bcc18	-0.19902074
157	0xbe1e999f	-0.1548829
158	0xbe93383d	-0.28753844
159	0x3e4befaa	0.19915643
160	0xbe0e4286	-0.13892564
161	0x3e580b13	0.21097974
162	0x3d60e462	0.054905303
163	0xbe1d9e7c	-0.15392488
164	0x3dcd31eb	0.10019287
165	0xbee7029a	-0.45119172
166	0x3d45cba0	0.048289895
167	0x3e3248a3	0.17410521
168	0x3e8f759f	0.28019425
169	0xbb88f85a	-0.0041799964
170	0xbe6f47f9	-0.23367299
171	0x3e4be734	0.19912416
172	0xbcc06f4e	-0.023490574
173	0xbf00c64b	-0.5030257
174	0xbe3d177f	-0.18465994
175	0x3e4e4959	0.20145167
176	0xbe6dfcc5	-0.23240955
177	0xbe5e3d9e	-0.21703193
178	0xbd7c4903	-0.061593067
179	0xbce9bb07	-0.028531564
180	0x3ea152d2	0.315085
181	0x3d6ace81	0.057325844
182	0x3e37eabe	0.17960641
183	0xbe217365	-0.15766676
184	0xbe65d2a5	-0.22443636
185	0xbe63aeb7	-0.22234617
186	0xbdfd9097	-0.12381094
187	0x3c5479cd	0.012968493
188	0xbe29588c	-0.16537684
189	0xbe9f59b9	-0.3112314
190	0xbf0465f2	-0.51718056
191	0xbde22323	-0.11041858
192	0xbe8b2a88	-0.27180886
193	0xbe24c190	-0.16089463
194	0xbea7458b	-0.32670245
195	0x3e1a849d	0.1508965
196	0x3df7de25	0.121029176
197	0x3e8d06ea	0.27544338
198	0x3e7ad819	0.24496497
199	0x3e70979e	0.23495337
200	0xbe4bf54f	-0.19917797
201	0x3dae9bbe	0.08525799
202	0xbe0b6f83	-0.13616757
203	0xbee72350	-0.4514413
204	0x3dcc6478	0.099801004
205	0xbe1bc1c5	-0.15210636
206	0xbcddf9f6	-0.02709673
207	0xbe0bf833	-0.13668899
208	0x3e5d3362	0.21601632
209	0x3e259c73	0.16172962
210	0x3e26a794	0.16274863
211	0x3e838315	0.25685945
212	0x3dbffac2	0.09374
213	0x3e20700b	0.15667741
214	0x3e4d1b14	0.2002986
215	0x3e8e45c0	0.2778759
216	0x3de3ca79	0.11122603
217	0xbe8ca2df	-0.2746801
218	0xbd3a3a3b	-0.04546569
219	0xbd27a0c5	-0.040924806
220	0xbe2faa9f	-0.1715493
221	0xbcf65fb1	-0.030074926
222	0x3e0e9c3c	0.13926786
223	0xbebd88e9	-0.37018517
224	0x3d1c903f	0.0382235
225	0xbd80f04a	-0.062958315
226	0xbd26411b	-0.040589433
227	0x3e1112af	0.14167283
228	0x3e292649	0.16518511
229	0x3c6658ba	0.01405924
230	0x3e76098b	0.24027078
231	0xbe5e14a5	-0.21687563
232	0xbce300bd	-0.027710313
233	0xbd832fb6	-0.064055845
234	0xbe00c8ea	-0.12576643
235	0xbeabc79c	-0.33550727
236	0x3e27ff8f	0.16406082
237	0x3e23161b	0.15926401
238	0x3d197fec	0.03747551
239	0x3e9e0ffd	0.30871573
240	0x3deaae26	0.114589974
241	0x3ed4f23e	0.41591066
242	0xbc29501b	-0.01033404
243	0xbe06099e	-0.13089606
244	0x3e8e835c	0.27834594
245	0x3d9fc4f9	0.078012414
246	0x3e48e895	0.19619973
247	0xbcd33b9b	-0.025785258
248	0xbe4e14dd	-0.20125146
249	0x3dc644dd	0.096811034
250	0xbdf661ef	-0.12030398
251	0x3ec66f28	0.3875668
252	0x3e2bd66f	0.16781019
253	0xbe2cefef	-0.16888402
254	0x3e2967c0	0.16543484
255	0x3dc5423a	0.09631772

network_body._body_endoder.seq_layers.0.bias f4 [128]
0	0xbcb90b57	-0.022588415
1	0xbbebdeee	-0.007198206
2	0xbb685540	-0.0035451204
3	0xbc4ba2e6	-0.012428975
4	0x3c1416f5	0.0090386765
5	0xbcd9b5d3	-0.026575958
6	0x3b46259f	0.0030234826
7	0x3c427679	0.011869066
8	0xbd4aca81	-0.04950953
9	0x3d841c54	0.06450716
10	0x3d22d992	0.039758272
11	0xbcc7a090	-0.024368554
12	0xbaac8a13	-0.0013163708
13	0xbcc1b9d5	-0.023648182
14	0xbd1ec145	-0.038758535
15	0xbd0836d9	-0.03325543
16	0xbd21c09f	-0.03949034
17	0x3d554f53	0.052077603
18	0xbd58c194	-0.052918985
19	0xbb7588c3	-0.003746555
20	0xbb882121	-0.00415434
21	0xbd2c3188	-0.042039424
22	0xbb76fc73	-0.0037687093
23	0xba0e27ad	-0.0005422782
24	0xbd5c5269	-0.05378953
25	0x3c1a77c3	0.0094279675
26	0xbb402aa8	-0.00293223
27	0x3b4f8d7f	0.0031670032
28	0xbc6a2ecd	-0.014293385
29	0xbd1948b5	-0.037422854
30	0x3cc098d1	0.023510369
31	0xbb64ffd0	-0.0034942515
32	0x3d116020	0.035492063
33	0xbcb41bc2	-0.021985892
34	0xbc0c09fb	-0.008547301
35	0xbcd61e01	-0.026137354
36	0xbc967231	-0.018364998
37	0xbc300436	-0.0107431915
38	0xbc8b063c	-0.016970746
39	0xbcef9f07	-0.029250635
40	0xbd0d686b	-0.03452341
41	0xbd35b6e9	-0.04436389
42	0xbc781126	-0.015140807
43	0xb9c63274	-0.00037803093
44	0xbd1e7cad	-0.03869312
45	0x3c881010	0.016609222
46	0xbcdfe6ab	-0.02733167
47	0xbcfdea3c	-0.03099548
48	0xbcd871ea	-0.026421506
49	0xba8726a2	-0.0010311196
50	0xbc2488ef	-0.010042413
51	0x3b094ac4	0.0020949105
52	0x3b9c9127	0.0047780457
53	0xbca9202b	-0.020645222
54	0xbd173fd4	-0.036926106
55	0xbd472b69	-0.048625384
56	0xbb56ea9c	-0.0032793647
57	0xbd3a340b	-0.04545979
58	0xbd0028ca	-0.0312889
59	0x3cf9f19b	0.030510714
60	0xbd0f7a97	-0.03502902
61	0x3c409667	0.011754609
62	0xbc962f8e	-0.018333223
63	0xbb94660e	-0.0045287674
64	0xbc434700	-0.011918783
65	0xbce9ba7f	-0.028531311
66	0xbadfa9ad	-0.0017064117
67	0x3d0b140f	0.033954676
68	0xbc192cad	-0.00934903
69	0xbcfc55f4	-0.030802704
70	0x3d1ab875	0.03777357
71	0xbc6b08c5	-0.014345353
72	0xbc08f3e1	-0.0083589265
73	0x3be26f74	0.006910259
74	0x3c9af24b	0.018914362
75	0x3c6d4588	0.01448191
76	0xba9c74d1	-0.001193667
77	0xbc5827ff	-0.01319313
78	0xbca5e720	-0.02025181
79	0x3c9ab89a	0.018886853
80	0xbd541142	-0.05177427
81	0xbd506a94	-0.05088289
82	0xbcadf334	-0.021234132
83	0xbd300f65	-0.04298343
84	0xbb07ad4c	-0.0020702658
85	0xbbc2f21b	-0.0059492714
86	0xbcdc37aa	-0.026882011
87	0xbc968857	-0.018375559
88	0xbcb602dc	-0.02221816
89	0xbc29e608	-0.010369785
90	0xbd05b32e	-0.032641582
91	0xbb9c6035	-0.004772211
92	0x3cca571c	0.02469974
93	0xbd075c97	-0.033047285
94	0x3ca72b4b	0.020406386
95	0xbca35983	-0.019940143
96	0xbd409c03	-0.047023784
97	0x3b1c4eab	0.00238506
98	0xbc6538a9	-0.01399056
99	0xbb6698fc	-0.00351864
100	0xbc833240	-0.016015172
101	0xbbe93ea3	-0.0071180626
102	0x3c5cccb5	0.01347654
103	0xbc7e0937	-0.015505127
104	0x3c8712a4	0.01648838
105	0xbd4cb86f	-0.049980577
106	0x3c8b7d37	0.01702748
107	0xb8150b4c	-3.553489e-05
108	0xbd2330a7	-0.03984132
109	0xbd1066be	-0.035254233
110	0xbce198a9	-0.027538614
111	0x3c1a0511	0.009400622
112	0xbd17ac1a	-0.037029363
113	0x3c51a278	0.012795083
114	0x3bea0d7b	0.0071427203
115	0xbd08cd58	-0.033398956
116	0xbd207b7a	-0.039180256
117	0xbcb1a322	-0.021684233
118	0xbd9b0cd3	-0.075708054
119	0x3abd5b8b	0.0014446838
120	0xbb603d4d	-0.0034216226
121	0xbb8ba590	-0.00426168
122	0xbc9d8e00	-0.01923275
123	0xbc05e80a	-0.008172998
124	0xbc9e346c	-0.019312106
125	0xbc81c6fc	-0.015841953
126	0xbbac14aa	-0.005251487
127	0xbcc299c6	-0.023754966

network_body._body_endoder.seq_layers.2.weight f4 [128, 128]
0	0xbdc28b0d	-0.09499178
1	0x3d876d65	0.06612662
2	0xbdf7a993	-0.120928906
3	0xbdf18957	-0.117937736
4	0x3d9defa2	0.07711722
5	0x3c02aa99	0.007975244
6	0x3ddfc7ee	0.109268054
7	0x3ca76ae8	0.020436719
8	0xbe04aec5	-0.12957294
9	0xbe62a059	-0.2213148
10	0x3d9ee7e5	0.07759074
11	0xbddb6243	-0.10712101
12	0xbe37ff9a	-0.17968598
13	0xbbca4c76	-0.0061736656
14	0xbd840ff1	-0.06448353
15	0x3e2f7a9a	0.17136613
16	0x3c8661fd	0.016404146
17	0xbd7a3eed	-0.061095167
18	0x3e579918	0.21054494
19	0xbd6371cc	-0.055528447
20	0x3d84bd4c	0.06481418
21	0xbdc5c3d3	-0.09656491
22	0xbcded0b9	-0.027199136
23	0x3c4319fc	0.011908051
24	0x3d9f9c8d	0.077935316
25	0xbdf85036	-0.12124674
26	0x3db81841	0.08989001
27	0x3d47e04c	0.04879789
28	0xbdbc092d	-0.09181438
29	0xbd5b86d0	-0.053595364
30	0x3c17f113	0.009273785
31	0x3d3e9d47	0.04653671
32	0x3dfaad9a	0.12240143
33	0xbe1d01d9	-0.15332736
34	0x3d00e22b	0.03146569
35	0x3d9b52e2	0.07584168
36	0x3dcdc0f9	0.10046572
37	0x3cbe40f1	0.023224326
38	0x3cf995e7	0.030466987
39	0xbda6ce4d	-0.081448175
40	0xbcb728f3	-0.022358393
41	0xbe1c56f9	-0.15267552
42	0xbd722cd4	-0.059124783
43	0xbccf5a05	-0.02531148
44	0xbe27de57	-0.1639341
45	0xbcc0898c	-0.023503087
46	0xbc98fe4d	-0.018675948
47	0x3dc0a80a	0.09407051
48	0x3d85fd6b	0.06542476
49	0x3db50f24	0.088407785
50	0xbdad29ab	-0.08455213
51	0x3cbd450d	0.023104215
52	0x3b8bb4b8	0.0042634867
53	0xbdd53d69	-0.10412104
54	0xbbd85eab	-0.006603082
55	0x3d0264f6	0.031834565
56	0xbbb3406d	-0.0054703266
57	0xbb340d37	-0.0027473697
58	0x3d9ed00e	0.07754527
59	0xbd11338b	-0.035449546
60	0xbdb74650	-0.08948958
61	0xbd454ea8	-0.048170716
62	0x3bfe2617	0.0077560055
63	0xbd9d515c	-0.07681534
64	0xbd99dda4	-0.07512978
65	0xbd4a677c	-0.049415097
66	0x3dba208c	0.09088239
67	0x3d5c831b	0.05383597
68	0x3e29bba3	0.16575484
69	0xbd84b8f9	-0.06480593
70	0x3d2c9c13	0.04214103
71	0x3b62b3c7	0.003459202
72	0x3e1017ec	0.14071625
73	0x3e28f8b8	0.16501129
74	0xbdd0cd09	-0.10195357
75	0xbe0bbb3f	-0.13645647
76	0x3cf8e042	0.030380372
77	0xbc673567	-0.014111853
78	0xbd91c23a	-0.07117124
79	0xbd378e2c	-0.04481332
80	0x3a2f4b8a	0.00066869764
81	0x3bfcf5a0	0.0077197105
82	0x3cd60f15	0.026130239
83	0xbd9d9392	-0.076941624
84	0x3da3817f	0.07983684
85	0x3cd3018c	0.025757574
86	0xbc4039ca	-0.011732528
87	0x3dcee62f	0.10102498
88	0xbdae73f4	-0.0851821
89	0xbd9b3ad1	-0.07579578
90	0x3d44a37f	0.048007485
91	0x3d7f6abb	0.062357645
92	0xbd3c7728	-0.046012074
93	0xbdbd7867	-0.092514805
94	0x3dd23262	0.10263516
95	0xbd7eef17	-0.062239733
96	0xbcd9427a	-0.026520956
97	0x3c095796	0.0083826985
98	0xbd01598e	-0.031579547
99	0x3d733e8b	0.059385817
100	0xbbfbffe4	-0.0076904166
101	0xbddb393e	-0.107042775
102	0xbd72ab77	-0.059245553
103	0x3ddecec2	0.1087928
104	0x3caf3075	0.02138541
105	0x3e14688c	0.14493006
106	0xbcf8fc01	-0.030393602
107	0x3c25fd4d	0.010131192
108	0x3d214e24	0.03938116
109	0x3b23a598	0.0024970528
110	0x3e3cc7ae	0.18435547
111	0xbd88a50f	-0.066721074
112	0x3cd0002f	0.025390713
113	0x3d6cb5e5	0.057790656
114	0x3d35e558	0.044408172
115	0xbce9204b	-0.028457781
116	0xbe218139	-0.15771951
117	0xbcbdf76e	-0.023189273
118	0xbc38b92c	-0.011274617
119	0x3e15418f	0.1457579
120	0x3d3270cf	0.043564614
121	0xbd1e1ee6	-0.038603686
122	0x3e1ea68f	0.15493225
123	0x3d030ee6	0.03199663
124	0xbc83cfea	-0.016090352
125	0x3bbd632d	0.005779645
126	0x3ce9af20	0.028525889
127	0xbdba1616	-0.09086244
128	0x3c825b9e	0.015912827
129	0x3d884e8a	0.06655605
130	0x3d2ef789	0.042716537
131	0x3cd8f592	0.026484285
132	0x3dc4a1ea	0.09601195
133	0x3db0e62b	0.08637651
134	0x3d60ca9e	0.05488073
135	0x3dcd496c	0.1002377
136	0x3dd49284	0.10379508
137	0xbd908806	-0.070571944
138	0x3d34cb87	0.04413941
139	0x3d106087	0.035248306
140	0xbd7f07b6	-0.062263213
141	0x3c1b2ef2	0.009471642
142	0x3d1f47ca	0.038886823
143	0xbe03554b	-0.12825505
144	0xbbfde5e3	-0.007748352
145	0xbbf46dc5	-0.0074593746
146	0xbd501ffd	-0.050811756
147	0xbcd801f8	-0.026368126
148	0x3d0c9a3c	0.034326777
149	0xbd5af4f1	-0.05345625
150	0x3c8aa887	0.016926063
151	0xbde337e6	-0.11094646
152	0xbc347ff8	-0.011016838
153	0xbde59d9f	-0.112117045
154	0x3daafea8	0.08349353
155	0xbdabde4b	-0.083920084
156	0xbdb7495c	-0.08949539
157	0x3b8a7e80	0.0042265058
158	0xbe5d5cbf	-0.21617411
159	0x390c29ac	0.00013366964
160	0x3cb56e43	0.022147303
161	0x3d20464e	0.039129548
162	0xbd9210e1	-0.07132126
163	0x3d883601	0.066509254
164	0x3d437d60	0.04772699
165	0x3d8ee666	0.06977539
166	0xbde00992	-0.109393254
167	0xbd412642	-0.047155626
168	0x3df7afe8	0.12094098
169	0xbe024aab	-0.12723796
170	0xbe03cdf6	-0.12871537
171	0xbde40be6	-0.11135082
172	0xbcf26421	-0.02958876
173	0xbd13ad63	-0.036054026
174	0xbccf5787	-0.025310291
175	0xbd8d3e2b	-0.06896623
176	0xbc043b3a	-0.008070761
177	0x3cabcf03	0.020972734
178	0xbd910eb6	-0.07082884
179	0xbdba87ea	-0.09107955
180	0xbb77ea83	-0.003782899
181	0xbd5381bf	-0.051637407
182	0x3d0e2bb7	0.03470966
183	0x3d4b0961	0.04956949
184	0x3dbfadcf	0.09359323
185	0x3b73c855	0.0037198265
186	0xbe352d00	-0.17692947
187	0x3d87da15	0.06633393
188	0xbdd52ad7	-0.10408562
189	0x3d896f85	0.06710724
190	0xbdb128ca	-0.08650358
191	0xbd27ddec	-0.040983126
192	0x3e67cb2c	0.22636098
193	0x3ca2c892	0.01987103
194	0x3bd0d1b4	0.006372655
195	0xbdfb942d	-0.12284122
196	0x3cc8077f	0.024417637
197	0xbde81c7a	-0.113335565
198	0x3dc37385	0.09543518
199	0x3d9ca2bc	0.076482266
200	0x3d86975b	0.065718375
201	0xbdfc14d9	-0.12308664
202	0xbcc11b13	-0.02357248
203	0xbc433462	-0.0119143445
204	0x3c8f83aa	0.017518837
205	0xbdf24b66	-0.11830787
206	0x3c858827	0.016300274
207	0xbda5cf9a	-0.080962375
208	0xbd81b073	-0.06332483
209	0x3d910c11	0.070823796
210	0x3d2a4fc0	0.04157996
211	0xbcb9541d	-0.022623116
212	0xbe205f96	-0.15661463
213	0xbce39955	-0.027783075
214	0xbc4be967	-0.012445784
215	0xbd8ec251	-0.06970657
216	0xbe04f731	-0.12984921
217	0xbd85d6c0	-0.06535101
218	0x3d9474de	0.07248853
219	0xbdd1b5c5	-0.10239748
220	0x3d475a40	0.048670053
221	0xbd30328b	-0.04301695
222	0x3d35f339	0.04442141
223	0x3da431b6	0.08017294
224	0xbd9b309a	-0.075776294
225	0xbca5bfe0	-0.020233095
226	0x3e31449d	0.1731133
227	0x3dfee457	0.12445896
228	0xbcf2a0ab	-0.029617628
229	0x3dcfe787	0.10151582
230	0xbd05a93c	-0.032632098
231	0xbdb47a53	-0.08812394
232	0x3dd97aed	0.10619149
233	0x3df4846f	0.11939322
234	0xbe65e812	-0.22451809
235	0x3d80fc34	0.06298104
236	0xbd711141	-0.058854345
237	0xbd259200	-0.04042244
238	0xbd9c7c37	-0.076408796
239	0x3d1edf7e	0.038787358
240	0x3e2ff9fb	0.17185204
241	0x3d97c084	0.07409766
242	0xbcd2cc16	-0.025732081
243	0x3d19e326	0.03757014
244	0xbd3803d3	-0.044925522
245	0xbd09ad18	-0.03361234
246	0x3d9f8b83	0.077902816
247	0xbcfec7eb	-0.031101188
248	0xbdcb7162	-0.099337354
249	0xbe4d9e38	-0.20079887
250	0xbe0a8130	-0.13525844
251	0x3d011b15	0.031519968
252	0x3b6e00a2	0.0036316295
253	0xbb14df0b	-0.0022715952
254	0xbd3bc9e8	-0.04584685
255	0x3e13bcb8	0.14427459

network_body._body_endoder.seq_layers.2.bias f4 [128]
0	0xbc9d37e4	-0.01919169
1	0xbc0ec303	-0.008713487
2	0x3ca89a3c	0.020581357
3	0xbcfd550b	-0.03092434
4	0x39718283	0.0002303217
5	0xbc4c1849	-0.012456962
6	0xbc842fa5	-0.016136
7	0x3c75f34b	0.015011619
8	0xbc00329d	-0.007824567
9	0xbac96d51	-0.0015367662
10	0xbd1ba178	-0.037995785
11	0xbc40cdf8	-0.011767857
12	0xbd0e1e14	-0.034696653
13	0xbbfa25e2	-0.0076339105
14	0xbc37c9f0	-0.011217579
15	0xbcb8f993	-0.022579944
16	0xbc0b1508	-0.008488901
17	0x3b286fc0	0.0025701374
18	0x3d110dc8	0.035413533
19	0xbbd29770	-0.006426744
20	0xbc873f7f	-0.01650977
21	0xbb7a912b	-0.00382335
22	0xbb830f39	-0.0039996174
23	0xb9e1a4a6	-0.00043038017
24	0x3b4ff0c5	0.0031729203
25	0xbd5778ad	-0.05260532
26	0xbce58a14	-0.028019942
27	0xba00f838	-0.00049198
28	0xbd90cdd4	-0.070705086
29	0xbca06eaf	-0.019584028
30	0xbc89bdc2	-0.016814116
31	0xbd23b034	-0.039962962
32	0xbc8f3167	-0.017479612
33	0xbc6c7862	-0.014432998
34	0xbb4eee48	-0.0031575132
35	0xbba47da9	-0.0050198627
36	0xbc87e355	-0.016587893
37	0xba280aee	-0.000641032
38	0xbcb13adc	-0.021634512
39	0xbb111283	-0.0022136278
40	0xbd20dec9	-0.039274964
41	0xbccaab6d	-0.024739945
42	0x3cd94cf1	0.026525946
43	0xbd34a47e	-0.044102184
44	0xbbcf36e6	-0.006323683
45	0xbcd8e16a	-0.026474673
46	0x3c2545a2	0.010087403
47	0xbb89425c	-0.004188819
48	0xbac378e5	-0.0014913349
49	0xbc802c92	-0.015646253
50	0xbcc19701	-0.023631575
51	0xbcce2da9	-0.025168257
52	0xbc0a4db1	-0.008441375
53	0xbca8998b	-0.020581027
54	0xbd4d8700	-0.050177574
55	0x3cefbaa9	0.029263811
56	0x3b1a5841	0.0023551139
57	0xbc97f271	-0.018548222
58	0xbcc0c56c	-0.023531638
59	0xbbd3ea2e	-0.0064671254
60	0xbcdc1e98	-0.026870057
61	0xbc5964ba	-0.013268644
62	0x3cfccc15	0.030859033
63	0x3b994eed	0.004678598
64	0xbb9c4835	-0.00476935
65	0xbb31174b	-0.002702194
66	0xbcde1840	-0.027111173
67	0xbc6d1ea4	-0.014472637
68	0xbcd68f0a	-0.026191253
69	0xbd6564f9	-0.0560045
70	0xbd4a5d48	-0.049405366
71	0xbcc253f2	-0.023721669
72	0x3b0135ab	0.0019715826
73	0xbd10955c	-0.03529869
74	0xbcf2da4d	-0.02964511
75	0x3d2c132c	0.04201047
76	0xbc6b08fd	-0.014345405
77	0xbbceaf09	-0.006307487
78	0x3b712396	0.0036794893
79	0xbb293bec	-0.002582307
80	0xbc162cc6	-0.009165948
81	0xbc2df784	-0.010618094
82	0xbc781694	-0.015142102
83	0xbc05d0df	-0.0081674745
84	0xbc4d91cc	-0.012546968
85	0xbc40d8a8	-0.011770405
86	0xbc6bb6dd	-0.01438686
87	0xbbca8d3c	-0.006181387
88	0x3ca7a3b5	0.020463804
89	0xbbdf5dcb	-0.006816601
90	0xbc6b8801	-0.014375688
91	0xbcc621a2	-0.02418596
92	0x3cdd48b4	0.027012207
93	0x3cc1705a	0.023613144
94	0xbc9d349f	-0.01919013
95	0xbc481322	-0.012211593
96	0x3c0c3779	0.008558148
97	0xbd097014	-0.03355415
98	0xbcd102dc	-0.025514059
99	0xbc1df497	-0.009640834
100	0xbd0905ea	-0.033452906
101	0x3bea3980	0.007147968
102	0xbd2d9c03	-0.042385112
103	0x3a5711da	0.0008204259
104	0xbc35fd35	-0.011107733
105	0xbbcde3a5	-0.006283241
106	0x3cc2a9e1	0.023762645
107	0xbcd82879	-0.026386486
108	0x3c42dd27	0.011893547
109	0x3ab63f16	0.0013904299
110	0xbc221f0f	-0.0098951
111	0xbccb5129	-0.024818974
112	0x3b0f9c8d	0.002191338
113	0xbcf9d751	-0.030498179
114	0xbd415ce1	-0.047207717
115	0xbd478e22	-0.048719533
116	0x3ca66c4b	0.02031531
117	0xbca29e6a	-0.019850928
118	0xb9e7acf2	-0.00044188608
119	0xbcd4819f	-0.025940714
120	0xbd3b0738	-0.04566118
121	0xbcc4616c	-0.023972236
122	0xbc7af872	-0.015318023
123	0xbcfa02fd	-0.030519003
124	0x3b53f21f	0.003234036
125	0xbc9487a6	-0.018131088
126	0x3b31884f	0.0027089303
127	0xbcfb0ed0	-0.030646712

action_model._continuous_distribution.log_sigma f4 [1, 3]
0	0xbd106d71	-0.03526062
1	0x39b128c6	0.0003379045
2	0xbca7615d	-0.020432169

action_model._continuous_distribution.mu.weight f4 [3, 128]
0	0x3b1a362f	0.002353083
1	0x3bfc74ae	0.007704339
2	0xbba5f5cc	-0.0050647017
3	0xbb1535ce	-0.0022767666
4	0x3b24d913	0.00251538
5	0xbc4ef754	-0.01263221
6	0x3ac022df	0.001465883
7	0xbb8898ab	-0.00416859
8	0x3c0684e0	0.008210391
9	0x3c1800e8	0.00927756
10	0x3b1fa75a	0.0024361224
11	0xbc80d12a	-0.015724737
12	0xbad960fe	-0.0016584692
13	0x3ca5fe2e	0.020262804
14	0xbaef4f9b	-0.0018257977
15	0xbbb064a2	-0.00538309
16	0x3bdf8a9a	0.0068219425
17	0xbcc07747	-0.023494376
18	0x3bf4024b	0.0074465624
19	0xbb82ad08	-0.003987912
20	0xbcba75e8	-0.0227613
21	0xbbd78a3b	-0.0065777577
22	0xbc0d59c9	-0.0086273635
23	0xbc17ac8b	-0.009257446
24	0x3c0efb06	0.008726841
25	0x3ac88dc0	0.0015301034
26	0xbc5ba7ea	-0.013406733
27	0xbb663def	-0.003513213
28	0x3b15052a	0.0022738674
29	0x3c510c2d	0.012759251
30	0xbbe1518e	-0.006876177
31	0x3ae5ee7f	0.0017542391
32	0x3bf2d6d0	0.0074108616
33	0xbcaa116c	-0.02076026
34	0xbc530d54	-0.012881596
35	0x3ce5581e	0.02799612
36	0x3c560446	0.013062542
37	0xbc0e50cd	-0.008686257
38	0xbc7c539c	-0.015400793
39	0xbc14450f	-0.009049668
40	0xbb94b9af	-0.004538737
41	0x393e7a7f	0.00018165445
42	0xbac56f28	-0.0015063034
43	0xbb85eaa5	-0.0040868097
44	0x3c0d98b3	0.008642363
45	0xbb7ac1d6	-0.0038262508
46	0x3bb69cfa	0.0055729123
47	0xbba17fad	-0.00492855
48	0x3b963782	0.0045842538
49	0x3b63c238	0.0034753215
50	0xbca089b4	-0.019596912
51	0xbc017b19	-0.007902884
52	0xbc834365	-0.016023347
53	0xbb091ede	-0.002092294
54	0x3c3d0606	0.011537081
55	0x3c05c690	0.008165017
56	0x3bbee3d5	0.0058254995
57	0xb9144fe3	-0.0001414414
58	0xbb2e16d3	-0.0026563897
59	0xbc0051ad	-0.007831973
60	0xbb58d34e	-0.0033084932
61	0x3bd1c1d7	0.0064012813
62	0xbbca5702	-0.006174923
63	0x3c88d193	0.016701495
64	0xbc8e232c	-0.017350756
65	0xbcaeceb9	-0.021338807
66	0xbce0ed85	-0.027457008
67	0x3b479150	0.0030451603
68	0xbaa3b0db	-0.001248862
69	0x3b8aea98	0.0042393915
70	0xbbaf9be7	-0.005359161
71	0x3b04a37d	0.0020239048
72	0x3c9c143f	0.019052623
73	0x3bbd1abb	0.005771009
74	0x3b3547a7	0.0027661116
75	0xbb608c27	-0.0034263225
76	0x3b70da1a	0.0036751092
77	0xbbf8b03d	-0.0075893686
78	0xba6549f2	-0.00087466754
79	0xba94df09	-0.0011357974
80	0xbc2efcc8	-0.010680385
81	0x3c82d4f0	0.015970677
82	0xbb5262b1	-0.0032102282
83	0x3b8df565	0.004332232
84	0xbbcd7dd0	-0.0062711015
85	0xbc7b153e	-0.015324889
86	0x3c27a1f0	0.01023148
87	0xbbaecc8c	-0.0053344425
88	0x3b53f709	0.003234329
89	0x3bae1786	0.005312863
90	0xbbdd23b6	-0.006748642
91	0x3bc0938f	0.0058769654
92	0x3be22c58	0.006902259
93	0x3cd1e08e	0.025619771
94	0x3c0e3b44	0.008681122
95	0x3bf7d38d	0.0075630606
96	0x3c21e683	0.009881618
97	0x3c411355	0.011784394
98	0xbaacd46c	-0.0013185865
99	0xbba32d08	-0.0049797334
100	0xbc755177	-0.014973036
101	0xbc016a26	-0.007898843
102	0xbb826ee2	-0.0039805034
103	0xbc37745f	-0.011197179
104	0x3b510182	0.0031891768
105	0x3c0c2e42	0.008555951
106	0xbb8b07c5	-0.0042428696
107	0xba04412d	-0.00050451123
108	0x3c4b2dee	0.012401087
109	0x3c82e0d8	0.015976354
110	0xb9f74253	-0.00047160927
111	0x3a5a8f30	0.00083373766
112	0x3c385e6a	0.011252979
113	0x3ba4e3e8	0.0050320514
114	0xbb8e2321	-0.004337684
115	0xbbb3a0ce	-0.005481816
116	0xbbb26eae	-0.005445323
117	0xbca6d8b1	-0.020366998
118	0xbbc4f7ff	-0.0060110088
119	0xbbdad8cd	-0.0066786767
120	0x3a9d5c3c	0.0012005637
121	0xb973751e	-0.00023217915
122	0xbc488ca0	-0.012240559
123	0x3b4d1208	0.0031291265
124	0xbba1710c	-0.0049268063
125	0xbd147d6c	-0.036252424
126	0xbcbe15b0	-0.0232037
127	0xbbe5a752	-0.0070084715
128	0x3d1b46a3	0.03790916
129	0x3af3e63d	0.0018608045
130	0x3b0bc46d	0.0021326796
131	0xbb10011e	-0.0021973322
132	0x3a4be5b6	0.0007778065
133	0x3cd1f0f5	0.025627593
134	0xba2a3928	-0.00064935023
135	0x3978b555	0.00023718674
136	0xbaf11fb6	-0.0018396291
137	0xbce09772	-0.027415965
138	0x39a2073a	0.00030904432
139	0xbd2abed1	-0.041685883
140	0x3b582021	0.0032978135
141	0xbcc5ff4a	-0.024169583
142	0x3d0b5398	0.034015268
143	0x3ad9c168	0.0016613426
144	0x3ba634b8	0.0050722025
145	0xbc5a5938	-0.0133269355
146	0x3ace3d74	0.0015734867
147	0x3b19c009	0.002346041
148	0x3c2aaf5d	0.010417786
149	0xb9447f7f	-0.00018739513
150	0xbc244c14	-0.010027904
151	0xbc864b59	-0.01639335
152	0xbc1f82b1	-0.009735749
153	0x3ae312b4	0.00173243
154	0x3c89f562	0.01684064
155	0x3c9e808d	0.019348407
156	0x3b0fa520	0.002191849
157	0xb9eb888a	-0.00044924422
158	0x3c72cf73	0.014819968
159	0xbb64bb72	-0.0034901765
160	0xbc53efaf	-0.012935563
161	0x3ce05477	0.027384026
162	0xbcf4c7c9	-0.029880421
163	0xbc062884	-0.008188371
164	0xbc1e844c	-0.009675097
165	0x3c41038f	0.011780634
166	0xbc6606bb	-0.014039691
167	0xbb0e3dc4	-0.0021704296
168	0xbb0139d2	-0.0019718301
169	0xbb695bc8	-0.0035607684
170	0x3a63b8b7	0.00086868874
171	0xbc3cd21f	-0.011524706
172	0xbcb5d73d	-0.02219736
173	0x3b4112f3	0.0029460758
174	0xbb2294a0	-0.0024807826
175	0xbb012cc6	-0.0019710525
176	0xbc15b912	-0.0091383625
177	0x3b003c70	0.0019567274
178	0xbb0fa859	-0.0021920411
179	0xbcf9d16f	-0.030495374
180	0xba0548a3	-0.0005084371
181	0xb88a8f2a	-6.607019e-05
182	0x3c5eeedb	0.013606752
183	0xbbe3f1fe	-0.006956338
184	0x3bdde687	0.0067718658
185	0xbcd28e77	-0.025702698
186	0xbc0dc78d	-0.008653534
187	0xbb66c524	-0.003521272
188	0xbb995f31	-0.004680537
189	0xbbaf6129	-0.0053521586
190	0x3ae28b81	0.0017284007
191	0xbd73fde0	-0.059568286
192	0xbd07db6f	-0.033168253
193	0x3ca2ca48	0.019871846
194	0x3c027168	0.0079616085
195	0x3b561fcb	0.0032672759
196	0x3ba036b0	0.0048893318
197	0x3c0ca72a	0.008584777
198	0x39772766	0.00023570433
199	0xbc72a993	-0.014810937
200	0xbb811d80	-0.0039402843
201	0xbb6a7b21	-0.0035778957
202	0x3c02256e	0.007943494
203	0x39a81f46	0.00032066758
204	0xbc4b2bd3	-0.012400585
205	0x3be45feb	0.006969442
206	0x3c4b0951	0.012392358
207	0xbc583591	-0.013196365
208	0x3ba31cf6	0.0049778176
209	0xbb57078f	-0.0032810902
210	0xba8fc8e6	-0.0010969907
211	0x3d263c5c	0.040584907
212	0x3ad6c1f9	0.0016384713
213	0x3c90869e	0.017642315
214	0x3b764651	0.0037578533
215	0x3c9f3fa1	0.01943952
216	0xbc84a4ae	-0.016191807
217	0x3cb76705	0.02238799
218	0x3bb71f40	0.005588442
219	0xbbae89a2	-0.0053264657
220	0xbc129a2d	-0.008947891
221	0xbaffa033	-0.0019502699
222	0x3be26a59	0.0069096503
223	0xbc659ee0	-0.0140149295
224	0x3b970418	0.0046086423
225	0xbc1f235d	-0.009713021
226	0x3a3a8677	0.0007115374
227	0x3b3f961f	0.0029233766
228	0xbc43313f	-0.011913597
229	0xba8f56d2	-0.0010935909
230	0xba44fabe	-0.000751417
231	0x3ca501f4	0.020142533
232	0x3d12bfdb	0.0358275
233	0x3d4327d2	0.047645397
234	0xbb852a38	-0.0040638708
235	0x3b14da62	0.0022713174
236	0xbc357897	-0.011076114
237	0x3c2a6b6b	0.010401587
238	0x3d1f103f	0.038833853
239	0xbb8a8f05	-0.004228475
240	0xb9cc72bb	-0.00038995393
241	0xbcd535eb	-0.026026687
242	0x3aaa676c	0.0013000793
243	0xbc31ec63	-0.010859582
244	0xbbbf85e1	-0.005844817
245	0x3cc11507	0.023569597
246	0x3b1d3b36	0.0023991591
247	0x3a370fae	0.00069832325
248	0x3b75a320	0.0037481263
249	0xbac37786	-0.001491294
250	0x3d25713f	0.040391203
251	0x39ed493d	0.0004525873
252	0x3c829d71	0.015944215
253	0x3be2e598	0.0069243424
254	0x3cd56617	0.026049657
255	0xba4a9755	-0.00077282387

action_model._continuous_distribution.mu.bias f4 [3]
0	0x3c839576	0.01606248
1	0x3b38dd45	0.0028208059
2	0x3c9a9447	0.018869532

onnx::Div_51 f4 [22]
0	0x3b126ecc	0.0022343872
1	0x3f0ee9c0	0.55825424
2	0x3b126ecc	0.0022343872
3	0x3f0f674f	0.5601701
4	0x3b126ecc	0.0022343872
5	0x3f0fd5e3	0.5618574
6	0x3b126ecc	0.0022343872
7	0x3f10346c	0.5632999
8	0x3b126ecc	0.0022343872
9	0x3f1077da	0.5643288
10	0x3b126ecc	0.0022343872
11	0x3f109e65	0.5649169
12	0x3b126ecc	0.0022343872
13	0x3f106b8c	0.56414104
14	0x3b126ecc	0.0022343872
15	0x3f0ffa43	0.56241244
16	0x3b126ecc	0.0022343872
17	0x3f0f3fed	0.5595692
18	0x3b126ecc	0.0022343872
19	0x3f0e5764	0.556021
20	0x3b126ecc	0.0022343872
21	0x3f0d4913	0.5518963
