results/currentRun/3DBall/3DBall-647382.pt (torch, 495601 bytes, 44 tensors)

network_body.observation_encoder.processors.0.normalizer.running_mean f4 [22]
000000 6b 1f cb 3b 80 e1 f1 40 40 c8 20 3c 60 b9 f1 40
       0.0061988137 7.558777 0.009813368 7.553879
000010 76 ac 8f 3c 49 99 f1 40 4a 5f fc 3c d6 8b f1 40
       0.01753829 7.5499616 0.030807156 7.54832
000020 70 7a 46 3d 5b 82 f1 40 8a 94 82 3d ee 90 f1 40
       0.04845661 7.5471625 0.06375988 7.5489416
000030 bb 5f 8d 3d 0b 95 f1 40 63 07 7f 3d 7a 62 f1 40
       0.06903025 7.5494437 0.062262904 7.543271
000040 97 8f 45 3d 1d c7 f0 40 eb 7b 0f 3d 2f b5 ef 40
       0.04823264 7.524306 0.035030287 7.490867
000050 a8 ac da 3c f3 52 ee 40
       0.026693657 7.4476256

network_body.observation_encoder.processors.0.normalizer.running_variance f4 [22]
000000 1c 52 79 45 d6 42 92 4c 2c 9d c4 45 ee 46 92 4c
       3989.1318 7.668293e+07 6291.6465 7.669131e+07
000010 6b 4f 2e 46 df 2f 92 4c 1e 05 97 46 be 0b 92 4c
       11155.8545 7.664409e+07 19330.559 7.65701e+07
000020 bb 35 e9 46 a3 d2 91 4c 3c f6 16 47 97 8b 91 4c
       29850.865 7.6453144e+07 38646.234 7.630764e+07
000030 0c 85 22 47 c8 37 91 4c 51 a7 13 47 cd e0 90 4c
       41605.047 7.6136e+07 37799.316 7.5957864e+07
000040 ea 2f e8 46 c9 9e 90 4c 19 f9 aa 46 ff 82 90 4c
       29719.957 7.5822664e+07 21884.549 7.576575e+07
000050 6f 69 83 46 de 85 90 4c
       16820.717 7.577163e+07

network_body.processors.0.normalizer.running_mean f4 [22]
000000 6b 1f cb 3b 80 e1 f1 40 40 c8 20 3c 60 b9 f1 40
       0.0061988137 7.558777 0.009813368 7.553879
000010 76 ac 8f 3c 49 99 f1 40 4a 5f fc 3c d6 8b f1 40
       0.01753829 7.5499616 0.030807156 7.54832
000020 70 7a 46 3d 5b 82 f1 40 8a 94 82 3d ee 90 f1 40
       0.04845661 7.5471625 0.06375988 7.5489416
000030 bb 5f 8d 3d 0b 95 f1 40 63 07 7f 3d 7a 62 f1 40
       0.06903025 7.5494437 0.062262904 7.543271
000040 97 8f 45 3d 1d c7 f0 40 eb 7b 0f 3d 2f b5 ef 40
       0.04823264 7.524306 0.035030287 7.490867
000050 a8 ac da 3c f3 52 ee 40
       0.026693657 7.4476256

network_body.processors.0.normalizer.running_variance f4 [22]
000000 1c 52 79 45 d6 42 92 4c 2c 9d c4 45 ee 46 92 4c
       3989.1318 7.668293e+07 6291.6465 7.669131e+07
000010 6b 4f 2e 46 df 2f 92 4c 1e 05 97 46 be 0b 92 4c
       11155.8545 7.664409e+07 19330.559 7.65701e+07
000020 bb 35 e9 46 a3 d2 91 4c 3c f6 16 47 97 8b 91 4c
       29850.865 7.6453144e+07 38646.234 7.630764e+07
000030 0c 85 22 47 c8 37 91 4c 51 a7 13 47 cd e0 90 4c
       41605.047 7.6136e+07 37799.316 7.5957864e+07
000040 ea 2f e8 46 c9 9e 90 4c 19 f9 aa 46 ff 82 90 4c
       29719.957 7.5822664e+07 21884.549 7.576575e+07
000050 6f 69 83 46 de 85 90 4c
       16820.717 7.577163e+07

network_body._body_endoder.seq_layers.0.weight f4 [128, 22]
000000 7a 8a 50 3e b0 74 b3 3d b2 7c 0a bd 6b 86 21 be
       0.20365325 0.08762491 -0.033810325 -0.15773933
000010 32 b1 56 3e c9 38 a7 be 5c ab 74 3e c6 39 15 3e
       0.20966032 -0.3266051 0.23893493 0.1457282
000020 25 19 6d 3e 3e 53 60 be e3 38 81 3d 29 83 0c bf
       0.23154123 -0.21906754 0.063096784 -0.54887635
000030 1c 12 e2 bd ea ba b6 bc f9 8f d6 bd b0 cb 28 be
       -0.1103861 -0.022305924 -0.10476679 -0.1648395
000040 2c f4 d0 3c 5f 61 e1 bc aa 5e 51 be a3 6b 87 be
       0.025507055 -0.02751225 -0.20446268 -0.26449308
000050 db 0b d7 3b 67 ed 04 3f 38 fc 8f be 00 91 8b 3e
       0.0065626926 0.5192475 -0.28122115 0.27259064
000060 1e 2d 71 3d 07 98 89 be e0 3f 5b 3e 67 d8 e9 bd
       0.058880918 -0.268738 0.21411085 -0.114182286
000070 59 08 2b be cd 4a e8 bc 58 81 b5 3e aa 9f 96 3d
       -0.16702403 -0.02835598 0.35450244 0.07354672
000080 e9 17 a7 be cb 0e b9 3d 95 d6 87 3c 8a 97 fd 3d
       -0.3263543 0.09036025 0.016581813 0.123824194
000090 ac 59 d2 bc 47 ca ae bc 9f bf 31 3e e9 d5 1b 3e
       -0.025677525 -0.021336688 0.17358254 0.15218319
0000a0 0b f3 72 bd 4b 86 8b be 38 70 c1 bd 4f 7d 7d bc
       -0.059313815 -0.27250895 -0.09445232 -0.01547177
0000b0 41 ba 91 3e 5d b2 1e bd b1 3b 53 be bc f6 3a be
       0.28462413 -0.03874432 -0.20628239 -0.18258184
0000c0 7b 67 6b be f7 b5 4a 3e c9 c2 a6 be d9 2e 9f 3b
       -0.22988693 0.19795977 -0.32570484 0.0048578796
0000d0 2d 3a cb 3c fa 34 b6 3b 54 ba ca 3d 2f da f4 3e
       0.024808014 0.0055605145 0.098988205 0.4782271
0000e0 b4 86 86 3d eb dc c5 bd 4f 5c 86 3d bb 84 33 3e
       0.06568661 -0.096612774 0.06560575 0.17531101
0000f0 b1 09 8f 3c 5d b3 15 be 63 12 ef 3e 70 bb 1d 3e
       0.017460676 -0.14619203 0.46693715 0.15403533
000100 90 b1 6c be 17 89 62 bd 68 00 c2 be 81 b5 a0 bc
       -0.2311461 -0.05530652 -0.37890935 -0.019617798
000110 25 4d a4 be 25 49 a0 be 4c 06 c8 3d 61 5c 5b 3e
       -0.32090107 -0.31305805 0.09766826 0.21421959
000120 49 94 9b be a5 98 1c 3c f6 43 15 3e fc 0f 05 3f
       -0.3038657 0.009557878 0.14576706 0.51977515
000130 14 a7 b6 bd ad 44 b7 bd 47 54 ee be 73 1f 89 be
       -0.089185864 -0.08948646 -0.46548674 -0.26781806
000140 6f c7 f1 be c7 c5 a2 bc 96 74 92 bd 9b 04 1f 3c
       -0.47222468 -0.019869698 -0.07151143 0.009705688
000150 0f 77 b3 3d 0d 96 a3 3e 7e 2d 1d bf 1a 2c 46 be
       0.08762943 0.31950417 -0.6139754 -0.19352761
000160 7d 37 8d bd 8c 58 f9 3e 3a c6 5c be bf 74 e3 3e
       -0.06895349 0.48700368 -0.21559992 0.44425008
000170 9b 70 f4 3d 39 d7 55 bd f0 41 86 bd 61 cb 85 3d
       0.1193554 -0.052207205 -0.06555545 0.06532932
000180 52 2b 3c 3d dc 2e 84 bd 0e 0c ab bd a6 da 08 be
       0.04593975 -0.0645425 -0.083519086 -0.13364658
000190 15 db 2c bd a4 9e ee 3d 35 90 bb 3d c3 d2 80 3d
       -0.04220112 0.11651352 0.09158365 0.062901996
0001a0 09 03 0a 3e 27 a5 7b 3e a7 b3 e0 3c 33 84 ce be
       0.1347772 0.2457472 0.027429415 -0.40335235
0001b0 dd 18 01 3e 36 e2 25 3e 07 0f 21 be 1d 7d 3d be
       0.12607141 0.16199574 -0.15728389 -0.18504758
0001c0 90 16 d2 bd c4 e8 af bc 66 8b 9e bd 5e 45 82 3c
       -0.1025821 -0.021473296 -0.07741432 0.015902217
0001d0 a8 3f 34 be ca 44 4d be 1d fa c5 be 60 99 ad be
       -0.17602408 -0.20045772 -0.38667384 -0.33906078
0001e0 7d 86 fc 3e 49 4a ae bc c3 24 8f 3e ab 12 89 3e
       0.49321356 -0.021275656 0.27957734 0.26772055
0001f0 ba af 02 3e c7 b3 ef 3d 77 3e 10 3e c2 4c 3c bf
       0.12762347 0.11704212 0.14086328 -0.73554623
000200 41 68 e6 bd 9a b0 ca be cb 22 20 be e7 be 09 be
       -0.112503536 -0.3958786 -0.15638272 -0.1345173
000210 5d b0 af 3e 60 d8 45 bd 00 18 72 3e 55 6d 9e 3e
       0.34314242 -0.048302054 0.23641968 0.3094279
000220 64 62 03 be 6c 66 96 bd ba e2 06 3f f3 00 ac 3e
       -0.12830502 -0.07343754 0.5268971 0.33594474
000230 bc 6d a7 be e5 8b 47 3e a0 7f 88 3d a0 7c 2f bc
       -0.32700908 0.1948696 0.066649675 -0.010710865
000240 86 eb c5 3d 8c 99 a8 bd b3 ac b1 3d 2f 59 d1 bc
       0.09664063 -0.08232412 0.08675518 -0.025555221
000250 cc 3a 92 3d 82 e3 74 3e 8e 73 d7 3d 91 da 7f be
       0.07140121 0.23914912 0.10520087 -0.2498572
000260 47 92 a6 bd ab b6 8b bd f1 99 1e 3e 37 63 92 3d
       -0.08133369 -0.068219505 0.15488411 0.0714783
000270 6d 59 0d bc e3 90 41 be ae a5 f1 3d fa 16 df 3d
       -0.008627278 -0.18902926 0.11799179 0.10893054
000280 2b 93 f0 be be a9 8b 3e 78 e2 31 3e 6c e3 26 3e
       -0.4698728 0.2727794 0.17371547 0.16297692
000290 19 c7 f5 3e 21 b1 5f 3e e1 41 0b be 4a c0 ab 3d
       0.48003462 0.21844913 -0.1359935 0.083862856
0002a0 74 fd 8b 3d 75 7b 9e bc f5 8b e7 3e 34 46 e6 3e
       0.06835452 -0.019345978 0.45223966 0.44975436
0002b0 b1 b6 e6 3d 19 da 16 be fa bd ff 3c 83 0a d4 3a
       0.11265314 -0.14731635 0.031218518 0.0016177449
0002c0 c1 36 cb 3d 0d ae 82 3d 85 b9 25 bc b4 10 83 bd
       0.09922553 0.06380854 -0.010115032 -0.0639967
0002d0 db 8b a5 bd 16 b3 d8 3a e2 0d f7 3d 70 b2 c1 bd
       -0.08083316 0.0016532864 0.12063195 -0.094578624
0002e0 b6 34 30 bd a4 58 8b 3e fe f8 e4 3d 0b 59 0e be
       -0.04301902 0.27216065 0.11180304 -0.13901155
0002f0 4d 2b 1d be 1a aa 8a 3e e5 7c 75 3e 24 c6 fe 3b
       -0.15348549 0.27082902 0.23973425 0.007775085
000300 19 b8 aa 3c d5 72 9e 3e 1e 48 29 be 6c 44 1b be
       0.020839738 0.30946985 -0.16531417 -0.1516282
000310 ee 68 88 be e0 9f d1 3c b2 29 3c be b1 1c 1b be
       -0.26642555 0.02558893 -0.1837528 -0.15147664
000320 15 10 2b be 16 e5 0a be 4f ce 1e 3e 76 f8 bc 3d
       -0.16705354 -0.13563952 0.15508388 0.09227078
000330 e4 b5 00 3e 5c 44 69 3e e0 22 cd bc 60 58 48 3e
       0.12569386 0.22779983 -0.025041044 0.19564962
000340 4b 58 34 3d c0 92 2e be f4 0d d5 3d 55 f1 97 be
       0.044029515 -0.17048168 0.10403052 -0.2967631
000350 58 2e c8 3c a6 be 2c 3e 58 da 48 3e c3 49 1f bd
       0.02443616 0.16869602 0.19614542 -0.038888704
000360 69 34 96 3e e8 29 57 3c 1f 7c fc 3d 83 ec 47 3e
       0.2933686 0.01313255 0.12328362 0.19523816
000370 a7 bd cb 3d 01 de 90 3d db a3 36 3e 1f 9b a4 3d
       0.09948283 0.07073594 0.17835943 0.080373995
000380 ee 5d a5 be 56 e4 21 3d 14 63 0c bd c1 96 2d bd
       -0.32298225 0.0395244 -0.034274176 -0.0423801
000390 a4 66 e4 be 6d 24 33 3e 8b 2c b6 3e f4 90 07 bf
       -0.4460956 0.17494364 0.3558086 -0.52955556
0003a0 ba e0 0d 3e c3 8f d2 3e 6f 9e 5f 3d 86 52 09 be
       0.13855258 0.41125306 0.054594453 -0.13410386
0003b0 de f7 f3 3e c0 bd 47 3d f3 c7 3c 3d 9d 2d 94 be
       0.47650045 0.048764944 0.046089124 -0.2894105
0003c0 25 2d 0b 3e 9d e7 2d 3d 71 1e d3 3d a1 97 6d bb
       0.1359144 0.04245721 0.103085406 -0.0036253708
0003d0 e7 56 b2 3b 13 7d 96 3e 41 7c a5 be 52 eb ce 3e
       0.0054424885 0.293923 -0.3232136 0.4041391
0003e0 77 da 12 bf 9d be 54 be 82 d0 14 3e ee a3 be 3e
       -0.573646 -0.20775838 0.14532664 0.37234443
0003f0 c4 03 84 3e 16 a1 70 be 04 c8 98 3e db 61 66 be
       0.25784123 -0.2349895 0.298401 -0.22498266

network_body._body_endoder.seq_layers.0.bias f4 [128]
000000 bc a3 d6 bd d4 7f 82 bd 21 fb f3 3d 90 11 27 3e
       -0.104804486 -0.063720375 0.119131334 0.16315293
000010 4d f9 12 be f4 ef da bd 98 5d b7 bd 6c 6e 32 bd
       -0.14352913 -0.10690299 -0.089533985 -0.043562338
000020 81 ff b2 bd 4f 4c 5c bd a5 4d 5f bc 87 a1 f8 3d
       -0.0874014 -0.05378371 -0.013629352 0.12140184
000030 61 2c 87 3d e4 e6 b6 39 99 ef 10 be 4b 79 0d bd
       0.066002615 0.00034885772 -0.14153899 -0.034539502
000040 fe 79 3d 3d d5 7b 84 3c 51 b2 4e 3d 57 7e 74 bc
       0.04625892 0.016172329 0.050463025 -0.0149227
000050 23 09 da 3d fc 41 93 bd 61 fe a2 3c 1c 09 b4 bb
       0.10646274 -0.0719032 0.019896688 -0.00549425
000060 d5 43 57 3c 83 92 13 3e 6b 0b 39 3e a3 da 26 be
       0.013138731 0.14411359 0.18070762 -0.16294341
000070 c9 76 6a bd 39 43 b4 3d f5 e0 87 bd 1b 00 e3 3d
       -0.05724219 0.08801884 -0.06634704 0.110840045
000080 26 75 d3 3d ed a3 71 3d c9 b5 9a bd 9b a3 4e bd
       0.10325079 0.058994222 -0.07554204 -0.050448995
000090 9e 7c 7f bc 78 ed e8 3b bb 46 22 3d 23 38 de 3d
       -0.015593676 0.0071083866 0.039618235 0.10850551
0000a0 2e fc 10 3e 92 c6 f7 bd 2a 0d 85 3d 62 75 12 3d
       0.14158699 -0.12098421 0.064966515 0.035756476
0000b0 34 eb 6a bd be e9 c7 3b 3d 49 a3 bd 0a 7c de bd
       -0.057353213 0.0061008623 -0.079729535 -0.10863502
0000c0 c1 cb e7 bd 6f 4d 8c bd 09 08 d0 3d 7a 8a 4b bc
       -0.1131816 -0.06850707 0.101577826 -0.012423152
0000d0 40 91 fa bd 66 16 12 be 6d bc 55 bd 95 6a bb bc
       -0.122347355 -0.14266357 -0.05218165 -0.02287797
0000e0 ed f9 77 3d de b7 79 bc 98 4f a1 bd 6b d2 09 be
       0.060541082 -0.015241591 -0.078765094 -0.13459174
0000f0 b4 22 77 bd 21 46 f0 bd 3a c6 db bd 52 57 8a bc
       -0.06033583 -0.11732126 -0.10731168 -0.01688734
000100 c3 e7 e5 bc 15 af fd bd bf 63 eb bd c4 11 47 3d
       -0.028064614 -0.1238691 -0.114936344 0.048600927
000110 68 76 94 bc 6a 12 09 bd de 74 ae bd dc 06 85 bd
       -0.018122867 -0.033464827 -0.085183844 -0.06495449
000120 a3 db 0a bd 24 f2 9a bd b1 29 6e bd 15 4b f7 3d
       -0.03390087 -0.07565716 -0.05814523 0.12074868
000130 d2 b1 d2 3d ae b0 d6 bc 24 eb 9d bc 59 2e 3c 3d
       0.10287823 -0.026207294 -0.019277163 0.045942638
000140 02 48 40 3d 9b 95 e0 bd 4a f2 4c 3b 40 89 2c be
       0.046943672 -0.10966035 0.0031272345 -0.16849232
000150 26 da 13 be 6a ce 1a 3e e6 13 e0 3d e3 2f 06 3e
       -0.14438686 0.15117803 0.10941295 0.13104205
000160 7b cd 3e bd a6 c8 56 3a eb 59 26 be 87 f2 09 be
       -0.04658268 0.0008193351 -0.16245238 -0.13471423
000170 98 58 cd bd f6 f1 90 bd fe a4 7a bb dd dd 3b bd
       -0.100266635 -0.070774004 -0.0038245316 -0.045865882
000180 53 bb 29 be ac 47 03 be 66 53 31 bd 65 18 d3 bd
       -0.16575365 -0.1282031 -0.043292426 -0.10307387
000190 a6 3b a6 bd 58 21 9d bd 92 e3 10 bd 93 fa 25 be
       -0.08116846 -0.076723754 -0.035373278 -0.16208868
0001a0 ac af 08 be 90 98 1c bd 5b b5 13 bd 51 95 a6 bd
       -0.13348264 -0.038231432 -0.036061626 -0.081339486
0001b0 50 89 19 3d e7 e5 38 be ac 96 0f 3e 78 24 09 3d
       0.037484467 -0.18056451 0.1402232 0.033482045
0001c0 d2 89 64 bd b8 bb c4 bd 6a cd 21 3d f1 98 8f 3d
       -0.0557955 -0.09606117 0.03950254 0.07011593
0001d0 7e 4e ce bb ae 46 da bd 78 9f 6e bb 2e 94 9e 3d
       -0.006295978 -0.10658012 -0.0036410969 0.07743107
0001e0 4b 37 14 3e 09 e3 33 3e d7 e4 39 bd 26 7f c0 3c
       0.14474218 0.17567076 -0.045384254 0.02349813
0001f0 17 7a c0 bd 2f 97 15 be 33 9a 41 3d 94 12 95 bd
       -0.09398287 -0.14608453 0.047266196 -0.07278934

network_body._body_endoder.seq_layers.2.weight f4 [128, 128]
000000 f0 43 75 3c 6c 62 b3 bd de 2e 17 3d 4b 8a d0 bd
       0.014969811 -0.08759007 0.03690993 -0.10182627
000010 99 95 11 be d7 a7 a1 bd 65 da 18 3d 50 86 bb 3d
       -0.14217223 -0.07893341 0.037317652 0.091564775
000020 58 33 56 be 1c f0 8e 3d 23 9c 48 bd ce 50 b6 3c
       -0.20918024 0.06979391 -0.04897703 0.022255328
000030 de 3d d9 bc 8d e4 c0 3d 75 d0 e5 3c 8b a1 8c bd
       -0.026518758 0.094185926 0.028053502 -0.068667494
000040 64 6d 69 3d af 49 16 3e 51 61 91 bd 7f 7e b7 3d
       0.05698909 0.14676546 -0.0709864 0.08959674
000050 f7 9b 9b bd 17 3e a8 bc c5 a0 18 be 47 22 5a 3e
       -0.07598107 -0.02053742 -0.14905079 0.21302138
000060 57 4d 2a be c8 12 b3 bd 89 ec 78 be 58 d3 b7 3d
       -0.16631065 -0.087438166 -0.24308981 0.089758575
000070 25 38 f7 3d d8 15 c8 3c aa ad cc bc 8b 27 0f 3d
       0.120712556 0.024424478 -0.024985153 0.03494982
000080 a7 c7 bb 3d 87 f7 1a 3e b8 b3 a8 3c 2c 35 ad bd
       0.0916894 0.15133487 0.02059351 -0.08457407
000090 10 d3 95 3d e2 50 fe 3d 4e fd c8 bd 9f ea 65 be
       0.073156476 0.12417771 -0.09813939 -0.22452782
0000a0 4e e4 b2 bc d6 f8 9d 3d 06 97 0c be dc ba 36 be
       -0.02183738 0.07713477 -0.13729486 -0.17844719
0000b0 73 6d 22 bc 9f a9 22 be 5c f6 94 3c 4a 95 4e be
       -0.00991379 -0.15885018 0.01818388 -0.20174137
0000c0 97 10 70 3e 63 86 39 bd 05 5a 03 be d1 e5 b1 bd
       0.23443829 -0.045294177 -0.12827308 -0.08686412
0000d0 26 99 eb 3c 02 c5 18 3d c5 35 6a 3c ef dc 2c bc
       0.02875955 0.037297256 0.014295046 -0.010550722
0000e0 bc 77 d4 bd 90 02 22 be 49 c6 08 3e cf e1 03 be
       -0.103744 -0.1582129 0.1335689 -0.12879108
0000f0 61 c0 50 bd b3 83 53 3e 12 b9 07 be a1 17 de bd
       -0.050964717 0.20655708 -0.13254192 -0.108443506
000100 fe ff e7 bd 0f 32 84 bd 45 77 fb bc a7 76 1b be
       -0.113281235 -0.064548604 -0.03069652 -0.15181981
000110 ed 45 f0 3d 02 95 dc bd 93 4f 1b 3d 13 99 84 3d
       0.11732087 -0.107706085 0.037917685 0.06474509
000120 13 9d ce bb 61 a8 73 bd db 83 b1 3c 5c 7a 51 be
       -0.006305346 -0.05948675 0.021669319 -0.20456833
000130 33 ff c1 3d 86 51 ad bd 23 2c 6d 3d 5f 10 62 be
       0.094725035 -0.08462815 0.05790342 -0.22076558
000140 23 4e 19 be 2b 37 b6 bc e9 65 51 be 03 77 7a bc
       -0.14971213 -0.022243103 -0.20449032 -0.015287164
000150 99 15 73 3d 6c d5 19 be 1d 1d 88 bd 6e a2 03 be
       0.05934677 -0.1502282 -0.06646178 -0.12854931
000160 99 b8 26 be 46 8b 85 3d 3b ee 5e 3e 95 10 aa 3d
       -0.16281356 0.06520705 0.21770565 0.08303944
000170 af 60 ab bc 5e 40 c6 3d af b6 67 bc 0c a6 1b bd
       -0.020920126 0.09680246 -0.014142676 -0.03800015
000180 da dc 25 be 2d a7 7e 3d 6d 9b 84 bd 39 8d a7 3d
       -0.1619753 0.06217115 -0.064749576 0.08181233
000190 c4 d1 e3 3d 89 49 88 bc 13 42 c7 bb 42 a6 21 bb
       0.11123994 -0.016636627 -0.0060808747 -0.0024665748
0001a0 69 c4 0f 3c 7b 60 49 bd ca 2a 98 bd 4c 09 17 bd
       0.008774855 -0.049164277 -0.07430036 -0.0368741
0001b0 fb 4a 91 3d e0 29 01 bd 07 2c 7b be 8c e5 39 3e
       0.070943795 -0.031534076 -0.24528514 0.18153971
0001c0 55 01 15 3e 50 6d d0 bd 5c e8 1e 3d b2 bd c0 3d
       0.1455129 -0.101771 0.038795814 0.094111815
0001d0 58 05 7f bc a6 19 44 bd 64 29 a2 bc 34 57 80 be
       -0.015565239 -0.047876023 -0.019795127 -0.2506653
0001e0 51 37 cb be 20 82 9f bd 56 0b 9a bd 6b 69 e1 3c
       -0.3969064 -0.07788491 -0.075216934 0.027516088
0001f0 43 bb c6 3d 74 95 c6 3d 3e 0f fd bd ac 4c 1f be
       0.09703686 0.09696475 -0.12356423 -0.15556592
000200 e9 3c a8 3c e8 c9 ba 3d 10 ac f0 bd 5a 79 3c be
       0.020536857 0.09120542 -0.11751568 -0.18405667
000210 77 7a 8f 3d 91 8f 69 3d ba d2 a8 bd 48 82 85 bc
       0.0700578 0.05702168 -0.08243318 -0.016297475
000220 1c 51 13 be be 5a 15 bd 7b f5 1f be 66 ca a2 bd
       -0.1438641 -0.03646349 -0.15620987 -0.07948761
000230 15 d1 f7 bc 18 5e 89 bd 33 bc c7 bd 22 fc 26 bd
       -0.030251065 -0.067074 -0.09752693 -0.040767796
000240 49 31 1e bc 2f ee cd 3d f2 0b 4e 3d 03 5c e0 bd
       -0.009655305 0.100551955 0.05030436 -0.1095505
000250 aa a4 30 3e 3b 94 94 3d 86 84 1f be a5 f1 4a 3e
       0.17250314 0.07254835 -0.15577897 0.19818743
000260 86 b2 62 bd 5b bd 0f bd f0 d7 3f 3c 6f 1c ea 3d
       -0.055346034 -0.035092693 0.011709198 0.114312045
000270 d5 13 66 bd 1c ac 41 bd d8 fd 17 3e 44 54 81 bc
       -0.056171257 -0.047283277 0.14842927 -0.015787251
000280 e6 17 3f 3c 5e 94 11 3c ab 78 69 3b b5 8f e2 ba
       0.011663413 0.008885471 0.0035624902 -0.001728526
000290 98 af 11 bc 74 0e 85 bd 96 11 be 3c 3b 46 35 bd
       -0.0088919625 -0.06496897 0.023201745 -0.04425643
0002a0 2e 74 6d be c1 3b 35 bd 1f e5 c3 bd 2f 24 8f bc
       -0.2318885 -0.04424644 -0.09565186 -0.017473308
0002b0 cb f0 84 3d c4 16 cd 3d e3 1c 9a 3d 28 bb 1c be
       0.0649124 0.10014108 0.07525041 -0.1530577
0002c0 25 f8 7c bd 19 f7 1b 3e 19 23 0e bd c5 4b bf bd
       -0.061760087 0.15230979 -0.03470144 -0.09340624
0002d0 cf a0 87 bd 2d 4f 13 3e 11 d6 3d bd f6 ab 66 3d
       -0.06622469 0.14385672 -0.046346728 0.05631634
0002e0 92 d1 9d 3d 34 82 ab 3d f9 9f d1 bc 9d 81 6b 3c
       0.07705988 0.08374444 -0.025588976 0.014374164
0002f0 00 3c 8c bd 02 68 22 3d 05 63 03 3e bd a2 2e bd
       -0.068473816 0.03964997 0.12830742 -0.042635668
000300 cd 11 c0 3d cf a0 d0 bd 7d 7c 8c bd d2 8a ed bd
       0.09378395 -0.10186922 -0.06859682 -0.115987435
000310 64 70 36 3d b0 7d 0c 3e 0c 37 80 bd 11 77 99 3d
       0.044540778 0.13719821 -0.06260499 0.07493413
000320 5b 1d 48 3d 81 8b 7c 3d 3b ec 5c 3d 54 52 8a 3c
       0.04885612 0.06165648 0.053936224 0.01688496
000330 85 9c 4c be 0a 3f 50 bd 50 07 30 3d 17 43 27 3d
       -0.19981582 -0.05084137 0.042975724 0.040835466
000340 55 60 00 be d6 21 ce bd 7d 8b 8a bc 78 f8 c6 bd
       -0.12536748 -0.100650474 -0.016912216 -0.097153604
000350 04 79 b4 bd 91 e2 a0 3b 8a a5 01 3d 20 d6 9c 3d
       -0.088121444 0.0049098213 0.03165201 0.076580286
000360 70 b5 6b 3d e1 cf 73 be cf 49 ee 3d 4f fe ae bb
       0.05754608 -0.23809768 0.116351716 -0.0053403745
000370 1b da b7 3d f6 4f 68 bd cf 13 b9 bd 05 5c 00 be
       0.08977147 -0.05671688 -0.09036981 -0.12535103
000380 a4 6c b9 bd 8b c2 1c bc 97 e8 38 3d 31 0e b9 bd
       -0.09053925 -0.009567867 0.04514369 -0.0903591
000390 93 25 d0 bd 5b 28 d9 3d 6b 96 19 be e3 7e 9c bc
       -0.10163417 0.106034 -0.14998786 -0.019103473
0003a0 a4 66 f6 3c e6 a3 ed 3c 44 16 5d bc 2d 5e 06 bd
       0.03007824 0.029008817 -0.013494078 -0.032804657
0003b0 10 47 15 be a8 a3 d5 bb 05 e5 17 3d 50 12 2a be
       -0.1457789 -0.0065197535 0.037083644 -0.16608548
0003c0 1f b0 08 bd d5 fa cc bd 16 a4 b7 3d 7f b9 24 3e
       -0.033371087 -0.1000878 0.08966844 0.16086386
0003d0 c6 89 85 bd 77 9c e0 bd ea 00 e7 bd 3c 50 82 3d
       -0.06520419 -0.10967343 -0.11279471 0.0636296
0003e0 09 92 1a 3e ae 90 8d 3d 6f b1 1e 3d 53 1e 00 be
       0.1509477 0.06912361 0.038743433 -0.12511568
0003f0 a2 52 38 be 2d 24 68 be 95 db 72 bd 4c fc 20 3e
       -0.18000272 -0.2267005 -0.05929144 0.15721244

network_body._body_endoder.seq_layers.2.bias f4 [128]
000000 41 6f 27 be 5e 9d 41 3c d4 68 49 be 7d 83 7e bd
       -0.16351034 0.011817304 -0.19668895 -0.062137116
000010 13 ce d3 bd c3 26 cc 3d de 04 a1 bd f2 9f 1b be
       -0.1034204 0.09968331 -0.078622565 -0.15197733
000020 5b 6f 2a be ae fb c5 3c ac c8 18 3e 44 13 fa bd
       -0.16644041 0.024167862 0.149203 -0.12210706
000030 a3 ca 0e bd 70 2a 58 be 01 db c8 3d 3b da bf bc
       -0.03486122 -0.21109939 0.09807397 -0.02341949
000040 54 b0 85 3d 99 a5 2e be 82 fd 54 3d 77 7f 01 3d
       0.065277725 -0.17055358 0.051999576 0.0316157
000050 d2 0f ec bd 58 21 b8 3b 10 ac c1 bd 7c c7 30 3c
       -0.11526455 0.0056192093 -0.094566464 0.010789748
000060 00 ee 9f 3a c0 7c 3e bd 23 5e 9b bc 7e b9 bd 3d
       0.0012201667 -0.04650569 -0.018965786 0.092638955
000070 57 b5 e5 bd 28 71 b2 3d 00 4b 9a bc 68 9f 93 bc
       -0.112162285 0.08712989 -0.01883459 -0.018020347
000080 17 43 5f 3d 3d 04 37 be 62 ad eb 3b f8 b8 50 bd
       0.05450734 -0.1787271 0.0071922997 -0.05095765
000090 f4 34 10 be a4 b1 1a 3d 53 b2 c4 3d f1 f0 2a bd
       -0.140827 0.037767068 0.09604325 -0.041733686
0000a0 ca 3a 38 3d 58 22 ec 3d 9d a3 c5 bb 63 0a 91 3d
       0.04497794 0.11529988 -0.006031467 0.07082059
0000b0 f4 2e 82 bd 71 87 48 3d 18 b6 8e bd e7 f8 7c be
       -0.06356612 0.048957292 -0.069683254 -0.24704324
0000c0 8c 25 77 3d 28 6b cf bd 31 b2 9e 3d 7e c0 1c 3c
       0.060338542 -0.1012786 0.07748831 0.009567378
0000d0 a1 f5 23 bd d5 9b a4 bd 9e af 14 3e 30 ef 36 bd
       -0.04002917 -0.08037535 0.14520118 -0.0446617
0000e0 1e 07 2d bd 67 f3 4b bd c2 62 29 be 4f cc f7 3c
       -0.042243116 -0.049792673 -0.1654158 0.03024879
0000f0 06 76 53 bd aa ee a5 3c 00 0a a9 bd 5d b8 03 3e
       -0.051626228 0.020255405 -0.082538605 0.12863298
000100 6f ab e6 3c 22 28 a8 3d 81 4c f9 bb d9 b4 28 be
       0.028157918 0.0821078 -0.007607997 -0.16475238
000110 ac de 15 be 98 3b e4 3d ef bb 22 be 2e 68 2e be
       -0.14635724 0.11144179 -0.15892003 -0.17031929
000120 05 98 08 3e fb 4b 3d be 51 71 05 3e 27 09 a9 3d
       0.13339241 -0.18486015 0.13031508 0.08253699
000130 ea 0a ff 3c 55 35 ca 3d b2 81 11 be c4 b2 15 be
       0.031133134 0.098734535 -0.14209631 -0.14618975
000140 d7 ef 2d be d4 6b dd bd 52 17 95 3d 10 76 55 3d
       -0.16986023 -0.10811582 0.072798386 0.052114546
000150 5f 54 3e be d8 c6 e7 3d 4f 67 3f be 7a 79 81 bd
       -0.18586873 0.11317223 -0.18691753 -0.06321998
000160 65 36 60 bd 5a c2 3c 3d 93 3a 39 bc 24 d3 09 3e
       -0.054739375 0.046083786 -0.011305469 0.1345945
000170 4b f5 96 3d 99 55 aa 3d b6 30 0d 3e d5 0c b9 3d
       0.07371005 0.08317108 0.13788113 0.09035651
000180 e6 ad 39 3d d6 9b 9a bd f4 5f c3 bc 83 08 89 3d
       0.045331858 -0.075492546 -0.023849465 0.066910766
000190 0c 17 14 bd ad 29 bd 3c c9 0c 0d be 6c 9e 01 3d
       -0.03615479 0.023091162 -0.13774408 0.031645223
0001a0 42 fb 43 bd e4 ea fd bd 28 1b 9c 3d ba 82 04 be
       -0.04784704 -0.123983175 0.07622367 -0.12940493
0001b0 5a 1f 15 3e 81 ec 81 be 8d f7 4a 3e d6 42 23 be
       0.14562741 -0.2537575 0.19820996 -0.15943465
0001c0 76 1f d8 bc 11 b8 bc bd 43 7e 51 bd 25 07 3a 3d
       -0.02638219 -0.092147954 -0.051145803 0.04541697
0001d0 e7 52 ab 3d cb bd 0f be ec a1 a6 bc 15 cd a9 3c
       0.08365422 -0.14037244 -0.020340882 0.020727674
0001e0 4b ed 07 3d a1 dd 40 3d 94 04 c5 3d f6 9c 6d bc
       0.033185285 0.04708636 0.09620014 -0.014502754
0001f0 96 a9 32 be ca 2b 94 3d 8b 2a ad bd e4 40 0a be
       -0.17447504 0.072349146 -0.0845538 -0.13501316

action_model._continuous_distribution.log_sigma f4 [1, 3]
000000 4b e9 db be d7 93 90 be c8 80 eb bd
       -0.42951426 -0.28237793 -0.114991724

action_model._continuous_distribution.mu.weight f4 [3, 128]
000000 11 d3 a6 bd c3 e1 81 3b 7a 3a 53 bd 33 0d 08 3b
       -0.081457265 0.0039636805 -0.05156944 0.002075982
000010 d7 19 91 bc 5a ed 93 3d 88 08 10 bb 95 4a 11 bd
       -0.017712517 0.072230056 -0.0021977741 -0.035471518
000020 fc 7e 4d bd 08 73 87 3c 66 3a a7 3d c9 3f 94 bd
       -0.05016993 0.016534343 0.081654355 -0.072387286
000030 dd 01 c0 3b 9d 8c 52 bd 1c 15 81 3d 32 f3 94 bd
       0.005859597 -0.05140363 0.063028544 -0.07272948
000040 b3 67 db 3c 2f 7f b7 bd 85 8a e1 bc 46 36 bf bc
       0.026782846 -0.08959805 -0.027531872 -0.02334131
000050 ec d4 46 bd 9b 9c 28 3c fc f4 f6 3a 09 82 03 3d
       -0.048542902 0.010291244 0.0018841322 0.032106433
000060 39 0b 19 bd bb 61 86 bd 37 3d 57 3b 3b 17 7e 3d
       -0.03736422 -0.06561609 0.0032842883 0.062033873
000070 23 05 9b bc 03 ee b9 3d 52 f0 84 3c d4 29 8c bd
       -0.018923348 0.090786 0.016227875 -0.068439156
000080 14 cd 64 3c 86 ce 89 bd 50 a4 56 ba 2a d5 c1 39
       0.01396491 -0.06728844 -0.00081879366 0.00036970648
000090 4c bd 78 bd 6b 9f 03 3d 8e be 62 3d f3 50 54 3c
       -0.060727403 0.032134455 0.05535751 0.012958753
0000a0 2f 27 c4 3c 08 94 87 3c 70 07 c8 bb 58 62 8c 3d
       0.023944465 0.016550079 -0.0061044022 0.06854695
0000b0 39 45 3e bc 6f 37 03 3d 9c a8 1b bd 3f 42 cf bd
       -0.011613184 0.032035287 -0.038002595 -0.10120057
0000c0 b6 56 4f 3d 35 29 db bc 84 c1 bc 3c df 2d f3 bc
       0.050619803 -0.026753047 0.023041494 -0.029684959
0000d0 46 0f ca 3b e0 a0 64 bc f6 d3 1f 3e 87 1f 61 bb
       0.0061663715 -0.013954371 0.156082 -0.0034351067
0000e0 01 87 c5 3c 22 86 ea bb f5 e3 2f bd 26 cd 8e 3b
       0.024112226 -0.007157103 -0.042942006 0.0043579517
0000f0 1b 01 96 bd 27 4f 69 3d 01 5e 5b bd 92 6f f4 3d
       -0.073244296 0.05696025 -0.053556446 0.11935343
000100 ba 57 28 bc cf bc 50 3d ec 3e 45 bd 78 8d 93 bc
       -0.010274822 0.050961312 -0.04815571 -0.018011793
000110 8b dc 40 bd b9 38 0c 3d 10 c2 68 bd a1 cb a1 bc
       -0.047085326 0.034233782 -0.056825697 -0.019750418
000120 6b af b3 ba 78 95 5b bd 48 32 b4 3d 99 33 ec 3c
       -0.0013708895 -0.05360934 0.08798653 0.028833197
000130 67 83 08 3d 9d 2e 14 3d 3a 8c 95 bc 66 4a 65 bc
       0.03332844 0.036177266 -0.018255342 -0.013994789
000140 43 08 3d bd bf 4d 27 bb 84 d3 96 3d 10 c2 7c bc
       -0.046150457 -0.0025528518 0.07364562 -0.0154271275
000150 dd df 26 bd b4 d6 99 3d c4 7c 88 bd 95 fb 62 bc
       -0.040740836 0.075116545 -0.06664422 -0.013853927
000160 e4 f0 09 bc 0e 28 7a 3c 43 a2 66 bd 60 3d f0 3d
       -0.008419249 0.015268339 -0.05630709 0.11730456
000170 16 0e 94 3d 0e 80 6b 3d 7d ea 89 3d cd 24 f5 3d
       0.07229249 0.05749517 0.06734178 0.1196991
000180 27 75 0f bb ad 78 c4 3b 56 62 49 3c 99 cb 3b 3b
       -0.0021889897 0.005995831 0.0122915115 0.002865529
000190 f6 50 1c bb 8b 43 9e ba 46 18 0b bd 30 01 09 3c
       -0.0023851967 -0.0012074573 -0.033958696 0.0083620995
0001a0 9b fb 8c bc 5a 2b ef bc 2b 16 66 3c ed 45 2a bd
       -0.017209819 -0.029195476 0.014043371 -0.041570593
0001b0 00 e8 04 3e e2 20 a2 bd f4 1d 12 3e 3e c3 35 bd
       0.12979126 -0.07916428 0.14269239 -0.04437565
0001c0 01 a2 98 3c 26 da 31 bd a5 c7 11 bc 9f 88 69 3d
       0.018631937 -0.043420933 -0.008897697 0.057015058
0001d0 d0 cc 4a 3d da 26 74 bd e0 b4 10 3c 87 a2 89 3c
       0.04951173 -0.059607364 0.008832186 0.016801132
0001e0 01 75 c5 3c 53 6d dc 3c b3 30 8a 3d e6 aa 15 3c
       0.024103643 0.026907599 0.0674757 0.009134984
0001f0 90 0e 6c bd 1f 2c e9 39 ad 07 be bd 4c d7 1d bd
       -0.057631075 0.00044474096 -0.09278808 -0.0385354
000200 0b 9e 74 bb 7f 1f 71 bd 91 98 59 bd 3b 56 db bc
       -0.0037325646 -0.058867928 -0.053124014 -0.026774516
000210 81 7a 81 bd 71 5a d7 bd cf 73 a4 3b b4 76 ab bd
       -0.06322194 -0.10515297 0.0050186883 -0.0837225
000220 64 60 d0 3c 5c f4 e3 3b 64 10 2c bd c0 cb 85 3c
       0.025436588 0.00695662 -0.04200782 0.016332507
000230 45 af b7 bd 92 b8 6a bd 17 b5 d9 3b 95 4e c2 bd
       -0.08968977 -0.057304926 0.006643902 -0.094876446
000240 e3 ca d1 bd 2c 75 9a bd 61 75 4d 3d ea 76 15 bc
       -0.10243776 -0.0754188 0.05016077 -0.00912259
000250 45 56 45 bc 8d 1c 88 3d dd 27 87 3c b5 8b 91 bd
       -0.012044494 0.06646071 0.0164985 -0.07106725
000260 cd 88 69 3d 88 35 b5 bc 88 eb 29 3d bf 3e 87 bd
       0.05701523 -0.022120252 0.041484386 -0.06603765
000270 eb a8 88 bd 71 83 c8 bd 42 5d 80 bd c7 81 90 bc
       -0.066728435 -0.097906955 -0.062677875 -0.017640008
000280 83 79 55 3d 8d 3c ba bd fa 97 91 bb 00 11 9f bd
       0.052117836 -0.090935804 -0.004443166 -0.07766914
000290 df ef 38 bc 60 c6 86 bd 8f 5c 6b 3c cb 41 cd bd
       -0.0112876585 -0.06580806 0.014365329 -0.10022315
0002a0 1c a2 60 3d e0 66 7f 3d eb 05 84 bd 3e 9b ad bd
       0.0548421 0.06235397 -0.06446441 -0.08476876
0002b0 36 40 97 bd b4 20 5f bd 59 b1 58 bd ff 77 42 bd
       -0.07385294 -0.054474548 -0.052903507 -0.04747772
0002c0 db 2e a7 bd fc 62 92 bb 0e 93 07 bd 6e 76 8c bd
       -0.08163234 -0.0044673663 -0.033099227 -0.06858526
0002d0 82 37 a6 bd ab d2 b4 bd 17 de 8e bd 85 87 af bd
       -0.08116056 -0.08829244 -0.06975954 -0.0857077
0002e0 0e 77 4b 3b 85 29 bd bb 9a 8d 4e 3c 1c f4 89 3a
       0.0031046304 -0.005772772 0.012607003 0.0010525021
0002f0 c1 67 9c bd 85 d6 dd bd f8 a0 8f bd 60 b2 b9 bd
       -0.07636977 -0.10831932 -0.07013124 -0.090672255
000300 8e df 57 bd 6e 17 23 bd b0 50 f3 3c 96 a8 50 bd
       -0.052703433 -0.039817266 0.02970156 -0.050942026
000310 50 a7 33 3d e6 ce 0f bc 57 4b 4f 3d 3b e3 d1 bc
       0.043860734 -0.008777356 0.05060896 -0.025621047
000320 17 c3 38 bc 7c 6e 5e bd 85 e7 c1 bd 8f 1f 8c bc
       -0.011276982 -0.054304585 -0.09467987 -0.017104892
000330 90 77 da 3c e1 91 f2 bc 21 d5 cb bc 56 6d 6f bc
       0.02666834 -0.029610576 -0.024881901 -0.01461347
000340 6f 42 13 3c ae a0 a2 bb 68 6e b7 bc 8d 1c 89 bd
       0.008988007 -0.004963002 -0.022391513 -0.06694899
000350 cf b4 2b bd ba 62 6a bc 9f ab 8e bd 12 30 60 bd
       -0.04192048 -0.014305765 -0.06966328 -0.054733343
000360 0c ed a0 bb 50 d1 e2 bd 6e 43 c1 bc a0 5e db bd
       -0.0049110707 -0.110750794 -0.023591723 -0.10711408
000370 77 1e d4 bd e3 24 4a bd fb 4b 72 bc 64 6e cd bd
       -0.10357373 -0.049351584 -0.014788623 -0.10030821
000380 20 f0 b6 3d 20 4d 03 3c e5 86 a6 bd 86 75 80 3c
       0.08932519 0.0080139935 -0.08131198 0.01568104
000390 0f 2f 48 bc 3d 13 83 3d 3c 26 44 3d 10 88 6e 3c
       -0.012218251 0.06400154 0.047888026 0.014558807
0003a0 12 1e b9 bd db 06 70 3d 9b ce 0d 3d b0 ab 98 bd
       -0.090389386 0.058600288 0.034620862 -0.07454622
0003b0 cf b3 86 bd 5e da 91 bd c8 f0 a0 bb 8e 89 a7 bd
       -0.065772645 -0.07121728 -0.004911516 -0.08180533
0003c0 22 6b 0e be 50 11 7f 3d 21 2b 9e 3b fc 6e 68 bd
       -0.13908055 0.06227237 0.0048269187 -0.056746468
0003d0 72 81 21 3d a5 80 85 bd cd a2 03 bd 52 16 53 bd
       0.03943009 -0.065186776 -0.03213768 -0.05153496
0003e0 84 75 b4 bd 69 8c e2 bc 57 16 92 bd d5 05 d6 3c
       -0.08811477 -0.027654843 -0.07133167 0.026125828
0003f0 7c 63 95 bc 44 c3 36 bb 36 54 2c bc 51 90 16 3d
       -0.018235914 -0.0027887383 -0.010518124 0.036758725

action_model._continuous_distribution.mu.bias f4 [3]
000000 ec 06 ef 3d 07 6f ba 3c 37 03 ba 3d
       0.11671242 0.02275802 0.090826444

exp_avg f4 [128, 22]
000000 c8 42 dc b8 8a 63 0f ba 8e 5b 08 b9 75 ca 19 ba
       -0.000105028565 -0.00054698496 -0.00013004077 -0.0005866655
000010 fc 79 39 b9 f9 35 26 ba a6 9d 9e b9 9c 32 25 ba
       -0.00017688418 -0.000634044 -0.00030253566 -0.0006301792
000020 4e 7d fa b9 d1 27 32 ba d7 30 f0 b9 24 3f 41 ba
       -0.00047777075 -0.0006796094 -0.00045812756 -0.00073717744
000030 b8 cf 02 ba 02 29 52 ba 4c f4 ae b9 e8 fb 55 ba
       -0.0004990059 -0.0008016975 -0.00033369882 -0.0008162842
000040 f6 86 98 b9 e6 69 51 ba 77 95 81 b9 a5 d8 4c ba
       -0.00029092253 -0.00079884974 -0.00024716157 -0.0007814265
000050 29 ca 32 39 97 c7 4f ba d4 63 8a 38 9f f6 c0 39
       0.00017050713 -0.00079261645 6.598947e-05 0.0003680484
000060 cc a0 a3 38 64 2f d1 39 e5 8e ea 38 94 03 e7 39
       7.8023964e-05 0.00039898895 0.00011184606 0.0004406242
000070 b3 4b b6 39 1c 39 e6 39 b3 3b a0 39 4f c8 f0 39
       0.00034770145 0.00043911568 0.00030562058 0.0004592561
000080 06 c1 2a 39 b7 20 06 3a 6c ef 32 39 6d 09 13 3a
       0.0001628437 0.0005116569 0.00017064594 0.00056090095
000090 23 c0 6e 39 fb 71 12 3a 3f 86 57 39 89 56 13 3a
       0.00022769025 0.00055864424 0.00020554008 0.00056205
0000a0 0e 3d 2d 39 4a 9e 0e 3a 72 5e b4 39 ed d0 0e 3a
       0.0001652131 0.0005440457 0.00034402643 0.00054480025
0000b0 06 71 d1 37 a5 9f b7 38 5a 30 01 38 04 c4 b6 38
       2.4967372e-05 8.755856e-05 3.0801028e-05 8.714947e-05
0000c0 e4 63 30 38 97 5f bb 38 98 84 5e 38 5c e5 ac 38
       4.20547e-05 8.93466e-05 5.3052412e-05 8.2443206e-05
0000d0 f4 58 e5 38 87 98 cd 38 f4 45 f3 38 a4 57 f4 38
       0.0001093614 9.803572e-05 0.00011600173 0.00011651151
0000e0 ee 0a ef 38 25 ac 0c 39 40 f6 a8 38 3f eb 07 39
       0.00011398444 0.00013415569 8.056732e-05 0.00012962239
0000f0 27 bf 89 38 f0 5c 0c 39 32 16 1f 38 25 db 09 39
       6.568274e-05 0.00013386062 3.7929225e-05 0.00013146976
000100 59 bb 0f 38 c0 7f 0c 39 00 80 6e b3 c0 d3 03 b8
       3.4268338e-05 0.00013399031 -5.553011e-08 -3.143004e-05
000110 00 98 34 b5 30 34 8c b8 00 64 08 b5 40 3c 8b b8
       -6.7276414e-07 -6.685441e-05 -5.080947e-07 -6.639259e-05
000120 10 d6 b0 38 c0 38 da b8 10 1e 34 39 c0 d4 86 b8
       8.432206e-05 -0.000104056206 0.00017177337 -6.429246e-05
000130 a0 39 bf 38 20 54 03 b8 80 73 f2 b6 70 c8 f2 b8
       9.118323e-05 -3.131118e-05 -7.225608e-06 -0.000115767936
000140 00 d4 7a 35 60 79 bf b8 80 2a 94 36 20 90 00 b8
       9.344076e-07 -9.1301976e-05 4.4156914e-06 -3.0651805e-05
000150 80 fa e3 36 00 e3 5d b8 3c 3f 11 39 20 0a 8b b8
       6.794289e-06 -5.2901916e-05 0.00013851834 -6.6299224e-05
000160 4c 57 14 37 4f 86 83 38 e2 88 44 37 0a 4c 7e 38
       8.841813e-06 6.271584e-05 1.1714381e-05 6.0629136e-05
000170 68 3a 77 37 d6 23 65 38 54 98 a9 b7 5c 4e 67 38
       1.4735946e-05 5.463123e-05 -2.0217303e-05 5.514767e-05
000180 00 13 15 b7 c9 ac 81 38 a7 ff 28 38 52 7a 8b 38
       -8.885516e-06 6.183383e-05 4.0292416e-05 6.6508204e-05
000190 78 eb 56 b7 82 23 b6 38 f0 5b fc 37 ae f5 9d 38
       -1.2810218e-05 8.68505e-05 3.0083553e-05 7.532105e-05
0001a0 00 2e de 37 90 c8 ce 38 78 1a f3 37 64 6b dd 38
       2.6485883e-05 9.860203e-05 2.8980183e-05 0.00010558104
0001b0 c9 ed 18 3a c2 43 c6 38 44 3e 27 38 48 08 2e 39
       0.00058337726 9.4539966e-05 3.9873892e-05 0.00016597018
0001c0 30 7b 64 38 1e c5 92 39 04 eb 8d 38 2e bd ba 39
       5.4474163e-05 0.00027994154 6.767179e-05 0.00035617634
0001d0 58 50 a4 38 be 4c da 39 94 13 ea 38 5c 28 be 39
       7.8350946e-05 0.00041637378 0.00011161636 0.00036269694
0001e0 4c f4 0a 39 a4 60 a2 39 a8 b7 ac b9 42 11 da 39
       0.00013251713 0.0003097105 -0.0003294323 0.00041593058
0001f0 4a d2 14 39 78 89 d7 39 a6 41 18 39 80 62 b5 39
       0.00014192719 0.00041110418 0.00014520306 0.00034596398
000200 82 35 f7 38 60 8f b6 39 1e 1a c5 39 ca 9a b9 39
       0.000117878444 0.00034820568 0.00037594227 0.00035401277
000210 a7 33 7b 38 bc 7a a1 39 18 18 97 38 1e d7 b1 39
       5.989117e-05 0.00030799757 7.204729e-05 0.00033920346
000220 64 5c d4 38 62 63 be 39 b6 47 cb 38 ab 34 c0 39
       0.00010126157 0.0003631367 9.6931515e-05 0.00036660334
000230 dc 5a 21 39 55 31 c3 39 90 0a 4d 39 36 78 ca 39
       0.00015388004 0.00037230054 0.00019554258 0.00038618007
000240 94 06 58 b8 52 e8 ee 39 6b e0 48 39 da 56 e7 39
       -5.150454e-05 0.0004556799 0.00019157089 0.00044124463
000250 d1 a8 3b 39 fa 17 de 39 d1 0c 2d 39 fc 71 dd 39
       0.00017896599 0.00042361004 0.0001650334 0.0004223733
000260 34 1c 8d 39 0b 24 e1 39 f1 65 84 37 4e 1d 8e 38
       0.0002691463 0.00042942198 1.5783096e-05 6.776546e-05
000270 ad 2f 99 37 6a ea a0 38 db a4 df 37 95 91 b2 38
       1.8261222e-05 7.6730576e-05 2.6660438e-05 8.514818e-05
000280 7d 46 18 38 6c 61 b6 38 42 38 b9 38 86 46 be 38
       3.630527e-05 8.6965825e-05 8.831966e-05 9.073042e-05
000290 7e a3 ba 38 cd bc c7 38 c6 2f 13 38 21 8e 0c 39
       8.899624e-05 9.524226e-05 3.5092024e-05 0.00013404388
0002a0 94 4b 33 38 5a 4e 08 39 94 6f 25 38 ec a5 07 39
       4.2747313e-05 0.00012999159 3.944298e-05 0.00012936414
0002b0 fb 7d 44 38 cf 5a 03 39 cb 28 b3 39 dd b7 02 39
       4.684737e-05 0.00012526962 0.00034171934 0.0001246626
0002c0 5c 36 43 38 6e 16 76 39 32 8d 74 38 01 3c 8a 39
       4.654225e-05 0.00023468744 5.830563e-05 0.00026366118
0002d0 ac d1 a4 38 82 91 94 39 02 d8 18 38 ac cf 98 39
       7.859184e-05 0.00028337172 3.6440797e-05 0.00029146427
0002e0 2a 7d 92 38 ac 8f 9c 39 e4 c6 1a 39 d8 c5 9f 39
       6.985136e-05 0.00029861683 0.00014760677 0.00030474248
0002f0 d9 49 d9 38 39 1a bb 39 68 2a 24 39 02 72 b9 39
       0.000103611215 0.00035686957 0.00015656056 0.00035370892
000300 60 45 12 39 f8 08 ae 39 79 c9 e5 38 c2 a1 ae 39
       0.00013949489 0.00033194548 0.00010957098 0.00033308385
000310 90 d5 81 37 64 51 b3 39 c8 d9 b8 37 49 8e 17 39
       1.5477446e-05 0.0003420218 2.2035922e-05 0.00014453488
000320 41 be e3 37 76 7a 12 39 e6 cf 1b 38 f5 d2 10 39
       2.7149103e-05 0.00013969265 3.71485e-05 0.00013811498
000330 f3 27 89 38 10 34 08 39 d5 cd 7f 38 7d 43 1d 39
       6.54011e-05 0.00012989365 6.0988434e-05 0.00014997828
000340 86 d1 99 38 e4 da 36 39 a2 2c 8d 38 5f a2 44 39
       7.334635e-05 0.00017438416 6.7317174e-05 0.00018752505
000350 8f cf 88 38 da 98 3f 39 bf 85 45 38 7c bb 59 39
       6.523646e-05 0.00018272121 4.709302e-05 0.00020764576
000360 21 1a 73 38 76 41 5b 39 68 27 c5 39 b7 77 54 39
       5.796005e-05 0.00020909854 0.00037604128 0.00020262493
000370 f5 65 76 38 eb 7b a5 39 10 49 9d 38 4e 84 be 39
       5.8745925e-05 0.00031563579 7.499952e-05 0.000363382
000380 b4 0f d0 38 a4 20 d2 39 5a fc ca 38 ec a0 d8 39
       9.921138e-05 0.0004007864 9.679115e-05 0.00041318627
000390 50 88 20 39 f8 e6 da 39 34 40 49 39 02 fe e0 39
       0.0001530957 0.00041752285 0.00019192771 0.0004291386
0003a0 8e ad a8 b8 97 a2 00 3a 0c 16 4d 39 f3 77 fd 39
       -8.043191e-05 0.000490704 0.00019558537 0.0004834529
0003b0 46 56 39 39 53 cc 02 3a a7 7e 2e 39 12 93 03 3a
       0.00017675114 0.0004989553 0.00016641115 0.00050191686
0003c0 69 86 64 3a 25 e9 00 3a 07 8c 55 38 26 6e 8e 39
       0.00087175384 0.0004917554 5.0913568e-05 0.00027166418
0003d0 90 4c 80 38 36 eb 9d 39 39 36 b4 38 13 41 ac 39
       6.1177765e-05 0.0003012062 8.5931686e-05 0.0003285488
0003e0 f0 78 c0 38 ef 91 ab 39 19 15 0a 39 6f e3 b2 39
       9.1778e-05 0.0003272439 0.00013168565 0.00034120257
0003f0 c4 c8 33 39 86 02 bc 39 c8 24 c1 38 09 a2 d9 39
       0.00017145561 0.00035860034 9.209808e-05 0.0004151019

exp_avg_sq f4 [128, 22]
000000 c5 2c 1a 37 3e a9 84 36 0a d4 57 35 af 96 8a 36
       9.189539e-06 3.953609e-06 8.04023e-07 4.1302624e-06
000010 d7 0d 3b 36 2a da 90 36 2a 69 42 37 c6 f0 99 36
       2.7873227e-06 4.316932e-06 1.15877865e-05 4.587785e-06
000020 05 75 a0 37 03 3b a8 36 bb 60 5f 37 b0 07 b4 36
       1.9127978e-05 5.01366e-06 1.3314358e-05 5.365313e-06
000030 d7 c5 aa 36 5f 91 bd 36 27 1a 72 36 00 e6 c7 36
       5.0894264e-06 5.6495624e-06 3.6076033e-06 5.9574377e-06
000040 1f 00 4c 36 3e b2 d0 36 2d fc db 35 f1 d8 d8 36
       3.039844e-06 6.219633e-06 1.6390164e-06 6.462557e-06
000050 79 17 f7 35 d4 72 e0 36 4b a5 e7 33 ca 33 08 36
       1.8409766e-06 6.689088e-06 1.0786842e-07 2.0295724e-06
000060 77 b3 0f 36 8d 5b 0a 36 e6 82 35 36 c7 29 10 36
       2.1413123e-06 2.0616892e-06 2.7047295e-06 2.148199e-06
000070 0b ed c6 36 11 be 18 36 69 a3 6f 37 b6 08 26 36
       5.9284553e-06 2.2760398e-06 1.4283557e-05 2.4740998e-06
000080 8f fa 20 37 3d 32 2e 36 04 a5 a7 36 cb 0e 35 36
       9.595081e-06 2.5957263e-06 4.996198e-06 2.6979712e-06
000090 e3 93 b6 36 13 8d 40 36 d4 ae bf 36 92 1c 4a 36
       5.441239e-06 2.8692345e-06 5.7125962e-06 3.0116976e-06
0000a0 a3 14 32 36 9c f1 58 36 a8 75 a7 35 f3 23 69 36
       2.653608e-06 3.2327143e-06 1.2476712e-06 3.474063e-06
0000b0 27 5d bf 36 f0 f4 2b 35 8d 4b 8e 33 45 56 31 35
       5.703088e-06 6.4058895e-07 6.626133e-08 6.6063177e-07
0000c0 a5 ab a5 33 04 ca 35 35 95 0e 40 34 bf c6 3e 35
       7.714633e-08 6.7721726e-07 1.7886698e-07 7.106973e-07
0000d0 fa f5 c3 35 3f a7 4a 35 82 c5 38 36 fc 29 58 35
       1.4600221e-06 7.549424e-07 2.7533101e-06 8.0527366e-07
0000e0 92 a7 09 36 e0 9d 66 35 21 c1 fe 35 4a 7e 73 35
       2.051213e-06 8.5911415e-07 1.8980683e-06 9.070833e-07
0000f0 6f 6e e6 35 58 16 80 35 62 7b c9 35 8b b3 86 35
       1.7168476e-06 9.543246e-07 1.5011576e-06 1.0036032e-06
000100 0a 8d 44 35 4d 9e 90 35 69 71 73 35 7f 45 c9 37
       7.322093e-07 1.0774908e-06 9.068959e-07 2.3993429e-05
000110 e4 f5 c0 35 8e 43 cf 37 13 82 ac 36 0b 5a d8 37
       1.4376678e-06 2.470778e-05 5.141142e-06 2.5791136e-05
000120 93 2b b4 36 21 3b e6 37 36 bc b5 37 0e 54 f5 37
       5.3694907e-06 2.744567e-05 2.1664524e-05 2.9245417e-05
000130 d3 62 97 37 a8 ff 02 38 04 2c 33 37 09 fc 0b 38
       1.8046621e-05 3.1232514e-05 1.067948e-05 3.337491e-05
000140 fd 55 20 37 e1 6d 14 38 b7 51 05 37 48 cd 1b 38
       9.556764e-06 3.5388282e-05 7.9464435e-06 3.7146063e-05
000150 b3 22 d8 36 c5 86 21 38 4b 11 86 36 98 6f 2a 38
       6.441341e-06 3.8510905e-05 3.9955244e-06 4.063509e-05
000160 8e c9 8d 34 14 6e 81 35 4f 23 ae 33 8a 0e 85 35
       2.6409947e-07 9.643286e-07 8.108929e-08 9.913504e-07
000170 ff 3d e1 34 66 b4 8d 35 b5 5e 07 35 09 fb 9b 35
       4.1954624e-07 1.0557821e-06 5.0429236e-07 1.1621461e-06
000180 da 17 ad 35 bd 35 aa 35 0e ff a7 35 d4 77 b7 35
       1.2896446e-06 1.2681627e-06 1.25167e-06 1.3669437e-06
000190 7b 6a c1 35 ee c1 c5 35 bb ec 04 36 2a 08 d2 35
       1.441061e-06 1.4734085e-06 1.9807328e-06 1.5648595e-06
0001a0 e0 44 2e 36 cf c4 dc 35 0e 3f 11 36 bb 06 e5 35
       2.596811e-06 1.6448556e-06 2.1643386e-06 1.7063788e-06
0001b0 42 c2 48 36 f6 9d f8 35 99 3c 1e 35 68 97 51 37
       2.9915395e-06 1.8523413e-06 5.894777e-07 1.2492623e-05
0001c0 e0 f5 c9 35 b4 18 5a 37 a6 38 00 36 39 50 66 37
       1.5047226e-06 1.2999564e-05 1.910646e-06 1.3727747e-05
0001d0 07 df c6 36 7b 2f 77 37 31 74 29 37 8b b0 84 37
       5.9268236e-06 1.4733402e-05 1.0100238e-05 1.5817835e-05
0001e0 85 ea 82 37 90 0a 8d 37 84 20 72 37 81 6a 96 37
       1.5606414e-05 1.6813428e-05 1.4431895e-05 1.7930988e-05
0001f0 85 03 45 37 4f 16 a1 37 cb 6e 4a 37 43 5b a9 37
       1.17429345e-05 1.9203084e-05 1.2065934e-05 2.0188867e-05
000200 a8 e1 ee 36 b4 e8 af 37 d7 42 63 36 fa 16 b7 37
       7.1192226e-06 2.0969987e-05 3.3864542e-06 2.1826e-05
000210 7e 71 34 35 1c ff 2d 36 53 fd 52 35 b6 ab 33 36
       6.722038e-07 2.5927502e-06 7.859973e-07 2.6773027e-06
000220 74 df 64 35 a6 3f 3d 36 d2 dc eb 35 8c 73 49 36
       8.5261786e-07 2.8200243e-06 1.7573132e-06 3.001859e-06
000230 84 51 c3 35 95 65 58 36 d9 c0 07 36 11 25 69 36
       1.4552356e-06 3.2245637e-06 2.022882e-06 3.474128e-06
000240 63 a0 33 36 f3 76 7c 36 50 50 d1 35 12 7f 87 36
       2.6766436e-06 3.7620164e-06 1.5595087e-06 4.0381065e-06
000250 f0 cd a3 35 6f cd 8f 36 91 9a 94 35 3b 89 97 36
       1.2204382e-06 4.2856477e-06 1.1071844e-06 4.5161264e-06
000260 04 07 41 35 f3 eb a5 36 4e 44 3f 36 a3 7a 33 35
       7.190831e-07 4.9448513e-06 2.8500976e-06 6.6861156e-07
000270 87 41 01 34 5e 02 36 35 0c 57 3b 34 b0 12 3a 35
       1.20379e-07 6.780373e-07 1.74474e-07 6.9317593e-07
000280 8d b4 46 35 ba a8 3c 35 67 0e fd 35 da 51 45 35
       7.4023484e-07 7.0280987e-07 1.885416e-06 7.350733e-07
000290 45 c7 28 36 00 b9 4d 35 c8 7c 78 35 0e 29 58 35
       2.514994e-06 7.663766e-07 9.256878e-07 8.0526013e-07
0002a0 a7 84 7c 35 3e 1e 65 35 9b 57 ee 35 58 e7 70 35
       9.407035e-07 8.5353156e-07 1.7757878e-06 8.9743617e-07
0002b0 0d cf 8c 35 74 11 81 35 42 95 67 35 43 d4 98 35
       1.0491073e-06 9.616328e-07 8.6271405e-07 1.1386659e-06
0002c0 97 08 83 35 f6 a0 da 35 ee 47 0a 34 0b 37 e1 35
       9.76276e-07 1.6289111e-06 1.287842e-07 1.6779826e-06
0002d0 0f a4 70 34 aa 04 ec 35 37 65 4f 35 b6 b4 f7 35
       2.2411426e-07 1.7584728e-06 7.7260796e-07 1.8455528e-06
0002e0 eb 63 84 35 1b 5d 02 36 59 7c a5 35 f4 20 09 36
       9.863846e-07 1.9425704e-06 1.2329648e-06 2.0433772e-06
0002f0 fa 85 96 35 f4 1b 12 36 84 cb a6 35 19 c3 1a 36
       1.1214863e-06 2.1771966e-06 1.2427195e-06 2.306135e-06
000300 8c ed 80 35 04 74 22 36 7d 54 d9 34 cd 06 2b 36
       9.605878e-07 2.420741e-06 4.0480873e-07 2.5484944e-06
000310 c5 49 ad 34 9f bf 3c 36 a0 b6 17 33 0b 80 11 35
       3.2277435e-07 2.8125721e-06 3.5323524e-08 5.4203036e-07
000320 2c 3b 03 34 6d 86 15 35 2f c0 e9 34 64 c4 19 35
       1.2221852e-07 5.570244e-07 4.3539464e-07 5.728273e-07
000330 96 36 19 35 6f 1a 23 35 ab 8e 01 35 7f 4c 2d 35
       5.7076375e-07 6.07607e-07 4.8263854e-07 6.455884e-07
000340 fc 29 8a 35 5d ff 38 35 ed 20 85 35 ae b7 45 35
       1.029402e-06 6.8916944e-07 9.918855e-07 7.365551e-07
000350 5e 1f 30 35 99 9c 50 35 0f fb 95 35 5e 69 5a 35
       6.5610755e-07 7.771392e-07 1.1174433e-06 8.136466e-07
000360 39 c8 39 35 ae c9 61 35 fc 7a 6b 35 1a 20 6f 35
       6.920923e-07 8.4112514e-07 8.772329e-07 8.908115e-07
000370 93 2e 8e 35 20 07 3c 36 43 f7 0e 35 7e 6f 43 36
       1.0593379e-06 2.801833e-06 5.3258935e-07 2.9122161e-06
000380 3d 45 d9 34 87 e8 4e 36 c0 0e 44 36 79 bc 5c 36
       4.0469777e-07 3.083174e-06 2.9214862e-06 3.289226e-06
000390 f0 20 a0 36 ba 01 6c 36 c9 2d 12 37 b4 b3 7b 36
       4.772206e-06 3.5167745e-06 8.712938e-06 3.7506516e-06
0003a0 df 2d 29 37 1d 8a 86 36 49 78 15 37 27 35 8f 36
       1.0083865e-05 4.0095897e-06 8.909098e-06 4.26792e-06
0003b0 b7 f8 1d 37 da e2 95 36 07 da a2 36 2b b0 9b 36
       9.415838e-06 4.466955e-06 4.853358e-06 4.6398686e-06
0003c0 43 ff 73 36 9b a1 a6 36 06 e7 c8 35 ad 98 91 35
       3.6358404e-06 4.965999e-06 1.4968398e-06 1.0847776e-06
0003d0 14 8f 78 34 e4 4f 97 35 ca 64 24 34 a5 e1 9f 35
       2.3148851e-07 1.1273628e-06 1.5310357e-07 1.1912094e-06
0003e0 36 bb 24 35 f3 fe ab 35 a7 ae 23 36 3b bc bd 35
       6.136719e-07 1.2814693e-06 2.4390554e-06 1.413638e-06
0003f0 46 de 29 36 62 e9 cc 35 99 a1 0c 36 3f 14 db 35
       2.5312343e-06 1.5267108e-06 2.0955688e-06 1.6322664e-06

exp_avg f4 [128]
000000 cb eb ad 3a 05 ee 5a ba 1f c8 a4 b9 00 90 2b 35
       0.0013269124 -0.0008351508 -0.0003142962 6.391201e-07
000010 7c 74 ea b8 44 5c 04 ba 80 48 46 ba 4b 6c 50 b9
       -0.000111796864 -0.0005049149 -0.0007563904 -0.00019876768
000020 de 1b 1a ba 27 2e 92 b9 1c 85 42 ba f5 80 28 ba
       -0.00058787863 -0.00027881676 -0.00074203475 -0.00064279075
000030 e0 24 3e b8 04 8f f7 b9 b0 be 41 39 ae a3 96 b9
       -4.5333873e-05 -0.00047218066 0.00018476951 -0.0002873218
000040 1a 8d 94 b9 c5 9d 93 b8 8d f4 ad ba bc b4 c8 ba
       -0.0002833389 -7.038893e-05 -0.0013271734 -0.0015312652
000050 2a b0 93 39 b2 e5 db 3a 5e 6d ee b9 80 8b b3 b5
       0.00028169277 0.0016776829 -0.00045476382 -1.3377139e-06
000060 10 ad e8 b7 e9 f2 d0 ba 20 18 a8 ba d0 26 e7 b9
       -2.7737144e-05 -0.0015941533 -0.0012824573 -0.0004408867
000070 2b 7b 9a ba 1c e5 0b ba b8 2f 78 3a dc 1b 58 b9
       -0.0011785974 -0.0005336569 0.000946756 -0.00020609744
000080 d6 0f ba ba 80 6e 27 ba a2 47 5e ba 1e a8 b6 ba
       -0.0014195393 -0.000638701 -0.0008479302 -0.0013935601
000090 09 e3 aa ba 1e 9d 72 ba 6c ff 9f b8 15 35 58 ba
       -0.0013037632 -0.00092549797 -7.629287e-05 -0.0008247656
0000a0 d9 4b cf b9 b8 3a 96 b9 7c 31 4d ba b6 64 9e b9
       -0.00039538628 -0.00028653978 -0.0007827503 -0.00030211144
0000b0 95 e8 6d 39 ca 61 9a b9 98 14 85 ba 37 8a 57 b9
       0.00022688725 -0.00029446027 -0.0010153232 -0.00020555487
0000c0 da fc 7c ba 39 99 bd 3a 10 c1 bf ba 26 21 1d ba
       -0.0009650715 0.001446522 -0.0014629681 -0.0005994014
0000d0 e2 7b 29 ba 22 90 ea 39 27 9b 5a ba c4 f5 36 ba
       -0.00064652984 0.00044739345 -0.00083391595 -0.0006979371
0000e0 58 a7 66 b9 df ad 8d 39 31 cf c2 b9 e4 be 91 b9
       -0.0002199685 0.0002702316 -0.00037156933 -0.0002779878
0000f0 16 b8 84 ba c2 9c c8 b9 3b 97 38 ba 70 4e 1e ba
       -0.0010125663 -0.00038263766 -0.0007041578 -0.000603891
000100 80 4e 2a b8 6c ae 7a ba 6f d5 ae b9 9d 25 76 ba
       -4.0604267e-05 -0.0009562734 -0.00033346887 -0.000938976
000110 a7 7f 0d ba 8e 8b 28 3a 30 b1 27 b8 44 a6 6e ba
       -0.0005397745 0.00064294867 -3.998092e-05 -0.0009103755
000120 31 9b f3 39 f8 5e 56 b8 90 52 1d ba 20 f8 ea 38
       0.00046464198 -5.1110022e-05 -0.00060013775 0.000112042064
000130 81 97 bd ba 80 70 64 b7 5c 60 6e b9 9a e0 9d 39
       -0.0014464707 -1.36160525e-05 -0.00022733345 0.00030112715
000140 6a 64 09 ba b4 83 1e b9 c8 d9 62 b8 70 4b e4 b9
       -0.0005241098 -0.00015117117 -5.4085423e-05 -0.00043543754
000150 a8 08 07 b9 00 c4 ff b9 c8 24 db b8 0d c8 49 ba
       -0.00012877828 -0.00048783422 -0.00010449585 -0.00076973514
000160 bc df b1 b9 bc c7 dc b9 aa 94 4c ba 18 86 d7 38
       -0.00033926766 -0.00042110484 -0.0007804135 0.00010276976
000170 1e 7e 4a ba 78 a1 a4 37 49 e4 da 39 ff 64 bc ba
       -0.00077244814 1.9625513e-05 0.00041750286 -0.0014373361
000180 76 95 c7 b9 e9 36 ce b9 76 02 dc 39 b4 bc 23 ba
       -0.00038067595 -0.00039332293 0.00041963503 -0.00062460755
000190 a4 f5 76 ba a3 ce 54 b9 57 cd 26 ba 96 f7 47 b9
       -0.00094207586 -0.00020294874 -0.00063629955 -0.00019070352
0001a0 7e 3b b3 38 b8 03 3b 39 bb 14 dd b9 74 93 10 ba
       8.5464664e-05 0.00017835095 -0.0004216785 -0.0005515136
0001b0 5a 7a 0d ba c0 a6 d4 37 37 31 17 ba e5 77 14 ba
       -0.0005396955 2.5350018e-05 -0.00057675265 -0.00056636176
0001c0 fc 51 7b ba 26 33 f6 b9 d0 77 8e 39 a4 77 97 b9
       -0.0009587107 -0.00046958885 0.00027173618 -0.00028890104
0001d0 54 9c 97 39 e8 9e 7e 3a 20 b4 9a b9 3a 66 8d b9
       0.00028917438 0.000971301 -0.00029507373 -0.0002696978
0001e0 00 b4 fe 37 c0 9d 27 39 62 7a 56 ba 2a 21 a7 ba
       3.0362979e-05 0.00015985128 -0.00081816886 -0.0012750973
0001f0 1f e1 78 b9 79 bf c8 38 58 af 2f b9 a0 5f 2c b9
       -0.00023734987 9.572408e-05 -0.00016754621 -0.00016438821
