results/timeout60/3DBall/3DBall-2499920.pt (torch, 495670 bytes, 44 tensors)

network_body.observation_encoder.processors.0.normalizer.running_mean f4 [22]
000000 81 af 3f 3a eb 8e 8b 40 db 70 7f 3a 2c b9 8b 40
       0.0007312224 4.361196 0.0009744295 4.366354
000010 91 ce ad 3a 97 fc 8b 40 55 a6 e4 3a e4 36 8c 40
       0.0013260414 4.3745837 0.001744459 4.3817005
000020 5c df 15 3b 3f 56 8c 40 28 1d 30 3b da 48 8c 40
       0.0022868728 4.385528 0.0026872847 4.383893
000030 ed 36 38 3b 62 14 8c 40 0d 65 32 3b 62 c3 8b 40
       0.002810891 4.377488 0.0027220875 4.3676004
000040 a9 89 28 3b 98 6f 8b 40 df 42 1e 3b 7f 3d 8b 40
       0.0025716817 4.3573723 0.0024148745 4.351257
000050 86 de 0f 3b f4 4c 8b 40
       0.0021952703 4.3531437

network_body.observation_encoder.processors.0.normalizer.running_variance f4 [22]
000000 36 75 e4 44 33 b8 0b 4d fe 29 18 45 04 ac 0b 4d
       1827.6628 1.4650654e+08 2434.6245 1.4645664e+08
000010 ab f9 4e 45 a6 a4 0b 4d 11 13 88 45 f9 a0 0b 4d
       3311.6042 1.4642646e+08 4354.3833 1.4641141e+08
000020 64 47 b2 45 b8 a0 0b 4d b7 67 d1 45 e1 a1 0b 4d
       5704.924 1.4641037e+08 6700.9644 1.4641512e+08
000030 ed 01 db 45 4d a4 0b 4d d8 1b d4 45 bf a5 0b 4d
       7008.2407 1.4642504e+08 6787.4805 1.4643096e+08
000040 b6 6b c8 45 16 a3 0b 4d 6b 3b bc 45 31 9c 0b 4d
       6413.464 1.4642006e+08 6023.4272 1.4639182e+08
000050 9b 27 ab 45 87 90 0b 4d
       5476.9507 1.4634405e+08

network_body.processors.0.normalizer.running_mean f4 [22]
000000 81 af 3f 3a eb 8e 8b 40 db 70 7f 3a 2c b9 8b 40
       0.0007312224 4.361196 0.0009744295 4.366354
000010 91 ce ad 3a 97 fc 8b 40 55 a6 e4 3a e4 36 8c 40
       0.0013260414 4.3745837 0.001744459 4.3817005
000020 5c df 15 3b 3f 56 8c 40 28 1d 30 3b da 48 8c 40
       0.0022868728 4.385528 0.0026872847 4.383893
000030 ed 36 38 3b 62 14 8c 40 0d 65 32 3b 62 c3 8b 40
       0.002810891 4.377488 0.0027220875 4.3676004
000040 a9 89 28 3b 98 6f 8b 40 df 42 1e 3b 7f 3d 8b 40
       0.0025716817 4.3573723 0.0024148745 4.351257
000050 86 de 0f 3b f4 4c 8b 40
       0.0021952703 4.3531437

network_body.processors.0.normalizer.running_variance f4 [22]
000000 36 75 e4 44 33 b8 0b 4d fe 29 18 45 04 ac 0b 4d
       1827.6628 1.4650654e+08 2434.6245 1.4645664e+08
000010 ab f9 4e 45 a6 a4 0b 4d 11 13 88 45 f9 a0 0b 4d
       3311.6042 1.4642646e+08 4354.3833 1.4641141e+08
000020 64 47 b2 45 b8 a0 0b 4d b7 67 d1 45 e1 a1 0b 4d
       5704.924 1.4641037e+08 6700.9644 1.4641512e+08
000030 ed 01 db 45 4d a4 0b 4d d8 1b d4 45 bf a5 0b 4d
       7008.2407 1.4642504e+08 6787.4805 1.4643096e+08
000040 b6 6b c8 45 16 a3 0b 4d 6b 3b bc 45 31 9c 0b 4d
       6413.464 1.4642006e+08 6023.4272 1.4639182e+08
000050 9b 27 ab 45 87 90 0b 4d
       5476.9507 1.4634405e+08

network_body._body_endoder.seq_layers.0.weight f4 [128, 22]
000000 1e 03 b3 3e a2 69 55 bb 57 f5 0b 3e 7c e8 59 3e
       0.34963316 -0.0032564183 0.13667808 0.21280092
000010 f3 0a 15 bf 4e 3b 08 be 90 0a 11 3f ab 38 1e 3d
       -0.5821983 -0.13303873 0.5665674 0.03862826
000020 42 6a 0d be a7 77 9a be da 7e 91 3e 28 30 49 be
       -0.13810065 -0.30169412 0.28417093 -0.19647276
000030 0b e9 a7 be df 8f d1 be 81 b3 11 3e 22 27 d4 3d
       -0.32794985 -0.40930077 0.14228632 0.103590265
000040 5d 63 a8 be 99 cb f1 bd 8e d7 1f 3b 49 36 98 3e
       -0.32888308 -0.11806411 0.0024389955 0.29728916
000050 14 fd 98 3e 6b 23 e9 3e c5 77 c0 3d 5a f9 ce bd
       0.29880583 0.45534834 0.09397844 -0.10106154
000060 8b 0b 5a 3e 9a cd 8e 3e 63 33 12 be 5a 0b 3b be
       0.21293466 0.27891237 -0.14277415 -0.18266049
000070 7b ba 42 be da bd d6 bd d8 1a 57 3d 76 d8 04 3e
       -0.19016449 -0.1048543 0.052515835 0.12973198
000080 0e 75 07 3e 05 ef ba be 4b 88 90 3c 5a d3 9c 3c
       0.13228247 -0.36510482 0.017643115 0.019143749
000090 02 fc ce 3e 76 4e ef bd 47 eb 8c be 72 65 8b bd
       0.40426642 -0.11684887 -0.27523252 -0.068064585
0000a0 44 95 c3 3d 71 a3 89 be c8 fd 4c 3e ba f9 3c be
       0.095499545 -0.26882508 0.20018685 -0.18454638
0000b0 da e5 27 3e 4c c0 ac 3e e3 c1 fb 3e e8 01 1d be
       0.16396275 0.3374046 0.4917136 -0.15332758
0000c0 82 13 a1 be df 58 ed 3c 9f e2 4a 3e 83 c8 7e be
       -0.31460196 0.028973041 0.19813012 -0.24881177
0000d0 36 d5 8d 3d d8 1d 15 3f c4 73 01 bd 97 18 fa bc
       0.069254324 0.5824866 -0.031604543 -0.030529303
0000e0 f9 2f 06 3e ee f6 0c 3e 18 ae 53 bd 87 35 b8 3e
       0.13104238 0.13766071 -0.0516797 0.35978338
0000f0 57 a5 2e 3e 41 57 f9 3d e1 51 fa 3b e6 c7 9e bd
       0.1705526 0.121748455 0.0076391553 -0.07752971
000100 bd f5 02 be 2c f5 be bd 51 44 41 bd f1 d1 d8 3e
       -0.12789054 -0.093241066 -0.047184292 0.42347673
000110 8c b4 66 bc 9d e3 27 be 86 53 0a 3d 24 dc ff bd
       -0.014081132 -0.16395421 0.03377106 -0.1249316
000120 fb da a7 3d 6e e8 ea bd fc 8a 46 bd 34 43 0d 3e
       0.08196064 -0.11470114 -0.04847239 0.13795167
000130 e4 f0 9a be be 89 de bd c7 1b 44 be bb 2a 49 bd
       -0.3026191 -0.10866116 -0.19151221 -0.049113017
000140 80 17 2f bd 54 e9 11 3e f0 40 d1 be b9 56 08 be
       -0.04274702 0.14249164 -0.40869856 -0.13314332
000150 87 13 86 be 71 60 ec be 8b 68 62 be 48 bf e3 3e
       -0.26186773 -0.4616733 -0.22110192 0.44481874
000160 87 a2 7d 3d 85 28 29 bf 82 83 a6 bc 74 29 ce 3d
       0.061922576 -0.6607745 -0.02032638 0.100665
000170 1b 91 2c 3e 1a 79 18 3f 96 fc d1 bc 02 34 ab 3e
       0.16852228 0.59559786 -0.025633138 0.33438116
000180 ce 19 65 3e 71 44 a6 be 1c 7c 79 be f6 73 09 be
       0.22373125 -0.32474092 -0.2436375 -0.13423142
000190 ea b9 6d be 8c f2 59 be 03 87 8f bd 19 ff 1f 3e
       -0.23215452 -0.2128393 -0.07008173 0.15624656
0001a0 0d fd c2 be 4c f4 90 3e be 58 c8 bd aa a6 29 3d
       -0.38083687 0.28311384 -0.09782551 0.04141871
0001b0 22 8d f7 be 99 a0 a8 bd 98 27 f3 3d 05 55 dc bd
       -0.48349863 -0.082337566 0.11872786 -0.10758404
0001c0 44 0f a5 be fd 80 69 3d 05 8f 10 3d c9 d3 2c 3e
       -0.3223821 0.05700778 0.035292644 0.16877665
0001d0 aa e9 90 bd 5b e9 dd be c0 e6 b8 bd 73 29 d4 3e
       -0.07075818 -0.433421 -0.09028387 0.41437873
0001e0 38 28 bb be 11 23 98 3e 79 aa da be 12 b2 24 bf
       -0.36554122 0.29714254 -0.42708185 -0.64334214
0001f0 7d ae 89 3d 0c ab a6 bd 66 dc d8 bc 99 aa d5 3e
       0.06722734 -0.08138093 -0.026472282 0.41731718
000200 5d 51 5f bd 86 4c dd bd 1c d5 9b be a5 57 18 be
       -0.054520953 -0.10805611 -0.30436027 -0.14877184
000210 20 ed 9e 3d 4a 00 53 3e e2 3d e6 3d f7 78 22 3e
       0.07760072 0.20605579 0.11242272 0.15866457
000220 29 8d 3e be 94 be ca 3e 6e ac f9 3d 5e d8 1b 3e
       -0.18608536 0.39598525 0.121910915 0.15219256
000230 1c 5f 24 bb 69 90 e2 be 60 53 d6 3d 39 c9 f9 3d
       -0.0025081104 -0.442508 0.10465121 0.12196583
000240 54 fd 16 3c e9 9c 87 be fd 98 6b 3e 52 43 82 be
       0.009215672 -0.264869 0.23007579 -0.25441986
000250 c6 f4 19 3c 0a f4 83 be a8 b5 74 be b9 d4 87 be
       0.009396737 -0.25772125 -0.23897421 -0.26529482
000260 93 37 fb 3d 4f e8 b5 be 77 9b e7 3e 10 83 32 be
       0.12266459 -0.355288 0.45235798 -0.17432809
000270 f0 46 1f bd 83 1d 55 be 59 ad 1e 3e 96 90 37 bd
       -0.03888601 -0.20812039 0.15495814 -0.044815622
000280 eb b3 be 3d b4 82 12 3d 65 1e af bd e5 cc c9 bd
       0.093116604 0.03576918 -0.08550719 -0.09853534
000290 96 b1 6f 3e 7f e1 b8 bd 59 d5 57 3e a2 50 2d be
       0.23407587 -0.09027385 0.2107748 -0.1692529
0002a0 08 4c 25 bd be b8 b6 bd 5c c1 c5 be 0a 1e a6 be
       -0.040355712 -0.089219555 -0.38624084 -0.32444793
0002b0 ee 21 25 be 32 fc d4 3b d6 11 57 be e3 69 cd 3e
       -0.16126224 0.0064997906 -0.21002898 0.40119848
0002c0 f4 cd 95 be b4 ee af 3c d6 8e 89 be b6 35 a8 3e
       -0.29258692 0.021476127 -0.26866788 0.32853478
0002d0 f6 ba 54 be 6c 59 cc bd 05 85 af be 5b 69 a5 be
       -0.20774445 -0.09977993 -0.34281173 -0.32306942
0002e0 2e 63 30 bd 15 15 e5 bd 45 40 45 3e b0 c3 cb 3a
       -0.043063335 -0.11185662 0.19262798 0.001554599
0002f0 eb 68 9d be 6d c8 5c 3e 10 8b b4 3b 64 58 9c bd
       -0.3074411 0.21560831 0.0055097416 -0.07634047
000300 a0 94 15 bf d7 57 18 bc ea 2a 93 3d 1c aa df 3d
       -0.5842991 -0.009298286 0.071859196 0.10921118
000310 ae d3 d4 3d 34 50 c1 3e 50 3e 63 3e 0a a1 5e 3e
       0.10391937 0.37756503 0.22191739 0.21741119
000320 fb a9 e3 bd be a6 1b be 8c c6 9a be a0 cc a6 3d
       -0.111164056 -0.15200326 -0.30229604 0.08144498
000330 3e 1b 0c bd ca 73 f4 bd 4f 8d c3 3e f1 4e 9d 3e
       -0.034205668 -0.119361475 0.38193747 0.3072429
000340 a6 15 de bc 98 4d 4a be 2d 05 57 3e 80 09 46 bd
       -0.027109932 -0.19756162 0.20998068 -0.048348904
000350 d6 9d b1 3d aa 1e 60 be ab 54 7e be 9a 82 9b be
       0.08672683 -0.21886697 -0.24836986 -0.3037308
000360 6b 3c a4 bd 7d 60 0e be 09 e6 99 be 11 2d 52 be
       -0.08019336 -0.13903995 -0.30058315 -0.20525004
000370 25 7b 16 3e c1 e5 bc be 85 ca 75 3d b8 ba 65 3e
       0.14695413 -0.36894038 0.06000759 0.22434509
000380 2f 57 bb 3e b7 5f 92 bd 75 5f 25 3e c3 5d 44 be
       0.36589953 -0.071471624 0.16149695 -0.19176392
000390 a3 9f a1 3d c2 72 1d be 04 d2 0b be ca ec f9 bb
       0.078917764 -0.15375808 -0.13654333 -0.0076271044
0003a0 61 42 f6 3d 33 87 9c 3d c3 1e 58 3d c7 97 bf bd
       0.120243795 0.07642975 0.05276371 -0.09355121
0003b0 cb 1a 18 be df 74 20 3e 71 07 b3 3e be 6a d7 3e
       -0.1485397 0.15669583 0.34966615 0.42073625
0003c0 74 10 bf 3e 7d 26 7b 3e a4 ef df bd f4 9c 99 3e
       0.3731724 0.24526401 -0.1093438 0.30002558
0003d0 0b 49 bb 3d cf 78 d2 3d 8b 50 eb be db 24 4f 3e
       0.09144791 0.10276949 -0.45959887 0.20228903
0003e0 cd 37 86 3e 53 f7 a6 3c f2 f2 c5 bd 3d 4d c8 3e
       0.26214448 0.020381605 -0.09665479 0.39121428
0003f0 68 0a dd 3d d8 22 53 3e 3c d1 5e be 0f 8f 84 3e
       0.107930005 0.2061876 -0.21759504 0.25890395

network_body._body_endoder.seq_layers.0.bias f4 [128]
000000 46 9f 9a bc 9a a6 45 be c5 c6 19 3d ed 26 e5 bd
       -0.018874776 -0.19301835 0.037543077 -0.11189065
000010 97 ea a4 3d e6 38 c1 bd 84 7e 46 be ee c0 56 be
       0.08052557 -0.09434681 -0.193842 -0.20972034
000020 8a 0f 35 3e 1a 45 1a be ae 91 4a 3e 1c 24 17 bd
       0.17681709 -0.15065423 0.19782135 -0.03689967
000030 61 5d 19 3e 4a 97 9c bc 28 31 b5 3d 35 7f ac bd
       0.14977027 -0.019115109 0.088472664 -0.084227
000040 3e 6f fd 3d d7 b1 0a be c3 34 67 be 3d 31 45 be
       0.123747334 -0.13544403 -0.22578721 -0.19257064
000050 9f 70 28 bc 15 8a 03 3e 2b 83 39 be 79 01 30 3e
       -0.010280757 0.12845643 -0.18116443 0.17188062
000060 8f c8 35 be 98 0c 3a be 36 94 cb 3d 88 11 2b be
       -0.17752288 -0.18168867 0.09940378 -0.16705906
000070 52 45 9b 3d 75 6f 03 be 0b b5 66 bd ea 6d 8c bd
       0.07581581 -0.12835486 -0.056325 -0.06856902
000080 23 11 33 3e 23 30 17 bd b8 03 63 be e6 1b 71 be
       0.17487006 -0.03691114 -0.22169387 -0.23545799
000090 37 48 92 3d 21 6a 9f 3c 9e 11 38 be 7d b0 7a be
       0.0714268 0.019459786 -0.1797547 -0.24481387
0000a0 f6 52 41 be 74 2b 0e 3d c5 a7 37 bd ee b8 24 be
       -0.18879303 0.03470941 -0.044837732 -0.1608617
0000b0 32 2b 14 be a5 b6 bf 3d 27 39 2c be 25 98 a4 bd
       -0.14469603 0.093610086 -0.16818677 -0.08036832
0000c0 bb 7f 1a be 69 f8 ea 3d 7e 58 dc 3d c1 f7 14 3e
       -0.15087788 0.11473162 0.10759066 0.14547636
0000d0 1a 9c b8 3d 42 9f 62 3d 3b 0e 28 3e 7b 90 0b be
       0.09014149 0.05532766 0.16411678 -0.13629334
0000e0 95 43 2b be 33 7a 6a be 73 63 82 be 40 bb ab bd
       -0.16724999 -0.22898178 -0.254665 -0.083853245
0000f0 6d 4f 4e be f8 f8 7e be 90 1f b8 3d 05 00 08 3e
       -0.20147486 -0.24899662 0.08990395 0.13281257
000100 85 ab 17 3d 7f 46 b0 bc 62 55 06 be 4c b0 7c bd
       0.03702881 -0.02151799 -0.13118508 -0.061691567
000110 10 9d 33 bc 56 e3 b4 3d 03 93 e0 bd a7 ad 49 be
       -0.01096274 0.088324234 -0.1096554 -0.1969515
000120 00 c1 03 3e 65 a2 fe 3d 9f 7a 50 be 2a 3d 25 be
       0.12866592 0.12433318 -0.20359276 -0.16136613
000130 2c ab 5a 3e ff 42 2a 3c 74 42 2c 3e 5f 42 d3 bd
       0.2135436 0.01039195 0.16822225 -0.10315394
000140 32 f4 8f bb af 95 20 be db e4 c9 bd 04 b0 d0 3d
       -0.004393124 -0.156821 -0.09858104 0.10189822
000150 d5 8a 1a be 6a 5d f2 bd 87 24 68 bd c7 61 bb bc
       -0.15092023 -0.118342236 -0.05667546 -0.022873772
000160 f3 14 82 be 5f 0f 02 be 85 ea d8 bd e0 96 8a 3e
       -0.25406608 -0.12701176 -0.10591606 0.27068233
000170 7e 32 cc bd 28 d3 df 3d 0c a5 19 3c 9b 38 70 3c
       -0.09970568 0.10928947 0.009377729 0.014661933
000180 5b f5 b6 3d 6c d9 5d 3e 9d b1 86 3d 50 57 a7 bc
       0.089335166 0.21664971 0.06576846 -0.020427376
000190 11 cb 4a 3e c5 a1 7f bd e7 0d f4 bd 27 aa 72 3e
       0.19804026 -0.062410135 -0.11916714 0.2369772
0001a0 fc 86 2e be df e9 03 3d ec e6 43 3e 49 6c 47 be
       -0.1704368 0.03220546 0.19131058 -0.19474901
0001b0 59 3a 66 be de 74 a6 bd a1 7f 9e 3d d5 d0 05 3e
       -0.22483195 -0.081277594 0.07739187 0.13067944
0001c0 e2 03 94 3d 9a 10 b2 3c 60 24 01 bd 1a 45 41 3d
       0.07227303 0.021736432 -0.03152883 0.04718504
0001d0 44 ef 86 3c 08 a4 8d 3d 4e e5 30 3e 7f 26 e7 bd
       0.016471513 0.06916052 0.17274973 -0.112866394
0001e0 96 6d ed bd 2e 25 85 be 9b a5 2c 3d b2 cc f8 3d
       -0.115931675 -0.26004928 0.04215012 0.121484175
0001f0 a5 c5 b2 bd 47 ce b5 bd 40 50 1d be 07 b5 91 bd
       -0.08729104 -0.08877235 -0.15362644 -0.07114606

network_body._body_endoder.seq_layers.2.weight f4 [128, 128]
000000 aa e5 33 3d 76 c5 00 bd 4d 0f 60 bd 02 bd 85 3e
       0.043920197 -0.031438313 -0.054702092 0.26120764
000010 9c a8 1e bd 40 88 c9 bd ea 0e 3d 3d 49 06 5e 3d
       -0.038735017 -0.09840441 0.0461568 0.054205213
000020 c3 13 0b be 7c 81 85 3d 26 7b 02 be cc 40 00 be
       -0.13581757 0.06518838 -0.1274229 -0.12524718
000030 1c 7f 08 be 82 e8 2c be a6 19 f1 bd 99 b7 eb 3c
       -0.13329738 -0.1688557 -0.1177247 0.02877407
000040 c1 bb fe bd c1 ac f5 3c 11 79 3a 3e 03 81 68 3d
       -0.12438155 0.029989602 0.18210246 0.05676366
000050 02 8e 4c 3d aa df bd bd 48 83 28 3e ae 6c 6b be
       0.049940117 -0.09271176 0.1645633 -0.22990677
000060 c9 64 85 bd 21 4d d5 bb 96 ef be bc ee f7 6b 3c
       -0.06513364 -0.0065094386 -0.023307603 0.014402373
000070 cc 9e 82 bd 4d 60 20 3d fa f0 05 3e af 23 28 3e
       -0.06377944 0.03915434 0.13080207 0.16419862
000080 4b 5b 41 be 9d 24 8a 3c d8 f1 0f 3d e4 ad 9d bc
       -0.18882482 0.016863162 0.03514275 -0.019247957
000090 4a 1b 2a 3c c9 a4 a6 bd 8c a0 e9 3c cc 39 51 3d
       0.010382483 -0.08136899 0.028518938 0.05108051
0000a0 64 1e 36 3d 13 d3 c6 bd 72 82 a8 3d 0f 54 aa 3c
       0.044462577 -0.09708228 0.082280055 0.020792035
0000b0 61 e2 c2 bd 18 19 12 be d6 d5 00 3d b9 6e 9b 3d
       -0.095158346 -0.14267385 0.03145393 0.07589478
0000c0 3c e7 05 3e db 96 4c be d3 4b 40 bd c9 64 f4 bd
       0.1307649 -0.19979422 -0.04694731 -0.11933286
0000d0 b6 59 d7 bd dd 4f 2f bd cf ab 28 bd 67 4c 46 3d
       -0.10515158 -0.042800773 -0.041179474 0.048412707
0000e0 5f c6 90 bd 7e 11 ad 3c dd ac 5c 3e 05 81 cc 3b
       -0.07069086 0.021126505 0.21550317 0.0062409663
0000f0 53 0e 9c bd eb c6 03 3d b8 4a ee bc 71 1c e4 bd
       -0.0761992 0.032172125 -0.029088363 -0.11138237
000100 a3 21 36 bd fd 8b ed bb f8 e9 4f bc 7b 95 da bd
       -0.044465672 -0.007249354 -0.01269006 -0.106730424
000110 dc 25 2f bd aa 1e 23 be 5f 9f b5 bd 40 32 2c bc
       -0.042760715 -0.15929666 -0.08868288 -0.010510027
000120 72 99 be 3c 68 19 6b bd e7 18 0f be 57 e3 0e bb
       0.023266528 -0.057397276 -0.13974343 -0.0021802986
000130 b3 d7 7a bd 70 6b 97 bc d8 cd 0c be f7 96 7d bb
       -0.061240863 -0.018483847 -0.13750398 -0.0038694718
000140 e6 f4 8b bd bc eb 9c 3d cb 6c 7d 3d 5c 9d a0 ba
       -0.0683382 0.0766215 0.06187133 -0.0012253928
000150 e3 ec 98 3e 04 53 aa bc 3c 14 81 3d 23 43 b0 3c
       0.2986823 -0.020791538 0.063026875 0.021516388
000160 f4 43 f3 bd 4e 40 c4 3d 6a 7e 7e 3c cd 2a f1 bd
       -0.118781954 0.09582578 0.015533069 -0.11775742
000170 cd 5c 45 3e 61 68 17 be b5 0e a4 3d 19 a3 f5 bc
       0.19273682 -0.14785911 0.08010618 -0.029984998
000180 b5 76 35 3e d2 02 bb 3d 64 1e 88 3d 4a 80 12 be
       0.17721064 0.09131397 0.066464216 -0.14306751
000190 85 1c 26 be 72 48 04 be b1 7a 9c bd cf ad 3e be
       -0.16221817 -0.1291826 -0.07640589 -0.1862099
0001a0 e8 ae 50 3e 1a 0f dd bc 61 1d 2d be d9 61 b7 3d
       0.20379221 -0.02698474 -0.16905738 0.0895421
0001b0 a8 5a de 3c 20 b7 9d bd 56 e2 8c bd 28 8d a6 bc
       0.027142838 -0.07700944 -0.06879108 -0.02033098
0001c0 fc d7 14 3d 07 d3 fd bd 48 93 f3 bd aa 19 88 3d
       0.03633879 -0.12393766 -0.11893326 0.0664552
0001d0 d9 5d e6 bc 58 c3 16 be 4a cd 62 bd e0 e1 98 bb
       -0.028120922 -0.14722955 -0.05537156 -0.0046655983
0001e0 f2 c8 7c 3c 0c ee d3 3d a7 6d c5 bd 7c 0b 13 be
       0.0154287685 0.10348138 -0.09640055 -0.1435985
0001f0 0d 9a 86 bd 35 e1 d5 3c 2f bf be 3d 87 40 6b 3e
       -0.065723516 0.026108364 0.09313809 0.22973834
000200 24 01 b7 3d 33 66 17 be d3 ac 1b bd ac 65 b0 3d
       0.089357644 -0.1478508 -0.038006615 0.08613142
000210 16 37 6c be 66 44 92 bd 02 37 8d bc c1 3f 8f bd
       -0.23067889 -0.07141952 -0.017238144 -0.06994582
000220 3b 20 36 3d 37 47 7f be 32 22 0a 3c 8a b4 2c 3e
       0.04446433 -0.2492951 0.008431004 0.16865745
000230 08 25 17 be d2 8a 6a 3e 93 2a 6d be 55 9d 70 3e
       -0.1476022 0.22904518 -0.23160772 0.23497517
000240 42 7d 36 bd d7 38 73 be e4 16 c9 bb 5c 78 39 be
       -0.04455305 -0.23752151 -0.006136762 -0.1811232
000250 3a a1 ce bd bb f8 95 3d 70 fe f4 bd d3 21 93 3d
       -0.10089345 0.07322832 -0.119625926 0.07184186
000260 df b0 0e 3e 10 15 dd 3d 3a 03 20 be 26 76 6e bd
       0.13934658 0.10795033 -0.15626231 -0.058218144
000270 4d 5f 87 bd 2a 5b 9b bd d7 43 5b bd e5 c0 9c be
       -0.06609974 -0.075857475 -0.053531494 -0.30615917
000280 3f b4 dc bd ea f4 6d 3d 49 7a bf 3d ee 7b 8a bd
       -0.10776567 0.058094896 0.09349496 -0.06761919
000290 32 e0 07 3e 5e 7c 7e 3c 7c d7 c7 bc ab df fe bd
       0.13269117 0.015532581 -0.024394743 -0.12445005
0002a0 e6 00 ca bd b7 e2 8f be d1 7d 27 3e 6f 0a b3 3d
       -0.098634526 -0.28102657 0.16356589 0.087422244
0002b0 1f 74 83 bd 53 d0 f4 3d f2 ea 30 bc 03 c1 56 3e
       -0.06418633 0.11953797 -0.010798203 0.20972066
0002c0 52 cb 54 be 86 81 45 3d 87 9b 2f be 3c e6 06 be
       -0.20780686 0.048219226 -0.17149173 -0.13173765
0002d0 ed f2 a3 3c 69 aa 83 bd 7d 96 eb bc f6 aa f7 3d
       0.020013297 -0.064289875 -0.028758282 0.12093155
0002e0 97 c0 41 be 5d 1a 28 be 73 4e ac 3d 50 d8 db 3d
       -0.18921123 -0.16416307 0.084134005 0.10734618
0002f0 3d 9b 8f 3e 1c 5a 53 3d 0e bc ed 3b cc 62 64 bd
       0.28048125 0.051599607 0.007255084 -0.055758283
000300 cf 6f 67 bb 57 02 8f be 9b ec 4a be 90 d4 4a be
       -0.0035314446 -0.27931473 -0.1981682 -0.19807649
000310 e6 0d fc 3c 69 0e fe bd df 53 07 bd 07 a6 0f be
       0.030768346 -0.12405092 -0.03303897 -0.14028178
000320 a8 ad fa bc e2 d5 0c be 40 09 95 bc 27 dc 6d 3d
       -0.030600384 -0.13753465 -0.018192887 0.05807128
000330 de bb e1 bd a3 14 27 bc 6f ce 43 3d 08 e5 4f bb
       -0.11022161 -0.010197791 0.047804292 -0.0031722207
000340 66 50 3b 3d dd 61 81 be 29 6b 6f bd 58 76 fc bd
       0.04573097 -0.25269976 -0.058451805 -0.1232726
000350 ac 2d d2 3d 1f 9e e1 3c 8d b1 a9 bd 5f 5a b7 3c
       0.102626175 0.027541218 -0.08285818 0.02238196
000360 86 ed 78 3d 0f 4b a4 3d e6 f9 b3 bc 5a 8c 83 be
       0.060773395 0.08022129 -0.021969747 -0.25693017
000370 a4 6b 7b bd 0f 5e b9 3d bd 31 1b be d1 a5 2e be
       -0.06138195 0.090511434 -0.15155692 -0.17055441
000380 8b dc f1 3c a7 13 9c be 4b 96 35 bd 5b 20 32 3d
       0.029524108 -0.30483744 -0.044332784 0.043487888
000390 c0 c1 e8 bc ee 91 a1 bc 4c df 8f 3d 1e ad 89 bd
       -0.0284127 -0.019722905 0.070250124 -0.067224726
0003a0 ae bf 37 bd c3 d1 1b be 30 c5 89 be 75 f6 10 3d
       -0.044860534 -0.15216736 -0.26908255 0.03539129
0003b0 f2 b6 ef 3d f6 ac 9c 3d 1c 65 ef bc 71 eb ee bb
       0.11704816 0.07650177 -0.029223017 -0.0072912504
0003c0 ef af 2f 3d ae 64 f5 bb 81 f2 8a 3d 00 7b 40 be
       0.042892393 -0.0074888086 0.06784535 -0.18796921
0003d0 6a 9c 82 3e 31 2f b2 bc 0a 6d 0e 3d 0b 48 92 3e
       0.2550996 -0.021751018 0.034771957 0.2857059
0003e0 8d 30 83 3e 0d 13 58 be 42 90 3e 3e db 9b 97 be
       0.2562298 -0.21101017 0.18609717 -0.29611096
0003f0 88 19 82 bb 9e 43 8b bd e8 aa 87 be fc dc a7 be
       -0.0039703287 -0.06800006 -0.2649758 -0.32785785

network_body._body_endoder.seq_layers.2.bias f4 [128]
000000 58 45 46 be c0 62 fb bc 2b 47 ac 3c ae 75 88 bd
       -0.1936239 -0.030686736 0.02103003 -0.066630706
000010 e4 55 3f bc 7f 82 00 3d a5 17 82 3c f8 db 5d 3e
       -0.011678193 0.03137445 0.015880415 0.21665943
000020 34 de a5 bd 0e 94 b4 bd 0f e9 8b 3d d2 9c 70 be
       -0.080990225 -0.08817302 0.06831562 -0.23497322
000030 0d 68 6f be 27 17 a8 3c bd 87 83 bd 5e f0 88 3d
       -0.23379536 0.020518852 -0.064223744 0.066864714
000040 17 33 5e be f9 5f 87 bd ce b4 8e 3e 9d 0e c6 3d
       -0.21699177 -0.06610102 0.27872318 0.09670756
000050 ca 52 13 3d 10 6f 6b bd 60 97 12 be 13 09 65 be
       0.035967626 -0.057478964 -0.14315557 -0.22366743
000060 d8 42 c0 bc 2b 4c 69 be e2 63 2a be ee 9b 41 bd
       -0.023469374 -0.22782962 -0.16639665 -0.047267847
000070 e7 bd ed bd 00 63 70 3e 06 83 63 be c1 88 98 3d
       -0.116084866 0.23475266 -0.2221795 0.07447959
000080 60 08 17 3e 74 a6 d8 3d f5 29 22 be 2d 2e 6a 3d
       0.14749289 0.105786234 -0.15836318 0.057172943
000090 ed dc 8b bc 57 a9 32 be e2 ee d1 bc dd 20 d7 bd
       -0.017073119 -0.1744741 -0.025626604 -0.10504315
0000a0 68 0b 8b 3d 26 6d cb bc 9f 81 0d be 9d 7b 60 3e
       0.06789285 -0.02483232 -0.13818978 0.21922155
0000b0 81 fa 46 be a3 29 bd 3c 41 94 18 3c 20 67 08 3e
       -0.19431497 0.023091143 0.00931269 0.13320589
0000c0 dd 6b bb bd ae 1b 30 bc e6 71 15 3e c4 80 05 be
       -0.09151433 -0.010748787 0.1459423 -0.13037401
0000d0 4b e8 1d be 9c b2 aa bc 95 c4 0e be bb d8 45 bc
       -0.15420644 -0.02083712 -0.13942178 -0.012075598
0000e0 bf 96 d1 3d cd 15 e8 3c a3 c8 f7 3d 6d 70 49 3e
       0.10233831 0.028330708 0.12098815 0.19671793
0000f0 ea b4 7f bd 2e b8 9e 3d 76 45 8f bd ae 22 14 be
       -0.062428392 0.07749973 -0.069956705 -0.14466354
000100 63 78 ea bd 8e a9 34 be 22 c3 3e be 2c 78 b2 3d
       -0.11448743 -0.17642805 -0.18629125 0.08714327
000110 1a a0 50 3e d1 ed 94 3d bc 23 21 bd c1 6c 14 be
       0.20373574 0.072719224 -0.03934072 -0.14494611
000120 cc 53 bc bd 0c 5d 33 3d 08 95 d1 bd 6f d7 5a bd
       -0.091956705 0.04378991 -0.102335036 -0.05342811
000130 19 89 b4 bd c7 de 58 3e c0 79 7a 3d a1 90 69 3d
       -0.08815212 0.21178733 0.061151266 0.057022694
000140 fa 40 95 3d 2a ea e1 bd 66 e0 23 3e 71 e7 04 be
       0.07287784 -0.110309914 0.1600357 -0.12978913
000150 8d 5c 44 bd 7d 1d 13 be 04 eb 77 bd 69 2a 5d 3d
       -0.047939826 -0.14366718 -0.060526863 0.053995524
000160 01 05 0f bd ea 1d 49 3d 49 48 cd 3d 03 77 28 3d
       -0.03491688 0.049100794 0.10023553 0.041129123
000170 3b 98 fa bc e3 97 43 be 9c 09 d1 3d 17 dc ea ba
       -0.030590167 -0.19100909 0.10206911 -0.0017918375
000180 6d 67 f0 bd cc 45 56 be 5d 79 86 3e f3 67 0c be
       -0.11738477 -0.20925063 0.26264468 -0.13711528
000190 91 e2 af bd a0 d3 2b be 95 51 c5 3d b1 aa 29 bd
       -0.08588136 -0.16779947 0.09634701 -0.04142255
0001a0 60 1a 32 bd 80 48 a5 bd 9b 86 1c be bd 92 c0 bc
       -0.043482184 -0.08070469 -0.15285723 -0.02350747
0001b0 5e 61 e5 bd 0f 16 ca 3d 98 f9 2a be b2 dd 03 be
       -0.11200212 0.098674886 -0.16696775 -0.12877539
0001c0 f1 0d 51 bd b6 0d 79 be 26 8e 56 be 65 9b 97 bd
       -0.051038686 -0.24321637 -0.20952663 -0.07402686
0001d0 5e a0 99 3c ff 67 41 be cb 1d 58 be c3 99 87 be
       0.018753227 -0.18887328 -0.21105115 -0.26484498
0001e0 5c ae fb bc ff 41 b8 b9 fc d6 a6 bc 5b c5 ba bd
       -0.03072279 -0.00035144386 -0.020366184 -0.09119674
0001f0 0c 74 d8 bc ef 9a b5 3c 29 76 47 bc b8 6d 52 3e
       -0.026422523 0.022168605 -0.012174168 0.20549667

action_model._continuous_distribution.log_sigma f4 [1, 3]
000000 db f4 11 bf 83 3f 14 bf 5a ce 12 be
       -0.57014245 -0.5790941 -0.1433653

action_model._continuous_distribution.mu.weight f4 [3, 128]
000000 8a 75 6c bd 66 29 62 bc e4 10 f4 bc 0e 2d e0 bb
       -0.05772928 -0.0138038155 -0.02979321 -0.0068413084
000010 df c6 be 3d a1 6d eb 3b fa a0 88 bc 8c 26 80 3b
       0.093152754 0.0071846996 -0.016678322 0.003910845
000020 7b 19 10 3c 80 72 ef bd b4 85 0f bc c4 81 cf bd
       0.0087951375 -0.11691761 -0.008759905 -0.10132173
000030 61 ed 53 bd 52 8a 20 bd 43 63 8e 3c d1 6c d3 3a
       -0.051740054 -0.039194413 0.017381316 0.0016130452
000040 6c 5f 8a bd 37 9c e3 bd cc 88 42 3c ab ec 16 3e
       -0.067564815 -0.1111378 0.011873435 0.14738719
000050 17 ba 61 3c a5 ae 2e 3d da 2e 14 bb b3 7d 8a bd
       0.013777277 0.042647023 -0.0022610934 -0.067622565
000060 c6 d1 4d 3d d9 18 5e bd df cf 1a bd 8d 9d a3 bb
       0.050248884 -0.054222915 -0.037795898 -0.0049931468
000070 f9 bb bc bd e3 5a 42 bc e6 ba d8 bd 06 06 e4 3d
       -0.092155404 -0.011862489 -0.10582523 0.111339614
000080 db 72 b4 3d 5f c7 a4 3d 0c 9f 9b bd 7b a3 d5 3c
       0.088109694 0.080458395 -0.07598695 0.02607893
000090 e2 29 f2 bc 49 82 94 bd aa 7d 00 bd 21 cd d7 3b
       -0.029560987 -0.072514124 -0.031369843 0.0065857326
0000a0 ca 75 b1 3d 04 69 1a bd dd 52 93 bd 4d f6 da 3c
       0.086650446 -0.037697807 -0.07193539 0.026728773
0000b0 56 bc e3 bd d3 65 02 be 83 3f ca bc 39 93 11 bd
       -0.111199066 -0.12734155 -0.024688488 -0.035540793
0000c0 0e 91 f7 bc 32 09 81 3d 1b 7e 92 3d c5 a3 0b bd
       -0.030220535 0.06300582 0.07152959 -0.03409173
0000d0 15 20 fb bc 40 b1 17 3c b4 9a 01 bd a6 62 b9 bd
       -0.030654946 0.009258568 -0.031641677 -0.09052019
0000e0 72 8b 1b 3d be f8 8a 3b a9 90 41 3d 4b 94 86 3c
       0.037974782 0.004241078 0.0472571 0.016428133
0000f0 d8 cd 1d bd f4 13 78 3b d5 7d b3 3c 86 58 95 bd
       -0.038526386 0.003785369 0.021910587 -0.07292275
000100 2a 96 85 bd df 7e 6a bd 6a d4 89 bd bd 51 ce 3b
       -0.06522782 -0.0572499 -0.06729968 0.006296365
000110 a3 b2 7f 3d 97 b9 94 bc 22 33 8a bb 40 29 d9 bd
       0.06242622 -0.018154902 -0.0042175213 -0.10603571
000120 e7 5e 76 bc e6 5e 8f 3c fb 8e a7 bc 1a 2c dd bc
       -0.015037275 0.017501306 -0.02045392 -0.026998568
000130 cb 38 46 bd 59 c3 de 3c 54 81 d0 bc ba c4 e6 3d
       -0.048394006 0.027192758 -0.025452293 0.11267991
000140 97 54 ba 3c 6e 78 b5 bd fc 1b 07 3e b6 0f 81 bd
       0.022745414 -0.08860861 0.13194269 -0.06301825
000150 b7 1c 48 bd 42 46 3b bd 01 54 69 bd d5 e1 f0 bb
       -0.04885551 -0.0457213 -0.056964878 -0.00735114
000160 fa 49 18 3d d2 29 b3 bb d5 b8 7c 3d 10 ab bb bd
       0.037179925 -0.005467632 0.061699707 -0.09163487
000170 fe ff 24 bc ee b1 af bd ce b6 98 3c 6b af 85 3d
       -0.010070799 -0.08578859 0.018641856 0.06527599
000180 9c fe 97 ba c9 b0 df bd 7f ee 9a 3d 3c aa bd bc
       -0.0011596265 -0.10922391 0.07565021 -0.023152463
000190 7c 4b 18 bc 60 7d 43 bd ae 1c da 3b 3b 20 e7 bc
       -0.009295341 -0.04772699 0.006656251 -0.02821361
0001a0 7b 16 1e bc 19 e3 b5 bd c6 dc ad bd 0e 7b 90 bb
       -0.009648914 -0.08881206 -0.08489375 -0.0044092005
0001b0 9f 6b 0e bd ac 77 de 3d 44 9c 9d bc 9f 9c 27 bd
       -0.034770604 0.10862669 -0.019239552 -0.04092085
0001c0 b0 d2 59 bc 6d 78 a6 bd 03 69 6b bd 7a 54 3e bc
       -0.013294861 -0.08128438 -0.057473194 -0.0116168205
0001d0 fc db da 3d 48 68 31 bd c9 89 a4 bd 19 eb 14 be
       0.1068649 -0.04331234 -0.08034093 -0.14542808
0001e0 d9 12 30 3d 5a 5f cd bd b1 55 db bc 6a 64 38 3d
       0.042986725 -0.100279525 -0.02677426 0.045017637
0001f0 25 58 27 bc 73 c4 fd bc ad e8 89 3a ff a4 67 3d
       -0.010213886 -0.030977463 0.0010521613 0.056553837
000200 8e fd 14 be 16 52 db bc 1c 8b d1 3d 17 f1 4e bd
       -0.14549848 -0.02677254 0.10231611 -0.05052289
000210 aa 05 23 bd c3 5e a0 bc 9b fa b0 3b 6b 3a aa 3d
       -0.039800324 -0.019576436 0.0054009682 0.083119236
000220 12 52 0c be 9c ce 15 3d 3c 40 f9 3c 9c e0 ac bd
       -0.13703182 0.03657399 0.030426137 -0.08441278
000230 9d a2 07 be f5 15 18 3c 38 0c 34 bd 27 54 4d 3d
       -0.13245626 0.009282579 -0.043956965 0.050129082
000240 d3 1b d3 bd 19 8d 42 bc d5 c5 7c 3e 01 51 b2 3c
       -0.103080414 -0.011874461 0.24684842 0.021767141
000250 76 29 05 39 78 1a 94 bd 4c 47 c0 bd 55 88 55 bd
       0.00012699314 -0.07231611 -0.09388599 -0.05213197
000260 17 99 ad bd d7 49 15 be eb 7f 73 bd dd da 4a bd
       -0.08476465 -0.14578949 -0.059448164 -0.04952513
000270 91 d4 a1 bc 79 ec 08 3e 83 90 94 bd b5 f0 8f 3c
       -0.01975468 0.13371457 -0.07254126 0.017570833
000280 2f 01 87 3d d0 b2 36 3d cb 9b 5f bd b1 77 43 3c
       0.06592023 0.044604123 -0.054591935 0.011930392
000290 f0 14 82 ba 25 6e 88 bd 8c 98 ec bb 8c 8a 2d bd
       -0.0009924453 -0.066616334 -0.0072203334 -0.042368457
0002a0 44 25 4e 3c 63 6e b4 3c a8 f1 ce bd c6 60 75 3e
       0.012582127 0.022025293 -0.10104686 0.23962697
0002b0 c2 2f b4 bd 56 1a 09 3e 44 61 15 ba f0 f2 72 3d
       -0.087981716 0.13388953 -0.00056983926 0.059313715
0002c0 60 34 34 bd 91 a2 08 bd 16 88 8e 3d 5d 99 de bd
       -0.04399526 -0.03335816 0.0695955 -0.108690955
0002d0 29 96 ad bd e6 57 2f bd 3e 29 23 bd b5 c5 1f 3c
       -0.084759064 -0.042808436 -0.039834253 0.009751727
0002e0 ca 7a 12 3d 06 8a 11 bc c4 dc 85 3d 9c 66 ee 3d
       0.035761632 -0.008883005 0.06536248 0.11640665
0002f0 ba e0 ca bc 14 89 09 3d f3 41 a1 bd 51 09 60 bd
       -0.024765361 0.033577994 -0.07873907 -0.054696385
000300 33 52 18 bd 65 83 04 be 13 86 97 bd 0b 3a 17 3d
       -0.037187766 -0.12940748 -0.073986195 0.03692059
000310 f2 20 df 3d 3e 33 1a 3d 87 3f 2f bd 55 c3 21 be
       0.10894956 0.037646525 -0.042785194 -0.1579717
000320 e0 00 c3 bd 78 b0 84 3c f0 4a 0d bd c5 e8 c1 bc
       -0.09521651 0.016197428 -0.034495294 -0.023670563
000330 26 c3 0e bd 29 eb 66 3e 3a f9 ab 3d 7f fc 74 3c
       -0.034854077 0.22550644 0.083971456 0.014952778
000340 c7 99 1f 3d c2 e9 2b 3d a9 68 c7 3d 74 95 3b bc
       0.038965013 0.041970976 0.09736759 -0.011449207
000350 9f 50 f1 bc 1e f4 f0 bd 2a 75 00 3d 61 d1 57 3b
       -0.029457388 -0.11765312 0.031361736 0.0032931196
000360 0b 95 03 bd e5 80 13 3d 47 b9 01 3d 23 16 29 3e
       -0.03212456 0.036011595 0.031670835 0.1651235
000370 ed 28 cc bc 6c 08 95 bd 57 56 07 3d 55 e2 e8 39
       -0.024921859 -0.07276997 0.033041324 0.0004441912
000380 00 2d d9 bd 1b bf ca bd 71 e6 4d 3e 34 e7 e7 bd
       -0.10604286 -0.09899732 0.20107438 -0.11323395
000390 7d e6 2d bd 90 71 86 bd e5 d1 92 3c 15 98 3a b9
       -0.04245614 -0.06564629 0.017922351 -0.00017794997
0003a0 28 cd 69 bc 73 b0 e8 3b 23 8a c7 bc 45 1a 1a bc
       -0.0142701045 0.0071011125 -0.02435786 -0.009405677
0003b0 bf 69 34 bd 4a aa 03 3d e3 e0 ab bd 85 a7 71 bd
       -0.04404616 0.032144822 -0.08392503 -0.05899765
0003c0 96 76 0b 3b ce d9 b8 bd 77 5a 12 be 3b b1 64 3b
       0.00212804 -0.09025918 -0.14292322 0.0034895677
0003d0 71 11 b5 bc 7f 7d 2c be 4a 56 38 3b f0 fa 66 bd
       -0.022103043 -0.16844748 0.0028127604 -0.056391656
0003e0 ad 25 ce bc 00 0a 91 3d 0c 33 f3 3a 13 f9 d1 bd
       -0.02516445 0.070819855 0.0018554642 -0.10252585
0003f0 d1 bc c4 bb cc a0 0a 3c f6 50 98 bc e0 23 02 3e
       -0.006003954 0.0084611885 -0.018593293 0.12708998

action_model._continuous_distribution.mu.bias f4 [3]
000000 e7 a2 57 3e be 85 5a 3e 2b e5 d7 3d
       0.21058236 0.21340081 0.10541757

exp_avg f4 [128, 22]
000000 ea 28 1a b8 02 32 76 39 46 6e 11 b8 ee 52 68 39
       -3.6754565e-05 0.00023479018 -3.4673394e-05 0.00022156138
000010 a0 65 e9 35 e2 9d 66 39 c0 23 30 35 7c 77 6f 39
       1.738943e-06 0.00021993325 6.561713e-07 0.00022837328
000020 48 9f 91 36 0e d6 63 39 9a ce e6 37 68 11 47 39
       4.3398795e-06 0.00021728149 2.7514343e-05 0.00018984603
000030 34 f6 f4 37 10 87 1f 39 64 95 ec 37 e2 de 37 39
       2.9201714e-05 0.00015213736 2.8202958e-05 0.0001753527
000040 18 41 06 38 5a e5 7c 39 7d 06 2b 38 d3 f7 8b 39
       3.2008713e-05 0.00024118033 4.077562e-05 0.0002669679
000050 aa 7c c8 38 57 27 9b 39 4c 4c e0 b8 bf 3e cb b8
       9.559964e-05 0.00029593214 -0.00010695364 -9.691482e-05
000060 49 c5 f5 b8 02 8c 24 b9 28 31 8a b8 e8 3b 95 b7
       -0.000117192576 -0.00015692416 -6.589509e-05 -1.779008e-05
000070 f6 f6 95 b8 33 85 e8 b8 95 8f ae b8 66 db b5 b8
       -7.150874e-05 -0.00011087432 -8.323711e-05 -8.671619e-05
000080 98 ca e0 b8 9b 2d 3d b9 3e f9 bd b8 e6 4c 38 b9
       -0.000107188884 -0.00018041434 -9.058647e-05 -0.00017576254
000090 c9 5e ba b8 d8 f5 86 b9 14 de b9 b8 ab ab 9b b9
       -8.886826e-05 -0.0002574164 -8.862853e-05 -0.00029691806
0000a0 87 90 b0 b8 81 78 8b b9 66 c0 e2 b8 20 64 84 b9
       -8.419254e-05 -0.00026601928 -0.00010812357 -0.000252516
0000b0 7c 18 57 b8 16 f9 93 b7 cd d5 54 b8 2c cb 62 b8
       -5.1282797e-05 -1.7639755e-05 -5.0743856e-05 -5.4071817e-05
0000c0 8b ef df 37 74 92 17 b9 ef b2 d5 37 98 c7 45 b9
       2.6695217e-05 -0.0001445504 2.5474901e-05 -0.00018861738
0000d0 9c e1 c4 37 24 1b 58 b9 90 8a 3a b7 36 d6 20 b9
       2.3470078e-05 -0.00020609476 -1.11187255e-05 -0.00015338589
0000e0 9e 5a 44 b8 da 5b 0a b9 58 2f 46 b8 9e 78 29 b9
       -4.6814435e-05 -0.00013194923 -4.725097e-05 -0.0001616203
0000f0 c4 26 4f b8 c2 bb 6a b9 c4 e0 57 b8 70 16 89 b9
       -4.938875e-05 -0.00022385924 -5.1469324e-05 -0.00026147394
000100 32 6a 0c b8 c9 cd 98 b9 7a f6 fc b7 df 7c 66 b9
       -3.3477503e-05 -0.0002914502 -3.0155516e-05 -0.00021981027
000110 6d 38 07 b8 5e 11 91 b9 c7 a6 17 b9 9a 1e 94 b9
       -3.223906e-05 -0.00027669495 -0.00014462612 -0.0002825156
000120 4a 0c 1d b9 c4 c2 9f b9 41 02 22 b9 a6 2f a5 b9
       -0.00014977265 -0.00030471955 -0.00015450364 -0.00031506753
000130 3f 1a 24 b8 42 4a ab b9 ed ef 1f b8 40 51 ab b9
       -3.912509e-05 -0.00032670988 -3.8132002e-05 -0.00032676198
000140 9c f3 1c b8 4a 48 b9 b9 57 c3 18 b8 76 1e c7 b9
       -3.7420177e-05 -0.0003533981 -3.642155e-05 -0.00037978933
000150 a6 17 0f b8 ec fb cd b9 7c ac 0e b8 a1 53 c7 b9
       -3.411588e-05 -0.00039288343 -3.4016077e-05 -0.00038018546
000160 41 ef e8 38 1e 6a 16 39 d4 30 f1 38 a4 16 97 39
       0.000111071866 0.00014344646 0.000115008705 0.00028817833
000170 32 f9 3a 39 2c 7e 4e 39 fa f1 3f 39 26 b7 9c 39
       0.00017831175 0.00019692694 0.00018305323 0.00029891095
000180 0d cc 45 39 cc ed a7 39 bc e5 44 38 c2 1e ea 39
       0.00018863399 0.00032029895 4.6944e-05 0.00044654874
000190 4c 35 47 38 15 b1 01 3a 46 f5 40 38 b6 12 0f 3a
       4.7494934e-05 0.0004947347 4.6004796e-05 0.0005457805
0001a0 6e a2 3b 38 eb 6c 0f 3a fc 58 39 38 a2 bc 0e 3a
       4.473555e-05 0.0005471247 4.419031e-05 0.00054449786
0001b0 ce 3d 3b 38 f3 90 05 3a 23 58 4b 37 38 da 1f b8
       4.4641834e-05 0.00050951465 1.2120264e-05 -3.8111786e-05
0001c0 1a 74 69 37 40 97 9f 36 a6 76 25 37 78 96 46 b8
       1.3914914e-05 4.756177e-06 9.862391e-06 -4.7347014e-05
0001d0 84 79 4b 37 b0 72 5d 36 56 46 76 37 78 51 df 36
       1.2128035e-05 3.2998323e-06 1.4679119e-05 6.655402e-06
0001e0 f8 89 b7 37 48 93 67 38 75 64 bb 37 89 00 8d 38
       2.1879547e-05 5.5211858e-05 2.2338916e-05 6.7235036e-05
0001f0 bf a0 b8 37 89 11 cb 38 a8 0c b3 37 81 dc dc 38
       2.2009363e-05 9.6830605e-05 2.1344356e-05 0.000105314895
000200 29 ba b0 37 f3 9e c8 38 63 38 b1 37 85 84 b9 38
       2.1067523e-05 9.56635e-05 2.1126301e-05 8.846171e-05
000210 26 26 07 b9 10 3b 88 b9 b0 ea 11 b9 16 d7 a2 b9
       -0.00012888815 -0.00025983946 -0.00013915705 -0.000310593
000220 30 0e b7 b8 5a 0d 0c b9 b3 d1 d0 b8 9f ec 3c b9
       -8.7287626e-05 -0.00013356414 -9.9572724e-05 -0.00018017225
000230 9f a0 ee b8 3c ea 24 b9 46 b3 04 b9 bf 89 8a b9
       -0.000113786424 -0.00015727518 -0.00012655286 -0.0002642404
000240 3c d1 07 b9 11 f7 8a b9 7a 1e 04 b9 f5 4e ac b9
       -0.00012952549 -0.0002650549 -0.00012599854 -0.00032865224
000250 a0 2e 00 b9 c9 6c b5 b9 e4 aa f6 b8 85 b2 a5 b9
       -0.000122244 -0.00034604062 -0.00011762025 -0.0003160426
000260 53 b1 fb b8 f1 7c 99 b9 c4 20 2d b8 1a 2e 34 b9
       -0.00012001642 -0.00029275523 -4.127693e-05 -0.00017183312
000270 ad 91 41 b8 de 66 6b b9 63 7d a5 b8 90 76 1b b9
       -4.6150457e-05 -0.00022449667 -7.891168e-05 -0.0001482612
000280 9e aa b3 b8 8e 36 4d b9 32 f6 c2 b8 c4 87 46 b9
       -8.567165e-05 -0.00019570647 -9.296498e-05 -0.00018933328
000290 84 bc 84 b8 90 94 81 b9 34 5f 87 b8 1b 2d 84 b9
       -6.329364e-05 -0.00024715485 -6.4550346e-05 -0.00025210608
0002a0 51 99 82 b8 1e 6a 9b b9 ea 54 7c b8 60 90 aa b9
       -6.2274405e-05 -0.00029642967 -6.0160564e-05 -0.00032532495
0002b0 83 b0 73 b8 56 53 a7 b9 5a d0 67 b8 af 27 a3 b9
       -5.8100104e-05 -0.00031914812 -5.5268734e-05 -0.0003111935
0002c0 3d 37 8d 38 ef e3 90 3a 9f 5f a3 38 0e 0f 93 3a
       6.733693e-05 0.0011054258 7.7902565e-05 0.0011219697
0002d0 f9 0e 36 39 9a 49 90 3a 07 6b 44 39 be ad 8a 3a
       0.0001736245 0.0011008263 0.00018731887 0.0010580344
0002e0 53 81 54 39 06 b2 8a 3a e0 45 08 39 16 06 84 3a
       0.00020266073 0.001058162 0.00012996001 0.0010072615
0002f0 65 98 0e 39 65 1f 77 3a 32 7e 0c 39 ce 0b 81 3a
       0.00013598947 0.00094269804 0.00013398452 0.0009845437
000300 f2 6d 08 39 1c c1 8d 3a 40 45 06 39 85 58 93 3a
       0.00013010929 0.0010814997 0.00012805033 0.0011241591
000310 81 65 11 39 e2 bb 95 3a 48 8f 17 b8 92 44 a7 b9
       0.00013866091 0.0011423791 -3.6134647e-05 -0.0003190381
000320 dc 78 36 b8 09 1c b7 b9 c8 2c e9 b7 de 54 44 b9
       -4.350474e-05 -0.00034925368 -2.7796617e-05 -0.00018723632
000330 7c ab 18 b8 b6 3e 7b b9 fc 18 4b b8 68 f5 5c b9
       -3.639933e-05 -0.00023960587 -4.842224e-05 -0.00021072256
000340 7a 26 d7 b8 c0 60 96 b9 ea 48 e2 b8 a3 50 87 b9
       -0.00010259166 -0.00028682314 -0.00010790101 -0.00025809286
000350 08 07 da b8 58 eb a6 b9 fb d8 d9 b8 b8 02 c0 b9
       -0.0001039636 -0.00031837332 -0.00010387782 -0.0003662312
000360 c1 79 d2 b8 bc 74 b9 b9 d0 5d bb b8 92 dc be b9
       -0.00010036259 -0.00035372924 -8.934329e-05 -0.00036403962
000370 69 f2 f9 38 9f 18 11 3a 0d e0 04 39 2b 4c 16 3a
       0.00011918398 0.000553498 0.00012671966 0.0005733396
000380 a4 04 0b b9 e6 ae 1b 3a ea c9 04 b9 b9 6f 1c 3a
       -0.00013257802 0.00059388427 -0.0001266372 0.00059675757
000390 6a b3 f8 b8 cf 82 1d 3a 67 f5 a2 38 69 27 0f 3a
       -0.0001185898 0.00060085667 7.770472e-05 0.00054608897
0003a0 f5 55 9e 38 59 b1 0d 3a 88 a5 95 38 9e da 15 3a
       7.550038e-05 0.000540515 7.135706e-05 0.00057164754
0003b0 47 42 8f 38 4e 9f 21 3a 91 1f 93 38 9c 80 26 3a
       6.8311165e-05 0.0006165401 7.015386e-05 0.0006351562
0003c0 77 5e c4 38 49 7b 2b 3a 9b aa 13 b8 1a a4 b6 b9
       9.363604e-05 0.0006541503 -3.520642e-05 -0.0003483601
0003d0 60 73 21 b8 70 b1 ce b9 6a 55 f2 b7 ea 3a bb b9
       -3.8492843e-05 -0.00039423583 -2.8888422e-05 -0.00035711314
0003e0 0b f3 fe b7 9a da e5 b9 46 45 14 b8 fe 5d e1 b9
       -3.0392335e-05 -0.00043841155 -3.5350466e-05 -0.00042985374
0003f0 09 53 32 b8 7f 61 f4 b9 b8 60 5a b8 dc bb e4 b9
       -4.251584e-05 -0.00046611947 -5.2065327e-05 -0.00043627515

exp_avg_sq f4 [128, 22]
000000 a1 e9 a1 36 96 9e a9 36 5d 5a 99 36 bc db a8 36
       4.825372e-06 5.0550543e-06 4.570275e-06 5.0323706e-06
000010 bc 10 8e 36 e8 02 a8 36 84 b7 b9 36 3d fb a5 36
       4.233878e-06 5.0071285e-06 5.5347937e-06 4.946631e-06
000020 f3 c7 b0 36 1e 44 a3 36 ef 51 54 36 4f 85 9d 36
       5.268486e-06 4.8657084e-06 3.1638153e-06 4.694484e-06
000030 f1 22 fd 34 d2 fb 97 36 3b b7 1e 35 58 60 90 36
       4.7150345e-07 4.5294664e-06 5.912622e-07 4.3027503e-06
000040 d2 8d aa 34 28 08 8b 36 97 12 29 36 5b 8f 87 36
       3.1768155e-07 4.1434723e-06 2.5193783e-06 4.0400023e-06
000050 90 28 16 37 f5 e6 88 36 ab 2f 23 35 a4 25 29 37
       8.950141e-06 4.080003e-06 6.07916e-07 1.0081949e-05
000060 6d 75 a4 35 2d 24 29 37 51 58 08 35 6b 8a 28 37
       1.2253128e-06 1.0081608e-05 5.0792465e-07 1.0045808e-05
000070 c2 4a f5 34 a3 4a 28 37 15 79 65 35 62 59 28 37
       4.56892e-07 1.0030958e-05 8.5485345e-07 1.0034391e-05
000080 f3 a0 91 35 bb 2a 24 37 ec 60 4e 35 8f ba 1d 37
       1.0850184e-06 9.785111e-06 7.688202e-07 9.401366e-06
000090 ed e5 88 35 f9 36 15 37 93 8d ef 34 9e dd 0d 37
       1.0199707e-06 8.893891e-06 4.4620228e-07 8.455854e-06
0000a0 5b 27 05 35 8e 1b 09 37 7a 88 0a 35 46 9a 06 37
       4.960363e-07 8.172252e-06 5.1607606e-07 8.022942e-06
0000b0 4e 54 0a 36 cb b2 85 36 fd ae 04 36 6b 17 82 36
       2.0612674e-06 3.984523e-06 1.977139e-06 3.877028e-06
0000c0 cb 1d 9a 35 ec 31 7f 36 98 95 db 35 6f a4 76 36
       1.1482565e-06 3.802702e-06 1.6360309e-06 3.675257e-06
0000d0 66 85 ac 35 4c d6 75 36 e9 82 43 35 ff 49 70 36
       1.2853823e-06 3.6632582e-06 7.283366e-07 3.5805858e-06
0000e0 7b 70 88 35 b5 40 6d 36 74 2e d6 35 16 58 67 36
       1.0165526e-06 3.5353416e-06 1.5957762e-06 3.4472955e-06
0000f0 b8 20 f4 35 0d da 65 36 9f 2a 04 36 05 62 6f 36
       1.8188939e-06 3.4250581e-06 1.9694342e-06 3.567083e-06
000100 3e d1 7e 35 76 1c 73 36 91 38 71 34 f5 13 3c 36
       9.492686e-07 3.6226388e-06 2.2465453e-07 2.80258e-06
000110 ec 2d 9f 34 f0 df 3a 36 ea 15 ba 34 59 2c 3b 36
       2.964947e-07 2.7846509e-06 3.4661144e-07 2.7890985e-06
000120 8b 06 bf 34 82 e1 3b 36 c1 4f ac 34 42 9b 3a 36
       3.5581283e-07 2.7996434e-06 3.2095525e-07 2.7806532e-06
000130 a4 09 61 33 b3 9d 36 36 2b 68 6c 33 e3 16 31 36
       5.2395663e-08 2.7211906e-06 5.5042772e-08 2.6388377e-06
000140 9c e1 1f 34 fc 6e 29 36 49 d9 9c 33 6c da 21 36
       1.4890105e-07 2.5247564e-06 7.30384e-08 2.4118008e-06
000150 1e 07 ac 33 61 b5 1a 36 d0 03 9e 33 58 a8 15 36
       8.010669e-08 2.3053365e-06 7.358142e-08 2.230072e-06
000160 bf 05 9a 35 cf 1e fc 36 cf 5a ad 35 43 80 f8 36
       1.1475566e-06 7.513772e-06 1.2915933e-06 7.4059076e-06
000170 76 62 be 35 ef f8 f5 36 8e a9 95 35 07 43 f5 36
       1.4184759e-06 7.3305487e-06 1.1150712e-06 7.309372e-06
000180 4a dd 6b 35 b0 aa f2 36 cb 7a 27 34 0d cd eb 36
       8.786634e-07 7.2320327e-06 1.5597759e-07 7.027417e-06
000190 e2 b8 14 34 e1 08 e1 36 c4 3f 26 34 00 c3 d5 36
       1.3850834e-07 6.706556e-06 1.5483153e-07 6.3705957e-06
0001a0 65 83 04 34 14 8f cc 36 30 be 12 34 c3 f9 c5 36
       1.2341259e-07 6.0963303e-06 1.36665e-07 5.9001336e-06
0001b0 70 0e 02 34 82 96 c0 36 90 d8 8d 32 f3 b0 3a 35
       1.2112446e-07 5.7395673e-06 1.6513042e-08 6.9547895e-07
0001c0 b5 33 e5 31 8d 24 37 35 7a 83 9b 32 df ed 32 35
       6.6706556e-09 6.8226e-07 1.8104164e-08 6.6656315e-07
0001d0 0d e0 bd 32 99 aa 2f 35 dc 63 94 32 c7 1d 2e 35
       2.2104382e-08 6.544083e-07 1.7274878e-08 6.4863383e-07
0001e0 54 70 89 32 f0 52 28 35 92 58 86 32 3f 30 1f 35
       1.599998e-08 6.2705567e-07 1.563993e-08 5.9302323e-07
0001f0 bd 09 cc 32 4b d0 12 35 e5 25 1a 33 d4 d3 09 35
       2.3753154e-08 5.4692345e-07 3.5890384e-08 5.134473e-07
000200 0a c1 93 32 ab 8b 08 35 98 a6 69 32 52 67 04 35
       1.7200836e-08 5.086719e-07 1.3600264e-08 4.932418e-07
000210 a9 ec de 35 aa e2 9d 37 05 e2 06 36 0d 5a 9f 37
       1.6609166e-06 1.8821407e-05 2.0099117e-06 1.899621e-05
000220 e9 c9 8f 35 3c 2a a1 37 fa eb d7 35 1d 50 a3 37
       1.0713094e-06 1.9212363e-05 1.6087427e-06 1.946842e-05
000230 f9 ec c2 35 b9 07 a9 37 12 8f 75 35 4a 0a a8 37
       1.4523094e-06 2.0149966e-05 9.1477807e-07 2.0031952e-05
000240 21 be 85 35 49 20 a5 37 76 e2 6c 35 bc 28 a0 37
       9.964607e-07 1.9684567e-05 8.8246395e-07 1.9092455e-05
000250 e5 e9 4d 35 7c 7e 9b 37 8c b7 50 35 5b 75 96 37
       7.670881e-07 1.8536339e-05 7.7753134e-07 1.7936041e-05
000260 a6 aa 1a 36 de 19 92 37 3e ec 89 35 ee e9 ba 36
       2.3047119e-06 1.7416602e-05 1.0276051e-06 5.570465e-06
000270 b5 3b 1b 34 dd 6a bb 36 aa ba 24 34 43 dd bc 36
       1.4457221e-07 5.585475e-06 1.5341598e-07 5.628595e-06
000280 0a 47 ae 34 56 a2 be 36 62 58 e0 34 a0 b1 c0 36
       3.2461713e-07 5.6813396e-06 4.1787558e-07 5.742724e-06
000290 02 19 16 35 55 62 bd 36 f8 51 8a 34 e3 2a b8 36
       5.5915746e-07 5.6440863e-06 2.5764143e-07 5.48862e-06
0002a0 bf 9f a3 34 ba fa b0 36 e2 1f e6 33 b7 8c a9 36
       3.0477347e-07 5.274397e-06 1.0716009e-07 5.052974e-06
0002b0 27 88 e2 33 7d 65 a1 36 06 bf b1 33 f2 5d 9c 36
       1.0548711e-07 4.8099887e-06 8.276952e-08 4.660099e-06
0002c0 b8 5d 17 34 a9 ec 06 38 f8 5b 51 34 a5 4b 07 38
       1.4097066e-07 3.2168497e-05 1.94981e-07 3.2256958e-05
0002d0 42 75 a1 34 36 ce 08 38 09 2b d3 34 f6 ac 08 38
       3.0073903e-07 3.2616976e-05 3.9333125e-07 3.258601e-05
0002e0 8d 3f 1f 36 9f f4 08 38 45 4a 90 36 83 55 08 38
       2.3729838e-06 3.2652748e-05 4.3001805e-06 3.2504566e-05
0002f0 27 5b 6b 35 44 70 06 38 51 70 8f 35 5a 43 02 38
       8.7676966e-07 3.2052645e-05 1.0687019e-06 3.105714e-05
000300 2d fa 0b 35 52 39 fe 37 3e 2b 39 35 b9 ad f5 37
       5.214559e-07 3.0305851e-05 6.8980796e-07 2.9287172e-05
000310 8b 7a 28 36 d0 a1 f1 37 21 2c d5 36 0a c6 4b 37
       2.510528e-06 2.8804789e-05 6.353032e-06 1.2145852e-05
000320 51 eb c5 36 47 a6 4d 37 45 27 b9 36 b6 36 4f 37
       5.898452e-06 1.2257667e-05 5.518001e-06 1.23509e-05
000330 57 89 d9 36 35 31 50 37 89 27 05 37 91 32 51 37
       6.4830924e-06 1.2409223e-05 7.936623e-06 1.2469144e-05
000340 8b f0 22 36 53 ff 4d 37 29 61 d7 35 fa 78 49 37
       2.4279896e-06 1.22783995e-05 1.6047026e-06 1.2008701e-05
000350 5d 07 4b 35 f8 52 42 37 54 3c d2 34 c6 36 3b 37
       7.563411e-07 1.1582619e-05 3.9159443e-07 1.11588215e-05
000360 f9 38 c4 34 ce 17 34 37 af 22 51 34 07 5d 30 37
       3.6549298e-07 1.07343785e-05 1.947726e-07 1.0512077e-05
000370 ff 83 77 36 3f d2 63 37 79 39 03 36 b3 03 64 37
       3.68827e-06 1.3579206e-05 1.9553975e-06 1.359072e-05
000380 58 8c a5 35 48 4d 66 37 58 bf 00 36 bb 45 67 37
       1.2334303e-06 1.3727062e-05 1.9184863e-06 1.3784908e-05
000390 86 1a 91 35 5f ee 67 37 eb 09 bd 35 73 f0 65 37
       1.0811061e-06 1.3824173e-05 1.4084484e-06 1.3705448e-05
0003a0 58 45 21 36 f0 fe 60 37 d1 f4 8f 36 a1 67 59 37
       2.4031233e-06 1.3410798e-05 4.2902325e-06 1.2958336e-05
0003b0 86 1b 7f 36 44 2e 52 37 5e 34 de 36 ab 5b 48 37
       3.8013982e-06 1.25277475e-05 6.622212e-06 1.1942272e-05
0003c0 37 49 0e 37 29 ea 41 37 74 c6 c8 32 fb c8 eb 35
       8.480906e-06 1.1558216e-05 2.337331e-08 1.7567357e-06
0003d0 e2 0f 60 33 ec 9a e5 35 82 95 fb 32 ff 71 e2 35
       5.216851e-08 1.7106918e-06 2.9288234e-08 1.6871489e-06
0003e0 73 5f f4 34 70 3f de 35 8a 46 19 35 2a 48 da 35
       4.551799e-07 1.6558752e-06 5.709959e-07 1.6263268e-06
0003f0 e2 98 89 35 3d 4b da 35 ed 67 db 34 c5 8e dc 35
       1.025179e-06 1.6264163e-06 4.0867545e-07 1.6432829e-06

exp_avg f4 [128]
000000 bc f3 1f ba d5 cf fc 3a 47 cd b0 39 58 9e 45 3a
       -0.0006101688 0.0019288013 0.0003372228 0.00075385487
000010 9c c6 68 ba 2a 51 dc b9 f1 05 19 3b 54 22 9c 3a
       -0.0008879693 -0.00042022142 0.0023349489 0.0011912086
000020 25 1f 24 bb 02 12 02 3b 88 13 b2 ba 58 bd 55 3a
       -0.0025042978 0.001984716 -0.0013586143 0.00081535196
000030 48 17 f7 ba ea 73 21 ba a8 6b 00 ba c0 4f 78 b9
       -0.0018851543 -0.0006158935 -0.00048988545 -0.00023680832
000040 9a 80 46 ba 47 82 70 3b a0 4a 64 3b 39 be da 3a
       -0.0007572264 0.0036698745 0.003483452 0.0016688771
000050 ba 2f e1 38 56 ee 4b bb 4b 6e 2d 3b 2a c6 f6 ba
       0.00010737726 -0.00311174 0.0026463445 -0.0018827368
000060 24 e2 83 3a f0 5f 05 3b 18 27 92 b9 ea 09 fc 3a
       0.0010061902 0.0020351373 -0.00027876417 0.0019229029
000070 9a 08 03 ba 0a 79 c3 39 0c 6e 57 3a 18 f9 cb 39
       -0.0004998535 0.0003728348 0.00082179974 0.00038904767
000080 40 0e 92 b8 a4 13 f4 b8 ce 5f 8f 3a c4 95 66 3a
       -6.964477e-05 -0.00011638485 0.0010938586 0.00087961205
000090 ba c7 86 ba d4 7f 47 39 de ec 33 3a e9 75 2b 3b
       -0.0010282912 0.00019025739 0.0006863604 0.002616281
0000a0 7e c2 98 3a b3 16 0f 3a 54 4d c3 39 92 e6 ea 39
       0.0011654643 0.00054583995 0.00037250912 0.00044803746
0000b0 2e 23 ed 3a 04 6b db ba 0a 7e cd 39 5c b2 1d 39
       0.0018092149 -0.0016740267 0.00039194553 0.00015039131
0000c0 10 f6 0a 3b fe 7e 4b ba 6d b1 09 b9 7a 2c 3b 39
       0.0021203794 -0.0007762759 -0.00013131434 0.00017850279
0000d0 d3 3f 2d ba 88 16 33 b8 be 53 33 ba 86 a5 e4 b7
       -0.0006608937 -4.269791e-05 -0.00068407867 -2.7256796e-05
0000e0 4a 24 33 3b e1 85 34 3b a5 71 e9 3a 1a 5b 31 39
       0.0027334862 0.0027545618 0.0017810358 0.00016913973
0000f0 13 19 5e 3a ec 23 3d 3b b1 45 3b 39 eb b6 c3 b9
       0.0008472364 0.0028860522 0.00017859672 -0.00037329583
000100 ec aa 18 b9 70 6f 84 39 b5 76 12 3b 6c 08 54 3a
       -0.00014559523 0.0002526003 0.0022348587 0.0008088413
000110 ee 57 6c ba 12 a9 cb ba d5 71 5f 3a 76 94 09 3b
       -0.0009015788 -0.0015538058 0.0008523737 0.002099303
000120 00 01 f6 b6 5b e0 da ba f9 d7 9e 3a cb e7 b8 3a
       -7.3314877e-06 -0.0016698943 0.0012118808 0.0014107166
000130 20 f2 ee b9 34 aa 5b 38 c8 b1 85 b8 28 62 d1 39
       -0.00045575295 5.2372183e-05 -6.3750485e-05 0.00039936719
000140 e0 71 38 ba 2a af 46 3b 88 f3 b7 3a de f0 b7 ba
       -0.00070360117 0.0030316808 0.001403437 -0.0014033576
000150 c8 e8 3e 3a d7 63 34 3a 8c 83 2b b9 c4 8b 99 39
       0.0007282612 0.00068813324 -0.00016356836 0.00029286568
000160 ef ee 78 3a 2a 9e 8b 3a b0 c0 9a 3a 12 74 e9 b9
       0.0009496053 0.0010651995 0.0011806693 -0.00044527702
000170 38 d4 e3 36 98 1b 9e b9 d3 5d d0 39 71 36 18 ba
       6.7898327e-06 -0.00030156667 0.00039742756 -0.0005806452
000180 2a 48 e6 39 d8 27 65 b9 5a 89 a7 39 66 84 14 3a
       0.00043922785 -0.00021853985 0.00031955057 0.0005665481
000190 6c 65 e9 ba 1a 24 f2 38 13 fc 81 3a f3 e2 ff ba
       -0.0017806715 0.00011546184 0.0009917043 -0.0019522592
0001a0 72 29 1a 3b c0 c2 b6 b8 01 a2 c1 ba 33 e2 b5 3a
       0.0023523238 -8.714711e-05 -0.0014773012 0.0013876617
0001b0 ee a1 71 3a 0c d1 6a 39 d8 cb 6c b9 7e b1 32 bb
       0.000921755 0.00022393855 -0.00022582652 -0.0027266438
0001c0 88 ec d0 38 56 83 10 ba a6 64 48 3a c0 39 30 b7
       9.96227e-05 -0.00055127346 0.00076443923 -1.0503863e-05
0001d0 71 c6 4e ba cd c1 54 ba de f1 8f b9 29 98 7c 38
       -0.00078878464 -0.0008116037 -0.0002745529 6.0223192e-05
0001e0 df 0e 3d 3a aa 4c ce 3a 64 1c 25 b9 cf 32 51 39
       0.0007211994 0.00157394 -0.00015746203 0.00019950721
0001f0 95 1e 8c 3a 5f c1 0e 3a 60 b5 b2 3a e9 d3 14 3a
       0.0010690266 0.00054456847 0.0013634376 0.0005677329
