results/timeout60/3DBall/3DBall-1999380.pt (torch, 495670 bytes, 44 tensors)

network_body.observation_encoder.processors.0.normalizer.running_mean f4 [22]
0.0008497624 4.3344 0.0011443534 4.334901 0.0015709848 4.3372383 0.0020571419 4.3374915
0.0026418192 4.3339663 0.003046942 4.3244934 0.0031399748 4.3095136 0.0030174355 4.2902694
0.002832376 4.270329 0.0026033032 4.2543197 0.0022947092 4.2458186
00000000: 97c2 5e3a 68b3 8a40 21fe 953a 82b7 8a40
00000010: 81e9 cd3a a8ca 8a40 1dd1 063b bbcc 8a40
00000020: 5f22 2d3b daaf 8a40 34af 473b 4062 8a40
00000030: 09c8 4d3b 89e7 8940 2bc0 453b e349 8940
00000040: 629f 393b 89a6 8840 2e9c 2a3b 6323 8840
00000050: d562 163b bfdd 8740

network_body.observation_encoder.processors.0.normalizer.running_variance f4 [22]
1698.5536 1.0968143e+08 2286.3835 1.09677736e+08 3137.0676 1.0969881e+08 4105.5356 1.0973643e+08
5269.043 1.0978921e+08 6074.446 1.0984856e+08 6259.2886 1.09917304e+08 6015.798 1.0998734e+08
5647.955 1.10051304e+08 5192.4604 1.1011075e+08 4578.469 1.10161816e+08
00000000: b751 d444 6333 d14c 23e6 0e45 9531 d14c
00000010: 1511 4445 df3b d14c 494c 8045 3e4e d14c
00000020: 58a8 a445 0368 d14c 91d3 bd45 fe84 d14c
00000030: 4f9a c345 8fa6 d14c 62fe bb45 c2c8 d14c
00000040: a47f b045 fde7 d14c af43 a245 0405 d24c
00000050: c113 8f45 f31d d24c

network_body.processors.0.normalizer.running_mean f4 [22]
0.0008497624 4.3344 0.0011443534 4.334901 0.0015709848 4.3372383 0.0020571419 4.3374915
0.0026418192 4.3339663 0.003046942 4.3244934 0.0031399748 4.3095136 0.0030174355 4.2902694
0.002832376 4.270329 0.0026033032 4.2543197 0.0022947092 4.2458186
00000000: 97c2 5e3a 68b3 8a40 21fe 953a 82b7 8a40
00000010: 81e9 cd3a a8ca 8a40 1dd1 063b bbcc 8a40
00000020: 5f22 2d3b daaf 8a40 34af 473b 4062 8a40
00000030: 09c8 4d3b 89e7 8940 2bc0 453b e349 8940
00000040: 629f 393b 89a6 8840 2e9c 2a3b 6323 8840
00000050: d562 163b bfdd 8740

network_body.processors.0.normalizer.running_variance f4 [22]
1698.5536 1.0968143e+08 2286.3835 1.09677736e+08 3137.0676 1.0969881e+08 4105.5356 1.0973643e+08
5269.043 1.0978921e+08 6074.446 1.0984856e+08 6259.2886 1.09917304e+08 6015.798 1.0998734e+08
5647.955 1.10051304e+08 5192.4604 1.1011075e+08 4578.469 1.10161816e+08
00000000: b751 d444 6333 d14c 23e6 0e45 9531 d14c
00000010: 1511 4445 df3b d14c 494c 8045 3e4e d14c
00000020: 58a8 a445 0368 d14c 91d3 bd45 fe84 d14c
00000030: 4f9a c345 8fa6 d14c 62fe bb45 c2c8 d14c
00000040: a47f b045 fde7 d14c af43 a245 0405 d24c
00000050: c113 8f45 f31d d24c

network_body._body_endoder.seq_layers.0.weight f4 [128, 22]
0.40019542 -0.020092752 0.14079249 0.18835953 -0.5673749 -0.1518353 0.5091696 0.017717171
-0.11679083 -0.3187464 0.24385847 -0.21280716 -0.3875081 -0.40654176 0.110154636 0.1284046
-0.36612397 -0.114750706 -0.0005523534 0.3111638 0.29211387 0.43774155 0.11555675 -0.123976454
0.23233564 0.25654852 -0.13319749 -0.20023684 -0.18671913 -0.122920536 0.0636616 0.109011695
0.14920314 -0.36831194 0.044320565 0.0014423059 0.4158877 -0.14800212 -0.3226056 -0.07082818
0.06111608 -0.277066 0.15943567 -0.18214776 0.11827397 0.31939673 0.474921 -0.16316092
-0.28354168 0.0062047434 0.2265035 -0.27256697 0.07928558 0.5518488 -0.051365525 -0.044830445
0.15357526 0.10733102 -0.051234614 0.31597635 0.19629258 0.09105372 0.026930405 -0.120972045
-0.13105164 -0.13476965 -0.052598838 0.43324754 -0.03477294 -0.14013654 0.09013959 -0.10130604
0.10320848 -0.08755876 0.01811289 0.15534414 -0.27119505 -0.077543795 -0.23288703 -0.030122632
-0.05198858 0.15529963 -0.43960726 -0.105259344 -0.26310745 -0.45288154 -0.15581107 0.4480753
0.051809415 -0.6419837 -0.0076263505 0.11101795 0.13914797 0.60777515 -0.033507045 0.343392
0.1826447 -0.3101317 -0.24699126 -0.13450305 -0.22044234 -0.19844444 -0.07091604 0.16225421
-0.37050828 0.27483344 -0.08349971 0.054781843 -0.46999246 -0.07896555 0.186851 -0.09206637
-0.28546312 0.06489897 0.023350269 0.1745556 -0.0062600872 -0.4275196 -0.10062862 0.43806225
-0.36897662 0.3128383 -0.40866205 -0.60771173 0.006212603 -0.07153366 -0.044510003 0.41715598
-0.061480336 -0.101641536 -0.2944762 -0.14482836 0.11758565 0.19932093 0.14837748 0.15727757
-0.1901917 0.3987692 0.13906933 0.15139572 -0.025109991 -0.44322896 0.10333549 0.12998773
-0.00956168 -0.26449868 0.22912991 -0.26477584 0.0065104943 -0.25501746 -0.23087646 -0.2636142
0.14420597 -0.35078347 0.5054087 -0.20512824 7.954581e-05 -0.2320039 0.14084809 -0.06451404
0.028337302 0.017626554 -0.10964275 -0.11347558 0.24371937 -0.09285634 0.20686512 -0.18247685
-0.024900032 -0.105850644 -0.4018632 -0.31730348 -0.19017096 0.008827797 -0.21036693 0.4066463
-0.26677093 0.015857512 -0.24123475 0.31126392 -0.1777231 -0.108933695 -0.3176738 -0.33285275
-0.041229684 -0.11987779 0.17093433 -0.015249407 -0.27379656 0.20553929 0.03005028 -0.07669538
-0.5748608 -0.024625879 0.1077507 0.10034681 0.0937573 0.3676105 0.20232472 0.21455383
-0.11821343 -0.15548709 -0.3527483 0.07804779 -0.007713422 -0.12807567 0.33016008 0.3043405
-0.051655587 -0.19168064 0.16667074 -0.053376745 0.1007053 -0.23856533 -0.24451092 -0.29439238
-0.09206378 -0.13092047 -0.28028837 -0.18778159 0.12742974 -0.36010814 0.052452262 0.21894793
0.3480473 -0.070413195 0.160203 -0.18840767 0.10234304 -0.14253813 -0.11162775 -0.00058392686
0.1490205 0.094087236 0.08379754 -0.07694203 -0.16657259 0.15323482 0.3125603 0.42467323
0.33656663 0.24309804 -0.16217156 0.3339353 0.10208262 0.13893525 -0.47682092 0.2241363
0.31866452 0.035375267 -0.09142293 0.41047996 0.14437267 0.24752736 -0.13707948 0.26724878
00000000: 6ae6 cc3e 8e99 a4bc e82b 103e 52e1 403e
00000010: 7b3f 11bf b67a 1bbe f058 023f 9a23 913c
00000020: 0830 efbd ba32 a3be 09b6 793e 1fea 59be
00000030: 7667 c6be 3e26 d0be c198 e13d 7f7c 033e
00000040: 9a74 bbbe 6b02 ebbd cfcb 10ba dd50 9f3e
00000050: f38f 953e a91f e03e 04a9 ec3d 5ee7 fdbd
00000060: 65e9 6d3e 545a 833e ec64 08be e30a 4dbe
00000070: 4d33 3fbe c3bd fbbd 0361 823d 8641 df3d
00000080: b5c8 183e 6293 bcbe 7b89 353d c10b bd3a
00000090: 3cef d43e de8d 17be 902c a5be 5d0e 91bd
000000a0: db54 7a3d 98db 8dbe 1b43 233e f184 3abe
000000b0: a039 f23d f887 a33e d828 f33e a813 27be
000000c0: 602c 91be 2951 cb3b 89f0 673e e68d 8bbe
000000d0: 7a60 a23d f745 0d3f a864 52bd 21a0 37bd
000000e0: d542 1d3e 5ed0 db3d 63db 51bd a7c7 a13e
000000f0: ec00 493e 5f7a ba3d 279d dc3c 31c0 f7bd
00000100: 6732 06be 0e01 0abe e171 57bd 9fd2 dd3e
00000110: 126e 0ebd f47f 0fbe 1b9b b83d 8b79 cfbd
00000120: f85e d33d 0252 b3bd 7c61 943c 8912 1f3e
00000130: 14da 8abe 48cf 9ebd f079 6ebe bdc3 f6bc
00000140: faf1 54bd de06 1f3e 3414 e1be 3692 d7bd
00000150: 05b6 86be 17e0 e7be f08c 1fbe 206a e53e
00000160: 1c36 543d 0b59 24bf 77e6 f9bb 615d e33d
00000170: ce7c 0e3e 2797 1b3f af3e 09bd 14d1 af3e
00000180: 3607 3b3e 95c9 9ebe 47eb 7cbe 2bbb 09be
00000190: a3bb 61be 0535 4bbe 6e3c 91bd f825 263e
000001a0: 43b3 bdbe f8b6 8c3e e501 abbd ed62 603d
000001b0: daa2 f0be b1b8 a1bd de55 3f3e 4b8d bcbd
000001c0: 3928 92be c0e9 843d 1049 bf3c b4be 323e
000001d0: 6b21 cdbb d9e3 dabe 6116 cebd b249 e03e
000001e0: 81ea bcbe 572c a03e 273c d1be ff92 1bbf
000001f0: 1793 cb3b 3d80 92bd 1f50 36bd 7895 d53e
00000200: ced2 7bbd 7029 d0bd 96c5 96be e34d 14be
00000210: bfd0 f03d c91a 4c3e 44f0 173e 5f0d 213e
00000220: 9dc1 42be 7a2b cc3e 3168 0e3e 7b07 1b3e
00000230: 78b3 cdbc e8ee e2be 8fa1 d33d 811b 053e
00000240: 98a8 1cbc 5f6c 87be 08a1 6a3e b390 87be
00000250: fc55 d53b a691 82be e16a 6cbe 71f8 86be
00000260: bbaa 133e e499 b3be 7762 013f 230d 52be
00000270: d5d1 a638 6e92 6dbe 7b3a 103e f01f 84bd
00000280: a123 e83c 9065 903c 618c e0bd e365 e8bd
00000290: 9291 793e 772b bebd 73d4 533e 36db 3abe
000002a0: 27fb cbbc 39c8 d8bd 03c1 cdbe 9a75 a2be
000002b0: 2dbc 42be 77a2 103c 6e6a 57be f233 d03e
000002c0: 3396 88be 9de7 813c 3e06 77be fc5d 9f3e
000002d0: 0bfd 35be a118 dfbd 24a6 a2be ad6b aabe
000002e0: 75e0 28bd 7d82 f5bd 6909 2f3e a6d8 79bc
000002f0: 102f 8cbe e478 523e 012c f63c 7812 9dbd
00000300: 142a 13bf 36bc c9bc 66ac dc3d a182 cd3d
00000310: d403 c03d 7237 bc3e 362e 4f3e 00b4 5b3e
00000320: e219 f2bd 0238 1fbe 6d9b b4be 85d7 9f3d
00000330: e0c0 fcbb 4526 03be be0a a93e 85d2 9b3e
00000340: cf94 53bd ee47 44be bcab 2a3e 93a1 5abd
00000350: 953e ce3d 784a 74be 1261 7abe 99ba 96be
00000360: ef8b bcbd 0410 06be f581 8fbe d149 40be
00000370: f17c 023e 1860 b8be 2fd8 563d e333 603e
00000380: 4133 b23e cb34 90bd 410c 243e f1ed 40be
00000390: 3a99 d13d 84f5 11be 179d e4bd ab12 19ba
000003a0: d498 183e cfb0 c03d 0b9e ab3d c893 9dbd
000003b0: 0192 2abe 97e9 1c3e e707 a03e c56e d93e
000003c0: 7652 ac3e b1ee 783e 4d10 26be 91f9 aa3e
000003d0: b110 d13d 0b45 0e3e df21 f4be fc83 653e
000003e0: ff27 a33e a8e5 103d f23b bbbd 6e2a d23e
000003f0: 6ed6 133e d077 7d3e 905e 0cbe d5d4 883e

network_body._body_endoder.seq_layers.0.bias f4 [128]
-0.013244386 -0.16606405 0.022744035 -0.12083407 0.081613824 -0.08865162 -0.17018335 -0.18077292
0.15347464 -0.1382409 0.16547526 -0.026245717 0.1363587 -0.011514598 0.087001346 -0.060186043
0.12065118 -0.11392486 -0.20506065 -0.17490351 0.0176509 0.117526814 -0.16483165 0.15776421
-0.1495581 -0.15533707 0.09185051 -0.14361656 0.07070976 -0.12126 -0.07293312 -0.06935011
0.12322663 -0.014201688 -0.2033394 -0.19647673 0.05687809 0.03131644 -0.17886594 -0.22124225
-0.16894555 0.035039205 -0.02652339 -0.14880715 -0.12388167 0.08054116 -0.15972808 -0.08758311
-0.13572638 0.11672593 0.105673954 0.09621661 0.049301926 0.055277303 0.15432794 -0.09648139
-0.14604765 -0.20327282 -0.23736575 -0.10087255 -0.1830844 -0.22501765 0.091013454 0.118954085
0.0134344455 -0.02700611 -0.11891785 -0.056423984 -0.020826627 0.08378699 -0.08662445 -0.17639817
0.08269827 0.1160465 -0.18631141 -0.13097176 0.19371146 0.024053974 0.16310126 -0.088710696
-0.013545204 -0.1395426 -0.093892254 0.10049059 -0.13611715 -0.10694683 -0.07469938 -0.0031277302
-0.23957108 -0.108593896 -0.104272954 0.23445939 -0.08456258 0.11022181 -0.0071405843 -0.015158163
0.07508489 0.20499547 0.04646086 -0.024833016 0.17563967 -0.029260606 -0.10545632 0.20713246
-0.15341714 0.005314011 0.16387707 -0.18143801 -0.20994654 -0.0809576 0.06667469 0.111080185
0.025058376 0.016349204 -0.03150761 0.031111013 0.031429224 0.058172368 0.15216015 -0.11478324
-0.09176502 -0.23154232 0.0566388 0.094967455 -0.07338937 -0.071148716 -0.13512415 -0.07164526
00000000: fbfe 58bc b20c 2abe b351 ba3c da77 f7bd
00000010: 2625 a73d fb8e b5bd 8b44 2ebe 891c 39be
00000020: 7528 1d3e 068f 0dbe 5972 293e 4201 d7bc
00000030: 9da1 0b3e b9a7 3cbc c32d b23d a485 76bd
00000040: f717 f73d 7051 e9bd 6bfb 51be e819 33be
00000050: 9f98 903c e6b1 f03d a1c9 28be f18c 213e
00000060: c225 19be ae10 1fbe 1f1c bc3d 3810 13be
00000070: 47d0 903d 2a57 f8bd f65d 95bd 6e07 8ebd
00000080: 3e5e fc3d 32ae 68bc 3438 50be 3231 49be
00000090: 00f9 683d ab45 003d a228 37be 548d 62be
000000a0: 1000 2dbe 4585 0f3d 9547 d9bc e760 18be
000000b0: acb5 fdbd c4f2 a43d c28f 23be c65e b3bd
000000c0: dbfb 0abe 010e ef3d 966b d83d 370d c53d
000000d0: d1f0 493d 746a 623d 2508 1e3e 0998 c5bd
000000e0: 848d 15be c026 50be 0210 73be 4496 cebd
000000f0: 7a7a 3bbe 076b 66be 4365 ba3d 339e f33d
00000100: 261c 5c3c eb3b ddbc 348b f3bd d61c 67bd
00000110: 9a9c aabc 8398 ab3d 2968 b1bd b9a1 34be
00000120: b65d a93d caa9 ed3d 6bc8 3ebe 761d 06be
00000130: 4c5c 463e d70c c53c 0404 273e f4ad b5bd
00000140: b4ec 5dbc 41e4 0ebe 954a c0bd 03ce cd3d
00000150: 4b62 0bbe f106 dbbd fdfb 98bd 9bfa 4cbb
00000160: 1f52 75be 7a66 debd 0f8d d5bd 1f16 703e
00000170: 252f adbd f9bb e13d 90fb e9bb f259 78bc
00000180: 1bc6 993d 55ea 513e be4d 3e3d 9c6e cbbc
00000190: e3da 333e f0b3 efbc 7cf9 d7bd 881a 543e
000001a0: 6219 1dbe 2821 ae3b 64cf 273e e3ca 39be
000001b0: 3afc 56be 19cd a5bd bd8c 883d 027e e33d
000001c0: 3947 cd3c c4ee 853c 200e 01bd 86dc fe3c
000001d0: eebb 003d 2646 6e3d dfcf 1b3e 7a13 ebbd
000001e0: 4cef bbbd 6e19 6dbe 16fe 673d 4c7e c23d
000001f0: 2b4d 96bd 6bb6 91bd fc5d 0abe c0ba 92bd

network_body._body_endoder.seq_layers.2.weight f4 [128, 128]
0.069125295 -0.04413296 -0.024090115 0.25777972 -0.004867907 -0.10363245 0.04213297 0.09131445
-0.120222 0.056230847 -0.10964756 -0.11057584 -0.16228905 -0.15994978 -0.12196717 -0.0131673515
-0.0867481 0.022420904 0.16567221 0.013745582 0.027068546 -0.07025877 0.14484726 -0.23559195
-0.04532227 0.026309501 -0.011337752 -0.020055024 -0.10616083 0.07453202 0.12765571 0.21228315
-0.1539233 -0.015397545 0.039893784 0.015188411 0.027123388 -0.04114814 0.07111802 0.056635015
0.01773498 -0.10725742 0.06174175 0.015862554 -0.116352335 -0.15623464 0.02226323 0.116098866
0.071760684 -0.24113879 -0.048690744 -0.107228264 -0.08398542 -0.039123975 -0.00728269 0.12378438
-0.07660998 0.027165098 0.16532199 0.0062268125 -0.040412355 0.02361021 -0.06543204 -0.13682583
-0.015929507 -0.04001251 -0.028121011 -0.06453833 -0.022196874 -0.14409043 -0.08092288 -0.027063368
0.038316257 -0.04166815 -0.23416375 0.010522787 -0.09684393 -0.047175914 -0.109227486 0.052351803
-0.042664323 0.053450555 0.04773231 -0.0073608602 0.3630312 -0.028471911 0.11067486 0.046727974
-0.10453421 0.12499619 0.06569221 -0.13066578 0.2459889 -0.16977991 0.068307504 0.01704442
0.11253285 0.050473627 0.032268483 -0.08894739 -0.113198124 -0.15517597 -0.034160703 -0.11456304
0.21727724 -0.021766843 -0.17683484 0.10031333 0.04641558 -0.10067892 -0.05054851 -0.024495373
0.038852878 -0.08012996 -0.12065535 0.018139733 -0.013449511 -0.15614755 -0.040295802 0.009530233
-0.020153448 0.10980853 -0.072555 -0.11523552 -0.07522976 0.031713504 0.06674941 0.21009749
0.06241426 -0.12445352 -0.08208384 0.06321142 -0.15300839 -0.11728536 -0.017373208 -0.089411296
-0.007365958 -0.21298115 0.0027246187 0.11087995 -0.16130227 0.25575328 -0.22500904 0.14754796
-0.06876304 -0.22264983 -0.008022279 -0.13975199 -0.026094535 0.035906985 -0.07579021 0.039886057
0.11816133 0.09880225 -0.12057172 -0.050404117 -0.07562014 -0.12208526 -0.07409306 -0.33141416
-0.13798453 0.0073480783 0.07478117 -0.10406695 0.11878808 0.035444606 -0.034501147 -0.121737726
-0.045859195 -0.3040068 0.13885434 0.08722696 -0.028013555 0.08717473 -0.0071000564 0.21330447
-0.10689446 0.03195296 -0.17041475 -0.1617419 -0.044649847 -0.057633393 0.020176085 0.10764433
-0.12411252 -0.17346117 0.110401146 0.054297898 0.23666158 0.06881571 0.012735411 -0.08349418
-0.06316538 -0.23774114 -0.16812089 -0.20534496 -0.02068753 -0.16351518 -0.070895515 -0.08070727
-0.03959963 -0.15670212 -0.009831891 0.0527513 -0.12250931 0.0030198498 0.050195962 -0.019947086
0.044867884 -0.22096717 -0.014495065 -0.13893542 0.082866035 0.028976897 -0.038760327 0.08306026
0.033718254 0.04838707 0.011865033 -0.21932514 -0.10550905 0.08832834 -0.1523406 -0.1475851
0.09273771 -0.26236272 -0.011140169 0.015122187 -0.086799465 -0.026544511 0.009616656 -0.13691688
-0.014939205 -0.13428724 -0.26876915 0.06500236 0.14436783 0.041453607 -0.041531704 -0.050564636
-0.009184121 0.010638152 0.11027562 -0.1374015 0.22326612 -0.06995972 0.0509888 0.29482895
0.2608326 -0.20541394 0.13200349 -0.2800707 0.0022057185 -0.032372165 -0.25336075 -0.26198128
00000000: 9091 8d3d c3c4 34bd a258 c5bc b4fb 833e
00000010: f782 9fbb 403d d4bd 9f93 2c3d 1203 bb3d
00000020: f436 f6bd 5152 663d e68e e0bd 9675 e2bd
00000030: 1a2f 26be e0c9 23be ecc9 f9bd e0bb 57bc
00000040: fda8 b1bd 0bac b73c faa5 293e 2635 613c
00000050: dbbe dd3c d4e3 8fbd d752 143e 043f 71be
00000060: d8a3 39bd 0687 d73c fbc1 39bc 6f4a a4bc
00000070: d96a d9bd 3ea4 983d 2eb8 023e c160 593e
00000080: 129e 1dbe fc45 7cbc aa67 233d d0d8 783c
00000090: de31 de3c f48a 28bd 53a6 913d 1efa 673d
000000a0: f348 913c c7a9 dbbd ebe4 7c3d 30f2 813c
000000b0: 224a eebd f9fb 1fbe 6161 b63c 3ec5 ed3d
000000c0: 44f7 923d 16ed 76be f26f 47bd 7e9a dbbd
000000d0: 8c00 acbd 7640 20bd a2a3 eebb aa82 fd3d
000000e0: b1e5 9cbd 5789 de3c 2b4a 293e 4a0a cc3b
000000f0: 6d87 25bd 336a c13c 3c01 86bd 121c 0cbe
00000100: 997e 82bc 28e4 23bd 095e e6bc ac2c 84bd
00000110: 38d6 b5bc 718c 13be e5ba a5bd ffb3 ddbc
00000120: 82f1 1c3d 39ac 2abd 9fc8 6fbe c567 2c3c
00000130: 1c56 c6bd 883b 41bd a9b2 dfbd d86e 563d
00000140: c9c0 2ebd f8ee 5a3d f482 433d 5f33 f1bb
00000150: 3adf b93e ed3d e9bc 80a9 e23d d565 3f3d
00000160: 0816 d6bd 01fe ff3d a389 863d 40cd 05be
00000170: 84e4 7b3e c9da 2dbe cee4 8b3d bda0 8b3c
00000180: 9f77 e63d 6fbd 4e3d f52b 043d 0d2a b6bd
00000190: 6bd4 e7bd 73e6 1ebe 18ec 0bbd 07a0 eabd
000001a0: ed7d 5e3e 6150 b2bc 3114 35be 1371 cd3d
000001b0: 431e 3e3d c030 cebd f40b 4fbd 85aa c8bc
000001c0: 3224 1f3d 2d1b a4bd 271a f7bd c799 943c
000001d0: 565b 5cbc 25e5 1fbe 360d 25bd b224 1c3c
000001e0: d818 a5bc 4be3 e03d b797 94bd 9a00 ecbd
000001f0: 0f12 9abd 05e6 013d eab3 883d cc23 573e
00000200: 18a6 7f3d 7de1 febd 931b a8bd fd74 813d
00000210: 3bae 1cbe 4f33 f0bd 4252 8ebc 451d b7bd
00000220: 225e f1bb bb17 5abe 848f 323b 0715 e33d
00000230: 6c2c 25be 18f2 823e c568 66be d016 173e
00000240: a3d3 8cbd 51fe 63be e06f 03bc 251b 0fbe
00000250: 35c4 d5bc 3413 133d e637 9bbd 905f 233d
00000260: 91fe f13d d658 ca3d 4eee f6bd 8c74 4ebd
00000270: bbde 9abd d607 fabd 1abe 97bd 1eaf a9be
00000280: d14b 0dbe 26c8 f03b df26 993d 0e21 d5bd
00000290: 2a47 f33d 5d2e 113d 1351 0dbd a151 f9bd
000002a0: dad6 3bbd c7a6 9bbe d52f 0e3e 0ca4 b23d
000002b0: af7c e5bc aa88 b23d 97a7 e8bb 7d6c 5a3e
000002c0: 7ceb dabd 1be1 023d 3481 2ebe ab9f 25be
000002d0: c2e2 36bd fe10 6cbd 5148 a53c a174 dc3d
000002e0: b42e febd ce9f 31be ff19 e23d 7967 5e3d
000002f0: 6a57 723e 40ef 8c3d 2fa8 503c fffe aabd
00000300: da5c 81bd 6a72 73be e227 2cbe f345 52be
00000310: e578 a9bc 8670 27be ab31 91bd da49 a5bd
00000320: 3933 22bd 8576 20be f115 21bc bf11 583d
00000330: 29e6 fabd ace8 453b 489a 4d3d 1268 a3bc
00000340: 63c7 373d 3845 62be b67c 6dbc 1645 0ebe
00000350: abb5 a93d f560 ed3c 26c3 1ebd 7f1b aa3d
00000360: 271c 0a3d 8531 463d 8e65 423c c596 60be
00000370: 2115 d8bd 7de5 b43d 2dff 1bbe 8c20 17be
00000380: 45ed bd3d 6854 86be 4185 36bc 0dc3 773c
00000390: ebc3 b1bd e073 d9bc 2e8f 1d3c f033 0cbe
000003a0: 91c3 74bc 9882 09be 1c9c 89be f51f 853d
000003b0: 29d5 133e 42cb 293d 261d 2abd dd1c 4fbd
000003c0: ff78 16bc a54b 2e3c 2fd8 e13d fbb2 0cbe
000003d0: e09f 643e 0b47 8fbd a2d9 503d d2f3 963e
000003e0: da8b 853e 0858 52be ec2b 073e 6d65 8fbe
000003f0: d18d 103b ad98 04bd 80b8 81be 6922 86be

network_body._body_endoder.seq_layers.2.bias f4 [128]
-0.17091614 -0.009105331 0.019139238 -0.04631843 -0.0021819335 0.05658663 0.015986832 0.21861522
-0.059119463 -0.06551387 0.06472612 -0.18749906 -0.21655001 0.043041952 -0.049356718 0.08048966
-0.19258249 -0.029966729 0.25682926 0.08192303 0.04550482 -0.0367281 -0.11296558 -0.17119364
-0.010996215 -0.21194772 -0.14626205 -0.036191154 -0.06490211 0.21152674 -0.16819435 0.06221169
0.13498902 0.090848215 -0.13011526 0.06341641 -0.021759978 -0.15153989 -0.027764065 -0.09543604
0.06321401 0.005912041 -0.11086498 0.20531516 -0.16530994 0.030332949 0.027121479 0.14294988
-0.06015621 -0.013295827 0.13155834 -0.11022696 -0.13333836 -0.0048190947 -0.11600408 0.015849737
0.103366904 0.021200933 0.1193535 0.17612243 -0.05573621 0.080259435 -0.051709827 -0.12216332
-0.082793504 -0.15282719 -0.15906762 0.08784764 0.1763582 0.08289689 -0.03778829 -0.12305871
-0.07224164 0.048130732 -0.104707606 -0.054931134 -0.07572214 0.18525694 0.068621114 0.05348346
0.047860567 -0.08735653 0.14016329 -0.11033184 -0.035664182 -0.12485693 -0.037747797 0.071172036
-0.015284888 0.05528742 0.08496641 0.03704063 -0.010713321 -0.1642147 0.088494085 -0.0040866765
-0.09992184 -0.18372683 0.23364282 -0.117082156 -0.060935747 -0.14712954 0.0904453 -0.05041463
-0.001519813 -0.04220094 -0.12346754 -0.019191902 -0.089619264 0.08389872 -0.14801873 -0.11441486
-0.03226931 -0.20827368 -0.18612137 -0.06877081 0.017210798 -0.16751906 -0.17567822 -0.1921508
-0.03251176 0.013662586 -0.0074840253 -0.077834874 -0.029447187 0.018969666 -0.011330374 0.18201545
00000000: a404 2fbe 872e 15bc e4c9 9c3c 65b8 3dbd
00000010: c5fe 0ebb 62c7 673d d1f6 823c abdc 5f3e
00000020: 4027 72bd 232c 86bd 218f 843d c1ff 3fbe
00000030: 49bf 5dbe c24c 303d 452a 4abd c3d7 a43d
00000040: 5834 45be c97c f5bc 207f 833e 43c7 a73d
00000050: 4363 3a3d 3470 16bd 7f5a e7bd 634d 2fbe
00000060: 7829 34bc d308 59be b8c5 15be 2d3d 14bd
00000070: 66eb 84bd 779a 583e 243b 2cbe afd1 7e3d
00000080: 903a 0a3e a10e ba3d ef3c 05be 76e0 813d
00000090: fb41 b2bc 462d 1bbe 7771 e3bc f873 c3bd
000000a0: 5976 813d cbb9 c13b 2e0d e3bd 233e 523e
000000b0: 0247 29be ce7c f83c dd2d de3c 7461 123e
000000c0: 5c66 76bd bed6 59bc 3bb7 063e acbe e1bd
000000d0: da89 08be 7fe9 9dbb 8c93 edbd 4fd7 813c
000000e0: 07b2 d33d 94ad ad3c 9c6f f43d 7059 343e
000000f0: a74b 64bd 0f5f a43d afcd 53bd c330 fabd
00000100: a48f a9bd bb7e 1cbe 9fe2 22be 77e9 b33d
00000110: 3e97 343e d8c5 a93d e5c7 1abd 3406 fcbd
00000120: 6df3 93bd bb24 453d f170 d6bd 78ff 60bd
00000130: 3614 9bbd ffb3 3d3e 3a89 8c3d 7911 5b3d
00000140: 7109 443d fbe7 b2bd f786 0f3e a9f5 e1bd
00000150: 9b14 12bd fdb4 ffbd 6f9d 1abd a5c2 913d
00000160: 786d 7abc 1075 623d df02 ae3d eab7 173d
00000170: ed86 2fbc e627 28be 633c b53d 87e9 85bb
00000180: d2a3 ccbd e322 3cbe 1040 6f3e c5c8 efbd
00000190: c397 79bd 20a9 16be 633b b93d 927f 4ebd
000001a0: 7634 c7ba e5da 2cbd 8ddc fcbd 5638 9dbc
000001b0: 4e8a b7bd 18d3 ab3d 3992 17be 5752 eabd
000001c0: d32c 04bd b245 55be 9a96 3ebe b6d7 8cbd
000001d0: a9fd 8c3c 1e8a 2bbe fee4 33be 2ec3 44be
000001e0: 0d2b 05bd 0ad9 5f3c 8e3c f5bb e467 9fbd
000001f0: 3a3b f1bc 4666 9b3c 08a3 39bc 4262 3a3e

action_model._continuous_distribution.log_sigma f4 [1, 3]
-0.41609862 -0.35432822 -0.096910425
00000000: e10a d5be 826a b5be f978 c6bd

action_model._continuous_distribution.mu.weight f4 [3, 128]
-0.02264323 -0.005032471 -0.043078363 -0.013063126 0.122941874 -0.029866897 0.004447143 -0.04225215
0.040753774 -0.10245406 -0.012503013 -0.09254516 -0.0064461185 -0.0588492 0.060521774 -0.012663941
-0.033164013 -0.104099356 -0.02690288 0.1491434 -0.020238834 0.06283606 -0.0013302994 -0.06643866
0.06381115 -0.008969809 0.004641547 0.024055008 -0.09677778 -0.008278953 -0.09753263 0.12278162
0.07533818 0.07994425 -0.0568414 0.008320425 0.028542826 -0.032406498 0.027959455 0.023751117
0.11398303 -0.052589316 -0.06921063 -0.039122958 -0.074825354 -0.11026848 -0.030116675 -0.044429407
-0.04535422 0.08010401 0.06848717 0.02000804 0.024806423 0.043902848 -0.0148287965 -0.10222184
-0.028961804 -0.03442195 -0.0011972676 0.02817332 0.020884389 -0.0022919625 0.052160632 -0.0390898
-0.053397257 -0.01863445 -0.04094468 -0.02498339 0.07818487 -0.05039682 0.04241832 -0.10891555
0.03223451 0.0154812 -0.013613477 0.037792407 -0.0019802975 0.04085489 -0.03535513 0.12696701
0.0536587 -0.0989372 0.118541785 -0.029011687 -0.019712716 -0.009967893 -0.039321125 -0.029407313
0.072946824 -0.0034722902 0.053067487 -0.083488524 -0.0042543486 -0.059554975 0.044401746 0.10955962
0.03097103 -0.063299015 0.0883769 0.011072431 -0.015167853 -0.013817142 0.0225567 0.020108905
-0.053065542 -0.0933492 -0.066813655 -0.024960196 0.012115628 0.12783967 0.0011495127 0.014650426
-0.012565468 -0.057318695 -0.016556244 0.007385603 0.13468963 0.0029505924 -0.087800816 -0.14627638
0.07233719 -0.08481792 -0.028772991 0.056905933 0.023020292 0.0038938343 -0.01212785 0.0653421
-0.13270208 -0.036253255 0.100233994 -0.045097984 -0.05793653 -0.020027554 -0.005363969 0.08638785
-0.12304498 0.029081384 0.032039367 -0.07863508 -0.11365762 0.01306305 -0.06990769 0.056906506
-0.08925449 -0.020382922 0.23842378 0.011320039 0.0041893283 -0.080805875 -0.089408174 -0.043497864
-0.093480214 -0.1267713 -0.052200496 -0.054237746 -0.008560722 0.11787858 -0.073741265 0.0046806918
0.08013209 0.043536205 -0.07796965 0.015006853 -0.01548694 -0.087081484 -0.026016805 -0.0304337
0.0018305727 0.020990102 -0.07804245 0.2378159 -0.112964235 0.11288073 0.01945854 0.054909788
-0.03165798 -0.045983076 0.0688928 -0.11009907 -0.089351885 -0.04068575 -0.05605283 0.018511245
0.07135851 -0.007620446 0.107468486 0.09549309 -0.049817614 0.040305752 -0.076295026 -0.063223824
-0.053569704 -0.10598616 -0.08660105 0.04627285 0.08805417 0.055361856 -0.046446644 -0.1353631
-0.09172051 0.017551078 -0.010515068 -0.028635018 -0.033221647 0.16672422 0.06741796 -0.0030197755
0.012976019 0.023145288 0.09196954 -0.03237364 -0.039337493 -0.09994629 0.03198939 0.03260053
-0.052706596 0.03176593 0.035057027 0.13993923 -0.038512763 -0.06619091 0.024413083 -0.032720953
-0.108187795 -0.11233282 0.16226967 -0.08204369 -0.0511278 -0.08346655 0.011754656 -0.025630647
0.003003014 0.018695747 -0.042872142 0.0072363154 -0.05386577 0.0100599285 -0.06546022 -0.057548184
0.010953783 -0.103128344 -0.13754761 -0.018424692 -0.036522944 -0.13681714 0.012253418 -0.044085104
-0.03666661 0.060374673 0.0050786994 -0.10476495 -0.012103661 -0.0025517677 -0.028370833 0.09733084
00000000: 4c7e b9bc 6de7 a4bb f072 30bd b906 56bc
00000010: f3c8 fb3d 6cab f4bc 57b9 913b 9710 2dbd
00000020: 6eed 263d 6fd3 d1bd 70d9 4cbc 5188 bdbd
00000030: f639 d3bb dc0b 71bd aee5 773d 6b7c 4fbc
00000040: fdd6 07bd 0b32 d5bd 6e63 dcbc 0cb9 183e
00000050: e9cb a5bc 31b0 803d 715d aeba fe10 88bd
00000060: 6caf 823d 1bf6 12bc 1e18 983b 020f c53c
00000070: 6e33 c6bd 72a4 07bc 30bf c7bd ee74 fb3d
00000080: e74a 9a3d d0b9 a33d 87d2 68bd 6452 083c
00000090: a5d2 e93c adbc 04bd 3a0b e53c b491 c23c
000000a0: ef6f e93d e567 57bd 4ebe 8dbd 653f 20bd
000000b0: 093e 99bd 71d4 e1bd 3fb7 f6bc 9cfb 35bd
000000c0: 59c5 39bd 920d a43d 0043 8c3d e7e7 a33c
000000d0: d736 cb3c 79d3 333d 7bf4 72bc af59 d1bd
000000e0: 4e41 edbc 08fe 0cbd a2ed 9cba bccb e63c
000000f0: bd15 ab3c c034 16bb 63a6 553d a01c 20bd
00000100: 15b7 5abd 46a7 98bc 9cb5 27bd f7a9 ccbc
00000110: 641f a03d e56c 4ebd d5be 2d3d 1e0f dfbd
00000120: 5508 043d dca4 7d3c 100b 5fbc 36cc 1a3d
00000130: e1c7 01bb 7557 273d 8ad0 10bd a403 023e
00000140: 3ac9 5b3d 969f cabd 09c6 f23d eba9 edbc
00000150: 907c a1bc 6050 23bc 300f 21bd 9be7 f0bc
00000160: 2565 953d 5d8f 63bb 4b5d 593d 08fc aabd
00000170: 1068 8bbb ebef 73bd 9bde 353d cb60 e03d
00000180: f5b6 fd3c eaa2 81bd f3fe b43d 2469 353c
00000190: 9682 78bc 4b61 62bc d4c8 b83c 6ebb a43c
000001a0: 415b 59bd de2d bfbd 99d5 88bd 5379 ccbc
000001b0: a180 463c 67e8 023e 3fab 963a 5708 703c
000001c0: 65df 4dbc 02c7 6abd f6a0 87bc ee02 f23b
000001d0: 14ec 093e ba5e 413b ead0 b3bd 7ac9 15be
000001e0: 8525 943d 05b5 adbd 56b5 ebbc 3216 693d
000001f0: 0d95 bc3c b32f 7f3b e4b3 46bc 14d2 853d
00000200: 0ee3 07be 4b7e 14bd 7b47 cd3d aab8 38bd
00000210: db4e 6dbd d310 a4bc 3cc4 afbb 1dec b03d
00000220: 02ff fbbd 153c ee3c b63b 033d 6e0b a1bd
00000230: 54c5 e8bd 6706 563c c32b 8fbd cc16 693d
00000240: 0fcb b6bd 16fa a6bc 5d25 743e af77 393c
00000250: a246 893b 8d7d a5bd a21b b7bd d12a 32bd
00000260: 8e72 bfbd 56d0 01be 30d0 55bd 6628 5ebd
00000270: 4542 0cbc 536a f13d a905 97bd 7d60 993b
00000280: 4b1c a43d 0553 323d 8dae 9fbd 4edf 753c
00000290: efbc 7dbc c757 b2bd 3221 d5bc 1850 f9bc
000002a0: d4ef ef3a 6ff3 ab3c b8d4 9fbd 0386 733e
000002b0: cb59 e7bd 032e e73d 8467 9f3c 16e9 603d
000002c0: ccab 01bd c058 3cbd ab17 8d3d 9f7b e1bd
000002d0: 1ffe b6bd 1aa6 26bd a797 65bd e5a4 973c
000002e0: 6924 923d efb4 f9bb 7018 dc3d e291 c33d
000002f0: 8e0d 4cbd a517 253d 9140 9cbd 7e7b 81bd
00000300: e86b 5bbd 460f d9bd e45b b1bd 9a88 3d3d
00000310: bf55 b43d 1dc3 623d d63e 3ebd a09c 0abe
00000320: f6d7 bbbd 47c7 8f3c 6447 2cbc fc93 eabc
00000330: 6c13 08bd c1b9 2a3e 6d12 8a3d 6de7 45bb
00000340: 5e99 543c 309b bd3c 875a bc3d 399a 04bd
00000350: 5a20 21bd a4b0 ccbd 4e07 033d 2288 053d
00000360: dfe2 57bd fe1c 023d f597 0f3d 3b4c 0f3e
00000370: 8fbf 1dbd 1a8f 87bd f2fd c73c 6806 06bd
00000380: 9091 ddbd c00e e6bd 052a 263e 8606 a8bd
00000390: 626b 51bd 83f0 aabd 9a96 403c 5df7 d1bc
000003a0: 37ce 443b d327 993c b39a 2fbd 9d1e ed3b
000003b0: 5ba2 5cbd 66d2 243c 0210 86bd a5b7 6bbd
000003c0: 7f77 333c f434 d3bd 48d9 0cbe 61ef 96bc
000003d0: 1599 15bd cb19 0cbe 8fc2 483c 9592 34bd
000003e0: ba2f 16bd 6f4b 773d 386b a63b 028f d6bd
000003f0: 6f4e 46bc 8f3b 27bb f369 e8bc 6455 c73d

action_model._continuous_distribution.mu.bias f4 [3]
0.17016509 0.19023201 0.06983188
00000000: c23f 2e3e 2ecc 423e 0404 8f3d

exp_avg f4 [128, 22]
5.1674455e-05 0.00035418803 5.997965e-05 0.00044597939 7.029573e-05 0.00045569168 8.046348e-05 0.00046223713
9.121313e-05 0.00053016166 9.79787e-05 0.00056085247 9.946824e-05 0.00058478443 9.750167e-05 0.0006127547
9.445517e-05 0.00056681654 9.0543705e-05 0.00046106847 8.4993844e-05 0.00037654702 4.8251204e-05 0.00046513486
5.6006214e-05 0.00013502139 6.5638895e-05 0.00041890732 7.513308e-05 0.0004904523 8.5170584e-05 0.0005697742
9.148798e-05 0.0005579174 9.287879e-05 0.0005062297 9.1042515e-05 0.00045539055 8.819785e-05 0.00052098185
8.45455e-05 0.0004909714 7.936331e-05 0.0006849885 -5.1153533e-05 0.00036921917 -5.9375026e-05 0.00023350335
-6.95871e-05 0.00020807727 -7.965235e-05 0.00018875384 -9.029363e-05 0.00012460136 -9.699096e-05 0.000100493955
-9.846552e-05 7.3221774e-05 -9.651878e-05 8.062564e-05 -9.350298e-05 0.00017528646 -8.963097e-05 0.00036937147
-8.413705e-05 0.0004545323 -1.828412e-05 0.00020668832 -2.1222768e-05 9.040523e-05 -2.487293e-05 0.0001715437
-2.8470615e-05 0.00020375778 -3.2274183e-05 0.00023201984 -3.4668068e-05 0.00021128451 -3.5195117e-05 0.00019584825
-3.4499295e-05 0.00022816971 -3.3421325e-05 0.0002827634 -3.2037344e-05 0.00039329927 -3.0073597e-05 0.00043577718
-2.1167283e-05 -0.00030374475 -2.456931e-05 -1.1233278e-06 -2.8795055e-05 -0.00032331864 -3.296009e-05 -0.0004357547
-3.736339e-05 -0.00056203076 -4.013474e-05 -0.0005769609 -4.0744915e-05 -0.00057343236 -3.993935e-05 -0.0006106792
-3.8691407e-05 -0.0006796281 -3.708917e-05 -0.00077295443 -3.4815803e-05 -0.0008047954 8.0169684e-07 0.0001480753
9.305463e-07 0.0001856582 1.090596e-06 0.00012179382 1.2483388e-06 7.9482474e-05 1.4151119e-06 1.9773808e-05
1.5200758e-06 1.2954536e-05 1.5431824e-06 4.524345e-06 1.512678e-06 -4.0746527e-05 1.4654197e-06 -5.229715e-05
1.4047309e-06 -0.00010262787 1.31863e-06 -6.696523e-05 5.9022535e-05 0.00054087455 6.850873e-05 0.00020736942
8.029175e-05 0.0005078431 9.1905385e-05 0.00051737006 0.000104183586 0.00056465005 0.00011191113 0.00048392374
0.00011361257 0.00040583714 0.00011136642 0.0003312334 0.00010788661 0.0003808238 0.00010341898 0.00040970952
9.707993e-05 0.0006643016 2.1296217e-05 0.0001876101 2.4718982e-05 3.0689494e-05 2.8970462e-05 0.00022716777
3.3160853e-05 0.00028306388 3.759102e-05 0.00035662085 4.0379222e-05 0.00035288432 4.0993113e-05 0.00030929048
4.0182662e-05 0.00028927127 3.8927134e-05 0.00031285183 3.731512e-05 0.00029858385 3.5027893e-05 0.00043379958
2.5518755e-05 0.00025454676 2.962019e-05 0.00055822084 3.4714634e-05 0.00047192106 3.9735845e-05 0.0005079131
4.5044435e-05 0.00056889903 4.8385475e-05 0.00068386854 4.912108e-05 0.0007783779 4.814991e-05 0.0008164139
4.664545e-05 0.0007195134 4.4713837e-05 0.00042460294 4.1973108e-05 0.00010762148 2.5109197e-05 0.0002752702
2.914482e-05 7.984272e-05 3.4157507e-05 0.00026558447 3.909815e-05 0.0002893043 4.4321503e-05 0.00030041326
4.7608984e-05 0.0002668505 4.8332786e-05 0.00021406825 4.7377183e-05 0.00014164878 4.5896868e-05 0.00016547769
4.3996235e-05 0.00012917089 4.129949e-05 0.00031577787 7.352379e-06 -0.0003720044 8.534069e-06 -0.00018234111
1.0001862e-05 -0.00022600839 1.1448548e-05 -0.00019679303 1.2978038e-05 -0.00014864028 1.3940702e-05 -9.3828625e-05
1.4152607e-05 -3.40135e-05 1.3872792e-05 2.1195738e-06 1.3439327e-05 -4.5174384e-05 1.28828e-05 -0.00019896997
1.2093151e-05 -0.00040061923 -1.3814647e-05 -0.00041825813 -1.6034952e-05 -0.00070150226 -1.8792853e-05 -0.0004986613
-2.151111e-05 -0.00044860496 -2.4384899e-05 -0.0004531457 -2.6193611e-05 -0.00046481978 -2.6591822e-05 -0.00047293483
00000000: 06bd 5838 50b2 b939 a992 7b38 57d2 e939
00000010: bc6b 9338 e7e9 ee39 80be a838 6b58 f239
00000020: ad49 bf38 8cfa 0a3a ea79 cd38 2c06 133a
00000030: 9b99 d038 384c 193a cf79 cc38 46a1 203a
00000040: 3c16 c638 6a96 143a 48e2 bd38 90bb f139
00000050: b93e b238 496b c539 5661 4a38 58dd f339
00000060: 37e8 6a38 8794 0d39 9da7 8938 caa0 db39
00000070: c490 9d38 b291 003a 9c9d b238 e65c 153a
00000080: 3cdd bf38 3441 123a ecc7 c238 80b4 043a
00000090: 14ee be38 7cc1 ee39 dcf6 b838 8092 083a
000000a0: 054e b138 88b4 003a da6f a638 cd90 333a
000000b0: b08d 56b8 c293 c139 7309 79b8 94d8 7439
000000c0: 4aef 91b8 512f 5a39 080b a7b8 39ec 4539
000000d0: 065c bdb8 6ca7 0239 a067 cbb8 48c0 d238
000000e0: 467f ceb8 a48e 9938 206a cab8 9015 a938
000000f0: 0817 c4b8 1acd 3739 43f8 bbb8 33a8 c139
00000100: bc72 b0b8 4b4e ee39 d960 99b7 79ba 5839
00000110: 8c07 b2b7 f097 bd38 36a6 d0b7 69e0 3339
00000120: 2ed4 eeb7 d0a7 5539 245e 07b8 5a4a 7339
00000130: 8e68 11b8 418c 5d39 789e 13b8 9d5c 4d39
00000140: 56b3 10b8 d740 6f39 e02d 0cb8 dc3f 9439
00000150: d65f 06b8 bc33 ce39 8f46 fcb7 0679 e439
00000160: 6590 b1b7 ee3f 9fb9 311a ceb7 40c5 96b5
00000170: e98c f1b7 1883 a9b9 a13e 0ab8 0176 e4b9
00000180: a2b6 1cb8 3f55 13ba 5956 28b8 313f 17ba
00000190: 85e5 2ab8 6552 16ba 8d84 27b8 fd15 20ba
000001a0: 9548 22b8 1229 32ba 3190 1bb8 18a0 4aba
000001b0: 2f07 12b8 e8f8 52ba 3034 5735 a944 1b39
000001c0: a8ca 7935 3ead 4239 9860 9235 8f6b ff38
000001d0: 988c a735 d4af a638 e0ee bd35 eedf a537
000001e0: 6805 cc35 4f57 5937 581f cf35 d4cf 9736
000001f0: 3807 cb35 40e7 2ab8 70af c435 a359 5bb8
00000200: 308a bc35 eb39 d7b8 c8fb b035 af6f 8cb8
00000210: f78e 7738 7ac9 0d3a 58ac 8f38 4e71 5939
00000220: 4e62 a838 c620 053a 54bd c038 1ea0 073a
00000230: 237d da38 0605 143a d5b1 ea38 25b7 fd39
00000240: 4943 ee38 8ac6 d439 648d e938 65a9 ad39
00000250: 2f41 e238 4ea9 c739 a4e2 d838 48ce d639
00000260: 6497 cb38 8724 2e3a 47a5 b237 34b9 4439
00000270: 9c5b cf37 98b8 0038 9805 f337 e233 6e39
00000280: 3216 0b38 3168 9439 0dab 1d38 d7f8 ba39
00000290: dc5c 2938 5503 b939 05f0 2b38 4428 a239
000002a0: ce89 2838 55a9 9739 b145 2338 4306 a439
000002b0: ce82 1c38 3f8b 9c39 eaea 1238 986f e339
000002c0: 1c11 d637 b074 8539 e078 f837 9155 123a
000002d0: 8e9a 1138 2c6c f739 0aaa 2638 7925 053a
000002e0: 18ee 3c38 2b22 153a 82f1 4a38 a445 333a
000002f0: 5c07 4e38 0e0c 4c3a 92f4 4938 9c04 563a
00000300: 2ca5 4338 ba9d 3c3a 1e8b 3b38 3e9d de39
00000310: 480c 3038 d8b2 e138 97a1 d237 2452 9039
00000320: 067c f437 3c71 a738 5844 0f38 253e 8b39
00000330: 52fd 2338 c4ad 9739 dae5 3938 c980 9d39
00000340: c2af 4738 11e8 8b39 efb8 4a38 8277 6039
00000350: ddb6 4638 8e87 1439 6381 4038 1484 2d39
00000360: 9988 3838 0c72 0739 fd38 2d38 fd8e a539
00000370: 74b4 f636 9609 c3b9 8c2d 0f37 d232 3fb9
00000380: accd 2737 aafc 6cb9 2413 4037 3a5a 4eb9
00000390: 40bc 5937 52dc 1bb9 dce2 6937 dcc5 c4b8
000003a0: fc70 6d37 b8a9 0eb8 30bf 6837 003e 0e36
000003b0: 7879 6137 a079 3db8 3423 5837 98a2 50b9
000003c0: b0e3 4a37 340a d2b9 75c5 67b7 a849 dbb9
000003d0: cc82 86b7 05e5 37ba 58a5 9db7 98b8 02ba
000003e0: c272 b4b7 bd32 ebb9 2c8e ccb7 3094 edb9
000003f0: 5aba dbb7 0eb3 f3b9 8111 dfb7 3df4 f7b9

exp_avg_sq f4 [128, 22]
1.1602131e-06 6.839848e-06 3.0989364e-07 6.665489e-06 1.265922e-07 6.49045e-06 3.1981816e-07 6.3372536e-06
5.171504e-07 6.0974385e-06 4.620571e-07 5.835627e-06 1.3193358e-07 5.4767456e-06 1.7390478e-07 5.0331114e-06
2.0446359e-07 4.5435345e-06 2.1274177e-06 4.311941e-06 1.5818028e-05 4.1091603e-06 4.7040527e-07 8.642937e-06
4.9676794e-07 8.368683e-06 2.9657866e-07 8.130424e-06 2.2250069e-07 7.983698e-06 6.5082617e-07 7.686847e-06
1.2925419e-06 7.31538e-06 1.2552688e-06 6.93127e-06 9.759041e-07 6.459908e-06 4.0007902e-07 6.0412635e-06
4.029696e-07 5.8607484e-06 6.878413e-07 5.922641e-06 2.8158636e-06 7.631195e-06 2.1123944e-06 7.458632e-06
6.427188e-07 7.3218084e-06 5.052861e-07 7.255396e-06 3.6173714e-07 7.225057e-06 6.984477e-07 7.1701224e-06
8.1732793e-07 7.1115255e-06 6.8404375e-07 7.007181e-06 4.6165704e-07 6.8295417e-06 5.4817986e-07 6.6610264e-06
5.7106786e-07 6.6122284e-06 2.8844664e-08 2.377302e-06 5.481108e-08 2.303529e-06 6.563075e-08 2.24437e-06
6.88375e-08 2.20159e-06 5.2919884e-08 2.1292012e-06 3.729424e-08 2.0566138e-06 3.8424048e-08 1.9763331e-06
4.247853e-08 1.8568392e-06 3.3761587e-08 1.744705e-06 3.8926192e-08 1.6791064e-06 1.1343682e-07 1.7113641e-06
2.267172e-07 5.756824e-06 2.526544e-07 5.4197994e-06 2.3405354e-07 5.2266923e-06 1.039489e-07 5.045947e-06
1.2227147e-07 4.8797556e-06 1.241221e-07 4.7026037e-06 1.2235618e-07 4.453167e-06 1.15821734e-07 4.1112066e-06
1.08633095e-07 3.7602044e-06 1.0230555e-07 3.5991789e-06 1.0551449e-07 3.590925e-06 1.904001e-07 6.666337e-07
2.5271133e-08 6.135652e-07 2.173676e-08 5.8856256e-07 3.026829e-08 5.5728225e-07 1.4453225e-08 5.403213e-07
1.5018019e-08 5.2588575e-07 1.523498e-08 4.990325e-07 1.4646902e-08 4.6609077e-07 1.36286875e-08 4.379388e-07
1.3324679e-08 4.1269269e-07 1.1743655e-08 3.9482896e-07 1.944322e-06 1.4937937e-05 1.067935e-06 1.484466e-05
4.892086e-07 1.4800625e-05 8.415678e-07 1.4766651e-05 5.01982e-07 1.465996e-05 9.118579e-07 1.4475051e-05
9.079909e-07 1.4191337e-05 8.4286376e-07 1.3808264e-05 4.0226863e-07 1.3423293e-05 3.6340117e-07 1.3232441e-05
1.9590857e-06 1.3234418e-05 2.7835758e-06 8.481485e-06 9.15232e-07 8.299202e-06 4.2555084e-07 8.155041e-06
3.4760265e-07 8.011796e-06 3.447294e-07 7.782467e-06 6.52035e-07 7.5028693e-06 5.9227096e-07 7.156271e-06
5.474883e-07 6.7339884e-06 1.5540256e-07 6.317559e-06 1.4181802e-07 6.046212e-06 1.2894166e-07 6.002457e-06
9.022167e-08 1.546805e-05 1.18290046e-07 1.5174005e-05 1.6861237e-07 1.48557665e-05 1.9550973e-07 1.4743301e-05
8.70021e-07 1.43268135e-05 1.1233082e-06 1.4019485e-05 4.4185006e-07 1.3504977e-05 4.7440244e-07 1.264252e-05
2.6760705e-07 1.1801324e-05 5.747129e-07 1.1187548e-05 2.3197554e-06 1.0830124e-05 1.2985006e-06 7.46752e-06
4.13363e-07 7.3665597e-06 8.787758e-08 7.2958605e-06 4.952808e-07 7.2992398e-06 1.1978084e-06 7.204784e-06
1.0788815e-06 7.0632686e-06 5.556108e-07 6.886975e-06 4.467229e-07 6.6352136e-06 1.5734597e-07 6.3350744e-06
1.4838885e-07 6.101143e-06 1.2524869e-07 6.015722e-06 1.6547757e-06 7.0135898e-06 9.5025683e-07 6.9508283e-06
8.604034e-07 6.829996e-06 2.2608864e-07 6.782116e-06 3.0447558e-07 6.6099874e-06 4.9780624e-07 6.4876713e-06
6.5765323e-07 6.2705385e-06 9.1792066e-07 5.896587e-06 7.4626956e-07 5.4832467e-06 1.6707801e-06 5.2135497e-06
3.5355135e-06 5.1416528e-06 4.1990532e-08 1.7400014e-06 6.8321256e-08 1.6360113e-06 2.496613e-08 1.5378279e-06
9.809524e-08 1.5767228e-06 2.4021583e-07 1.5410673e-06 2.143921e-07 1.5240597e-06 1.1895378e-07 1.4967347e-06
00000000: 9eb8 9b35 d981 e536 755f a634 1da8 df36
00000010: 66ed 0734 8ac8 d936 79b3 ab34 98a4 d436
00000020: 4ed2 0a35 9998 cc36 a510 f834 a7cf c336
00000030: a0a9 0d34 e3c4 b736 95ba 3a34 19e2 a836
00000040: 868a 5b34 aa74 9836 c2c4 0e36 4baf 9036
00000050: f5b0 8437 6be1 8936 028c fc34 2201 1137
00000060: a259 0535 3867 0c37 7639 9f34 e867 0837
00000070: 86e8 6e34 b9f1 0537 6fb4 2e35 c2f6 0037
00000080: 677b ad35 a376 f536 b57a a835 2893 e836
00000090: cffb 8235 30c2 d836 71ca d634 0fb6 ca36
000000a0: b857 d834 72a7 c436 18a4 3835 19bb c636
000000b0: 2bf8 3c36 bc07 0037 a9c2 0d36 2945 fa36
000000c0: 4d87 2c35 dbad f536 ffa2 0735 6173 f336
000000d0: c634 c234 c46e f236 f67c 3b35 e296 f036
000000e0: 5966 5b35 8a9f ee36 219f 3735 3a1f eb36
000000f0: a9d9 f734 5129 e536 a226 1335 c881 df36
00000100: 7c4b 1935 9cde dd36 16c6 f732 bd89 1f36
00000110: 6b69 6b33 5496 1a36 e3f0 8c33 fc9d 1636
00000120: d1d3 9333 07bf 1336 074a 6333 66e3 0e36
00000130: 732d 2033 5b04 0a36 b007 2533 25a1 0436
00000140: a371 3633 8238 f935 4201 1133 9b2b ea35
00000150: cd2f 2733 a85d e135 8d9a f333 06b2 e535
00000160: 8d6f 7334 be2a c136 8ea4 8734 b9db b536
00000170: 2650 7b34 f260 af36 833a df33 5b50 a936
00000180: ba49 0334 c8bc a336 6c46 0534 0fcb 9d36
00000190: 0361 0334 6a6c 9536 acb9 f833 fff2 8936
000001a0: ad49 e933 d257 7c36 12b3 db33 6c89 7136
000001b0: 3497 e233 9ffb 7036 c870 4c34 b8f2 3235
000001c0: cf13 d932 e1b3 2435 a4b7 ba32 b6fd 1d35
000001d0: 5600 0233 2598 1535 f54d 7832 990a 1135
000001e0: f900 8132 982a 0d35 13de 8232 41f5 0535
000001f0: c2a1 7b32 073b fa34 9a23 6a32 da1d eb34
00000200: 8fea 6432 0d90 dd34 24c1 4932 e1f8 d334
00000210: 337b 0236 f39d 7a37 f855 8f35 540d 7937
00000220: 2952 0335 3350 7837 19e8 6135 48be 7737
00000230: f1bf 0635 0cf4 7537 66c6 7435 dfd9 7237
00000240: a9bc 7335 5417 6e37 2841 6235 0baa 6737
00000250: 61f7 d734 9b34 6137 7a19 c334 e700 5e37
00000260: d678 0336 6409 5e37 78cd 3a36 b34b 0e37
00000270: 44ae 7535 cd3c 0b37 4377 e434 a2d1 0837
00000280: 259e ba34 676a 0637 3f13 b934 7191 0237
00000290: 8107 2f35 28c1 fb36 8dfc 1e35 e61f f036
000002a0: 1cf7 1235 85f4 e136 bbdc 2634 6bfb d336
000002b0: a446 1834 91e0 ca36 3773 0a34 b768 c936
000002c0: e3bf c133 62c1 8137 a406 fe33 db93 7e37
000002d0: d10b 3534 083d 7937 4eed 5134 ff59 7737
000002e0: 638b 6935 325d 7037 93c4 9635 3b35 6b37
000002f0: 6937 ed34 6f93 6237 60b1 fe34 361b 5437
00000300: a2ab 8f34 4dfe 4537 f845 1a35 27b2 3b37
00000310: 18ad 1b36 07b3 3537 2448 ae35 8291 fa36
00000320: 2eec dd34 442e f736 36b7 bc33 f7ce f436
00000330: 70f3 0435 feeb f436 62c4 a035 a0c0 f136
00000340: 16ce 9035 0401 ed36 4925 1535 aa16 e736
00000350: 21d5 ef34 0da4 de36 eef2 2834 e091 d436
00000360: d154 1f34 6bb8 cc36 197c 0634 a9da c936
00000370: a919 de35 4756 eb36 2715 7f35 293b e936
00000380: 79f6 6635 382d e536 c6c2 7234 ef91 e336
00000390: ce76 a334 5ccb dd36 fca0 0535 acb0 d936
000003a0: 9689 3035 8467 d236 0767 7635 4cdb c536
000003b0: 4153 4835 bbfc b736 913f e035 0df0 ae36
000003c0: a943 6d36 7686 ac36 1459 3433 fe89 e935
000003d0: 02b8 9233 ec94 db35 1a75 d632 5d67 ce35
000003e0: 6ea8 d233 c89f d335 03f7 8034 abd6 ce35
000003f0: a733 6634 4b8e cc35 8873 ff33 6ae3 c835

exp_avg f4 [128]
-0.0017675478 -0.001650455 0.00174973 0.0006254163 0.000724036 -2.7422386e-05 -0.002018892 -0.00072844676
-0.0008728809 -0.000858872 -0.00025149115 0.00047253608 0.00022691302 0.0016736023 -8.1303064e-05 -0.00024636736
0.0009540624 -0.0016884359 -0.0018151187 -0.0011394264 -7.440694e-05 -0.00022161799 0.0021083334 0.0011473887
1.6745238e-05 -0.00043379923 0.0016730137 -0.0012410427 0.0004715533 0.00028589895 -9.799257e-05 -0.0020036148
-0.00016881089 0.00065475574 5.262904e-05 -0.00046898192 0.0008649243 0.0015625046 -0.000368161 -0.0005437244
-0.0012125435 0.00051609945 0.0018307357 -0.0011391208 9.3309965e-05 0.00022810407 -0.0006486493 -0.00091782166
0.00059811934 0.0017145001 2.2914726e-05 0.0007235063 -0.00013451985 0.0002168243 0.00141765 -0.0004073472
0.000106506865 -0.0013270655 -0.001201784 -0.00057227246 0.00049403857 -0.0009463009 0.001138331 0.0012162207
-0.00039479986 0.00024152541 -0.0025396529 9.42421e-05 -0.0004232223 -0.00052032596 0.00010103427 -0.00089134456
-0.00024325552 -0.00026641763 -0.0005571843 0.0009633993 0.0005565345 0.0012196784 0.0014176033 -0.00014115789
-3.7294114e-05 -0.0012936948 -0.0013069897 0.00019755075 -0.0009537026 0.0004984722 -0.00055028964 0.0011213641
-0.00072959805 0.00047010364 0.00027995696 0.0008171571 -0.00031621972 0.0015847033 -0.0008686752 -0.00080016686
1.8832347e-05 0.0009973561 -0.000111629866 -0.00011423009 0.0010771226 0.00041261117 0.00046169158 0.00027066725
-0.0011076377 0.00043530276 -0.00197779 -0.00096633105 -0.0009602796 -0.00090913795 0.0008616498 -0.0015516724
5.484157e-05 -0.00016036106 -0.00027613487 0.00029089506 0.0014143386 -0.0009248612 -0.00019544997 0.00011117838
0.000682093 -0.0015229958 0.00051275425 0.0009228774 -0.0026023353 0.000276305 -0.002600698 -0.0013822619
00000000: 10ad e7ba 1454 d8ba 3257 e53a faf2 233a
00000010: 3ccd 3d3a 2009 e6b7 634f 04bb 3cf5 3eba
00000020: 0cd2 64ba ed25 61ba 92da 83b9 b8be f739
00000030: 80ef 6d39 c65c db3a 4081 aab8 de2a 81b9
00000040: 0b1a 7a3a 824e ddba 47e9 edba ce58 95ba
00000050: ec0a 9cb8 2062 68b9 f72b 0a3b fa63 963a
00000060: 2078 8c37 8c6f e3b9 0649 db3a 7caa a2ba
00000070: d03a f739 b5e4 9539 5c81 cdb8 144f 03bb
00000080: d402 31b9 eaa3 2b3a 00be 5c38 b0e1 f5b9
00000090: 16bc 623a f4cc cc3a bc05 c1b9 ba88 0eba
000000a0: 35ee 9eba d94a 073a 4cf5 ef3a 8d4e 95ba
000000b0: 68af c338 382f 6f39 1e0a 2aba f899 70ba
000000c0: 1ccb 1c3a 14b9 e03a 0039 c037 b0a9 3d3a
000000d0: e60d 0db9 545b 6339 71d0 b93a 3791 d5b9
000000e0: 705c df38 eef0 adba 2e85 9dba 8e04 16ba
000000f0: 5e82 013a 2e11 78ba 0d34 953a 9869 9f3a
00000100: 24fd ceb9 fc41 7d39 4e70 26bb d8a3 c538
00000110: efe3 ddb9 7c66 08ba 5ce2 d338 1fa9 69ba
00000120: 6812 7fb9 f8ad 8bb9 0110 12ba a28c 7c3a
00000130: 66e4 113a 9edd 9f3a e0ce b93a c803 14b9
00000140: 406c 1cb8 3291 a9ba 4c4f abba a025 4f39
00000150: e601 7aba e7ab 023a 5041 10ba bcfa 923a
00000160: 7f42 3fba 3e78 f639 30c7 9239 7c36 563a
00000170: 4bca a5b9 d2b5 cf3a ceb7 63ba 4ac2 51ba
00000180: 28fa 9d37 b8b9 823a d41a eab8 d08e efb8
00000190: 3d2e 8d3a bc53 d839 320f f239 58e8 8d39
000001a0: 272e 91ba 5939 e439 cf9d 01bb 6151 7dba
000001b0: 46bb 7bba 3753 6eba 57e0 613a 7c61 cbba
000001c0: b005 6638 9826 28b9 32c6 90b9 4683 9839
000001d0: 5461 b93a 6272 72ba b4f1 4cb9 7028 e938
000001e0: 7dce 323a 429f c7ba 5b6a 063a 41ed 713a
000001f0: f18b 2abb 08dd 9039 7970 2abb 032d b5ba

exp_avg_sq f4 [128]
3.9730734e-05 6.782349e-05 2.8944938e-05 1.1135963e-05 3.7781152e-05 4.6150353e-06 0.000108569366 5.315442e-05
9.191234e-05 4.9428807e-05 3.458014e-05 1.2935354e-05 9.818155e-05 4.214995e-05 2.8315799e-05 8.780883e-06
3.3984754e-05 0.00016023556 0.000180984 3.749442e-05 4.4363906e-06 0.00017111613 8.2591636e-05 0.00010041524
2.4837995e-05 7.309024e-05 4.8810503e-05 6.0136474e-05 6.100713e-05 1.0593797e-05 6.7718584e-06 4.4425688e-05
5.891051e-06 5.5228165e-06 3.5204168e-05 2.3227543e-05 3.1774583e-05 2.4656174e-05 1.135135e-05 0.00011087455
4.5495188e-05 2.8041723e-05 3.704481e-05 2.2723103e-05 5.3945445e-05 5.0080638e-05 8.375905e-06 1.2217162e-05
4.295652e-05 7.747629e-05 1.7527042e-05 7.386484e-06 9.16736e-06 9.145211e-06 4.390652e-05 7.2222665e-06
6.471764e-05 0.00010832625 8.08186e-05 8.068164e-06 2.0473914e-05 0.00012553288 1.4973536e-05 2.6914262e-05
8.548408e-06 1.2210054e-05 9.1577924e-05 1.075514e-05 4.860278e-05 5.799961e-05 1.3605358e-05 3.670865e-05
7.1881386e-06 7.115257e-05 1.2091649e-05 3.4509085e-05 2.812827e-05 1.2504443e-05 4.234328e-05 1.27667145e-05
3.081374e-05 0.00010229307 2.6535417e-05 5.5870372e-05 6.3192245e-05 4.9187583e-06 6.6583557e-06 1.4570124e-05
2.5781277e-05 2.4837718e-05 1.951729e-05 4.0606436e-05 2.6342238e-06 7.2082585e-05 1.0528277e-05 6.7273863e-06
1.3036263e-06 6.159204e-05 3.928193e-06 1.9011179e-05 5.8849386e-05 7.636389e-06 2.4491172e-05 5.366304e-05
7.577636e-05 2.52465e-06 7.7481585e-05 4.3965287e-05 6.604915e-05 1.0924463e-05 5.5155842e-06 0.00014623447
3.4850073e-06 2.356785e-06 4.186032e-06 2.474705e-05 6.8867994e-05 1.7051574e-05 1.7956516e-05 2.1507967e-06
8.965095e-06 7.419878e-05 1.6908987e-05 1.409506e-05 7.1301125e-05 2.0128608e-05 6.4152184e-05 2.5806869e-05
00000000: 8da4 2638 753c 8e38 c8ce f237 99d4 3a37
00000010: 3477 1e38 dada 9a36 bcaf e338 20f2 5e38
00000020: 10c1 c038 c751 4f38 250a 1138 ec04 5937
00000030: d1e6 cd38 2aca 3038 b787 ed37 9b51 1337
00000040: da8a 0e38 e804 2839 86c6 3d39 5443 1d38
00000050: 4edc 9436 a36d 3339 0c35 ad38 0596 d238
00000060: 305b d037 0648 9938 e1b9 4c38 0c3b 7c38
00000070: e8e1 7f38 03bc 3137 d239 e336 b855 3a38
00000080: beab c536 a250 b936 30a8 1338 c5d8 c237
00000090: b345 0538 bbd4 ce37 ad71 3e37 5285 e838
000000a0: 16d2 3e38 243b eb37 9060 1b38 7e9d be37
000000b0: 7b43 6238 ad0d 5238 3d86 0c37 50f8 4c37
000000c0: 362c 3438 c47a a238 0907 9337 6ad9 f736
000000d0: 83cd 1937 626e 1937 4428 3838 cc56 f236
000000e0: 05b9 8738 362d e338 287d a938 805c 0737
000000f0: 65bf ab37 7aa1 0339 d936 7b37 f0c5 e137
00000100: 226b 0f37 c8d9 4c37 860d c038 f970 3437
00000110: d6da 4b38 9b44 7338 9142 6437 9df7 1938
00000120: a431 f136 bf37 9538 3ddd 4a37 d9bd 1038
00000130: 00f5 eb37 2cca 5137 c099 3138 9f30 5637
00000140: 003e 0138 2c86 d638 6098 de37 5b56 6a38
00000150: 1486 8438 d00b a536 d76a df36 3572 7437
00000160: df44 d837 985a d037 10b9 a337 d450 2a38
00000170: 9fc7 3036 0b2b 9738 9ba2 3037 cfbb e136
00000180: 42f8 ae35 fa2a 8138 ecce 8336 327a 9f37
00000190: 0cd5 7638 0a1e 0037 6472 cd37 4014 6138
000001a0: 20ea 9e38 286d 2936 9c7d a238 5e67 3838
000001b0: de83 8a38 3648 3737 8212 b936 8456 1939
000001c0: f8df 6936 4229 1e36 be75 8c36 e397 cf37
000001d0: 396d 9038 fa09 8f37 53a1 9637 6856 1036
000001e0: ca68 1637 2b9b 9b38 c6d7 8d37 d279 6c37
000001f0: 8087 9538 dbd9 a837 7189 8638 d47b d837
