results/timeout60/3DBall/3DBall-2999474.onnx (onnx, 84847 bytes, 9 tensors)

network_body.observation_encoder.processors.0.normalizer.running_mean f4 [22]
0	0x3a244e36	0.0006267758
1	0x4090b135	4.5216317
2	0x3a5a675f	0.00083314435
3	0x4090e3d5	4.5278115
4	0x3a952f9a	0.0011381984
5	0x409131fe	4.5373526
6	0x3ac4a494	0.0015002661
7	0x40917c22	4.546403
8	0x3b00ee94	0.0019673454
9	0x4091b093	4.5528045
10	0x3b18f1b1	0.0023337419
11	0x4091be56	4.5544844
12	0x3b20b903	0.0024524338
13	0x4091acd6	4.552348
14	0x3b1ccfc3	0.0023927547
15	0x409183ae	4.547324
16	0x3b14ec84	0.0022723982
17	0x40915df6	4.54272
18	0x3b0c9973	0.0021453768
19	0x40916240	4.5432434
20	0x3b00f42c	0.0019676788
21	0x4091af7f	4.552673

network_body._body_endoder.seq_layers.0.weight f4 [128, 22]
0	0x3eb3aece	0.35094303
1	0x3b6b6296	0.0035916916
2	0x3de0f3dd	0.10984013
3	0x3e577092	0.21039036
4	0xbf1c37bf	-0.6102256
5	0xbe0dcb30	-0.13847041
6	0x3f0d5c64	0.552191
7	0x3d098222	0.03357137
8	0xbe0aea54	-0.13565952
9	0xbe9d1922	-0.30683237
10	0x3e83dd88	0.25754952
11	0xbe6141a8	-0.21997702
12	0xbe96bf19	-0.2944267
13	0xbed4cead	-0.4156393
14	0x3e1dd095	0.15411599
15	0x3de418c7	0.111375384
16	0xbea4a94f	-0.32160422
17	0xbddbec27	-0.10738402
18	0xbc9d9579	-0.019236313
19	0x3e9fcb3b	0.3120974
20	0x3e8f68ba	0.28009588
21	0x3eeeacd5	0.46616235
22	0x3da6453e	0.08118676
23	0xbdf77b32	-0.120840445
24	0x3e48a8b6	0.19595608
25	0x3e904c9e	0.28183454
26	0xbe1765ac	-0.14784878
27	0xbe3dcd1b	-0.18535273
28	0xbe502c4c	-0.20329398
29	0xbdc93612	-0.09824766
30	0x3d8c55a7	0.068522744
31	0x3dfca600	0.123363495
32	0x3e146a19	0.14493598
33	0xbeb72059	-0.35766867
34	0x3ca16581	0.019701721
35	0x3c1915f5	0.009343614
36	0x3ec71da8	0.38889813
37	0xbde45593	-0.111491345
38	0xbe9178e8	-0.28412557
39	0xbda50b28	-0.080587685
40	0x3e06ba15	0.13156922
41	0xbe8d5d6f	-0.27610347
42	0x3e66482a	0.22488466
43	0xbe42e87e	-0.19034001
44	0x3e090d16	0.13383898
45	0x3eab1b49	0.33419254
46	0x3ef3beeb	0.47606596
47	0xbe1f2463	-0.15541224
48	0xbe9ba229	-0.30397156
49	0x3c5e1828	0.013555564
50	0x3e5bdfb0	0.21472049
51	0xbe807783	-0.2509118
52	0x3db9f643	0.09080174
53	0x3f12b9e4	0.57314897
54	0xbad98de3	-0.0016598072
55	0xbc65ed16	-0.0140335765
56	0x3e394c0c	0.18095416
57	0x3e18526b	0.1487519
58	0x3c853551	0.016260775
59	0x3eb4b0a3	0.35291013
60	0x3e722feb	0.23651092
61	0x3dc3d814	0.09562698
62	0x3c6b9606	0.01437903
63	0xbdf66b1a	-0.12032147
64	0xbdaddaaf	-0.08488976
65	0xbdf3c1f8	-0.11902231
66	0xbdcccc8e	-0.09999953
67	0x3ed21bae	0.41036743
68	0xbd0415b2	-0.032247253
69	0xbe37afdd	-0.1793818
70	0x3d5734be	0.052540533
71	0xbe10b024	-0.14129692
72	0x3dbb0cab	0.091332756
73	0xbde14368	-0.10999185
74	0xbd9eb54c	-0.077494234
75	0x3e0bafab	0.13641231
76	0xbea960ef	-0.33081767
77	0xbdc1a572	-0.09455384
78	0xbe594d00	-0.2122078
79	0xbd11ded1	-0.035612885
80	0xbc8d6949	-0.017262118
81	0x3e080eb9	0.13286866
82	0xbed876f3	-0.4227825
83	0xbe1e0bfd	-0.1543426
84	0xbe8a4dd9	-0.27012518
85	0xbef50614	-0.478562
86	0xbe6c17d7	-0.23055969
87	0x3ee51cd0	0.44748545
88	0x3de433e5	0.111427106
89	0xbf246b30	-0.64226055
90	0x3cf13c6a	0.029447753
91	0x3dd978d4	0.10618749
92	0x3e5c70e6	0.21527442
93	0x3f1d5094	0.6145108
94	0x3cd50482	0.026003126
95	0x3eaa1c85	0.33224884
96	0x3e86fc6b	0.26364455
97	0xbe9bae99	-0.30406645
98	0xbe6e774b	-0.23287694
99	0xbe0874b5	-0.1332577
100	0xbe71727d	-0.2357883
101	0xbe5c67aa	-0.2152392
102	0xbd957e17	-0.0729944
103	0x3e2524e1	0.1612735
104	0xbec265d8	-0.37968326
105	0x3e9bdf50	0.3044381
106	0xbdbea5ea	-0.09308989
107	0x3d701215	0.058610994
108	0xbeff875b	-0.49907956
109	0xbdcd115e	-0.10013078
110	0x3e16f342	0.14741233
111	0xbdd44257	-0.10364216
112	0xbea749ed	-0.32673588
113	0x3d2dd6b9	0.042441104
114	0x3d0d68a4	0.03452362
115	0x3e31d47a	0.1736621
116	0xbd81dbb2	-0.06340732
117	0xbee3b088	-0.4447062
118	0xbde13d9f	-0.109980814
119	0x3edc12c7	0.42983076
120	0xbec34f94	-0.3814665
121	0x3e8e9e75	0.27855268
122	0xbedb77db	-0.4286488
123	0xbf276af5	-0.6539758
124	0x3d47eb42	0.048808344
125	0xbda5efb9	-0.08102364
126	0xbcd962f1	-0.026536437
127	0x3ee99312	0.45620018
128	0xbd9c84b9	-0.07642502
129	0xbdc3cdb5	-0.0956072
130	0xbea1c0d3	-0.31592426
131	0xbe3016db	-0.17196219
132	0x3da49f0f	0.080381505
133	0x3e42b2e2	0.19013551
134	0x3dbef4f8	0.09324068
135	0x3e216f6b	0.15765159
136	0xbe454090	-0.1926291
137	0x3ec8d07b	0.39221558
138	0x3d9a67d6	0.075393364
139	0x3e1c3f7e	0.15258595
140	0x3ac67988	0.001514242
141	0xbee6a3d0	-0.45046854
142	0x3dd76e99	0.10519142
143	0x3defcb6c	0.117087215
144	0x3c009b6e	0.007849557
145	0xbe906e46	-0.28209132
146	0x3e71560d	0.23567982
147	0xbe8663bd	-0.2624797
148	0x3d6abc61	0.05730856
149	0xbe8accea	-0.27109462
150	0xbe4aa403	-0.19789128
151	0xbe8d8fbe	-0.2764873
152	0x3e124bd8	0.14286745
153	0xbebc9249	-0.36830357
154	0x3eee97b9	0.4660013
155	0xbe493190	-0.19647813
156	0xbceb4a74	-0.028722025
157	0xbe5bec3e	-0.21476838
158	0x3e079105	0.13238914
159	0xbd5931aa	-0.05302588
160	0x3d5e69cb	0.05430011
161	0x3d1f6f57	0.03892454
162	0xbdb1d08a	-0.08682354
163	0xbddf60ca	-0.10907133
164	0x3e5b438c	0.21412486
165	0xbdb69e32	-0.08916892
166	0x3e3e94bf	0.1861143
167	0xbe323136	-0.17401585
168	0xbd966f54	-0.07345453
169	0xbdadbeea	-0.084836796
170	0xbeca449d	-0.39505473
171	0xbeaeec07	-0.3416445
172	0xbe30e575	-0.17275031
173	0x3b051c84	0.0020311186
174	0xbe4e199c	-0.20126957
175	0x3ecd0ae6	0.40047377
176	0xbe978201	-0.29591373
177	0x3cfda8a0	0.030964196
178	0xbe8ada06	-0.27119464
179	0x3eaa55c4	0.3326856
180	0xbe58a302	-0.21155933
181	0xbdcceecb	-0.10006484
182	0xbeac17e2	-0.3361197
183	0xbea63a82	-0.32466513
184	0xbd7efd79	-0.06225345
185	0xbde350cb	-0.110993944
186	0x3e3ce278	0.18445766
187	0xbbdbd6e3	-0.006708966
188	0xbe9da128	-0.30787015
189	0x3e5d18d8	0.21591508
190	0x3c48eb94	0.012263197
191	0xbd86d625	-0.065838136
192	0xbf170cd8	-0.59003973
193	0x3bd2f1b8	0.0064375065
194	0x3d959045	0.07302908
195	0x3e0f2abc	0.13981146
196	0x3d9ba10c	0.07599077
197	0x3ed02cc7	0.40659162
198	0x3e6424cf	0.22279666
199	0x3e47f0c3	0.19525437
200	0xbde256d1	-0.11051715
201	0xbe2257d5	-0.15853818
202	0xbe85ed62	-0.2615767
203	0x3d95a503	0.07306864
204	0xbd1dbca1	-0.03850997
205	0xbdfea0bc	-0.124330014
206	0x3ec12d93	0.37730083
207	0x3e979346	0.29604548
208	0xbd14d09c	-0.036331758
209	0xbe4e36ed	-0.2013814
210	0x3e503eb9	0.20336427
211	0xbd8fe8c5	-0.07026819
212	0x3daf8b4c	0.08571491
213	0xbe680fe9	-0.22662319
214	0xbe8138db	-0.2523869
215	0xbea3b632	-0.31974941
216	0xbdbaf4c5	-0.09128717
217	0xbe18c59c	-0.14919132
218	0xbe99e32d	-0.30056134
219	0xbe64139c	-0.22273105
220	0x3e242cef	0.16032766
221	0xbeb8fb22	-0.361291
222	0x3df32fe6	0.1187437
223	0x3e69b5e8	0.22823298
224	0x3ebde7ca	0.37090904
225	0xbd88f923	-0.06688144
226	0x3e34d962	0.1766105
227	0xbe41a1cd	-0.18909378
228	0x3d9623bf	0.07331037
229	0xbe19cfcf	-0.15020679
230	0xbe0b81bb	-0.13623707
231	0xbc419ef6	-0.011817684
232	0x3decff26	0.11572103
233	0x3d9849c2	0.07435943
234	0x3d6f0b7b	0.058360558
235	0xbda99e3c	-0.08282134
236	0xbe39fe11	-0.18163325
237	0x3e2d0f5e	0.16900393
238	0x3eaafbac	0.33395135
239	0x3ee1a0b0	0.44067907
240	0x3eb617bf	0.35564992
241	0x3e830258	0.25587726
242	0xbe018711	-0.1264918
243	0x3e9963a5	0.29958835
244	0x3d9305b9	0.07178826
245	0x3e0ba85b	0.13638441
246	0xbef37fbb	-0.47558388
247	0x3e5a2ba1	0.21305706
248	0x3e81929d	0.2530717
249	0x3d22cd33	0.039746474
250	0xbda4122f	-0.08011281
251	0x3ec1e790	0.3787198
252	0x3dfce26e	0.123478755
253	0x3e65ae04	0.22429663
254	0xbe4475ee	-0.19185612
255	0x3e828330	0.25490713

network_body._body_endoder.seq_layers.0.bias f4 [128]
0	0xbcfdb2f9	-0.03096913
1	0xbe534da7	-0.20635091
2	0x3d57ac0d	0.052654315
3	0xbdc04dae	-0.09389816
4	0x3daca28f	0.08429443
5	0xbdb54cb1	-0.08852518
6	0xbe50be1a	-0.20385018
7	0xbe600221	-0.21875812
8	0x3e32ead7	0.17472397
9	0xbe255864	-0.16147
10	0x3e4f962b	0.20272128
11	0xbcec8b99	-0.02887516
12	0x3e1069c6	0.1410285
13	0xbce155ae	-0.027506676
14	0x3da8f37a	0.082495645
15	0xbdd1bd56	-0.10241191
16	0x3dd8986f	0.105759494
17	0xbe161a29	-0.14658417
18	0xbe705dc8	-0.23473275
19	0xbe4f8f97	-0.20269619
20	0xbc281094	-0.010257859
21	0x3e01c743	0.12673669
22	0xbe3e4ca6	-0.18583927
23	0x3e2f8744	0.17141443
24	0xbe357d65	-0.17723615
25	0xbe3aba48	-0.18235123
26	0x3ddd89e1	0.10817314
27	0xbe32a674	-0.1744631
28	0x3d98b8fa	0.074571565
29	0xbdf76d95	-0.12081448
30	0xbd549a53	-0.051904988
31	0xbd967ed9	-0.07348413
32	0x3e335c69	0.1751572
33	0xbd7d70e5	-0.061875243
34	0xbe61d23e	-0.22052857
35	0xbe838a90	-0.25691652
36	0x3d77addb	0.060468536
37	0x3c7670cc	0.015041541
38	0xbe33b7ac	-0.17550534
39	0xbe83a891	-0.25714543
40	0xbe452bd6	-0.19255003
41	0x3d5737dc	0.052543506
42	0xbd6532ca	-0.05595664
43	0xbe23ec32	-0.1600807
44	0xbe178bce	-0.14799425
45	0x3dafa178	0.085757196
46	0xbe2d44b5	-0.16920741
47	0xbdaf4a6b	-0.08559116
48	0xbe1ab889	-0.15109457
49	0x3dd38fc8	0.103301585
50	0x3dd95800	0.10612488
51	0x3e1febac	0.15617245
52	0x3daa3231	0.083103545
53	0x3d3b7199	0.045762632
54	0x3e220961	0.1582389
55	0xbe18cebe	-0.14922616
56	0xbe300eef	-0.17193197
57	0xbe731f66	-0.23742446
58	0xbe858667	-0.26079103
59	0xbdb347b4	-0.08753911
60	0xbe4ffcce	-0.20311281
61	0xbe85149f	-0.25992295
62	0x3dab6d3e	0.08370446
63	0x3df5e8f1	0.12007321
64	0x3ca4cf0e	0.020118263
65	0xbd134c77	-0.035961594
66	0xbe0d6eb7	-0.13811766
67	0xbd8b54a0	-0.0680325
68	0xbcbb2862	-0.022846404
69	0x3d9ffec5	0.07812265
70	0xbde69ee6	-0.11260776
71	0xbe566d8f	-0.20940231
72	0x3e00dc23	0.12583975
73	0x3debb065	0.11508254
74	0xbe591d6e	-0.21202633
75	0xbe374f15	-0.17901261
76	0x3e5f5faa	0.21813837
77	0xbbac411d	-0.0052567855
78	0x3e32bd0e	0.17454931
79	0xbdcb2563	-0.0991924
80	0xbc0e9552	-0.008702593
81	0xbe26c562	-0.16286233
82	0xbde7300a	-0.112884596
83	0x3da60fec	0.081085056
84	0xbe1d9a70	-0.15390944
85	0xbdd26e17	-0.10274904
86	0xbd0ede22	-0.03487981
87	0xbd2895cf	-0.041158494
88	0xbe86b116	-0.2630698
89	0xbe1533ab	-0.14570491
90	0xbddb3f6b	-0.107054554
91	0x3e8f76bd	0.28020278
92	0xbdc89d9c	-0.097956866
93	0x3dd1c0e2	0.102418676
94	0xbbf8ca2e	-0.007592461
95	0x3c86e1fe	0.016465183
96	0x3d6c7246	0.057726167
97	0x3e5bf85e	0.21481463
98	0x3ced800c	0.028991722
99	0xbc82461f	-0.015902577
100	0x3e47710a	0.19476715
101	0xbdb5644a	-0.08857019
102	0xbdeea9d4	-0.11653486
103	0x3e773158	0.24139917
104	0xbe3998fd	-0.18124767
105	0x3c494188	0.01228369
106	0x3e44a087	0.19201861
107	0xbe4f41f4	-0.20240003
108	0xbe69eeb7	-0.22844969
109	0xbdaf93aa	-0.085730866
110	0x3d856521	0.065134294
111	0x3e04e702	0.12978747
112	0x3d771d68	0.06033078
113	0x3cbdb568	0.02315779
114	0xbcc923c4	-0.024553187
115	0x3d18b589	0.0372825
116	0xbb48c88f	-0.003063712
117	0x3d72687c	0.059181675
118	0x3e3998a1	0.1812463
119	0xbddebcd7	-0.10875862
120	0xbdefa6d8	-0.11701745
121	0xbe8a69d5	-0.27033868
122	0x3d4da143	0.05020262
123	0x3e0b0c69	0.13578953
124	0xbdd5e42d	-0.10443912
125	0xbda3750a	-0.07981308
126	0xbe2bdbb4	-0.16783029
127	0xbda9f6ff	-0.08299064

network_body._body_endoder.seq_layers.2.weight f4 [128, 128]
0	0x3d5ae782	0.05344344
1	0xbd065c70	-0.032803
2	0xbd612a9c	-0.054972276
3	0x3e6b2d99	0.22966613
4	0x3b846d93	0.0040413826
5	0xbd2bf3c7	-0.04198053
6	0x3d867630	0.06565511
7	0x3d3b67ba	0.04575322
8	0xbe23d64e	-0.1599972
9	0x3d8df7a8	0.06932002
10	0xbe00a172	-0.12561586
11	0xbdfa2b2c	-0.12215266
12	0xbe0572ef	-0.13032125
13	0xbe26abde	-0.162765
14	0xbd925950	-0.07145941
15	0x3a96163e	0.001145072
16	0xbdd7dae2	-0.105397955
17	0x3d4c3784	0.04985763
18	0x3e448eed	0.19195147
19	0x3d4842ad	0.048891712
20	0x3d65505f	0.05598485
21	0xbdcee3e3	-0.1010206
22	0x3e38df0a	0.18053833
23	0xbe65c24b	-0.22437398
24	0xbd8d03af	-0.06885468
25	0x3d1931ba	0.03740094
26	0xbd363e5c	-0.044493064
27	0x3cabccab	0.020971617
28	0xbd739b57	-0.059474315
29	0x3d2f6666	0.042822264
30	0x3e04ac95	0.1295646
31	0x3e39b0aa	0.18133798
32	0xbe3adff6	-0.18249497
33	0x3c26b57e	0.010175107
34	0x3d81c046	0.063355014
35	0x3a86cc22	0.0010284225
36	0x3d09dd36	0.03365823
37	0xbd4c5712	-0.049887724
38	0x3d60b710	0.054862082
39	0x3d699c94	0.05703409
40	0x3d361d0b	0.04446129
41	0xbdc18a9e	-0.09450267
42	0x3d54699f	0.05185854
43	0x3ac82a16	0.0015271332
44	0xbdbfba23	-0.09361675
45	0xbdf902ba	-0.12158723
46	0x3d3e72fa	0.04649637
47	0x3df5645f	0.11982035
48	0x3e09bb0b	0.13450257
49	0xbe37ac75	-0.17936881
50	0xbd48c7a8	-0.049018532
51	0xbdf31c31	-0.118706115
52	0xbdaa4b68	-0.08315164
53	0xbd5f11c8	-0.054460317
54	0x3c0c5f9d	0.008567718
55	0x3d67b328	0.05656734
56	0xbd612bcd	-0.054973412
57	0x3d3f29e9	0.046670828
58	0x3e434f9c	0.19073337
59	0x3d1b2f39	0.037886832
60	0xbd9fab7b	-0.07796379
61	0x3d2ef8dc	0.0427178
62	0xbd14f228	-0.03636375
63	0xbde94635	-0.11390344
64	0xbc62b03d	-0.013835964
65	0x3ce3e84d	0.02782073
66	0xbb4c51c3	-0.0031176663
67	0xbdb251aa	-0.087069824
68	0xbd2c4c1a	-0.042064764
69	0xbdf9f35e	-0.12204622
70	0xbd986625	-0.074413575
71	0x39f6ee2b	0.00047098225
72	0x3d4eee77	0.050520387
73	0xbd5eb8e6	-0.05437555
74	0xbe0a63d9	-0.13514651
75	0x3a8f7939	0.0010946161
76	0xbc8f8ab6	-0.017522197
77	0xbc9ac863	-0.01889438
78	0xbe1f88b9	-0.155795
79	0xbca6244c	-0.02028098
80	0xbd8983f1	-0.06714619
81	0x3db217ba	0.08695932
82	0x3da7eab6	0.081990644
83	0x3c7651a9	0.015034118
84	0x3e9b832e	0.3037352
85	0xbd4c6510	-0.04990107
86	0x3d98654c	0.07441196
87	0x3cca549d	0.02469855
88	0xbe14f182	-0.14545253
89	0x3de42e32	0.111416236
90	0x3d0666bd	0.032812823
91	0xbdf4714a	-0.11935671
92	0x3e4de7ce	0.20107958
93	0xbe0c3c21	-0.13694812
94	0x3dff28a5	0.12458924
95	0xbbcc239b	-0.0062298304
96	0x3e364ae3	0.17802005
97	0x3dc700cb	0.09716948
98	0x3db5dcff	0.08880042
99	0xbe082e15	-0.13298829
100	0xbe252d55	-0.16130574
101	0xbe18a892	-0.14908054
102	0xbd140c98	-0.036144823
103	0xbe3c18cc	-0.18368834
104	0x3e602991	0.21890856
105	0xbd3097c0	-0.04311347
106	0xbe1d1fcd	-0.15344162
107	0x3df12d8e	0.11776267
108	0x3d369089	0.044571433
109	0xbd8badf6	-0.0682029
110	0xbd4e1200	-0.050310135
111	0xbd05fe9b	-0.032713514
112	0x3d5c22cd	0.053744126
113	0xbdd57193	-0.10422053
114	0xbe112403	-0.14173894
115	0x3d5ecfb5	0.054397304
116	0xbcf69267	-0.030099107
117	0xbe0553a7	-0.13020192
118	0xbd88e827	-0.066849045
119	0xbc3200f3	-0.010864484
120	0x3c39080d	0.011293423
121	0x3dd8ed98	0.105921924
122	0xbdaba2a9	-0.08380634
123	0xbe0f9e96	-0.1402534
124	0xbd800eea	-0.06252845
125	0x3d11bdac	0.035581276
126	0x3dbf7d0a	0.09350021
127	0x3e69585b	0.22787611
128	0x3d6a0b9e	0.057139985
129	0xbe480ddb	-0.19536535
130	0xbd8c97bb	-0.06864878
131	0x3e1d7f76	0.15380654
132	0xbe973eb5	-0.2954003
133	0xbde50af4	-0.1118373
134	0xbd2f63b6	-0.0428197
135	0xbdd7bbcf	-0.105338685
136	0x3cdc4510	0.0268884
137	0xbe8b57d7	-0.27215454
138	0xbd232f60	-0.039840102
139	0x3e21c4be	0.15797707
140	0xbe24f326	-0.16108379
141	0x3e5b93e8	0.2144314
142	0xbe7cefd3	-0.2470086
143	0x3e643834	0.22287065
144	0xbd71f1ad	-0.05906837
145	0xbe832965	-0.2561752
146	0xbcec4614	-0.02884201
147	0xbe3cd03a	-0.18438807
148	0xbdbfce1e	-0.093654856
149	0x3d4b9eab	0.049711864
150	0xbe1fa2a1	-0.15589382
151	0x3d69a548	0.05704239
152	0x3e1c67cc	0.1527397
153	0x3dcd271a	0.10017224
154	0xbe486313	-0.19569044
155	0xbda48ecb	-0.08035048
156	0xbda43af1	-0.08019055
157	0xbdb9a60b	-0.09064873
158	0xbd7c2da7	-0.061566975
159	0xbe99a66d	-0.30009785
160	0xbdf521cc	-0.11969337
161	0x3d3c2471	0.04593319
162	0x3d9b80f2	0.07592954
163	0xbdd47c65	-0.10375289
164	0x3dcf9744	0.101362735
165	0x3c3b554e	0.011433912
166	0xbca1b76a	-0.019740779
167	0xbe30e299	-0.1727394
168	0xbdd8428b	-0.10559567
169	0xbe9600bd	-0.29297438
170	0x3e247612	0.16060665
171	0x3e00a649	0.12563433
172	0xbdb8f1b0	-0.09030473
173	0x3d82d667	0.0638855
174	0xbcffeb57	-0.031240148
175	0x3e5d2df6	0.21599564
176	0xbe52049e	-0.20509574
177	0x3d1eeb95	0.038798887
178	0xbe4417b3	-0.19149666
179	0xbe19949c	-0.14998096
180	0xbc5b7fde	-0.013397185
181	0xbd653aa3	-0.055964123
182	0xbd63aec9	-0.05558661
183	0x3d3a381c	0.045463666
184	0xbe806656	-0.25078076
185	0xbe4689fc	-0.19388574
186	0x3d85ea87	0.06538873
187	0x3e0bccfa	0.13652411
188	0x3e8e1526	0.2775051
189	0x3b0595ec	0.002038355
190	0x394dac8a	0.000196146
191	0xbd524928	-0.0513393
192	0xbc71b873	-0.014753449
193	0xbe850265	-0.2597839
194	0xbe5c4581	-0.21510889
195	0xbe78cefb	-0.24297707
196	0x3c975d4c	0.018477105
197	0xbe1c033b	-0.15235607
198	0xbd4d47c0	-0.050117254
199	0xbe3f9d46	-0.18712339
200	0xbdb90d04	-0.09035686
201	0xbded52e1	-0.115880735
202	0xbcd25302	-0.025674347
203	0xbb0d076a	-0.0021519312
204	0xbe2cfe49	-0.16893877
205	0xbd9bee1d	-0.07613776
206	0x3d15acf9	0.036541913
207	0x3c5ccb59	0.013476216
208	0x3cba1ec8	0.022719756
209	0xbe997da6	-0.29978675
210	0xbd8595b5	-0.06522695
211	0xbe369c52	-0.17833069
212	0x3da83be6	0.0821455
213	0x3af57c2c	0.0018729023
214	0xbdf8bd5c	-0.121454924
215	0x3c155232	0.009113835
216	0x3d460fb9	0.048354838
217	0x3d302f54	0.043013886
218	0x3d1f51ac	0.038896248
219	0xbe90d678	-0.28288627
220	0xbd786d81	-0.060651306
221	0x3d924397	0.07141798
222	0xbdc29fd1	-0.09503139
223	0xbe5d5fce	-0.21618578
224	0x3c33e6bf	0.010980307
225	0xbea0663c	-0.31328
226	0xbb1326b4	-0.0022453489
227	0x3c72405d	0.014785853
228	0xbd5fb2d9	-0.05461392
229	0xbc55d28d	-0.0130506875
230	0x3dba32a1	0.09091688
231	0xbdcadd03	-0.09905436
232	0xbd7bac69	-0.06144372
233	0xbe26466f	-0.16237806
234	0xbe8b1722	-0.27166086
235	0x3c102281	0.008797289
236	0x3d553053	0.05204804
237	0x3d4b77f6	0.04967495
238	0xbd8c3655	-0.068463005
239	0xbca1d4bc	-0.01975476
240	0xbc3ac9f7	-0.011400691
241	0x3cc46492	0.023973737
242	0x3d6a1bc9	0.057155404
243	0xbe4313eb	-0.19050567
244	0x3e5c3d8e	0.21507856
245	0xbc3d59c4	-0.011557046
246	0x3b720ef3	0.003693518
247	0x3e9fdebe	0.31224626
248	0x3e705a20	0.2347188
249	0xbe771c6d	-0.24131937
250	0x3e2429ee	0.1603162
251	0xbea173c9	-0.3153365
252	0x3c84e1af	0.016220896
253	0xbc544a87	-0.012957222
254	0xbe8462d7	-0.2585666
255	0xbea49e83	-0.32152185

network_body._body_endoder.seq_layers.2.bias f4 [128]
0	0xbe508559	-0.20363368
1	0xbd4574cf	-0.0482071
2	0x3d059027	0.032608178
3	0xbdb29f0b	-0.08721741
4	0xbbe50a14	-0.006989727
5	0x3d2bb32c	0.04191892
6	0xbb744fd1	-0.003727902
7	0x3e5da2b9	0.21644105
8	0xbda7c744	-0.08192304
9	0xbdc51072	-0.09622277
10	0x3d84b063	0.064789556
11	0xbe8cf63c	-0.27531612
12	0xbe769ca5	-0.24083193
13	0x3c9f1f67	0.019424153
14	0xbd57d41d	-0.05269252
15	0x3d70a7e3	0.05875386
16	0xbe7072a4	-0.23481232
17	0xbd9e4a24	-0.07728985
18	0x3e980730	0.29692984
19	0x3dc45feb	0.095886074
20	0x3cfd6cf3	0.03093574
21	0xbd496de0	-0.04917705
22	0xbe3142c4	-0.17310625
23	0xbe7e6733	-0.24844055
24	0xbcbaba9a	-0.022794057
25	0xbe7b87d6	-0.24563536
26	0xbe2ed0fe	-0.17071912
27	0xbd84d061	-0.064850576
28	0xbdf08171	-0.11743439
29	0x3e76eb52	0.24113205
30	0xbe851471	-0.25992158
31	0x3d95c6c7	0.073133044
32	0x3e188614	0.14894897
33	0x3dd24cf6	0.102685854
34	0xbe2880b4	-0.16455346
35	0x3d05b526	0.03264346
36	0xbc91662d	-0.017748917
37	0xbe4430cd	-0.19159241
38	0x3ac111bb	0.0014730016
39	0xbe00829d	-0.12549825
40	0x3d804c03	0.06264498
41	0xbceaa361	-0.028642358
42	0xbe10b46b	-0.14131324
43	0x3e718f1a	0.23589745
44	0xbe50d689	-0.20394339
45	0x3cd10fa4	0.025520153
46	0x3c529466	0.012852764
47	0x3de73fb6	0.11291449
48	0xbdb4671b	-0.08808728
49	0xbcb88c68	-0.022527888
50	0x3e11836f	0.14210294
51	0xbe0c6f89	-0.13714422
52	0xbe292956	-0.16519675
53	0xbc870753	-0.016482985
54	0xbe07659a	-0.13222352
55	0xbc9f16fc	-0.01942014
56	0x3db52721	0.08845354
57	0x3d2050f8	0.039139718
58	0x3de87323	0.113500856
59	0x3e49f75c	0.19723266
60	0xbd115947	-0.035485532
61	0x3d8653e8	0.065589726
62	0xbd848edf	-0.06472563
63	0xbe2ba3e8	-0.16761744
64	0xbe06dc68	-0.13170016
65	0xbe3d2902	-0.18472674
66	0xbe4a8e77	-0.19780909
67	0x3da2ee6f	0.07955634
68	0x3e52a4c8	0.20570672
69	0x3d8cfe42	0.06884433
70	0xbd583ffa	-0.052795388
71	0xbe1c94f7	-0.152912
72	0xbdd0a73a	-0.10188146
73	0x3d040f69	0.03224126
74	0xbdd6fb18	-0.10497111
75	0xbd2d053f	-0.04224133
76	0xbda4e312	-0.08051123
77	0x3e6b6f48	0.22991669
78	0x3d8ce60d	0.06879816
79	0x3d6bbcf7	0.057553258
80	0x3d8a4b67	0.06752663
81	0xbde899d3	-0.11357465
82	0x3e274136	0.1633347
83	0xbe0fe30a	-0.14051452
84	0xbd81b2e2	-0.06332947
85	0xbe1a34c9	-0.15059198
86	0xbd66631c	-0.05624686
87	0x3d1ce7b0	0.038306892
88	0xbcd64a78	-0.026158556
89	0x3d33ca57	0.04389414
90	0x3db5ab92	0.08870615
91	0x3d65bc1a	0.05608759
92	0xbd38b7b1	-0.045097057
93	0xbe519a64	-0.20469052
94	0x3db59029	0.08865387
95	0xbbad40c9	-0.005287264
96	0xbdedcce4	-0.116113454
97	0xbe6eac8d	-0.2330801
98	0x3e8aad26	0.27085227
99	0xbe133d5f	-0.1437888
100	0xbde1f22c	-0.11032519
101	0xbe36789a	-0.17819443
102	0x3db3f1d8	0.087863624
103	0xbce63e8a	-0.028105993
104	0xbd23f71e	-0.04003059
105	0xbdb0a015	-0.08624283
106	0xbe2031f4	-0.15644056
107	0xbd057644	-0.03258349
108	0xbdd9da1d	-0.10637305
109	0x3dc5e711	0.09663213
110	0xbe436709	-0.19082274
111	0xbe0736b9	-0.13204469
112	0xbd57caa3	-0.052683484
113	0xbe906a91	-0.28206304
114	0xbe64bbf7	-0.22337328
115	0xbd61eea2	-0.05515922
116	0x3cac0ddd	0.021002704
117	0xbe4f84e7	-0.20265542
118	0xbe5cf655	-0.21578343
119	0xbe8f2874	-0.2796055
120	0xbccc581d	-0.02494436
121	0xbb5e0650	-0.0033878274
122	0xbcff2570	-0.031145781
123	0xbdc893f1	-0.097938426
124	0xbcd86370	-0.026414603
125	0x3ccac5c5	0.024752507
126	0x3bbd337a	0.0057739588
127	0x3e58e1f6	0.21179947

action_model._continuous_distribution.log_sigma f4 [1, 3]
0	0xbf2affd1	-0.66796595
1	0xbf3181b5	-0.6933854
2	0xbe680aaa	-0.22660318

action_model._continuous_distribution.mu.weight f4 [3, 128]
0	0xbcad5d92	-0.021162782
1	0xbc84f2e6	-0.016229104
2	0xbd7ebf65	-0.062194247
3	0x3a9fca98	0.0012191115
4	0x3d77da46	0.060510896
5	0x3c2d4b54	0.010577042
6	0xbb498134	-0.0030747177
7	0xbcb3f030	-0.021965116
8	0x3d0f0731	0.034918968
9	0xbddb10fa	-0.106965974
10	0xbb1bad7f	-0.0023754535
11	0xbde11058	-0.109894454
12	0xbc56ea5d	-0.0131174
13	0xbc8951f2	-0.016762707
14	0x3d1fcc98	0.039013475
15	0x3cb5a8d0	0.022175223
16	0xbd2d44b8	-0.042301863
17	0xbdf5e550	-0.120066285
18	0xbba71af9	-0.005099651
19	0x3e030fb0	0.12798953
20	0xbbca94c6	-0.006182286
21	0x3d6b29a8	0.057412773
22	0xbb58bc1a	-0.0033071102
23	0xbdb6a223	-0.08917644
24	0x3d3bc121	0.04583848
25	0xbcccf54d	-0.025019312
26	0x3b4a853d	0.003090217
27	0x3c2bd739	0.010488325
28	0xbdd0685a	-0.101761535
29	0xbbd540fd	-0.0065079913
30	0xbdf05de4	-0.11736658
31	0x3dece596	0.115672275
32	0x3dc84807	0.09779363
33	0x3d96de72	0.07366647
34	0xbd34e1ed	-0.044160772
35	0x3a1d096f	0.00059904804
36	0xbc3da792	-0.011575596
37	0xbd9066ec	-0.07050881
38	0x3b811cca	0.0039401995
39	0x3c54a4bf	0.012978732
40	0x3da7679b	0.08174058
41	0xbd514088	-0.051086932
42	0xbd031795	-0.03200491
43	0x3bc1f82c	0.005919477
44	0xbd93e483	-0.072213195
45	0xbdf08ea2	-0.11745955
46	0x3a212b72	0.00061481365
47	0xbd1fe251	-0.03903419
48	0xbc437ec1	-0.011932076
49	0x3d6c74c2	0.057728536
50	0x3d7ce052	0.061737366
51	0xbbd43a70	-0.006476693
52	0x3c374c5a	0.011187637
53	0x3c26e7b4	0.010187078
54	0xbb069c95	-0.0020540108
55	0xbda18e45	-0.07888464
56	0xbbffbffd	-0.007804869
57	0x3bf42b0f	0.007451422
58	0x3c6580c8	0.014007755
59	0x3cf453a0	0.029825032
60	0x3cbcad08	0.023031726
61	0x3be6da92	0.0070450986
62	0x3d462849	0.048378263
63	0xbd88f325	-0.06687001
64	0xbd88ad09	-0.06673629
65	0xbcb26e7d	-0.0217812
66	0xbd03b99a	-0.032159425
67	0x3afc9ce7	0.0019272835
68	0x3d9bfba8	0.07616359
69	0xbd37cf10	-0.044875205
70	0x3b356073	0.0027675896
71	0xbd78d701	-0.06075192
72	0x3c98496f	0.018589703
73	0x3ccc6ca3	0.024954146
74	0x3d0ed0d8	0.034867138
75	0x3cfc60b8	0.030807838
76	0xbcb20fa5	-0.021735976
77	0x3ce3a7ac	0.027789913
78	0xbc9c8af4	-0.019109227
79	0x3db9a075	0.09063808
80	0x3cbb6b99	0.022878455
81	0xbde65558	-0.11246747
82	0x3df9fde2	0.122066274
83	0xbd609fb5	-0.05483981
84	0xbd4cd083	-0.05000354
85	0xbc8f65e7	-0.017504646
86	0xbc4e148c	-0.012578141
87	0xbcb5ad3e	-0.022177335
88	0x3d0bff21	0.034178857
89	0xbb65ee4f	-0.003508467
90	0x3c9065a8	0.017626598
91	0xbdbda180	-0.09259319
92	0xbaa9fda3	-0.0012969266
93	0xbd97d191	-0.074130185
94	0x3c0090bc	0.007847007
95	0x3d310802	0.043220527
96	0x3cdc37b5	0.026882032
97	0xbde6906c	-0.11258015
98	0x3d9dd1bb	0.077060185
99	0x3c9bad00	0.019003391
100	0x3b72e509	0.0037062785
101	0xbcdae980	-0.02672267
102	0xbc3281c0	-0.010895193
103	0x3b2342bf	0.002491161
104	0x3bbcc152	0.0057603503
105	0xbdcb56de	-0.09928678
106	0xbd204d47	-0.039136197
107	0xbbfd09c1	-0.00772211
108	0x3991a2ee	0.00027777947
109	0x3dfa588d	0.12223921
110	0xbbf40776	-0.0074471785
111	0x3b966fda	0.0045909705
112	0xbb25224d	-0.0025197447
113	0xbdaaaf67	-0.083342366
114	0xbd1b3b20	-0.037898183
115	0x3c1005ea	0.0087904725
116	0x3d950956	0.07277171
117	0xbc6bbdbd	-0.014388499
118	0xbdbeda5e	-0.09318994
119	0xbe1c0b32	-0.15238646
120	0x3c4aae50	0.012370661
121	0xbd9a3cb9	-0.07531113
122	0xbc9a02f3	-0.018800234
123	0x3d237015	0.03990181
124	0xbc42da57	-0.011892877
125	0xbcde32c8	-0.027123824
126	0x3ad120ec	0.0015955246
127	0x3d8332ae	0.06406151
128	0xbe1b0f2e	-0.1514251
129	0xbd1cb0d7	-0.038254585
130	0x3dd20abf	0.10255956
131	0xbd2ea10d	-0.04263406
132	0xbc378f10	-0.011203542
133	0xbc419d41	-0.011817277
134	0xb9a8b2d1	-0.00032176686
135	0x3da8bc49	0.082390375
136	0xbe00833b	-0.1255006
137	0x3cd783c5	0.02630795
138	0x3ca74885	0.020420322
139	0xbdb7b616	-0.08970277
140	0xbe0fef6b	-0.14056174
141	0x3b65e974	0.0035081776
142	0xbcca33f9	-0.024682986
143	0x3d025065	0.03181495
144	0xbddbc9bf	-0.107318394
145	0xbd0231cc	-0.03178577
146	0x3e818bfa	0.25302106
147	0x3cd58ab2	0.026067112
148	0x3c13f8d2	0.009031491
149	0xbd51749c	-0.051136598
150	0xbdae60b1	-0.08514536
151	0xbd473387	-0.048633125
152	0xbd665bb8	-0.056239814
153	0xbe188708	-0.1489526
154	0xbd7b5d96	-0.061368547
155	0xbd35a573	-0.044347238
156	0xbbf3cd51	-0.007440247
157	0x3e038ea1	0.12847377
158	0xbd9cc6bd	-0.07655094
159	0x3c2b8a45	0.010469978
160	0x3d703d7c	0.058652386
161	0x3d02f361	0.031970385
162	0xbd4e3567	-0.050343897
163	0xbc9a04ee	-0.018801179
164	0xbc59dc6a	-0.01329718
165	0xbd9debdd	-0.07711003
166	0xba80e87b	-0.000983491
167	0xbd32fe87	-0.043699767
168	0xbab34f0b	-0.0013680173
169	0x3c47351e	0.01215866
170	0xbdaf5b20	-0.085623026
171	0x3e7ed1eb	0.24884765
172	0xbdbfa208	-0.09357077
173	0x3e0a6b83	0.13517575
174	0xbc193d2f	-0.009352966
175	0x3c8d5ceb	0.01725622
176	0xbd0ffbb1	-0.03515214
177	0xbceccd9d	-0.028906638
178	0x3d76b254	0.06022866
179	0xbde0ab87	-0.10970216
180	0xbda26efd	-0.079313256
181	0xbd077c92	-0.033077784
182	0xbd331b95	-0.043727476
183	0x3c6bb2f1	0.014385925
184	0x3d0dfff6	0.03466793
185	0xbc20b11a	-0.009807849
186	0x3d363b4a	0.044490136
187	0x3d994427	0.07483702
188	0xbc369ae3	-0.011145326
189	0x3c8c4745	0.017123828
190	0xbd86a39a	-0.06574173
191	0xbd6c2279	-0.057650063
192	0xbd1b2aef	-0.03788274
193	0xbe0972fb	-0.13422768
194	0xbd9651eb	-0.07339843
195	0x3cf59833	0.0299798
196	0x3dc61748	0.09672409
197	0x3ca465df	0.020068107
198	0xbd1ed3cd	-0.038776208
199	0xbe194073	-0.14965992
200	0xbda6a294	-0.08136478
201	0xbba18cc0	-0.004930109
202	0xbc9c3399	-0.019067572
203	0xbb8a26d0	-0.0042160526
204	0xbd308b0f	-0.043101367
205	0x3e766821	0.2406316
206	0x3d9b20f1	0.075746424
207	0x3cf51122	0.029915396
208	0x3ca75844	0.02042783
209	0x3d23b4c7	0.039967325
210	0x3dbc7348	0.09201676
211	0xbd0b571e	-0.03401863
212	0xbd09c0a2	-0.033630975
213	0xbdf4237b	-0.1192083
214	0x3c05b26a	0.008160213
215	0xbb3bdc1a	-0.0028665126
216	0xbc7dd932	-0.015493678
217	0x3d02a190	0.03189236
218	0x3d105da8	0.035245568
219	0x3e26ee82	0.16301921
220	0xbd12c526	-0.035832547
221	0xbdadcfd7	-0.08486908
222	0x3c5af9b0	0.013365194
223	0xbc00c1e3	-0.007858726
224	0xbdd0c49c	-0.1019375
225	0xbddd1125	-0.10794286
226	0x3e3aef4c	0.18255347
227	0xbddc6715	-0.10761849
228	0xbd1a69bd	-0.037698496
229	0xbd8be5ed	-0.06830964
230	0x3b9377ba	0.0045003565
231	0xbc040508	-0.00805784
232	0xbc24cf31	-0.010059164
233	0x3c3e1154	0.011600811
234	0xbd1b0b68	-0.037852675
235	0xbc481622	-0.012212308
236	0xbd2a4913	-0.041573595
237	0x3cfcf329	0.030877667
238	0xbd81e5ab	-0.06342634
239	0xbd48f1f0	-0.049058855
240	0xbcc4f7cf	-0.024043946
241	0xbdc79a5f	-0.09746241
242	0xbe1960e1	-0.14978363
243	0xbb50ff4c	-0.003189045
244	0x3b134f4f	0.0022477692
245	0xbe2e92ee	-0.17048237
246	0x3be61539	0.007021573
247	0xbd627980	-0.055291653
248	0xbae137c9	-0.0017182763
249	0x3d9a08f3	0.07521238
250	0xbbc38f40	-0.0059680045
251	0xbda6fa4d	-0.0815321
252	0xbc08b18f	-0.0083431145
253	0xbcc01873	-0.023449158
254	0xbba8f102	-0.0051556835
255	0x3dd3bbc2	0.10338546

action_model._continuous_distribution.mu.bias f4 [3]
0	0x3e69c843	0.228303
1	0x3e760f2b	0.24029224
2	0x3deeac86	0.11654

onnx::Div_51 f4 [22]
0	0x3ccd14b8	0.025034294
1	0x40ffb877	7.9912677
2	0x3cec6797	0.02885799
3	0x40ffab0e	7.9896307
4	0x3d0a2114	0.033722952
5	0x40ff9f8b	7.9882255
6	0x3d1e8cc6	0.03870847
7	0x40ff95df	7.987045
8	0x3d35837d	0.04431485
9	0x40ff8e1c	7.9860973
10	0x3d45a800	0.04825592
11	0x40ff8724	7.9852467
12	0x3d4a9b63	0.049464595
13	0x40ff807d	7.9844346
14	0x3d482216	0.048860632
15	0x40ff786d	7.9834504
16	0x3d430c19	0.04761896
17	0x40ff6b65	7.9818597
18	0x3d3d87e3	0.04627217
19	0x40ff586f	7.979545
20	0x3d35876a	0.044318594
21	0x40ff3edf	7.9764247
