results/timeout60/3DBall/3DBall-3499381.pt (torch, 495670 bytes, 44 tensors)

network_body.observation_encoder.processors.0.normalizer.running_mean f4 [22]
0.00054838194 4.381777 0.0007284129 4.392474 0.0009950325 4.407359 0.0013096632 4.4232783
0.0017200181 4.437561 0.0020535083 4.447624 0.0021738196 4.4538345 0.0021366673 4.45729
0.002047789 4.4611273 0.0019477743 4.469939 0.0017948874 4.48737
00000000: 4ac1 0f3a 8437 8c40 f6f2 3e3a 268f 8c40
00000010: c06b 823a 1609 8d40 01a9 ab3a 7f8b 8d40
00000020: 3b72 e13a 8000 8e40 2794 063b f052 8e40
00000030: a476 0e3b d085 8e40 5407 0c3b 1fa2 8e40
00000040: 3334 063b 8ec1 8e40 764c ff3a be09 8f40
00000050: 6d42 eb3a 8998 8f40

network_body.observation_encoder.processors.0.normalizer.running_variance f4 [22]
1918.9525 2.1807677e+08 2548.1362 2.1791075e+08 3479.5322 2.1774421e+08 4578.0127 2.1757896e+08
6009.6406 2.1742008e+08 7172.2573 2.1726483e+08 7591.453 2.1711371e+08 7462.0337 2.1695462e+08
7152.3193 2.1676272e+08 6803.732 2.1653064e+08 6270.737 2.1625558e+08
00000000: 7bde ef44 66f9 4f4d 2e42 1f45 ded0 4f4d
00000010: 8478 5945 35a8 4f4d 1a10 8f45 dd7f 4f4d
00000020: 20cd bb45 1359 4f4d 0f22 e045 2c33 4f4d
00000030: a03b ed45 470e 4f4d 4530 e945 70e7 4e4d
00000040: 8e82 df45 96b8 4e4d db9d d445 ed7f 4e4d
00000050: e5f5 c345 c63c 4e4d

network_body.processors.0.normalizer.running_mean f4 [22]
0.00054838194 4.381777 0.0007284129 4.392474 0.0009950325 4.407359 0.0013096632 4.4232783
0.0017200181 4.437561 0.0020535083 4.447624 0.0021738196 4.4538345 0.0021366673 4.45729
0.002047789 4.4611273 0.0019477743 4.469939 0.0017948874 4.48737
00000000: 4ac1 0f3a 8437 8c40 f6f2 3e3a 268f 8c40
00000010: c06b 823a 1609 8d40 01a9 ab3a 7f8b 8d40
00000020: 3b72 e13a 8000 8e40 2794 063b f052 8e40
00000030: a476 0e3b d085 8e40 5407 0c3b 1fa2 8e40
00000040: 3334 063b 8ec1 8e40 764c ff3a be09 8f40
00000050: 6d42 eb3a 8998 8f40

network_body.processors.0.normalizer.running_variance f4 [22]
1918.9525 2.1807677e+08 2548.1362 2.1791075e+08 3479.5322 2.1774421e+08 4578.0127 2.1757896e+08
6009.6406 2.1742008e+08 7172.2573 2.1726483e+08 7591.453 2.1711371e+08 7462.0337 2.1695462e+08
7152.3193 2.1676272e+08 6803.732 2.1653064e+08 6270.737 2.1625558e+08
00000000: 7bde ef44 66f9 4f4d 2e42 1f45 ded0 4f4d
00000010: 8478 5945 35a8 4f4d 1a10 8f45 dd7f 4f4d
00000020: 20cd bb45 1359 4f4d 0f22 e045 2c33 4f4d
00000030: a03b ed45 470e 4f4d 4530 e945 70e7 4e4d
00000040: 8e82 df45 96b8 4e4d db9d d445 ed7f 4e4d
00000050: e5f5 c345 c63c 4e4d

network_body._body_endoder.seq_layers.0.weight f4 [128, 22]
0.33795637 0.029786557 0.10103362 0.22987953 -0.6018228 -0.10124994 0.55174977 0.05925562
-0.09881972 -0.3027613 0.28580847 -0.23658086 -0.30895695 -0.43539748 0.120453015 0.10028918
-0.36086157 -0.11817109 -0.057312798 0.26965412 0.25165993 0.4640894 0.06324022 -0.09579033
0.19810201 0.30828524 -0.12661244 -0.17822005 -0.20595975 -0.10460961 0.083602354 0.12843229
0.12048308 -0.33729517 0.023603238 0.015834888 0.44334257 -0.107855916 -0.24077739 -0.08607721
0.16559707 -0.25988254 0.23323707 -0.17435554 0.16041772 0.264819 0.4857304 -0.21344638
-0.31614128 -0.016485645 0.19624266 -0.26365548 0.04269393 0.5703401 0.0122252 -0.012199479
0.18813744 0.17092992 0.027881157 0.3367307 0.26089358 0.07619126 0.027257087 -0.12778896
-0.07920018 -0.14245017 -0.087563656 0.3889272 -0.040704932 -0.20201692 0.037672613 -0.13578016
0.032022752 -0.10786755 -0.11260176 0.13859943 -0.35353246 -0.10327354 -0.23001008 -0.02069382
-0.06680011 0.14234212 -0.4627664 -0.12191651 -0.30633765 -0.4637317 -0.24977285 0.4837902
0.096192904 -0.6256829 0.021871267 0.12172452 0.22867487 0.5960999 0.073630676 0.32192194
0.27652764 -0.3134492 -0.24613117 -0.13601135 -0.23913853 -0.22970386 -0.051942963 0.17500143
-0.365824 0.31623948 -0.07631801 0.05811908 -0.4902713 -0.13514803 0.11888376 -0.08882383
-0.31301525 0.047279097 0.037813846 0.14828144 0.002879788 -0.45529377 -0.105795726 0.41532904
-0.38669002 0.27353823 -0.4209111 -0.67270887 0.06323904 -0.061069712 -0.011241196 0.48883617
-0.07544304 -0.08750356 -0.3143093 -0.19622551 0.053055122 0.20755409 0.099613816 0.1772881
-0.17983837 0.39114934 0.06292708 0.14685114 0.0023721505 -0.4500267 0.095017105 0.1266334
-0.009735977 -0.28514054 0.2689135 -0.26592702 0.082862765 -0.27933586 -0.17060749 -0.27317786
0.15257272 -0.37281686 0.44117874 -0.18141301 -0.033645708 -0.19582988 0.14192927 -0.04512314
0.072583206 0.03478394 -0.05199433 -0.102908984 0.26868954 -0.075664714 0.20410684 -0.16193113
-0.06312617 -0.073609054 -0.37513384 -0.33580166 -0.16636413 0.025343092 -0.17554797 0.41676325
-0.283103 0.05343045 -0.2613497 0.34673792 -0.21736443 -0.08358055 -0.34193736 -0.31583372
-0.058903877 -0.111081295 0.16897409 -0.023476299 -0.32191107 0.19971302 -0.0016592919 -0.064619474
-0.60062027 -0.0021058163 0.1040152 0.118708156 0.07779539 0.41472873 0.19485497 0.2123582
-0.10441576 -0.14075336 -0.23072693 0.06849676 -0.009033678 -0.13478452 0.3716079 0.2967266
-0.04934079 -0.18628238 0.20433135 -0.06456821 0.14074114 -0.21732533 -0.22331701 -0.31901768
-0.09252901 -0.13230442 -0.30120844 -0.2222852 0.17154893 -0.3387656 0.09483911 0.24976926
0.3664687 -0.055263456 0.19269784 -0.17773671 0.07311949 -0.1448028 -0.104171224 -0.018741937
0.13454464 0.068771355 0.053227764 -0.07307283 -0.17733291 0.16664775 0.32005548 0.43216246
0.32930326 0.2580066 -0.1407081 0.28409925 0.037492905 0.14152998 -0.5023822 0.21405283
0.21937917 0.03304575 -0.13579994 0.4119741 0.07867268 0.28314015 -0.21649088 0.3088275
00000000: 9e08 ad3e f002 f43c b7ea ce3d 8a65 6b3e
00000010: 0f11 1abf 215c cfbd 793f 0d3f 05b6 723d
00000020: fe61 cabd 8703 9bbe 7d55 923e 4142 72be
00000030: 9b2f 9ebe 6bec debe 12b0 f63d 6a64 cd3d
00000040: d9c2 b8be af03 f2bd d3c0 6abd 1b10 8a3e
00000050: 92d9 803e 209d ed3e 1784 813d b82d c4bd
00000060: 41db 4a3e 90d7 9d3e b1a6 01be 517f 36be
00000070: 1de7 52be 903d d6bd b637 ab3d c183 033e
00000080: d5bf f63d f4b1 acbe 945b c13c 2bb8 813c
00000090: ccfd e23e 90e3 dcbd 598e 76be 4049 b0bd
000000a0: 4792 293e 530f 85be b3d5 6e3e 428a 32be
000000b0: 8b44 243e 5b96 873e a8b1 f83e b091 5abe
000000c0: 45dd a1be e70c 87bc d6f3 483e dafd 86be
000000d0: d5df 2e3d cf01 123f 354c 483c 53e0 47bc
000000e0: 1aa7 403e 4108 2f3e 0667 e43c f767 ac3e
000000f0: d893 853e 2a0a 9c3d 414a df3c 1cdb 02be
00000100: b433 a2bd 75de 11be 9354 b3bd 7721 c73e
00000110: 37ba 26bd 86dd 4ebe 994e 1a3d f409 0bbe
00000120: 4a2a 033d a9e9 dcbd c09b e6bd 02ed 0d3e
00000130: 3502 b5be 1481 d3bd c387 6bbe 1686 a9bc
00000140: 7fce 88bd 22c2 113e b8ef ecbe 5daf f9bd
00000150: 4ad8 9cbe 3e6e edbe 74c4 7fbe 59b3 f73e
00000160: c900 c53d c12c 20bf 5f2b b33c b54a f93d
00000170: bf29 6a3e 019a 183f aecb 963d f4d2 a43e
00000180: 0895 8d3e 6a7c a0be cf09 7cbe 8f46 0bbe
00000190: bbe0 74be 7d37 6bbe 25c2 54bd 9333 333e
000001a0: 494d bbbe 24ea a13e 9e4c 9cbd 460e 6e3d
000001b0: d704 fbbe 3f64 0abe 5479 f33d 45e9 b5bd
000001c0: 8943 a0be baa7 413d b1e2 1a3d 17d7 173e
000001d0: d3ba 3c3b 441c e9be 6eab d8bd 02a6 d43e
000001e0: 3cfc c5be 340d 8c3e a981 d7be a636 2cbf
000001f0: 7883 813d 3c24 7abd fe2c 38bc bc48 fa3e
00000200: e181 9abd 1135 b3bd 26ed a0be 57ef 48be
00000210: 5450 593d 0f89 543e 5402 cc3d 038b 353e
00000220: 8d27 38be ba44 c83e eadf 803d 2560 163e
00000230: 1576 1b3b e669 e6be 5498 c23d 30ac 013e
00000240: a683 1fbc f1fd 91be 08af 893e 9627 88be
00000250: f4b3 a93d 1c05 8fbe bbb3 2ebe f8dd 8bbe
00000260: 063c 1c3e dae1 bebe 2ee2 e13e 55c4 39be
00000270: 15d0 09bd a187 48be e855 113e 0bd3 38bd
00000280: 81a6 943d 9b79 0e3d 02f8 54bd f2c1 d2bd
00000290: ad91 893e 1af6 9abd 6201 513e 46d1 25be
000002a0: 4b48 81bd 58c0 96bd 8b11 c0be 32ee abbe
000002b0: 5c5b 2abe 519c cf3c d9c2 33be fe61 d53e
000002c0: e0f2 90be e3d9 5a3d a1cf 85be a287 b13e
000002d0: c894 5ebe 482c abbd 6a12 afbe f5b4 a1be
000002e0: 3145 71bd 977e e3bd 8b07 2d3e 5e51 c0bc
000002f0: 87d1 a4be 9281 4c3e 997c d9ba 3757 84bd
00000300: 40c2 19bf bc01 0abb ec05 d53d 431d f33d
00000310: 3053 9f3d 5357 d43e 1088 473e 6e74 593e
00000320: eed7 d5bd a621 10be ae43 6cbe 0848 8c3d
00000330: fe01 14bc f404 0abe 6443 be3e 8dec 973e
00000340: 9119 4abd cfc0 3ebe 3d3c 513e 563c 84bd
00000350: 721e 103e 888a 5ebe 37ad 64be 4956 a3be
00000360: d97f bdbd cf7a 07be fe37 9abe bb9e 63be
00000370: 86aa 2f3e af72 adbe 023b c23d 83c3 7f3e
00000380: c9a1 bb3e ef5b 62bd 9552 453e 9d00 36be
00000390: acbf 953d 2f47 14be b957 d5bd b188 99bc
000003a0: 12c6 093e ffd7 8c3d 5b05 5a3d 35a7 95bd
000003b0: c296 35be b5a5 2a3e 50de a33e 6644 dd3e
000003c0: 709a a83e 7119 843e c915 10be 7575 913e
000003d0: 2992 193d 3ced 103e 1f9c 00bf aa30 5b3e
000003e0: efa4 603e fb5a 073d 240f 0bbe 45ee d23e
000003f0: 241f a13d bff7 903e c9af 5dbe a31e 9e3e

network_body._body_endoder.seq_layers.0.bias f4 [128]
-0.0413776 -0.23283325 0.09587308 -0.08554085 0.07403134 -0.090980195 -0.22530536 -0.24800922
0.17251863 -0.1822815 0.19429834 -0.011427569 0.14283668 -0.028059682 0.06804996 -0.10841453
0.1074888 -0.17085333 -0.2593765 -0.22700766 -0.013256329 0.12060038 -0.17944747 0.16993514
-0.17054874 -0.17820485 0.1157497 -0.19399177 0.08478444 -0.093840644 -0.037180323 -0.093716875
0.19001815 -0.06985577 -0.21831265 -0.25571382 0.05922082 0.033274088 -0.18986051 -0.2827937
-0.21258312 0.061959773 -0.049460854 -0.17414431 -0.15960105 0.08866886 -0.16969423 -0.08096978
-0.16454989 0.101280734 0.10181153 0.18707359 0.076258 0.04158608 0.15905473 -0.14645931
-0.19599098 -0.25584173 -0.2778535 -0.09653183 -0.19844817 -0.28422788 0.07515277 0.12937681
-0.0040144133 -0.03266519 -0.16169652 -0.06190137 -0.046577755 0.071058385 -0.107700124 -0.21877258
0.123494826 0.10628205 -0.22396673 -0.18129839 0.23947008 0.0015565646 0.20043443 -0.082502104
-0.0032283713 -0.18481582 -0.13301742 0.04821914 -0.15685645 -0.08624452 -0.036148068 -0.026854958
-0.2725749 -0.14828937 -0.113871396 0.29471526 -0.09684108 0.11274239 -0.022446597 0.02215277
0.03923408 0.22608379 0.017937701 -0.002502941 0.19790995 -0.09298734 -0.10399051 0.2416752
-0.20925114 0.016833745 0.19397952 -0.22687851 -0.2554077 -0.09865269 0.0627196 0.1241101
0.052822497 0.012009311 -0.020120632 0.054379415 -0.0045560873 0.06169453 0.17212564 -0.099184
-0.094955616 -0.29273272 0.08939093 0.16106078 -0.115178086 -0.07879856 -0.1840413 -0.10212154
00000000: 8f7b 29bd d76b 6ebe 1b59 c43d 0b30 afbd
00000010: be9d 973d d353 babd 73b6 66be 21f6 7dbe
00000020: b9a8 303e 00a8 3abe 25f6 463e b33a 3bbc
00000030: c743 123e 6bdd e5bc c75d 8b3d 7008 debd
00000040: 1723 dc3d 2df4 2ebe ffcc 84be b274 68be
00000050: 1331 59bc 55fd f63d 14c1 37be 7a03 2e3e
00000060: 54a4 2ebe 557b 36be 2e0e ed3d c7a5 46be
00000070: 77a3 ad3d 862f c0bd 654a 18bd a2ee bfbd
00000080: 1e94 423e 8b10 8fbd 5a8d 5fbe ecec 82be
00000090: 8891 723d 694a 083d cb6a 42be 56ca 90be
000000a0: 64af 59be 88c9 7d3d 7797 4abd e352 32be
000000b0: 756e 23be 0598 b53d 53c4 2dbe 7cd3 a5bd
000000c0: c47f 28be 466c cf3d 9082 d03d 3890 3f3e
000000d0: 282d 9c3d 2a56 2a3d 3edf 223e 6ef9 15be
000000e0: dcb1 48be b0fd 82be d042 8ebe 7bb2 c5bd
000000f0: ff35 4bbe 5186 91be b2e9 993d 5b7b 043e
00000100: 578b 83bb efcb 05bd c693 25be 4a8c 7dbd
00000110: 51c8 3ebd 0f87 913d e291 dcbd eb05 60be
00000120: dbea fc3d 67aa d93d 8957 65be 49a6 39be
00000130: a537 753e a405 cc3a af3e 4d3e ddf6 a8bd
00000140: 1593 53bb 5c40 3dbe b835 08be 6f81 453d
00000150: fa9e 20be f8a0 b0bd ff0f 14bd eefe dbbc
00000160: f08e 8bbe 2bd9 17be 6835 e9bd ebe4 963e
00000170: 9e54 c6bd 7be5 e63d ede1 b7bc ba79 b53c
00000180: eab3 203d 8282 673e 16f2 923c 6208 24bb
00000190: e8a8 4a3e 2670 bebd faf8 d4bd b479 773e
000001a0: ee45 56be ece6 893c 91a2 463e d752 68be
000001b0: ccc4 82be 6c0a cabd 2273 803d 702d fe3d
000001c0: 675c 583d b3c2 443c 06d4 a4bc f3bc 5e3d
000001d0: 3b4b 95bb 67b3 7c3d b441 303e fb20 cbbd
000001e0: 1778 c2bd 10e1 95be 9812 b73d 1eed 243e
000001f0: 7de2 ebbd 2461 a1bd 5375 3cbe 1925 d1bd

network_body._body_endoder.seq_layers.2.weight f4 [128, 128]
0.014236821 -0.03362428 -0.058571786 0.20203537 -0.029398266 -0.058344375 0.07254761 0.017142659
-0.1770072 0.08856282 -0.16048327 -0.10602861 -0.15997295 -0.16101424 -0.07980475 0.019320874
-0.13126272 0.054190867 0.2190794 0.047826968 0.053193178 -0.080480024 0.18915366 -0.20613955
-0.06125063 0.016932063 -0.01362744 0.027883554 0.022353983 0.027357854 0.15828785 0.13526392
-0.1542799 0.01644926 0.01722111 0.00046485965 0.05168608 -0.022508696 0.07357778 0.050025057
0.06855858 -0.055167854 0.07260459 0.013980446 -0.06969017 -0.09720916 0.09229203 0.1193861
0.17948781 -0.17369272 -0.062180497 -0.11079467 -0.12144253 -0.06789974 0.04018424 0.030180246
-0.027068766 0.044502463 0.23671684 0.025718594 -0.09109208 0.050576597 0.021698453 -0.08053187
0.016731046 0.014156867 0.0026965633 -0.116097234 -0.049790587 -0.12997021 -0.050105963 0.031850073
0.033967115 -0.013624015 -0.10378771 0.00066611887 0.0150550585 0.010562949 -0.13691416 -0.035628594
-0.0465573 0.09965544 0.06335172 0.010735605 0.2626324 0.0035470063 0.055936597 -0.011786267
-0.16549486 0.07692568 0.023205547 -0.116483815 0.17654662 -0.10857441 0.103793114 0.017776513
0.17104688 0.12212439 0.09975174 -0.13555251 -0.1697881 -0.1292962 -0.06297534 -0.14107022
0.19990838 -0.04622089 -0.15380238 0.09334648 0.01402677 -0.07320047 -0.048961937 -0.03898641
0.054207467 -0.12105772 -0.14493054 0.052705087 -0.008767511 -0.110033736 -0.045081537 -0.01702265
0.00282285 0.093975075 -0.10708681 -0.090309046 -0.077118136 0.056227703 0.10811128 0.22814703
0.07483571 -0.1657582 -0.10084331 0.1352273 -0.24214165 -0.12676546 -0.03204707 -0.06437392
0.0100705745 -0.25911477 -0.027729373 0.11167888 -0.1571368 0.15799154 -0.18669955 0.21223645
-0.05889288 -0.25491297 -0.023919253 -0.17341956 -0.124898516 0.043799523 -0.15655862 0.023059629
0.16511753 0.086552866 -0.20747383 -0.07775992 -0.07040781 -0.094977364 -0.090081014 -0.2750542
-0.16437235 -0.027789546 0.059676535 -0.10092279 0.12148884 -0.025860807 -0.0007694286 -0.14817077
-0.10364971 -0.30499315 0.13639933 0.116714336 -0.09921465 0.012601038 -0.009304216 0.20187367
-0.20236306 0.03017331 -0.19483322 -0.1714319 -0.029055573 -0.10253688 -0.07632804 0.05384622
-0.20882775 -0.21635985 0.085511416 0.112658724 0.26236603 0.027174503 -0.037678838 -0.048029285
-0.018712886 -0.24763368 -0.22356313 -0.2242488 0.008082577 -0.14976014 -0.07614197 -0.18537962
-0.0778638 -0.1402916 -0.016428022 0.012704961 -0.21688238 -0.058964882 -0.010094772 0.0104433885
0.031135017 -0.30338326 -0.037019115 -0.19382066 0.09798949 0.013553288 -0.083833724 -0.053268872
0.048155032 0.027285166 0.0065768193 -0.25290748 -0.06162504 0.0800064 -0.071545385 -0.23146674
0.07412628 -0.3200523 -0.0059298803 -0.00096590084 -0.05718557 0.005234132 0.050699692 -0.07220116
-0.040951297 -0.21015543 -0.27521554 -0.0042733946 0.06971679 0.05172298 -0.07648333 -0.008455183
-0.010324785 -0.029428832 0.086006336 -0.19549604 0.20867899 -0.0027226591 0.031491727 0.252447
0.20023741 -0.21406323 0.13205029 -0.36853904 -0.01268517 -0.009270841 -0.27242032 -0.29878616
00000000: 8e41 693c 9db9 09bd f8e8 6fbd 5ce2 4e3e
00000010: a2d4 f0bc 83fa 6ebd d793 943d c36e 8c3c
00000020: 6041 35be 6c60 b53d ba55 24be 8725 d9bd
00000030: f3cf 23be ebe0 24be ac70 a3bd cf46 9e3c
00000040: bc69 06be 3ef7 5d3d 5a56 603e 36e6 433d
00000050: 17e1 593d b6d2 a4bd 7fb1 413e 3f16 53be
00000060: f1e1 7abd 1cb5 8a3c a045 5fbc 0d6c e43c
00000070: b31f b73c 941d e03c 3616 223e a082 0a3e
00000080: 8dfb 1dbe 99c0 863c 4913 8d3c 68b8 f339
00000090: c8b4 533d 2864 b8bc f2af 963d 13e7 4c3d
000000a0: 7168 8c3d b0f7 61bd b7b1 943d 3e0e 653c
000000b0: b8b9 8ebd 9915 c7bd 9b03 bd3d b380 f43d
000000c0: a7cb 373e 81dc 31be fab0 7ebd 51e8 e2bd
000000d0: dcb6 f8bd 050f 8bbd 3b98 243d 903c f73c
000000e0: 51bf ddbc 3748 363d e665 723e cdaf d23c
000000f0: 7c8e babd 6829 4f3d f4c0 b13c e5ed a4bd
00000100: 8c0f 893c 34f2 673c d3b8 303b 63c4 edbd
00000110: 37f1 4bbd e916 05be e93b 4dbd 3975 023d
00000120: 1a21 0b3d 4337 5fbc a78e d4bd 7b9e 2e3a
00000130: 7ea9 763c 3810 2d3c 3a33 0cbe 4aef 11bd
00000140: deb2 3ebd 2718 cc3d 8cbe 813d 64e4 2f3c
00000150: c177 863e e474 683b c61d 653d 301b 41bc
00000160: 7c77 29be 368b 9d3d 8f19 be3c 118f eebd
00000170: a3c8 343e 435c debd 7c91 d43d 0da0 913c
00000180: ea26 2f3e 5a1c fa3d a44a cc3d 47ce 0abe
00000190: efdc 2dbe 3966 04be 37f9 80bd b674 10be
000001a0: c8b4 4c3e 1e52 3dbd 5f7e 1dbe 702c bf3d
000001b0: 8ad0 653c 21ea 95bd 508c 48bd 37b0 1fbd
000001c0: a608 5e3d 1ced f7bd ac68 14be 4ae1 573d
000001d0: 9ba5 0fbc 5e59 e1bd 6ba7 38bd 1673 8bbc
000001e0: 90ff 383b 0176 c03d 5450 dbbd f3f3 b8bd
000001f0: 1df0 9dbd 054f 663d 7269 dd3d 609f 693e
00000200: 7743 993d 85bc 29be f086 cebd 0679 0a3e
00000210: fbf3 77be cece 01be ca43 03bd 79d6 83bd
00000220: 0dff 243c b1aa 84be b628 e3bc e6b7 e43d
00000230: 78e8 20be 89c8 213e 2b2e 3fbe 8354 593e
00000240: a939 71bd f483 82be 4ff2 c3bc e694 31be
00000250: cbca ffbd 2167 333d e750 20be 8ce7 bc3c
00000260: 9214 293e a142 b13d 0574 54be 9840 9fbd
00000270: f831 90bd 7e83 c2bd 657c b8bd e7d3 8cbe
00000280: 3a51 28be e7a6 e3bc 626f 743d 9cb0 cebd
00000290: 24cf f83d 0bda d3bc 7bb3 49ba 14ba 17be
000002a0: 4d46 d4bd 1028 9cbe 44ac 0b3e ed07 ef3d
000002b0: 0d31 cbbd 9674 4e3c b670 18bc f9b7 4e3e
000002c0: 4338 4fbe 042e f73c 5c82 47be d88b 2fbe
000002d0: f405 eebc dbfe d1bd e051 9cbd db8d 5c3d
000002e0: f1d6 55be 708d 5dbe 9c20 af3d 9eb9 e63d
000002f0: d754 863e 109d de3c 2055 1abd 5bba 44bd
00000300: c44b 99bc af93 7dbe bced 64be 7aa1 65be
00000310: c96c 043c b95a 19be 52f0 9bbd 28d4 3dbe
00000320: 0e77 9fbd 9aa8 0fbe 0f94 86bc 7828 503c
00000330: 6a16 5ebe 2985 71bd 8b64 25bc bf1a 2b3c
00000340: dd0e ff3c 0d55 9bbe 5ba1 17bd ec78 46be
00000350: b7ae c83d 9c0e 5e3c 04b1 abbd 7630 5abd
00000360: 363e 453d 2485 df3c 5c82 d73b 177d 81be
00000370: 8a6a 7cbd 65da a33d 6386 92bd 9e05 6dbe
00000380: 85cf 973d e5dd a3be 714f c2bb 8234 7dba
00000390: 6b3b 6abd 1583 ab3b 7baa 4f3d 34de 93bd
000003a0: 8cbc 27bd fc32 57be 0de9 8cbe d507 8cbb
000003b0: adc7 8e3d 7adb 533d 4ba3 9cbd 9c87 0abc
000003c0: 4929 29bc bc14 f1bc 1724 b03d 1d30 48be
000003d0: f2af 553e a46e 32bb 78fd 003d bc40 813e
000003e0: 090b 4d3e 6433 5bbe 3138 073e 26b1 bcbe
000003f0: 76d5 4fbc bae4 17bc ad7a 8bbe 80fa 98be

network_body._body_endoder.seq_layers.2.bias f4 [128]
-0.22485891 -0.05032391 0.05481335 -0.0869705 -0.022505663 0.03990314 -0.029220099 0.21535388
-0.09957382 -0.09539646 0.056190163 -0.2822832 -0.26151124 0.044433825 -0.07214865 0.050493825
-0.2508098 -0.083501846 0.31531718 0.08064695 0.042450875 -0.06093456 -0.17764457 -0.2521229
-0.03948203 -0.26842377 -0.18195099 -0.062894374 -0.111485586 0.25551736 -0.26654702 0.052645016
0.14214975 0.08664693 -0.1712386 0.05172925 -0.024268724 -0.20411514 0.007999948 -0.15527387
0.036690034 -0.023907159 -0.15092565 0.25429308 -0.2228841 0.019842532 0.0035066288 0.10105623
-0.089657456 -0.03290652 0.13086542 -0.16029355 -0.1887668 -0.026252048 -0.15234038 -0.01937654
0.08560513 0.03329593 0.10479032 0.17963928 -0.046152975 0.04748495 -0.08324544 -0.17880385
-0.12957878 -0.20309949 -0.20150854 0.0779059 0.19645216 0.05971099 -0.07932604 -0.16501877
-0.124322265 0.00926208 -0.119782485 -0.053557537 -0.09050009 0.24955817 0.08887326 0.042345956
0.05539656 -0.112074114 0.15714306 -0.13990498 -0.05499214 -0.17134193 -0.05244393 0.034311067
-0.036423583 0.05286776 0.087128945 0.062393527 -0.0701823 -0.20838258 0.075098455 -0.019725984
-0.13995822 -0.25185865 0.2710277 -0.16654341 -0.13674976 -0.18968585 0.10241169 -0.029142702
-0.03970724 -0.08243917 -0.15500149 -0.020055832 -0.10514492 0.07998609 -0.1797669 -0.14735317
-0.06800381 -0.29313356 -0.24608545 -0.046507068 0.0047920397 -0.21705586 -0.21071796 -0.27387533
-0.018721776 -0.015497802 -0.047909044 -0.11353287 -0.019418558 0.008698555 0.029279176 0.20246743
00000000: 6a41 66be 7220 4ebd f783 603d 971d b2bd
00000010: cc5d b8bc 7a71 233d fd5e efbc ba85 5c3e
00000020: 5ced cbbd 385f c3bd a827 663d 6c87 90be
00000030: cde4 85be 3e00 363d acc2 93bd 9dd2 4e3d
00000040: 246a 80be 0403 abbd 4171 a13e 3a2a a53d
00000050: f8e0 2d3d 8496 79bd 75e8 35be 4116 81be
00000060: e9b7 21bd d76e 89be 5c51 3abe c4ce 80bd
00000070: 8e52 e4bd 2cd3 823e da78 88be 4da2 573d
00000080: b48f 113e f273 b13d 2c59 2fbe 0de2 533d
00000090: 34cf c6bc 8f03 51be 3712 033c 1d00 1fbe
000000a0: 4a48 163d f2d8 c3bc 418c 1abe b432 823e
000000b0: bb3b 64be ce8c a23c 78cf 653b 92f6 ce3d
000000c0: 549e b7bd fdc8 06bd 9601 063e fe23 24be
000000d0: 164c 41be 890e d7bc 1eff 1bbe 8dbb 9ebc
000000e0: be51 af3d 5061 083d 4f9c d63d 5cf3 373e
000000f0: e70a 3dbd 947f 423d 967c aabd 5b18 37be
00000100: 4db0 04be 50f9 4fbe 4158 4ebe 218d 9f3d
00000110: c12a 493e 8393 743d b175 a2bd aefa 28be
00000120: ac9c febd fbbf 173c 8550 f5bd 265f 5bbd
00000130: 1c58 b9bd 2d8c 7f3e 2f03 b63d f472 2d3d
00000140: 81e7 623d 1d87 e5bd 1cea 203e 4043 0fbe
00000150: 703f 61bd 4274 2fbe 72cf 56bd c389 0c3d
00000160: e530 15bd dd8b 583d a970 b23d 5b90 7f3d
00000170: bdbb 8fbd 3e62 55be 38cd 993d 6398 a1bc
00000180: 3551 0fbe 9ef3 80be 25c4 8a3e 5b8a 2abe
00000190: 2108 0cbe 023d 42be 38bd d13d adbc eebc
000001a0: 0fa4 22bd ded5 a8bd b6b8 1ebe 214c a4bc
000001b0: 3856 d7bd bfcf a33d d014 38be c0e3 16be
000001c0: 9545 8bbd 9a15 96be d3fd 7bbe 327e 3ebd
000001d0: 8b06 9d3b e443 5ebe 73c6 57be 6339 8cbe
000001e0: 695e 99bc 7eea 7dbc 463c 44bd ec83 e8bd
000001f0: ab13 9fbc 6284 0e3c e2da ef3c 9f53 4f3e

action_model._continuous_distribution.log_sigma f4 [1, 3]
-0.7405204 -0.68484885 -0.23726556
00000000: bf92 3dbf 4152 2fbf bef5 72be

action_model._continuous_distribution.mu.weight f4 [3, 128]
-0.013103265 -0.033247583 -0.08479002 -0.015325591 0.04994726 0.015831169 -0.019846367 -0.023604667
0.02852704 -0.10182375 0.025803035 -0.10625119 -0.0061911154 0.036997214 0.0102291955 0.0154906055
-0.030047877 -0.1128138 -0.026967656 0.12561522 0.032566816 0.034000296 -0.023748886 -0.092728645
0.031894892 -0.024824375 0.006604769 0.004165656 -0.119679786 -0.058729548 -0.1247019 0.08549063
0.05842504 0.055026256 -0.020757925 -0.019672714 0.03137632 -0.072636604 0.037218776 -0.010122983
0.059094347 -0.076950945 -0.030929232 -0.004836959 -0.07472969 -0.10498021 -0.00084779004 0.0030871835
-0.0040122354 0.03320738 0.042370535 -0.007996105 0.017187882 0.01380858 -0.015373136 -0.073902525
0.024626283 0.009914933 0.027410334 0.0054068468 0.023199499 0.01245079 0.032421518 -0.056370154
-0.051905468 -0.019882374 -0.0205043 0.032729805 0.030735768 -0.01237551 0.006823081 -0.057975397
0.023562033 0.008631872 0.0245577 0.014278874 -0.017467897 0.0016816164 -0.044287927 0.0930091
0.016714416 -0.08275731 0.09349136 -0.052762683 -0.023336152 -0.018957118 -0.0005897685 0.015663605
0.01331475 -0.018172 0.040688157 -0.06608797 -0.0015573599 -0.0679763 0.028632795 0.041827828
0.019430606 -0.11980769 0.050262753 0.010688817 -0.011846366 -0.025092367 0.021275224 0.025079643
0.007971717 -0.1183664 -0.010005505 0.01597024 0.0064548217 0.08140058 -0.0075593158 0.018332455
0.02087758 -0.08901102 -0.03221431 0.006060603 0.06330672 0.009777212 -0.10160582 -0.15623556
0.005642015 -0.062230717 -0.024437683 0.04425558 0.027553875 -0.00039300218 0.033385158 0.033483226
-0.13940348 -0.027477164 0.13131037 -0.021387048 -0.016990645 -0.024644384 -0.007693993 0.07270723
-0.11744342 -0.0009959337 0.018877367 -0.084746905 -0.13102508 0.0021137875 -0.017491177 0.043418232
-0.09854231 -0.06077871 0.2591832 0.031977866 0.025905667 -0.048402905 -0.064774096 -0.04146332
-0.03868841 -0.13513322 -0.049133837 -0.024319354 0.0063549606 0.111032784 -0.05634734 -0.0043176166
0.053275313 0.030473152 -0.03939604 -0.009325357 0.009670875 -0.08798618 -0.00085225434 -0.05173494
0.0002606847 0.01780623 -0.088666156 0.2678336 -0.0855528 0.10563326 -0.019124841 0.0123466365
-0.043101963 -0.023924042 0.065155685 -0.08981737 -0.060314685 -0.02709236 -0.032302532 -0.014920629
0.04540779 0.008484465 0.043452986 0.049904253 0.0010356591 0.021187203 -0.057462484 -0.07248054
-0.04913931 -0.12367033 -0.07518761 0.04126111 0.07104607 0.008244972 -0.03414212 -0.15275519
-0.049640004 -0.00581808 -0.021536024 0.015917733 -0.053063586 0.23973891 0.08074452 0.03519806
0.016556751 0.015837207 0.10414959 -0.057950296 -0.023008093 -0.10300681 0.0051828977 0.01053943
-0.011898978 0.04239886 0.044217143 0.15427306 -0.02756955 -0.1115661 0.017282773 -0.00916105
-0.086920254 -0.11990925 0.17386168 -0.098345965 -0.042666588 -0.047538612 0.010708846 -0.0008900934
-0.018532215 0.018680444 -0.05497128 -0.00356641 -0.022877485 0.014256409 -0.04848938 -0.04211063
-0.0053583663 -0.07930338 -0.13526763 0.004646637 0.006718455 -0.15898356 0.006252045 -0.045030594
0.0067966785 0.0463174 -0.0033911727 -0.070525356 0.0036855894 -0.0028285848 0.018891014 0.09331134
00000000: 14af 56bc 9e2e 08bd 64a6 adbd 3018 7bbc
00000010: 8095 4c3d 5eb0 813c d994 a2bc 935e c1bc
00000020: 8ab1 e93c f888 d0bd e360 d33c 399a d9bd
00000030: d7de cabb 648a 173d 5b98 273c 4fcc 7d3c
00000040: f726 f6bc ec0a e7bd 46eb dcbc 47a1 003e
00000050: c864 053d e543 0b3d 068d c2bc 84e8 bdbd
00000060: 38a4 023d 7d5c cbbc d16c d83b 0e80 883b
00000070: ad1a f5bd 658e 70bd b663 ffbd b615 af3d
00000080: 184f 6f3d 3663 613d 860c aabc ac28 a1bc
00000090: 7584 003d 80c2 94bd b772 183d deda 25bc
000000a0: ea0c 723d 7598 9dbd 4d5f fdbc 5a7f 9ebb
000000b0: e10b 99bd ddff d6bd 3a3e 5eba 5852 4a3b
000000c0: 1279 83bb 7604 083d ba8c 2d3d 1802 03bc
000000d0: 9acd 8c3c 623d 623c 9bdf 7bbc 355a 97bd
000000e0: 0fbd c93c 3e72 223c a38b e03c eb2b b13b
000000f0: e00c be3c 66fe 4b3c 6dcc 043d 64e4 66bd
00000100: d49a 54bd 5ce0 a2bc a2f8 a7bc b00f 063d
00000110: 94c9 fb3c a7c2 4abc 2794 df3b 9c77 6dbd
00000120: 2a05 c13c b26c 0d3c 3b2d c93c f0f1 693c
00000130: d618 8fbc af69 dc3a 4267 35bd 8e7b be3d
00000140: acec 883c aa7c a9bd 6678 bf3d af1d 58bd
00000150: 752b bfbc f54b 9bbc b29a 1aba f650 803c
00000160: 1c26 5a3c 72dd 94bc a0a8 263d 2159 87bd
00000170: 5420 ccba 2937 8bbd 538f ea3c a853 2b3d
00000180: ef2c 9f3c bc5d f5bd 51e0 4d3d 2620 2f3c
00000190: 4317 42bc 828e cdbc 6149 ae3c d373 cd3c
000001a0: ce9b 023c 156a f2bd 21ee 23bc 05d4 823c
000001b0: f882 d33b 59b5 a63d 23b4 f7bb f22d 963c
000001c0: 7507 ab3c 694b b6bd 27f3 03bd 0698 c63b
000001d0: f4a6 813d 9930 203c b616 d0bd 37fc 1fbe
000001e0: a7e0 b83b a3e5 7ebd 8931 c8bc 5745 353d
000001f0: aab8 e13c dc0b ceb9 e0be 083d b525 093d
00000200: c9bf 0ebe ca17 e1bc 3a76 063e e433 afbc
00000210: f72f 8bbc 05e3 c9bc e41d fcbb 87e7 943d
00000220: 2d86 f0bd fd89 82ba b5a4 9a3c c98f adbd
00000230: 702b 06be 7887 0a3b a849 8fbc 51d7 313d
00000240: 8dd0 c9bd 19f3 78bd a9b3 843e 39fb 023d
00000250: 1f38 d43c 2042 46bd 48a8 84bd 71d5 29bd
00000260: bd77 1ebd 5d60 0abe 9040 49bd 6239 c7bc
00000270: 463d d03b 2865 e33d 78cc 66bd cb7a 8dbb
00000280: 3737 5a3d d5a2 f93c be5d 21bd 62c9 18bc
00000290: 9772 1e3c 1932 b4bd d269 5fba 04e8 53bd
000002a0: 82ac 8839 5fde 913c 9a96 b5bd 7c21 893e
000002b0: 4e36 afbd 4056 d83d b3ab 9cbc 8c49 4a3c
000002c0: af8b 30bd 5afc c3bc 5870 853d 2bf2 b7bd
000002d0: 880c 77bd ccf0 ddbc a94f 04bd a775 74bc
000002e0: 85fd 393d 6d02 0b3c c2fb 313d 6768 4c3d
000002f0: f4be 873a c990 ad3c c85d 6bbd ad70 94bd
00000300: 4d46 49bd df46 fdbd f6fb 99bd 6901 293d
00000310: 9a80 913d eb15 073c 9cd8 0bbd db6b 1cbe
00000320: 5153 4bbd 98a5 bebb 516c b0bc e865 823c
00000330: 3459 59bd 1e7e 753e 625d a53d d72b 103d
00000340: 06a2 873c 08bd 813c 614c d53d 4a5d 6dbd
00000350: 787b bcbc 3cf5 d2bd 4cd5 a93b 93ad 2c3c
00000360: eef3 42bc 6daa 2d3d 091d 353d c2f9 1d3e
00000370: 89d9 e1bc c47c e4bd 9a94 8d3c 3b18 16bc
00000380: 3f03 b2bd fb92 f5bd cc08 323e 9c69 c9bd
00000390: 29c3 2ebd d9b7 42bd 2874 2f3c 2855 69ba
000003a0: dfd0 97bc bb07 993c 9129 61bd 6eba 69bb
000003b0: 9069 bbbc b793 693c cd9c 46bd 327c 2cbd
000003c0: 3c95 afbb cf69 a2bd 9983 0abe d142 983b
000003d0: 7c26 dc3b 96cc 22be f4dd cc3b 0072 38bd
000003e0: acb6 de3b 50b7 3d3d 703e 5ebb 996f 90bd
000003f0: ee89 713b c75f 39bb 54c1 9a3c 041a bf3d

action_model._continuous_distribution.mu.bias f4 [3]
0.23134272 0.27155396 0.1049479
00000000: 1be5 6c3e 1f09 8b3e edee d63d

exp_avg f4 [128, 22]
-1.0491304e-05 -0.00020408731 -1.2093296e-05 -0.00016113452 -1.41369455e-05 -0.00018016329 -1.6221842e-05 -0.00010615897
-1.8594636e-05 -0.00018917087 -2.032111e-05 -0.00032136327 -2.0909338e-05 -0.00033186135 -2.0729418e-05 -0.00037386603
-2.0292762e-05 -0.0005419589 -1.9789915e-05 -0.0007482273 -1.8995774e-05 -0.0006406901 0.00012799245 7.2898692e-06
0.00014753656 -0.00025383552 0.00017246879 -0.0003764716 0.00019790417 -0.00103858 0.00022685208 -0.0011949219
0.00024791498 -0.0016265798 0.00025509106 -0.0022844814 0.00025289622 -0.002390295 0.00024756882 0.00103525
0.00024143438 0.0013653749 0.00023174578 0.0015364164 -5.435799e-05 0.00011399337 -6.265831e-05 0.0001480599
-7.3246956e-05 0.00025128096 -8.404929e-05 0.0003743784 -9.634335e-05 0.0006435518 -0.0001052887 0.0010442383
-0.00010833635 0.0014941872 -0.00010740421 0.0016798538 -0.00010514169 -0.0003615981 -0.00010253639 -0.0002707865
-9.842172e-05 -0.0003217642 1.0838208e-05 -0.00019404748 1.24931685e-05 -0.00019522294 1.4604394e-05 -0.00022621092
1.675823e-05 -0.00027607704 1.9209481e-05 -0.00036036666 2.0993062e-05 -0.0005304466 2.1600712e-05 -0.00064066524
2.1414877e-05 -0.0006257944 2.0963747e-05 -0.00021246565 2.0444288e-05 -0.00025276787 1.9623885e-05 -0.0001595298
-9.21405e-05 -1.3565907e-05 -0.000106210115 0.00014836085 -0.00012415857 0.00023897077 -0.0001424693 0.00065682665
-0.00016330858 0.00083584816 -0.0001784715 0.0012987697 -0.00018363753 0.0017320352 -0.00018205753 0.0016980555
-0.00017822236 -0.00021406515 -0.00017380624 -0.0003228185 -0.00016683155 -0.0006815048 -3.5902834e-05 3.9324106e-05
-4.1385094e-05 0.00013323507 -4.8378748e-05 0.00015261055 -5.5513567e-05 0.00037722886 -6.3633684e-05 0.00037408873
-6.954196e-05 0.0005121707 -7.1554896e-05 0.0006306204 -7.093929e-05 0.00052834325 -6.944487e-05 -6.1492065e-05
-6.7724104e-05 -0.00021953647 -6.500641e-05 -0.00037342508 0.0001162235 0.00015355303 0.00013397046 -0.00010110726
0.00015661014 -0.00021365582 0.00017970674 -0.00071362354 0.00020599287 -0.00095861364 0.0002251191 -0.0013668614
0.00023163522 -0.0019499357 0.00022964226 -0.0020566443 0.00022480465 0.0009594982 0.00021923432 0.0012312314
0.00021043664 0.0014865154 3.713361e-05 7.960062e-05 4.280382e-05 2.6243957e-05 5.0037226e-05 1.2413511e-05
5.7416655e-05 -0.00017200685 6.58151e-05 -0.0001900386 7.1925926e-05 -0.00030442936 7.400789e-05 -0.0004255893
7.3371135e-05 -0.000375986 7.18255e-05 0.00031839425 7.004577e-05 0.00042150894 6.72349e-05 0.0005108756
1.115315e-05 -0.00048010435 1.2856213e-05 -0.00044545444 1.5028757e-05 -0.0004911254 1.7245202e-05 -0.00052853074
1.9767675e-05 -0.0005080377 2.1603088e-05 -0.00058259955 2.2228414e-05 -0.00084634614 2.2037148e-05 -0.0010847364
2.1572932e-05 -8.7045526e-05 2.1038359e-05 -0.00018327558 2.0194093e-05 -0.00044661298 7.096221e-05 6.114696e-05
8.179797e-05 -9.987602e-05 9.562096e-05 -0.00015974797 0.00010972303 -0.0005561152 0.0001257725 -0.0005811624
0.00013745019 -0.0007390719 0.00014142881 -0.0011202112 0.00014021197 -0.0012498453 0.00013725832 0.00082029554
0.00013385722 0.0010704696 0.00012848567 0.0010477293 -2.4926387e-05 -0.00025991857 -2.8732584e-05 -0.0002036384
-3.3588098e-05 -0.00019127749 -3.8541613e-05 -9.19546e-05 -4.4179185e-05 1.1001106e-05 -4.8281145e-05 0.0001731679
-4.96787e-05 0.00023021578 -4.9251263e-05 0.00018603679 -4.8213748e-05 -0.00014139782 -4.701906e-05 -0.00014580882
-4.5132245e-05 -0.00035873606 8.7416345e-05 0.00029660753 0.00010076458 8.9811394e-05 0.00011779281 1.38624455e-05
0.0001351647 -0.00032146028 0.00015493554 -0.0003097691 0.0001693211 -0.00042438775 0.0001742222 -0.0008441454
00000000: cf03 30b7 4500 56b9 50e4 4ab7 38f6 28b9
00000010: b82d 6db7 37ea 3cb9 2414 88b7 aaa1 deb8
00000020: adfb 9bb7 2b5c 46b9 4077 aab7 a67c a8b9
00000030: 7666 afb7 adfd adb9 16e4 adb7 7303 c4b9
00000040: 603a aab7 3f12 0eba 8502 a6b7 af24 44ba
00000050: 1d59 9fb7 fcf3 27ba b635 0639 809b f436
00000060: 0bb4 1a39 3a15 85b9 bdd8 3439 2a61 c5b9
00000070: 7f84 4f39 f620 88ba 24df 6d39 ed9e 9cba
00000080: 96fa 8139 f632 d5ba bebd 8539 3db7 15bb
00000090: 2897 8439 7fa6 1cbb 20cc 8139 3ab1 873a
000000a0: 8c29 7d39 61f6 b23a c900 7339 9461 c93a
000000b0: 73fe 63b8 b90f ef38 6d67 83b8 8740 1b39
000000c0: 299c 99b8 5cbe 8339 9e43 b0b8 3848 c439
000000d0: f10b cab8 08b4 283a 71ce dcb8 d3de 883a
000000e0: a332 e3b8 9ad8 c33a 323e e1b8 8a2e dc3a
000000f0: 847f dcb8 e094 bdb9 ce08 d7b8 59f8 8db9
00000100: c267 ceb8 76b2 a8b9 c0d5 3537 3979 4bb9
00000110: c099 5137 c2b4 4cb9 6505 7537 0833 6db9
00000120: 0694 8c37 6fbe 90b9 0c24 a137 98ef bcb9
00000130: 421a b037 ab0d 0bba 2d33 b537 51f2 27ba
00000140: 19a4 b337 5a0c 24ba 4edb af37 50c9 5eb9
00000150: c67f ab37 ee85 84b9 f99d a437 7447 27b9
00000160: 8e3b c1b8 2099 63b7 1fbd deb8 5091 1b39
00000170: 9030 02b9 3a94 7a39 d063 15b9 e42e 2c3a
00000180: d03d 2bb9 d21c 5b3a 1424 3bb9 7b3b aa3a
00000190: d38e 40b9 7505 e33a b2e6 3eb9 4a91 de3a
000001a0: 33e1 3ab9 ad76 60b9 c23f 36b9 f73f a9b9
000001b0: 81ef 2eb9 03a7 32ba 6096 16b8 f0ef 2438
000001c0: e894 2db8 04b5 0b39 49ea 4ab8 1506 2039
000001d0: 3dd7 68b8 cdc6 c539 1373 85b8 5721 c439
000001e0: 0ed7 91b8 3243 063a be0f 96b8 3850 253a
000001f0: 3ec5 94b8 8480 0a3a eea2 91b8 4df5 80b8
00000200: 1a07 8eb8 5f33 66b9 0d54 88b8 44c8 c3b9
00000210: 04bd f338 1403 2139 6c7a 0c39 8c09 d4b8
00000220: b737 2439 cc08 60b9 a96f 3c39 7712 3bba
00000230: caff 5739 794b 7bba f30d 6c39 4228 b3ba
00000240: 1be3 7239 fc94 ffba 20cc 7039 c4c8 06bb
00000250: 8ab9 6b39 d686 7b3a 44e2 6539 4561 a13a
00000260: a8a8 5c39 2ed7 c23a e9bf 1b38 42ef a638
00000270: 4088 3338 7826 dc37 10df 5138 a043 5037
00000280: aad2 7038 bd5c 34b9 3606 8a38 1945 47b9
00000290: f0d6 9638 d19b 9fb9 af34 9b38 a121 dfb9
000002a0: d4de 9938 fd1f c5b9 06a1 9638 27ee a639
000002b0: 89e5 9238 f9fd dc39 7600 8d38 48ec 053a
000002c0: 6a1e 3b37 84b6 fbb9 04b1 5737 e28b e9b9
000002d0: 0524 7c37 debe 00ba caa9 9037 198d 0aba
000002e0: c2d2 a537 d52d 05ba 4738 b537 98b9 18ba
000002f0: 2877 ba37 54dd 5dba 6adc b837 b72d 8eba
00000300: 85f7 b437 368c b6b8 887b b037 aa2d 40b9
00000310: 7c66 a937 6127 eab9 8cd1 9438 063c 8038
00000320: f38a ab38 8874 d1b8 1d88 c838 0582 27b9
00000330: 1a1b e638 42c8 11ba cce1 0339 2659 18ba
00000340: 8120 1039 47be 41ba 824c 1439 0dd4 92ba
00000350: dd05 1339 d9d1 a3ba 00ed 0f39 1a09 573a
00000360: 065c 0c39 004f 8c3a 1cba 0639 f653 893a
00000370: 0219 d1b7 ae45 88b9 c106 f1b7 c487 55b9
00000380: f2e0 0cb8 a991 48b9 bea7 21b8 c0d7 c0b8
00000390: 0a4d 39b8 6491 3837 7c81 4ab8 6794 3539
000003a0: 195e 50b8 1466 7139 2493 4eb8 df12 4339
000003b0: 1e39 4ab8 3044 14b9 5536 45b8 42e4 18b9
000003c0: 614c 3db8 bd14 bcb9 4b53 b738 fd81 9b39
000003d0: 9251 d338 2059 bc38 8907 f738 c092 6837
000003e0: ffba 0d39 ab89 a8b9 3176 2239 8168 a2b9
000003f0: c98b 3139 5c80 deb9 6aaf 3639 a449 5dba

exp_avg_sq f4 [128, 22]
4.0883847e-08 3.8735725e-06 3.3958642e-08 3.7493392e-06 3.5837402e-08 3.580494e-06 6.001859e-08 3.4235784e-06
7.5598834e-08 3.2944608e-06 9.341985e-08 3.1751874e-06 9.091946e-08 3.0872416e-06 8.847292e-08 2.9952225e-06
7.275699e-08 3.1653547e-06 7.7656914e-08 3.1829984e-06 6.794309e-07 3.389292e-06 1.3227132e-07 1.6874214e-05
1.5702174e-07 1.5742478e-05 1.8011214e-07 1.4691601e-05 2.4112603e-07 1.3500158e-05 3.1902422e-07 1.2692093e-05
3.8166897e-07 1.2404458e-05 4.0231993e-07 1.2860115e-05 3.9958127e-07 1.3122224e-05 3.8154352e-07 1.2435802e-05
3.6621913e-07 1.2402388e-05 3.881084e-07 1.2660426e-05 1.4895382e-07 6.3190055e-06 7.027123e-08 5.8182104e-06
6.855433e-08 5.325497e-06 1.0602003e-07 4.8168063e-06 1.3502554e-07 4.4234116e-06 1.6239252e-07 4.3324e-06
1.7448313e-07 4.656999e-06 1.7368833e-07 5.1701863e-06 1.517283e-07 5.5641012e-06 1.5136334e-07 5.6608274e-06
5.3382854e-07 6.091045e-06 8.956685e-09 1.8993974e-06 1.2453244e-08 1.8482784e-06 1.6274647e-08 1.7669887e-06
2.0953273e-08 1.7042116e-06 2.5447578e-08 1.6549667e-06 2.9944715e-08 1.6338535e-06 3.1688433e-08 1.62286e-06
3.1147277e-08 1.6093553e-06 3.016677e-08 1.5850705e-06 2.833469e-08 1.6300949e-06 2.61224e-08 1.6980034e-06
6.517818e-08 6.840438e-06 8.7441606e-08 6.220963e-06 9.493888e-08 5.541432e-06 2.2021597e-07 4.9399746e-06
2.4899668e-07 4.548893e-06 1.6476716e-07 4.460609e-06 1.7206362e-07 4.8579795e-06 1.6901231e-07 5.290403e-06
1.6198561e-07 5.313774e-06 1.5398564e-07 5.7154016e-06 1.4645339e-07 6.193462e-06 4.7117503e-08 2.423778e-06
2.3287361e-08 2.184035e-06 3.1805627e-08 1.9384386e-06 4.2335152e-08 1.6745249e-06 5.546814e-08 1.4467615e-06
6.556034e-08 1.3518803e-06 6.94048e-08 1.3645835e-06 6.8405186e-08 1.5253581e-06 6.563581e-08 1.94206e-06
6.242504e-08 2.0950029e-06 5.7546167e-08 2.399089e-06 2.0494714e-07 2.5517435e-05 1.9740867e-07 2.4672123e-05
2.312426e-07 2.386162e-05 3.711166e-07 2.3310724e-05 4.6724963e-07 2.3333563e-05 4.843929e-07 2.3559525e-05
5.119889e-07 2.359549e-05 5.071515e-07 2.368358e-05 5.0194626e-07 2.3375202e-05 4.5920848e-07 2.3329725e-05
8.385269e-07 2.31113e-05 3.752304e-08 3.004524e-06 2.2082165e-08 2.8667414e-06 2.9584546e-08 2.681503e-06
3.8629665e-08 2.4867672e-06 5.0801717e-08 2.3395264e-06 6.339796e-08 2.2521458e-06 6.608391e-08 2.2169522e-06
6.4931974e-08 2.1867233e-06 5.905652e-08 2.1479232e-06 5.6190444e-08 2.2149889e-06 5.1565074e-08 2.3576129e-06
6.2500334e-08 1.5368554e-05 8.294523e-08 1.4982255e-05 1.12803185e-07 1.4372248e-05 1.4918669e-07 1.3943508e-05
2.0019276e-07 1.3576732e-05 2.4465479e-07 1.3590721e-05 2.5106795e-07 1.348688e-05 2.4729556e-07 1.3490633e-05
2.3332278e-07 1.3558959e-05 2.2265135e-07 1.3505925e-05 4.5420964e-07 1.32965815e-05 1.5113514e-07 1.128958e-05
1.02524154e-07 1.0816808e-05 1.04220206e-07 1.0319946e-05 1.6080978e-07 9.774158e-06 2.0715089e-07 9.467061e-06
2.1040073e-07 9.318104e-06 2.1684176e-07 9.330386e-06 2.1094176e-07 9.26667e-06 1.974928e-07 9.006098e-06
1.8789275e-07 8.913933e-06 1.7595724e-07 8.947551e-06 6.3941e-08 6.104548e-06 3.507125e-08 6.067006e-06
4.02784e-08 5.961799e-06 5.888178e-08 5.8984647e-06 7.2002855e-08 5.8696082e-06 7.7345874e-08 5.893618e-06
8.7236494e-08 5.819306e-06 1.1828654e-07 5.794132e-06 1.1466616e-07 5.775053e-06 1.2162546e-07 5.6999334e-06
4.9627846e-07 5.4742172e-06 4.2225295e-08 4.4724857e-06 5.6065783e-08 3.7669622e-06 7.6461504e-08 3.1594363e-06
1.0475397e-07 2.791734e-06 1.3712241e-07 2.5657e-06 1.6600849e-07 2.6953737e-06 1.7808397e-07 3.2321127e-06
00000000: 4498 2f33 bcf9 8136 ecd9 1133 289d 7b36
00000010: a4eb 1933 6b48 7036 92e3 8033 a1c0 6536
00000020: e658 a233 6816 5d36 1b9e c833 4e15 5536
00000030: 803f c333 682e 4f36 81fe bd33 8801 4936
00000040: 943e 9c33 616c 5436 57c4 a633 7f9b 5536
00000050: 2362 3635 9873 6336 7706 0e34 198d 8d37
00000060: cf99 2834 b70e 8437 d964 4134 f27b 7637
00000070: 1c74 8134 bd7e 6237 5b46 ab34 20f0 5437
00000080: 2fe8 cc34 be1c 5037 6efe d734 c6c1 5737
00000090: 0886 d634 8627 5c37 f1d6 cc34 5da3 5037
000000a0: c69c c434 da13 5037 365d d034 1e68 5437
000000b0: 1df0 1f34 d807 d436 04e8 9633 0c3a c336
000000c0: 2438 9333 acb1 b236 21ad e333 0da0 a136
000000d0: 8afb 1034 d16c 9436 1e5e 2e34 085f 9136
000000e0: 8f59 3b34 5143 9c36 167f 3a34 907b ad36
000000f0: c2ea 2234 44b3 ba36 7086 2234 23f2 bd36
00000100: 6b4c 0f35 ae61 cc36 ebdf 1932 ccee fe35
00000110: f2f1 5532 5d12 f835 54cc 8b32 4529 ed35
00000120: bcfc b332 44bc e435 d197 da32 3920 de35
00000130: 909c 0033 c74a db35 cd19 0833 0cd1 d935
00000140: cbc6 0533 0701 d835 b790 0133 9cbe d435
00000150: a464 f332 a2c9 da35 c463 e032 f4e6 e335
00000160: 15f8 8b33 ea86 e536 88c7 bb33 aabd d036
00000170: 34e1 cb33 8af0 b936 8174 6c34 0fc2 a536
00000180: d8ad 8534 b1a2 9836 daea 3034 57ac 9536
00000190: 7dc0 3834 ba01 a336 c079 3534 3784 b136
000001a0: 44ee 2d34 f94c b236 4057 2534 edc6 bf36
000001b0: cd40 1d34 6fd1 cf36 3e5e 4a33 30a8 2236
000001c0: 7309 c832 7091 1236 a89a 0833 1f16 0236
000001d0: fed3 3533 3dc0 e035 dd3b 6e33 592e c235
000001e0: 2eca 8c33 4172 b535 b10b 9533 bb26 b735
000001f0: 26e6 9233 e8ba cc35 abf3 8c33 5654 0236
00000200: 870e 8633 e097 0c36 ae28 7733 0900 2136
00000210: 710f 5c34 460e d637 48f7 5334 fbf6 ce37
00000220: 7b4b 7834 702a c837 e13d c734 668b c337
00000230: 4dda fa34 72bc c337 3a07 0235 b2a1 c537
00000240: 9c6f 0935 eeee c537 3023 0835 1aac c637
00000250: 7cbd 0635 dd15 c437 2289 f634 34b4 c337
00000260: 2117 6135 24df c137 0529 2133 54a1 4936
00000270: 32af bd32 3e62 4036 1b21 fe32 dff3 3336
00000280: c4e9 2533 56e2 2636 1431 5a33 c200 1d36
00000290: 6625 8833 9223 1736 04ea 8d33 f3c6 1436
000002a0: bb70 8b33 9fbf 1236 55a5 7d33 0a25 1036
000002b0: 0c56 7133 38a5 1436 6678 5d33 7b37 1e36
000002c0: ec37 8633 b8eb 8037 9f1f b233 4c5c 7b37
000002d0: 353e f233 5620 7137 2030 2034 e9ee 6937
000002e0: 91f4 5634 9fc7 6337 1959 8334 b403 6437
000002f0: 84ca 8634 b545 6237 0bc4 8434 d455 6237
00000300: 4787 7a34 497b 6337 f011 6f34 8297 6237
00000310: 19da f334 6214 5f37 b647 2234 6068 3d37
00000320: 402b dc33 d679 3537 aacf df33 d523 2d37
00000330: 0eab 2c34 b0fb 2337 346d 5e34 b8d4 1e37
00000340: 83ea 6134 f454 1c37 02d5 6834 b489 1c37
00000350: 3b7f 6234 0b78 1b37 680e 5434 e518 1737
00000360: 91bf 4934 0d8d 1537 c2ee 3c34 701d 1637
00000370: f04f 8933 abd5 cc36 3fa1 1633 2f93 cb36
00000380: 92fe 2c33 770b c836 34e5 7c33 6deb c536
00000390: fd9f 9a33 8df3 c436 5819 a633 cbc1 c536
000003a0: c556 bb33 7543 c336 b704 fe33 376b c236
000003b0: 633e f633 54c7 c136 2798 0234 0e42 bf36
000003c0: ff37 0535 2baf b736 345b 3533 5c12 9636
000003d0: fbcc 7033 ebcb 7c36 2833 a433 b406 5436
000003e0: 1bf5 e033 a059 3b36 ec3b 1334 642e 2c36
000003f0: 1140 3234 2be2 3436 5937 3f34 46e7 5836

exp_avg f4 [128]
0.00044749206 -0.0054593435 0.002318566 -0.00046228874 0.003930128 0.0015313858 -0.0049573528 -0.0015838832
-0.0004757218 -0.0030267963 0.0010632011 -0.0037286258 0.0008289795 0.0027153029 0.0001572081 -0.001061705
-0.0009325321 -0.0064937854 -0.0044887015 -0.004907204 0.002266888 0.0021007285 -0.00027184223 0.0017520492
-0.0003197217 -0.0033798465 0.0027533623 -0.00255191 0.0005895349 -0.001771278 -0.0037413845 -0.0014293975
-0.0018628056 -0.00033006337 -0.0002077572 -0.006858946 2.2297696e-05 0.0006702299 -0.0012012147 -0.0039904285
-0.0025353967 -0.0018162823 0.00093758095 -0.0007856118 -0.00307259 0.0017334457 -0.0016833481 -0.0012004218
-0.0019006745 0.003012491 0.0033065758 -0.000982988 0.00022291599 -0.000982066 0.0022292724 -0.0003987031
-0.004341328 -0.0048799315 -0.0023784703 -0.0011079276 -0.0002267698 -0.0037543937 0.00048947224 -0.0012844696
-0.00043261822 -0.00078932743 -0.0058142524 -0.0020718493 -0.003190651 0.00081007555 -0.0057552643 -0.004624342
-2.7259452e-05 0.0010537731 -0.0018636474 -0.0017804136 0.0017561299 0.0015920278 0.0009248802 -0.00074694166
-0.0005037709 -0.00863656 -0.004247127 -0.00023958393 -0.0009184266 0.00045546782 -8.162086e-06 0.0009872218
-0.0023667915 -0.0023704628 -0.0034071757 0.0013866236 0.0008324307 0.002965934 -0.0017187081 -0.00040845765
0.00031721615 0.0009068325 -0.0002377164 -0.002473339 -0.0011322814 -0.0008144564 -0.0005205951 0.0014030592
-0.0038676867 -0.0013589043 -0.0007794812 -0.0032840967 -0.0028113748 -0.0016619922 0.0010090439 0.0011038821
-0.0018684433 0.0004458082 0.00032258785 -0.0017686591 0.0030196884 -0.0015234709 -0.00056015607 -0.0009092258
0.002000094 -0.002958369 0.0028884849 0.00024565903 -0.006121514 0.0019695922 -0.0044833124 -0.001293783
00000000: 5e9d ea39 4be4 b2bb 15f3 173b 585f f2b9
00000010: 4ec8 803b c8b8 c83a 4a71 a2bb 4d9a cfba
00000020: 4d6a f9b9 375d 46bb 1c5b 8b3a f65b 74bb
00000030: df4f 593a 39f3 313b 3ad8 2439 e928 8bba
00000040: 2b75 74ba d2c9 d4bb f515 93bb 9ccc a0bb
00000050: 1290 143b 60ac 093b 0c86 8eb9 04a5 e53a
00000060: 52a0 a7b9 6a80 5dbb c171 343b f23d 27bb
00000070: 048b 1a3a 3a2a e8ba 0432 75bb 9f5a bbba
00000080: 6229 f4ba 5b0c adb9 66d9 59b9 02c1 e0bb
00000090: f00b bb37 5eb2 2f3a 1472 9dba 24c2 82bb
000000a0: e628 26bb 5210 eeba fec7 753a 84f1 4dba
000000b0: 825d 49bb c934 e33a caa3 dcba 7957 9dba
000000c0: 0e20 f9ba 366d 453b 23b3 583b 9bd7 80ba
000000d0: 8ebe 6939 abb8 80ba fc18 123b 0609 d1b9
000000e0: b341 8ebb d5e7 9fbb 1ce0 1bbb e237 91ba
000000f0: 0ec9 6db9 460c 76bb ed4f 003a a65b a8ba
00000100: 09d1 e2b9 deea 4eba 7c85 bebb ddc7 07bb
00000110: 3e1a 51bb 405b 543a a896 bcbb cb87 97bb
00000120: 3aab e4b7 c21e 8a3a a145 f4ba c45c e9ba
00000130: f12d e63a 97ab d03a a973 723a 68ce 43ba
00000140: 7e0f 04ba 5c80 0dbc 7c2b 8bbb d238 7bb9
00000150: 91c2 70ba dbcb ee39 e4ef 08b7 ab65 813a
00000160: 2c1c 1bbb c459 1bbb ec4a 5fbb 5ebf b53a
00000170: 7b37 5a3a 1e60 423b 4646 e1ba 4226 d6b9
00000180: 0850 a639 80b8 6d3a 8343 79b9 be17 22bb
00000190: 0f69 94ba 3e81 55ba 8c78 08ba dbe6 b73a
000001a0: 0479 7dbb 431d b2ba 1956 4cba 003a 57bb
000001b0: 0b3f 38bb 34d7 d9ba e541 843a 23b0 903a
000001c0: 8ee6 f4ba 5dbb e939 0221 a939 5ad2 e7ba
000001d0: f7e5 453b 33af c7ba 70d7 12ba 1c59 6eba
000001e0: 0214 033b 32e1 41bb bc4c 3d3b cccb 8039
000001f0: fb96 c8bb 4614 013b c0e8 92bb 2794 a9ba

exp_avg_sq f4 [128]
3.3633583e-05 0.00017574601 6.336301e-05 1.4410473e-05 7.8416124e-05 3.1713418e-05 0.00022500017 2.8374405e-05
0.000112492446 9.483068e-05 3.141019e-05 7.633482e-05 0.000114898256 4.106639e-05 1.431797e-05 2.2816192e-05
1.767716e-05 0.00042928316 0.0004232178 0.00010867761 2.2418943e-05 0.00024353538 0.00018891363 5.945654e-05
3.773624e-05 0.00014216371 2.8858816e-05 0.00015454419 3.0718395e-05 5.735437e-05 4.3698947e-05 7.6584e-06
3.8930106e-05 1.0203925e-05 3.61672e-05 9.4460425e-05 9.496629e-06 3.2757147e-05 2.1554264e-05 0.00023797665
5.8184247e-05 7.314347e-05 3.659137e-05 1.4841751e-05 0.00012786416 3.588748e-05 2.5676618e-05 3.4488842e-06
9.033934e-05 3.630209e-05 4.603398e-05 4.5038403e-05 2.322413e-05 2.4505065e-05 1.4915949e-05 2.0633142e-05
0.00027598676 0.00026851275 9.7467615e-05 4.0004143e-06 3.0116293e-05 0.000257762 3.3957764e-05 3.165627e-05
4.5899264e-06 2.7525223e-06 0.00024773067 2.7985403e-05 5.4072032e-05 4.3878015e-05 0.000104643186 0.00017752178
1.7883893e-05 4.661416e-05 3.8590744e-05 7.352473e-05 4.6313202e-05 6.6976204e-06 7.925088e-05 9.614662e-06
1.8648765e-05 0.0004856405 9.120352e-05 6.525277e-06 1.2798282e-05 4.962423e-06 7.764656e-06 1.5382175e-05
3.850812e-05 4.815774e-05 5.8825663e-05 4.6344838e-05 7.391544e-06 8.0387195e-05 2.6153088e-05 1.0331066e-05
9.19622e-06 4.7227215e-05 2.0315003e-06 4.1449806e-05 6.9685484e-05 2.1376068e-06 3.7077523e-05 8.497402e-05
0.000102027305 9.889221e-06 7.415024e-05 6.6048786e-05 5.5975943e-05 1.9758416e-05 8.348382e-06 0.0002566888
3.1156666e-05 2.1946522e-05 2.165097e-06 1.7346283e-05 4.1978794e-05 1.5224626e-05 4.087302e-05 2.306621e-06
1.0985122e-05 0.00015612121 8.517263e-05 2.6564194e-05 0.00011413845 2.0263338e-05 0.00015368081 1.6239435e-05
00000000: c911 0d38 7648 3839 c2e1 8438 83c4 7137
00000010: 5673 a438 0604 0538 06ee 6b39 9205 ee37
00000020: ece9 eb38 d5df c638 6fbe 0338 f215 a038
00000030: 88f5 f038 b33e 2c38 3737 7037 6665 bf37
00000040: 6949 9437 6911 e139 55e3 dd39 d9e9 e338
00000050: 5010 bc37 885d 7f39 1e17 4639 f960 7938
00000060: fb46 1e38 c811 1539 d615 f237 240d 2239
00000070: a0d7 0038 c98f 7038 6349 3738 947c 0037
00000080: e248 2338 8631 2b37 3cb2 1738 0e19 c638
00000090: b653 1f37 b864 0938 6ecf b437 5f89 7939
000000a0: dc0a 7438 9a64 9938 af79 1938 d600 7937
000000b0: 4613 0639 e385 1638 1e64 d737 6173 6736
000000c0: 9074 bd38 1343 1838 9c14 4138 9ee7 3c38
000000d0: 70d1 c237 3a90 cd37 833f 7a37 5615 ad37
000000e0: 51b2 9039 2cc7 8c39 8767 cc38 4c3b 8636
000000f0: 3fa2 fc37 3b24 8739 df6d 0e38 a9c6 0438
00000100: 2b03 9a36 f9b7 3836 d9e1 8139 32c2 ea37
00000110: 67cb 6238 a909 3838 e273 db38 2425 3a39
00000120: 5e05 9637 9383 4338 7fdc 2138 4a31 9a38
00000130: 6c40 4238 1fbc e036 7e33 a638 a94e 2137
00000140: eb6f 9c37 919d fe39 8444 bf38 b4f3 da36
00000150: 34b8 5637 e482 a636 f244 0237 f808 8137
00000160: c783 2138 fbfc 4938 93bb 7638 6462 4238
00000170: e104 f836 8c95 a838 5463 db37 9753 2d37
00000180: 7749 1a37 d615 4638 e954 0836 64da 2d38
00000190: 1c24 9238 ce73 0f36 b083 1b38 1434 b238
000001a0: 7ef7 d538 e1e9 2537 1b81 9b38 ac83 8a38
000001b0: b6c7 6a38 e0be a537 0710 0c37 3094 8639
000001c0: 37ae 0238 cc19 b837 154c 1136 dc82 9137
000001d0: 6312 3038 456d 7f37 126f 2b38 72cb 1a36
000001e0: bd4c 3837 78b4 2339 b59e b238 2cd6 de37
000001f0: 9d5d ef38 30fb a937 6125 2139 ec39 8837
