results/49200Steps=577-578/3DBall/3DBall-23131.pt (torch, 622972 bytes, 47 tensors)

network_body.observation_encoder.processors.0.normalizer.running_mean f4 [62]
00000000: 217c 543b 38d0 2640 d8a6 513b 56d6 2640
00000010: 6851 573b b7e1 2640 b026 5a3b 20da 2640
00000020: 1d7c 543b cbe4 2640 207c 543b d4ea 2640
00000030: af26 5a3b 6bf9 2640 ae26 5a3b 0ed3 2640
00000040: 5e26 6b3b f0d8 2640 1226 7c3b 3eda 2640
00000050: 52e8 803b 55e2 2640 51e8 803b b0ea 2640
00000060: f552 823b ecf3 2640 9abd 833b 98f8 2640
00000070: 87fd 873b 87fb 2640 713d 8c3b 7ee1 2640
00000080: cdd2 8a3b e9ee 2640 e292 863b 90f5 2640
00000090: 12a8 8d3b bde4 2640 18a8 8d3b 45d5 2640
000000a0: 01e8 913b 63dd 2640 eb27 963b 47d2 2640
000000b0: db67 9a3b 1fc9 2640 243d 9d3b 54a2 2640
000000c0: 7cd2 9b3b bebf 2640 9b27 a73b eeca 2640
000000d0: fcbc a53b 9eca 2640 2fd2 ac3b a4d9 2640
000000e0: 8a67 ab3b 45e1 2640 4292 a83b 86d4 2640
000000f0: e3fc a93b 37cb 2640
0.003242262 2.6064587 0.0031990316 2.606832 0.0032854918 2.6075265 0.003328722 2.6070633
0.003242261 2.6077144 0.0032422617 2.6080828 0.0033287217 2.6089733 0.0033287215 2.6066318
0.0035881023 2.6069908 0.003847484 2.6070704 0.0039339447 2.6075642 0.0039339443 2.6080742
0.0039771744 2.6086378 0.004020405 2.608923 0.004150096 2.609102 0.0042797853 2.607513
0.004236555 2.608332 0.0041068653 2.608738 0.004323014 2.607711 0.004323017 2.606767
0.004452706 2.6072624 0.0045823953 2.6065843 0.0047120876 2.6060255 0.0047985483 2.6036577
0.0047553163 2.605453 0.005101157 2.6061358 0.005057929 2.6061168 0.0052740793 2.6070337
0.0052308487 2.6074994 0.0051443884 2.6067214 0.005187617 2.6061532

network_body.observation_encoder.processors.0.normalizer.running_variance f4 [62]
00000000: 7e83 9742 8baf 0149 c886 9542 8db0 0149
00000010: 2480 9942 e5b1 0149 c17c 9b42 3a87 0149
00000020: 8083 9742 5088 0149 8283 9742 d588 0149
00000030: c47c 9b42 d189 0149 c47c 9b42 422a 0149
00000040: 8667 a742 7829 0149 ab50 b342 9327 0149
00000050: b448 b742 bf28 0149 b848 b742 9927 0149
00000060: aa44 b942 9f29 0149 8e40 bb42 a22a 0149
00000070: 0534 c142 d228 0149 1027 c742 69f5 0049
00000080: 6b2b c542 c6f8 0049 4038 bf42 bafa 0049
00000090: a622 c942 81ca 0049 a822 c942 bf9b 0049
000000a0: 2c15 cf42 2f9c 0049 4f07 d542 8d6d 0049
000000b0: 04f9 da42 cd3f 0049 44ef de42 6ec6 ff48
000000c0: 2cf4 dc42 4a15 0049 d2cb ec42 8214 0049
000000d0: 07d1 ea42 d313 0049 8cb6 f442 d415 0049
000000e0: e9bb f242 6417 0049 91c6 ee42 79d4 ff48
000000f0: 4cc1 f042 317a ff48
75.75682 531192.7 74.763245 531208.8 76.750275 531230.3 77.74366 530547.6
75.756836 530565.0 75.75685 530573.3 77.74368 530589.06 77.74368 529060.1
83.702194 529047.5 89.657555 529017.2 91.642 529035.94 91.64203 529017.56
92.63411 529049.94 93.62608 529066.1 96.6016 529037.1 99.576294 528214.56
98.5848 528268.4 95.60986 528299.6 100.56767 527528.06 100.56769 526779.94
103.54135 526786.94 106.514275 526040.8 109.48636 525308.8 111.467316 523827.44
110.4769 524628.6 118.39809 524616.1 117.40826 524605.2 122.35654 524637.25
121.36701 524662.25 119.387825 523939.78 120.37753 523217.53

network_body.processors.0.normalizer.running_mean f4 [62]
00000000: 217c 543b 38d0 2640 d8a6 513b 56d6 2640
00000010: 6851 573b b7e1 2640 b026 5a3b 20da 2640
00000020: 1d7c 543b cbe4 2640 207c 543b d4ea 2640
00000030: af26 5a3b 6bf9 2640 ae26 5a3b 0ed3 2640
00000040: 5e26 6b3b f0d8 2640 1226 7c3b 3eda 2640
00000050: 52e8 803b 55e2 2640 51e8 803b b0ea 2640
00000060: f552 823b ecf3 2640 9abd 833b 98f8 2640
00000070: 87fd 873b 87fb 2640 713d 8c3b 7ee1 2640
00000080: cdd2 8a3b e9ee 2640 e292 863b 90f5 2640
00000090: 12a8 8d3b bde4 2640 18a8 8d3b 45d5 2640
000000a0: 01e8 913b 63dd 2640 eb27 963b 47d2 2640
000000b0: db67 9a3b 1fc9 2640 243d 9d3b 54a2 2640
000000c0: 7cd2 9b3b bebf 2640 9b27 a73b eeca 2640
000000d0: fcbc a53b 9eca 2640 2fd2 ac3b a4d9 2640
000000e0: 8a67 ab3b 45e1 2640 4292 a83b 86d4 2640
000000f0: e3fc a93b 37cb 2640
0.003242262 2.6064587 0.0031990316 2.606832 0.0032854918 2.6075265 0.003328722 2.6070633
0.003242261 2.6077144 0.0032422617 2.6080828 0.0033287217 2.6089733 0.0033287215 2.6066318
0.0035881023 2.6069908 0.003847484 2.6070704 0.0039339447 2.6075642 0.0039339443 2.6080742
0.0039771744 2.6086378 0.004020405 2.608923 0.004150096 2.609102 0.0042797853 2.607513
0.004236555 2.608332 0.0041068653 2.608738 0.004323014 2.607711 0.004323017 2.606767
0.004452706 2.6072624 0.0045823953 2.6065843 0.0047120876 2.6060255 0.0047985483 2.6036577
0.0047553163 2.605453 0.005101157 2.6061358 0.005057929 2.6061168 0.0052740793 2.6070337
0.0052308487 2.6074994 0.0051443884 2.6067214 0.005187617 2.6061532

network_body.processors.0.normalizer.running_variance f4 [62]
00000000: 7e83 9742 8baf 0149 c886 9542 8db0 0149
00000010: 2480 9942 e5b1 0149 c17c 9b42 3a87 0149
00000020: 8083 9742 5088 0149 8283 9742 d588 0149
00000030: c47c 9b42 d189 0149 c47c 9b42 422a 0149
00000040: 8667 a742 7829 0149 ab50 b342 9327 0149
00000050: b448 b742 bf28 0149 b848 b742 9927 0149
00000060: aa44 b942 9f29 0149 8e40 bb42 a22a 0149
00000070: 0534 c142 d228 0149 1027 c742 69f5 0049
00000080: 6b2b c542 c6f8 0049 4038 bf42 bafa 0049
00000090: a622 c942 81ca 0049 a822 c942 bf9b 0049
000000a0: 2c15 cf42 2f9c 0049 4f07 d542 8d6d 0049
000000b0: 04f9 da42 cd3f 0049 44ef de42 6ec6 ff48
000000c0: 2cf4 dc42 4a15 0049 d2cb ec42 8214 0049
000000d0: 07d1 ea42 d313 0049 8cb6 f442 d415 0049
000000e0: e9bb f242 6417 0049 91c6 ee42 79d4 ff48
000000f0: 4cc1 f042 317a ff48
75.75682 531192.7 74.763245 531208.8 76.750275 531230.3 77.74366 530547.6
75.756836 530565.0 75.75685 530573.3 77.74368 530589.06 77.74368 529060.1
83.702194 529047.5 89.657555 529017.2 91.642 529035.94 91.64203 529017.56
92.63411 529049.94 93.62608 529066.1 96.6016 529037.1 99.576294 528214.56
98.5848 528268.4 95.60986 528299.6 100.56767 527528.06 100.56769 526779.94
103.54135 526786.94 106.514275 526040.8 109.48636 525308.8 111.467316 523827.44
110.4769 524628.6 118.39809 524616.1 117.40826 524605.2 122.35654 524637.25
121.36701 524662.25 119.387825 523939.78 120.37753 523217.53

network_body._body_endoder.seq_layers.0.weight f4 [128, 62]
00000000: 0407 efbc 7972 4fbe f780 aabd 583b d2bd
00000010: c18e 0abe d487 92bd 5f76 bbbc 94cd 3f3e
00000020: 566b 88be 4669 bdbc 5772 033e 189e 403d
00000030: da3b 97be 079b e4bd 2c0f 81bc cb4c 8fbe
00000040: 4bfa 043d b75a 3e3e 59f8 86bb f3b5 3b3d
00000050: 920d 1dbe ec49 8bbc d9cf 3ebd 1905 36bd
00000060: 4539 e23d e4c0 8a3d 69dd 43bd f8ab 093d
00000070: 26e6 12be 01e4 34be 3a09 7f3d 855d 9abd
00000080: 2c0e f0bd 2251 d3bd ce5e adbd 75bf 543c
00000090: 0d6d 093c 8a52 e4bd 49a0 c63d bd93 ffbd
000000a0: 21b5 653e c8a5 54bd d85c 32be c4d9 8f3c
000000b0: 8cf0 cd3d 4719 5a3c 9ae9 2b3d 24ee a3be
000000c0: 8fe3 0abc da57 c13d 22b3 1d3e a665 3c3e
000000d0: ea9d d9bd 7771 6abc 506a 9cbd 8b87 4dbc
000000e0: e6a4 33bd 589f cd3d 1390 123d 26a4 f03d
000000f0: 2c90 d13d 9a0f bbbd 2c4f 59bd d983 2a3e
00000100: 529b 36be 8428 673c 232a e13d 6246 5a3e
00000110: afbb 383e 3408 81be 4893 813d f660 5bbe
00000120: 78c1 ab3c 0f32 983e 7eee c2be acd3 453e
00000130: 93f4 a8bd 2f96 75bd 33b5 bdbe dadc 39bc
00000140: 2210 113e 6cae c3bc 1b2d 9c3d 9bb2 60bc
00000150: 61df f1bd dd06 203d 52db f9bd b60a 843e
00000160: c203 91be 277d a9bd 8890 21be ec4d 84bd
00000170: f91d f63d 9428 d93c d460 2d3d eb7a a93c
00000180: bbf3 2e3e 8596 05be b5c4 25bd 4e2a 023e
00000190: 7c5f 01be f829 b1bc 7c09 fdbc 33dd e03d
000001a0: f598 06be 8ef5 d03a ccd3 36bd 5f18 6d3e
000001b0: a9b2 583e 73e4 c9bc 9fa5 1d3e 9c3b e8bd
000001c0: 0fa2 b23c 1e30 c63b e545 d3bd a644 5d3d
000001d0: 087f 223d 7a5d 96bb 30d4 a53d 9339 1f3e
000001e0: 1262 5abe 965c e83b e65c e73d 5f04 9cbd
000001f0: 791a edbc 4f5e 12be 78f3 87bd 3066 4dbd
00000200: 8671 9e3b 796b 48bd 9fd6 b93c f85e 873e
00000210: 6f19 b13d 185d 113d 625e 4fbe 9f57 a7be
00000220: c119 963c 4a2d 393d 5320 b53c c61c 9dbe
00000230: 1851 4bbd d7f5 fb3d 7849 6b3c 497a 083c
00000240: baef 013e 2bec 183c 9e96 5f3e de0b 1b3c
00000250: 9e29 043e e2b0 c13d f2a3 213e 5c0e f23d
00000260: 91ce 0dbe e126 74bc dd30 ce3d 72d4 653d
00000270: da39 e2bd b7c4 b0bd 2cab 4abd ed3c c63c
00000280: d407 aa3d 6fe1 543d 06b1 ac3c ac32 db3d
00000290: 645b 2fbe 0dca 863e 70a2 6dbd 82ab 6e3e
000002a0: d9fc a53c 9b30 fa3d 1280 37be e1b9 67bc
000002b0: 2eb1 d53d fd44 52be 8ed8 a13d bbff 88bd
000002c0: cc46 eabc df92 9bbb b79d e5bd b627 96bc
000002d0: 616a 88be 1af3 e33d d1c5 b93e baf5 af3c
000002e0: ec00 ee3b 4be3 90bd 42c9 fd3d ac66 9d3d
000002f0: d4c3 813d 3f25 0c3e 374f 893e 5540 c63e
00000300: e368 37bc 568a 9c3d b40a d3bd 365b 713e
00000310: b0c8 c03d 42c7 9f3e a857 19bb d427 d13d
00000320: 6a0a 323e dbe5 5bbd a210 cd3d 5024 a63d
00000330: 573c 2b3d 642c 86bc ba73 6b3d bf10 33bd
00000340: 6e2c aabd aa43 e6bc a6a7 1bbd 0da9 65be
00000350: 1f49 0f3c 22d4 d53d 4977 7ebd c328 47be
00000360: 41ef aebc bccc 13be 3670 f9bd 4a33 70bb
00000370: ad88 94ba 8518 bfbb 6ed5 53be d55b 01be
00000380: fb8d 563d c42d 63be fea2 58be bc50 233e
00000390: 276e 7bbc 5f27 003e 2d83 83be 17ea b33d
000003a0: 4b6c 543d 1baf ba3b 4b6a 383e 01ca 703c
000003b0: aab1 28bd f424 b8bd e2ee 213b d6c9 f53d
000003c0: d4d9 9bbc 0133 113e 2b15 e33d 0836 41be
000003d0: 37a3 073e 9a54 58bc 314d bb3d 1692 4ebc
000003e0: 5280 fdbd 350d 0a3e 3f8a 0dbd 08f1 1c3d
000003f0: 5749 81bd 0767 e13c 924c e63d 34fc 90bd
-0.02917815 -0.20258512 -0.08325379 -0.10265225 -0.13531019 -0.071548134 -0.022883592 0.18730766
-0.2664439 -0.023121487 0.12836586 0.04702577 -0.2953785 -0.111623816 -0.015754305 -0.27988276
0.03246526 0.18589292 -0.004118961 0.045827817 -0.15337208 -0.017003022 -0.046584938 -0.044438455
0.110460795 0.06775072 -0.047818575 0.033611268 -0.14345607 -0.17665102 0.06226466 -0.07537369
-0.11721453 -0.10318209 -0.08465348 0.0129851 0.008387816 -0.111485556 0.09698541 -0.12479351
0.22432376 -0.051915914 -0.1741823 0.017559893 0.10055646 0.013311691 0.041970827 -0.32017624
-0.008477106 0.094405845 0.15400365 0.18398151 -0.10625823 -0.014309279 -0.07637465 -0.012544523
-0.04385843 0.10040158 0.03578193 0.11750059 0.10232577 -0.09133835 -0.05305402 0.16651858
-0.17832687 0.014108781 0.10994365 0.21315911 0.18040346 -0.2520157 0.0632692 -0.21423706
0.020966277 0.29725692 -0.3807258 0.19319028 -0.08249774 -0.05995768 -0.37052307 -0.011344159
0.1416631 -0.023886882 0.07625791 -0.013714458 -0.11810184 0.039069045 -0.12200035 0.25789422
-0.2832318 -0.08275824 -0.1577779 -0.06460175 0.120174356 0.026508607 0.04232867 0.020688495
0.17085163 -0.130457 -0.040470798 0.1271145 -0.1263408 -0.021626458 -0.030888312 0.109796904
-0.13144286 0.0015942322 -0.04463558 0.23153828 0.21161903 -0.024645066 0.1539521 -0.113394946
0.021805791 0.0060482165 -0.10316066 0.054020546 0.039671928 -0.00458878 0.08097112 0.15549307
-0.21326473 0.007091115 0.11297016 -0.07618021 -0.028943287 -0.14293788 -0.06638235 -0.05014628
0.0048353104 -0.04893062 0.022685347 0.26439643 0.08647429 0.03548917 -0.20250848 -0.32684037
0.018322827 0.045209207 0.02211014 -0.30686015 -0.049637884 0.123027496 0.014360778 0.008329936
0.12689105 0.009333651 0.218348 0.009463279 0.129065 0.09457566 0.15785196 0.11819145
-0.1384833 -0.014901848 0.10067914 0.056110807 -0.110461906 -0.086312704 -0.04947965 0.024198974
0.08302274 0.051972803 0.021080505 0.10703024 -0.17124707 0.26326028 -0.05801624 0.23307613
0.020262169 0.12216302 -0.17919949 -0.014143438 0.10434185 -0.2053413 0.07902633 -0.06689402
-0.028598212 -0.004747733 -0.11211722 -0.018329483 -0.2664366 0.11130352 0.36283734 0.021479476
0.0072632935 -0.07074603 0.123919025 0.07685599 0.063361794 0.13686083 0.2681825 0.38720956
-0.011194441 0.07643573 -0.10304776 0.2356995 0.09413278 0.3120671 -0.0023398194 0.10212675
0.17386785 -0.053686004 0.10012938 0.08112395 0.04180559 -0.016378589 0.057483412 -0.043717142
-0.083092555 -0.028108437 -0.03800168 -0.22427769 0.008745461 0.10440852 -0.062125478 -0.19449143
-0.02135432 -0.14433569 -0.12179606 -0.0036651664 -0.0011332236 -0.0058317804 -0.20686886 -0.12632687
0.052381497 -0.22185427 -0.21155927 0.15948766 -0.015346087 0.12515019 -0.25686017 0.087848835
0.05186109 0.0056971437 0.18009298 0.014696599 -0.04118506 -0.08991423 0.0024709036 0.12001388
-0.019024767 0.14179613 0.11088022 -0.18868268 0.13245855 -0.013203764 0.091455825 -0.012608072
-0.12377991 0.134816 -0.03455567 0.038315803 -0.063128166 0.027514948 0.112450734 -0.07079354

network_body._body_endoder.seq_layers.0.bias f4 [128]
00000000: de4d 333c 4b91 c43c f823 d83b 1802 383c
00000010: 8ec2 9d3c b6c7 7b3c 1443 2abb 6559 ddbb
00000020: 0696 87bc b476 16bc 799f 4fbb 2574 943c
00000030: 6a2e a1bc 4324 55bb 9998 f13b 4e63 a13c
00000040: d32a 47bc 54df 5a3c ddc8 9abc ac63 9ebb
00000050: 6c93 a0ba a779 d4bc 70b9 8b3b 8e65 b43b
00000060: db28 0ebc 54e3 aebc 6137 103c 19a6 e5b8
00000070: 3a67 f5bc 50d0 a6bc 5dde 1fbc 6e86 de3a
00000080: e6d5 3bbc ed75 a4bc 0455 323c 37cb db3c
00000090: 2174 503c 2866 18bc 9434 543c 6591 cd3c
000000a0: e393 873c 88b4 753c 9b8b 25bb ecba 10bc
000000b0: 53a2 7d3c 9f81 4a3c 54fc 553b e77c caba
000000c0: eed6 81bc 1219 1639 59c5 9b3c aa4b 4bbb
000000d0: b475 253c 82d3 bd3c 181a 35bc ddd7 45bb
000000e0: fd2e eb3b 1312 dd3c 0fa7 47bc d714 9ebc
000000f0: 04a9 01bd 51c2 cabc 604f b6bc 9d2a 823c
00000100: d800 27bc 63e4 96bb 8e12 f8ba 6e61 abbc
00000110: 944c 99bc 7a12 073c d7db a6bc 5996 cebc
00000120: 26f1 153c 81ca 9ebb 5b40 933c 03cd 9dbc
00000130: 0c9a 373c d2c7 013a fbc2 2d3c 6665 7bbb
00000140: 2da7 03bc 6c89 b13c 6803 08bc 609f cc3c
00000150: 97a4 83bc 0255 7e3c f69d 113c 7b66 a3bc
00000160: 4468 f4bc d27d 6bbc bb0d 8f3c 2a70 093c
00000170: 9060 e1bc a5db 963c 95e4 83bc e5d7 15bc
00000180: 3934 8c3b 78d4 373c c84b 93bc c187 93bc
00000190: bb3f 0c3c 6611 203c 899c ad3c 09a4 14bc
000001a0: c18c 00bc 2c76 2b3a 7406 7ebb 89b1 c23c
000001b0: 6265 efba d85e 7ab9 ef3a 203c 26d4 603c
000001c0: be99 af3c c158 ac3b c72d 2b3c 5fe9 1fbc
000001d0: c7ae 94bc eaad 05bc 3fc5 c1bc c6aa d83c
000001e0: 9eb3 573c dd9b a63b 677b 1bbc 16f2 7dbc
000001f0: cfcd dabc b58e 8d3c e5c3 193c 1007 f7bb
0.010943858 0.023995062 0.0065960847 0.011230968 0.01925781 0.015367439 -0.0025979923 -0.0067550414
-0.016551029 -0.0091835745 -0.0031680746 0.018121788 -0.019675452 -0.0032522834 0.0073729274 0.019700672
-0.012156206 0.01335891 -0.018894607 -0.004833659 -0.0012250966 -0.025936915 0.004264049 0.0055052703
-0.008676733 -0.021348633 0.008802266 -0.00010950509 -0.029956449 -0.020363003 -0.009757605 0.0016977319
-0.011464572 -0.020075763 0.010884527 0.026830299 0.012723 -0.0093017 0.012951989 0.025093744
0.01655001 0.014996655 -0.0025260213 -0.008833628 0.015480596 0.012360006 0.003265162 -0.0015448601
-0.015849557 0.00014314454 0.019015001 -0.003102044 0.010098863 0.023172144 -0.0110535845 -0.003018848
0.0071772323 0.026986158 -0.012185826 -0.019297047 -0.031655326 -0.02475086 -0.022254646 0.01588946
-0.010193072 -0.0046048625 -0.0018926428 -0.020920482 -0.018713273 0.008244151 -0.0203685 -0.025218176
0.009151733 -0.0048459177 0.017975023 -0.019262796 0.011206161 0.0004950735 0.010605569 -0.0038359999
-0.008035463 0.021671973 -0.008301593 0.02497834 -0.016069693 0.015523197 0.0088877585 -0.019946327
-0.029834874 -0.01437326 0.017462602 0.008388558 -0.027511865 0.018415282 -0.016100207 -0.009145712
0.0042786864 0.01122009 -0.017980471 -0.018009068 0.008560116 0.009769773 0.021192806 -0.009072312
-0.007846058 0.00065407413 -0.003876117 0.023766296 -0.0018264467 -0.0002387719 0.009779676 0.013722455
0.021435615 0.0052596037 0.010447926 -0.00976023 -0.018149747 -0.00815914 -0.023653625 0.026448619
0.013165383 0.0050844983 -0.009489871 -0.015499612 -0.026709465 0.017279962 0.009385084 -0.0075386837

network_body._body_endoder.seq_layers.2.weight f4 [128, 128]
00000000: f92f ff3c fc6a b43d 8a77 5e3c 9bac 48be
00000010: e205 8abc f0c9 133d 23dd f53c 9ad3 46bc
00000020: ea3b 9dbd c1d7 a7bb 8094 e1bd 44a6 8fbd
00000030: 98a8 183d a568 2e3c b806 673c 83dd babd
00000040: fc7d 3cbc 958c bcbc 53e4 3d3e 4ec3 f43d
00000050: 672d 2bbd aa93 bf3d 0c1e 03be 1b4c 3bbc
00000060: a287 913d c2b5 99bd 5bc7 c53c 1190 d73c
00000070: 2a1c ae3d d330 143e 546b 703a e76a 05be
00000080: 07f3 ca3b 526a 98bd 8009 44bd 6973 a1bb
00000090: d712 403d 7055 d03d f852 c83d 6622 553c
000000a0: 5267 47bd 2934 f83c 3c70 ecbd 3e58 91be
000000b0: dea8 cdbd 639a 483d 671b 8ebd 1639 31bd
000000c0: f929 8abd b67e b4bd c253 5dba fc9d 11bd
000000d0: fb49 c53d 80d4 cf3d 22e5 f9bd 0575 bf3c
000000e0: c3ca 323e 0efb 303b 3023 093e 728d 46bc
000000f0: 38d7 3b3e 47bb 103d 9016 4cbc 03d4 51bd
00000100: 8954 cdbd f895 ab3d 6fd1 66bd 2e64 3dbd
00000110: 933f 3fbd 1006 503e e1ad 46bd 2c4c f5bd
00000120: de89 2dbd 7c38 bd3d 1fdf 59be 5016 953d
00000130: 5d6a df3d 8a9d 50bc 42e3 9b3d 4606 83bd
00000140: b4f5 cebc 8fbd c43d 5ae0 7ebb 5ba2 203e
00000150: a672 5cbc acf9 4bbe bd59 a4bc 4039 793d
00000160: cc12 01be 4bfb 88bd 6a3f 1f3d d5f1 15bd
00000170: 3da8 a2bd 4d87 7ebc a591 513d 1771 d9bd
00000180: b029 0ebd ee38 94bc 396c 3d3c f2b3 933d
00000190: b7a9 48bc 920b 8ebb cc35 803c 5388 443c
000001a0: ead4 4b3d 7e6b 73bd d3ac 34bd 4efc b73c
000001b0: 7035 c8bc 9296 65bd b4a8 81bb 5cc4 ba3d
000001c0: b0da c2bd 8983 1c3d 19d5 13be 5ca0 6bbd
000001d0: 62cd 08be 6e5c 1dbe 1909 a93c 8b9d 7b3d
000001e0: bb60 073c 9aad f7bc 2cd8 c13d d7f2 b1bd
000001f0: c878 9cbc 05c7 213e 98cc b7bc 4fba 913c
00000200: 61f4 07bd 04b1 2fbd 4ae9 933c 2b8c 16be
00000210: da5c 023e e209 593a 3cf0 c5bc b0b0 8bbc
00000220: cbf3 b43c 0717 2e3c 1097 293e 1df6 333d
00000230: eb71 543e 6d0e b63c e3a2 0d3e ddbf 683d
00000240: f12e 5e3d b600 533d 255a 79bc 1c38 373d
00000250: 8429 41bd a8d5 843c 21bd d4bc 3743 98bd
00000260: 86b2 83bd efc3 87bc bfac e5bb 8361 5b3d
00000270: 5528 563c a0a5 083d 3880 023e 8767 8cbd
00000280: 0c04 c9bd 6c6f bf3c 4057 593d 3128 2ebe
00000290: e3f8 013d 531d 663e ccd0 06be 4831 a9bd
000002a0: 0021 06bd cfa1 2b3d 3aed 733a 81f6 aa3d
000002b0: 150f c03d 3f4e c9bd 1938 3cbe a7ca 443c
000002c0: 1933 bebd 80c7 89bc 3687 243d aae9 b0bd
000002d0: c0c0 4fbc bfc6 db3c ffed b4bd 2f90 b4bd
000002e0: 1e1c 053e 03dd b4bd 5699 02be 0ca2 02be
000002f0: 8dfa 013e 4220 4bbd d21f bcbc ff6a 9f3c
00000300: c5b6 223e a4bd ac3d 1b1b 26be d0bb 3abd
00000310: e93e 15bd fc51 aabb 7d19 423d fd2d 353b
00000320: eecb 04be 5cfc 633d 39f8 6abc 51b2 783d
00000330: 85c6 f8bb 49ef 76bd fd33 afbd b8d2 9cbc
00000340: e7f7 3b3c 70e9 4abd da9a 0b3d 21e1 c7bd
00000350: 21ef 0f3d d334 16be ae26 79bd 3001 953d
00000360: b18a 1e3d 2c88 4bbd a535 3dbb 1a45 bcbd
00000370: d973 0c3d a540 6bbd 62eb e9bd 9d15 48bd
00000380: 8fa1 a73c 934d 8b3d 52ba 21be d7c1 d03d
00000390: d725 c13b b840 f8bc 6fcc 1bbe 8f59 a93d
000003a0: ae66 04be 49da 593b 84f4 8dbd dd7c f63d
000003b0: c89d 5a3c cae8 a43c 62c1 d6bd 7b9e db3d
000003c0: 306c 62be da5e 16bd fdec d0bd c3d3 5fbd
000003d0: e32f bfbc b4fc 0c3d 5468 bbbd 9e8f 7cbd
000003e0: 8da8 023b 12c0 c3bc b020 01be 0259 123d
000003f0: 691a 31bc b541 93bc 3f25 94bd c0a5 40bd
0.031150805 0.08809468 0.013578305 -0.19597094 -0.016848508 0.036081254 0.030012673 -0.012135411
-0.07677443 -0.0051221554 -0.11014652 -0.070141345 0.03727016 0.010645066 0.014100723 -0.09124281
-0.011504646 -0.023016253 0.1854413 0.11951314 -0.041791346 0.093543366 -0.1280443 -0.011431719
0.07105948 -0.07505371 0.024142912 0.026313813 0.085014656 0.1447175 0.00091712666 -0.13029061
0.006193522 -0.07442154 -0.047860622 -0.004927088 0.046892967 0.10172546 0.0978145 0.0130086895
-0.04868252 0.03029831 -0.115448445 -0.28387636 -0.100419745 0.04897536 -0.0693882 -0.043267332
-0.06746287 -0.08813231 -0.0008442962 -0.035551056 0.09633251 0.10147953 -0.12201907 0.023371229
0.1746016 0.002700511 0.13392329 -0.012118684 0.18343818 0.03533485 -0.012456551 -0.05122758
-0.100258894 0.08378214 -0.056352075 -0.046238117 -0.04669149 0.20314813 -0.048505668 -0.11977419
-0.04236781 0.09239289 -0.2127652 0.072796464 0.10908959 -0.012732873 0.07611705 -0.06397681
-0.025263645 0.09606468 -0.0038891048 0.15686934 -0.013455069 -0.19919461 -0.020062322 0.060845613
-0.12604827 -0.06688555 0.038878836 -0.036607582 -0.07942245 -0.015535188 0.051164288 -0.10617273
-0.034707725 -0.018093552 0.011561447 0.07212056 -0.012247494 -0.0043348754 0.015650652 0.011995393
0.049763598 -0.059428684 -0.04411013 0.022459175 -0.024439543 -0.0560518 -0.0039568786 0.09119484
-0.095143676 0.03821138 -0.14436759 -0.057525977 -0.13359597 -0.1536729 0.02063422 0.06142954
0.008262808 -0.030234147 0.0946506 -0.08688896 -0.019100562 0.15798576 -0.022436425 0.017789034
-0.033192042 -0.042893425 0.018055577 -0.14701907 0.12730733 0.0008279366 -0.024162404 -0.017052025
0.022088906 0.010625607 0.16561532 0.043935884 0.20746581 0.022223676 0.13831668 0.0568236
0.054243986 0.05151435 -0.015219246 0.044731244 -0.047158733 0.01621516 -0.02596909 -0.07434695
-0.06430535 -0.01657292 -0.0070091183 0.05355979 0.013071139 0.033361077 0.12744224 -0.06855684
-0.09815225 0.02336856 0.053061724 -0.1700752 0.031731497 0.22472124 -0.13165587 -0.08261353
-0.032746315 0.04190236 0.0009305064 0.08347798 0.09377877 -0.098293774 -0.18380775 0.012011207
-0.0928709 -0.016818762 0.04016801 -0.08638318 -0.0126802325 0.026828168 -0.08834457 -0.08816563
0.12999007 -0.08831217 -0.12753806 -0.12757128 0.12693234 -0.04959131 -0.022964392 0.0194602
0.15890034 0.084346086 -0.16221277 -0.04558927 -0.03643695 -0.0051977616 0.04738759 0.002764582
-0.12968418 0.05566059 -0.014341407 0.06071693 -0.0075920247 -0.060286794 -0.08554838 -0.019143447
0.011472679 -0.04953903 0.034083225 -0.09759737 0.03514016 -0.14668588 -0.060827903 0.07275617
0.038706485 -0.04969041 -0.0028871086 -0.091928676 0.03429017 -0.057434697 -0.11421849 -0.048848737
0.02046278 0.068019055 -0.15793732 0.10193222 0.0058944034 -0.030304298 -0.15214704 0.08269035
-0.12929794 0.003324168 -0.06931403 0.120355345 0.013343282 0.020130534 -0.104861036 0.10723587
-0.22111583 -0.03671155 -0.10201452 -0.05464531 -0.023338264 0.034420684 -0.091507584 -0.0616604
0.001993689 -0.023895297 -0.12610126 0.035729416 -0.010809519 -0.017975667 -0.07233667 -0.04703307

network_body._body_endoder.seq_layers.2.bias f4 [128]
00000000: 4f72 99bb f06c 94bc cdf9 c3bc cc96 953c
00000010: 48aa 9e3c 545d 203c d892 a6bc d33c 98ba
00000020: ba2b 47bc 136e be3c 83a4 5dbc 62e5 bc3c
00000030: 2bbf 74bb 90df a03b 1812 acbc 8a8c 513a
00000040: 60d4 d4bc 26c9 babb 1bfb 92bc 397e a83b
00000050: 8c04 953c 476f 093b a612 413c ca1a 85bc
00000060: 2bbf 183c 43bc a3bb 0c13 8f3c 88f0 b93c
00000070: 8baa c03c a388 b23c 246e 0ebc 29d4 163c
00000080: 71bb c3bc bb73 003c eba8 393b 9f90 81bc
00000090: 2cb7 ea3c 63c9 87bc 9b42 9ebc 1b6b 42bc
000000a0: 0a02 543c 9d0b 053c 5f48 96bc a750 6b3c
000000b0: 5088 823c 6ef1 b43c e89f ba3c a29d 5c3c
000000c0: d417 a03c 456a c93c 2cee 5ebb ea6b aebc
000000d0: 757c ebbc 861d c43c 9194 8d3b bd47 8b3b
000000e0: 9a00 afbc a733 64bc c0d3 96bc ae38 183b
000000f0: 2d08 533c 59f1 8bbc 207d 18bc 6b2e c7bc
00000100: b7d2 383c 09ac aa3c dae8 d73c c560 d1bc
00000110: 03ad 983c 1732 bb3c 7f1c f6bb 85d0 8bbb
00000120: 0e3c 133c 10c4 8abc de5a c6bc abea 97bc
00000130: 6b02 4abc 8c10 993b f6ac 32bc 51e3 863c
00000140: 2d0c a9bc 85bc 2ebc b78d 8c3c 4a09 a2bc
00000150: ae82 3cbb f288 c2bc f379 833c 4832 603b
00000160: f995 793b 4e99 a93c 5727 a43c 63d2 cebb
00000170: 6787 683c 9e19 be3c 6acd ae3b 3442 8cbc
00000180: a5c5 82bc 5a89 a83c b815 8e3c 97b6 abbc
00000190: 2a1a 00b9 459e 533c ae93 0dbc c1bd 9c3c
000001a0: d5c8 923c c34b 96bc 895d eb3b 37de 37bb
000001b0: 013c 5dbc 4a79 bd3c 291f 4ebc 50b5 483a
000001c0: c06e 58bc 8271 b93c 36aa dc3c f0d8 c1bc
000001d0: f570 90bc 5a7f 0cbc 7804 adbc 468d 1abb
000001e0: 8ca4 92bc df43 89bb 879c 0f3c c12d 993c
000001f0: a691 d4bb f28c d63b ac92 e13c 6516 1d3c
-0.004682816 -0.018118352 -0.023922825 0.018260382 0.019368306 0.009787876 -0.020333692 -0.0011614807
-0.012156421 0.023245847 -0.013527992 0.023058597 -0.003734539 0.004909463 -0.021004722 0.0007993659
-0.025980175 -0.0057002483 -0.017942002 0.005142 0.018190645 0.0020970867 0.011784231 -0.016248126
0.009322922 -0.004996808 0.017465137 0.022697702 0.023518821 0.02179367 -0.008693252 0.009205856
-0.02389309 0.007840092 0.0028329443 -0.015816031 0.028651796 -0.01657552 -0.01931887 -0.011866356
0.012939939 0.008120445 -0.018345056 0.014362491 0.01593414 0.022087779 0.022781327 0.013465317
0.019542612 0.024586806 -0.0034016473 -0.021291692 -0.02874587 0.02393986 0.004320689 0.004250495
-0.021362592 -0.0139283305 -0.018411517 0.0023227143 0.012880367 -0.017082857 -0.009307176 -0.024314126
0.011280707 0.020833986 0.02635615 -0.025558839 0.018637186 0.022851033 -0.007510721 -0.004266801
0.008986486 -0.016939193 -0.02421325 -0.018544516 -0.012329678 0.004671162 -0.010905495 0.016465815
-0.020635689 -0.010665064 0.017157419 -0.01977982 -0.0028764415 -0.023746941 0.01604936 0.0034209657
0.0038083775 0.020702984 0.02003829 -0.006311701 0.014192439 0.023205575 0.005334546 -0.017121412
-0.015963385 0.020573307 0.01734434 -0.020961089 -0.00012216778 0.012916152 -0.008641167 0.01913345
0.01791803 -0.018346673 0.007182781 -0.0028056034 -0.013503076 0.023129124 -0.012580671 0.0007656412
-0.013209999 0.022637133 0.026936632 -0.023663014 -0.017631987 -0.008575285 -0.021120295 -0.002358274
-0.017900728 -0.004188999 0.008765346 0.018698575 -0.006487089 0.0065475637 0.027535759 0.009587859

action_model._continuous_distribution.log_sigma f4 [1, 3]
00000000: c7b8 89ba e74c fc3b c35f 43bb
-0.0010507338 0.007699597 -0.0029811717

action_model._continuous_distribution.mu.weight f4 [3, 128]
00000000: 21d4 dc3c 3a17 c53b 21a3 063c 0a15 68bc
00000010: 750e 06ba 28ff 823b 29d4 8dbb 45a6 1c3d
00000020: 6d1d 9ebb e881 e6bc 075f 11bc cca0 0cbd
00000030: c9fd 34bd b1a6 a43c e3c2 913c 1932 dabc
00000040: d35c 95ba 99c4 393b 98c1 58bc 55cd c03b
00000050: 2ccb 45bb 9f68 203c 70a9 00bc 5d03 853c
00000060: fc53 11bd f596 7d3c a89f 0dbd 3007 60bc
00000070: 5adc f3bc ab3a bcbc 3cbc 4dbc d3f9 833c
00000080: 09c1 7fbb 689d 9bbc 143f 36bc b639 ca3c
00000090: 7759 29bb c255 163d 614b 7f3c 4eb5 453d
000000a0: 2cc6 cfbc e3fd 1abc ece0 3bba f27f 9a3b
000000b0: 7d44 d73b 2176 c93b e870 f3bc ac5b 64bb
000000c0: 05f7 5c3c c41a 413b f5ae 12ba c6df cabb
000000d0: 1cc6 af3c a9b1 a7bc fc81 e1ba 5833 853b
000000e0: 4daf 273d e5f7 13bd d306 ddbb 00b1 533c
000000f0: 3c26 b0bb 6dc4 cbbc 1c90 063d 371c 483c
00000100: 8b76 d13b 09ac 6139 2a9b 38bb 0eb2 2fbb
00000110: cd2e 5dbc cdc1 8fbc b53b 153d 452b a0bb
00000120: b7c8 a83c 9fb9 8a3c 6dff 5b3b cc0b 1bbc
00000130: 6e56 023d e4e7 45bc 7405 b3bc cde0 b8bb
00000140: ff29 633c e899 03bd c10d 41bc 04ad ad3c
00000150: 6dcf 1d3c d948 1c3c fb80 43bc 629e 383c
00000160: c07a 803c cef8 d33a 6f44 bebc cf4d adbb
00000170: 2325 4bbd 70d9 d2bc d2dd 0ebc 36f8 64bc
00000180: db4c 65ba 3c9a 74bb 58ae a3bc e3e3 943c
00000190: e386 b53b f588 de3b d6df 5a3c b1e6 d9bb
000001a0: 986e 0abd 2629 02bb f722 2fbd aed5 fd3c
000001b0: 0e74 6dbb bf95 acbc 95ae bcbc d66c 6dbc
000001c0: 2d21 36bc b22e fb3b d4eb 3fbb 3f10 c13c
000001d0: f072 f6bb 7e66 563c 5816 4c3c 0d9f 39bd
000001e0: a1d0 33bc 6ea2 0a3c 77d7 d6bc a87a c7bc
000001f0: 4dfe 5b3c f74f 3e3c 1c00 a3bc 0865 823c
00000200: 9e9f 80bc 633b 1c3c 113b fe3b b5ef d3bb
00000210: 5858 25bb c743 b9bc 92df d53b 373e c3bb
00000220: bbdd 3cbc 4164 99bc e273 fc3b 1724 bfbc
00000230: 9923 28bb 0a45 30b9 784a c73c 9943 1c3c
00000240: e06f 4f3c ce63 6d3b 3288 403c f11f 8ebc
00000250: 22d5 8ebb cf40 db3b 09ff 94bc 958b 903c
00000260: 6f11 9c3b 4735 10bc e845 b3bc f80a 18bc
00000270: afb5 b2bc 5a68 dfbc 804e fc3c dbc3 bebc
00000280: 99ad d33c e669 8d3b 4793 7b3c 2825 b33c
00000290: c05d bdbc 3401 083d 0199 ee39 7c4d 1bbb
000002a0: 9305 6bbc e0e9 09bd a8ab ea3c 0d4b 88bc
000002b0: c169 85ba 129b b4bb 5c6c 27bd 6433 27bc
000002c0: ec8e eabc 8b14 c7bc 4eca 75bc d162 793b
000002d0: ea7d 9a3c 2393 d4bc 8464 0abc d78b 8f3c
000002e0: 6063 543c 1d03 f83c f4d2 f83c 9081 143b
000002f0: 050a 6cbc 0bad b83b ac82 e9bb b4ef cf3b
00000300: 0b22 30bc d380 76ba 3490 95bb 8c01 403c
00000310: 21a2 b1bb c7a2 00bd 75e6 52bc 4f6d 09bb
00000320: 7427 aabb ed3f 34bb e73f 623c 7b88 e83b
00000330: 27e3 3db9 5ea4 09bb 0280 88bb cc10 1339
00000340: 2528 073c 3534 503c 23ed feba 56e1 d33b
00000350: 1ece 013b a8bf d93b d2b1 003a ffab 67bc
00000360: 71d7 a1bc a8d0 a4bc 3a82 42bc 7417 05bc
00000370: dd03 b63b 963f 9fbc dccc 55bc 745f d43b
00000380: 2d76 a93b 658e b4bb 7254 c6b8 883d d23b
00000390: d273 7bbc 8669 95bb dd9c 09bc a538 eabb
000003a0: 5149 b7bc 5855 8d3a a49e 0b3a ec41 f93b
000003b0: e1eb ee3b 6899 29bd 46bb 983c 3393 613b
000003c0: d3c1 f9bb 8016 01bc 10e3 04bd c46b 243c
000003d0: 65f8 7f3c 47de 43bc f2f3 423b 25f9 a43b
000003e0: 2045 de3c 9855 87bb 2342 89bc e424 f3bb
000003f0: ce99 04bb 62d2 1abc 073e e5bc e72b 90bb
0.02695662 0.0060147317 0.008217604 -0.014165172 -0.00051138486 0.003997702 -0.00432827 0.038244504
-0.004825285 -0.028138116 -0.008872754 -0.034333035 -0.04418734 0.020099016 0.017793125 -0.026635217
-0.0011395462 0.002834594 -0.01322975 0.0058838525 -0.0030180914 0.009790569 -0.007852897 0.016236955
-0.035480484 0.0154778855 -0.03457609 -0.013673589 -0.029768158 -0.022977194 -0.012557086 0.016110336
-0.003902497 -0.018995956 -0.011123437 0.024685722 -0.0025840679 0.03670288 0.015581937 0.04826861
-0.02536305 -0.009459945 -0.0007167 0.0047149593 0.0065694437 0.0061481153 -0.029716924 -0.003484468
0.013486628 0.0029465416 -0.00055955286 -0.0061912267 0.02145677 -0.020470457 -0.0017204876 0.0040649585
0.040938664 -0.036125083 -0.0067451983 0.012920618 -0.0053756516 -0.024873937 0.032852277 0.012213758
0.0063923053 0.0002152176 -0.0028168657 -0.002680901 -0.013499928 -0.017548466 0.036433894 -0.0048879706
0.02060352 0.016934214 0.0033568994 -0.009463262 0.031820707 -0.012079213 -0.021853186 -0.0056420327
0.013864993 -0.0321292 -0.011783064 0.021200664 0.009631974 0.009538853 -0.011932607 0.01126823
0.015683532 0.0016172172 -0.023225991 -0.0052888165 -0.049595963 -0.025738448 -0.008719878 -0.013975194
-0.0008747109 -0.0037323376 -0.019980595 0.018175071 0.0055397614 0.006791229 0.013359031 -0.006649815
-0.033796877 -0.0019860952 -0.042757954 0.03098568 -0.0036232504 -0.021067498 -0.023032466 -0.014491281
-0.011116308 0.0076654786 -0.0029284852 0.023567317 -0.007521026 0.0130859595 0.012456499 -0.0453177
-0.010975034 0.008461578 -0.026225789 -0.02435048 0.013427329 0.011615745 -0.019897513 0.015917316
-0.015701111 0.009535643 0.007758506 -0.0064677843 -0.002522966 -0.022615327 0.006526896 -0.0059583443
-0.011527474 -0.018724563 0.007704244 -0.023332639 -0.0025655983 -0.00016810387 0.024327502 0.009537601
0.01266095 0.0036222818 0.0117512215 -0.017349215 -0.0043589035 0.0066910754 -0.018188016 0.017644683
0.0047628204 -0.008801765 -0.02188392 -0.009279959 -0.02181515 -0.027271438 0.03079915 -0.02328675
0.025839614 0.0043156026 0.015354938 0.021868303 -0.023115993 0.033204272 0.00045508894 -0.0023697307
-0.014344591 -0.033670306 0.028646305 -0.01663735 -0.0010178612 -0.00551165 -0.040874824 -0.010205124
-0.028632604 -0.024301788 -0.0150018465 0.0038053284 0.018858869 -0.025949067 -0.008446816 0.017522736
0.012963146 0.030274922 0.030374028 0.0022660233 -0.014406686 0.0056358627 -0.007126173 0.0063457135
-0.010750304 -0.00094033516 -0.0045643095 0.011719119 -0.0054209386 -0.031405237 -0.012872328 -0.0020969694
-0.0051926915 -0.0027503923 0.013809181 0.007096348 -0.00018109065 -0.0021002511 -0.0041656503 0.0001402527
0.008249317 0.01270776 -0.0019449334 0.006466071 0.0019806693 0.0066451617 0.000490931 -0.014140128
-0.01975605 -0.020119026 -0.011871869 -0.008123267 0.0055546598 -0.0194395 -0.013049331 0.0064811055
0.0051715584 -0.005510139 -9.457105e-05 0.0064160265 -0.015347438 -0.0045596985 -0.0083992155 -0.007147866
-0.022373827 0.0010782881 0.00053260685 0.0076067355 0.0072913026 -0.041406065 0.018643986 0.0034420013
-0.0076219826 -0.0078789 -0.032443106 0.010035459 0.015623187 -0.0119548505 0.0029747454 0.005034583
0.02713257 -0.0041300766 -0.01675517 -0.007420169 -0.0020233276 -0.009449573 -0.027983679 -0.004399765

action_model._continuous_distribution.mu.bias f4 [3]
00000000: a43c 1fbc 52f1 afbc 00eb 973c
-0.009719048 -0.021477375 0.018544674

action_model._discrete_distribution.branches.0.weight f4 [1, 128]
00000000: d02b 103c e2fd 5fbc 7b2d 1cbb 9df2 873b
00000010: 4b35 33bb f0e9 2ebc e88e 20bb 4f3c 5bbb
00000020: 3789 463b 8123 bcbb c2f2 d9ba 3c03 c5bb
00000030: 2e05 c53b 0b82 c43a 6f92 fe3a 7ba6 583c
00000040: efef bebb 6edf cb3b 2ff1 41bc 2b89 963b
00000050: 0ec2 023c 0705 073c b607 093c dc53 903b
00000060: 5716 2d3c 5ab3 723b eb6e fe3b cb9a a6ba
00000070: f356 8bba 1c0b 9cb9 e7a7 1238 3b05 573b
00000080: 2297 19bc 5fad 8cbc 96a1 943c bff5 863b
00000090: d235 fcbb 2fcb 403c 5329 9eba f297 62bb
000000a0: b696 ccbb 16e6 3abc 03f6 8e3c 0778 9e3b
000000b0: 33ef 5e3c c747 0dbb cf53 8dbc 0a08 d1bb
000000c0: 3b5b 0bbc ddd7 83bc 27de 8c3b f0c1 b5bb
000000d0: 75e8 873b 2710 6dbc 0f63 4abc 8997 983b
000000e0: 85d4 59bc 97d6 9a39 a603 833c ef7b 623c
000000f0: 97b5 4dbc 932b b23b 84c3 1e3b d490 093c
00000100: 828a 763b 5278 f9bb 7c87 abbb 7336 363b
00000110: 3b4d 91bb 9899 debb ba7f c6bb 77ea 85bc
00000120: 3b6c 9a3b bf76 8abb 4d52 6f3b 0002 63bc
00000130: aa65 48bc c33a 1c3c b781 54bb ddc7 f9bc
00000140: ed58 5dbb 9534 efbb 8663 253c 17a8 38bc
00000150: bb4f 343c 3a5b 6cbb 46f7 003b 37c3 94bc
00000160: cd76 cc3b 02a4 e93b 8775 a8ba ca4f 09bb
00000170: 3a24 263b 47bc 1bbb ea47 3bbc fa3f dcbb
00000180: dc15 88bc 6dea 5d3c 4376 153c f40e c7bc
00000190: 6dc4 eb3b f57d d73a fffd 1e3c 8e16 083b
000001a0: 8bce 143c bf1a 4a3b 7acd 72bb c2ca 9eba
000001b0: c1b3 30bc 1532 1f3c 8f86 9fb8 bfd6 a3bb
000001c0: f713 a739 587f a63c ff53 613b c5e7 52bb
000001d0: 1710 07bc 9779 7fbb 2368 f93b bd92 743b
000001e0: 9673 8bbc 973b af3b 4d9a 3dbb 3aa3 5e3b
000001f0: e357 6bbb 5f0a 97bb 65e3 02bc 487c 853c
0.008799508 -0.01367137 -0.002383082 0.004148795 -0.0027344998 -0.010675892 -0.0024499241 -0.0033452695
0.0030294189 -0.005741537 -0.0016628134 -0.0060123485 0.0060125804 0.0014992369 0.0019422303 0.013223286
-0.005826942 0.0062217033 -0.011837288 0.0045939884 0.007980837 0.008240945 0.008363655 0.004404528
0.010564408 0.0037033171 0.0077646873 -0.0012710927 -0.0010630771 -0.00029762916 3.4965484e-05 0.0032809514
-0.009374412 -0.017172514 0.018143456 0.0041186507 -0.0076968456 0.011767193 -0.0012066759 -0.003457543
-0.006243552 -0.011407396 0.017451292 0.0048360857 0.013606834 -0.0021557675 -0.017251877 -0.006379132
-0.008505638 -0.016094143 0.0042989436 -0.005546801 0.004147584 -0.014469183 -0.012352719 0.0046567363
-0.0132952975 0.0002953305 0.01599295 0.013823493 -0.012555501 0.0054373234 0.0024225423 0.008396346
0.0037619178 -0.0076132203 -0.005234657 0.002780345 -0.0044342554 -0.006793212 -0.0060577067 -0.016347153
0.004712609 -0.0042255814 0.003651756 -0.013855457 -0.01223127 0.009535494 -0.003242595 -0.03049081
-0.0033774928 -0.0072999694 0.010094529 -0.0112705445 0.011005337 -0.0036065117 0.0019678636 -0.018159492
0.006239748 0.007130147 -0.0012852409 -0.00209521 0.0025351183 -0.0023763345 -0.01143072 -0.006721494
-0.016611986 0.013544661 0.009122434 -0.024299122 0.0071950466 0.0016440736 0.009704112 0.0020765397
0.009082447 0.0030838696 -0.0037048743 -0.001211487 -0.010785044 0.00971653 -7.606774e-05 -0.004999965
0.00031867597 0.020324394 0.003438234 -0.0032181602 -0.008243582 -0.0038982385 0.007611291 0.0037318908
-0.01702289 0.00534768 -0.0028931082 0.0033971802 -0.003591054 -0.0046093906 -0.007988785 0.016294613

exp_avg f4 [128, 62]
00000000: e5cf 8836 a996 7836 8fe3 b435 f165 6836
00000010: b127 b835 d483 6936 931e c235 bcbe 6936
00000020: bd60 8e36 07c8 5e36 dc36 7336 68ba 5e36
00000030: f30c 7536 f269 6036 c65e 7336 36a3 6136
00000040: 3318 7036 247c 5936 9059 3b36 cf8f 5f36
00000050: 590f 4436 c375 6036 1612 a637 158d a136
00000060: 7056 a637 9e35 a136 2846 ab37 9aa1 a336
00000070: d597 ab37 d928 a536 5d0f a037 ef74 ab36
00000080: 5eea 9e37 570b ad36 a4f4 9f37 9856 b236
00000090: bc84 8437 6669 aa36 d04f 8437 2277 ab36
000000a0: 3b14 7c37 7b4b ae36 744f 7c37 2a56 b036
000000b0: 1178 7b37 a133 b236 4fb7 7937 b34e b436
000000c0: 0f46 6537 0005 ba36 f45a 6737 97f3 ba36
000000d0: 8bbe 6737 df4f bc36 6121 6837 7094 b836
000000e0: 1789 6737 c9d8 b836 7369 6e37 6462 c436
000000f0: b887 6f37 380f c336 2c6e 6936 3860 7b34
00000100: ebe5 9cb7 a942 f6b5 72b3 9cb7 7ff9 f6b5
00000110: f6b3 9eb7 cfc0 f5b5 7996 b235 27f7 4fb6
00000120: b361 3b36 1457 55b6 de43 4136 02e6 4eb6
00000130: d38c 3f36 e168 0eb6 2906 4036 e74c 20b6
00000140: 1395 0a34 6295 1cb6 748b a835 f2cb 0fb6
00000150: 2a00 9336 a916 f5b5 356d a936 5c5b efb5
00000160: 3621 b536 d3f4 e3b5 9c7a b536 28f3 d6b5
00000170: 439d a936 436d dab5 4803 8136 d319 c5b5
00000180: 6f13 9936 6eb5 abb5 a674 2936 c303 b7b5
00000190: 16df 2736 dfca abb5 dbf3 6a36 2b3f a3b5
000001a0: 2486 4c36 7f0e 90b5 8644 4936 0445 84b5
000001b0: 4e6b 4936 14b6 70b5 3ce5 3e36 b8dd 50b5
000001c0: 4a1b 4636 6c63 3cb5 7e9d 4736 ce3c 22b5
000001d0: c61d 4936 5225 15b5 453c 4536 8cbb f7b4
000001e0: f686 5936 0479 b034 6aee 5d36 7499 dc34
000001f0: b151 8736 a13c 1338 bf0b 0a36 da7e 1238
00000200: d26b 0936 0688 1238 c0f9 1036 eab1 1238
00000210: 3c10 6f36 e25d 1238 e079 e436 e133 1238
00000220: 4a93 b836 83bd 1138 7206 b936 9f34 1438
00000230: dcad b236 525d 1738 0a13 ea36 c43f 1638
00000240: 38a4 2c35 c83d 1338 e440 ef36 5935 1638
00000250: 7357 2737 069f 1538 7141 7837 269f 1938
00000260: 96e4 7737 d7b8 1938 5090 7437 77ce 1938
00000270: f7af 9037 5575 1938 7187 1737 768d 1b38
00000280: 39c8 5837 4271 1d38 7af9 5837 f391 1d38
00000290: 0f1d 6037 89b2 1d38 ca2d 0738 18f8 1738
000002a0: 534b 0738 2557 1838 dc58 0638 a6c7 1838
000002b0: bb3f 6337 32cd 1e38 b53e 6237 69d4 1e38
000002c0: 0b10 6237 24dd 1e38 eee1 6137 b677 1e38
000002d0: 2eab 6937 3355 1e38 0c36 6e37 2418 2338
000002e0: c2b0 6d37 971e 2338 6a6b dab7 1114 bfb7
000002f0: a275 3ab8 4c05 cdb7 468f 3ab8 a0a0 ccb7
00000300: 8306 3eb8 e396 cbb7 85ad f8b7 ccc7 d3b7
00000310: 3eba c3b7 7198 d4b7 4457 d0b7 e6fb d4b7
00000320: 6b38 d0b7 7250 c2b7 8acd d1b7 b48c c0b7
00000330: a03f d0b7 0336 c1b7 ff4d cab7 32a3 c1b7
00000340: 957b b5b7 73b3 bdb7 65ca afb7 f755 bdb7
00000350: 0475 b3b7 e2f8 bbb7 98a0 b3b7 37f0 bbb7
00000360: e324 b0b7 8f29 bcb7 c834 c5b7 15af bab7
00000370: 3bac ccb7 3a62 bab7 438e bfb7 6b2d bab7
00000380: 4472 bfb7 3614 bab7 6fb8 bdb7 0beb b9b7
00000390: aa86 a136 85e5 cab7 137b a236 eafc c9b7
000003a0: 8596 b136 ce59 c9b7 e260 ae36 52ad c8b7
000003b0: 36b7 a936 5005 c8b7 8a68 a936 8260 c7b7
000003c0: ac1c a936 e9f3 c6b7 11cf b136 ea32 c6b7
000003d0: 0ce0 9436 90c7 bab7 b703 9436 95a5 b9b7
000003e0: fd76 9b36 b032 95b8 749f 8d36 b72e 95b8
000003f0: e78e 8f36 930e 95b8 4287 8d36 87e4 94b8
4.077318e-06 3.7042576e-06 1.3477273e-06 3.4630032e-06 1.372062e-06 3.479644e-06 1.4463025e-06 3.4830728e-06
4.2431916e-06 3.319701e-06 3.6241754e-06 3.318908e-06 3.6515382e-06 3.344027e-06 3.6264987e-06 3.3622614e-06
3.5776873e-06 3.240778e-06 2.7917304e-06 3.3313297e-06 2.921521e-06 3.3447147e-06 1.9797164e-05 4.814598e-06
1.9828993e-05 4.8044158e-06 2.0417458e-05 4.8765914e-06 2.045549e-05 4.9221385e-06 1.908064e-05 5.10981e-06
1.8944203e-05 5.157122e-06 1.9068197e-05 5.314894e-06 1.5797435e-05 5.078665e-06 1.5772792e-05 5.110066e-06
1.5025081e-05 5.194391e-06 1.503887e-05 5.2552396e-06 1.4988721e-05 5.310824e-06 1.4884236e-05 5.37358e-06
1.3665775e-05 5.543814e-06 1.378985e-05 5.5715896e-06 1.3813037e-05 5.612135e-06 1.3836049e-05 5.5009077e-06
1.3800592e-05 5.5088644e-06 1.4210457e-05 5.8527094e-06 1.427711e-05 5.8132246e-06 3.4783834e-06 2.3411201e-07
-1.8703713e-05 -1.8347829e-06 -1.868021e-05 -1.8401041e-06 -1.8918869e-05 -1.8310037e-06 1.3305827e-06 -3.0989265e-06
2.792204e-06 -3.179016e-06 2.8798745e-06 -3.0830274e-06 2.8543188e-06 -2.1220696e-06 2.8613815e-06 -2.388662e-06
1.2906484e-07 -2.3332764e-06 1.2557562e-06 -2.1427372e-06 4.3809605e-06 -1.8260517e-06 5.049306e-06 -1.7833477e-06
5.3980866e-06 -1.6984071e-06 5.408494e-06 -1.601501e-06 5.0549e-06 -1.6274065e-06 3.8448816e-06 -1.468516e-06
4.5620177e-06 -1.2793296e-06 2.525086e-06 -1.3635657e-06 2.5014792e-06 -1.2799536e-06 3.501066e-06 -1.2162831e-06
3.047645e-06 -1.0733055e-06 2.999122e-06 -9.854853e-07 3.0013794e-06 -8.9671926e-07 2.8445638e-06 -7.780868e-07
2.9520183e-06 -7.0180135e-07 2.9744983e-06 -6.0438185e-07 2.9968664e-06 -5.5561134e-07 2.939037e-06 -4.6143793e-07
3.2414077e-06 3.2870605e-07 3.3070341e-06 4.1089845e-07 4.0328237e-06 3.5103996e-05 2.057044e-06 3.4927252e-05
2.047735e-06 3.4935794e-05 2.1603046e-06 3.4974808e-05 3.5623225e-06 3.4896548e-05 6.8091176e-06 3.485743e-05
5.500774e-06 3.474719e-05 5.51418e-06 3.5334957e-05 5.3250533e-06 3.6088117e-05 6.97596e-06 3.5822173e-05
6.4313963e-07 3.510507e-05 7.1303093e-06 3.581247e-05 9.9743365e-06 3.567247e-05 1.4797189e-05 3.662626e-05
1.4775569e-05 3.6650188e-05 1.4577134e-05 3.6670328e-05 1.7248078e-05 3.6587317e-05 9.031836e-06 3.7086626e-05
1.2921221e-05 3.7537196e-05 1.2932689e-05 3.7567643e-05 1.3358206e-05 3.759799e-05 3.2229153e-05 3.623226e-05
3.225666e-05 3.6320784e-05 3.2030846e-05 3.642556e-05 1.3545093e-05 3.786124e-05 1.348525e-05 3.7867958e-05
1.3474385e-05 3.787609e-05 1.3463648e-05 3.7781625e-05 1.3927738e-05 3.7749483e-05 1.4198489e-05 3.888471e-05
1.4167455e-05 3.8890717e-05 -2.6037644e-05 -2.2778318e-05 -4.445541e-05 -2.444037e-05 -4.447929e-05 -2.4393492e-05
-4.5305595e-05 -2.4269748e-05 -2.9644705e-05 -2.5246198e-05 -2.3332537e-05 -2.5343355e-05 -2.4836168e-05 -2.5389669e-05
-2.4821804e-05 -2.3164062e-05 -2.5010453e-05 -2.2953704e-05 -2.482516e-05 -2.3032544e-05 -2.4116596e-05 -2.3083387e-05
-2.1634429e-05 -2.2614118e-05 -2.0955873e-05 -2.2570586e-05 -2.1392952e-05 -2.2408032e-05 -2.1413245e-05 -2.2403996e-05
-2.0998012e-05 -2.2430699e-05 -2.3508808e-05 -2.2254457e-05 -2.4398896e-05 -2.2218668e-05 -2.283522e-05 -2.2194077e-05
-2.2822183e-05 -2.218234e-05 -2.261644e-05 -2.2163169e-05 4.813851e-06 -2.4187155e-05 4.842304e-06 -2.407884e-05
5.292534e-06 -2.4002886e-05 5.1968827e-06 -2.3922566e-05 5.057921e-06 -2.3844332e-05 5.0487624e-06 -2.3767589e-05
5.0399303e-06 -2.3717019e-05 5.2991168e-06 -2.3627148e-05 4.436826e-06 -2.2265856e-05 4.411176e-06 -2.2130824e-05
4.633212e-06 -7.114315e-05 4.2206902e-06 -7.113575e-05 4.278368e-06 -7.107588e-05 4.2178735e-06 -7.0997565e-05

exp_avg_sq f4 [128, 62]
00000000: b412 052f 4100 9930 f784 122f f6fb 9830
00000010: 8fc4 132f 5ffb 9830 6908 292f 5b0c 9930
00000020: 3ac4 122f 9927 9930 9da2 0e2f 1420 9930
00000030: 7797 0e2f 19a3 9a30 52cc 092f 0093 9e30
00000040: c61d 332f 318f 9e30 6469 4c2f c4ad a030
00000050: dc00 512f 9aac a130 3b72 1830 2195 a130
00000060: 314b 1b30 24a3 a130 a059 1630 cc2f a230
00000070: eb41 4430 88b2 a230 1179 9f30 668f a130
00000080: 78f5 a330 6f4a a130 1c80 fc30 39a8 a130
00000090: b6d2 7631 04dd 9d30 5ebb 7631 4c28 9e30
000000a0: 8085 8031 36ba 9c30 3206 8431 7585 9c30
000000b0: a9f2 9131 3c81 9e30 cbaa 9231 e0ff 9e30
000000c0: 1610 8431 04f5 b630 c9a2 8f31 fdc4 b630
000000d0: 3cb2 9031 07e0 b630 edf0 9031 e561 b830
000000e0: 0f96 9131 a13d b830 0eb7 8d31 75b4 b930
000000f0: e6ce 8d31 ee61 ba30 d502 2930 6e41 6b32
00000100: 981d 5b30 87f4 6a32 215d 5d30 24f6 6a32
00000110: 4404 3130 a816 6b32 db8f ad2f 9c0b 6b32
00000120: 8474 832f 01f2 6a32 2eee 652e e450 6a32
00000130: 7835 4f2e 02d4 6a32 a44b 4a2e e3cc 6932
00000140: 0ecb c32e 9b1b 6932 5546 f82e ae1d 6932
00000150: f955 042f 15d3 6832 4862 9f2e 55d8 6832
00000160: 83a9 192f f1cf 6832 84db a930 03e6 6832
00000170: b974 c730 5b95 6832 0059 ca30 e587 6832
00000180: c32e 0531 c3b4 6832 ec1e 1b31 e950 6932
00000190: 7b17 1931 1337 6932 1a0d 1531 badc 6832
000001a0: 20c4 2031 50da 6832 786c 5631 f841 6932
000001b0: 6e26 5e31 6e7e 6932 5c93 8931 4240 6d32
000001c0: c169 8c31 cd37 6d32 3899 8c31 db29 6d32
000001d0: 68ad 8d31 25f9 6c32 505b 8e31 7eef 6c32
000001e0: 6733 6431 9dda 6c32 64f8 6431 3ca8 6c32
000001f0: 4303 a032 c531 4c33 e122 a132 1492 4c33
00000200: 30c2 a232 b39a 4c33 0cc1 a032 918e 4c33
00000210: 6961 a832 60b8 4c33 e6e4 a532 afad 4c33
00000220: c79f a832 89f3 4c33 aa57 a832 69c0 4c33
00000230: bf61 a432 4caf 4c33 fd55 af32 d8b7 4d33
00000240: 38b6 b432 4552 4d33 824c bc32 2c67 4d33
00000250: 3ff8 b232 14da 4d33 29a0 ac32 ce3b 4e33
00000260: a6c4 a232 fe48 4e33 1526 5832 5318 4f33
00000270: 4d84 3632 4c0c 4f33 c468 1132 3a2c 4f33
00000280: 2295 e031 3064 4f33 d88f c031 d695 4f33
00000290: 6fc0 b431 03a7 4f33 883b ae31 c58d 4f33
000002a0: 92fd b731 eaa4 4f33 3131 ba31 77d3 4f33
000002b0: 79a7 b631 2b61 5033 7341 b431 6b70 5033
000002c0: 5207 b531 aa64 5033 2cc5 9931 7264 5033
000002d0: f458 8331 4667 5033 0abe 9f31 e48e 5033
000002e0: b4c4 9c31 3de0 5033 7770 7532 2747 d833
000002f0: 1d0b 7a32 6b97 d833 9538 7f32 7977 d833
00000300: ef1d 5432 a637 d833 2542 4732 5f53 d833
00000310: 970a 3432 bc30 d833 3444 3232 f121 d833
00000320: c1b3 2d32 9614 d833 afea fc31 d1e2 d733
00000330: 85f0 fd31 7b0d d833 d746 f931 2af0 d733
00000340: 3f5c ed31 eee6 d733 beaf da31 afef d733
00000350: c7d7 d631 f7ed d733 151b d731 67c8 d733
00000360: 8af5 c631 f0bc d733 3e48 ae31 c6c8 d733
00000370: bd54 9231 e705 d833 7952 4c31 83fd d733
00000380: fd2f 4a31 8d23 d833 bac2 4131 451c d833
00000390: 54da 8e31 e758 d833 fef6 b531 5a66 d833
000003a0: 0a29 c231 b383 d833 2508 2232 7720 e233
000003b0: 2a5a 5f32 5b2d e233 423f 6332 452a e233
000003c0: b455 6432 3b32 e233 7a8c 6432 6b41 e233
000003d0: 6995 6f32 3f5c e233 c7e4 6e32 57a7 e233
000003e0: 34d9 a22f 39b1 a333 7626 b72f f4ae a333
000003f0: f65a 9b2f e7ac a333 2ee6 812f eda8 a333
1.2102924e-10 1.1132287e-09 1.3325861e-10 1.1131067e-09 1.3439404e-10 1.11309e-09 1.5373448e-10 1.1135727e-09
1.3348336e-10 1.114347e-09 1.2972597e-10 1.1141332e-09 1.2968636e-10 1.125133e-09 1.2532667e-10 1.1537793e-09
1.6290533e-10 1.153671e-09 1.8591134e-10 1.1690919e-09 1.9008745e-10 1.1763348e-09 5.545961e-10 1.1756677e-09
5.6495525e-10 1.1760659e-09 5.4697047e-10 1.1800636e-09 7.139806e-10 1.1837793e-09 1.1603182e-09 1.1755048e-09
1.1929577e-09 1.1735447e-09 1.8371824e-09 1.1762104e-09 3.5917487e-09 1.148607e-09 3.5904217e-09 1.1507466e-09
3.7404675e-09 1.1403418e-09 3.84241e-09 1.1388425e-09 4.2476427e-09 1.1532744e-09 4.268576e-09 1.1568737e-09
3.8435344e-09 1.331188e-09 4.1803543e-09 1.329823e-09 4.2112145e-09 1.3305915e-09 4.2183417e-09 1.3415585e-09
4.237115e-09 1.3405278e-09 4.124451e-09 1.3511811e-09 4.1271617e-09 1.3561114e-09 6.1485866e-10 1.3693677e-08
7.971379e-10 1.3676192e-08 8.0531676e-10 1.36765586e-08 6.4398287e-10 1.3683952e-08 3.1570732e-10 1.368144e-08
2.391155e-10 1.3675618e-08 5.2280118e-11 1.3638985e-08 4.711384e-11 1.3668798e-08 4.5996665e-11 1.3608971e-08
8.903643e-11 1.3568662e-08 1.1290228e-10 1.3569133e-08 1.2035874e-10 1.3552172e-08 7.247941e-11 1.35533655e-08
1.3975492e-10 1.3551458e-08 1.2358758e-09 1.3556476e-08 1.451233e-09 1.3538137e-08 1.472273e-09 1.3535076e-08
1.9380628e-09 1.3545278e-08 2.2573046e-09 1.3580782e-08 2.2277777e-09 1.3574907e-08 2.16898e-09 1.3554365e-08
2.3394549e-09 1.3553816e-08 3.1202756e-09 1.35773845e-08 3.2327097e-09 1.3591132e-08 4.0039776e-09 1.3809826e-08
4.086559e-09 1.3807903e-08 4.091955e-09 1.38047325e-08 4.123354e-09 1.3793657e-08 4.143125e-09 1.3791462e-08
3.3207586e-09 1.3786715e-08 3.331956e-09 1.377526e-08 1.8627935e-08 4.7542716e-08 1.8758728e-08 4.763031e-08
1.8947588e-08 4.763815e-08 1.8714239e-08 4.7627115e-08 1.9602071e-08 4.766514e-08 1.9312619e-08 4.7655416e-08
1.9630432e-08 4.7718945e-08 1.9597639e-08 4.7672447e-08 1.9136563e-08 4.7656883e-08 2.0411784e-08 4.7897487e-08
2.1037621e-08 4.7805106e-08 2.1920872e-08 4.7824116e-08 2.0834817e-08 4.7928623e-08 2.0096268e-08 4.8017505e-08
1.8948707e-08 4.80295e-08 1.2581514e-08 4.8218066e-08 1.0623876e-08 4.8207127e-08 8.463932e-09 4.8236167e-08
6.5362125e-09 4.8287063e-08 5.6042886e-09 4.833222e-08 5.2605666e-09 4.834784e-08 5.0708344e-09 4.8324882e-08
5.3548286e-09 4.834593e-08 5.418905e-09 4.838827e-08 5.3159366e-09 4.8517148e-08 5.24613e-09 4.8531017e-08
5.2686255e-09 4.8520327e-08 4.475302e-09 4.852013e-08 3.8227146e-09 4.85227e-08 4.649114e-09 4.8558732e-08
4.56256e-09 4.8632717e-08 1.42864485e-08 1.0071226e-07 1.4554442e-08 1.00858266e-07 1.4855819e-08 1.0080016e-07
1.234683e-08 1.0068406e-07 1.1598364e-08 1.0073449e-07 1.0479787e-08 1.00671485e-07 1.0376471e-08 1.0064458e-07
1.0110797e-08 1.00620284e-07 7.3608457e-09 1.0052975e-07 7.390613e-09 1.0060736e-07 7.2549073e-09 1.0055403e-07
6.908095e-09 1.00537235e-07 6.3646146e-09 1.0055316e-07 6.2527508e-09 1.0055003e-07 6.2604024e-09 1.0048171e-07
5.790473e-09 1.0046085e-07 5.0722795e-09 1.0048238e-07 4.258793e-09 1.00593574e-07 2.9732787e-09 1.0057831e-07
2.9422147e-09 1.00647505e-07 2.8195886e-09 1.0063426e-07 4.157565e-09 1.0074455e-07 5.295873e-09 1.00769014e-07
5.6508087e-09 1.008224e-07 9.431493e-09 1.05298504e-07 1.3000809e-08 1.0532195e-07 1.3227522e-08 1.0531634e-07
1.3290833e-08 1.0533082e-07 1.3303287e-08 1.05358446e-07 1.3945603e-08 1.05407246e-07 1.3905441e-08 1.0554384e-07
2.962196e-10 7.6225156e-08 3.3314834e-10 7.622103e-08 2.8258967e-10 7.62173e-08 2.3628516e-10 7.6210064e-08
