results/49200Steps=577-578/3DBall/checkpoint.pt (torch, 499426 bytes, 47 tensors)

network_body.observation_encoder.processors.0.normalizer.running_mean f4 [22]
0.0054531046 5.437759 0.006636914 5.4555373 0.009200489 5.4741344 0.013479785 5.4951572
0.020088742 5.519084 0.029763129 5.5467844 0.039971415 5.576426 0.0469223 5.6065893
0.04744823 5.626887 0.0411533 5.6307635 0.033230547 5.6172895
00000000: f5af b23b 1f02 ae40 787a d93b c393 ae40
00000010: a6bd 163c 1c2c af40 51da 5c3c 54d8 af40
00000020: 2591 a43c 569c b040 ced1 f33c 427f b140
00000030: 11b9 233d 1572 b240 9931 403d 2e69 b340
00000040: 1359 423d 750f b440 5d90 283d 372f b440
00000050: c11c 083d d6c0 b340

network_body.observation_encoder.processors.0.normalizer.running_variance f4 [22]
2713.124 4.0945332e+07 3297.9785 4.0948412e+07 4559.677 4.093595e+07 6651.1313 4.093034e+07
9845.19 4.0904404e+07 14441.994 4.0860096e+07 19191.021 4.0808384e+07 22364.96 4.076618e+07
22603.162 4.07413e+07 19734.066 4.0746988e+07 16066.778 4.076905e+07
00000000: fc91 2945 ad31 1c4c a81f 4e45 af34 1c4c
00000010: 6a7d 8e45 8428 1c4c 0dd9 cf45 0923 1c4c
00000020: c3d4 1946 b509 1c4c faa7 6146 70de 1b4c
00000030: 0bee 9546 f0ab 1b4c ecb9 ae46 b982 1b4c
00000040: 5396 b046 6d6a 1b4c 222c 9a46 fb6f 1b4c
00000050: 1d0b 7b46 8685 1b4c

network_body.processors.0.normalizer.running_mean f4 [22]
0.0054531046 5.437759 0.006636914 5.4555373 0.009200489 5.4741344 0.013479785 5.4951572
0.020088742 5.519084 0.029763129 5.5467844 0.039971415 5.576426 0.0469223 5.6065893
0.04744823 5.626887 0.0411533 5.6307635 0.033230547 5.6172895
00000000: f5af b23b 1f02 ae40 787a d93b c393 ae40
00000010: a6bd 163c 1c2c af40 51da 5c3c 54d8 af40
00000020: 2591 a43c 569c b040 ced1 f33c 427f b140
00000030: 11b9 233d 1572 b240 9931 403d 2e69 b340
00000040: 1359 423d 750f b440 5d90 283d 372f b440
00000050: c11c 083d d6c0 b340

network_body.processors.0.normalizer.running_variance f4 [22]
2713.124 4.0945332e+07 3297.9785 4.0948412e+07 4559.677 4.093595e+07 6651.1313 4.093034e+07
9845.19 4.0904404e+07 14441.994 4.0860096e+07 19191.021 4.0808384e+07 22364.96 4.076618e+07
22603.162 4.07413e+07 19734.066 4.0746988e+07 16066.778 4.076905e+07
00000000: fc91 2945 ad31 1c4c a81f 4e45 af34 1c4c
00000010: 6a7d 8e45 8428 1c4c 0dd9 cf45 0923 1c4c
00000020: c3d4 1946 b509 1c4c faa7 6146 70de 1b4c
00000030: 0bee 9546 f0ab 1b4c ecb9 ae46 b982 1b4c
00000040: 5396 b046 6d6a 1b4c 222c 9a46 fb6f 1b4c
00000050: 1d0b 7b46 8685 1b4c

network_body._body_endoder.seq_layers.0.weight f4 [128, 22]
-0.16506399 -0.1312488 -0.16695412 -0.14547881 -0.37419343 -0.44661283 -0.27314734 -0.16234726
-0.110207915 -0.13092943 -0.21955153 -0.26352587 0.082883686 0.020331072 0.19705111 0.21506952
-0.62275386 0.06492121 -0.033800725 -0.19369978 0.17448944 -0.13713859 0.24576965 0.03734484
0.5770493 -0.10191495 0.004550592 0.36892986 0.28279632 -0.060260266 -0.13053007 0.0055402243
0.11399904 -0.16502468 0.4342363 0.13772282 0.3672888 0.08406945 -0.085147575 0.16732503
0.1631128 0.2691049 -0.30799097 -0.17109288 0.03315588 -0.4786135 -0.018425796 -0.11162327
-0.10434956 -0.14620753 -0.13140368 -0.21081151 -0.40473703 -0.17341131 -0.5193316 0.07454198
0.30110905 -0.055593032 0.35586217 -0.028006684 -0.22403792 0.07904745 -0.08661998 -0.03753215
-0.11660678 -0.2075107 0.10086491 0.10776768 -0.29544413 0.05238135 0.40466186 0.09560265
0.20126629 -0.22273166 0.013429647 0.14633437 0.31156656 -0.19684683 0.237419 -0.40108782
0.06688223 0.20334741 -0.27338195 -0.09653062 -0.16614763 0.09358077 -0.030033484 0.16803344
-0.08247546 -0.04593325 -0.51343787 -0.3056563 -0.44393265 0.31292185 0.33115587 0.040077973
-0.10292335 0.08133392 -0.2127196 -0.074054584 -0.17717661 0.07151118 -0.47328594 -0.3379395
0.33414254 -0.16943711 -0.110213235 0.15106408 0.09103791 -0.02688552 -0.06097918 -0.021699566
0.2608611 -0.262615 -0.077983834 -0.08872152 -0.03709582 -0.2608573 -0.10375245 -0.08597321
-0.17678618 -0.21631718 -0.10844656 -0.118682 0.033896696 -0.25150377 0.13907067 -0.17515217
0.210678 -0.11840289 0.023742083 0.08968839 -0.23965442 0.10470881 -0.34762892 -0.53948206
0.11394252 0.014117377 -0.23217903 0.3254928 0.24108583 0.2360155 -0.2050368 0.09825037
-0.14097348 0.3641019 0.061536353 0.011460051 -0.3693613 0.046642724 -0.244536 -0.07628823
0.15939358 -0.23316124 -0.0018187036 0.20506985 -0.035069507 0.12660511 -0.068702005 0.49730873
-0.25064534 -0.36321753 -0.16946012 0.06585017 -0.15440863 -0.06531986 -0.20559512 -0.62567407
0.33384222 -0.058722626 0.29934603 -0.061074667 0.14013472 -0.2041636 -0.12729348 -0.27559212
-0.21528535 -0.30346343 0.21046905 -0.48767948 -0.096932754 0.017964821 0.056287803 -0.32255298
-0.64693886 0.15647249 -0.039047547 0.12134621 0.23278248 -0.25156465 0.27977952 0.18940838
-0.013432236 0.085247055 0.03371717 0.09341598 0.06727945 0.4145875 -0.018679185 0.097576685
0.15389657 -0.298525 -0.18501279 0.42090943 0.14617978 -0.039630204 -0.10866766 -0.16876662
0.0070450325 -0.05649963 0.064161055 0.15561765 0.12483647 -0.07499043 -0.2843032 0.06932775
0.12012356 0.11644844 -0.12224875 0.24986066 -0.18115447 -0.03304723 -0.10657468 -0.19737566
-0.09673599 0.1369643 -0.17078201 -0.2539516 -0.335358 0.157814 -0.0691532 -0.0672354
0.2160365 -0.2235768 0.3709768 -0.05872718 -0.2731818 -0.049475566 0.43885854 0.17705119
-0.1952649 0.37791857 -0.022535345 -0.13504587 0.1339159 0.2624633 -0.29905283 -0.11264726
-0.13724713 0.2014364 0.015035996 -0.14689432 0.08695373 0.021381484 -0.24363095 0.16439073
00000000: 8906 29be 1666 06be 05f6 2abe 66f8 14be
00000010: 4896 bfbe 70aa e4be f8d9 8bbe 5c3e 26be
00000020: b0b4 e1bd 5d12 06be 1ed2 60be ddec 86be
00000030: ecbe a93d 598d a63c c4c7 493e 2f3b 5c3e
00000040: cc6c 1fbf 69f5 843d a172 0abd 3c59 46be
00000050: 5cad 323e 0f6e 0cbe 0aab 7b3e e7f6 183d
00000060: 81b9 133f c9b8 d0bd 221d 953b 60e4 bc3e
00000070: aeca 903e 78d3 76bd ada9 05be c58a b53b
00000080: 5478 e93d 3bfc 28be 3854 de3e 3607 0d3e
00000090: 470d bc3e 9b2c ac3d da61 aebd 4157 2b3e
000000a0: 0b07 273e 1ec8 893e feb0 9dbe f932 2fbe
000000b0: 76ce 073d d40c f5be b2f1 96bc be9a e4bd
000000c0: 39b5 d5bd 6db7 15be b08e 06be f9de 57be
000000d0: b139 cfbe bc92 31be eaf2 04bf 77a9 983d
000000e0: f72a 9a3e 85b5 63bd 9133 b63e 466e e5bc
000000f0: 326a 65be a1e3 a13d d165 b1bd 50bb 19bd
00000100: 89cf eebd af7d 54be 4392 ce3d 4db5 dc3d
00000110: 7444 97be d48d 563d d72f cf3e 52cb c33d
00000120: c018 4e3e c513 64be 0608 5c3c add8 153e
00000130: a785 9f3e 3792 49be f71d 733e 625b cdbe
00000140: 8df9 883d 4e3a 503e b8f8 8bbe d8b1 c5bd
00000150: 9b22 2abe 46a7 bf3d c808 f6bc f510 2c3e
00000160: e5e8 a8bd 8124 3cbd aa70 03bf fc7e 9cbe
00000170: 244b e3be 4b37 a03e 438d a93e cd28 243d
00000180: 7ac9 d2bd 6692 a63d 2bd3 59be eea9 97bd
00000190: c96d 35be 7474 923d 8952 f2be 6806 adbe
000001a0: bb14 ab3e ec80 2dbe 7ab7 e1bd 8bb0 1a3e
000001b0: 1572 ba3d 063f dcbc 4ec5 79bd 4ac3 b1bc
000001c0: 968f 853e 7975 86be fdb5 9fbd a1b3 b5bd
000001d0: c9f1 17bd 178f 85be 2a7c d4bd b912 b0bd
000001e0: 7007 35be 4082 5dbe 3b19 debd 8c0f f3bd
000001f0: 43d7 0a3d 1ac5 80be 8b68 0e3e 175b 33be
00000200: f9bb 573e 377d f2bd c27e c23c 8cae b73d
00000210: f867 75be 9371 d63d 6bfc b1be 7f1b 0abf
00000220: b25a e93d 924c 673c 57c0 6dbe fea6 a63e
00000230: 34df 763e 0cae 713e 2bf5 51be 7d37 c93d
00000240: 5a5b 10be 906b ba3e 8b0d 7c3d f0c2 3b3c
00000250: ed1c bdbe 710c 3f3d a567 7abe 013d 9cbd
00000260: 1238 233e d2c1 6ebe 9161 eeba d5fd 513e
00000270: 0ba5 0fbd c5a4 013e a3b3 8cbd 409f fe3e
00000280: 9654 80be a6f7 b9be f486 2dbe 74dc 863d
00000290: 4c1d 1ebe 6bc6 85bd 8787 52be 2d2c 20bf
000002a0: 5eed aa3e 2387 70bd e243 993e 6e29 7abd
000002b0: 7a7f 0f3e 4310 51be 3959 02be 691a 8dbe
000002c0: c373 5cbe 8f5f 9bbe 3385 573e 20b1 f9be
000002d0: ae84 c6bd f62a 933c 0a8e 663d aa25 a5be
000002e0: c99d 25bf 533a 203e 52f0 1fbd 5d84 f83d
000002f0: 885e 6e3e 15cd 80be 433f 8f3e 45f4 413e
00000300: e212 5cbc 0296 ae3d 041b 0a3d e150 bf3d
00000310: cfc9 893d d044 d43e 1705 99bc 49d6 c73d
00000320: 1097 1d3e 45d8 98be fe73 3dbe 7181 d73e
00000330: 27b0 153e 4853 22bd 268d debd 28d1 2cbe
00000340: 04da e63b 286c 67bd df66 833d 3c5a 1f3e
00000350: 43aa ff3d 9594 99bd 3090 91be b5fb 8d3d
00000360: 5703 f63d 857c ee3d 8d5d fabd 79db 7f3e
00000370: 8f80 39be 885c 07bd d343 dabd d81c 4abe
00000380: 851d c6bd 5f40 0c3e 7be1 2ebe f205 82be
00000390: 0bb4 abbe fe99 213e 31a0 8dbd b7b2 89bd
000003a0: ac38 5d3e 51f1 64be acf0 bd3e e98b 70bd
000003b0: 7cde 8bbe e4a6 4abd 11b2 e03e e84c 353e
000003c0: 86f3 47be 8b7e c13e 0b9c b8bc 7749 0abe
000003d0: 4021 093e 9761 863e 741d 99be 9bb3 e6bd
000003e0: 838a 0cbe 5845 4e3e 8a59 763c 776b 16be
000003f0: cc14 b23d 3928 af3c 647a 79be 0b56 283e

network_body._body_endoder.seq_layers.0.bias f4 [128]
0.046851926 0.008498198 0.08716597 -0.09688577 0.0459099 0.00633895 0.044800576 0.022761706
-0.00022430679 -0.01889185 0.025610516 -0.03123418 -0.023245128 0.060707465 -0.015680991 -0.06290461
0.098645106 0.006758365 0.08866572 0.02117433 0.010402362 -0.069146976 0.059998795 -0.018553138
-0.04435905 -0.022430735 -0.056746155 -0.08543805 -0.05523243 -0.017829828 -0.08054538 -0.06500402
-0.05065546 0.07485687 0.030656746 -0.018840611 -0.02712672 0.0008913761 0.030583432 0.030073218
-0.039743505 0.011296517 -0.0046092845 -0.04828362 -0.06664825 0.031625506 0.062944986 0.085082576
-0.05739789 -0.061824802 -0.04189724 -0.025669724 0.04809998 0.009930009 -0.049194854 0.025442254
-0.010461548 -0.014236356 0.08695946 0.06407594 -0.0102798315 -0.07788363 0.042572815 -0.059088822
0.060131606 -0.10275815 -0.04193951 0.029991046 -0.0012899749 -0.093959555 0.12754501 0.00054215663
0.017821489 -0.014971368 0.020603238 -0.059911948 0.08509534 0.048832875 -0.052359942 -0.035482723
0.022656815 0.04123365 0.044405874 -0.08071139 0.08926492 -0.06480655 -0.03496403 -0.069886945
-0.015204309 -0.05389374 -0.002059389 -0.04948754 -0.109045036 0.016368741 -0.07487295 0.051977914
-0.04968661 0.009700123 0.04153852 0.01572179 -0.01984405 -0.028346682 0.015439165 -0.02387504
-0.09927814 0.04143846 -0.03234751 0.014787735 0.033478025 -0.003517102 -0.0045224302 0.051278442
0.06509388 0.08872339 0.06872515 0.009799101 -0.003641273 0.039621063 0.00022380734 -0.07087309
-0.06288371 -0.092749506 -0.034019772 0.09963862 -0.022651242 0.012084079 -0.064531304 0.09119953
00000000: cee7 3f3d 073c 0b3c 1284 b23d 0c6c c6bd
00000010: 050c 3c3d f7b6 cf3b cf80 373d c276 ba3c
00000020: e533 6bb9 15c3 9abc 25cd d13c d3de ffbc
00000030: 916c bebc 64a8 783d 6c75 80bc 22d4 80bd
00000040: 7206 ca3d 4675 dd3b 5f96 b53d ca75 ad3c
00000050: ab6e 2a3c ee9c 8dbd 4cc1 753d c0fc 97bc
00000060: d6b1 35bd a9c0 b7bc a86e 68bd 25fa aebd
00000070: 673b 62bd dc0f 92bc faf4 a4bd d420 85bd
00000080: 1a7c 4fbd 8f4e 993d db23 fb3c a057 9abc
00000090: db38 debc 3dab 693a 1b8a fa3c 1c5c f63c
000000a0: 16ca 22bd 0715 393c 7b09 97bb 0cc5 45bd
000000b0: e17e 88bd bf89 013d 4de9 803d c63f ae3d
000000c0: 0d1a 6bbd 013c 7dbd 719c 2bbd 5049 d2bc
000000d0: 7c04 453d 7ab1 223c 8b80 49bd 466c d03c
000000e0: ea66 2bbc 9b3f 69bc cd17 b23d 3f3a 833d
000000f0: bd6c 28bc 7481 9fbd d560 2e3d 1f07 72bd
00000100: 8f4c 763d dd72 d2bd c3c8 2bbd c8af f53c
00000110: 6014 a9ba de6d c0bd 299b 023e 841f 0e3a
00000120: 5ffe 913c 784a 75bc 1fc8 a83c 3b66 75bd
00000130: 7746 ae3d fb04 483d 6177 56bd 5556 11bd
00000140: c99a b93c 9ee4 283d efe2 353d 034c a5bd
00000150: 87d0 b63d 4cb9 84bd 7136 0fbd e320 8fbd
00000160: 7e1b 79bc afbf 5cbd d0f6 06bb 72b3 4abd
00000170: 0153 dfbd bd17 863c fd56 99bd cbe6 543d
00000180: 3084 4bbd 44ed 1e3c 4c24 2a3d fcca 803c
00000190: fd8f a2bc 4d37 e8bc 8df4 7c3c 9695 c3bc
000001a0: 5652 cbbd 60bb 293d d37e 04bd 4248 723c
000001b0: 4120 093d 2e7f 66bb e530 94bb 5809 523d
000001c0: f14f 853d 9cb4 b53d c5bf 8c3d 698c 203c
000001d0: 6ca2 6ebb b249 223d d3ad 6a39 e925 91bd
000001e0: 2dc9 80bd 74f3 bdbd 5158 0bbd 550f cc3d
000001f0: 198f b9bc 4dfc 453c fd28 84bd d2c6 ba3d

network_body._body_endoder.seq_layers.2.weight f4 [128, 128]
-0.08230532 0.08293139 -0.12351003 0.05775906 0.09785795 -0.057190735 -0.0380049 -0.016160646
-0.12718056 -0.15650423 -0.16101307 -0.046745345 -0.06822313 0.0052894736 0.07073645 -0.033144075
-0.11503911 -0.076107755 0.12535307 -0.058320988 -0.12952363 -0.069468595 -0.065099716 0.010931406
-0.00086141843 -0.019096486 0.089625336 0.107042104 -0.005459497 -0.16025655 0.16607524 0.09293096
0.15608838 -0.033249695 -0.061221667 -0.0033632328 0.010611181 -0.063409545 0.1406779 0.028701216
-0.0073149055 -0.04722778 -0.0411269 -0.023423934 0.19982162 -0.1492059 -0.007952981 -0.040381193
0.11022744 0.12362511 0.12308372 -0.015027447 -0.035008546 -0.07026633 0.06719613 -0.029686796
-0.13299783 -0.025743358 -0.1075154 -0.034754023 0.097814746 0.075869806 -0.029233914 0.031019436
-0.19781765 -0.0040482613 -0.07005835 -0.051795483 -0.10843697 -0.05774193 -0.14141731 0.106597885
0.09879605 -0.2051992 -0.017698368 0.057736002 -0.067557916 -0.05445649 0.08683531 -0.06983175
0.0110499915 -0.08336337 -0.012765487 0.0053457343 -0.19193983 0.033223458 -0.023259452 0.03143541
0.10041423 -0.008769117 -0.051051598 0.024048544 0.15043078 -0.20721593 0.07311943 0.019274844
0.13278514 -0.14119166 -0.07592651 -0.097456574 0.17060666 -0.10838837 -0.07170136 -0.00955401
-0.10869218 -0.1455494 0.0072812587 -0.19587459 -0.068383515 0.015478224 0.02005786 0.058734313
0.00995285 0.019375117 -0.008274589 0.03712361 0.026766 0.16064002 -0.055153217 -0.037181254
0.0073720245 0.05842485 -0.00967268 -0.093298435 0.102763236 -0.10191103 0.081926525 -0.037228145
0.15824811 0.014022657 -0.04636896 -0.028814463 -0.06902003 0.048539955 -0.1418052 0.020695712
-0.055778604 0.06946065 -0.13549675 0.075491 0.16733086 0.06361133 -0.105187684 -0.04787974
0.07973925 -0.24626848 0.009362142 -0.07532321 0.039721835 0.10710218 0.044353247 -0.060989268
0.0408032 0.0037663796 0.08260102 -0.1540868 -0.1363386 -0.106723756 -0.26554027 0.010064167
-0.10526975 -0.05154168 -0.13857776 -0.089767486 -0.20603487 0.054918323 -0.049441364 0.0034172041
-0.1369915 0.052362125 0.03128228 -0.14184763 0.07991268 0.016611552 0.088892356 0.025049888
0.083466314 -0.061607964 0.2288069 0.09693093 0.05483263 -0.10926647 -0.107235864 -0.04823718
-0.018234704 0.09891454 -0.07579313 0.030935878 -0.13389465 -0.0809483 -0.0050988644 -0.05951705
0.045858297 0.1826379 -0.07941068 -0.1345955 -0.020033812 0.077572666 -0.047479343 -0.070498444
-0.06631513 -0.0024125518 -0.035200812 0.11701698 0.04556414 -0.043403715 -0.06837499 -0.13609445
-0.13021919 -0.03997657 -0.06205399 -0.11688158 -0.121989146 -0.11617254 -0.042672254 -0.0055063334
0.047147106 0.18090811 -0.09542246 -0.08538904 0.06857988 -0.093137555 0.014762356 -0.072132625
0.049309857 0.07357336 -0.024291966 0.029116713 0.038832515 -0.07919289 -0.16567896 0.23150541
0.030823357 -0.06894927 -0.11957552 0.03023562 -0.14856486 -0.08224386 -0.048447337 -0.07393299
0.035657212 -0.09769081 0.0057513746 -0.09294014 0.14336142 0.09510157 0.049640667 -0.032803696
-0.25504306 -0.10546266 -0.030691925 0.058304597 -0.115365736 -0.0681172 -0.05117876 0.11546748
00000000: b18f a8bd efd7 a93d d4f2 fcbd c494 6c3d
00000010: c069 c83d d540 6abd 07ab 1bbd 5563 84bc
00000020: 9f3b 02be a542 20be 9ce0 24be 0c78 3fbd
00000030: 92b8 8bbd 5253 ad3b 46de 903d 15c2 07bd
00000040: a099 ebbd 62de 9bbd 8e5c 003e fde1 6ebd
00000050: d8a1 04be 8d45 8ebd 0053 85bd a419 333c
00000060: d0d0 61ba 3c70 9cbc 7d8d b73d e438 db3d
00000070: 95e5 b2bb 4b1a 24be a10f 2a3e 9652 be3d
00000080: a2d5 1f3e d530 08bd 92c3 7abd af69 5cbb
00000090: 85da 2d3c dddc 81bd de0d 103e d01e eb3c
000000a0: e0b1 efbb eb71 41bd ae74 28bd 8de3 bfbc
000000b0: 0a9e 4c3e 6ec9 18be 384d 02bc c066 25bd
000000c0: edbe e13d 292f fd3d 5113 fc3d ae35 76bc
000000d0: 1f65 0fbd cbe7 8fbd 209e 893d b931 f3bc
000000e0: 9530 08be bce3 d2bc 0931 dcbd 3c5a 0ebd
000000f0: 1953 c83d a161 9b3d f67b efbc 791c fe3c
00000100: b690 4abe 47a7 84bb c17a 8fbd 8027 54bd
00000110: 3414 debd cd82 6cbd b3cf 10be fe4f da3d
00000120: 9555 ca3d bd1f 52be 2bfc 90bc 967c 6c3d
00000130: ce5b 8abd c50d 5fbd b6d6 b13d f303 8fbd
00000140: 060b 353c 6aba aabd 5526 51bc 452b af3b
00000150: e08b 44be 5215 083d 9b8a bebc 6bc2 003d
00000160: faa5 cd3d 58ac 0fbc 7b1b 51bd 7401 c53c
00000170: 870a 1a3e 6a30 54be a4bf 953d 47e6 9d3c
00000180: d4f8 073e 8c94 10be 5c7f 9bbd 5097 c7bd
00000190: 83b3 2e3e b9fa ddbd 2ad8 92bd 6c88 1cbc
000001a0: 019a debd e70a 15be a097 ee3b 5993 48be
000001b0: a80c 8cbd 6098 7d3c 6250 a43c 6493 703d
000001c0: 4711 233c 91b8 9e3c 2492 07bc ed0e 183d
000001d0: 5f44 db3c d17e 243e 57e8 61bd 5f4b 18bd
000001e0: 0691 f13b e54e 6f3d 297a 1ebc 4013 bfbd
000001f0: 8875 d23d bbb6 d0bd 18c9 a73d 8a7c 18bd
00000200: cb0b 223e 49bf 653c 61ed 3dbd 4f0c ecbc
00000210: 605a 8dbd d5d1 463d 6235 11be 0e8a a93c
00000220: 1b78 64bd 6341 8e3d a9bf 0abe 079b 9a3d
00000230: c858 2b3e a846 823d a46c d7bd 8c1d 44bd
00000240: 554e a33d ce2d 7cbe ab63 193c 0e43 9abd
00000250: 5db3 223d 6358 db3d c0ab 353d e2cf 79bd
00000260: 4221 273d 5dd5 763b b92a a93d eec8 1dbe
00000270: 599c 0bbe fc91 dabd e5f4 87be 2de4 243c
00000280: ab97 d7bd 5e1d 53bd 54e7 0dbe 04d8 b7bd
00000290: cefa 52be 09f2 603d 0783 4abd 2cf3 5f3b
000002a0: 8047 0cbe ab79 563d d921 003d 8140 11be
000002b0: 42a9 a33d f314 883c 320d b63d 6c35 cd3c
000002c0: 63f0 aa3d a258 7cbd 5b4c 6a3e b983 c63d
000002d0: 2e98 603d 19c7 dfbd 7a9e dbbd 5994 45bd
000002e0: f260 95bc b593 ca3d 6e39 9bbd 3d6d fd3c
000002f0: ae1b 09be 39c8 a5bd 6014 a7bb 26c8 73bd
00000300: e9d5 3b3d 6e05 3b3e 11a2 a2bd 67d3 09be
00000310: f31d a4bc 6bde 9e3d b379 42bd 7d61 90bd
00000320: 3ad0 87bd e71b 1ebb ba2e 10bd 99a6 ef3d
00000330: 77a1 3a3d 18c8 31bd 3008 8cbd 585c 0bbe
00000340: 2e58 05be 79be 23bd 532c 7ebd 9c5f efbd
00000350: 72d5 f9bd deeb edbd 1ac9 2ebd 796e b4bb
00000360: 531d 413d fa3f 393e da6c c3bd 73e0 aebd
00000370: 9c73 8c3d e7be bebd cfdd 713c 45ba 93bd
00000380: 22f9 493d a1ad 963d f2ff c6bc 2c86 ee3c
00000390: d80e 1f3d e22f a2bd bfa7 29be c10f 6d3e
000003a0: 4481 fc3c 4635 8dbd 03e4 f4bd b1b0 f73c
000003b0: 6321 18be 786f a8bd b770 46bd 2e6a 97bd
000003c0: 4c0d 123d 1f12 c8bd 0776 bc3b 6657 bebd
000003d0: 56cd 123e 9dc4 c23d 0354 4b3d 2b5d 06bd
000003e0: 0195 82be cffc d7bd a26d fbbc cdd0 6e3d
000003f0: df44 ecbd 0881 8bbd d2a0 51bd 377a ec3d

network_body._body_endoder.seq_layers.2.bias f4 [128]
-0.1212103 -0.007066141 -0.008125914 -0.09033119 -0.058859367 0.072595134 0.07564069 -0.04262377
-0.014292519 -0.12685381 -0.0897427 -0.057422526 -0.010129456 -0.07143089 -0.06551951 -0.024501171
-0.023164751 -0.05165917 -0.06452411 0.0044113165 0.074498504 0.0050731543 -0.1166468 -0.034264326
0.06949299 -0.07519461 -0.036839887 -0.10160324 0.032769337 0.09557279 0.035347793 0.082478896
0.036316916 -0.017602822 0.028150985 -0.0677723 -0.043337885 0.022541592 -0.066998415 0.055804346
-0.08522938 -0.018634113 -0.066608064 -0.08990019 0.03322376 -0.06738917 0.05035364 0.0979763
-0.058447476 -0.046334352 0.025476016 0.035641372 -0.07114859 0.0069169425 -0.067053795 -0.08189513
0.023984943 -0.0526725 0.020877905 -0.071189724 -0.03791501 0.007924194 -0.034392197 -0.05429198
0.019760016 0.0013308052 -0.02055891 0.0343107 0.059720658 0.09665834 0.06138343 0.066536084
-0.05701938 -0.012091212 -0.07797292 -0.10692665 -0.029269645 0.00015254391 0.026279349 0.007334235
0.011721273 0.009135912 -0.06458981 0.019525722 0.019390821 -0.051791836 -0.040880412 -0.003432607
-0.008820061 0.05747881 -0.05325589 0.020715062 -0.0016568897 -0.09507973 0.038737956 -0.007548576
0.037903477 -0.078569576 -0.017534865 0.0915651 0.013239667 0.052975114 -0.051811088 0.0885433
-0.0059071397 -0.026839029 -0.08610877 0.09629206 0.021990277 -0.0011835692 -0.024091221 -0.068186015
0.037022185 0.08178732 0.09599064 0.017754298 0.052872922 0.070464015 -0.02498039 -0.054165557
-0.098445445 0.0028685702 -0.050694447 0.039631777 -0.074016646 -0.093158565 -0.039219618 0.09515706
00000000: 1b3d f8bd 168b e7bb 8e22 05bc 8fff b8bd
00000010: 8516 71bd c2ac 943d 82e9 9a3d 4396 2ebd
00000020: 2b2b 6abc f7e5 01be 05cb b7bd e233 6bbd
00000030: 05f6 25bc 5c4a 92bd 182f 86bd aeb6 c8bc
00000040: 01c4 bdbc 9198 53bd 3725 84bd ce8c 903b
00000050: ac92 983d b43c a63b 84e4 eebd c058 0cbd
00000060: 5752 8e3d a2ff 99bd 6ce5 16bd 5c15 d0bd
00000070: 2439 063d abbb c33d d9c8 103d b2ea a83d
00000080: 0cc1 143d cb33 90bc e59c e63c 34cc 8abd
00000090: 1183 31bd 25a9 b83c 7736 89bd 1993 643d
000000a0: be8c aebd 91a6 98bc cf69 88bd 971d b8bd
000000b0: a315 083d 5503 8abd 9e3f 4e3d cca7 c83d
000000c0: 9f66 6fbd 17c9 3dbd 14b3 d03c b0fc 113d
000000d0: 5ab6 91bd 85a7 e23b 8053 89bd a2b8 a7bd
000000e0: 127c c43c 1fbf 57bd 2408 ab3c ebcb 91bd
000000f0: c54c 1bbd 7bd4 013c d5de 0cbd 4461 5ebd
00000100: c2df a13c 6a6e ae3a 296b a8bc 6089 0c3d
00000110: a69d 743d cff4 c53d 316d 7b3d 1244 883d
00000120: 278d 69bd 381a 46bc 44b0 9fbd 5cfc dabd
00000130: e5c6 efbc 32f4 1f39 ca47 d73c 0654 f03b
00000140: 950a 403c cbae 153c aa47 84bd 68f4 9f3c
00000150: 80d9 9e3c ad23 54bd 3872 27bd 97f5 60bb
00000160: 0482 10bc e76e 6b3d d922 5abd a2b2 a93c
00000170: fe2b d9ba 29b9 c2bd b1ab 1e3d 0c5a f7bb
00000180: ad40 1b3d 16e9 a0bd 47a5 8fbc 7c86 bb3d
00000190: 30eb 583c 6ffc 583d dd37 54bd 3156 b53d
000001a0: ae90 c1bb 86dd dbbc cb59 b0bd c634 c53d
000001b0: f424 b43c fe21 9bba f45a c5bc 1ca5 8bbd
000001c0: 93a4 173d 1c80 a73d be96 c43d 7671 913c
000001d0: 4791 583d 704f 903d ada3 ccbc b4dc 5dbd
000001e0: c49d c9bd 9ffe 3b3b fba4 4fbd ee54 223d
000001f0: 0a96 97bd ebc9 bebd c0a4 20bd b4e1 c23d

action_model._continuous_distribution.log_sigma f4 [1, 3]
-0.10715681 -0.032374993 0.031611264
00000000: 0875 dbbd a49b 04bd d07a 013d

action_model._continuous_distribution.mu.weight f4 [3, 128]
-0.02226686 0.039308824 0.0042099757 -0.065192655 0.005682454 -0.0066233687 -0.0003925732 -0.036097102
-0.0049544973 -0.033300728 -0.005019136 -0.015371238 -0.0062158406 0.01564206 0.013176639 -0.02022556
-0.075649284 0.012585718 -0.058444694 -0.064287014 -0.008778391 -0.023343587 -0.021363953 0.024127742
0.062765054 -0.036343217 -0.07937718 -0.0084669385 0.037847035 0.07693774 0.0451228 0.051214647
-0.019139126 -0.0374459 0.05260565 -0.068569094 0.0037700313 -0.037431613 -0.040158387 -0.008590536
-0.040606458 0.028816996 -0.06382455 0.0068503125 0.027535334 0.013192715 0.08461523 0.06194798
0.0011797432 0.010115355 -0.0022766392 0.0028615887 -0.03780108 0.042306744 -0.024352249 -0.029567119
0.044003256 -0.046737988 -0.051601887 -0.00048945384 -0.034019046 -0.00093324244 -0.079055004 -0.035203602
0.019202441 0.02701528 -0.028907986 0.0070028566 0.0017714042 0.026288703 0.061191756 0.03493566
0.015110174 -0.03483356 -0.012857843 -0.015519379 0.025835713 -0.03541704 0.04082984 0.034268875
0.033952214 -0.0011812189 -0.00027233057 0.043621127 -0.0097771995 0.025841413 -0.020129744 0.050603293
-0.012163027 0.017247155 -0.07349777 0.045921236 0.029859008 -0.034723308 0.0121160345 -0.006759547
0.007021126 0.010970986 -0.00845222 0.06741493 0.05198724 0.001957352 0.0064358013 0.05142293
-0.024571134 0.027030934 -0.03383304 -0.009852356 -0.017581025 0.0029031138 -0.06465017 -0.0044637932
-0.005759068 0.044026926 0.13861963 0.0586826 0.030305713 0.0078374045 -0.016592493 -0.014180628
-0.013810069 0.07156141 -0.04662195 -0.01636259 -0.016441742 -0.023641441 -0.045212537 0.01852604
-0.02987366 -0.051538926 -0.027699959 -0.023150979 0.012600481 0.03487117 0.054472458 0.009299033
0.027547179 -0.035833843 -0.042995304 -0.06409053 0.0040282975 -0.01292793 -0.050227627 -0.058371194
-0.017323896 -0.03437115 -0.019023214 0.0061098696 0.009414888 -0.0063355905 -0.06512597 -0.053289358
-0.000936931 -0.018750653 -0.019821571 -0.014563778 -0.04432127 -0.0045017963 -0.012318891 -0.023830142
0.04325789 0.011974837 -0.053054247 -0.023318097 0.006307918 0.008618978 -0.00029508673 -0.022212718
-0.012908864 -0.064334 -0.0005058817 -0.022377737 -0.07573456 -0.027993236 -0.03279417 0.092283584
-0.025339628 -0.005151025 0.030523516 -0.011414089 -0.00029800975 -0.011361624 -0.018856466 -0.032262202
-0.105331935 0.026063738 0.02448299 -0.012073824 0.008487185 -0.030420907 0.015443391 -0.0383328
0.0412546 -0.010252129 -0.041744824 -0.071209386 -0.018991878 0.0017515946 -0.03280138 -0.0075294436
-0.0307098 0.03570194 -0.016025394 -0.03709063 -0.0006827349 0.035993777 0.005873273 -0.04126231
-0.021281432 0.030500427 -0.02963048 0.019029994 0.042900577 -0.021894144 0.028831564 0.020652045
0.03517517 0.0231534 -0.0028224709 -0.0281035 -0.052241866 -0.027725194 0.051489893 0.07129264
-0.008628363 -0.043068774 0.057482515 -0.030064506 -0.049589083 0.025566813 0.0020261342 -0.03208899
-0.027201546 -0.02916886 -0.032888796 0.022114176 -0.031134976 0.03249719 0.04356101 -0.002061373
-0.034918774 -0.004479606 -0.031735964 -0.07032297 -0.05395102 -0.027395684 0.022364303 0.017118933
-0.028518561 0.018177992 -0.04654327 -0.0025987267 -0.0064239595 -0.038548872 -0.050646927 0.03782174
00000000: fd68 b6bc 4a02 213d d6f3 893b ba83 85bd
00000010: e133 ba3b d808 d9bb 48d2 cdb9 8eda 13bd
00000020: 5659 a2bb 5866 08bd 9077 a4bb a5d7 7bbc
00000030: 40ae cbbb c723 803c d4e2 573c 13b0 a5bc
00000040: 03ee 9abd 5434 4e3c b463 6fbd e9a8 83bd
00000050: 3ed3 0fbc 0d3b bfbc 7503 afbc 8ba7 c53c
00000060: f78a 803d a0dc 14bd 8190 a2bd eab8 0abc
00000070: 7e05 1b3d 8991 9d3d afd2 383d 73c6 513d
00000080: a8c9 9cbc df60 19bd 0679 573d f46d 8cbd
00000090: a112 773b e451 19bd 1f7d 24bd 52bf 0cbc
000000a0: f552 26bd 9f11 ec3c 72b6 82bd 9678 e03b
000000b0: c891 e13c 4226 583c c04a ad3d 2abd 7d3d
000000c0: 9da1 9a3a e0ba 253c ab33 15bb 7e89 3b3b
000000d0: 4ed5 1abd d649 2d3d 5e7e c7bc be36 f2bc
000000e0: c23c 343d 5570 3fbd 805c 53bd b14e 00ba
000000f0: 8e57 0bbd d7a4 74ba 97e7 a1bd a731 10bd
00000100: 704e 9d3c 264f dd3c 71d0 ecbc 3878 e53b
00000110: 762e e83a 685b d73c 35a4 7a3d b218 0f3d
00000120: aa90 773c a3ad 0ebd b4a9 52bc fe44 7ebc
00000130: 6ba5 d33c 7511 11bd 313d 273d 855d 0c3d
00000140: 7a11 0b3d 21d3 9aba 97c7 8eb9 11ac 323d
00000150: 8c30 20bc 5fb1 d33c 22e7 a4bc 6645 4f3d
00000160: 6f47 47bc e849 8d3c 0086 96bd e817 3c3d
00000170: e19a f43c 073a 0ebd 5582 463c 317f ddbb
00000180: 7911 e63b a7bf 333c 2e7b 0abc d710 8a3d
00000190: 92f0 543d eb46 003b 6ae3 d23b daa0 523d
000001a0: 6749 c9bc fa6f dd3c 8494 0abd c76b 21bc
000001b0: 1506 90bc 2b42 3e3b 4f67 84bd 0345 92bb
000001c0: 90b6 bcbb 9455 343d 4ef2 0d3e 2a5d 703d
000001d0: b043 f83c 7568 003c fbec 87bc dd55 68bc
000001e0: a143 62bc ca8e 923d a8f6 3ebd d70a 86bc
000001f0: d5b0 86bc b2ab c1bc c830 39bd ecc3 973c
00000200: 9bb9 f4bc 7b1a 53bd 06eb e2bc 1fa7 bdbc
00000210: 3f72 4e3c 12d5 0e3d 831e 5f3d f95a 183c
00000220: 9faa e13c 82c6 12bd d81b 30bd e541 83bd
00000230: cfff 833b abcf 53bc 7cbb 4dbd a216 6fbd
00000240: d8ea 8dbc c3c8 0cbd 92d6 9bbc 4d35 c83b
00000250: e740 1a3c c99a cfbb c460 85bd f145 5abd
00000260: 609c 75ba f89a 99bc d960 a2bc ea9c 6ebc
00000270: 388a 35bd ce83 93bb 2cd5 49bc 6e37 c3bc
00000280: 2f2f 313d 1b32 443c 694f 59bd 9805 bfbc
00000290: a7b2 ce3b 9d36 0d3c dfb5 9ab9 72f7 b5bc
000002a0: b37f 53bc 8bc1 83bd 259d 04ba 8451 b7bc
000002b0: b91a 9bbd 1252 e5bc 2e53 06bd 2dff bc3d
000002c0: 0d95 cfbc eec9 a8bb 740c fa3c 2902 3bbc
000002d0: 313e 9cb9 1b26 3abc e078 9abc 5f25 04bd
000002e0: 45b8 d7bd 9f83 d53c 8d90 c83c 4ad1 45bc
000002f0: d60d 0b3c 4435 f9bc 4706 7d3c db02 1dbd
00000300: 95fa 283d 8cf8 27bc 9ffc 2abd 3ad6 91bd
00000310: db94 9bbc c395 e53a bd5a 06bd 8db9 f6bb
00000320: 1e93 fbbc 333c 123d b047 83bc 58ec 17bd
00000330: 90f9 32ba 366e 133d 9674 c03b ab02 29bd
00000340: 6656 aebc 08dc f93c 9fbb f2bc cae4 9b3c
00000350: 84b8 2f3d 595b b3bc 2c30 ec3c 7a2e a93c
00000360: d713 103d 33ac bd3c 34f9 38bb 5039 e6bc
00000370: 91fb 55bd f21f e3bc 11e7 523d e001 923d
00000380: fa5d 0dbc e268 30bd c972 6b3d d749 f6bc
00000390: ec1d 4bbd 7e71 d13c e4c8 043b bf6f 03bd
000003a0: c7d5 debc 88f3 eebc 67b6 06bd ca28 b53c
000003b0: c70e ffbc c61b 053d 086d 323d 1a18 07bb
000003c0: fd06 0fbd a9c9 92bb 92fd 01bd 7d05 90bd
000003d0: bffb 5cbd ea6c e0bc 5835 b73c 013d 8c3c
000003e0: c29f e9bc 03ea 943c 28a4 3ebd 664f 2abb
000003f0: 1480 d2bb 6ce5 1dbd 2773 4fbd f8ea 1a3d

action_model._continuous_distribution.mu.bias f4 [3]
0.058653075 0.03956994 0.055412788
00000000: 353e 703d 1714 223d 85f8 623d

action_model._discrete_distribution.branches.0.weight f4 [1, 128]
-0.010376579 -0.0064096316 0.0006470632 0.0034938157 -0.008848585 -0.00902166 0.0020439734 -0.010219386
-0.004476892 -0.0059815347 -0.0026417007 0.0022712748 -0.0059931823 -0.005097627 0.002086094 0.005632659
-0.0069376277 0.0021217866 0.0065102875 -0.0063853674 -0.008428956 -0.025544068 0.0072442754 -0.0027550065
0.001115881 -0.0075346157 -0.005418809 -0.008879805 -0.001963633 0.0006229274 0.0020490754 0.017280364
-0.0055254297 -0.009111068 0.0007468151 0.0069900462 0.014527499 -0.014911796 -0.007952467 0.0054327473
0.002295683 -0.0061573363 -0.0046305493 0.015126384 0.0038690846 -0.010451893 0.0016052809 -0.010298269
-0.0018911613 0.0067285835 -0.0023852722 -0.001145042 0.009053885 -0.0060575823 -0.005686375 0.0011491503
-0.007843139 0.012999797 -0.001977503 0.006748685 -0.0042357505 0.0032806874 -0.0034225106 -0.01973458
-0.012103878 -0.0019360142 -0.0096613625 -0.0040778625 0.001967944 0.015049304 -0.0014463431 0.007604461
-0.0050212736 -0.0074292957 -0.012310238 0.0023156176 0.012950616 -0.009743052 -4.7487516e-05 0.00048345551
-0.00057429395 0.0057875323 -0.007227126 -0.0020290753 -0.005502263 -0.004280349 0.009608096 0.0003615323
-0.004810263 0.020248102 0.007116983 0.009987808 -0.000990339 -0.009763899 0.00015585961 0.012015576
0.011138535 -0.0014621139 -0.008489239 0.004036879 0.009299367 0.004802368 0.0072078556 0.008305466
-0.0068073794 0.010278708 0.008375826 -0.008976067 -0.0042421143 0.00040381277 -0.0137255415 0.004473884
0.0056152735 0.0020184359 0.0047255284 0.00745991 0.016094422 -0.0075422684 0.010457014 0.005618119
0.008445843 -0.0015802411 -0.012452988 -0.003993062 0.006313766 -0.003778634 0.0132701695 -0.007831221
00000000: 8702 2abc e307 d2bb ad9f 293a 80f8 643b
00000010: a8f9 10bc 96cf 13bc 2ff4 053b 366f 27bc
00000020: e4b2 92bb c000 c4bb 6220 2dbb abd9 143b
00000030: 7562 c4bb ff09 a7bb dab6 083b 2b92 b83b
00000040: 0a55 e3bb ac0d 0b3b 4054 d53b 583c d1bb
00000050: 9b19 0abc cb41 d1bc 6361 ed3b 578d 34bb
00000060: c142 923a f0e4 f6bb 4490 b1bb 9a7c 11bc
00000070: 4cb0 00bb f34b 233a c849 063b 8d8f 8d3c
00000080: aa0e b5bb 9746 15bc eac5 433a c20c e53b
00000090: bf04 6e3c 9b50 74bc 104b 02bc 3005 b23b
000000a0: 2b73 163b 7bc3 c9bb ddbb 97bb a7d4 773c
000000b0: 7890 7d3b 6b3e 2bbc 4a68 d23a 12ba 28bc
000000c0: d8e0 f7ba 737b dc3b 3a52 1cbb 3c15 96ba
000000d0: bf56 143c af7e c6bb c554 babb 169f 963a
000000e0: 8280 00bc 1afd 543c ff98 01bb 1324 dd3b
000000f0: 0dcc 8abb cd00 573b 334c 60bb 6aaa a1bc
00000100: 584f 46bc dbc1 fdba b14a 1ebc 979f 85bb
00000110: 9ff8 003b 5b91 763c 3993 bdba d82e f93b
00000120: 7f89 a4bb 7371 f3bb e1b0 49bc 9ec1 173b
00000130: d22e 543c 52a1 1fbc 552d 47b8 4d78 fd39
00000140: 378c 16ba 57a5 bd3b 87d1 ecbb 3cfa 04bb
00000150: 544c b4bb 2b42 8cbb 476b 1d3c 0b8c bd39
00000160: 699f 9dbb 59df a53c 9535 e93b e7a3 233c
00000170: 43ce 81ba c3f8 1fbc 3f6e 2339 fadc 443c
00000180: 677e 363c 67a4 bfba 7316 0bbc cc47 843b
00000190: 5f5c 183c 2f5d 9d3b e02f ec3b a613 083c
000001a0: 7010 dfbb 0768 283c c33a 093c 5b10 13bc
000001b0: 6f01 8bbb d5b6 d339 18e1 60bc a999 923b
000001c0: 5400 b83b bc47 043b 9bd8 9a3b 4372 f43b
000001d0: 73d8 833c 2225 f7bb e553 2b3c 3318 b83b
000001e0: 6f60 0a3c 1820 cfba 9e07 4cbc 3bd8 82bb
000001f0: b5e3 ce3b f5a2 77bb 206b 593c 864e 00bc

exp_avg f4 [128, 22]
2.6608777e-05 -0.000119150536 4.7515955e-06 -0.00012354944 2.9872324e-06 -0.00012512675 1.6414322e-05 -0.00010936202
0.00026660517 -8.6097025e-05 -0.000114991606 -9.107218e-05 -0.00014401332 -0.000108927416 -0.00022058503 -7.7499004e-05
3.3661054e-05 -8.008389e-05 -0.00014506411 -0.00011595967 0.00016188198 -9.945666e-05 8.1124985e-05 -0.00047784025
-1.9855284e-05 -0.00048491146 -8.435319e-06 -0.00048575707 0.0004301051 -0.0005331607 0.00031221562 -0.00053632975
0.00025086233 -0.00056099717 -5.673973e-05 -0.0005499928 -0.00017592487 -0.00056484196 -2.7298229e-05 -0.00057441
2.7649457e-05 -0.00054978504 -1.3512166e-05 -0.0005486914 0.00013665084 -0.00019776472 0.000112532245 -0.0002164129
4.412971e-05 -0.00025211886 2.2513566e-05 -0.00028795525 -7.388651e-05 -0.00027450695 1.3836597e-05 -0.00027851266
-3.4511173e-05 -0.00033395708 0.00021124943 -0.00031428665 0.00069141074 -0.00032116834 -8.9837835e-05 -0.00029915088
2.424904e-05 -0.00028072015 -0.00010796524 -0.000106898464 -0.00021543508 -0.000103990045 -4.1846833e-05 -0.000113388836
0.0003855487 -0.00014675266 0.00039936378 -0.00017505785 0.00055438397 -0.00018341554 0.00033428226 -0.00012649583
0.00045019918 -0.0001226408 4.168607e-06 -0.00011229151 -0.0001115254 -9.290512e-05 -0.00018201991 -0.00011454379
1.8122038e-05 0.00016578002 -2.4086878e-05 0.00016020061 -2.7354736e-05 0.00017370933 -0.0002681597 0.00021305363
-3.39669e-05 0.0002409017 -0.00018328046 0.00025049708 6.41704e-07 0.00022939706 5.195637e-05 0.0002659457
0.00045546895 0.0002830937 3.013332e-05 0.00026359985 0.00022087476 0.00027824187 3.685081e-05 -2.7058728e-05
7.440298e-05 -3.3477594e-05 9.277485e-05 -2.6678816e-05 4.2486572e-05 -1.1074097e-05 7.988556e-05 -1.3072622e-06
9.387716e-06 1.2634973e-06 2.5697238e-05 -1.0552359e-05 -3.8075264e-05 -4.0236e-06 0.00013714377 2.144252e-07
-0.00014772956 -1.213307e-05 -1.5180376e-06 -4.685555e-06 -1.3763076e-05 0.00019957885 -5.331798e-06 0.00019426967
-9.2475675e-05 0.00019100413 -7.2951974e-05 0.00017581045 -0.0002447426 0.00017625497 -0.000115651594 0.0001609158
-4.1853305e-05 0.00014605914 -8.041863e-05 0.0001055512 -2.0796959e-05 9.467607e-05 -3.4738136e-05 0.00011536017
-0.00020138161 0.0001231263 -2.4878052e-05 3.4537734e-06 1.27845415e-05 1.115058e-05 8.39246e-06 1.3450492e-05
6.039545e-07 -4.212935e-05 -2.0693838e-05 -5.7939484e-05 -5.0602608e-05 -6.0624254e-05 -0.00047228884 -6.563784e-05
-0.00100883 -0.00012492677 -0.0010731161 -0.00014790772 -0.0003768744 -0.00013804951 -0.00044075967 -0.0001301814
1.6470769e-05 1.7443594e-05 8.095892e-05 2.8304468e-05 0.000102909406 4.226458e-05 2.1653876e-05 3.5133613e-05
5.321739e-05 4.1282314e-05 8.6906985e-05 5.1977622e-05 -6.2080595e-05 4.060131e-05 -0.00016089286 6.108469e-06
-0.0003740249 3.5061294e-07 -0.000113457194 2.1868174e-05 -0.0004236407 3.1880023e-05 0.00011662262 0.0008073727
0.00017131423 0.00081544183 0.00010957248 0.0008266635 -8.119313e-05 0.00086329377 -0.00013785718 0.0008767213
-0.00022934818 0.0008845184 5.040454e-06 0.00088182423 7.428709e-05 0.0008981531 -3.0244488e-05 0.00090125087
-2.7881399e-05 0.000886018 -4.079488e-05 0.00088554807 1.2698872e-05 -0.00013344604 8.525487e-06 -0.00011692682
4.8258014e-05 -8.275098e-05 8.107374e-05 -6.889005e-05 0.00010029595 -5.5587625e-05 0.00015646286 -3.7644026e-05
-0.00019951873 -5.0346673e-05 -0.00033164152 -8.865679e-05 -0.00065471994 -9.562854e-05 -0.0003512281 -9.9508645e-05
-0.000389113 -8.539016e-05 3.622104e-06 0.0003312454 -1.1889247e-05 0.0003340614 -8.077916e-06 0.00033879373
-6.4953034e-05 0.0003496327 6.8981906e-05 0.0003604882 -3.096788e-05 0.00036679546 -4.112925e-05 0.00036634575
00000000: ea35 df37 75e0 f9b8 e56f 9f36 0d8d 01b9
00000010: 4378 4836 7534 03b9 7db1 8937 4a59 e5b8
00000020: 24c7 8b39 fd8e b4b8 a627 f1b8 01fe beb8
00000030: 4802 17b9 f66f e4b8 d84c 67b9 f686 a2b8
00000040: 482f 0d38 b6f2 a7b8 5a1c 18b9 602f f3b8
00000050: ddbe 2939 6393 d0b8 a521 aa38 a286 fab9
00000060: e68e a6b7 b73b feb9 6b85 0db7 36ad feb9
00000070: bb7f e139 cfc3 0bba dfb0 a339 7b98 0cba
00000080: 2c86 8339 e20f 13ba d2fb 6db8 642d 10ba
00000090: 7978 38b9 e711 14ba 80fe e4b7 0194 16ba
000000a0: c2f0 e737 731f 10ba 50b2 62b7 0ed6 0fba
000000b0: ee49 0f39 105f 4fb9 4aff eb38 e5ec 62b9
000000c0: ea17 3938 d22e 84b9 84db bc37 b3f8 96b9
000000d0: 85f3 9ab8 b3eb 8fb9 bb23 6837 5605 92b9
000000e0: 17c0 10b8 f616 afb9 d682 5d39 d7c6 a4b9
000000f0: ca3f 353a 7c62 a8b9 5267 bcb8 5ad7 9cb9
00000100: 6b6a cb37 9f2d 93b9 666b e2b8 ad2e e0b8
00000110: 6ae6 61b9 3b15 dab8 b284 2fb8 2bcb edb8
00000120: 7823 ca39 9ee1 19b9 b361 d139 bc8f 37b9
00000130: 1454 113a 3c53 40b9 9b42 af39 f7a3 04b9
00000140: b608 ec39 2499 00b9 10e0 8b36 0c7e ebb8
00000150: bee2 e9b8 0ed6 c2b8 99dc 3eb9 3b37 f0b8
00000160: c804 9837 3cd5 2d39 2d0e cab7 86fb 2739
00000170: d977 e5b7 be25 3639 c997 8cb9 2667 5f39
00000180: ae77 0eb8 8f9a 7c39 f92e 40b9 2655 8339
00000190: 9041 2c35 4e8a 7039 baeb 5938 a16e 8b39
000001a0: 02cc ee39 316c 9439 d0c6 fc37 c633 8a39
000001b0: 9e9a 6739 fee0 9139 4290 1a38 2dfc e2b7
000001c0: cc08 9c38 4b6a 0cb8 1e90 c238 52cc dfb7
000001d0: 9c33 3238 e2ca 39b7 3c88 a738 3075 afb5
000001e0: ef7f 1d37 7095 a935 6690 d737 090a 31b7
000001f0: 01b3 1fb8 7602 87b6 40ce 0f39 c03c 6634
00000200: dae7 1ab9 248f 4bb7 60bf cbb5 9c38 9db6
00000210: f6e7 66b7 0a46 5139 cce7 b2b6 deb4 4b39
00000220: 80ef c1b8 4848 4839 cbfd 98b8 c259 3839
00000230: cc50 80b9 15d1 3839 fa89 f2b8 82bb 2839
00000240: a58b 2fb8 7427 1939 6ca6 a8b8 5e5b dd38
00000250: 2175 aeb7 d48c c638 cab3 11b8 85ed f138
00000260: f729 53b9 771b 0139 36b1 d0b7 60c7 6736
00000270: 307d 5637 6013 3b37 57cd 0c37 6ca9 6137
00000280: 701f 2235 0cb4 30b8 ae97 adb7 0c04 73b8
00000290: 233e 54b8 cc46 7eb8 899d f7b9 0ca7 89b8
000002a0: b83a 84ba c6fe 02b9 cda7 8cba ad17 1bb9
000002b0: 3a97 c5b9 62c1 10b9 c315 e7b9 4e81 08b9
000002c0: b52a 8a37 d553 9237 7dc8 a938 626f ed37
000002d0: 11d1 d738 3f45 3138 58a5 b537 6e5c 1338
000002e0: bd35 5f38 8c26 2d38 d541 b638 8c02 5a38
000002f0: 4431 82b8 534b 2a38 59b5 28b9 59f7 cc36
00000300: c618 c4b9 e03b bc34 deef edb8 8c71 b737
00000310: 181c deb9 eab6 0538 4b93 f438 dda5 533a
00000320: d0a2 3339 60c3 553a 47ca e538 73b4 583a
00000330: 3b46 aab8 aa4e 623a c18d 10b9 c5d3 653a
00000340: 2f7d 70b9 06df 673a 2c21 a936 392a 673a
00000350: 94ca 9b38 0972 6b3a 8bb5 fdb7 ec41 6c3a
00000360: d9e2 e9b7 a943 683a 2b1b 2bb8 2024 683a
00000370: 3d0d 5537 a6ed 0bb9 b008 0f37 9c36 f5b8
00000380: a668 4a38 988a adb8 2206 aa38 1079 90b8
00000390: fa55 d238 c226 69b8 2e10 2439 f7e3 1db8
000003a0: e735 51b9 542b 53b8 2ce0 adb9 40ed b9b8
000003b0: 83a1 2bba 2e8c c8b8 0a25 b8b9 4caf d0b8
000003c0: dd01 ccb9 7e13 b3b8 4613 7336 01ab ad39
000003d0: ed77 47b7 f624 af39 6386 07b7 20a0 b139
000003e0: 6537 88b8 e84e b739 61aa 9038 e8ff bc39
000003f0: 82e3 01b8 744e c039 3282 2cb8 1812 c039

exp_avg_sq f4 [128, 22]
4.7097938e-08 3.629188e-07 2.2101027e-08 3.6721497e-07 2.3432415e-08 3.7613142e-07 3.6222676e-08 3.8128076e-07
3.189783e-07 3.8806908e-07 7.8037283e-07 3.9518176e-07 2.6594328e-06 3.9573442e-07 3.2045177e-06 3.8675938e-07
1.4138925e-07 3.7926384e-07 1.1998007e-06 3.7415808e-07 2.2586423e-06 3.7553943e-07 5.469409e-07 1.1898668e-06
1.0457951e-06 1.1939688e-06 1.4178718e-06 1.1878642e-06 2.4068415e-06 1.1902962e-06 2.480877e-06 1.1799343e-06
3.0142485e-06 1.180032e-06 4.4318385e-06 1.1676167e-06 4.217936e-06 1.1600868e-06 2.0885384e-06 1.1547462e-06
1.7737242e-06 1.1554953e-06 1.2727444e-06 1.1494798e-06 5.289698e-07 8.7625216e-07 2.6442405e-07 8.8504163e-07
1.8874145e-07 9.065208e-07 1.6354767e-07 9.1893065e-07 1.17458406e-07 9.318649e-07 9.857323e-07 9.5222657e-07
6.480317e-06 9.622039e-07 1.0956816e-05 9.3466366e-07 5.68868e-06 9.2373284e-07 2.9810933e-06 9.104099e-07
1.9578658e-06 9.05647e-07 5.1771525e-07 3.5658928e-07 7.057909e-07 3.57581e-07 1.6719391e-06 3.6121716e-07
2.6996527e-06 3.6309956e-07 3.5018077e-06 3.598782e-07 4.4874555e-06 3.6503448e-07 5.028615e-06 3.62883e-07
3.8736557e-06 3.5874052e-07 1.5124448e-06 3.5123165e-07 1.1789676e-06 3.47171e-07 1.3016354e-06 3.4260052e-07
6.739264e-08 3.753537e-07 1.2604234e-08 3.7956886e-07 3.861591e-08 3.832151e-07 6.149274e-07 3.8859872e-07
4.770227e-07 3.8619356e-07 2.3847116e-07 3.8962116e-07 9.858322e-08 3.934899e-07 2.022059e-07 3.940217e-07
1.8393455e-06 3.870194e-07 1.5233007e-06 3.892308e-07 2.4449985e-06 3.8470566e-07 4.9542415e-08 9.990081e-08
1.0328394e-07 1.026835e-07 9.922198e-08 1.05344974e-07 1.17623394e-07 1.0792349e-07 1.2003237e-07 1.0823167e-07
1.3198535e-07 1.107781e-07 2.4466402e-07 1.1315057e-07 4.5561043e-07 1.1276948e-07 5.127938e-07 1.1139278e-07
1.0111057e-06 1.090849e-07 9.2945135e-07 1.06921235e-07 7.3793687e-09 5.91452e-07 1.0065141e-08 5.901354e-07
2.2360193e-07 5.9097613e-07 2.5668962e-07 5.906304e-07 5.7574874e-07 5.905016e-07 9.38464e-08 5.930838e-07
1.1710552e-07 5.934071e-07 2.7513954e-07 5.9550445e-07 5.4528147e-08 5.914976e-07 1.3632443e-07 5.885253e-07
8.8127956e-07 5.894304e-07 1.4219177e-07 2.2579277e-07 3.5040376e-08 2.2744791e-07 2.894968e-08 2.3362611e-07
4.5075357e-08 2.385394e-07 1.917377e-07 2.4481204e-07 4.2908025e-07 2.54765e-07 1.4904091e-06 2.5705708e-07
3.5004578e-06 2.525129e-07 3.3942883e-06 2.4725523e-07 2.5606607e-06 2.4222754e-07 1.9018802e-06 2.3670998e-07
9.198853e-08 1.2797678e-07 3.1337012e-07 1.2831295e-07 2.671783e-07 1.288125e-07 3.2884617e-07 1.2704717e-07
1.7848835e-07 1.2689438e-07 1.1454983e-06 1.2758522e-07 1.4764845e-06 1.2668863e-07 1.8395278e-06 1.2435274e-07
1.5665007e-06 1.19611e-07 1.8230731e-06 1.1411024e-07 1.7738278e-06 1.1184931e-07 1.4965562e-07 1.7554153e-06
1.9210945e-07 1.7590685e-06 1.03752086e-07 1.7506954e-06 3.911288e-07 1.7537104e-06 4.934569e-07 1.7486624e-06
7.9334643e-07 1.744546e-06 7.9910393e-07 1.7407654e-06 6.082802e-07 1.7437561e-06 1.0420666e-07 1.736914e-06
2.1335296e-07 1.7363964e-06 1.0229963e-07 1.7328766e-06 1.3143486e-08 5.620766e-07 1.874654e-08 5.62808e-07
4.8278096e-08 5.625869e-07 1.17015055e-07 5.606512e-07 5.0040336e-07 5.634614e-07 1.8091804e-06 5.673581e-07
3.4432599e-06 5.6875075e-07 4.349903e-06 5.649995e-07 3.430732e-06 5.576063e-07 3.9214233e-06 5.489051e-07
2.1338822e-06 5.4608734e-07 5.0274746e-08 6.801789e-07 3.569212e-08 6.8309794e-07 4.470027e-09 6.825479e-07
2.050095e-08 6.827844e-07 1.4411133e-07 6.8243025e-07 1.4180407e-07 6.799391e-07 1.777757e-08 6.777758e-07
00000000: bb48 4a33 2ed7 c234 acd8 bd32 a425 c534
00000010: 6d48 c932 1cef c934 4193 1b33 d4b2 cc34
00000020: 0b40 ab34 cf57 d034 d07a 5135 5e29 d434
00000030: b578 3236 5375 d434 320d 5736 cea3 cf34
00000040: c8d0 1734 a09d cb34 d708 a135 e5df c834
00000050: 2e93 1736 bf9d c934 7ed1 1235 83b3 9f35
00000060: 3f5d 8c35 7540 a035 b44d be35 b46e 9f35
00000070: 3985 2136 44c2 9f35 247d 2636 3c5e 9e35
00000080: 6548 4a36 9761 9e35 34b5 9436 01b7 9c35
00000090: cb87 8d36 47b4 9b35 d128 0c36 c7fc 9a35
000000a0: b310 ee35 8416 9b35 2ad3 aa35 d347 9a35
000000b0: 87fe 0d35 9737 6b35 2af6 8d34 9993 6d35
000000c0: dba8 4a34 a357 7335 a49b 2f34 6fac 7635
000000d0: 713d fc33 4525 7a35 814d 8435 839c 7f35
000000e0: 8071 d936 1325 8135 2bd3 3737 99e5 7a35
000000f0: 64e1 be36 70f6 7735 cb0e 4836 e462 7435
00000100: e163 0336 971b 7335 1ff9 0a35 4271 bf34
00000110: 9575 3d35 8ff9 bf34 6467 e035 4fed c134
00000120: ae2b 3536 06f0 c234 9900 6b36 4835 c134
00000130: f392 9636 f5f9 c334 79bb a836 42d2 c234
00000140: 73fa 8136 ec98 c034 35ff ca35 e990 bc34
00000150: 053d 9e35 d262 ba34 dab3 ae35 a8ee b734
00000160: 7fb9 9033 3884 c934 028a 5832 8cc7 cb34
00000170: a4da 2533 afbc cd34 7d11 2535 9aa0 d034
00000180: c00c 0035 0a56 cf34 3a07 8034 202d d134
00000190: b3b4 d333 d740 d334 ef1d 5934 ee89 d334
000001a0: 6edf f635 8bc7 cf34 3774 cc35 79f7 d034
000001b0: c114 2436 8b89 ce34 76c8 5433 0d89 d633
000001c0: f2cc dd33 da82 dc33 dc13 d533 033a e233
000001d0: 2598 fc33 91c3 e733 3fe2 0034 fd6c e833
000001e0: dbb7 0d34 e8e4 ed33 5e5a 8334 2ffd f233
000001f0: 9f9a f434 ad2b f233 eca6 0935 d436 ef33
00000200: 54b5 8735 0f42 ea33 697f 7935 929c e533
00000210: 9d8d fd31 46c4 1e35 f5ea 2c32 cc69 1e35
00000220: 3b17 7034 92a3 1e35 27cf 8934 d08b 1e35
00000230: 278d 1a35 f682 1e35 9b88 c933 6934 1f35
00000240: 717b fb33 a04a 1f35 e4b6 9334 c1da 1f35
00000250: 5532 6a33 68c7 1e35 9360 1234 27fb 1d35
00000260: 1291 6c35 5939 1e35 60ad 1834 7271 7234
00000270: 4d7f 1633 6838 7434 05ad f832 a8da 7a34
00000280: e198 4133 9b10 8034 75e0 4d34 b66e 8334
00000290: 575c e634 a3c6 8834 110a c835 a801 8a34
000002a0: 68e9 6a36 1c91 8734 6ec9 6336 80be 8434
000002b0: d1d7 2b36 800b 8234 1b44 ff35 582a 7e34
000002c0: 3b8b c533 fd69 0934 433d a834 65c6 0934
000002d0: b570 8f34 b64f 0a34 468c b034 766a 0834
000002e0: 81a6 3f34 7640 0834 06bf 9935 5cfe 0834
000002f0: 9f2b c635 e807 0834 b2e5 f635 d285 0534
00000300: 8e40 d235 6c6e 0034 51b0 f435 c50c f533
00000310: 4214 ee35 cf31 f033 06b1 2034 9c9b eb35
00000320: a546 4e34 2219 ec35 50ce de33 70f9 ea35
00000330: 55fc d134 0861 eb35 1a76 0435 95b3 ea35
00000340: 5af6 5435 2526 ea35 0182 5635 3ea4 e935
00000350: b248 2335 010b ea35 38c8 df33 e91f e935
00000360: 0416 6534 200e e935 d1af db33 3095 e835
00000370: aacd 6132 9ce1 1635 1408 a132 df13 1735
00000380: 545a 4f33 ad04 1735 b549 fb33 a87f 1635
00000390: 7553 0635 c640 1735 f7d2 f235 8d4c 1835
000003a0: c112 6736 41ac 1835 62f5 9136 78aa 1735
000003b0: 873b 6636 6aae 1535 c594 8336 7958 1335
000003c0: d133 0f36 d696 1235 abed 5733 8a95 3635
000003d0: e74b 1933 225e 3735 c696 9931 5638 3735
000003e0: 111a b032 9648 3735 05bd 1a34 4030 3735
000003f0: ce42 1834 0f85 3635 4ab5 9832 66f0 3535

exp_avg f4 [128]
-9.4527604e-05 0.00012744757 0.00049299514 0.00013627672 -2.5127712e-05 -6.0926148e-05 0.00024609535 0.0002906501
6.907918e-05 0.00012312709 -0.00016561302 7.8767815e-05 -0.0001001411 0.00040768407 0.00022467203 7.0697715e-05
-0.00011653059 2.3339588e-05 0.00046329954 0.00054736 -3.8837123e-05 0.00015592492 -9.339376e-05 0.00017775927
0.00010597058 -0.00039213046 -0.00019205031 -2.4817135e-05 0.00020249389 -0.00017378373 0.00015625492 0.00011706624
0.00037443938 -0.00018540032 0.0006527787 0.00016804006 0.00014993125 -0.00030690338 0.00074411236 -7.92604e-05
-0.0001387342 7.89359e-05 -1.4470515e-06 0.00051293784 -0.00012501125 0.00054675265 -9.106342e-05 0.00015102365
0.00047460943 -8.573348e-06 -0.00035682818 0.00019022162 6.3816333e-06 -0.00020561047 -0.0001445129 0.0005357936
-7.5996126e-05 0.000292817 7.831744e-05 -0.00032190903 0.0012140111 -0.0001724912 -0.00013291772 0.00044292826
0.0002280027 0.00028628195 0.00017565295 0.0004983958 0.0002556377 -0.00019294344 -8.2888706e-05 -0.00018743484
6.400105e-05 4.2603533e-06 5.5920205e-05 -0.00022957665 0.00047486427 -0.00036825053 -0.00029955292 -0.0003713675
0.00011047626 -0.0001036496 -0.0003839757 -1.8454921e-06 0.00071169354 0.00027874025 -4.990108e-05 0.00033505372
0.0005615147 -1.2022236e-05 0.00040303794 -1.5550017e-05 -0.0002147665 -8.620486e-05 0.00013576694 3.4869005e-05
-0.000114585055 -8.131152e-06 -0.00011523715 0.00012352921 -7.957642e-05 0.000954805 0.00078821875 -0.00046776515
-0.00018251307 0.0013948597 -0.00023646772 -0.00019931883 0.0001241925 8.399421e-05 0.0004789957 5.274407e-06
-6.264991e-05 -0.0003818359 0.00016124026 -7.112245e-06 -0.00026559178 0.00040482092 -0.0001325736 -0.00011814552
-9.9621415e-05 0.00013451994 -1.9240611e-05 4.8909864e-05 0.0006157635 0.0003323968 -0.00010273939 0.00031070923
00000000: 1f3d c6b8 72a3 0539 583c 013a 81e5 0e39
00000010: 5ac9 d2b7 f48a 7fb8 5c06 8139 6562 9839
00000020: 9ade 9038 ad1b 0139 68a8 2db9 2630 a538
00000030: d802 d2b8 6ebe d539 f095 6b39 8c43 9438
00000040: e261 f4b8 62c9 c337 03e7 f239 b57c 0f3a
00000050: 0be5 22b8 c77f 2339 65dc c3b8 e464 3a39
00000060: 863c de38 dc96 cdb9 1d61 49b9 642e d0b7
00000070: 8a54 5439 b739 36b9 5cd8 2339 7681 f538
00000080: 6750 c439 0568 42b9 3d1f 2b3a e933 3039
00000090: dd36 1d39 e0e7 a0b9 8910 433a 9a38 a6b8
000000a0: 2e79 11b9 638a a538 5038 c2b5 ad76 063a
000000b0: 7415 03b9 f353 0f3a 4df9 beb8 1a5c 1e39
000000c0: 00d5 f839 40d6 0fb7 ab14 bbb9 3a76 4739
000000d0: d021 d636 2499 57b9 6388 17b9 8074 0c3a
000000e0: 1c60 9fb8 3c85 9939 5b3e a438 e6c5 a8b9
000000f0: 741f 9f3a c1de 34b9 d45f 0bb9 d338 e839
00000100: 0214 6f39 1d18 9639 7b2f 3839 c7a6 023a
00000110: 1c07 8639 dc50 4ab9 89d4 adb8 288a 44b9
00000120: 4d38 8638 28f4 8e36 dd8b 6a38 83ba 70b9
00000130: 34f7 f839 c011 c1b9 500d 9db9 1ab4 c2b9
00000140: 7eaf e738 755e d9b8 5950 c9b9 a0b2 f7b5
00000150: f290 3a3a e223 9239 e04c 51b8 26aa af39
00000160: 9d32 133a 1cb3 49b7 d64e d339 6871 82b7
00000170: f232 61b9 e2c8 b4b8 a95c 0e39 4f40 1238
00000180: 624d f0b8 086b 08b7 79ab f1b8 9f87 0139
00000190: 44e2 a6b8 e14b 7a3a 77a0 4e3a 603e f5b9
000001a0: fb60 3fb9 bad3 b63a 52f4 77b9 3e00 51b9
000001b0: ac39 0239 0c26 b038 b721 fb39 d0fa b036
000001c0: ea62 83b8 2631 c8b9 9a12 2939 b8a5 eeb6
000001d0: 203f 8bb9 253e d439 7403 0bb9 e5c4 f7b8
000001e0: d7eb d0b8 ec0d 0d39 e666 a1b7 9124 4d38
000001f0: 306b 213a 8b45 ae39 ca75 d7b8 b0e6 a239
