results/Random1+_V0/3DBall/3DBall-2096253.onnx (onnx, 84847 bytes, 9 tensors)

network_body.observation_encoder.processors.0.normalizer.running_mean f4 [22]
0.00022802614 1.8123745 0.00036064294 1.822095 0.00056768017 1.8284066 0.00084579457 1.8312536
0.0011143729 1.8312473 0.0014230156 1.8287067 0.0017025615 1.823229 0.0018251596 1.813366
0.0017645772 1.7964293 0.0015508566 1.7717341 0.0013438227 1.7437685
00000000: 4d1a 6f39 e3fb e73f ad14 bd39 693a e93f
00000010: 5fd0 143a 3a09 ea3f 50b8 5d3a 8566 ea3f
00000020: 2610 923a 5066 ea3f 7b84 ba3a 1013 ea3f
00000030: 7c28 df3a 915f e93f 323a ef3a 611c e83f
00000040: 6349 e73a 65f1 e53f 1d46 cb3a 2fc8 e23f
00000050: 3523 b03a ce33 df3f

network_body._body_endoder.seq_layers.0.weight f4 [128, 22]
0.0016893058 -0.08054678 0.24030016 0.267831 -0.27819484 0.2606807 0.123812266 -0.17127389
-0.18001425 -0.18910545 -0.1590482 -0.062472913 0.078558706 -0.107048586 -0.026308784 0.22017871
0.21924798 -0.16142157 0.08905585 0.035286013 -0.19187221 -0.07807462 0.33090654 -0.13645256
0.31789234 0.26196086 0.4263421 -0.116312385 -0.22839917 0.05053181 0.037612997 0.018038923
0.28283092 0.0811079 0.09249752 -0.25725392 -0.026844459 -0.20504381 0.26366985 -0.07351372
0.0011795713 0.18872653 -0.18153676 0.062673785 0.2920574 -0.12622024 -0.095745355 -0.37597397
-0.048133355 -0.006101278 -0.1927166 0.09280702 -0.12635599 -0.38545147 -0.33522132 0.08867616
-0.1476773 0.03683265 0.23864663 0.22355396 0.33357728 0.12440094 -0.07951242 0.09796961
0.1741681 -0.031947374 0.106161535 0.02275296 0.094764836 0.22723404 0.18295458 -0.2866627
-0.08970331 -0.067862935 -0.25454035 0.25638172 0.018414102 -0.44072092 -0.1491411 0.23454243
0.13419405 0.061618667 0.24668172 0.15672761 0.08184798 0.046336673 -0.27187094 -0.16979483
0.40354902 0.07322517 -0.2614901 0.19609748 0.22675133 -0.10460227 -0.31715685 -0.083842255
0.11246296 -0.22526632 0.0024735543 -0.027254231 0.093864664 0.26266813 0.22044528 -0.39859602
0.07556004 -0.007756858 0.16585058 0.1264624 0.18634656 -0.24245219 -0.1670021 -0.11628782
-0.24568836 0.30377498 -0.028130382 -0.03579913 -0.33960563 -0.25447866 0.11945313 -0.2276161
0.21728826 -0.17103773 -0.012887871 -0.030008622 0.1316279 0.070704095 0.4181304 0.0373589
-0.2889863 0.09504448 -0.032291465 -0.2305068 -0.034277797 0.1335505 -0.009534976 -0.2324834
0.3365645 -0.06674923 -0.1905478 -0.15252358 0.32277516 -0.11490655 0.1282575 -0.0094677005
0.2958568 0.344947 -0.5079532 -0.023833364 -0.17563495 0.14386387 0.26299337 -0.05712504
-0.084100686 -0.15169427 0.40365922 0.13816687 0.39827222 0.00147931 -0.032766968 -0.16035798
-0.2620022 0.04712729 0.06621081 -0.13243024 0.2525278 -0.089797795 0.20872606 -0.21525364
0.075774595 0.08286011 -0.16946542 0.12969047 -0.1718531 -0.167723 0.19282451 -0.06286296
-0.1398328 -0.3142575 -0.17746371 0.31286454 -0.28372538 0.23704024 -0.013235291 -0.05954092
-0.26077095 -0.339559 -0.032924596 0.102752835 -0.11644935 0.15882596 0.03857287 -0.21431726
-0.20518012 -0.40871912 0.41663173 0.25334835 0.25717026 0.18262225 0.21491322 -0.5053042
-0.020852942 0.10180442 -0.06243435 0.12659937 -0.15007755 -0.07968212 0.34734404 -0.38634327
0.24390359 -0.18621607 -0.13482584 -0.028715203 -0.1557485 0.38099468 -0.057740554 -0.06877607
0.25987345 0.3962563 0.43496385 0.13917999 0.4359439 -0.051939156 0.13800274 -0.111249186
-0.14811996 0.044003744 0.082677454 -0.4634073 -0.12401896 0.0038341265 0.35472786 0.080625184
0.28349409 -0.28962395 0.09751217 -0.41132048 0.10102191 -0.09569814 0.10139562 -0.08282457
0.06810465 0.053431895 0.51284266 0.06511699 -0.23020364 0.06811752 0.026744507 -0.361944
-0.17031328 0.017717997 0.08255639 0.16830087 -0.055515658 0.43195668 -0.29247037 -0.3439079
00000000: b26b dd3a b6f5 a4bd 3f11 763e 2521 893e
00000010: 8e6f 8ebe f177 853e 4991 fd3d 6c62 2fbe
00000020: a855 38be dca4 41be 88dd 22be 99e3 7fbd
00000030: 63e3 a03d 4a3c dbbd 8585 d7bc 8776 613e
00000040: 8b82 603e b24b 25be ea62 b63d 1188 103d
00000050: 267a 44be 96e5 9fbd 956c a93e 38ba 0bbe
00000060: c9c2 a23e bc1f 863e 8349 da3e 3035 eebd
00000070: 79e1 69be 71fa 4e3d 1610 1a3d 5dc6 933c
00000080: 37cf 903e e61b a63d 576f bd3d c9b6 83be
00000090: e9e8 dbbc 01f7 51be bcff 863e 5c8e 96bd
000000a0: d89b 9a3a 8741 413e c6e4 39be 1d5b 803d
000000b0: 8c88 953e e13f 01be 2416 c4bd a97f c0be
000000c0: 7b27 45bd 3bed c7bb 8057 45be 9b11 be3d
000000d0: 7763 01be e559 c5be 21a2 abbe d99b b53d
000000e0: b838 17be d5dd 163d c85f 743e 54eb 643e
000000f0: a4ca aa3e ecc5 fe3d 68d7 a2bd 4aa4 c83d
00000100: 1f59 323e 40db 02bd 386b d93d 6a64 ba3c
00000110: 1114 c23d 0ab0 683e 7258 3b3e 74c5 92be
00000120: 5eb6 b7bd b9fb 8abd 1d53 82be 7744 833e
00000130: 2cd9 963c 2ca6 e1be 72b8 18be e42b 703e
00000140: 2a6a 093e db63 7c3d 229a 7c3e 347d 203e
00000150: ea9f a73d 86cb 3d3d ab32 8bbe b2de 2dbe
00000160: fa9d ce3e 14f7 953d 08e2 85be c7cd 483e
00000170: 8031 683e b739 d6bd 6262 a2be 7db5 abbd
00000180: fb52 e63d 37ac 66be 5b1b 223b 4444 dfbc
00000190: 1e3c c03d 707c 863e 68bc 613e c714 ccbe
000001a0: 39bf 9a3d 3e2d febb bcd4 293e 5c7f 013e
000001b0: a2d1 3e3e 6345 78be 9902 2bbe 4f28 eebd
000001c0: bb95 7bbe 6588 9b3e b071 e6bc 1ca2 12bd
000001d0: cae0 adbe 074b 82be d8a3 f43d 3214 69be
000001e0: d080 5e3e 8424 2fbe a627 53bc a4d4 f5bc
000001f0: 77c9 063e 4fcd 903d 3015 d63e a505 193d
00000200: 03f6 93be aea6 c23d 0e44 04bd f909 6cbe
00000210: e066 0cbd 76c1 083e 9738 1cbc 2110 6ebe
00000220: 2f52 ac3e d2b3 88bd f61e 43be 242f 1cbe
00000230: c942 a53e 2054 ebbd ef55 033e 6a1e 1bbc
00000240: 8b7a 973e e59c b03e 3909 02bf 303e c3bc
00000250: a6d9 33be 0d51 133e 11a7 863e f2fb 69bd
00000260: fb3c acbd be55 1bbe 6cac ce3e 9e7b 0d3e
00000270: 56ea cb3e 68e5 c13a a836 06bd e234 24be
00000280: 2725 86be 8c08 413d 8899 873d cb9b 07be
00000290: 534b 813e e8e7 b7bd 49bc 553e 736b 5cbe
000002a0: b62f 9b3d 90b2 a93d 5888 2dbe 94cd 043e
000002b0: 42fa 2fbe 94bf 2bbe ca73 453e 4cbe 80bd
000002c0: 5430 0fbe 5ce6 a0be 0cb9 35be c82f a03e
000002d0: 7444 91be adba 723e d5d8 58bc 2ee1 73bd
000002e0: c583 85be adda adbe f1db 06bd 1470 d23d
000002f0: ff7c eebd 46a3 223e 96fe 1d3d fc75 5bbe
00000300: bd1a 52be a243 d1be c150 d53e e0b6 813e
00000310: d2ab 833e 5401 3b3e 3612 5c3e 9e5b 01bf
00000320: cad3 aabc d67e d03d 29bb 7fbd 44a3 013e
00000330: eead 19be 6130 a3bd 14d7 b13e c9ce c5be
00000340: ddc1 793e 6daf 3ebe c90f 0abe 253c ebbc
00000350: 897c 1fbe bc11 c33e 5c81 6cbd 78da 8cbd
00000360: 220e 853e 1be2 ca3e 95b3 de3e 3385 0e3e
00000370: 0a34 df3e 27be 54bd 9750 0d3e 9dd6 e3bd
00000380: c2ac 17be 453d 343d cc52 a93d b943 edbe
00000390: a7fd fdbd f845 7b3b e49e b53e d11e a53d
000003a0: 2326 913e 9749 94be 76b4 c73d 9998 d2be
000003b0: 93e4 ce3d 63fd c3bd 82a8 cf3d ee9f a9bd
000003c0: 737a 8b3d 67db 5a3d a849 033f 0e5c 853d
000003d0: 81ba 6bbe 3381 8b3d 4c17 db3c b950 b9be
000003e0: 9b66 2ebe 5525 913c 5313 a93d 1057 2c3e
000003f0: 6364 63bd 6d29 dd3e adbe 95be b214 b0be

network_body._body_endoder.seq_layers.0.bias f4 [128]
-0.0021868036 -0.054301094 -0.025217222 -0.057812292 -0.0032342 -0.16416997 -0.052696858 -0.07601796
0.04928224 0.052443422 -0.18172756 -0.06603607 0.05286796 -0.059996698 -0.097614616 -0.0935642
-0.08243052 0.1194517 0.041378327 0.13732384 0.25701746 -0.15790913 -0.0038919242 0.009911779
0.15490079 -0.0763708 -0.09433489 -0.009328871 0.043999452 0.050336868 0.07412132 -0.100646086
-0.17978552 -0.26331362 0.15973406 -0.07185287 0.0076674223 0.07541093 -0.083563 -0.08862142
0.019161193 -0.11615624 0.04238907 -0.14218801 -0.012196685 -0.0074972906 -0.071549855 0.08697163
0.1452433 0.066009186 0.04644573 0.019919375 -0.05178697 0.08350375 0.037662752 -0.031667538
0.05078835 0.018848905 -0.15461649 0.13780002 -0.03608781 -0.14664397 -0.14736293 -0.040462814
0.11393598 0.07074089 0.019209474 -0.12298586 -0.024984257 -0.088394165 -0.047586896 0.119790934
0.06426597 -0.19410323 -0.123012036 -0.14419994 -0.07265427 0.10627539 -0.050750412 -0.10078751
-0.19626994 0.100870214 0.05709772 0.09420743 0.04958116 0.10198048 -0.16930558 -0.07183381
-0.18763772 -0.02989936 0.037333038 0.016303947 -0.14649113 0.02302399 -0.13035034 -0.017712058
0.19711831 0.07959634 -0.019068725 0.21346502 -0.1494425 0.02704193 0.11421432 0.07937905
0.17610016 -0.040266406 0.020108229 0.051192485 0.16404904 0.013469122 0.0034643745 -0.05881756
-0.20837627 0.050295405 -0.0048463447 -0.004257412 0.08635656 0.1974558 -0.14578247 -0.014451915
0.20026764 -0.12872106 0.11148367 -0.08596004 -0.11170778 0.045658622 -0.045485858 -0.047667537
00000000: 7a50 0fbb d36a 5ebd 5994 cebc 95cc 6cbd
00000010: dff4 53bb 2c1c 28be a9d8 57bd 4eaf 9bbd
00000020: 2ddc 493d eace 563d ca16 3abe eb3d 87bd
00000030: 138c 583d 19bf 75bd 2cea c7bd 969e bfbd
00000040: 55d1 a8bd 18a3 f43d 527c 293d 9f9e 0c3e
00000050: cb97 833e eeb2 21be a70f 7fbb 0465 223c
00000060: 509e 1e3e 4b68 9cbd a732 c1bd 1fd8 18bc
00000070: c538 343d 082e 4e3d ebcc 973d 891f cebd
00000080: b219 38be 0bd1 86be 5391 233e 9927 93bd
00000090: 003f fb3b 0c71 9a3d 1423 abbd 267f b5bd
000000a0: eff7 9c3c 53e3 edbd 29a0 2d3d bc99 11be
000000b0: 9bd4 47bc d5ab f5bb bb88 92bd 2f1e b23d
000000c0: a9ba 143e d32f 873d e13d 3e3d f52d a33c
000000d0: 931e 54bd 0404 ab3d 4244 1a3d d2b5 01bd
000000e0: 7207 503d 0569 9a3c c953 1ebe 731b 0d3e
000000f0: d0d0 13bd d629 16be 4fe6 16be 56bc 25bd
00000100: 4457 e93d 9ae0 903d 305d 9d3c 03e0 fbbd
00000110: c9ab ccbc 0008 b5bd 7aea 42bd f354 f53d
00000120: e09d 833d ffc2 46be bced fbbd 26a9 13be
00000130: c3cb 94bd e9a6 d93d aadf 4fbd af69 cebd
00000140: fdfa 48be 0b95 ce3d 4ddf 693d d3ef c03d
00000150: 9d15 4b3d 24db d03d 715e 2dbe 9b1d 93bd
00000160: 1a24 40be 81ef f4bc 87ea 183d db8f 853c
00000170: c501 16be cf9c bc3c 8f7a 05be e118 91bc
00000180: 62d9 493e 6803 a33d 0436 9cbc 9396 5a3e
00000190: 7407 19be 0a87 dd3c 33e9 e93d 7c91 a23d
000001a0: 9a53 343e 63ee 24bd 03ba a43c 36af 513d
000001b0: 79fc 273e 98ad 5c3c 8f0a 633b afea 70bd
000001c0: 9760 55be 8e02 4e3d 16ce 9ebb c381 8bbb
000001d0: b5db b03d da31 4a3e 0048 15be bac7 6cbc
000001e0: f612 4d3e 74cf 03be 8d51 e43d d10b b0bd
000001f0: 0cc7 e4bd 8904 3b3d 614f 3abd 093f 43bd

network_body._body_endoder.seq_layers.2.weight f4 [128, 128]
-0.044054735 0.025866395 0.07291897 -0.10418469 -0.1054921 0.026574543 -0.027766274 -0.07069351
-0.08425466 -0.0100872805 0.0035123 0.080455214 -0.14201866 0.052742947 0.08818704 0.11350056
0.1069285 -0.20537442 0.12810026 -0.20542446 -0.16351119 0.018893661 0.048284147 -0.047959484
-0.18946178 0.16799587 -0.08003536 -0.082693845 -0.089615345 -0.13153443 -0.2898895 0.0690019
0.066883095 0.1075422 -0.3126573 0.209917 -0.06662596 0.08276804 0.268023 -0.055976883
0.20462845 0.0008430324 0.030210275 0.1007895 0.13106667 -0.10381246 0.1113368 -0.102052994
-0.24315074 -0.06152304 0.008039639 0.004361517 0.061823383 -0.025783593 0.023684295 0.12310325
-0.06541876 -0.15965362 -0.0294738 -0.08713096 0.0045865136 0.0029563338 0.055276953 -0.0748805
-0.12600519 -0.053164735 -0.022713097 0.046111993 -0.04069408 -0.02065787 0.10681945 -0.16505092
-0.09532596 0.10343495 -0.078377984 0.09198532 0.08204259 0.057947833 -0.04143178 -0.05424268
0.18234028 0.013958118 -0.06811368 -0.10739215 0.051027793 -0.10862353 -0.06639815 0.08412068
0.1923241 0.07985401 -0.1341055 0.11321196 -0.13102482 0.074021675 -0.03926832 -0.044130687
-0.22099116 0.0059055514 0.032847427 -0.16526423 0.055905655 0.09232826 0.11932345 0.066465996
0.0099753225 0.23293225 0.11166507 0.09243845 -0.117675126 -0.14107038 -0.0028435662 -0.13082014
0.21935888 0.018341662 -0.019728268 -0.10164736 -0.08700046 -0.11025429 0.10660878 -0.15941435
-0.2273445 0.042892225 0.014691805 0.013940521 -0.13548402 -0.15227807 0.11558881 0.016493276
0.13523015 -0.07382087 0.14600977 0.079500824 0.08873661 0.0027887693 0.021924388 -0.04373225
-0.12027048 -0.102695085 0.05977811 -0.11522387 -0.012808415 0.015051705 0.0083109755 0.009297591
0.08754223 0.20628683 -0.1223509 -0.19750078 0.005167932 -0.080750905 -0.29276985 0.1074754
-0.07686286 -0.0959326 0.11141315 0.17358285 0.061000496 -0.14347994 0.02336457 0.06262554
0.0020621333 0.07795891 0.04578969 0.047824755 -0.07940518 -0.2650435 -0.13450034 -0.12896626
0.08541924 -0.14013039 -0.06568527 0.06433559 0.0715673 -0.025819156 -0.04216776 -0.08949576
-0.15703961 -0.019553667 -0.09586551 0.051905643 0.1283393 -0.014659471 0.11149852 -0.035521906
-0.026653169 -0.106070705 -0.1480475 -0.0826722 -0.05747428 -0.025988637 0.1386413 0.027170694
0.02250414 -0.1818758 -0.01923746 -0.025901282 0.022413375 0.03675313 -0.03508828 -0.14464556
-0.2406627 0.02916367 0.09007889 0.087723464 0.12503469 -0.15903951 -0.11630881 0.04855236
-0.052800365 -0.08238886 -0.02064101 0.10919285 -0.05006723 -0.22407751 0.09209593 -0.035546135
0.1158929 -0.033331275 0.06395492 0.030475983 0.16346577 -0.13847263 -0.009798318 0.088677615
-0.11136067 -0.24805234 0.027041093 0.030191004 -0.052168902 0.028239623 -0.13623977 -0.23042293
-0.030331172 -0.18006477 0.010916412 0.1577949 -0.15698339 0.16538388 0.11275604 -0.13309102
0.04594497 -0.042204045 0.15022565 -0.008577722 -0.022276225 -0.08702885 0.15087543 -0.05405348
-0.083311275 -0.06556774 -0.17294657 0.087051764 0.031552624 0.03640318 0.10315769 0.029672954
00000000: bd72 34bd c3e5 d33c 8a56 953d c85e d5bd
00000010: 3e0c d8bd dbb2 d93c 1976 e3bc c2c7 90bd
00000020: b58d acbd 1f45 25bc 9e2e 663b b4c5 a43d
00000030: 576d 11be fd08 583d 689b b43d fb72 e83d
00000040: 54fd da3d ac4d 52be b72c 033e ca5a 52be
00000050: 7a6f 27be e1c6 9a3c 99c5 453d 2a71 44bd
00000060: 4502 42be 1c07 2c3e 94e9 a3bd 645b a9bd
00000070: 4088 b7bd f6b0 06be 666c 94be de50 8d3d
00000080: 01fa 883d 163f dc3d 9e14 a0be 7bf4 563e
00000090: 3173 88bd 4a82 a93d 503a 893e 0448 65bd
000000a0: 1f8a 513e f2fe 5c3a 8a7b f73c ba6a ce3d
000000b0: 5736 063e a19b d4bd 8c04 e43d 2901 d1bd
000000c0: 82fc 78be 95ff 7bbd b1b8 033c 0eeb 8e3b
000000d0: 843a 7d3d 1d38 d3bc 9105 c23c 8f1d fc3d
000000e0: 45fa 85bd 3d7c 23be 0a73 f1bc b771 b2bd
000000f0: 774a 963b 0dbf 413b 166a 623d f35a 99bd
00000100: 8107 01be 44c3 59bd d110 babc eedf 3c3d
00000110: d6ae 26bd b23a a9bc 28c4 da3d 1c03 29be
00000120: 423a c3bd b4d5 d33d a384 a0bd cd62 bc3d
00000130: f205 a83d b55a 6d3d 5fb4 29bd 932d 5ebd
00000140: 69b7 3a3e 97b0 643c 2f7f 8bbd 6af0 dbbd
00000150: 8502 513d 0376 debd c1fb 87bd 7747 ac3d
00000160: 9cf0 443e 808a a33d f452 09be acdb e73d
00000170: 5f2b 06be ad98 973d d1d7 20bd 61c2 34bd
00000180: 824b 62be 5b83 c13b 068b 063d 073b 29be
00000190: 54fd 643d 9916 bd3d da5f f43d 531f 883d
000001a0: 896f 233c cb85 6e3e a8b0 e43d 5f50 bd3d
000001b0: a8ff f0bd c174 10be 205b 3abb b7f5 05be
000001c0: 9d9f 603e 4141 963c 2d9d a1bc 7e2c d0bd
000001d0: 4c2d b2bd 00cd e1bd b455 da3d 843d 23be
000001e0: ffcc 68be c2af 2f3d e5b5 703c c866 643c
000001f0: 53bc 0abe c8ee 1bbe d3b9 ec3d e81c 873c
00000200: c679 0a3e 652f 97bd 9683 153e 54d1 a23d
00000210: 8abb b53d c9c3 363b c69a b33c 9620 33bd
00000220: 5f50 f6bd cd51 d2bd e4d9 743d 7efa ebbd
00000230: 63da 51bc 6d9b 763c c22a 083c ec54 183c
00000240: 5749 b33d db3c 533e 1c93 fabd a53d 4abe
00000250: c157 a93b bb60 a5bd eee5 95be 101c dc3d
00000260: 466a 9dbd 5078 c4bd 942c e43d b4bf 313e
00000270: a8db 793d 68ec 12be 0e67 bf3c d241 803d
00000280: db24 073b eca8 9f3d f88d 3b3d e4e3 433d
00000290: 2f9f a2bd c8b3 87be 75ba 09be bb0f 04be
000002a0: 48f0 ae3d 577e 0fbe 0086 86bd 61c2 833d
000002b0: e091 923d b282 d3bc 1ab8 2cbd 8e49 b7bd
000002c0: fece 20be 032f a0bc 2355 c4bd 039b 543d
000002d0: 616b 033e 472e 70bc 5659 e43d 6b7f 11bd
000002e0: bf57 dabc 993b d9bd c499 17be 0b50 a9bd
000002f0: 276a 6bbd 1fe6 d4bc fcf7 0d3e 1395 de3c
00000300: 9a5a b83c a63d 3abe e197 9dbc ed2e d4bc
00000310: 419c b73c 738a 163d bab8 0fbd f71d 14be
00000320: 4870 76be a6e8 ee3c 487b b83d 5ca8 b33d
00000330: 1809 003e 41db 22be 5033 eebd d7de 463d
00000340: 3245 58bd 7ebb a8bd 5617 a9bc 80a0 df3d
00000350: 4c13 4dbd 9374 65be ca9c bc3d d398 11bd
00000360: 4259 ed3d 6086 08bd ccfa 823d c5a8 f93c
00000370: 9263 273e c5cb 0dbe 2089 20bc 9c9c b53d
00000380: 1011 e4bd 6f01 7ebe 4885 dd3c 2053 f73c
00000390: 0faf 55bd c856 e73c 7082 0bbe fdf3 6bbe
000003a0: 1479 f8bc e662 38be c0da 323c fc94 213e
000003b0: 41c0 20be 645a 293e a4ec e63d 0349 08be
000003c0: cb30 3c3d 26de 2cbd c1d4 193e 9389 0cbc
000003d0: a17c b6bc 2f3c b2bd 177f 1a3e 2f67 5dbd
000003e0: 1a9f aabd 6148 86bd e818 31be 3248 b23d
000003f0: 533d 013d 801b 153d 5744 d33d b214 f33c

network_body._body_endoder.seq_layers.2.bias f4 [128]
-0.18389677 -0.18000399 -0.13058564 -0.05067544 -0.12770054 -0.11122201 -0.1284078 -0.17007619
-0.16245379 -0.12112906 -0.24655949 -0.16535862 -0.10722154 0.011902303 0.12818444 0.0002324793
-0.08219899 -0.11621949 -0.008059714 -0.20476878 -0.021164767 -0.14097905 -0.046839457 -0.099875696
-0.13888854 0.075964496 0.062453818 -0.06406059 -0.12930417 -0.06928891 -0.029804118 -0.12279307
-0.14913854 -0.12638499 -0.09614219 -0.01812634 -0.07018729 -0.18537793 -0.0691368 -0.17677076
-0.04420903 -0.077883124 -0.020803822 -0.13829999 -0.015159745 -0.14821742 -0.1569876 -0.16438676
-0.099539556 -0.17615059 0.075861156 -0.14866674 -0.20064239 -0.0031865647 -0.22754118 -0.068393774
-0.17809956 -0.0042592203 -0.15615308 -0.0846378 0.077377774 -0.08450786 -0.063652016 -0.0006229187
0.10608423 -0.1943455 -0.15194523 -0.021032203 -0.0822509 -0.14854778 -0.056446344 -0.1453393
-0.13579682 -0.032197002 -0.0871728 -0.103077196 0.031632133 -0.12471847 -0.0033889248 -0.21669653
-0.027124193 0.0068623326 -0.23006807 -0.13355465 0.061926883 -0.103091784 -0.09542468 -0.18906386
0.1660511 -0.003494545 -0.14249517 -0.18364654 0.03878233 -0.13320778 -0.11107917 -0.04168265
-0.061949477 0.042737216 -0.15522356 -0.0093052285 -0.11422552 -0.16740517 -0.15168813 -0.15438965
0.04939645 -0.071413755 -0.0052002245 -0.062024746 -0.028178165 -0.014205027 -0.1694257 -0.031701315
-0.17864797 0.120313324 -0.10976003 -0.12725891 -0.1617294 -0.08093924 -0.09950386 -0.011879286
-0.11534955 -0.17485255 -0.19511953 0.0074529406 0.06123008 -0.0401304 -0.14745106 -0.09628744
00000000: 6f4f 3cbe f752 38be 3eb8 05be 0d91 4fbd
00000010: eec3 02be 5dc8 e3bd 567d 03be 7428 2ebe
00000020: 495a 26be 8312 f8bd 177a 7cbe c553 29be
00000030: f796 dbbd e101 433c c842 033e b0c5 7339
00000040: f257 a8bd 7c04 eebd e40c 04bc e8ae 51be
00000050: bc61 adbc d05c 10be bbda 3fbd a18b ccbd
00000060: cc38 0ebe 4693 9b3d 93cf 7f3d 3332 83bd
00000070: 5068 04be 58e7 8dbd c427 f4bc ef7a fbbd
00000080: c6b7 18be 116b 01be 32e6 c4bd b17d 94bc
00000090: 5bbe 8fbd b6d3 3dbe 9897 8dbd 6503 35be
000000a0: 8714 35bd 3081 9fbd c76c aabc 839e 0dbe
000000b0: 9460 78bc 4fc6 17be 5bc1 20be 0155 28be
000000c0: 65db cbbd d260 34be 185d 9b3d 183c 18be
000000d0: 3375 4dbe afd5 50bb 8e00 69be 0912 8cbd
000000e0: bb5f 36be ee90 8bbb 98e6 1fbe 9556 adbd
000000f0: 3d78 9e3d 7512 adbd fd5b 82bd 5e4b 23ba
00000100: b042 d93d 8202 47be 8897 1bbe ba4b acbc
00000110: 2973 a8bd e91c 18be 4834 67bd d3d3 14be
00000120: 520e 0bbe 01e1 03bd a787 b2bd 231a d3bd
00000130: b290 013d 666c ffbd b918 5ebb b2e5 5dbe
00000140: 8e33 debc 6bdd e03b f796 6bbe 8dc2 08be
00000150: 0ba7 7d3d c921 d3bd 046e c3bd f599 41be
00000160: 4d09 2a3e bc04 65bb 41ea 11be d70d 3cbe
00000170: 38da 1e3d 9f67 08be 7a7d e3bd 6dbb 2abd
00000180: bcbe 7dbd 380d 2f3d edf2 1ebe f574 18bc
00000190: 12ef e9bd 436c 2bbe 2254 1bbe 5218 1ebe
000001a0: ef53 4a3d 6041 92bd a566 aabb a90d 7ebd
000001b0: e5d5 e6bc 34bc 68bc ee7d 2dbe 3dd9 01bd
000001c0: 7eef 36be d566 f63d dec9 e0bd 2950 02be
000001d0: 649c 25be 79c3 a5bd aec8 cbbd 56a1 42bc
000001e0: 633c ecbd 8c0c 33be 6acd 47be cc37 f43b
000001f0: 64cc 7a3d c65f 24bd 69fd 16be 5932 c5bd

action_model._continuous_distribution.log_sigma f4 [1, 3]
-0.7433677 -0.39366305 -0.5602908
00000000: 584d 3ebf 348e c9be 386f 0fbf

action_model._continuous_distribution.mu.weight f4 [3, 128]
0.026227845 -0.041975893 -0.07396134 0.002261036 -0.094810754 -0.085344866 -0.05351901 -0.045721974
-0.16539526 -0.042549103 -0.13196768 -0.08201442 -0.006916092 -0.00013851523 0.04597342 -0.01889862
-0.0029630102 -0.06894676 -0.10836675 -0.088342585 -0.017104268 -0.0910743 -0.019198917 0.008838005
-0.04637043 0.0068178484 -0.045396864 -0.039757177 -0.102478825 0.027609533 -0.0011174534 -0.050126374
-0.10455158 -0.07629966 -0.0013210747 0.007096046 0.019733973 -0.048505563 -0.03419528 -0.07271612
0.0003211411 -0.023834141 -0.022298794 -0.03268815 -0.03520971 -0.053446904 -0.0020619398 -0.08440208
-0.10318644 -0.118744284 0.021216583 -0.1068614 -0.06491903 0.002401257 -0.0639116 0.015990416
-0.10466211 -0.0003700673 -0.1084405 -0.057950858 0.001160283 -0.11707923 -0.036208726 0.02092172
0.052807678 -0.101974785 -0.06275924 0.06846015 -0.044156943 -0.07474992 -0.010172681 -0.049759597
-0.05766931 -0.016222654 0.09316344 -0.050829727 0.01221632 -0.035691634 0.08120869 -0.093051806
0.099803016 -0.07092748 -0.106912 -0.00155641 0.04340237 0.013443447 0.03442477 -0.11828921
0.037547022 0.027311286 -0.053228818 -0.07232854 -0.038494814 -0.08253916 0.019881045 -0.0018614475
-0.002498933 -0.08281092 -0.024653263 -0.0039875912 -0.03916252 -0.1441602 -0.089881726 -0.053477474
0.0220175 -0.09377206 0.01619882 0.012857046 -0.0036774753 -0.0002583783 -0.058713857 -0.0019829248
-0.043315392 0.017996961 -0.0043491903 -0.059727754 -0.05500756 0.011902438 0.07315477 0.009653306
-0.05269601 -0.0877856 -0.088668786 -0.016607527 -0.055802286 0.009435443 -0.06026058 -0.020229813
-0.04481396 -0.054155316 -0.026890876 0.0039349226 -0.035437323 0.017571365 -0.060553756 -0.039500337
-0.08502622 -0.001057131 -0.025162375 -0.046120875 -0.076279834 -0.037239987 0.09521421 0.014518903
0.011301614 0.08685357 0.026430395 -0.08123043 0.03544348 -0.025600636 0.022334535 -0.012443634
-0.101922356 0.14179605 0.033234213 0.055635635 0.027382486 -0.043866333 -0.011715761 -0.0006313588
-0.04588272 -0.017801734 -0.020949611 0.012798988 -0.12078976 -0.05445387 0.009648088 -0.06839153
0.0023939789 -0.013851841 0.043701675 -0.11783406 0.057355143 -0.005596732 -0.15126406 -0.06686581
0.0118127335 -0.058340132 0.004893125 -0.039970383 -0.026958792 -0.006899735 -0.06504903 -0.015485694
-0.0989291 0.023837801 -0.14941406 0.057309292 0.06674412 0.030799685 0.0472125 -0.012601156
0.16582489 0.04089018 -0.009073884 0.168362 0.09315442 -0.02075598 -0.029605754 -0.080411226
-0.13539727 -0.0023513364 -0.08441958 -0.0066666016 0.024482418 -0.028986337 -0.01088591 -0.07531165
-0.17993756 0.04397136 -0.055690043 -0.1491069 0.0010715914 -0.19204687 -0.14115167 -0.064269245
0.121627785 -0.034957647 -0.016502505 -0.17219603 0.055801198 -0.039805524 -0.19411191 -0.071848005
0.08832626 0.1425801 -0.053050883 -0.04547696 -0.06337248 -0.049011715 -0.02545716 -0.011558904
0.07623395 0.053358633 0.0034446106 -0.017387511 -0.049450338 0.0032061879 -0.029569944 0.0029027045
-0.06381064 0.0781679 -0.0036020584 -0.033889204 -0.08568098 -0.011057365 -0.11196791 -0.0022758122
-0.021135217 -0.075118795 -0.08639899 -0.043749325 0.051994015 -0.009475082 -0.13961688 0.0018935648
00000000: c7db d63c eaee 2bbd 0b79 97bd e42d 143b
00000010: 242c c2bd 4ac9 aebd c036 5bbd f746 3bbd
00000020: 605d 29be f847 2ebd 8922 07be 2df7 a7bd
00000030: 62a0 e2bb 663e 11b9 a04e 3c3d 47d1 9abc
00000040: 102f 42bb f533 8dbd 63ef ddbd f5ec b4bd
00000050: 401e 8cbc 2a85 babd 0c47 9dbc 48cd 103c
00000060: ecee 3dbd 4268 df3b 10f2 39bd 6cd8 22bd
00000070: 6be0 d1bd 632d e23c 8477 92ba 5051 4dbd
00000080: 241f d6bd ff42 9cbd e927 adba f385 e83b
00000090: 24a9 a13c c5ad 46bd 5a10 0cbd 30ec 94bd
000000a0: d45e a839 d13f c3bc f6ab b6bc 02e4 05bd
000000b0: 0f38 10bd 24eb 5abd 9c21 07bb ffda acbd
000000c0: 6a53 d3bd 3430 f3bd 66ce ad3c 26da dabd
000000d0: 45f4 84bd 685e 1d3b 16e4 82bd 55fe 823c
000000e0: 1759 d6bd 9805 c2b9 0e16 debd e15d 6dbd
000000f0: a314 983a 3cc7 efbd 9a4f 14bd 0764 ab3c
00000100: dd4c 583d 28d8 d0bd eb87 80bd d634 8c3d
00000110: e9dd 34bd 7c16 99bd 51ab 26bc b8d0 4bbd
00000120: a836 6cbd 5fe5 84bc 79cc be3d d532 50bd
00000130: f626 483c 6431 12bd be50 a63d f291 bebd
00000140: 8665 cc3d 6d42 91bd aef4 dabd 7400 ccba
00000150: afc6 313d e741 5c3c fd00 0d3d 9d41 f2bd
00000160: e8ca 193d ebbb df3c 7606 5abd fc20 94bd
00000170: bdac 1dbd 4b0a a9bd 93dd a23c d0fb f3ba
00000180: 24c5 23bb c698 a9bd a4f5 c9bc 57aa 82bb
00000190: e168 20bd bb9e 13be e913 b8bd 320b 5bbd
000001a0: 0b5e b43c 910b c0bd 63b3 843c 5ca6 523c
000001b0: cc01 71bb f376 87b9 f17d 70bd f5f3 01bb
000001c0: 7b6b 31bd 5d6e 933c a783 8ebb 17a5 74bd
000001d0: 9b4f 61bd 7102 433c 2bd2 953d e628 1e3c
000001e0: c5d7 57bd f0c8 b3bd fb97 b5bd 820c 88bc
000001f0: f090 64bd 1e97 1a3c ccd3 76bd feb8 a5bc
00000200: d88e 37bd f7d1 5dbd 414a dcbc 86f0 803b
00000210: ba26 11bd d3f1 8f3c 3707 78bd 1bcb 21bd
00000220: 3a22 aebd 6e8f 8aba 5321 cebc 3ee9 3cbd
00000230: 9a38 9cbd f588 18bd abff c23d b1e0 6d3c
00000240: 682a 393c 49e0 b13d 8e84 d83c 245c a6bd
00000250: 2f2d 113d 6db8 d1bc eaf6 b63c 62e0 4bbc
00000260: abbc d0bd fc32 113e 9920 083d 31e2 633d
00000270: 3c51 e03c 2fad 33bd 77f3 3fbc c681 25ba
00000280: 85ef 3bbd f1d4 91bc 859e abbc d9b2 513c
00000290: 9f60 f7bd 050b 5fbd 0413 1e3c dc10 8cbd
000002a0: 4de4 1c3b d5f2 62bc 8700 333d fc52 f1bd
000002b0: 3aed 6a3d ca64 b7bb f7e4 1abe f1f0 88bd
000002c0: 328a 413c 10f6 6ebd 8256 a03b fcb7 23bd
000002d0: afd8 dcbc 2c17 e2bb 6d38 85bd b5b7 7dbc
000002e0: 579b cabd 7e47 c33c 0000 19be 26bd 6a3d
000002f0: 24b1 883d 9f4f fc3c e561 413d 1475 4ebc
00000300: 00ce 293e 767c 273d a1aa 14bc 1767 2c3e
00000310: bfc7 be3d 7208 aabc c487 f2bc a4ae a4bd
00000320: 95a5 0abe e118 1abb 2ce4 acbd 8273 dabb
00000330: 5a8f c83c c174 edbc d15a 32bc ff3c 9abd
00000340: 8d41 38be 501b 343d 3e1b 64bd 7baf 18be
00000350: a474 8c3a efa7 44be 108a 10be 989f 83bd
00000360: fd17 f93d c02f 0fbd 4330 87bc 2854 30be
00000370: cc8f 643d 1e0b 23bd 46c5 46be 0c25 93bd
00000380: 66e4 b43d 8500 123e e24b 59bd 0c46 3abd
00000390: 6ec9 81bd 82c0 48bd 898b d0bc 8f61 3dbc
000003a0: 8c20 9c3d 958e 5a3d fabe 613b 4170 8ebc
000003b0: 708c 4abd e81e 523b ab3c f2bc 4d3b 3e3b
000003c0: 27af 82bd 7e16 a03d 8310 6cbb 68cf 0abd
000003d0: 8279 afbd f329 35bc 6e4f e5bd cb25 15bb
000003e0: c323 adbc e2d7 99bd f4f1 b0bd 7e32 33bd
000003f0: adf7 543d 603d 1bbc baf7 0ebe 7e31 f83a

action_model._continuous_distribution.mu.bias f4 [3]
0.15995593 0.11737336 -0.12974115
00000000: 7dcb 233e 7261 f03d ddda 04be

onnx::Div_51 f4 [22]
0.015113922 0.69653994 0.018998396 0.71970177 0.02382989 0.7505416 0.02907809 0.78383267
0.033369966 0.81412566 0.037702736 0.83830255 0.04123294 0.85617125 0.04268835 0.86585814
0.041975863 0.859043 0.039355975 0.829189 0.036641095 0.78532535
00000000: 62a0 773c 7150 323f 86a2 9b3c 603e 383f
00000010: e736 c33c 7f23 403f 2d35 ee3c 42a9 483f
00000020: f2ae 083d 8a6a 503f 2f6e 1a3d ff9a 563f
00000030: dfe3 283d 0a2e 5b3f fbd9 2e3d e1a8 5d3f
00000040: e2ee 2b3d 3eea 5b3f bb33 213d bb45 543f
00000050: f914 163d 150b 493f
