results/Random1+_V0/3DBall/3DBall-2999995.pt (torch, 495670 bytes, 44 tensors)

network_body.observation_encoder.processors.0.normalizer.running_mean f4 [22]
000000 39 5f 21 3b d1 bc 3e 41 21 7d 6a 3b ae 9e 3f 41
       0.0024623408 11.921098 0.003578015 11.97624
000010 cc 30 b6 3b b2 21 40 41 6f 15 0b 3c be 56 40 41
       0.0055600163 12.008226 0.008488997 12.021177
000020 74 bb 47 3c a7 55 40 41 bc cf 85 3c e9 12 40 41
       0.012190688 12.020911 0.016334407 12.004617
000030 f1 70 a8 3c 4b 60 3f 41 18 89 c7 3c 9c da 3d 41
       0.020561667 11.961009 0.024357364 11.865871
000040 03 0d d8 3c d8 8c 3a 41 87 c1 d1 3c a8 a1 30 41
       0.026373392 11.659386 0.025604976 11.039467
000050 24 16 ba 3c 37 50 1a 41
       0.022715636 9.644584

network_body.observation_encoder.processors.0.normalizer.running_variance f4 [22]
000000 7d 4c e6 45 f0 be f4 4d e7 25 27 46 1d c4 f3 4d
       7369.561 5.1326925e+08 10697.476 5.112145e+08
000010 4c 97 81 46 17 3a f3 4d d7 46 c5 46 ae 0f f3 4d
       16587.648 5.100838e+08 25251.42 5.097364e+08
000020 f9 1e 0d 47 5a 26 f3 4d 6b 4b 3c 47 c0 91 f3 4d
       36126.973 5.099221e+08 48203.418 5.1080192e+08
000030 91 01 6c 47 73 8a f4 4d d8 3e 8b 47 f1 41 f6 4d
       60417.566 5.1283926e+08 71293.69 5.1643958e+08
000040 d9 74 96 47 81 54 f7 4d d9 30 92 47 37 23 f1 4d
       77033.695 5.186888e+08 74849.695 5.057021e+08
000050 36 14 82 47 aa 07 da 4d
       66600.42 4.5724192e+08

network_body.processors.0.normalizer.running_mean f4 [22]
000000 39 5f 21 3b d1 bc 3e 41 21 7d 6a 3b ae 9e 3f 41
       0.0024623408 11.921098 0.003578015 11.97624
000010 cc 30 b6 3b b2 21 40 41 6f 15 0b 3c be 56 40 41
       0.0055600163 12.008226 0.008488997 12.021177
000020 74 bb 47 3c a7 55 40 41 bc cf 85 3c e9 12 40 41
       0.012190688 12.020911 0.016334407 12.004617
000030 f1 70 a8 3c 4b 60 3f 41 18 89 c7 3c 9c da 3d 41
       0.020561667 11.961009 0.024357364 11.865871
000040 03 0d d8 3c d8 8c 3a 41 87 c1 d1 3c a8 a1 30 41
       0.026373392 11.659386 0.025604976 11.039467
000050 24 16 ba 3c 37 50 1a 41
       0.022715636 9.644584

network_body.processors.0.normalizer.running_variance f4 [22]
000000 7d 4c e6 45 f0 be f4 4d e7 25 27 46 1d c4 f3 4d
       7369.561 5.1326925e+08 10697.476 5.112145e+08
000010 4c 97 81 46 17 3a f3 4d d7 46 c5 46 ae 0f f3 4d
       16587.648 5.100838e+08 25251.42 5.097364e+08
000020 f9 1e 0d 47 5a 26 f3 4d 6b 4b 3c 47 c0 91 f3 4d
       36126.973 5.099221e+08 48203.418 5.1080192e+08
000030 91 01 6c 47 73 8a f4 4d d8 3e 8b 47 f1 41 f6 4d
       60417.566 5.1283926e+08 71293.69 5.1643958e+08
000040 d9 74 96 47 81 54 f7 4d d9 30 92 47 37 23 f1 4d
       77033.695 5.186888e+08 74849.695 5.057021e+08
000050 36 14 82 47 aa 07 da 4d
       66600.42 4.5724192e+08

network_body._body_endoder.seq_layers.0.weight f4 [128, 22]
000000 8d f1 5f 3e e6 0c e6 3e fd 5e 7b bc 50 c5 f7 3e
       0.21869488 0.44931716 -0.015342471 0.48392725
000010 c7 8f af 3c c2 9b f8 3e 5c 39 7b bd f7 e8 ce 3e
       0.021430863 0.48556334 -0.061334 0.40412113
000020 c4 8b dc 3e 60 d7 2b 3e 7e 25 07 3d b7 24 03 3e
       0.43075383 0.16781378 0.03299474 0.12806974
000030 b5 fe b8 3d e4 45 bf bc 15 fe b1 3e db 39 0c bd
       0.090329565 -0.023348756 0.34764162 -0.034234863
000040 43 a2 ff bb b5 69 83 3e 0b 96 c1 bd 7f 95 44 3c
       -0.0078013255 0.25666586 -0.094524466 0.011998533
000050 3b 21 03 bf cf cc 8b be a2 e5 75 3d a0 67 80 3e
       -0.5122258 -0.27304694 0.060033448 0.2507906
000060 32 21 19 be d1 b8 2f be ee 7b dd 3d e9 4a 8a be
       -0.1495407 -0.17160346 0.10814653 -0.27010277
000070 2e e8 87 3e 4a d8 ab 3d 55 d4 2b bd 8b e5 69 be
       0.26544327 0.08390863 -0.041950542 -0.2284147
000080 09 ef 24 be 1a 05 1d be 14 7e 00 bd b2 75 e4 3d
       -0.1610681 -0.15333977 -0.031370237 0.11155261
000090 d0 48 15 be 38 ac 07 3d c0 0f cb 3d 80 cb a7 be
       -0.14578557 0.033123225 0.099151134 -0.32772446
0000a0 04 ad 31 3d ce 29 a8 bd 8b 3d 93 bd 00 4f d3 bc
       0.04337789 -0.082110986 -0.07189473 -0.025794506
0000b0 44 a3 3b 3d 79 37 34 be 18 54 12 3e 36 21 1f 3c
       0.04581 -0.17599286 0.14289892 0.009712508
0000c0 eb 4c 8b bd 51 db bb bd 1c 12 8b 3d 7d 62 06 3e
       -0.0680178 -0.09172691 0.067905635 0.13123508
0000d0 d1 c4 e2 3d bf ab 47 3e f4 a1 b8 be d3 eb 5b 3c
       0.11072696 0.1949911 -0.3606106 0.013422924
0000e0 5e 1a 05 be 52 ab c2 be a1 3f 71 3d 04 ed 33 3d
       -0.1299834 -0.38021332 0.058898572 0.043927208
0000f0 97 11 ce be fa c0 d0 3e 5a f1 53 be 5e 30 1f 3d
       -0.40247795 0.4077223 -0.20697537 0.038864486
000100 3e 9d 4f bd 73 63 f1 3a 21 e6 2e 3e 24 c1 70 bd
       -0.050687067 0.0018416479 0.17079975 -0.058777943
000110 f0 60 83 be c0 b5 f7 3e 6c 4d b8 be b4 03 ed bb
       -0.25659895 0.48380852 -0.35996568 -0.0072331075
000120 ca fe 3f be 62 83 30 3d 85 b1 b6 be 9c 31 f9 3d
       -0.18749538 0.043094046 -0.35682312 0.12167665
000130 58 64 e6 be 94 5d e9 bd 57 ee c0 bd 0a 37 21 be
       -0.4499843 -0.11394802 -0.0942046 -0.15743652
000140 2d 77 5a 3e f0 f4 c4 3e 94 b5 17 bd ad 78 11 be
       0.21334524 0.38468122 -0.0370384 -0.1420619
000150 b3 76 95 3e 38 70 f8 bd 8b 3a cf bd 10 e6 6b be
       0.29192123 -0.12130779 -0.10118588 -0.2303698
000160 5c db 87 3c 01 13 35 be af 3f db be 95 a5 1b bc
       0.01658409 -0.1768303 -0.42822024 -0.009499927
000170 32 b4 1e 3e c7 31 16 3e 4b 3a 3d 3e 54 7b 4b be
       0.15498427 0.14667426 0.18479268 -0.19871265
000180 b6 43 1f 3e 55 71 cb 3d ef a9 ca 3d e0 ba 02 3b
       0.15553173 0.09933726 0.098956935 0.0019947812
000190 e1 d1 bc be 60 08 af bc 15 01 5a 3e d9 6a 00 bf
       -0.36878875 -0.021366298 0.21289475 -0.50163037
0001a0 f8 8e ba bd 4e 7c 8a bd 84 6a b4 bd 36 31 e1 bb
       -0.091093004 -0.067619905 -0.08809379 -0.0068723215
0001b0 06 c0 65 bd ab 4f e7 3e ab 0e d9 be 1a 9f cf be
       -0.05609133 0.4517797 -0.42394003 -0.40551072
0001c0 a4 50 ab bc 8e 3d ef bc 93 99 5c 3e 36 cc 1c be
       -0.020912476 -0.029204156 0.21542959 -0.15312275
0001d0 26 b0 07 be 29 c6 8a bb e0 e2 bb 3d 4a 7e 0d 3e
       -0.13250789 -0.0042350483 0.09174132 0.13817707
0001e0 77 fe d9 be 77 74 9f 3d 23 53 1a 3c d2 1c 4d 3e
       -0.42576954 0.07785886 0.009419235 0.20030525
0001f0 d2 42 ad 3d 67 73 a4 3d 19 6a 78 be c2 0d 89 3e
       0.084600106 0.08029824 -0.24259223 0.2676831
000200 25 22 b1 be 32 13 27 3c ef 65 87 3b 92 15 15 be
       -0.34596363 0.010197448 0.0041320245 -0.1455901
000210 d8 64 c7 be 70 fc d7 bd 55 7c 60 bd 01 4b 96 3d
       -0.38944125 -0.105461955 -0.054806072 0.073385246
000220 65 91 e4 be a5 c5 ed be 55 ce 80 be 4c 00 66 bd
       -0.44642177 -0.46439853 -0.2515742 -0.056152627
000230 80 cf c9 be a5 ae f9 3b 2a 41 27 3e 8c 87 61 bd
       -0.39416122 0.007619696 0.16333452 -0.05506091
000240 9a 79 2a be ff 7d 9c 3e 1e 6b 8e be ee 6c 02 3f
       -0.1664795 0.30564877 -0.278161 0.50947464
000250 24 40 df be f5 03 a2 3e fc 7a 58 3e bc d0 2d 3e
       -0.43603623 0.31643644 0.21140665 0.16974157
000260 ab e4 05 bf 71 e2 fb bd 5a 05 ca bd 00 a1 1c 3d
       -0.52302045 -0.1229905 -0.09864302 0.03823948
000270 70 a8 e8 bd 09 0e a2 bd d1 91 fc bd b1 fe 9e 3e
       -0.11360252 -0.07912833 -0.123325 0.3105369
000280 12 8c 62 3d a7 2f 19 be f1 f6 75 bd 02 2a c0 be
       0.055309363 -0.14959584 -0.060049955 -0.3753205
000290 b5 6f 2c bc 7b 96 d4 39 50 96 50 3e b5 8c 3c 3e
       -0.01052468 0.00040547908 0.2036984 0.1841305
0002a0 de 5f 65 3e 96 21 21 bd 27 4b 9e be 52 ba 3b 3e
       0.22399852 -0.03933867 -0.30916712 0.18332794
0002b0 cd 41 86 3e 38 38 d1 3d 82 3c db be 3c be 88 bc
       0.26222077 0.10215801 -0.428196 -0.016692273
0002c0 12 56 41 be ca d5 29 bf 7c a3 48 bd 76 46 6c bd
       -0.1888049 -0.6634184 -0.048984036 -0.057684384
0002d0 da 19 a6 be b4 58 e6 3d 1c d8 d5 3e 76 28 68 3e
       -0.32441598 0.112473875 0.4176644 0.22671685
0002e0 8e 96 86 be c7 da c5 3e 3c 3a 7a be 59 59 19 bf
       -0.2628674 0.38643476 -0.24436277 -0.5990196
0002f0 a3 cd 78 bd 81 c9 ee 3c 3e a8 41 be ae 0f 04 bd
       -0.060742985 0.029148819 -0.18911836 -0.032241516
000300 72 df 05 bd 6a cb f0 3e a2 59 43 be 2e a0 5c 3b
       -0.032683797 0.47030193 -0.19077161 0.003366481
000310 86 b1 8c 3e b2 d0 9b 3e 99 36 cf 3d c8 e9 12 3f
       0.2747919 0.3043266 0.101178356 0.5738797
000320 8c ca 5f be 80 f9 50 3e 93 e8 ff 3d f0 2c 97 3e
       -0.21854609 0.20407677 0.12495532 0.29526472
000330 71 52 1a 3e 7d 37 29 be 49 8b b1 bd 12 ad b3 bc
       0.15070511 -0.16525073 -0.08669145 -0.021933112
000340 1d 62 aa 3d 76 50 47 be 68 bd 81 be da ce bf be
       0.08319495 -0.19464287 -0.25339818 -0.37462503
000350 03 40 a4 3e 45 2d 04 bd 54 e6 75 be f8 cf 1e be
       0.32080087 -0.032269735 -0.24013644 -0.15509021
000360 81 53 81 bd b3 03 83 be 2a 6c d1 bd eb 0b 25 bc
       -0.06314755 -0.2558876 -0.10225709 -0.010073642
000370 3c 6b 21 3e cd 06 aa be 05 dc 92 3e d4 46 4b 3e
       0.15763563 -0.33208314 0.28683487 0.19851238
000380 b6 e8 e9 be 53 47 52 3d 91 38 13 3e 0c 05 7a 3e
       -0.45685357 0.05133755 0.14377047 0.24415988
000390 40 d7 a0 3e 3f 28 c3 be a5 05 62 be 03 ed 21 3c
       0.31414223 -0.38116643 -0.22072466 0.009883168
0003a0 9a 69 76 3e 68 fb 93 be a5 48 3a 3e e3 62 7a be
       0.24063721 -0.28902745 0.18191774 -0.24451785
0003b0 0e 0f 78 b9 49 de 1e 3e 81 7c 28 bd 38 0b f4 3e
       -0.00023656731 0.15514483 -0.04113436 0.4766481
0003c0 7e 0f 7c 3d cd eb c9 bd 80 95 9c 3e c1 7e 65 3d
       0.061538212 -0.098594286 0.3058281 0.056029085
0003d0 e1 b8 84 be 16 c1 e3 3c 0c da 8d 3e b3 71 82 3e
       -0.259223 0.027802031 0.2770542 0.2547737
0003e0 b1 04 54 3e e9 99 e4 bd 27 b1 1e 3e 44 9d 27 bd
       0.20704915 -0.111621685 0.15497266 -0.040921465
0003f0 4f 3c bc bd 9c 34 82 3e 14 43 c0 3d 26 a6 54 3e
       -0.091911905 0.25430763 0.09387794 0.20766506

network_body._body_endoder.seq_layers.0.bias f4 [128]
000000 b9 91 15 3e 7b 50 9d be 5d 1f e1 3c e9 72 3b 3d
       0.1460637 -0.30725464 0.027480775 0.045763884
000010 bf df 57 be 60 6e f5 bd df d4 04 3e 02 b8 47 3d
       -0.21081446 -0.11983943 0.12971829 0.048759468
000020 7a 7b f5 3c ac 9f c1 bd 70 1f a4 bd a5 9c 56 bd
       0.029966105 -0.09454283 -0.08013809 -0.05239548
000030 63 2b 69 bd 36 29 52 3d d1 2a 2f 3e 75 5a 2f 3e
       -0.056926142 0.051308833 0.17106177 0.1712435
000040 e6 cd c3 3d 80 83 f9 3d 12 10 42 3e db 86 25 3d
       0.095607564 0.12183285 0.18951443 0.04041181
000050 38 f9 11 3e b9 2d 46 bc 55 a8 f7 3d 62 23 46 3e
       0.14255226 -0.012095862 0.12092654 0.19349435
000060 87 c3 af bc 64 31 bd 3d ea b6 19 3e 99 e1 3c be
       -0.02145554 0.09237936 0.15011182 -0.18445434
000070 45 b0 a0 3d 1a 30 6f 3e 58 d5 e9 3d 26 45 24 3e
       0.07846121 0.23358193 0.11417645 0.16042003
000080 1d 88 94 3e b6 35 81 bd 38 89 8e bd 29 6b 04 be
       0.29010096 -0.06309073 -0.06959766 -0.12931503
000090 31 91 07 bc 57 71 7f 3d 06 97 44 3d 3c 7d 43 3d
       -0.008274362 0.06236395 0.04799559 0.047726855
0000a0 24 31 26 3e 11 9b 45 3e 37 ab 7d 3d d1 fc 50 3d
       0.16229683 0.19297434 0.06193086 0.051022355
0000b0 1b 47 14 3d fb b5 f9 bd 30 39 8c 3d 9f c1 98 bd
       0.036200624 -0.12192913 0.06846845 -0.07458805
0000c0 59 d5 42 be 47 9c d2 3d 8d c8 02 3e 99 a0 cb 3b
       -0.19026698 0.10283714 0.12771817 0.006214213
0000d0 29 5b 04 3e fb b1 0a ba 12 64 2b bd 6e 65 ec 3d
       0.129254 -0.00052908034 -0.04184348 0.11542784
0000e0 a1 d6 18 3e 6d 8b 1e 3d 4e d4 88 3e f1 a4 cd bc
       0.14925624 0.038707186 0.26724476 -0.025103064
0000f0 06 97 3a 3e 75 0b ab bd ea c7 e1 bd 38 98 25 be
       0.18221673 -0.08351795 -0.11024459 -0.16171348
000100 08 59 72 3e a7 c7 0e 3d 7e 13 33 be c4 7d 6e 3e
       0.23666775 0.034858372 -0.17487904 0.23290163
000110 c4 db 82 3e 62 8d 43 3d d0 4d 42 be 2f 3c 3b bd
       0.25558293 0.047742255 -0.18974996 -0.045711692
000120 60 59 6f 3d 56 3e 31 3e 96 81 5c 3e 39 92 5d 3d
       0.058434844 0.17308936 0.21533808 0.054094527
000130 0a b1 29 3c 72 fb 98 bd 6e ac 28 be db 3f 6b bd
       0.010357151 -0.074698344 -0.16472027 -0.057433944
000140 1b 0c 3a bc d7 9b 3b 3d 0f 06 52 be b5 d1 95 bc
       -0.011355425 0.045802917 -0.20510124 -0.018288473
000150 64 82 76 bd 15 cd 1b 3e 14 b5 56 bd 1c 84 fd bd
       -0.060182944 0.15214951 -0.052418783 -0.123787135
000160 d0 43 40 be 33 b1 14 3e 88 20 e6 bd a9 26 87 3d
       -0.18775868 0.14520721 -0.112366736 0.06599171
000170 a2 d2 09 be 64 26 8d bd 2d 68 3c bd 3d 90 06 3e
       -0.13459256 -0.06892088 -0.045997787 0.1314096
000180 32 49 c1 bd bb 71 82 be 68 30 dc bd e2 02 c5 bc
       -0.09437789 -0.25477394 -0.1075142 -0.024049226
000190 08 23 3d 3e dc 76 46 3e e6 de a4 3e 51 3c 8e bd
       0.18470395 0.19381279 0.32201308 -0.06945098
0001a0 0f 75 8f be 62 c9 5d bd df fb a5 3d 8f 95 54 3e
       -0.28018996 -0.05414713 0.08104681 0.20760177
0001b0 70 5a 85 be 11 b1 48 be 1b 0a d3 bd fb 82 7f 3d
       -0.2604556 -0.19598795 -0.10304662 0.062380772
0001c0 8c e8 19 3e 3f d2 84 be 39 58 7b 3d c6 bc eb bd
       0.15030116 -0.25941655 0.061363433 -0.11510615
0001d0 6f 57 2e 3e dc d5 1f 3e 71 04 91 3e 2f bd 14 3d
       0.17025541 0.15608925 0.283237 0.036313232
0001e0 ef 9c 1f bc 6e 1a b2 3c fa fc fd bc c9 e3 7d bd
       -0.009742006 0.021741118 -0.031004418 -0.06198481
0001f0 ba 57 64 bd 8f 32 35 3d 01 14 1c 3e 97 b7 a0 bd
       -0.055747725 0.04423767 0.15242006 -0.07847517

network_body._body_endoder.seq_layers.2.weight f4 [128, 128]
000000 94 ba 55 bc d6 bd 69 3d 91 0b 20 3d 74 40 2a bd
       -0.013044972 0.057065807 0.03907353 -0.041565374
000010 f3 20 2a 3d 8b ea a2 bc 1d d4 ab be 7e 9f 0f bd
       0.04153533 -0.01988723 -0.33560267 -0.035064213
000020 73 f3 0d be 35 06 89 3d 59 b7 2d 3c 07 fa 4d 3e
       -0.138624 0.06690637 0.0106027955 0.20114909
000030 07 36 d5 3c bb 7b c8 bc 5d 9f cb bd 66 ff 2f bd
       0.026026739 -0.024473062 -0.099425055 -0.042968176
000040 3b e8 cb bd 13 62 df bd 02 27 0d be 3e 9e 67 bc
       -0.09956404 -0.10907378 -0.13784412 -0.014136849
000050 90 26 ef bd 82 f2 aa 3d 44 c0 0c be e5 7c 8c 3d
       -0.11677277 0.08347036 -0.13745219 0.06859759
000060 16 b7 ca bc c5 1b b1 3c 49 a1 f3 bd 13 62 24 3b
       -0.024745505 0.021619687 -0.11895997 0.002508287
000070 2f 6c 1f bd 86 cd b1 3c 86 98 46 3d 0b 96 a9 3d
       -0.03892153 0.021704447 0.0484853 0.082805716
000080 51 c4 0c be f7 48 b9 3d 98 61 82 bc 94 5f 4f 3c
       -0.13746764 0.0904712 -0.015915677 0.012657065
000090 30 02 37 3d 6f 80 4e 3d 74 b2 0a 3e f5 4e b0 bd
       0.04467982 0.050415453 0.13544637 -0.0860881
0000a0 f9 66 8a be 91 34 73 3d 4a 0e df bd a2 cd a1 3c
       -0.27031687 0.059376303 -0.10891397 0.019751374
0000b0 2e d2 e7 bd bb 2a a4 bd f4 4b fb bd 2a 0d 0a bd
       -0.113193855 -0.08015963 -0.12270346 -0.03370396
0000c0 55 5e 1a bd 49 96 86 3d 9e af 1f bd c8 7c 96 3d
       -0.03768762 0.06571633 -0.03898584 0.07348019
0000d0 6b 12 19 3d aa a2 44 3d 15 fc 5c be 8a 41 8d bd
       0.03737108 0.04800669 -0.21580537 -0.06897266
0000e0 39 12 a6 bd b3 c4 09 3e b0 f1 00 be 0c 41 d8 3c
       -0.081089444 0.13453941 -0.12592196 0.026398204
0000f0 05 4f 8a 3e e1 ec 77 3e f8 92 e4 bd de 39 bb bd
       0.27013412 0.24211456 -0.111608446 -0.09141897
000100 31 f7 50 be 46 ef f6 3d a3 4a ce bd 6f 26 6d be
       -0.20406796 0.120573565 -0.100728296 -0.23159193
000110 06 37 90 be d2 ce 1e be 5c 6d 7b 3e f3 71 40 3d
       -0.2816698 -0.15508583 0.24553436 0.04698367
000120 62 8e fb 3d 00 9d 0c 3a 57 86 10 be 5b e9 ba bd
       0.12283017 0.0005363971 -0.14113747 -0.0912654
000130 12 2a c2 bd 43 f2 21 be 4c b5 5a bd 91 1c 00 be
       -0.094806805 -0.15815072 -0.053395554 -0.12510897
000140 f8 69 88 bd ac a1 de 3d bb cc a4 3c 40 06 21 bd
       -0.06660837 0.1087068 0.020117154 -0.0393126
000150 e7 8e 61 bd 9d 63 e0 bd 16 e6 be 3d 60 7f 03 bd
       -0.055067923 -0.109565 0.09321229 -0.032103896
000160 5b 44 d8 3c 25 61 32 3d d1 9b e7 3d 4f 0b 4d be
       0.026399782 0.043549675 0.113090165 -0.20023845
000170 f5 5a 4b 3e 75 de 0f 3e e5 ac 3a 3d 1e 3f 20 be
       0.19858916 0.14049704 0.04557504 -0.15649077
000180 33 f0 b5 bd 00 b9 50 bd 4a 40 b2 bd 38 e1 a1 bd
       -0.08883705 -0.05095768 -0.087036684 -0.07904285
000190 46 f8 e6 3d 48 67 c0 3d 3a f4 82 be a1 5c be 3d
       0.11277823 0.09394699 -0.25576955 0.09295011
0001a0 d7 7d 5a bd fc 83 49 3d f7 92 51 3e 26 2e 13 be
       -0.053342666 0.049198136 0.20466219 -0.14373073
0001b0 94 70 38 3e e6 7e 16 3e 67 5e 63 bc eb 9d a2 bd
       0.18011695 0.14696845 -0.013877488 -0.07940277
0001c0 e9 0c d0 be d4 73 15 3e a3 89 db bc 21 6b 59 bd
       -0.4063485 0.14594966 -0.026799029 -0.05308068
0001d0 ee ea 0b be 78 e4 0d be ef 9c 96 be 60 cb 9c bd
       -0.13663837 -0.13856685 -0.29416606 -0.07655978
0001e0 c4 27 b6 bd 72 72 5a bd ee de ed bd ce 47 99 3b
       -0.088943034 -0.0533318 -0.11614786 0.0046777492
0001f0 7c c0 07 be 07 b5 08 bd 60 b5 8f be 38 69 cb 3d
       -0.1325702 -0.033375766 -0.28068066 0.09932178
000200 ec c7 47 bd f2 11 af 3d 94 7c a5 3b 0e b0 e5 3c
       -0.048774645 0.08548345 0.0050502513 0.028038051
000210 b5 8e 88 3c e2 ab 77 bd fa 8e 54 3d 28 7a ba 3d
       0.01666961 -0.060466655 0.051894166 0.09105331
000220 00 d2 16 3e ee b4 1a be 18 8c 48 be 5e 1f 85 bd
       0.14728546 -0.15108082 -0.19584692 -0.065001234
000230 a9 86 46 3d d8 5a 8c 3d ee 19 dc 3d 9f b1 2a 3e
       0.048468266 0.068532646 0.10747133 0.1666932
000240 19 d2 cb bd dd c8 1a bc 4a 91 0b be a4 1d 62 be
       -0.09952182 -0.009447304 -0.13629642 -0.2208162
000250 4f 3f d9 3d d3 fa 03 be 88 51 80 bd 08 f1 2d 3d
       0.10607778 -0.1288865 -0.06265551 0.042466193
000260 fe a6 a7 3d 07 7e 08 be 65 4a 52 3c 67 e8 da 3c
       0.08186148 -0.13329326 0.01283512 0.026722146
000270 46 eb 17 bd bd 15 be bd c8 47 32 3d 64 18 17 be
       -0.03708961 -0.0928149 0.043525487 -0.14755398
000280 b7 4f 02 be 72 cd a3 bd 98 9a ff 3c ab 1d 9d bb
       -0.12725721 -0.0799817 0.031201646 -0.0047947965
000290 1a 92 cf 3d 4a 1b e4 bd d3 e7 54 3d cb b0 71 bd
       0.101352885 -0.111380175 0.051978897 -0.059006494
0002a0 fe 8b f7 bd 5d 39 f0 bc 05 66 89 bc eb 47 9a 3d
       -0.12087248 -0.029324228 -0.01677228 0.075332485
0002b0 e8 32 c8 3d c3 ba 78 bd dd ec c7 bd 79 c4 9a bc
       0.097753346 -0.060724985 -0.09761975 -0.018892514
0002c0 d3 85 b1 3d a9 68 92 be 86 0b 11 be a9 1e 08 bd
       0.08668103 -0.28595474 -0.14164552 -0.033232365
0002d0 84 2c fc bd c6 85 d4 3d cb 87 b3 bd a8 e7 4b 39
       -0.12313178 0.10377078 -0.08766135 0.00019445887
0002e0 a4 0d d8 3d 4f d4 26 3d 00 a6 b5 3b fb 43 e6 3c
       0.10549477 0.040729817 0.0055434704 0.028108587
0002f0 2c 79 2a bd fb ae 2d 3e 5b 92 a0 3d 26 18 1e be
       -0.041619465 0.16961281 0.07840415 -0.154389
000300 16 17 f9 bd 87 20 0e 3e 17 54 43 bd 33 4e 05 be
       -0.121626064 0.13879596 -0.047687616 -0.13018112
000310 a8 f2 97 bd 82 a5 eb 3c 5c 2a 2f 3d 36 d0 fd 3d
       -0.0741933 0.028765444 0.042765006 0.12393229
000320 28 71 29 bd a1 4b a3 3c 6f ae a3 bc 5c 49 66 bd
       -0.04136768 0.019933524 -0.019980637 -0.056222305
000330 8d f6 59 3d 31 16 0e 3e c2 28 8f bd 98 23 df bd
       0.053213645 0.13875653 -0.06990196 -0.10895461
000340 77 d0 01 3e 64 72 1e 3d 3f e2 35 3d dc c9 2a bd
       0.1267718 0.03868331 0.04440522 -0.041696414
000350 f1 11 c8 3d ad ed 09 3e 08 97 3b 3c 4e 65 6c bc
       0.09769047 0.13469572 0.011449583 -0.01442845
000360 f1 33 49 bd fa cc 5d 3d 0a 64 8c 3e 01 98 91 bc
       -0.0491218 0.05415056 0.27420074 -0.017772676
000370 a4 ac 86 3d 81 e8 9b 3b 28 d0 7b 3a 75 8e bf bc
       0.06575897 0.0047579412 0.0009605908 -0.023383358
000380 26 46 32 3c 16 45 21 be 8a d6 0e bd 56 34 d8 bd
       0.0108809825 -0.1574901 -0.03487257 -0.10556857
000390 ab 6a 1c be a5 2b 8c 3c 81 d6 44 bd dd 6e 54 bd
       -0.15275066 0.017110655 -0.04805613 -0.05186354
0003a0 36 a1 e2 bd 66 eb c8 3d d0 63 07 3b e5 26 84 bd
       -0.11065905 0.09810524 0.0020658858 -0.06452731
0003b0 ac 28 99 bc 02 42 a7 bd fb f2 14 be e2 7b 38 bd
       -0.018696152 -0.08166887 -0.14545815 -0.04504002
0003c0 0e 26 96 3b 5e 70 63 3d 5e 6c 95 3b d3 f5 50 3c
       0.004582173 0.055527084 0.0045600375 0.012753922
0003d0 42 13 fb 3c 5d 8e 89 bd de f8 e4 bc 96 a5 c8 bd
       0.030648831 -0.06716607 -0.0279507 -0.09797208
0003e0 57 8a 48 bd 74 f7 c6 bd 75 c1 c8 bb 12 33 3d 3c
       -0.048960056 -0.09715167 -0.0061265775 0.011547821
0003f0 b6 a8 be 3d 80 c0 4b bd e6 98 de bd 0d 46 82 3d
       0.09309523 -0.04974413 -0.10869007 0.063610174

network_body._body_endoder.seq_layers.2.bias f4 [128]
000000 fe 82 1b be c6 99 04 bb 52 c5 59 be e4 ca 00 be
       -0.15186688 -0.0020233258 -0.21266678 -0.12577397
000010 e6 3b c0 bd 4f d1 62 be ec 0e 1d be fa fe 87 bc
       -0.09386425 -0.22150157 -0.15337723 -0.016601074
000020 95 27 0e bd 90 60 20 be 20 6f dd bd ca 58 e4 bd
       -0.034705717 -0.15661836 -0.10812211 -0.11149748
000030 23 4f 16 be 71 dc d4 be e1 2b 49 be 92 23 38 be
       -0.14678626 -0.41574433 -0.19645645 -0.17982319
000040 58 79 d3 3b 5e 6a b7 3c 6e 9a 26 3d 3f f9 52 be
       0.0064536743 0.022389587 0.04067462 -0.20602892
000050 5b a2 3d be 7f f7 29 bd d3 8a a1 3d 63 f8 87 bd
       -0.18518965 -0.041495796 0.07887807 -0.06639173
000060 4e 6a 21 be 50 c4 4f be fa aa 54 bd 35 01 91 bd
       -0.15763208 -0.20289731 -0.05192087 -0.07080308
000070 b0 93 0b be 77 e6 52 be aa 75 c6 bd 73 a2 b9 bd
       -0.13630557 -0.20595728 -0.096904114 -0.09064188
000080 8b 13 e8 bd d8 78 80 3d 3d 73 7e bd fc 5f 0f bb
       -0.113318525 0.06273049 -0.06212162 -0.002187728
000090 fa b9 1f bc 89 09 3c be 05 b7 81 3d f1 c5 a9 bd
       -0.00974893 -0.18363012 0.06333736 -0.082897075
0000a0 b9 49 be 3d f0 63 27 be 78 f2 43 3e 00 55 52 be
       0.09291405 -0.16346717 0.19135463 -0.20540237
0000b0 20 4f b5 bd 33 3b 3a 3c d1 e3 0a be 89 4e cf 3d
       -0.088529825 0.011366653 -0.13563468 0.10122401
0000c0 a0 f3 45 be aa c7 29 be 90 91 8c be 1b 60 ae 3d
       -0.19331217 -0.16580072 -0.27454805 0.085144244
0000d0 56 2a c7 3c 6d 38 23 be 17 b0 6a be f4 84 84 bd
       0.02431218 -0.15939493 -0.22918735 -0.06470671
0000e0 27 ed 2d bd b8 4b dd bd d7 3d a3 bc 8e c2 35 be
       -0.042462494 -0.10805458 -0.019926948 -0.17749998
0000f0 25 d4 22 be 52 84 ea bd e3 5b 60 be c8 91 49 be
       -0.15901239 -0.11451019 -0.21910052 -0.19684517
000100 61 ed 1b bd eb 7a 0c be 93 e0 45 be 70 2d 60 be
       -0.03806818 -0.13718764 -0.1932395 -0.21892333
000110 d3 6e e7 3d e6 90 4a 3e eb b8 38 be 4b 51 d5 bd
       0.11300435 0.19781837 -0.1803929 -0.10415896
000120 93 00 cf 3d 87 4c db bd 4b f0 cd bd 94 dd 4f be
       0.101075314 -0.10707956 -0.10055598 -0.20299369
000130 9c 50 cf 3d 11 fc 02 be 88 f2 5c 3e 13 1d 88 be
       0.10122797 -0.12791468 0.21576893 -0.26584682
000140 fc c5 98 3d 5f 6d 88 bd 2a 85 43 3e 09 a2 23 3d
       0.074596375 -0.06661486 0.19093767 0.03994945
000150 1a a6 49 be 3a 8e ad 3d 5f c3 22 be 14 4f 11 be
       -0.19692269 0.08474393 -0.1589484 -0.14190322
000160 55 4d 60 be 91 05 f0 bd 92 44 ba 3d 38 8f 7d be
       -0.219045 -0.11719812 0.0909511 -0.24761665
000170 ab ca b9 bd ab f1 00 3d 75 12 ba bd 4e 90 78 be
       -0.09071859 0.031480473 -0.09085552 -0.24273798
000180 95 dc bb 3d 4e bf 20 be a1 ff 5b 3e c3 66 35 3e
       0.09172932 -0.15697977 0.21484233 0.17714982
000190 aa e4 89 ba 50 e8 c8 bc af 86 52 3d e4 6a 5f be
       -0.0010520418 -0.024524838 0.051397976 -0.2181812
0001a0 10 70 08 3d 37 af e6 bc 9a 9d 52 be ba 09 44 3e
       0.033309996 -0.02815972 -0.20567933 0.19144335
0001b0 5f 1d cd bd e7 ff 79 be c5 06 15 be 49 fc 9d bc
       -0.10015368 -0.24414025 -0.14553364 -0.019285338
0001c0 48 a1 e3 bc ab 01 be bd 0e 2c e3 bd 40 8f da 3c
       -0.027786866 -0.09277662 -0.11092387 0.026679635
0001d0 28 c5 4a be aa 19 9a be 59 2a 8c bd 92 d1 8c be
       -0.19801772 -0.30097705 -0.06844015 -0.2750364
0001e0 a9 2b 2b be 37 fa 40 be 64 22 7b bd 95 e2 53 be
       -0.16715874 -0.1884545 -0.061312094 -0.20691903
0001f0 f3 e8 a1 3c 01 e8 cd bd 8b 6b 8e be 26 77 91 3c
       0.0197644 -0.10054017 -0.27816424 0.01775701

action_model._continuous_distribution.log_sigma f4 [1, 3]
000000 3c 97 8b bf d8 88 8c bf 8f 81 6d bf
       -1.0905528 -1.0979261 -0.92775816

action_model._continuous_distribution.mu.weight f4 [3, 128]
000000 26 6b a1 bd cb 13 26 bc be a2 be bc c6 6f bc 3c
       -0.07881765 -0.010136555 -0.02327096 0.023002516
000010 21 36 06 bb 93 9f f3 bc 71 0f e7 bc db e5 13 bd
       -0.002047904 -0.029739177 -0.028205605 -0.03610788
000020 97 ac 91 ba b6 d6 8a bc 95 29 88 bb 60 6b 1b 3b
       -0.0011114058 -0.016948085 -0.0041553476 0.0023715124
000030 85 48 be bd 8c 0e 94 bd 33 04 42 bc dd 37 41 bb
       -0.09291176 -0.07229337 -0.0118418215 -0.002948276
000040 1f 1b a5 3c 48 af d0 3c 40 14 f6 bd 33 96 95 3b
       0.020154534 0.025474206 -0.12015581 0.0045650243
000050 3f af 1b bd 61 8c 31 3d a5 c2 45 bd 6b 1f c6 3c
       -0.038008925 0.043346766 -0.04828133 0.024184903
000060 91 b7 ec bb 9c 05 67 bd ce d5 ad bd 02 f5 33 3d
       -0.0072240313 -0.056401834 -0.08488046 0.04393483
000070 f9 18 01 bd 86 d1 ec bc ca 7f c6 3b c1 c3 0b 3d
       -0.031517956 -0.028908502 0.006057714 0.034122232
000080 a3 cd 0e bd ff b0 c4 3c 33 ba d6 bd 73 87 5f 3c
       -0.03486408 0.02401018 -0.104847334 0.013643133
000090 34 2f 75 bd 2e c4 06 bc 1c ca 96 3d de 9f 25 bb
       -0.05985947 -0.008225484 0.07362768 -0.002527229
0000a0 66 bb 79 3d b0 cc 83 3c ac 2c 72 3d 01 c0 3a ba
       0.060969733 0.016088814 0.059124634 -0.0007123948
0000b0 31 3c b7 bd d5 fc 8e bc 61 01 71 3c 01 3e 87 3d
       -0.089470275 -0.017454544 0.014709801 0.06603623
0000c0 9c 41 c5 3a 30 ce 98 bc 15 31 31 bd 6b f8 19 3e
       0.001504946 -0.018653005 -0.0432597 0.1503617
0000d0 8a 6c 0c be ff 0e f0 bc a9 0e 03 be 2a 32 11 3b
       -0.1371328 -0.029304026 -0.12798561 0.0022155144
0000e0 6c 38 b5 bc 36 c4 44 3c 4b f4 9b ba 5b 65 ee bc
       -0.02212163 0.012009671 -0.0011898367 -0.029101064
0000f0 d8 42 2b bb cf 0c 0a bc 6b 21 3b 3c 24 bf 76 bb
       -0.0026132371 -0.008425905 0.011421542 -0.003765055
000100 37 a3 53 3d 5c b8 7e bb ec 19 e5 bc fd 58 92 bc
       0.051669326 -0.003886721 -0.027966462 -0.017864699
000110 90 2a 2c bc ab e8 0f 3d 61 39 a2 3b 7b 37 bb bd
       -0.010508195 0.035134 0.0049506878 -0.091414414
000120 a6 1f a0 3d 69 d4 d5 3b 67 d6 b7 bc a7 ce b2 bb
       0.078185365 0.0065255654 -0.022441102 -0.005456764
000130 44 b2 01 3d 59 8f cc bd 22 91 09 3e 4d eb 9c bc
       0.031664148 -0.09988279 0.1343427 -0.019155169
000140 8a 0f 26 3d b2 23 33 3d 03 cf 13 3d f6 e2 e2 3c
       0.040542163 0.043735214 0.036086094 0.027696114
000150 50 74 f2 bb 0c 21 1f 3d 62 9a 0c be aa d4 b4 3c
       -0.0073991194 0.038849875 -0.13730767 0.022074062
000160 5b 9b 68 ba 41 16 91 3c 7c 5c 1b bd 1b 6f 87 bc
       -0.00088732474 0.017710807 -0.037929997 -0.016532471
000170 5e d9 42 bd d9 b7 e8 3c 17 f8 8f 3c d2 e3 84 bd
       -0.04757058 0.028407978 0.017574353 -0.06488766
000180 48 89 af 3c 66 bc 83 3d 47 1a bd 3d c4 d4 cd 3b
       0.021427765 0.064324185 0.09233528 0.006281467
000190 e3 2e 48 3d 69 80 53 bd c2 88 87 ba 05 6f c5 3b
       0.04887284 -0.051636133 -0.001034044 0.0060251975
0001a0 cb 5e 9a bd 27 90 87 3c 10 4f 1f bd 87 de 1a 3d
       -0.075376116 0.01654823 -0.03889376 0.037809875
0001b0 ed ca 3f 3c 8b c4 43 bd ba 48 81 bc d3 de 62 bc
       0.011706096 -0.04779486 -0.015781749 -0.013847071
0001c0 4c 43 07 bb 0f 65 7b 3d 72 40 09 bc d9 e6 62 be
       -0.0020639477 0.061375674 -0.008377181 -0.22158374
0001d0 e0 8b ba bd 4d 6a a1 bd 9f a2 0d 3c 4d 5d 09 be
       -0.0910871 -0.078816034 0.008644729 -0.13414498
0001e0 d5 d4 3f bd 10 37 66 bc 24 48 be bb b0 d7 b9 bc
       -0.04683383 -0.014051214 -0.0058069397 -0.022685856
0001f0 7a 0f a0 3c 7f 21 e4 3b 26 36 4a bd 7a 50 31 3d
       0.01953863 0.006962001 -0.049368046 0.04328964
000200 ba da 44 bd 5a b6 7a bd 69 38 09 bd 52 c2 e6 bd
       -0.048060156 -0.06120906 -0.033501063 -0.112675324
000210 ac 56 17 bd b1 93 97 bd e3 6c 40 be f7 af 17 bc
       -0.03694789 -0.07401217 -0.18791537 -0.009258262
000220 9e 62 85 3b f1 f1 82 bd 57 8e c8 3a ec 4c 4b be
       0.004070594 -0.06393803 0.001530121 -0.19853562
000230 3c 74 d8 bd 3a 1b 18 be d8 47 32 be 75 6a e4 bd
       -0.10569045 -0.14854136 -0.17410219 -0.111531176
000240 9d 52 65 bc 46 3b d3 3d 25 90 b5 3d ec 2f 14 be
       -0.013996747 0.1031404 0.08865384 -0.14471406
000250 c7 67 a9 bd 57 95 1d bd 2b 4f 98 b9 94 6b 2c bd
       -0.08271747 -0.0384725 -0.00029050684 -0.042094782
000260 f0 e4 b1 b6 e8 2c f9 bd 92 8d a7 bc 29 ca ff bd
       -5.301663e-06 -0.12166768 -0.020453248 -0.12489731
000270 f2 86 b7 bc 98 a1 d4 bd d2 5d 2e bb df 1d 5d bd
       -0.022403214 -0.10382384 -0.0026606214 -0.053983565
000280 27 ac ed bd c0 5a 9a bd e7 0e 9f bd 62 8b 40 3d
       -0.11605101 -0.075368404 -0.07766514 0.047007926
000290 4f 78 92 bd 9f d3 b5 bb f0 26 fb bc 3d 5c 9e 3c
       -0.07151853 -0.005548909 -0.030658215 0.019331092
0002a0 6e 77 b4 bd f0 ac 80 bd 7f 76 60 3d de 6d 99 bd
       -0.08811842 -0.06282985 0.054800507 -0.07491659
0002b0 66 44 8b 3d e0 b1 8c bd 66 d9 c6 bc 66 11 53 bd
       0.06800155 -0.068698645 -0.024273586 -0.051530264
0002c0 ec 50 9f bd de 5b 9d bd 0f 59 12 be ea 48 a4 3d
       -0.077791065 -0.07683538 -0.14291786 0.0802172
0002d0 ce 13 e8 3a ab 86 94 bd 37 7b ba bd d7 28 6c bd
       0.0017706098 -0.072522484 -0.091055326 -0.057656135
0002e0 37 cd 34 bd c1 d2 06 be 09 9b a4 bd c7 8a e3 bd
       -0.04414102 -0.13166334 -0.08037383 -0.11110454
0002f0 d6 6a 2c ba cd 61 bd 3b 63 f0 dc bd c6 19 3a bc
       -0.0006577199 0.005779481 -0.10788038 -0.011358684
000300 a4 df e1 bd 96 9a 56 3b c8 c4 d8 bd ce 3e 28 be
       -0.11028984 0.003274595 -0.10584408 -0.16430208
000310 2a 09 9d bc bc ab 13 3e a5 d8 27 ba a2 3d 80 3c
       -0.019169409 0.1442098 -0.0006402827 0.015654389
000320 cb 79 83 bd 46 72 04 bd 12 12 be bd 1a 81 be bd
       -0.064197145 -0.032335542 -0.092807904 -0.09301968
000330 cd a1 df bb a2 ae cc bd 32 85 0f 3d 63 04 90 bd
       -0.006824708 -0.09994246 0.035039134 -0.07032087
000340 97 7c 7d 3c ea 21 30 be 21 41 7d 3d 14 2c 85 bd
       0.015471599 -0.17200437 0.06182969 -0.06502548
000350 64 c8 3b bd ee c8 df 3b 46 b3 d3 3c 7c ed a4 bd
       -0.045845404 0.0068293726 0.02584232 -0.08053109
000360 ac ef 6b bc 8e 08 d8 bd b3 3f 32 3d 9b 0e 07 be
       -0.014400404 -0.10548507 0.04351778 -0.13189165
000370 25 93 4c bd 3c 3e 9d bc d3 ef 1f bd 3b 18 28 bc
       -0.049945015 -0.019194715 -0.039047074 -0.010259683
000380 fe 1a cc ba a0 9c ed bd be 3a cd 3d ab ba 9c 3d
       -0.0015572009 -0.116021395 0.1002097 0.076527916
000390 fc a4 83 bd 74 ac 19 bd 0c 32 06 ba aa fc ff 39
       -0.06427953 -0.03751798 -0.0005119152 0.0004882564
0003a0 d3 f1 08 3b b2 53 c4 bd 96 58 e7 bd 5c 31 f4 3d
       0.0020896092 -0.09586276 -0.11296193 0.11923477
0003b0 ed 5f ac bd 78 e5 35 3d 16 f3 43 bd 0c e6 d6 3b
       -0.08416734 0.04440829 -0.047839247 0.0065581854
0003c0 3b ae 30 bb b9 58 f0 bd 8e b4 8e bd 1b df 26 3d
       -0.0026959318 -0.117356725 -0.06968032 0.040740114
0003d0 c8 08 c7 bd 03 75 6b 3c ae 31 a2 bd 38 9a 4d be
       -0.09718472 0.0143711595 -0.07919632 -0.20078361
0003e0 b0 61 31 bd 81 63 a2 bd d4 ed b8 ba 42 e3 64 bd
       -0.043306053 -0.07929135 -0.0014108964 -0.055880792
0003f0 be 63 17 bd 9c 9b 31 bc 23 63 30 be 31 5f 33 bd
       -0.036960356 -0.010840323 -0.17225318 -0.043791953

action_model._continuous_distribution.mu.bias f4 [3]
000000 ac 43 f9 3d 7a 58 91 3e ce 59 5e 3e
       0.121711105 0.28387815 0.21713945

exp_avg f4 [128, 22]
000000 f2 f7 15 38 ac b5 d5 b8 b2 07 90 b7 6d 48 64 b9
       3.5755285e-05 -0.000101904705 -1.7169721e-05 -0.00021770755
000010 d4 96 dc b8 27 0b 43 b9 ee 1e 10 b9 79 bb 3b b9
       -0.000105185114 -0.00018600804 -0.00013744432 -0.00017903549
000020 a5 e1 4f b9 fa 0a 3c b9 c6 53 dd b9 14 a6 45 b9
       -0.00019825117 -0.00017933166 -0.0004221482 -0.00018849253
000030 15 dd f4 b9 61 f6 2f b9 15 2c fa b9 95 ed 23 b9
       -0.00046704026 -0.00016781084 -0.0004771656 -0.00015633398
000040 1c 07 0a b9 3c 03 7b b8 06 98 88 38 ec c7 59 38
       -0.00013163354 -5.9846076e-05 6.513302e-05 5.1923023e-05
000050 ae d2 3f 39 d2 c1 cd b8 95 87 10 38 4e a5 1b ba
       0.00018293664 -9.8112636e-05 3.4458546e-05 -0.0005937413
000060 8b dc 07 b9 7a f0 f1 b9 ee 3c 93 3a 6a 13 0e ba
       -0.00012956762 -0.0004614627 0.0011233368 -0.0005419763
000070 04 29 79 3a 36 f7 0f ba f0 c8 63 3a 35 c5 0e ba
       0.0009504708 -0.00054918544 0.0008689305 -0.0005446256
000080 c2 30 82 b9 d1 47 f5 b9 31 6b d5 b9 be f0 f5 b9
       -0.0002483186 -0.0004678355 -0.0004070639 -0.00046909408
000090 4c 38 0f b9 00 d0 e4 b9 6e 5c 56 b9 ae c4 3b ba
       -0.00013658515 -0.0004364252 -0.00020443063 -0.00071627914
0000a0 01 e2 1e 3a f6 67 15 ba 86 54 fd b9 0d 9c e9 b9
       0.0006060899 -0.00056993903 -0.00048318895 -0.0004455749
0000b0 f6 1d e7 b8 52 7e dc 38 1a 5c 87 b8 6f 62 00 39
       -0.00011020519 0.000105139465 -6.454457e-05 0.000122437
0000c0 00 b0 f5 b3 ce 87 00 39 52 4f 3e 39 10 29 f7 38
       -1.1440716e-07 0.00012257622 0.00018149361 0.00011785526
0000d0 8d 63 0d 38 9a 45 e6 38 1e 81 39 b6 e6 a5 d9 38
       3.3709734e-05 0.00010980219 -2.7642304e-06 0.00010378267
0000e0 c9 a0 86 b8 80 5e a7 38 2c 54 c1 b9 eb 87 8c 38
       -6.4195665e-05 7.9807825e-05 -0.00036874542 6.701037e-05
0000f0 5c ce 8c b7 6a 5e 73 38 42 ab a5 36 0a 02 ab 38
       -1.6785394e-05 5.8023645e-05 4.93732e-06 8.154295e-05
000100 2d c7 07 b8 aa 0c be 38 46 75 91 38 25 96 8a 39
       -3.2372005e-05 9.062265e-05 6.935983e-05 0.00026433278
000110 34 d5 b1 37 06 95 3f 39 28 98 10 38 64 2d 54 39
       2.1199325e-05 0.00018270695 3.4473982e-05 0.00020234805
000120 d1 64 81 38 c8 02 53 39 f4 db d6 37 3f 4b 60 39
       6.169978e-05 0.00020123564 2.5613212e-05 0.00021390336
000130 9c b4 5f 38 05 38 70 39 c7 37 76 39 08 38 94 39
       5.333555e-05 0.00022909052 0.00023481167 0.00028270506
000140 e2 69 d4 39 e6 0d 99 39 fb 41 40 39 74 34 ca 39
       0.0004051468 0.0002919279 0.00018335127 0.00038567523
000150 fe 1e c7 39 23 07 e5 39 85 c9 0f b9 53 f8 d8 39
       0.0003797933 0.000436836 -0.00013712615 0.00041383746
000160 c7 85 78 39 eb 22 bf 3a 5a 84 52 39 05 9e ca 3a
       0.00023700959 0.001458255 0.00020076465 0.001545847
000170 fa 91 10 3a a6 98 c3 3a 57 1b b1 ba 85 92 c2 3a
       0.0005514916 0.0014922812 -0.0013512176 0.0014844692
000180 b6 d8 71 ba 16 f6 c2 3a 68 ce 43 ba 61 26 c4 3a
       -0.0009225713 0.0014874365 -0.00074694166 0.0014965051
000190 b3 5b 66 39 d2 70 b9 3a 62 55 c7 39 97 9d bc 3a
       0.0002196867 0.0014148003 0.00038019853 0.0014390227
0001a0 66 5f 19 b9 89 76 a8 3a 62 f5 cf 39 b2 b1 ac 3a
       -0.00014626756 0.0012852709 0.0003966494 0.0013175516
0001b0 2f b1 c6 39 99 0d 97 3a 70 b6 6b 37 88 8e 22 b9
       0.00037897515 0.0011524438 1.4049569e-05 -0.00015502621
0001c0 14 94 ae b8 4e e4 0f b9 ce a3 a1 37 e8 bb 07 b9
       -8.324548e-05 -0.00013722593 1.9268973e-05 -0.00012944604
0001d0 4b 65 30 38 53 82 0a b9 1f 98 7e 38 62 f1 12 b9
       4.2056006e-05 -0.00013209255 6.0699993e-05 -0.00014013567
0001e0 56 d8 98 b7 0b 19 16 b9 2c cb 3c b8 24 31 2e b9
       -1.8220551e-05 -0.00014314444 -4.501191e-05 -0.0001661224
0001f0 e0 59 98 b9 fa 60 47 b9 a7 b1 22 b8 c3 c2 2e b9
       -0.0002905866 -0.00019014245 -3.878926e-05 -0.00016666487
000200 9d 84 61 b8 ac fb 53 b9 af fc 3d b9 e2 e0 7b b9
       -5.3767686e-05 -0.00020216283 -0.00018118577 -0.00024021
000210 0e 8d 5a b9 d2 eb 6a bb 44 a9 a1 b9 95 13 74 bb
       -0.00020842647 -0.0035846126 -0.00030834426 -0.0037243117
000220 cf ff db b9 a2 cc 6a bb 73 df 31 ba 14 5d 6d bb
       -0.00041961527 -0.0035827537 -0.00067853107 -0.003621881
000230 6a f2 29 ba 96 5e 6d bb c6 db eb ba 2e dd 6c bb
       -0.0006482961 -0.0036219708 -0.0017994575 -0.0036142576
000240 6a bc 8c b9 b9 7b 70 bb 1b ff 7e ba f6 7a 7c bb
       -0.0002684326 -0.0036694838 -0.0009727345 -0.003852544
000250 39 8b a9 ba fc a8 5e bb 1c 6e c8 ba 00 ba 76 bb
       -0.0012935168 -0.0033975234 -0.0015291604 -0.0037647486
000260 96 67 4d ba aa 77 5e bb e0 11 3c 36 b9 1b 22 3a
       -0.0007835565 -0.0033945837 2.8024588e-06 0.00061839406
000270 7f df 8a 38 df 74 16 3a a4 e1 d7 38 d1 2a 1d 3a
       6.621982e-05 0.0005739461 0.00010294028 0.0005995455
000280 23 3f a1 b8 34 e6 1e 3a 3d 8d 9a 38 5d f1 20 3a
       -7.6888384e-05 0.00060615246 7.3696e-05 0.00061394816
000290 25 49 99 38 33 e7 20 3a 30 42 cd 39 dc 45 1c 3a
       7.309233e-05 0.0006137967 0.0003914996 0.00059613376
0002a0 32 2d 12 38 2e 6d 19 3a aa bc 8a 39 29 94 32 3a
       3.4851204e-05 0.0005852756 0.00026461977 0.0006812239
0002b0 59 04 68 39 9e a4 31 3a 96 94 90 39 34 6b 0a 3a
       0.00022126864 0.0006776544 0.00027576525 0.0005280257
0002c0 de f3 58 b8 c2 2b ab b8 40 f5 8d 37 e2 19 5c b7
       -5.1725532e-05 -8.162066e-05 1.6922713e-05 -1.3119048e-05
0002d0 ea 65 c4 38 25 2f 66 b8 50 1d 0d ba 37 c8 7f b8
       9.364991e-05 -5.488018e-05 -0.0005383091 -6.0983202e-05
0002e0 38 b4 86 b9 e1 38 95 b8 8c 7d ab b9 17 05 d9 b8
       -0.00025692745 -7.115468e-05 -0.000327092 -0.000103483144
0002f0 ba 49 ed b8 da c2 37 b9 3d ec 2a b9 07 82 56 b9
       -0.00011314773 -0.00017524828 -0.00016300469 -0.0002045707
000300 ff 4c e2 b8 14 f3 85 b9 d6 c1 f6 38 f0 5c 89 b9
       -0.000107908614 -0.00025548844 0.00011766299 -0.0002619992
000310 38 68 b3 b6 61 11 70 b9 fe 85 4b 3a ac 8c da 39
       -5.3467484e-06 -0.00022894658 0.0007763802 0.0004168501
000320 2c c3 3d 39 26 0b df 39 ad 35 15 3a 26 5a cd 39
       0.00018097152 0.0004254218 0.0005691897 0.00039167813
000330 7a be 71 ba 7e e0 db 39 c8 0b 67 b9 d5 b1 ed 39
       -0.00092218036 0.00041938195 -0.00022034266 0.00045336658
000340 89 66 18 b9 47 6b 0c 3a 8f b1 1d 39 16 a5 23 3a
       -0.00014534047 0.0005356562 0.00015038832 0.0006242556
000350 43 84 a3 3a 72 e8 3b 3a 0f 81 98 39 9c b4 18 3a
       0.001247533 0.0007168121 0.00029087855 0.0005825253
000360 28 59 11 3a c1 28 49 3a b6 49 10 39 4d 05 11 3a
       0.00055445964 0.00076736143 0.0001376037 0.0005532101
000370 09 4e 72 b8 a8 08 81 39 16 74 c5 38 2f 37 68 39
       -5.7769972e-05 0.00024611247 9.415315e-05 0.00022145802
000380 31 3f 3b 39 c9 c8 64 39 3d 11 08 3a eb b9 6b 39
       0.0001785725 0.00021818573 0.0005190557 0.00022480606
000390 34 e1 f1 39 aa 59 58 39 c0 76 85 39 b9 a8 4d 39
       0.0004613489 0.00020632768 0.00025456212 0.00019613178
0003a0 fa 80 50 39 19 29 59 39 50 1c f8 39 34 20 49 39
       0.00019884473 0.00020710043 0.0004732334 0.0001918085
0003b0 b0 6d e1 b9 6a 92 46 39 5e f8 90 39 15 da 2c 39
       -0.00042997068 0.00018937295 0.00027650868 0.0001648444
0003c0 ba b3 2e b8 41 12 1e 39 f8 94 ea 39 5c fa 7b 38
       -4.1652216e-05 0.00015074854 0.00044742948 6.007623e-05
0003d0 b3 4e 6e 39 6a bb 22 b9 52 96 27 3a 7a 0e 08 b9
       0.00022726766 -0.00015519341 0.0006392944 -0.00012975364
0003e0 c0 68 85 ba 35 71 1f b9 c0 a5 7e b7 10 1f 89 b8
       -0.0010178313 -0.00015205595 -1.5178171e-05 -6.538455e-05
0003f0 5b 6e 32 ba e0 2e 50 37 ad 0f ca 39 b9 db 14 39
       -0.00068066054 1.240868e-05 0.00038540122 0.00014196233

exp_avg_sq f4 [128, 22]
000000 ca e6 72 34 18 4c f7 36 03 bf 87 34 95 f2 f0 36
       2.2621967e-07 7.370032e-06 2.528469e-07 7.1807976e-06
000010 80 21 f2 35 be d2 ef 36 3f 04 0b 36 82 b7 ef 36
       1.8040155e-06 7.1472887e-06 2.0715086e-06 7.144118e-06
000020 23 67 f2 36 fd c5 ef 36 05 b7 ad 36 d1 5c f0 36
       7.2241687e-06 7.145804e-06 5.177108e-06 7.1633626e-06
000030 47 f8 9e 36 a0 69 f3 36 e8 df d1 37 56 bd fc 36
       4.73767e-06 7.2542607e-06 2.5019006e-05 7.532227e-06
000040 90 24 1c 37 a4 54 03 37 57 7d f7 35 d0 37 05 37
       9.3068375e-06 7.827915e-06 1.8439413e-06 7.940413e-06
000050 c1 af 9e 34 5e 85 0c 37 b4 c3 3d 35 2e 66 36 38
       2.955767e-07 8.375702e-06 7.069277e-07 4.3487344e-05
000060 fa 99 23 36 0a bb 37 38 69 29 d4 37 00 7e 39 38
       2.437852e-06 4.3804794e-05 2.5291652e-05 4.4224784e-05
000070 a5 38 0a 38 92 1b 3b 38 cd 9f b1 37 2d 21 3c 38
       3.295452e-05 4.460995e-05 2.1174457e-05 4.485359e-05
000080 d3 63 57 37 5a b9 3c 38 40 67 5a 36 f7 7e 3c 38
       1.2838241e-05 4.4995315e-05 3.254463e-06 4.4940938e-05
000090 77 cd a7 36 4d 45 3d 38 db 46 71 37 e8 ed 3a 38
       5.000907e-06 4.5125653e-05 1.4381217e-05 4.4567423e-05
0000a0 bb 99 05 37 d1 36 2d 38 1f 2d 71 36 01 0b 0d 38
       7.963211e-06 4.1297466e-05 3.5938062e-06 3.3627268e-05
0000b0 47 73 8d 33 4a d9 93 35 a8 22 a4 33 83 1f 93 35
       6.586793e-08 1.1015593e-06 7.643149e-08 1.0961525e-06
0000c0 fd 2f 8d 34 94 eb 94 35 90 bb ec 34 68 c6 96 35
       2.6298213e-07 1.1095422e-06 4.4094895e-07 1.1233615e-06
0000d0 6f d4 37 35 cb 77 98 35 33 a7 2d 33 e4 22 9b 35
       6.8481944e-07 1.1359747e-06 4.0431768e-08 1.1558554e-06
0000e0 99 19 d3 33 9c ac 9e 35 d9 69 1c 35 bb ac a5 35
       9.830109e-08 1.1822153e-06 5.826856e-07 1.2343729e-06
0000f0 bb 03 98 33 2c 6c a9 35 f1 9e 77 33 e5 94 a6 35
       7.07873e-08 1.2622963e-06 5.7653725e-08 1.2411298e-06
000100 5a 4f 92 33 83 cc a0 35 0a 8f e3 33 2c 6e d3 36
       6.813089e-08 1.198045e-06 1.059653e-07 6.3011157e-06
000110 d9 59 4c 33 ef 30 d5 36 93 fe 95 33 0e c8 d7 36
       4.7579167e-08 6.3535913e-06 6.98466e-08 6.4307887e-06
000120 ab c8 e7 33 46 08 da 36 c5 78 2d 34 ac c9 db 36
       1.0793277e-07 6.4978694e-06 1.6155816e-07 6.5501863e-06
000130 ff 55 73 34 02 0a dd 36 03 ae b6 35 2f 75 de 36
       2.2662424e-07 6.5874783e-06 1.3610701e-06 6.6297575e-06
000140 b6 96 bd 36 f5 c1 de 36 55 04 66 36 7d 19 de 36
       5.650184e-06 6.638695e-06 3.4275192e-06 6.619083e-06
000150 e0 c9 47 36 ef 74 cd 36 bd 35 83 35 d2 96 a4 36
       2.9770817e-06 6.123089e-06 9.7759e-07 4.9051387e-06
000160 20 12 c0 34 db c2 1b 38 c8 c5 12 35 e3 75 1c 38
       3.5775975e-07 3.7136353e-05 5.467705e-07 3.730309e-05
000170 c0 6b 8e 37 12 2f 1d 38 84 e2 a6 37 57 9c 1e 38
       1.6977894e-05 3.7475555e-05 1.9894222e-05 3.781574e-05
000180 0b 00 a4 37 ea 48 1f 38 ed 84 da 37 4c 2c 1f 38
       1.9550343e-05 3.797646e-05 2.6049524e-05 3.794981e-05
000190 8f 7b 21 36 22 88 1f 38 75 7c 44 37 23 7d 20 38
       2.406279e-06 3.8035338e-05 1.1711488e-05 3.8263515e-05
0001a0 7d 32 2b 37 bb 28 1e 38 dd 8d 9a 36 a9 a8 12 38
       1.02041495e-05 3.770807e-05 4.6060727e-06 3.496619e-05
0001b0 4d 1f 11 36 39 34 ee 37 07 1d ff 31 39 b5 ae 35
       2.1624903e-06 2.8396129e-05 7.424777e-09 1.3016753e-06
0001c0 aa 1b 33 34 10 81 ac 35 49 fd 01 35 7b d4 ac 35
       1.6680738e-07 1.2852561e-06 4.8424823e-07 1.2876839e-06
0001d0 8f ee e1 34 63 34 af 35 08 16 0a 35 10 5f b0 35
       4.208309e-07 1.3053763e-06 5.1441066e-07 1.3140689e-06
0001e0 f0 98 53 33 65 68 b4 35 91 05 00 35 65 25 b7 35
       4.926636e-08 1.3441428e-06 4.7691816e-07 1.3645446e-06
0001f0 38 80 52 35 4e 65 c1 35 60 1e f7 33 79 7a c7 35
       7.841768e-07 1.4409104e-06 1.1507359e-07 1.48623e-06
000200 11 01 a6 33 c1 f2 c1 35 52 2b fd 33 1b 54 aa 35
       7.730171e-08 1.4450271e-06 1.17891105e-07 1.2690465e-06
000210 b2 8d fa 35 f9 8e c7 39 b5 86 3b 36 64 73 c8 39
       1.866769e-06 0.0003806276 2.7943581e-06 0.00038232945
000220 be 2b 8e 36 78 09 ca 39 bd 1f d8 36 49 65 cb 39
       4.237022e-06 0.00038535497 6.4409965e-06 0.0003879464
000230 78 ab 22 37 82 22 cc 39 fa 8d 95 38 dc cd cb 39
       9.695876e-06 0.00038935622 7.131319e-05 0.00038872554
000240 24 fa ec 37 18 f4 ca 39 7b b6 9e 37 cd 86 cb 39
       2.8249873e-05 0.00038710306 1.8920042e-05 0.00038819612
000250 7d 15 ae 37 00 e5 c8 39 8a b6 ac 38 e1 e3 ba 39
       2.0752423e-05 0.0003831759 8.2356e-05 0.00035646468
000260 af fe 91 37 51 9d 97 39 16 de 24 33 97 07 c3 36
       1.7403943e-05 0.00028918174 3.838621e-08 5.8123364e-06
000270 17 4e 3e 33 86 0d c5 36 09 2d aa 34 77 74 c7 36
       4.4308845e-08 5.872632e-06 3.1697735e-07 5.9442204e-06
000280 b6 36 d5 34 b2 d9 c9 36 cb a6 03 35 dc f6 ca 36
       3.971415e-07 6.01561e-06 4.904402e-07 6.0488073e-06
000290 30 2d 09 36 ff 75 cb 36 59 8a 1a 36 34 df ca 36
       2.0440893e-06 6.063608e-06 2.3028317e-06 6.0460534e-06
0002a0 ae 1d 48 36 b1 b8 cb 36 3d 1d 88 35 28 bc c9 36
       2.9819598e-06 6.0713724e-06 1.0141299e-06 6.012171e-06
0002b0 76 7a 34 36 62 5a bc 36 86 76 9a 34 5e 12 9f 36
       2.6893372e-06 5.6133586e-06 2.8770972e-07 4.7407075e-06
0002c0 30 ae 2e 33 a2 45 7b 36 ab 10 31 34 53 69 73 36
       4.0670955e-08 3.7442446e-06 1.6490473e-07 3.6271128e-06
0002d0 9e 46 b3 35 da 49 72 36 c9 d8 05 37 e2 4b 72 36
       1.3357092e-06 3.6103797e-06 7.977892e-06 3.610498e-06
0002e0 68 c4 e1 35 c4 70 72 36 e4 f5 de 34 3a dc 7c 36
       1.6820968e-06 3.6126448e-06 4.152963e-07 3.7679115e-06
0002f0 0f b8 43 35 b0 ba 82 36 09 36 d5 34 bf 7d 8d 36
       7.2911e-07 3.896035e-06 3.9713657e-07 4.2167662e-06
000300 14 4d 14 35 fd 1a 96 36 0e 3a 6f 35 d5 e5 92 36
       5.524646e-07 4.47349e-06 8.911892e-07 4.377895e-06
000310 65 8c 6e 36 2a 1d 69 36 91 88 af 35 7a 0c 56 38
       3.5546484e-06 3.4736681e-06 1.3078262e-06 5.1033196e-05
000320 63 c9 6f 35 b9 ad 56 38 87 12 33 37 8f 99 5a 38
       8.9327494e-07 5.1183368e-05 1.0673545e-05 5.2118263e-05
000330 42 29 5e 37 ca d9 5e 38 8c 2b 36 37 5e f5 62 38
       1.3241837e-05 5.3131756e-05 1.0858184e-05 5.4111115e-05
000340 f5 e2 8d 37 de 7e 69 38 63 f7 fd 36 66 e9 6e 38
       1.6914195e-05 5.5669683e-05 7.568787e-06 5.696099e-05
000350 da 74 2b 38 4d 5d 78 38 48 f8 4f 37 2c 7a 7b 38
       4.0878404e-05 5.92147e-05 1.2395969e-05 5.9956845e-05
000360 56 13 9e 36 87 fd 6e 38 a4 b2 34 36 b5 57 48 38
       4.711018e-06 5.6979738e-05 2.6926073e-06 4.77654e-05
000370 e9 39 2f 34 62 32 ee 35 17 ad 85 34 47 21 ec 35
       1.6319213e-07 1.7747045e-06 2.489912e-07 1.7593055e-06
000380 06 15 ba 34 67 39 eb 35 9c 73 64 35 32 4b eb 35
       3.4660496e-07 1.7525571e-06 8.510485e-07 1.7530749e-06
000390 e0 7c ba 35 52 1f ea 35 4a e3 89 36 b5 3b e5 35
       1.3894423e-06 1.7443474e-06 4.109378e-06 1.7079207e-06
0003a0 ef d3 e3 36 a5 cd e0 35 8d 89 c3 36 d7 af dc 35
       6.7897995e-06 1.6749151e-06 5.827466e-06 1.6442453e-06
0003b0 30 51 7c 36 8d 24 d8 35 67 c2 d7 35 36 d9 cb 35
       3.7598184e-06 1.6103892e-06 1.6075327e-06 1.5187895e-06
0003c0 56 64 7b 35 33 fa aa 35 09 b4 ee 35 cf 0a 3b 38
       9.3650794e-07 1.2738805e-06 1.7784779e-06 4.459434e-05
0003d0 38 62 e6 35 9c 95 3b 38 e8 2c fa 36 97 a0 3d 38
       1.7164921e-06 4.472361e-05 7.4558084e-06 4.5210672e-05
0003e0 57 48 1a 37 bb 2c 3f 38 9b 4d 90 37 c5 a4 40 38
       9.195958e-06 4.5579607e-05 1.7202276e-05 4.592982e-05
0003f0 c1 3d 17 37 7c d6 41 38 cd b7 01 37 91 fb 43 38
       9.01468e-06 4.621454e-05 7.731794e-06 4.6725912e-05

exp_avg f4 [128]
000000 a4 7d 02 ba 32 25 11 3a 81 77 61 39 b4 d1 b6 b9
       -0.00049778284 0.00055368536 0.00021502191 -0.00034869986
000010 79 bf 1b bb 9a e1 1f 39 ba 0e cb 3b 08 47 8e ba
       -0.002376525 0.00015247465 0.006196824 -0.0010854909
000020 09 a6 a0 39 d3 82 fc ba ee e0 89 b9 31 74 68 ba
       0.00030641284 -0.0019265063 -0.00026298262 -0.00088674115
000030 05 db 28 3a 5c 1f 27 b9 fe 69 d6 ba 70 70 8c b9
       0.0006441328 -0.00015938043 -0.0016358492 -0.00026786653
000040 62 c9 01 3b 54 81 cf 3a f6 4b cb ba 13 dc 0b ba
       0.0019803871 0.001583139 -0.0015510309 -0.0005335223
000050 5f 9d 9a 3a 88 39 44 3a 1d 5a 26 3b fe 30 1f 3a
       0.0011796168 0.00074853795 0.0025383302 0.0006072669
000060 d1 58 50 39 58 80 00 ba 61 49 4d ba 54 08 83 ba
       0.00019869512 -0.0004901937 -0.00078310637 -0.0009996989
000070 27 4f 6e 3a 66 0d f9 39 1f 23 d5 ba 1a a6 61 39
       0.0009090774 0.00047502964 -0.0016261077 0.0002151955
000080 c0 16 f0 ba b4 da b6 38 1e 01 6b 3b f5 0b 3f 39
       -0.0018317327 8.719173e-05 0.003585882 0.00018219634
000090 14 a5 b9 3a 96 3d b9 39 6d 9f 7e ba b8 1f d4 b9
       0.0014163577 0.00035331835 -0.00097130873 -0.00040459423
0000a0 a1 5f 4a 3b 82 0b 2f ba 74 2f 0a 3a 62 db 1f 3a
       0.0030879753 -0.0006677435 0.00052713533 0.0006098059
0000b0 36 6c 62 b9 52 a9 97 b9 ca 72 89 3a 42 fb 82 bb
       -0.00021593351 -0.00028927118 0.001048648 -0.0039972374
0000c0 e6 a2 2c 3a ec ac ea ba 10 1b 2d b8 3c 2e 3c 39
       0.0006585553 -0.0017904318 -4.1271618e-05 0.00017946301
0000d0 c5 99 83 bb 5d 52 9a 38 c5 30 22 b9 4e 73 a0 b9
       -0.0040161335 7.3586336e-05 -0.00015467692 -0.00030603487
0000e0 74 cb cc ba e7 b0 15 bb ac 98 18 3a 0b 50 d9 b9
       -0.0015624599 -0.0022841038 0.000582109 -0.00041449102
0000f0 1b 0f 71 3a be e2 a6 ba 7e 04 2f bb 44 85 67 b9
       0.00091956713 -0.0012732369 -0.0026705558 -0.00022079522
000100 b8 21 16 bb b8 2c 03 ba 6b 79 e2 b9 29 67 f3 ba
       -0.0022908282 -0.0005003917 -0.00043196543 -0.0018570173
000110 b6 7b 9d ba d4 ea ff 39 64 f2 38 bb c6 59 a8 b9
       -0.0012015018 0.0004881235 -0.0028220648 -0.00032110343
000120 24 b6 7c bb 1a 6d ee ba e7 3a 85 3a aa ab 89 ba
       -0.0038560713 -0.0018190474 0.0010164649 -0.001050343
000130 69 dd 18 3a 51 37 cd ba 8a f1 a5 3a d0 08 b1 b9
       0.00058313325 -0.0015656744 0.0012660485 -0.00033766637
000140 b4 00 1d 3a 3c 8d 45 bb d8 40 f2 b9 a8 74 c4 b9
       0.00059891795 -0.0030143997 -0.0004620615 -0.0003747095
000150 fa 55 22 3b fc d5 31 ba c4 b0 82 b9 70 d5 c3 b9
       0.0024770484 -0.00067839003 -0.00024927233 -0.00037352322
000160 27 7c c2 b9 46 ab 9a ba 64 b1 84 37 3f b4 b3 ba
       -0.00037095064 -0.0011800311 1.581823e-05 -0.0013710334
000170 8c b4 a0 38 b5 52 e6 ba 90 5b a0 b7 b2 a1 ea 3a
       7.663024e-05 -0.0017572256 -1.9116123e-05 0.0017900972
000180 4d 1f 14 bb 18 0c 10 ba 02 3d 92 39 b8 d9 97 39
       -0.0022601665 -0.0005494966 0.00027892744 0.00028963177
000190 ad 85 c0 ba d8 a3 1a b9 51 e2 15 bb 78 54 a2 b9
       -0.0014688276 -0.00014747621 -0.002287049 -0.00030961982
0001a0 b9 03 0d bb 7a d4 0b bb c8 97 ee 38 01 6d b8 ba
       -0.0021517111 -0.0021336363 0.00011376996 -0.0014070572
0001b0 62 de 9f ba 71 17 09 bb 7d 81 7b 3a 76 92 67 39
       -0.0012197013 -0.0020918513 0.00095941854 0.00022084438
0001c0 f6 65 2e 3a c3 2a 1c ba a2 f7 4c 3a b7 50 6e b9
       0.00066527666 -0.00059573 0.00078188826 -0.00022727517
0001d0 9e c4 3a 3a c9 da 8c ba 76 5f 2f bb 32 60 31 3b
       0.0007124635 -0.0010746355 -0.002675978 0.0027065394
0001e0 23 05 83 b9 de 5c 0a bb 2a a9 a1 b9 ef ef c0 ba
       -0.00024990094 -0.0021112482 -0.0003083435 -0.0014719943
0001f0 9b 65 0f b8 c4 01 8b 3a 3b 60 0b bb f6 f2 95 b9
       -3.4188484e-05 0.0010605385 -0.0021267075 -0.00028600515
