results/Random1+_V0/3DBall/3DBall-499948.pt (torch, 495601 bytes, 44 tensors)

network_body.observation_encoder.processors.0.normalizer.running_mean f4 [22]
00000000: 0427 c539 f470 ea3f 7d92 0d3a f3e2 ea3f
00000010: aab8 713a a347 eb3f 7304 cd3a 7b7b eb3f
00000020: d8e5 113b 5c6b eb3f 9a01 423b c525 eb3f
00000030: 1c51 663b 347b ea3f 08b0 733b 7664 e93f
00000040: 81a5 623b b9be e73f 5c1f 3f3b 868a e53f
00000050: 98a5 1c3b 8be4 e23f
0.00037603837 1.831572 0.00054005516 1.835051 0.00092209375 1.8381237 0.0015641585 1.8397058
0.0022262242 1.8392138 0.0029603005 1.8370901 0.003514356 1.8318849 0.003718378 1.8233783
0.0034583511 1.8105079 0.0029162979 1.7932899 0.0023902413 1.7725996

network_body.observation_encoder.processors.0.normalizer.running_variance f4 [22]
00000000: f1ed 3c43 cf80 9a48 0e6d 8743 6a12 9e48
00000010: 11ca e643 9277 a348 ca71 4344 a939 a948
00000020: 8ff0 8a44 954c ae48 ef93 b844 3a70 b248
00000030: 49fa da44 f922 b448 cba2 e744 7a65 b348
00000040: 9e80 d744 c18c ae48 f8d7 b544 dea9 a648
00000050: 9b24 9544 e52d 9d48
188.92946 316422.47 270.852 323731.3 461.57864 334780.56 781.77795 346573.28
1111.5175 356964.66 1476.6229 365441.8 1751.8214 368919.78 1853.0873 367403.8
1724.0193 357478.03 1454.749 341326.94 1193.1439 321903.16

network_body.processors.0.normalizer.running_mean f4 [22]
00000000: 0427 c539 f470 ea3f 7d92 0d3a f3e2 ea3f
00000010: aab8 713a a347 eb3f 7304 cd3a 7b7b eb3f
00000020: d8e5 113b 5c6b eb3f 9a01 423b c525 eb3f
00000030: 1c51 663b 347b ea3f 08b0 733b 7664 e93f
00000040: 81a5 623b b9be e73f 5c1f 3f3b 868a e53f
00000050: 98a5 1c3b 8be4 e23f
0.00037603837 1.831572 0.00054005516 1.835051 0.00092209375 1.8381237 0.0015641585 1.8397058
0.0022262242 1.8392138 0.0029603005 1.8370901 0.003514356 1.8318849 0.003718378 1.8233783
0.0034583511 1.8105079 0.0029162979 1.7932899 0.0023902413 1.7725996

network_body.processors.0.normalizer.running_variance f4 [22]
00000000: f1ed 3c43 cf80 9a48 0e6d 8743 6a12 9e48
00000010: 11ca e643 9277 a348 ca71 4344 a939 a948
00000020: 8ff0 8a44 954c ae48 ef93 b844 3a70 b248
00000030: 49fa da44 f922 b448 cba2 e744 7a65 b348
00000040: 9e80 d744 c18c ae48 f8d7 b544 dea9 a648
00000050: 9b24 9544 e52d 9d48
188.92946 316422.47 270.852 323731.3 461.57864 334780.56 781.77795 346573.28
1111.5175 356964.66 1476.6229 365441.8 1751.8214 368919.78 1853.0873 367403.8
1724.0193 357478.03 1454.749 341326.94 1193.1439 321903.16

network_body._body_endoder.seq_layers.0.weight f4 [128, 22]
00000000: aa05 b1bd 2d69 69bd e640 223e 33a8 8a3e
00000010: 8d09 95be 549a 843e 1f69 5c3d f294 17be
00000020: d6ac 5dbe 0f6e 2bbe 0c92 8fbd b0a5 79bd
00000030: c356 2c3e 5c39 e7bd 229d c33d 0dc8 463e
00000040: 4587 8c3e 616e 33be b575 9c3c 29b2 7f3d
00000050: 6171 21be d9c1 44bd d0db b53e 4684 debd
00000060: ac29 3e3e 0088 903e d4d5 c43e 9ca8 d7bd
00000070: ba7a 88be e80a f33c bcc9 9f3d 2168 c9b9
00000080: c877 8b3e 2593 963d 3035 3c3d cf73 8ebe
00000090: de1e 6bbd 6d48 3fbe d2d1 5e3e adb5 dbbc
000000a0: 69be 58bd 6620 333e 1df7 68be 589c 693d
000000b0: 7745 b13e 6d16 b1bd 0fc7 d3bb d4ab c4be
000000c0: f3bc 8ebb 2ca1 9d3b 799b fbbd 238e b93d
000000d0: 369d f5bb bafb babe 5b0f 45be 3cba 063e
000000e0: deff 20be 551d 8c3d 1a17 563e 4f29 713e
000000f0: 8a97 723e 9095 2e3e 89e8 b2bd ec46 293e
00000100: d27a 0f3e dc54 b93c 1598 0f3e 09cb f03c
00000110: e639 163d 8926 633e 6c83 3e3e afe5 7dbe
00000120: d787 09be 8a7d 3fbd d403 06be c021 753e
00000130: af13 b53d 0c74 d3be 067f 13be 56c6 4d3e
00000140: 8305 153e 76d6 183d 5507 563e 75c9 053e
00000150: bbc3 d13c 3f24 8b3b 3b8f 66be 0d7b 58be
00000160: 6609 d23e a3f1 343e e0e9 84be b090 7e3e
00000170: dba4 653e f778 cabc b769 93be 8687 79bc
00000180: 4a01 4a3d 770e 1dbe 25ec 113c 1233 7e3d
00000190: 6443 dd3d e63d 9d3e 5209 873e 753d cbbe
000001a0: e4ec c13c ad98 303c 6e0e 003e dbb7 fb3d
000001b0: 8ea3 3c3e bf24 9cbe 3d50 69be d224 9bbd
000001c0: e25a 3ebe e202 a33e afb2 72bd fe75 5b3c
000001d0: 22be b5be f60a 73be efb1 f43c be75 28be
000001e0: b5d6 043e 25db 98bd ab64 26bd f24e 313d
000001f0: f1b7 c53d 14da 073e 2edb bb3e 5dc7 353d
00000200: 3582 7cbe 98f0 823d 1b9f a0bc cc6d 8cbe
00000210: 8a01 2ebd cbe0 253e 004c 12bc 25fe 60be
00000220: d80c a53e a751 0c3d 09db 92be c40f f4bd
00000230: cee2 623e 2737 84bd 4049 273e 322f 94bc
00000240: dbdd d03e 880e ac3e af18 bbbe f97a 30bd
00000250: 276b 94bd fcfa ea3d 9f10 9b3e fdbf d3bd
00000260: 3360 e3bd 16c6 56be fffa be3e 4e34 403e
00000270: 6612 843e 54d9 8a3b 6154 cfbb d27b 36be
00000280: c74c 84be 7143 683c d411 293d fe0e e3bd
00000290: 0b1a 603e 000c 18bd ca9d 073e 04cc 1fbe
000002a0: 7a85 81bd 39af 273e ad62 9ebe 610f 6f3e
000002b0: 84ed 49be 1570 96bd 190a 0c3e d9f4 433d
000002c0: ef5d 1abe 15e0 b4be 3859 dfbd b9ae 8e3e
000002d0: df3b 9dbe 4a49 643e 9804 f4bd 33d1 4abd
000002e0: d3f7 7bbe dd09 afbe 5776 d53c b9b0 d23d
000002f0: 0541 2ebd 4608 483e a6d0 d33d ef9f 2cbe
00000300: 7438 47be fa03 b0be 9756 cd3e 2f71 9c3e
00000310: d184 4f3e 6150 463e f144 233e 5afd d6be
00000320: b0ce 943d 17e5 2b3e 3007 bbbd 3cfb 4b3e
00000330: f51b 26be 2508 aa3b 9c78 963e 6672 8dbe
00000340: 833d 7b3e aed8 f2bd ede5 edbd e40b 0c3a
00000350: bd67 23be bd3a c83e 03bc d1bd fa20 43bd
00000360: afff 583e 33ce e83e 0e47 c43e b077 483e
00000370: a254 dc3e ec8f 32bd bd94 5f3d 357e c6bd
00000380: 5dc5 5ebe 01b0 de3d d4e5 953d 1ae1 dabe
00000390: e51e 07be cbf0 083d 87f5 873e efc8 a43d
000003a0: 8440 5e3e 8d8d 8abe 9b5d 103e 556b e7be
000003b0: 1d35 4a3e 47ea 30be c37e 393e 6afc 08be
000003c0: 76db 1a3e 3d48 183d c985 133f e373 403d
000003d0: 2ccb 6bbe ba20 6e3d 61af 013e fbb0 c8be
000003e0: 7da7 19be a5bd 093d e11e 093e 9159 063e
000003f0: e80c fabc b994 ce3e 203f b6be 0e51 aabe
-0.086436585 -0.05698507 0.1584507 0.2708145 -0.2910885 0.25898993 0.05381119 -0.14802912
-0.21647963 -0.16741203 -0.07010278 -0.060949028 0.16829972 -0.11290237 0.09551455 0.19412251
0.27446952 -0.17522575 0.019099096 0.062425766 -0.15765907 -0.04803643 0.35519266 -0.10865073
0.18570584 0.2822876 0.38444388 -0.105302066 -0.26656133 0.029668286 0.0780215 -0.0003841529
0.27239823 0.07352284 0.04594916 -0.2782273 -0.057402484 -0.18679972 0.21759728 -0.026820028
-0.052915964 0.17492828 -0.22750516 0.057033867 0.3462331 -0.086468555 -0.0064629386 -0.38412344
-0.0043560206 0.004810473 -0.122855134 0.090603136 -0.0074955476 -0.36520177 -0.19244139 0.1315698
-0.15722606 0.06841532 0.2090725 0.23550914 0.2369062 0.17049241 -0.08735759 0.16530961
0.14011696 0.022623472 0.14022858 0.02939369 0.03667631 0.22182669 0.18604821 -0.24794649
-0.13430725 -0.046750583 -0.13087398 0.23938656 0.08841645 -0.41299474 -0.14403924 0.2009519
0.14552884 0.0373139 0.20901234 0.13065131 0.025606027 0.004246264 -0.22515576 -0.2114069
0.41022795 0.17670302 -0.25959682 0.24859881 0.22426169 -0.024715884 -0.28791592 -0.015230065
0.049317636 -0.15337549 0.008906399 0.062060423 0.10803869 0.30711287 0.26374298 -0.39695325
0.023672529 0.010778588 0.12505504 0.12290927 0.18421766 -0.30496785 -0.22784515 -0.07575382
-0.18589357 0.31838137 -0.059252437 0.013394831 -0.35496622 -0.2373465 0.029870002 -0.16451165
0.12972529 -0.074636735 -0.04062335 0.04328818 0.09654225 0.13266784 0.36690658 0.04437958
-0.24659045 0.06393546 -0.019607117 -0.27427518 -0.042481937 0.16199033 -0.008929253 -0.21971948
0.32236362 0.034257557 -0.28682736 -0.119170696 0.22156832 -0.06455832 0.16336536 -0.01808891
0.40794262 0.33604836 -0.3654227 -0.043086026 -0.07247 0.11473653 0.30286118 -0.10339353
-0.11102333 -0.20974001 0.3730087 0.18769953 0.25795287 0.0042373333 -0.0063271974 -0.17820671
-0.25839826 0.0141762355 0.041276768 -0.11086844 0.21884935 -0.03712082 0.13243786 -0.1560517
-0.06324287 0.16375436 -0.3093466 0.2334571 -0.19719511 -0.07345597 0.13675727 0.047840927
-0.15074895 -0.3532721 -0.10905689 0.27867678 -0.3070974 0.22293583 -0.11914939 -0.049515914
-0.24606256 -0.34187213 0.026057405 0.102876134 -0.042542476 0.19534406 0.10342531 -0.16857885
-0.19455129 -0.34378034 0.40105125 0.30555102 0.20265509 0.193666 0.15944268 -0.41990167
0.07265985 0.1678661 -0.0913223 0.19920057 -0.16221602 0.005188959 0.29388893 -0.27626342
0.24535184 -0.118577346 -0.116161205 0.0005342348 -0.15957542 0.39107314 -0.102409385 -0.04763887
0.21191286 0.45469818 0.3833546 0.19576907 0.4303332 -0.043594286 0.054585207 -0.09692041
-0.21754976 0.10873414 0.07319227 -0.42749864 -0.13195379 0.033432763 0.2655451 0.080461375
0.21704298 -0.2706112 0.14098208 -0.45199075 0.19746824 -0.1727687 0.18114762 -0.13377538
0.1512278 0.037178267 0.57626015 0.04698552 -0.23026723 0.05813668 0.12664558 -0.39197525
-0.15005298 0.033628125 0.13390686 0.13120104 -0.030523732 0.4034784 -0.35595036 -0.33264965

network_body._body_endoder.seq_layers.0.bias f4 [128]
00000000: 96f1 273c 2e44 733d 9c4a 35bd 721b abbd
00000010: 48c6 8b3c 3e00 cabd a432 2bbd c713 5b3d
00000020: 0212 d73c 512a 17bc ff15 8cbd 3097 b53d
00000030: bd58 d73c e9c9 77bd e834 d4bd 0811 2f3c
00000040: 044d b53c 52c0 d43b 3aee 7f3d 2a81 503d
00000050: 07ff 273e ab36 f8bd c6e6 9bbd fa38 2f3d
00000060: 76c5 293d c478 83bd 0e77 09bd da76 c23c
00000070: 6e78 aa3d 5987 2f3c 71d5 e5bc 7ca4 97bd
00000080: 5609 fdbd 67e5 12be fa74 c93d 8181 01be
00000090: 5c5c fd3b dae0 8f3c 643c 06bc 3c92 6cbd
000000a0: 8989 4fbd eb1b 98bd 8027 463d eb45 3abd
000000b0: 8f1a 17bd abd9 4fbd d95d 87bc ff68 f33d
000000c0: 34ff a13d 1a12 eb3c 30a1 6ebd bc3a 233d
000000d0: 2d3b 29bb 2a84 e93d fb3f aa3d a282 f5bc
000000e0: ca3a 8d3d c9ee 78bd 56ff a4bd eb88 133d
000000f0: 57fc 8838 b3c9 0ebd f3e5 c9bd 5bf8 c2bc
00000100: 3a38 9e3d 8623 cb3c 5316 ae3c 6f83 fabd
00000110: 76c4 9abd c15f 80bd 1bec 90bc 9ec0 843d
00000120: e6d3 f33b f934 a1bd d7b2 723c 14a4 88bd
00000130: 93f1 233d 89a5 c23d 0bdf ebbc 4266 c4bd
00000140: 8615 f3bd c9a9 a23d df40 813d 5421 703d
00000150: 8e1f 0e3d a3cd 063d 2da7 e4bd b27d 27bc
00000160: 4e2e d3bd 5f9a 9d3d d504 df3c e4a1 333c
00000170: 9509 d0bc 160d 06bd 8ca3 10bd 3f76 e53c
00000180: 08a7 e93d 1a6c 633d e850 27bd 225b 043e
00000190: 3ae4 f5bd 0d1b 293d 2884 c63d e281 dd3c
000001a0: d227 d73d 1d72 233c 79aa f73c 49e1 933c
000001b0: cc43 903d 39b7 a03c b937 523c c372 08bd
000001c0: 6d69 e0bd 4fe9 5f3d 1712 8e3d a979 c73d
000001d0: 9a26 d73c 2011 e33d ff64 27be 2d87 7f3d
000001e0: b888 1b3e 219a bb3c bbc5 7a3d 935f 16bd
000001f0: 6a9b 9ebd 7fef a23b e5d4 86bd 05e4 64bd
0.01025047 0.059391193 -0.044260606 -0.08354844 0.017062321 -0.098633274 -0.04179634 0.053485658
0.026253704 -0.009226398 -0.06840133 0.08866727 0.02628743 -0.06049529 -0.103616536 0.010685213
0.02213145 0.006492653 0.06248305 0.05090443 0.16405879 -0.12119802 -0.07612376 0.042778946
0.04144808 -0.064195186 -0.033560805 0.023738313 0.083237514 0.010713422 -0.028055878 -0.0740442
-0.12355296 -0.14345323 0.09836765 -0.12647058 0.0077319574 0.017563272 -0.008193109 -0.057756647
-0.050668273 -0.074272 0.048377514 -0.045476835 -0.036890563 -0.050744694 -0.016524242 0.11885261
0.07910004 0.028695155 -0.05825919 0.039850935 -0.0025822625 0.114021614 0.083129846 -0.029969517
0.06895979 -0.0607746 -0.08056514 0.036019247 6.531987e-05 -0.034860324 -0.098583125 -0.023800066
0.07725568 0.024797212 0.02125088 -0.122321 -0.07557003 -0.062682636 -0.017690709 0.06482051
0.0074410317 -0.07871432 0.014813147 -0.066719204 0.040025305 0.095042296 -0.028792879 -0.09589817
-0.1186934 0.0794254 0.06311201 0.058625534 0.03469806 0.032910954 -0.11164699 -0.010222839
-0.10311566 0.076954596 0.027223984 0.010963891 -0.025395194 -0.032727323 -0.03531222 0.028010486
0.11408812 0.055523016 -0.040848643 0.1292539 -0.120064214 0.041285563 0.096931756 0.027039472
0.10505642 0.009975937 0.030232655 0.01805176 0.07044181 0.019618617 0.012830668 -0.03331257
-0.10957608 0.05466586 0.06937044 0.09740002 0.026263524 0.11087251 -0.1634712 0.062384773
0.15188873 0.022900643 0.061223727 -0.03671224 -0.07744487 0.004972398 -0.06583575 -0.05588152

network_body._body_endoder.seq_layers.2.weight f4 [128, 128]
00000000: 7294 22bd 260c c6bc d0c9 c23d 2a31 91bd
00000010: 1e3f 5cbd b9d3 153d e015 f33c 8aea 17be
00000020: c1f1 7dbd cec0 a23c ce89 53bc 8832 80bc
00000030: c74f 99bd 3343 47bd 7e8c 77bd cb4b 1c3e
00000040: 7fd9 633c 5b8f 7ebd 86ce c03d aea4 25be
00000050: 7ddc 1ebd 59e0 27bd 1c40 943d 8a3b 7ebc
00000060: a826 bcbd 6180 a13d d8e8 a6bd 112b f5bd
00000070: 68be 273c 2687 fcbd 9b89 25be 7e6d 233e
00000080: b49b 183d b0cb 4e3d 98af 7bbe 5f84 613e
00000090: 468b c7bc ce1d 963d 3424 703e 8b45 b63b
000000a0: 89ff 263e 112c 37bb 682a d83c 7f89 8d3d
000000b0: 2b0a 7c3e 9c1f 30bd 10fd e13d 5fc8 8fbd
000000c0: 04f3 33be d16d 7ebc c3d0 133c 9870 343c
000000d0: 1609 aa3d 7b9e 93bc c1c0 a53d da4b bf3d
000000e0: b8a1 58bd b350 08be ca67 b3bc d529 533d
000000f0: a86c 363d bce2 443d 73d0 3b3d 60c7 e4bd
00000100: ab7f febd f900 c53c de77 113d 9293 c4bc
00000110: 73dd afbd 59d9 80bd 3396 813d 4cb0 b7bd
00000120: 3c09 a1bd 0b7c 503d c03d 7bbd 2b2e 693d
00000130: 008a 363d ba22 793d a405 5b3c 3f3a 0ebd
00000140: 86ba fe3d 4f31 eebb ae29 9ebd 6436 00bd
00000150: c125 e33d 8086 60bd 3d2d 81bd 1412 9c3d
00000160: 48e8 d23d 5997 d33d deef 3abe 6d1a 1e3e
00000170: 668a 00be 02ad af3d 40ac 00bd 82bd 743c
00000180: bf79 48be 3c08 d6bc 2e26 ca3c 9d95 b03c
00000190: 4b31 0b3d 6749 dd3d 2eff 3e3e 08b3 163e
000001a0: 4ec1 af3d 9160 603e cff9 de3d 8e8f e73d
000001b0: 0e68 b7bc 7809 7cbe 4bba 993d 29a0 0abe
000001c0: 3b26 bc3d b850 f3bc 6ad6 8b3c 1c24 43bd
000001d0: ffe7 3bbe 6b5e 1abd 5301 183d 3750 e5bd
000001e0: e4d6 05be 1b99 583d b54d 8b3d 4123 b33a
000001f0: b5e3 22be 975c d2bd b6c8 773d 0396 b2bd
00000200: 58d4 2d3e 5dc9 3ebd 0208 343e 5ff8 793d
00000210: 67ac 443e 5f9f 813c 2399 71bc da87 4ebd
00000220: 00e9 babd 4a94 aebd a240 a13d ceae cebd
00000230: 960e 8d3c ea9f 3c3d be27 9cbc 5c7f b7bd
00000240: 02ae 553d 921b 653e a6a8 b3bd c8a3 2dbe
00000250: de24 733c d5e4 29bd 02ff 41be fb79 ba3d
00000260: 129c 08bd 82ce dfbd 483c 153e cd3d 003e
00000270: 2791 433d 5e2a 3dbe 2d10 90bd dbe5 043c
00000280: cd50 f73c 1f4d 7c3d f7c9 723d 24e3 0c3e
00000290: c45a 19bd 774f 60be aab0 07be 3d72 43be
000002a0: 6a05 283e 778d bcbd a3cf e7bd 14a3 563d
000002b0: 9b9c 5c3d e0d1 2abd b83a cb3c 9279 e3bd
000002c0: 625f 43bd 12d4 2ebc a4d1 843c f5a8 963d
000002d0: a8de 273e fc79 79bd 8f99 0b3c 0a9f b53c
000002e0: 91bc b0bd 3082 42bd c934 fcbd e366 183d
000002f0: bc5b 8dbd 1d47 83bd f8f7 b33d d2d6 1dbd
00000300: 912c ab3d 3685 3dbe d8e3 89bd 8893 ef3b
00000310: c55c a83c 0ed8 cf3d 567c d0bd d226 a3bd
00000320: 111f 82be 9e14 013d dccd e53d 3921 0b3d
00000330: 9ba1 a43d 8953 3ebe 758f afbd 5553 8d3d
00000340: 4c5d 7bbd 4e06 f6bd 4122 adbd 337f c83d
00000350: e484 8a3b 2c58 12be d689 173b 0e3c 87bd
00000360: bc53 043e 8141 2abd 8ea6 173e b06e b03c
00000370: 579e d83d 6470 e3bd 83cf d2bd 33fb 3d3d
00000380: 0b04 46bd a7ae 40be 2fbc 303d f7f2 993d
00000390: eb2b e1bc 57be 9a3d c1b5 9fbd 1a94 33be
000003a0: f240 acbc 2dcc 5abe f26b 883b 1180 3c3e
000003b0: a4cf 60bd bb8b 053e 75b5 833d dab7 edbd
000003c0: 95d7 b53a c983 42bc 7610 57bc d954 59bc
000003d0: c2cc 443c 8b8a 6fbd 3488 283e 7195 8bbd
000003e0: d918 44bc ba40 9dbd d2b3 28be ce9a 5c3d
000003f0: 7490 773d 8df7 e03d 8c68 f63d 851b b43c
-0.03969235 -0.024175715 0.09511149 -0.070894554 -0.05377113 0.036578868 0.029673517 -0.14835563
-0.061998133 0.019867327 -0.012911273 -0.015649095 -0.074859194 -0.04864807 -0.06043672 0.15263288
0.013906836 -0.062148433 0.09414391 -0.16176102 -0.038784493 -0.04098544 0.072387904 -0.015517125
-0.091870606 0.078858145 -0.0814988 -0.11971105 0.0102382675 -0.12330465 -0.16165774 0.15959737
0.037257865 0.05048722 -0.24578702 0.22023152 -0.024358403 0.073299035 0.2345131 0.0055624894
0.16308416 -0.002794985 0.026387408 0.06910991 0.24613254 -0.042998895 0.11034596 -0.0702064
-0.17573172 -0.015529112 0.009021941 0.011013173 0.08302514 -0.018019905 0.080934055 0.093406394
-0.052888602 -0.13312034 -0.021900076 0.051553566 0.044537216 0.048067793 0.04585309 -0.1117084
-0.124266945 0.024048315 0.035514705 -0.023996148 -0.0858716 -0.06291456 0.06327476 -0.08969173
-0.078630894 0.050899547 -0.061338186 0.056928795 0.0445652 0.060824133 0.013368044 -0.034723517
0.1243792 -0.0072690616 -0.077227935 -0.03130187 0.11091185 -0.05481577 -0.06307457 0.07620636
0.102982104 0.10331602 -0.18255565 0.15439768 -0.12552795 0.085779205 -0.03141427 0.01493776
-0.19577692 -0.026126973 0.024676409 0.021555716 0.033982556 0.10805016 0.18652031 0.14716733
0.08581792 0.21911837 0.10887491 0.11306678 -0.022388484 -0.24612987 0.07506236 -0.13537659
0.091869794 -0.029701576 0.017070014 -0.04764186 -0.18350218 -0.0376877 0.037110638 -0.111969404
-0.13070256 0.052880388 0.06801931 0.0013667123 -0.15907176 -0.10271566 0.060494147 -0.08720019
0.16975534 -0.046578754 0.1758118 0.06102788 0.19206391 0.015823064 -0.014745983 -0.050422527
-0.091264725 -0.08524378 0.07873656 -0.10091935 0.01721887 0.046050943 -0.01906192 -0.08959839
0.0521679 0.22373798 -0.087724015 -0.16957009 0.014840333 -0.041477997 -0.18944934 0.09105297
-0.033351965 -0.1092806 0.14573777 0.12523575 0.04774585 -0.18473193 -0.07034335 0.008111442
0.030189896 0.061596986 0.05927464 0.13758522 -0.037440076 -0.21905313 -0.13250986 -0.19086547
0.16408315 -0.0920667 -0.113189004 0.052401617 0.053860288 -0.04170406 0.024808273 -0.11107172
-0.047698386 -0.010670679 0.016213246 0.07356445 0.1639353 -0.06090735 0.008520498 0.022170562
-0.08629716 -0.047487438 -0.123147555 0.037207495 -0.069022626 -0.06410048 0.08787531 -0.038534947
0.0835811 -0.18507847 -0.06732911 0.0073112883 0.020552048 0.10148631 -0.10179965 -0.07966389
-0.25414327 0.031513803 0.11220905 0.03396723 0.08038636 -0.18586554 -0.08572284 0.0690066
-0.06136827 -0.12012921 -0.08453799 0.09789886 0.0042272676 -0.14291447 0.0023122928 -0.066032514
0.12922567 -0.041566376 0.1480963 0.021537155 0.10577076 -0.11105421 -0.10293486 0.04638214
-0.0483437 -0.18816625 0.043148216 0.07517045 -0.027486762 0.07555836 -0.07798339 -0.17536965
-0.021027062 -0.2136695 0.0041632587 0.18408228 -0.05488552 0.13041584 0.064310946 -0.116073325
0.0013873453 -0.01187224 -0.013126483 -0.013264858 0.012011709 -0.058481734 0.16458207 -0.06815613
-0.011968815 -0.07678361 -0.16474846 0.05385857 0.060440496 0.109847166 0.120316595 0.021985779

network_body._body_endoder.seq_layers.2.bias f4 [128]
00000000: 8e1c adbd 8f07 d0bd 2800 c9bc fb74 3bbd
00000010: c29c 0ebd 52dd b2bc da01 acbd 2df5 d0bd
00000020: 71b7 84bd 8a53 a7bd 90de 24be 7f29 e9bd
00000030: 0aa0 5fbd 3477 483d a50a ad3d d367 2d3d
00000040: 394d 003d 66fd e4bc 9fac 373d 8daa b8bd
00000050: 5314 49bc 7141 35bb e61c edbb 8168 c9bd
00000060: be66 a9bd baa4 283d 3272 893d c1fc 0abd
00000070: 6bcc 01bd 9da1 1a3c fce4 d73c 08e8 9cbd
00000080: 77de 89bd 5246 58bd 7b8c b0bc 0e22 33bd
00000090: 96ec 13bd 1842 b9bd 0d3f 333c 2f3f 41bd
000000a0: 8e46 20bd af7b 44bd aa9a babd f315 93bd
000000b0: b168 083d 8036 d6bc 018d bebd 61c8 80bd
000000c0: 7801 4fbd f451 9ebd 5609 b23d b6d9 6cbd
000000d0: 7386 1abe 56a8 1f3d 3770 d5bd 412d 9abd
000000e0: 484d 88bd 401e 153b 5bb1 7bbd 8bb1 c8bc
000000f0: 64b2 703c c5dc 173c 17c0 56bd 54ae 713d
00000100: d493 873c 21b8 01be 4c97 09be bcf8 3fbd
00000110: f70c 883c 5bd4 9fbd a70d ac3c 5fb5 25bd
00000120: 600b 93bd f555 143d 3ba2 8bbd 157c aa3c
00000130: 43a1 933d 5cba c9bc b475 08bd 590d 09be
00000140: 12db 05bd 8bbf 823d 20f4 06be 0336 b1bd
00000150: f3a9 023d 0ff3 77bd bfaa 8bbd fbdc 67bd
00000160: 6a6a d23d 715f a93d d913 35bd ad10 e3bd
00000170: 3ab6 943d c31a a8bd af1a 97bd ef7e 67bc
00000180: d9db d3bc 6dd7 5e3d 21d7 b4bd b80a 263d
00000190: a945 43bc 7902 cfbd 0d2e babd 6c28 3ebd
000001a0: 2e12 463d cf1e cfbc 1ffa 3bbd 0508 0cbd
000001b0: 868e 543d 1b0c 173d 4e21 adbd b199 1c3d
000001c0: 2d59 e3bd 6abc df3c 98d4 43bd b3d8 48bd
000001d0: b8e6 b0bd 7d94 b7bd 97c0 a0bd d932 21ba
000001e0: 5df8 98bd 6b10 dfbd c9bc ddbd 2350 c03c
000001f0: d47c a43d 5981 b8bc 610a 81bd 2016 38bd
-0.08452712 -0.10157692 -0.024536207 -0.04576586 -0.034817465 -0.02183405 -0.08398791 -0.102030136
-0.06480301 -0.08170231 -0.16100526 -0.11384868 -0.054595985 0.048941806 0.08449296 0.042335343
0.031323645 -0.027952861 0.04484236 -0.09016905 -0.012272912 -0.0027657414 -0.007236111 -0.09834386
-0.0827155 0.04117272 0.06711234 -0.03393245 -0.03168909 0.009437946 0.026354305 -0.07661444
-0.06731885 -0.052801438 -0.021551361 -0.04373365 -0.036114298 -0.090458095 0.010940325 -0.047179397
-0.039129786 -0.047969516 -0.09111531 -0.07181921 0.033302967 -0.026149035 -0.09304238 -0.06288219
-0.05053851 -0.07730475 0.08693187 -0.057824813 -0.15090351 0.038978897 -0.10421794 -0.07528163
-0.06655365 0.0022753626 -0.061448436 -0.024498722 0.014690969 0.009268944 -0.052429285 0.059004143
0.016549982 -0.12667896 -0.13436621 -0.04686807 0.016607745 -0.078041755 0.021002604 -0.040456172
-0.07179904 0.036214788 -0.068180524 0.02081112 0.072084926 -0.024624996 -0.033315375 -0.13383998
-0.032679625 0.0638419 -0.13179064 -0.0865288 0.031900357 -0.060534533 -0.068196766 -0.056607228
0.10274203 0.08270157 -0.04420838 -0.11087165 0.072613195 -0.082082294 -0.07378136 -0.014129384
-0.025861667 0.054404665 -0.08830095 0.040537566 -0.011918464 -0.101078935 -0.09090815 -0.046425268
0.04835718 -0.025283245 -0.04589283 -0.034187336 0.051893733 0.03687678 -0.08453618 0.03823251
-0.11100993 0.027311523 -0.047810167 -0.049034785 -0.08637756 -0.08963869 -0.078492336 -0.00061492395
-0.074692465 -0.10891803 -0.108270235 0.023475712 0.080316216 -0.022522615 -0.06300808 -0.044942975

action_model._continuous_distribution.log_sigma f4 [1, 3]
00000000: 863b 62bd c365 63bd ce98 d2bd
-0.055232547 -0.05551697 -0.102830514

action_model._continuous_distribution.mu.weight f4 [3, 128]
00000000: 056c c93c 98ba 7dbd bf5c 8cbc 8c57 21bc
00000010: 3125 55bd 4a78 19bd 77ab 98bc dc44 63bc
00000020: b80c 51bd bafd 25bd 2e10 4fbd 9b54 02bc
00000030: c1f5 293d d63b 42bc ac1f 0a3d cc32 7a3c
00000040: 7d0c d3bb 20f8 57bd 310e 6abd fff1 23bd
00000050: c782 c6bc 2860 74bc 6966 963c 8f41 01bd
00000060: 6913 3dbc 32b9 5dbb ecf6 ccbc f04e 93bc
00000070: 5b68 dfbd 1f48 333d 3fb7 953b 130c febc
00000080: 809a ffbc 2ac5 a3bc 8722 993c 86ee 823b
00000090: e933 a33b 89a8 1abd 1a66 c03c f310 ffbc
000000a0: f6e5 1c3c a417 c2bc 77f0 aebc feca ecbc
000000b0: 5ec3 b4bc 9a7a 02bd ff17 5ebc ff2e 1fbd
000000c0: cb62 98bd a6fc 1abd 4232 943c 3bc4 1bbd
000000d0: 66e0 dabc 9aa5 8b3c df77 a1bd 0de8 7cbc
000000e0: d900 50bd 92e9 183d af44 53bd 83c0 02bd
000000f0: 9e4d f33c 7988 a8bd 3d10 c3bc 18ef 203a
00000100: fb7d 8b3a b4d9 20bd 323a 9fbc 5f02 74bc
00000110: 369e 66bd 1a77 dfbc 6d11 c63c 492d a1bc
00000120: 3502 adbc aaed 273d 0d5e af3b 87b5 043c
00000130: 5401 2f3c 4041 cd3a 5832 893d 13de 58bd
00000140: 5696 173b 912e c5bc 216b 21bd 8025 74bc
00000150: 57c9 8f3d 426a ecbc 9dfa 233b 95ae 27bd
00000160: f02f b43c c541 c3ba a1bb a8ba e851 12bd
00000170: ffd2 f8bb 8aba f83b 06a9 363a cc8e a63c
00000180: 6f50 7abc 0a41 babc 0373 e13a 826c 4cbc
00000190: 065d 2fbc 586f 29bd 73ab 23bc b827 313c
000001a0: 6b74 e63c 3ae0 dfbb d738 e0ba decf 80bc
000001b0: e585 073c b6ae 433c cbb7 093b 7266 413c
000001c0: 6fec 04bd 51be a93c 912c 20bd 30cc 39bd
000001d0: 1f0d f4ba 2f8d babc 3419 5bbb 431f ca3c
000001e0: dd19 46bc c669 2fbc 8e94 5ebc e084 2bbd
000001f0: 3007 de3c d492 513d d0d2 aebd 6990 0cbd
00000200: e05b a6bc 8281 51bd 6659 083d a8fc 1c3c
00000210: c179 14bb 986e 273d 2f2f 25bd c634 1bbd
00000220: b3e1 c0bd eff5 08bd 866e c0bc d7eb 22bd
00000230: f614 80bd 3969 b5bc 9784 ac3c 9ee2 2c3c
00000240: 7d67 f6bc 3c7a 0f3d e604 a83c 17a0 1fbd
00000250: 4494 983c 0d17 fcbc fcb4 93b8 4b70 ccbb
00000260: 7fd0 82bd d503 ad3d a2a9 8a3c 8012 8bba
00000270: 89e7 e3bc 2e36 31bd 6250 1abd 48d3 56bc
00000280: 378f 7cbd 2ef4 833a 04fb 66bb fd76 0f3d
00000290: 51b2 babd 8bd4 02bc ada3 c2bc 5fde 1dbd
000002a0: f162 d8bb 1783 c23c 5e15 06bc cbc4 9dbd
000002b0: d89f 853c e874 6a3c 98dd 9fbd 4f32 f8bc
000002c0: 9e27 023d 7f84 40bd 9834 1ebb 7a4b 3fbd
000002d0: 1037 30bc 23e3 4cbb 367b 53bd 6891 b53b
000002e0: 2859 a8bd 8620 ae3b ed86 e7bd 5e03 04bb
000002f0: 2dae 1a3d d55d b13b da48 853c d674 0c3b
00000300: 29aa 8d3d 38d4 01bd bd95 f1bc e696 903d
00000310: a3be a03c ed40 87bc 6e0b d0bc 8888 a6bc
00000320: 858f c9bc 0ac1 b13c c3af 86bd 8529 163d
00000330: 6c15 a9bc 1696 c5bc e069 71bc 5519 c0bc
00000340: cf0a f0bd eff9 7bbb 523c 7ebc 6bd3 d9bd
00000350: 9ed8 ee3c 7a82 bfbd 27dd a6bd 2b91 ad3c
00000360: 044d 4b3d e0ae 293b 4a66 a3bc 3048 bcbd
00000370: 8efc f83c 9a1b efbc 1e0a 84bd 2a12 fbbc
00000380: a320 903c 03d9 38bb 904a 5abd f3da a33c
00000390: ef6a 29bd 8704 a7bc b3fb 2e3c 7634 04bc
000003a0: 185e 4c3d ba38 f53a 000f b13a bb33 08bd
000003b0: d379 09bd 213d 923c c7d8 34bd 7f26 aabc
000003c0: 1001 0bbd 87ce 3a3b 93fa 21bc 1d6d 8fbc
000003d0: 680d 90bd a04d da3a 5876 b1bd 1125 663d
000003e0: 0051 1cbc 53ed 56bc da40 59bd a102 b4bc
000003f0: 5c7e 21bc 294e d4bc c319 2abd b7f4 7b3c
0.02458764 -0.061945528 -0.017134069 -0.009847533 -0.05203742 -0.037468232 -0.018636448 -0.013871398
-0.05103752 -0.040525176 -0.05055254 -0.007954742 0.041494135 -0.011855086 0.03372161 0.0152709
-0.0064406977 -0.052726865 -0.05714244 -0.040025707 -0.024232281 -0.014915504 0.01835938 -0.031556662
-0.011540272 -0.003383231 -0.025020085 -0.017981976 -0.10908576 0.043769952 0.004568964 -0.031011617
-0.031201601 -0.019991476 0.018693222 0.0039957194 0.0049805534 -0.037758384 0.023486186 -0.031136012
0.009576311 -0.023692913 -0.021354897 -0.028905388 -0.022065815 -0.031855203 -0.013555526 -0.03886318
-0.07440718 -0.0378386 0.018090371 -0.038028937 -0.02671833 0.017046738 -0.07884192 -0.015436185
-0.05078206 0.037332125 -0.051579174 -0.031921875 0.029700097 -0.08229155 -0.023811454 0.00061391434
0.0010642404 -0.039270118 -0.01943693 -0.014893143 -0.056303225 -0.027278472 0.024178231 -0.019674914
-0.021119216 0.04099814 0.005351788 0.00809992 0.010681469 0.0015659705 0.066990554 -0.05294616
0.0023130379 -0.024070056 -0.039408807 -0.014901519 0.070208244 -0.028859261 0.0025021203 -0.04093798
0.021995515 -0.001489692 -0.0012873301 -0.035722643 -0.007593512 0.0075905966 0.00069679355 0.020331763
-0.015277966 -0.022736091 0.0017200414 -0.012477042 -0.010703331 -0.04136595 -0.009989607 0.010812692
0.028131684 -0.00683215 -0.0017106783 -0.015724119 0.008271669 0.01194351 0.002101409 0.01180421
-0.032452043 0.020720633 -0.039105 -0.045360744 -0.0018619633 -0.0227724 -0.003343177 0.02467311
-0.012091127 -0.010706371 -0.013585223 -0.041874766 0.027103037 0.051165417 -0.08536303 -0.034317408
-0.020307481 -0.0511489 0.033288382 0.009581722 -0.0022655579 0.040876955 -0.0403282 -0.037892126
-0.09418049 -0.033437666 -0.023490202 -0.039775696 -0.06253998 -0.0221449 0.021059318 0.010552077
-0.030078644 0.03502868 0.020510148 -0.038971033 0.018625386 -0.03077271 -7.043217e-05 -0.0062389723
-0.06387424 0.084479965 0.01692659 -0.0010610372 -0.027820366 -0.04326456 -0.037674315 -0.013111897
-0.061660018 0.0010067278 -0.0035244832 0.035025585 -0.091160424 -0.0079852445 -0.023759687 -0.038542148
-0.0066035916 0.02374415 -0.008183805 -0.07703551 0.016311571 0.014310099 -0.078059375 -0.030297427
0.031776063 -0.047001358 -0.0024140235 -0.04670284 -0.010755315 -0.0031263314 -0.051631175 0.0055410154
-0.0822013 0.0053139357 -0.11305032 -0.0020143609 0.037763763 0.005412797 0.01627009 0.0021431944
0.06917221 -0.03169653 -0.029490346 0.070600316 0.019622153 -0.016510451 -0.025396075 -0.020328775
-0.024604568 0.021698494 -0.06576493 0.03666069 -0.020640098 -0.024119418 -0.014734715 -0.02344958
-0.117208116 -0.0038448533 -0.015517311 -0.10636028 0.029156025 -0.09351058 -0.0814765 0.021187386
0.049633995 0.0025891587 -0.019946236 -0.09193456 0.030393865 -0.029187966 -0.06447242 -0.03064831
0.017593687 -0.002820552 -0.053293765 0.020001864 -0.041361745 -0.020387901 0.010680127 -0.008069148
0.049894422 0.0018708922 0.0013508499 -0.03325246 -0.033563446 0.017851414 -0.044152047 -0.02077031
-0.03393656 0.0028504448 -0.009886402 -0.017508084 -0.07033807 0.0016655214 -0.086651504 0.056187693
-0.009540796 -0.013118106 -0.053040363 -0.02197391 -0.009856787 -0.025916176 -0.041528475 0.015378169

action_model._continuous_distribution.mu.bias f4 [3]
00000000: fcec e63c edf3 f63c 934d c3bd
0.028189175 0.03014561 -0.095362805

exp_avg f4 [128, 22]
00000000: 73c9 fd37 ecfd 7539 809c dc37 687f 8639
00000010: 823b c637 bca0 8739 2dbb 2c38 01c8 1239
00000020: 7c2c 5338 88b3 0db8 daf4 2e38 60cc 07b9
00000030: 42b3 0838 17ba 48b9 6f0a 6339 1fb3 6eb9
00000040: 1df4 00b9 4ce3 0338 48cc 9737 221b 9d38
00000050: bfd9 1ab6 8465 6a38 1f5b 22b7 f07b 42ba
00000060: 26d1 1b37 9830 1aba 5c4c 92b7 743d 1fba
00000070: 76a2 c438 ec0b 17ba 6055 b536 9cc4 bdb9
00000080: 8f3e b938 9be3 8ab9 2ca9 10b8 3c5f 3bb9
00000090: eddd a9b9 54b7 84b9 925b 2cb9 5449 97b9
000000a0: 3ca4 ceb7 01ec 2eb9 402c cab7 0c57 09b9
000000b0: 3855 0039 a367 33b9 5014 3f39 0437 5cb9
000000c0: 939b 5739 470f 5eb9 bf3d 4639 5eaa 38b9
000000d0: c850 403a 5f53 3a39 6d7a 0e39 939a c339
000000e0: 0ce9 bb38 b58c ce39 a93a d83a a083 983a
000000f0: c7b4 103a 4500 db3a b690 ae38 bc4d b13a
00000100: d79d 1a3a c29b c83a b84c e037 2eb8 05ba
00000110: 1cc3 9438 cf7e 06ba 380a 9338 8440 fdb9
00000120: 5aea 1a39 fcad b1b9 f1f2 d838 789e 22b9
00000130: f3a5 df38 e73a 98b8 97f1 bf37 4833 f1b7
00000140: 4f4a 98b9 08cf 8eb9 a932 1ab9 ac6f 5eb9
00000150: ffaa c138 e27d 87b8 702f 0d39 70dc d8b7
00000160: 4521 d0b8 7f00 77ba 9477 c1b8 0398 7dba
00000170: 8893 bfb8 3ef3 7eba 11b7 29b8 895d 45ba
00000180: 9fbb a6b8 9b12 04ba f2bc 4fb8 cd34 c1b9
00000190: 7472 e0b8 fbf2 97b9 25b4 9fb8 0603 51b9
000001a0: fa7f fcb8 481c a336 a00b a5b8 c073 5d38
000001b0: 4b87 8b38 620f 1139 b276 5036 3213 8739
000001c0: 0937 0438 9be4 8e39 56c9 1c38 812c 9f39
000001d0: 7a70 0f39 1855 7639 dc3a 5b38 03b7 ab38
000001e0: 5f55 e638 3048 49b7 10df 9834 a6ab 32b8
000001f0: faea 91b9 c350 a5b9 0a37 5338 3636 1eb9
00000200: fdf4 9138 424b dcb8 af2f 8838 6848 dbb8
00000210: a1a3 e4b8 2aa5 4cb8 0621 59b8 f8bc 65b8
00000220: 80e4 35b8 0c6c 3cb8 61ed 8539 608a d7b6
00000230: 56d8 d8b9 1628 d4b9 5fb9 4c39 6759 25ba
00000240: 3664 40b9 ce3f 0eba 00e0 0fb3 1e08 efb9
00000250: ebb4 9338 5fed 52b9 b42a e1b8 f585 92b9
00000260: f499 dbb8 c925 98b9 c8bc be37 606f a6b9
00000270: ab0c bab8 d8c0 8db9 5ded adb8 9575 8eb9
00000280: ed70 aab8 37ec 82b9 ad73 e9b9 0630 e4b9
00000290: ef61 0c38 e68d 04ba 3a7b b7b8 9f5b ffb9
000002a0: 6d96 0bba fcd7 3dba 427c db37 f91a 59ba
000002b0: c26e d637 ea97 4cba 3b3f 0fba 7feb 81ba
000002c0: 34e7 49b7 30db 063a a9e1 b3b7 b710 af39
000002d0: 1db7 bbb7 0d50 a539 2e4b b3b9 efee 9839
000002e0: f9f3 94b9 4c75 4b39 fb8e acb9 c974 0339
000002f0: 4418 0238 105d 3eb7 2d44 1b3a 7b3d 5539
00000300: c702 c2b7 a2dd c039 bae5 4b36 9abf ab39
00000310: 2c5e 5039 9c00 c839 5ecc 0e38 99b6 b1b9
00000320: a6cc 8737 ea9f 0eba 2ee3 4938 6075 0eba
00000330: d57c ac39 9635 48b9 983d 9839 e64e a0b9
00000340: 28a2 ac39 0049 bab9 a788 7d38 aa33 93b9
00000350: 6c94 4639 0c17 29b9 1dbf 8039 d862 e838
00000360: 0df5 8e38 1043 5c38 f162 f039 3f14 7239
00000370: 8dc5 2fb8 1de6 cab8 755b 93b7 54d9 eeb8
00000380: fc05 a1b7 dba5 d2b8 2820 03b8 258a ceb8
00000390: 556f 69b8 6fce d3b8 b5c9 7bb8 1491 ebb8
000003a0: a199 6ab8 5662 03b9 08eb a0b8 ba1d bbb8
000003b0: f041 b1b8 31bc d5b8 f603 b0b8 93a0 e4b8
000003c0: 2441 fa37 6945 83b8 2d20 da37 0028 a2b9
000003d0: e066 65b8 5a23 a1b9 d560 b5b8 2424 b6b9
000003e0: 6a6f 39ba bd1f 1dba 6dc2 49ba d9ce 1eba
000003f0: 1cee 1fba c023 28ba a83f 53b6 2add 5fba
3.0253757e-05 0.00023459614 2.629892e-05 0.00025653397 2.363115e-05 0.00025868963 4.1182317e-05 0.00013998152
5.034775e-05 -3.378422e-05 4.171287e-05 -0.00012950739 3.2591874e-05 -0.0001914281 0.00021652294 -0.00022764177
-0.0001229797 3.144452e-05 1.8095729e-05 7.491397e-05 -2.3074533e-06 5.588449e-05 -9.677168e-06 -0.0007418981
9.287416e-06 -0.0005881875 -1.7440114e-05 -0.0006074526 9.376269e-05 -0.00057619694 5.4041593e-06 -0.00036195375
8.83314e-05 -0.0002649099 -3.448983e-05 -0.00017869187 -0.0003239954 -0.00025313592 -0.00016437311 -0.00028855598
-2.4633591e-05 -0.00016681851 -2.4100882e-05 -0.00013097766 0.00012238778 -0.00017109378 0.00018222746 -0.0002100133
0.00020561954 -0.00021177261 0.00018905754 -0.00017611074 0.0007336256 0.000177694 0.00013587782 0.00037308465
8.960263e-05 0.00039396217 0.0016496974 0.0011635907 0.0005520102 0.0016708454 8.323921e-05 0.0013527195
0.0005898154 0.0015305209 2.6738606e-05 -0.0005100992 7.093532e-05 -0.000513059 7.0114096e-05 -0.00048303988
0.00014773887 -0.000338897 0.00010344934 -0.00015508558 0.00010664379 -7.258896e-05 2.2881473e-05 -2.8753318e-05
-0.00029047063 -0.000272386 -0.00014705457 -0.00021213171 9.234808e-05 -6.460749e-05 0.0001346448 -2.5851856e-05
-9.92441e-05 -0.0009422376 -9.22523e-05 -0.00096738356 -9.1350696e-05 -0.0009725577 -4.0463234e-05 -0.00075288914
-7.950444e-05 -0.0005038173 -4.9528615e-05 -0.00036851168 -0.00010702471 -0.00028982 -7.615265e-05 -0.0001993292
-0.00012040134 4.861071e-06 -7.8699784e-05 5.2798307e-05 6.653237e-05 0.00013834008 3.1063505e-06 0.00025763508
3.1522508e-05 0.00027254675 3.7380807e-05 0.0003036 0.00013679444 0.00023492088 5.2268486e-05 8.188004e-05
0.00010983156 -1.1997341e-05 2.8474506e-07 -4.2598367e-05 -0.00027831626 -0.00031531425 5.035758e-05 -0.0001508825
6.9597714e-05 -0.00010504435 6.493867e-05 -0.000104562205 -0.000109023655 -4.879121e-05 -5.1767587e-05 -5.4773845e-05
-4.336657e-05 -4.492332e-05 0.00025544598 -6.4236083e-06 -0.00041359913 -0.00040465657 0.00019524012 -0.00063075725
-0.00018347878 -0.0005426378 -3.349851e-08 -0.0004559168 7.043205e-05 -0.00020115588 -0.0001073679 -0.00027947096
-0.0001047141 -0.0002901985 2.2737673e-05 -0.00031744968 -8.871531e-05 -0.00027037296 -8.293495e-05 -0.00027171956
-8.127266e-05 -0.00024971526 -0.00044527408 -0.0004352333 3.346981e-05 -0.0005056545 -8.749073e-05 -0.00048705653
-0.00053248444 -0.0007241962 2.6164696e-05 -0.00082819123 2.5562364e-05 -0.00078046194 -0.0005464439 -0.0009912102
-1.2034365e-05 0.0005144356 -2.1443544e-05 0.00033391055 -2.2377406e-05 0.00031530895 -0.00034197554 0.0002916972
-0.00028410534 0.00019403285 -0.00032912925 0.0001253664 3.1017014e-05 -1.134655e-05 0.000592294 0.00020336166
-2.3127895e-05 0.00036786223 3.0383076e-06 0.00032758416 0.00019871508 0.00038147427 3.404577e-05 -0.00033896117
1.6188551e-05 -0.0005440699 4.8133712e-05 -0.00054343604 0.00032899404 -0.00019093449 0.0002903759 -0.00030576362
0.00032927212 -0.00035531074 6.0447168e-05 -0.00028076518 0.00018938043 -0.00016125682 0.00024556453 0.00011081033
6.816732e-05 5.2514544e-05 0.00045850084 0.0002308646 -4.1907235e-05 -9.6749725e-05 -1.7566354e-05 -0.00011389205
-1.9195482e-05 -0.00010044473 -3.126278e-05 -9.848577e-05 -5.5655215e-05 -0.00010099715 -6.0030918e-05 -0.00011232696
-5.5933026e-05 -0.00012529767 -7.6731725e-05 -8.922392e-05 -8.4522995e-05 -0.00010191685 -8.393072e-05 -0.000109017965
2.9832656e-05 -6.2594954e-05 2.6002608e-05 -0.0003092885 -5.4693664e-05 -0.00030734652 -8.648789e-05 -0.00034740672
-0.0007073792 -0.0005993804 -0.0007696513 -0.00060580444 -0.000610085 -0.00064140186 -3.1478503e-06 -0.0008539731

exp_avg_sq f4 [128, 22]
00000000: 4d87 5d33 31d3 5435 381e cb33 23e8 5135
00000010: b516 ec33 d765 4d35 9999 9034 1f8f 2e35
00000020: a797 e034 a844 f434 f6d8 7e35 83ab d034
00000030: 1ba8 a835 eb58 be34 d5d6 b535 550b c534
00000040: 3fa2 b135 6876 c634 d681 2b35 8693 0c35
00000050: b5f1 0135 ee3b 0f35 a490 fc34 bfad 7d36
00000060: 4911 a235 934d 8536 aa58 5836 dd4d 7436
00000070: f22c 5a36 9448 7036 f7be b336 a3d7 2336
00000080: 56ee e136 659c 0336 ddc7 c636 b266 0236
00000090: 7016 ad36 802f 1336 82e4 8e36 489c 2b36
000000a0: f406 2c36 d9fc 3936 bb71 1736 44ab 3a36
000000b0: 74ab 1d35 f0cc eb35 9a51 b235 f126 0d36
000000c0: 50a0 7936 3897 5436 52be 9236 4fe0 8136
000000d0: e952 9a36 2bd4 9436 a86e c035 c734 be36
000000e0: 8590 0136 4a2e b536 4e33 8736 576f ba36
000000f0: 1852 3436 03d8 d636 1c75 ce35 f5b1 dd36
00000100: 2d6a c435 cc9c f136 df8a 8734 e9ce d635
00000110: 2883 2635 8ade c135 940a 9f35 fe23 9e35
00000120: c7bc 4335 c5a1 ab35 392b cb34 a2e2 d235
00000130: 102c d035 b9ed b935 68a3 f035 e053 c735
00000140: 4d2a 2a36 f21b b135 d98a 2036 47e9 cc35
00000150: 734e 4d35 d5dc dc35 bf3e dc34 05cf d835
00000160: eaae 9b34 e398 d435 9889 8a35 3c25 ad35
00000170: f1e7 9435 3d32 9835 5d64 9835 3af4 7f35
00000180: f513 9735 5b42 5e35 ec34 ad35 912c 6f35
00000190: ce6e e935 4236 5035 3ccd fa35 b015 2d35
000001a0: 2c01 d235 6fe4 3635 340d b835 1184 2735
000001b0: b1cc 9b35 bf0e 2935 d79a b930 64ee af35
000001c0: 61e1 3a32 42e3 ad35 638f 8b34 4a3d 9a35
000001d0: eae0 1434 68b5 8b35 1c86 b434 98fc 8635
000001e0: 8a93 8235 92b4 8535 28bc d035 94ff 8035
000001f0: 5597 eb35 707a 7535 d103 f835 9042 6535
00000200: dc26 6034 d333 9135 c416 2c34 119e 8535
00000210: 8d30 3434 54e8 be35 acef 0335 fcbc b635
00000220: bf6e 9e35 91d1 a035 f206 8a35 1c86 9d35
00000230: a82a bb35 ad80 ab35 d60d 4235 29d9 d735
00000240: 5c9d 8235 619d c435 86ac ab34 2bc0 a635
00000250: ec8e a934 6b15 9835 807b 0b35 b647 7b35
00000260: 84b4 ee34 710b 7435 c54f 6d35 b6c4 e435
00000270: cb52 d835 180f b635 bc52 f235 40f4 ac35
00000280: de39 1836 3f4f a335 7e3f 2636 2dee a135
00000290: b479 4036 6356 9d35 8c8f 3336 e88e ba35
000002a0: 2ee7 ed35 1a7e fd35 e0f3 8334 883f 2736
000002b0: 720c 7e34 c21c 2336 1ec2 d934 6769 2e36
000002c0: 716f 0632 6ba6 7f35 531e 8b32 d0c0 a135
000002d0: 4395 fe32 af97 c235 1263 9a35 8287 9a35
000002e0: c9d1 9a35 a9d3 8f35 f144 ff35 71f7 9a35
000002f0: ccfc 0b36 8b9d 9e35 5070 1c36 30b7 9635
00000300: 66b9 ea35 4358 cc35 17d9 8135 6b9e f735
00000310: 6456 8335 292b fc35 ffa4 8a35 5974 b636
00000320: d365 a136 054a d736 ab88 1837 ac3d ec36
00000330: 75d2 2b37 6b1c ea36 cfd2 5137 2615 c636
00000340: 2d35 4737 bf54 c836 f956 0437 6242 e836
00000350: d0e3 e336 3007 f836 b7b2 c436 77a4 0037
00000360: 4a8b bd36 31b7 0237 d39f ae36 9e8c 0737
00000370: f4ba 7434 3916 1535 de7d 8335 c23b 2c35
00000380: dc5a 8835 2549 3335 7c83 9b35 a777 2a35
00000390: 39b7 a535 8f28 1c35 4da5 e235 9be5 0935
000003a0: 27c7 e935 0ca2 fb34 bfcc e935 0a5b fc34
000003b0: 6647 dd35 4c52 0635 387e a135 2178 1d35
000003c0: 201f 9635 810d 2135 15c1 e835 2a03 6236
000003d0: def5 0a36 1fc8 3336 1a0c 2b36 a942 2536
000003e0: 686f 2936 16d3 2f36 931b 1636 d23c 3136
000003f0: 9070 4935 0140 5336 ad9c 4633 3fca 4c36
5.1578628e-08 7.928348e-07 9.458421e-08 7.819637e-07 1.0993737e-07 7.651665e-07 2.6933847e-07 6.502832e-07
4.1833593e-07 4.5498496e-07 9.4938093e-07 3.886781e-07 1.25659e-06 3.5454954e-07 1.3548075e-06 3.6702355e-07
1.3234747e-06 3.6966526e-07 6.38914e-07 5.236874e-07 4.8407975e-07 5.335886e-07 4.7043898e-07 3.7801071e-06
1.2074971e-06 3.9727397e-06 3.2238117e-06 3.6404156e-06 3.2510693e-06 3.5805033e-06 5.356847e-06 2.441441e-06
6.7332685e-06 1.9611555e-06 5.924127e-06 1.9431286e-06 5.158414e-06 2.1932356e-06 4.2585316e-06 2.5571953e-06
2.5634045e-06 2.7714325e-06 2.2566953e-06 2.781585e-06 5.8736555e-07 1.7568509e-06 1.3285783e-06 2.1033304e-06
3.7197206e-06 3.1678483e-06 4.3732953e-06 3.8706125e-06 4.5992097e-06 4.4354433e-06 1.433732e-06 5.6685853e-06
1.930662e-06 5.399609e-06 4.029286e-06 5.5561936e-06 2.6869875e-06 6.402844e-06 1.5382279e-06 6.60703e-06
1.4634039e-06 7.2006133e-06 2.5246752e-07 1.6004461e-06 6.2030676e-07 1.4444388e-06 1.1849502e-06 1.1782392e-06
7.291787e-07 1.2787574e-06 3.7843145e-07 1.5712178e-06 1.5510032e-06 1.385276e-06 1.7928951e-06 1.4851066e-06
2.5356596e-06 1.3195661e-06 2.3922678e-06 1.5267077e-06 7.648261e-07 1.6455548e-06 4.1023847e-07 1.6153505e-06
2.8998267e-07 1.5839727e-06 1.0321846e-06 1.2900341e-06 1.1094363e-06 1.1339504e-06 1.1354092e-06 9.53503e-07
1.1256185e-06 8.2798005e-07 1.2904907e-06 8.909929e-07 1.7392101e-06 7.7564994e-07 1.8686183e-06 6.447908e-07
1.564656e-06 6.81327e-07 1.3712911e-06 6.240453e-07 1.1607973e-06 6.2978864e-07 1.350453e-09 1.3107897e-06
1.087787e-08 1.2955645e-06 2.5995095e-07 1.1491732e-06 1.3865397e-07 1.0409103e-06 3.362519e-07 1.0057292e-06
9.728694e-07 9.961825e-07 1.5551968e-06 9.611126e-07 1.7552908e-06 9.144778e-07 1.8478551e-06 8.540601e-07
2.0875763e-07 1.0818425e-06 1.602703e-07 9.955276e-07 1.6781469e-07 1.422372e-06 4.915007e-07 1.3615058e-06
1.1804149e-06 1.1981921e-06 1.0283823e-06 1.1736443e-06 1.3945e-06 1.2777942e-06 7.2290766e-07 1.608195e-06
9.731552e-07 1.4648941e-06 3.197676e-07 1.2423892e-06 3.1582692e-07 1.1331116e-06 5.196125e-07 9.360914e-07
4.4462297e-07 9.091373e-07 8.840546e-07 1.7044574e-06 1.611735e-06 1.356445e-06 1.8054484e-06 1.2886085e-06
2.2683448e-06 1.216751e-06 2.4772885e-06 1.2064753e-06 2.868107e-06 1.1722553e-06 2.6756634e-06 1.3899671e-06
1.7725158e-06 1.8886669e-06 2.4578094e-07 2.492192e-06 2.3660121e-07 2.4305632e-06 4.056064e-07 2.5989373e-06
7.825165e-09 9.523707e-07 1.619552e-08 1.2051551e-06 2.9637368e-08 1.4498272e-06 1.1502727e-06 1.1513332e-06
1.153495e-06 1.0715931e-06 1.9019045e-06 1.1545909e-06 2.0859761e-06 1.1817768e-06 2.3311186e-06 1.1229185e-06
1.7488317e-06 1.5224872e-06 9.67443e-07 1.844904e-06 9.785404e-07 1.8788024e-06 1.0329821e-06 5.4375673e-06
4.810028e-06 6.4161163e-06 9.0917265e-06 7.0405276e-06 1.0241395e-05 6.9770517e-06 1.25064535e-05 5.903322e-06
1.1873705e-05 5.97033e-06 7.888063e-06 6.9218668e-06 6.791648e-06 7.3918127e-06 5.8620603e-06 7.667687e-06
5.6488543e-06 7.791256e-06 5.20421e-06 8.079367e-06 2.2792284e-07 5.5539164e-07 9.796893e-07 6.416195e-07
1.0159233e-06 6.6789136e-07 1.1586667e-06 6.350405e-07 1.2346783e-06 5.817355e-07 1.6886421e-06 5.1370597e-07
1.7417814e-06 4.6870298e-07 1.7419442e-06 4.7004897e-07 1.6486563e-06 5.003865e-07 1.2032169e-06 5.866187e-07
1.118493e-06 5.9996825e-07 1.7341541e-06 3.3678466e-06 2.0706716e-06 2.6789564e-06 2.548803e-06 2.4625717e-06
2.524781e-06 2.61999e-06 2.2367792e-06 2.6410457e-06 7.5042135e-07 3.1478705e-06 4.6242963e-08 3.0516092e-06

exp_avg f4 [128]
00000000: ee5d 6d38 9aa9 cfb8 32d1 0d3a 6c7b 0eb9
00000010: 6b8e b638 13bd 62b9 4e92 3eb8 1c2c a7b8
00000020: d67e 15b9 afd3 60b8 b93c 5739 7846 ef39
00000030: 10e4 9737 b23d d737 c57d deb8 21bc 7db9
00000040: 8594 3139 b5f1 0d39 50de 2237 8e8e a139
00000050: 7e1a 8d39 d19a dc39 8ca6 e3b9 f1af 0b39
00000060: 06ce 7639 4ec9 93b9 2626 8fb9 6898 9a39
00000070: 8368 be39 00a0 81b2 0b21 42b8 7ac8 d538
00000080: 1fa6 4539 a202 a5b8 b813 3038 2856 61b8
00000090: f4af 81b8 04bc 1339 ce87 7fb9 3d11 94b9
000000a0: 2164 dc39 0057 0cb8 e0ee a039 deb8 d938
000000b0: e475 2ab8 4fd0 35b9 d02d d0b7 1e96 9b39
000000c0: c8ff ffb7 b863 55b8 c874 12b7 c4b4 cdb8
000000d0: 772a c039 a05f a138 a0d9 bb39 e87f b537
000000e0: 12fb 8039 4258 b239 a9f2 05b9 9f1a cd39
000000f0: 5ef9 5eb9 fd34 adb8 c1e1 d7b9 f609 0939
00000100: 4014 9c36 3fad ccb8 e83a 43b9 ac18 3ab8
00000110: 5781 acb9 6ab0 04b9 40b7 5d39 05de 5839
00000120: fcb2 6c39 ca63 0eb9 e2a5 a939 650b 11b9
00000130: 3d7a e038 7467 e239 8e89 98b7 7e7e f9b8
00000140: f0b2 93b9 3073 3639 8c12 92b8 f6b0 d639
00000150: 6fb8 0639 d01a 7639 4cfc 9039 ab8f cf38
00000160: dafe dc38 d636 deb8 18f7 c839 94a9 6937
00000170: 100e cdb8 f9bf c439 2059 51b7 7f27 43b9
00000180: 1579 9b39 cfd9 88b9 f071 6739 f725 4d3a
00000190: 956d 13ba 2711 f639 3a5e 2d3a e808 9837
000001a0: ee57 f339 a883 bab9 50b9 a437 1cd9 7f39
000001b0: 703a 9ab7 f23a 073a 523e 7639 909e f839
000001c0: c2c7 8fb9 2049 e5b8 fa8c 7439 b424 93b7
000001d0: cda8 a539 0058 4cb7 b1c7 c0b8 80d3 6537
000001e0: 28da cd39 5960 a8b9 e3c7 9139 b557 9e39
000001f0: 2648 6739 75b4 9539 6410 0c39 54b5 6a39
5.6592682e-05 -9.90212e-05 0.00054098957 -0.00013588154 8.704964e-05 -0.00021623475 -4.5435787e-05 -7.9713966e-05
-0.00014256997 -5.3602907e-05 0.00020526619 0.00045638136 1.8106803e-05 2.5658726e-05 -0.00010609211 -0.00024198044
0.00016935363 0.00013536851 9.707714e-06 0.00030814525 0.00026913354 0.00042077017 -0.000434209 0.00013321616
0.00023537138 -0.0002818801 -0.00027303508 0.0002948672 0.0003631749 -1.5090336e-08 -4.6283978e-05 0.00010193973
0.00018849269 -7.8683035e-05 4.1980034e-05 -5.372442e-05 -6.183973e-05 0.00014089054 -0.00024369286 -0.00028241603
0.00042036272 -3.3459626e-05 0.00030695554 0.000103818005 -4.0640953e-05 -0.00017339106 -2.4816865e-05 0.0002967575
-3.0517476e-05 -5.0876028e-05 -8.729468e-06 -9.808832e-05 0.00036652733 7.69489e-05 0.00035829563 2.1636442e-05
0.00024601124 0.00034016563 -0.00012774266 0.0003912048 -0.00021264466 -8.259153e-05 -0.00041176195 0.00013069049
4.6515197e-06 -9.7597476e-05 -0.00018618593 -4.4368833e-05 -0.00032902762 -0.0001265422 0.00021144468 0.00020682074
0.00022573391 -0.0001357935 0.00032357784 -0.00013832522 0.00010703921 0.00043183158 -1.8183866e-05 -0.00011896806
-0.00028171344 0.00017399783 -6.965277e-05 0.00040949107 0.00012847943 0.00023470377 0.00027653796 9.8972894e-05
0.00010537887 -0.00010595999 0.00038331072 1.3927365e-05 -9.777781e-05 0.00037527064 -1.2478122e-05 -0.00018611363
0.00029654117 -0.0002610222 0.00022072322 0.00078257866 -0.0005623934 0.00046933556 0.0006613467 1.812396e-05
0.00046414084 -0.00035574776 1.9636616e-05 0.00024399575 -1.8385443e-05 0.0005158625 0.00023483604 0.00047420384
-0.00027423917 -0.000109331915 0.00023322171 -1.7540857e-05 0.0003159702 -1.2179837e-05 -9.192469e-05 1.3698707e-05
0.00039263186 -0.00032115242 0.00027805482 0.00030201455 0.00022056754 0.00028553946 0.00013357546 0.00022383529

exp_avg_sq f4 [128]
00000000: 16d8 4934 5d7b 6b35 f64a ac35 1024 4935
00000010: 401e 4335 d60f 9735 67a7 2235 f22c 7e35
00000020: b4c0 7435 343e cd35 f40e 3435 2135 b436
00000030: 1411 b335 83f8 7635 1557 0f35 79eb 2f35
00000040: c2b9 3c35 4a95 d735 e280 a535 7de4 e135
00000050: 9807 ed36 b553 9535 2cc7 0635 a313 5f35
00000060: 2157 da35 dfa3 a435 954d fe34 793d b535
00000070: 6aa7 fb35 293f 8a35 ff72 e434 3b95 0f35
00000080: 88f5 7235 e8c3 2a35 57ed 5536 e663 2335
00000090: 0a5e eb34 4672 7c36 8c47 8b35 f1e5 4a35
000000a0: df18 fb34 9b54 4134 5af0 d235 569a 7735
000000b0: ab57 2135 6072 a034 426c f634 9601 5436
000000c0: 53ae 0636 b7fc af35 b554 9335 db18 be35
000000d0: dc88 8c35 912b 9135 5e1e a235 a084 2635
000000e0: 9554 3036 07cd ff35 37a9 ec34 529c 6436
000000f0: 4bbe a135 386c 0a35 a1d7 a735 d404 2b35
00000100: c957 6535 98a5 8235 fe4b 3c36 a210 8d35
00000110: 29ac a435 d8a8 0235 182c 1e35 5a57 0e36
00000120: fa3f ab35 84a8 0a36 a57d f135 82d1 1a35
00000130: 2bbd 8735 d002 8436 e145 7a35 ecf2 2736
00000140: b5ac ca34 8214 1636 e2c4 8d35 2fb3 3636
00000150: 73e2 ab35 6d99 9836 3575 eb34 f813 4f34
00000160: 8c3b 4134 6297 9f35 5668 8a35 38e1 ae35
00000170: f2f7 6134 9038 6e35 3651 ac34 d497 8535
00000180: e4c1 0036 6ce6 7635 50fa 1f35 bbc4 9936
00000190: 084d 9736 a8c8 a935 1e06 ae36 7f13 de35
000001a0: e921 7836 cd86 d435 8088 c735 a8b0 1d36
000001b0: f9ed d635 4436 9735 2906 b635 9bdb 6335
000001c0: ff14 ca35 7d81 c535 4958 0536 db33 2335
000001d0: fd17 d035 f6e5 4136 8972 b334 58a8 5635
000001e0: 3583 bc36 5440 db34 d39f ad35 68b7 ac35
000001f0: 1f98 0f36 098f 7635 1bd5 6c34 23cc fb34
1.8798195e-07 8.772384e-07 1.2836815e-06 7.4930813e-07 7.268718e-07 1.1254986e-06 6.0593305e-07 9.468778e-07
9.1177503e-07 1.5291794e-06 6.7076985e-07 5.370603e-06 1.334151e-06 9.2003773e-07 5.339837e-07 6.553524e-07
7.030577e-07 1.6062197e-06 1.2330968e-06 1.6830305e-06 7.0640344e-06 1.1125727e-06 5.0208723e-07 8.310255e-07
1.6267624e-06 1.2266645e-06 4.7367635e-07 1.3503442e-06 1.8749681e-06 1.0300183e-06 4.255198e-07 5.348881e-07
9.050932e-07 6.3615016e-07 3.1877623e-06 6.0867603e-07 4.3840583e-07 3.7617442e-06 1.037713e-06 7.558547e-07
4.677049e-07 1.8005305e-07 1.5716171e-06 9.223926e-07 6.010475e-07 2.988554e-07 4.589984e-07 3.1591385e-06
2.0069026e-06 1.3112066e-06 1.0977006e-06 1.4163337e-06 1.0470644e-06 1.0816021e-06 1.2078779e-06 6.2032814e-07
2.6275277e-06 1.9058651e-06 4.4081546e-07 3.4065638e-06 1.2050817e-06 5.1566485e-07 1.2505226e-06 6.370949e-07
8.543689e-07 9.733949e-07 2.8058416e-06 1.0510159e-06 1.2269057e-06 4.8674474e-07 5.892375e-07 2.1210494e-06
1.2759112e-06 2.0661691e-06 1.7992467e-06 5.7674345e-07 1.0113339e-06 3.934234e-06 9.3233945e-07 2.5026338e-06
3.7751093e-07 2.236368e-06 1.0562619e-06 2.7224412e-06 1.2806398e-06 4.547814e-06 4.385744e-07 1.9285642e-07
1.7996189e-07 1.1890481e-06 1.0312167e-06 1.3029558e-06 2.104496e-07 8.874422e-07 3.2096585e-07 9.95346e-07
1.9186346e-06 9.197745e-07 5.959637e-07 4.5826578e-06 4.5091183e-06 1.264988e-06 5.1863162e-06 1.6545963e-06
3.6974618e-06 1.5834463e-06 1.4866382e-06 2.349765e-06 1.6013502e-06 1.126617e-06 1.356185e-06 8.488366e-07
1.5056283e-06 1.471533e-06 1.9869933e-06 6.079769e-07 1.5504189e-06 2.8893096e-06 3.3424683e-07 7.9966185e-07
5.618111e-06 4.0838734e-07 1.2936019e-06 1.2868377e-06 2.1397207e-06 9.1850285e-07 2.205674e-07 4.6900922e-07
