results/599000Steps=981-244/3DBall/3DBall-999808.onnx (onnx, 84847 bytes, 9 tensors)

network_body.observation_encoder.processors.0.normalizer.running_mean f4 [22]
00000000: 4d3e 8635 4bff ca3f 4d3e 8635 91c6 cc3f
00000010: 705d 4936 ddab ce3f 705d 4936 ce55 d03f
00000020: 725d c936 735a d13f 655d 4936 6571 d13f
00000030: 613e 8636 3994 d03f 613e 8635 d7e8 ce3f
00000040: d7cd a736 32ba cc3f 5c3e 0636 fe63 ca3f
00000050: 0000 0000 0136 c83f
1.000191e-06 1.5859159 1.000191e-06 1.5998098 3.0005722e-06 1.6146199 3.0005722e-06 1.6276186
6.0011453e-06 1.6355728 3.0005697e-06 1.636273 4.000773e-06 1.6295234 1.0001933e-06 1.6164807
5.0009508e-06 1.5994322 2.0003854e-06 1.5811765 0.0 1.5641481

network_body._body_endoder.seq_layers.0.weight f4 [128, 22]
00000000: b008 01be 9ca7 993e a76d d3bd 2ba6 bc3e
00000010: 6b19 9c3d fb5c 1e3e 16eb 583e 14f8 4fbe
00000020: 6d8b 463e 90c9 ef3d 1873 343e a1d3 cfbe
00000030: 79db bbbe db33 ebbb c5e9 e7bd 4569 4a3d
00000040: a88e e2be 9092 5abd 550c e9bd c19e 5fbd
00000050: 17d5 9a3d 989b 753d e1f6 f43d a33c 79be
00000060: a875 ddbd 9812 153e 3b15 32bc 2afd d13b
00000070: 7627 eebd cb84 cc3d a501 cb3d 5854 abbe
00000080: f6ae 13be 27a4 b23e d56e 523e eb70 773e
00000090: 1ba8 33be 0ddf 50be 104f 083f 3362 023e
000000a0: 6fda cfbd 7dba b2bd f154 c7be 518b 2abd
000000b0: 5841 5e3d 3f8b 9cbe 34a3 47bb 5a7e 6f3d
000000c0: 2ce8 b23d f22a 793e 5990 8e3d db3c 973e
000000d0: af3a 25bd d45f 333e 44d4 f0bd 1ed0 d83d
000000e0: ca83 f0bc b4b9 993e c87e 4a3d b694 ffbe
000000f0: 2652 58ba 7d9b 4fbf 65af ea3d c216 993e
00000100: df3a 2dbe 0125 4cbc 43e1 84be 37c6 54be
00000110: 7b34 75be f61f d43d 9ad0 1abe bd73 1f3b
00000120: ec69 79bc 068b 323e 42ca f5bd b2e5 74be
00000130: 4c96 993e b57b 4a3e 682d f8bd 99a0 dbbc
00000140: 3f03 46be b80e 213d 7973 85bd 2c7a 0b3e
00000150: 0670 be3d 0c45 9c3d 39dd 313d 910a 82be
00000160: 70e7 233b 04ba 893c 43b9 743e 149c 7a3d
00000170: 4d70 073e d17e 553d 8bcb a4bd 6433 15bd
00000180: 555c b23e 1f75 973d fd8e 573e a186 36bd
00000190: e6cd 923d afd1 29be 781f 803d 694d 733e
000001a0: f1a7 64bd d9f4 1cbe e7e8 cb3d 5e48 713d
000001b0: 8f3b 7a3e 4573 42be b2b5 4ebd f894 7e3e
000001c0: 33da 443e 12a6 7fbe bc8e 70be 38e4 d93c
000001d0: 5928 36be b3c4 6ebd f406 653d 3fc8 833e
000001e0: 2f5d 3a3e a03b 453e ca14 ba3e 06d2 87be
000001f0: 90b8 ef3d d04c 893d 3d50 1dbc 1674 dabd
00000200: fba4 4cbe 1ab1 483e 0f19 103e 3900 92be
00000210: 5934 99bc 67c3 733c b547 a33d e2f7 293e
00000220: 32a2 2d3e 0cdf 77bd 1f91 a13c 4a32 a6be
00000230: 9218 b0be 2c56 3a3e 072d 9e3e f84c a7bd
00000240: 4741 473c e977 01be c8a3 65be d613 b13e
00000250: 6c1e 2e3e c50e 11bd 2759 f03d 89dc 7d3e
00000260: 65f8 abbd 570f 78be 367f 383e a6cf 513e
00000270: e28d 7b3d 4314 c13c f5a8 713e 4461 943e
00000280: c829 ec3d a2cb 9d3a 1c98 d43e 3bf2 e93e
00000290: a61d 853e 1836 323e d7ff 0dbd c9de 57be
000002a0: ac19 1d3a 120c 87bd 8007 5d3e 5c7e 9cbe
000002b0: 0f4f d93e 7937 03bf 3288 6c3e 3e84 a0bd
000002c0: 809a 743a 937e 7abe 0b6d 0cbe 0490 813d
000002d0: 9ce8 91bb 06f2 afbe 8fd4 a63d ce87 6b3e
000002e0: 90c7 1b3d 03bd be3e e764 84bd 436b 98bd
000002f0: 094e 1a3e 0c26 c3be 942c 093d b6d2 d63c
00000300: 7035 82be 43c9 9cbd 73ae fc3d 2d06 893d
00000310: a80b 9c3d 9079 693e 984f c73d 4c37 24bd
00000320: ebbd 25be 1d99 0c3e 47ca 96be 4616 3fbe
00000330: 3f3c 1f3e 7b59 bcbd 8b5a c43d 1f97 ec3d
00000340: d1e8 9e3e cc65 eb3d 6dbe 023e 9460 53be
00000350: d5c9 0cbf b024 ff3d 5aeb d03d e465 853e
00000360: 2baa c5be 55c3 39be 2ab1 27be 8fb0 c4bc
00000370: 44fe 11bf 185c 673e 86c4 ecbd bbaf 0abe
00000380: 1d86 2f3e 9027 343e 583a 823e 6764 0dbe
00000390: ff19 973e d2e7 253e 1939 413e 6a37 02bf
000003a0: 44cf 9a3e af7f a7be f892 40bd 16d1 623d
000003b0: be9a d93e 6004 b43c ed59 c53d af4c 9d3d
000003c0: d5ff 31be fefe 923c 4a5e f83d 11a6 84be
000003d0: e5c4 e23d a4bf 1bbd c241 a03e 57cc 903c
000003e0: f22a 8b3e 7609 5c3e b9d5 19bd 0b08 b7bd
000003f0: 81b0 1b3e fab1 073e c3d0 2d3e 495d a6be
-0.1260097 0.30010688 -0.10323649 0.36845526 0.076220356 0.15465157 0.21183428 -0.20309478
0.19389124 0.11708367 0.1762203 -0.40591148 -0.36690882 -0.0071778125 -0.11323885 0.0494168
-0.44249463 -0.05336243 -0.11379305 -0.05459476 0.07560175 0.05996284 0.11961151 -0.24339537
-0.10813457 0.14557874 -0.01086932 0.0064083533 -0.1162862 0.09986266 0.09912423 -0.33462787
-0.14422211 0.34890863 0.20550092 0.24164169 -0.17544596 -0.20397587 0.5324564 0.12732773
-0.10149085 -0.08726976 -0.38931993 -0.04163677 0.054261535 -0.30574986 -0.0030462267 0.058470108
0.087356895 0.24332789 0.06961126 0.29538617 -0.04033917 0.17517024 -0.117592365 0.1058657
-0.029359717 0.30024493 0.049437314 -0.49918145 -0.0008251987 -0.8109663 0.11459235 0.29900175
-0.16916989 -0.012459994 -0.2595311 -0.20778738 -0.23945801 0.103576586 -0.15118638 0.002433046
-0.015223008 0.17435846 -0.12001468 -0.23915747 0.2999748 0.19773753 -0.121180356 -0.026809977
-0.19337176 0.039320678 -0.06516165 0.13620824 0.092987105 0.07630357 0.043423865 -0.25398687
0.0025009774 0.016812332 0.23898797 0.061184004 0.13226433 0.052122895 -0.08046635 -0.036425963
0.3483607 0.07395386 0.2105064 -0.044561986 0.07168178 -0.16583894 0.06256002 0.23759998
-0.055824224 -0.15327777 0.09956532 0.058906905 0.24436782 -0.18989284 -0.050466247 0.24861515
0.19223861 -0.24965695 -0.23491949 0.026598081 -0.17788829 -0.058293056 0.055914834 0.25738713
0.18199609 0.19261026 0.36343986 -0.26527423 0.117051244 0.06704104 -0.00960165 -0.10666673
-0.1998481 0.19598809 0.14072059 -0.28515795 -0.01870172 0.0148781305 0.079726614 0.16598466
0.16956404 -0.06051545 0.01972252 -0.32460243 -0.34393746 0.18196934 0.30893728 -0.081689775
0.012161559 -0.12643398 -0.22425759 0.34585446 0.17003793 -0.035414476 0.117357545 0.24791159
-0.08396987 -0.24224602 0.18017277 0.20489368 0.061414607 0.023569232 0.23599608 0.28980458
0.11531407 0.0012038837 0.415223 0.4569262 0.25999182 0.17403448 -0.034667816 -0.2108108
0.00059929 -0.06594099 0.21584892 -0.30565155 0.4244313 -0.5125652 0.2309883 -0.07837723
0.00093308836 -0.24462347 -0.13713472 0.06326297 -0.004452778 -0.34364337 0.08146011 0.23001024
0.038032115 0.3725358 -0.06464558 -0.074423335 0.1506883 -0.38114965 0.03348978 0.026223522
-0.25431395 -0.07655575 0.12337961 0.06690631 0.07619411 0.22800279 0.09731978 -0.040091798
-0.16185729 0.13730283 -0.294512 -0.1866084 0.15550326 -0.091967545 0.09587582 0.115522616
0.31037 0.114940256 0.12767954 -0.2064231 -0.5499547 0.124581695 0.1020114 0.260543
-0.3860639 -0.1814092 -0.16376176 -0.024009971 -0.57028604 0.22593725 -0.11560921 -0.13543598
0.17141004 0.17593217 0.25435138 -0.13807832 0.2951202 0.16201714 0.18869437 -0.50865805
0.30236256 -0.32714602 -0.04701516 0.05537518 0.4250087 0.021974742 0.096362926 0.07680642
-0.17382748 0.017943855 0.12127359 -0.2590795 0.11072711 -0.03802456 0.3130017 0.017675562
0.27181202 0.21487984 -0.037557337 -0.08937081 0.1520405 0.13251486 0.16974168 -0.32493046

network_body._body_endoder.seq_layers.0.bias f4 [128]
00000000: 086d bebd 0e48 2abb cc20 48bd bb2b e1bc
00000010: 17a5 b5bd c124 8bbd 34cb 78bd 5d8f f4bd
00000020: 8e03 5f3d 07db f43c 7103 95bd ce32 07bd
00000030: 238f 82bd 101e 57bd 1b97 05bb afab 813c
00000040: bbd4 bd3c da85 ca3c 5bae 33bb 0c15 373c
00000050: a81e b93d 60e5 b53d 15d8 bc3c b9b5 93bd
00000060: 9d2d 97bb 2243 6abd a5f9 56bd 96c3 10bd
00000070: fae3 1abe 8bca acbd 4c73 89bd e1ac 6bbd
00000080: 05e4 e1bd 4fcf abbd 1a2b c3bc 3b89 7abd
00000090: 518a a3bd 65b7 913d 18e0 79bd 93c8 55bd
000000a0: 793d 74bd c675 fabc 89e4 e2bd 330e b6bc
000000b0: 38ec d83b c90d 15bd 28f5 51bd 0dff 88bd
000000c0: c47f d1bd e30e b5bd 2547 a4bc 9b74 b8bb
000000d0: 40fd 9cbd 1dcb ad3d efd5 bbbc d9a4 aabc
000000e0: 584c d73c f130 eebd 3e89 83bd 0751 d7bc
000000f0: c645 7cbc 6034 f5bd 1519 b2bd 3098 f8bc
00000100: 655a a6bd 9b26 eebd 9d64 cbbd 0597 d93c
00000110: 9ca5 df3b 7a9b fabd 45b4 7cbd def3 03be
00000120: 2302 e83b a1f8 c4bc 6972 2fbd 3868 50bc
00000130: e337 32bd 9af6 de3c 2697 65bd 49e8 b2bd
00000140: 39e3 793d f181 3e3d 0eef babd eecb 103c
00000150: 6b83 433c a895 f7bc 080e eebd ffb6 1abe
00000160: f118 213d fc69 9d3c 8e30 bbbd 6cf1 afbd
00000170: 5398 713d 720a 85bd 65fb 203d 2aad 29bc
00000180: 719a c03c eff7 06bd 24d0 82bd 6cf8 a3bd
00000190: be78 babd f163 3bbc bfa2 a6bd 6ff4 acbc
000001a0: 2951 96bd 6aab c7bc f02b 14be def5 cbbc
000001b0: 0ffe b63b b422 6fbd 85a6 3cbd ea77 0ebc
000001c0: 8f4b 15bc e160 523c 302e 83bd 2262 92bd
000001d0: d842 48bb f679 aa3c 9554 fabd 0962 f1bc
000001e0: cfcb 31bd 6d55 6dbd b1f5 0abd ac59 e2bd
000001f0: c880 f8bc 54a4 43bc eaab 7dbd 264c 31bd
-0.0929814 -0.002598289 -0.048859403 -0.027486673 -0.08869379 -0.067941196 -0.060740665 -0.11941407
0.05444675 0.029889597 -0.07276047 -0.033007436 -0.063749574 -0.052518904 -0.0020384255 0.015828935
0.023172727 0.024722029 -0.0027417156 0.011174452 0.0903905 0.088816404 0.023052255 -0.07212395
-0.004613592 -0.05719293 -0.052484173 -0.035342775 -0.15126029 -0.084370695 -0.06711444 -0.057537917
-0.110298194 -0.0838915 -0.023824263 -0.06116603 -0.07985366 0.07115058 -0.061004728 -0.052193236
-0.059628937 -0.030573737 -0.11078746 -0.022223568 0.0066199563 -0.0363901 -0.05125919 -0.06689272
-0.102294475 -0.0884073 -0.020053456 -0.005629135 -0.07665491 0.084860064 -0.02292916 -0.020830559
0.02628152 -0.116304286 -0.06422661 -0.026283754 -0.015397495 -0.1197288 -0.0869619 -0.030346006
-0.0812271 -0.11628457 -0.099313 0.02656127 0.006825162 -0.12236686 -0.061695356 -0.12885997
0.007080333 -0.024044337 -0.04283372 -0.01272016 -0.04351033 0.027217198 -0.05605235 -0.08735711
0.061007712 0.04651064 -0.09127627 0.008837683 0.011933188 -0.030222729 -0.1162377 -0.1510887
0.039330427 0.019215576 -0.091401204 -0.085909694 0.05898316 -0.06496133 0.03930225 -0.010356227
0.023511143 -0.03295129 -0.06387356 -0.08006367 -0.09105061 -0.011437402 -0.0813651 -0.021112649
-0.07339699 -0.024373729 -0.14469886 -0.024897512 0.0055844854 -0.058382705 -0.046057243 -0.008695582
-0.009112253 0.012840481 -0.06405294 -0.071476236 -0.003055742 0.020810109 -0.12223164 -0.029465692
-0.043407258 -0.057942796 -0.033925716 -0.1105226 -0.030334845 -0.011941034 -0.06193153 -0.04328551

network_body._body_endoder.seq_layers.2.weight f4 [128, 128]
00000000: 5d14 b0bd bcb2 7bbc dba5 573e e948 b2bd
00000010: c7bd 8dbd 959f 8cbd 6c67 493c 9d0c af3c
00000020: 7ecc d83c dd00 73bd 76af 0e3e 81eb 683d
00000030: c47a d23d 4ab2 c63d 26b6 acbd e8f7 0dbd
00000040: bcbd 3abe 8e2f 8dbd dcb0 5fbd d9f1 913c
00000050: e986 eebd ce7f 1abe 5a9f a7bc 7eb5 33bb
00000060: afb7 8dbd 9cab 623e cb58 8f3d 9ff8 08bd
00000070: a971 463d e0e0 a43e ce0d 003e 4c06 f33c
00000080: 706f 31be a314 753d afe9 d03c 3d0d a43d
00000090: ce0d 453d d16b d3bd 3eda 893c e317 043d
000000a0: de7a d0bc f235 5abc 3a10 a43d c0b2 d43d
000000b0: 4578 b4bd c41f 9c3e b0a4 75bd 98c4 163e
000000c0: 4806 243d 70b7 efbd 4354 9ebd b116 403e
000000d0: 9e6b 17be e5f6 9cbd de63 1cbe 6b6d 74bd
000000e0: 9c28 5cbd d4db c7bd 61e2 f5bd 08e6 713d
000000f0: 357c 293d 371d c83c 5a6d 783c ac89 6f3d
00000100: 8d15 713d 2c3a d83d db1f d2bc 7235 bdba
00000110: df1e 7bbd 04ed 303d 1002 adbc a1d4 de3d
00000120: 1db0 c83c 0fcb 72bc 98c2 c83c 6d5b 653d
00000130: 6a8c 553d e504 3a3e d457 18be 45af babc
00000140: 0f3a f43c b670 35be 3003 3cbc d810 bbbd
00000150: 43c4 a13c 2406 463e 1036 053e 8560 a83d
00000160: 0f9e 053d 86c3 0fbe 3cb4 02bb 9816 25be
00000170: 8624 31be a6e4 e9bd ff5c 6e3e 9f43 6bbe
00000180: be1a bbbd 3bd3 2dbe 30d5 053e beb6 923c
00000190: d99a 97bd 40b2 bfbd 2fc0 7d3d 88b0 023d
000001a0: 601d 8bbd 7ced 8ebd df45 54bd 801e 1cbe
000001b0: a9df 353d 0b74 193c db4f aabd ac37 74bc
000001c0: 52fa f53d afab 2dbd 75e7 303d 7ddf d23c
000001d0: 87db c8bd e26d 603d 56b3 a03d c02b 36bd
000001e0: cafb 8bbd d190 9d3d 59a3 fbbc b556 c3bd
000001f0: 485b 01bd 7c86 de3d a7ae dbbc b7d5 e23c
00000200: 6be7 c1bd 3667 593c a03c a43d 83fe 5a3d
00000210: b360 02bc 1b23 0b3e ca47 003e 7805 9d3d
00000220: c9ee 91bc 501a 2abd b1bf f3bc 56ec 4e3c
00000230: 9fe6 9abc 8353 1e3e 68a9 223e c6cc d3bd
00000240: 6dc1 5c3e d732 2ebe 9557 6f3c 3b33 c6bd
00000250: d3b8 2ebe ef1c ecbd 607d 0bbe a20f 4dbd
00000260: 8721 363c c05a f23d 9bd0 40bb b350 08be
00000270: 1546 22bc 0217 ef3d 2f1b c6bd d475 71bd
00000280: 2c20 dfbd 5bb6 46bc 511c 913d cb3d 253e
00000290: 0eaf bcbd b5b0 9f3a b3ba 523b 545e 003e
000002a0: c3a5 ba3d be4b 913d 0d50 bb3d f712 f3bc
000002b0: 59b1 3ebe f796 71bc 27d8 e73b 43de 5cbd
000002c0: a7d5 e7bd 3de5 9bbc 0692 c7bd 0258 71bd
000002d0: 92c5 de3d 5dd0 463d 0a32 9ebd c4ad 6bbd
000002e0: 7a82 32bc f16b 9cbb c2f9 833d 7232 b5bd
000002f0: c006 e1bd e3c4 cdbc 22a0 5b3d becb ed3c
00000300: d3f0 b43c 1f20 c6bd 249a 8f3b 2ba3 043d
00000310: d0ef 7dbe fe04 593d e9a0 b33d 7da4 41bc
00000320: 682e 063e c63a 03be bf1e d13d 871d 2f3c
00000330: c9c1 3a3c 76a0 7ebb a46e 92bc 77f4 94bd
00000340: fccf 8abe abbe 77bd 6623 acbc 1304 75be
00000350: 3c82 b53d d051 d6bd f63d bb3d 9429 a8bc
00000360: 1065 6abd 76f3 343d 2c6a c4bd b359 383e
00000370: 3cf7 61be e0a1 c3bc 396d 61be 3766 863d
00000380: 98a2 a0bb b756 0dbd fe50 57be 5984 473d
00000390: 3bb7 f03d bcae c1bd 9e0b 3a3c 0dc2 25be
000003a0: 90b6 263e 7843 463d e191 ce3d ed8d 183e
000003b0: 3d28 963d 90f3 9abd 56ea 373e 3c3f c4bd
000003c0: e37b c23c a605 4cbe 9b83 b23d 4509 a8bd
000003d0: d4d7 b53d 2a1c 38bd d234 8b3d 37b2 293e
000003e0: ac2a f73c 5f81 f53d 04cb bbbd 1b62 f7b9
000003f0: 37ed 88bd fcbb b4bd 26ef 10be fc14 263e
-0.08597634 -0.015362438 0.21059363 -0.08705313 -0.06920963 -0.06866375 0.012292724 0.02136832
0.026464697 -0.059326995 0.1393412 0.05686522 0.10277322 0.09701975 -0.084331796 -0.03466025
-0.1823644 -0.06893836 -0.054612026 0.017815517 -0.11646826 -0.15087816 -0.020461727 -0.002742141
-0.069198005 0.22135776 0.06999358 -0.03344023 0.04844824 0.32202816 0.12505266 0.029666089
-0.17327666 0.059834134 0.025502054 0.080103375 0.04810887 -0.10323299 0.016827699 0.032249343
-0.025449213 -0.013318526 0.080109075 0.10385656 -0.08812002 0.30492985 -0.05997151 0.14723432
0.040045053 -0.1170491 -0.077309154 0.18758656 -0.14787146 -0.07664279 -0.15272471 -0.05967466
-0.053749666 -0.09758726 -0.12006069 0.059057266 0.04137822 0.024427993 0.01516279 0.058480904
0.058858443 0.105579704 -0.025649955 -0.0014435484 -0.061308738 0.043194786 -0.021119148 0.108803995
0.02449804 -0.014818921 0.024506852 0.055995394 0.052135862 0.1816593 -0.14877254 -0.022788653
0.02981284 -0.17718777 -0.011475369 -0.09134072 0.019746905 0.1933828 0.13008904 0.08221535
0.03262144 -0.1403943 -0.0019943854 -0.161219 -0.17299089 -0.11420564 0.23277663 -0.22975014
-0.0913596 -0.1697511 0.13069606 0.017909404 -0.07402582 -0.0936017 0.06195086 0.031906635
-0.06792712 -0.0697889 -0.051824447 -0.1524601 0.044402752 0.009366046 -0.083160125 -0.014905851
0.120106354 -0.04240006 0.043189485 0.025741333 -0.098074965 0.054792292 0.078467056 -0.044475317
-0.06835134 0.07693637 -0.030717539 -0.095380224 -0.031581193 0.108654946 -0.02681668 0.027689798
-0.094679676 0.013269236 0.08019376 0.053465378 -0.007957625 0.1358761 0.12527385 0.07667059
-0.017814057 -0.041529 -0.029754492 0.012629589 -0.018908797 0.15461545 0.15884936 -0.10341792
0.21558161 -0.17011581 0.0146082835 -0.0967774 -0.17062692 -0.11528956 -0.13622046 -0.050063737
0.011116392 0.118337154 -0.0029421214 -0.13312034 -0.009904404 0.1167431 -0.096731536 -0.05895026
-0.10894808 -0.012128438 0.07085479 0.16136853 -0.092130765 0.00121834 0.0032154738 0.12535983
0.09113648 0.07094525 0.09146128 -0.02967213 -0.1862234 -0.0147454655 0.007075328 -0.053922903
-0.11320048 -0.019030208 -0.09744649 -0.05892182 0.10877527 0.048538554 -0.07724388 -0.057538763
-0.010895366 -0.00477361 0.06444122 -0.08847512 -0.109876156 -0.025118297 0.05361951 0.029027816
0.02208749 -0.09674095 0.0043823887 0.03238217 -0.24798512 0.052983277 0.087709256 -0.011819002
0.1310364 -0.12815389 0.102109425 0.010688192 0.011398741 -0.0038852966 -0.017875023 -0.072731905
-0.27111804 -0.06048457 -0.021012973 -0.23927335 0.08862731 -0.10464823 0.091426775 -0.020527638
-0.057225287 0.044177495 -0.09590563 0.18002968 -0.22066969 -0.023880899 -0.22014321 0.06562465
-0.004902195 -0.034506526 -0.2102699 0.0487102 0.117536984 -0.09457156 0.011355309 -0.16187306
0.1628058 0.048404187 0.10086418 0.1489789 0.073318936 -0.07565987 0.17960486 -0.095823735
0.023740714 -0.1992403 0.08716508 -0.08204893 0.088790566 -0.044948734 0.06797184 0.1657189
0.030171715 0.11987566 -0.091695815 -0.00047184606 -0.0668587 -0.08824918 -0.14153728 0.16218942

network_body._body_endoder.seq_layers.2.bias f4 [128]
00000000: 8faa b9bd 60dc acbd a942 6fbb 2aed f13c
00000010: a09b e8bd eccb 19bd 6320 1fbb e20a 9b39
00000020: 863c d23c c2f2 873c 1fc8 55bd b493 ff3b
00000030: 5c8d 78bc 4f9d d4bc 6f91 44bd ade5 21bd
00000040: db0b 52bd a162 eebc 66f1 a83d ee25 b3bc
00000050: b716 88bc 71bd 34bc 219b e1bc 05cf af3c
00000060: 747c ce3c 6b7b 7cbc a4c1 49bc d4ba b7bd
00000070: e174 59bd 0ac1 a3bd 95c4 92bc dd1d 8cbd
00000080: 25a9 c0bd 24be b0bc d946 82bd 71ef 1c3d
00000090: bd86 03bd 375e 863b c4a4 943c 037f 3abd
000000a0: 89e9 bf3c ad04 c7bd 5318 8b3c 5bbc a7bd
000000b0: 6f70 69ba 795d 003e 5bca 3ebd 752f 8fbc
000000c0: 5db0 8bbd d988 18bd 3863 363d 1910 9a3d
000000d0: 7864 b73c 3f44 e0bd 4171 d4bc 6e30 97bc
000000e0: 9e12 a33c cfa0 08be 8104 9fbd 893f 223b
000000f0: 3c97 533c 5403 96bc ddf2 8b3c f20e 1fbd
00000100: 7dd4 593c 1fe0 98bd 84b5 23bd c048 fe3c
00000110: 1deb 283d bf9e 1fbc 37a1 03bd 9bf2 093c
00000120: ef74 25bd 968e ac3b a479 c43c 80ac 54bd
00000130: 8e2b 8abd 2958 163c dd49 343b 1c81 95bd
00000140: 1239 d9bd 0203 47bd afd9 b7bc c731 bbbc
00000150: a9c9 d0bd c82b 76bc 6711 1bbd 1a04 f73c
00000160: ced3 313d 5973 583d 7c8a aeba b1fb 1cbd
00000170: ea74 aebc 6aea b33c fb98 aa3c ae7b 64bc
00000180: 80cf 0bbd ea63 8639 2abd 5b3c ae16 4cbd
00000190: bf66 b0bc 27a3 e6bb 3a38 ddbd 2f1c 053d
000001a0: 4666 d3bb 786d 29bc cbe1 83bd cd37 853b
000001b0: aca5 a43d fb4a 133d f9c0 c0bd 7738 32bc
000001c0: 0cde 0bbd 7d59 7ebd 740e 87bd f009 b2bd
000001d0: 3b9d 4bbd 01eb 32bd f639 803d 61cf 8d3c
000001e0: 8809 5e3d e599 ecbb aae9 86bd 8209 923c
000001f0: 03e4 88bd 62b9 c3bb f41c 1e3c 2fb6 333c
-0.090657346 -0.08440471 -0.0036508238 0.029532034 -0.11357808 -0.03754799 -0.0024280779 0.00029572012
0.025663625 0.016595248 -0.052192803 0.00779959 -0.015170421 -0.025953917 -0.04799026 -0.039525677
-0.051280838 -0.029099764 0.08249168 -0.021868672 -0.016612394 -0.0110314945 -0.027539792 0.02146102
0.025205828 -0.0154102845 -0.012314234 -0.089711815 -0.05308998 -0.07995804 -0.017916003 -0.068416335
-0.09407262 -0.021575041 -0.06361169 0.038314287 -0.03211092 0.0041005868 0.018144973 -0.045531284
0.023426788 -0.09717689 0.016979372 -0.08190223 -0.00089049985 0.12535657 -0.0465797 -0.017478684
-0.06820748 -0.037239883 0.044528216 0.07522602 0.022386774 -0.10950517 -0.02593291 -0.01845571
0.019906338 -0.13342594 -0.07764531 0.0024757108 0.012914475 -0.018312134 0.01708358 -0.038832612
0.01329529 -0.07464623 -0.03996803 0.03104055 0.041239846 -0.009742438 -0.03213617 0.008419658
-0.04039472 0.005266021 0.023983784 -0.05192232 -0.06746589 0.009176292 0.0027509846 -0.07300016
-0.106065884 -0.048586853 -0.022442667 -0.022850884 -0.101947136 -0.015025087 -0.037858393 0.030153323
0.043414883 0.05284438 -0.0013316418 -0.03832597 -0.021295983 0.021962363 0.0208249 -0.013945503
-0.034133434 0.00025632913 0.013411799 -0.049826317 -0.021533368 -0.0070384922 -0.1080174 0.03249758
-0.006451401 -0.010341041 -0.06439551 0.00406549 0.08039412 0.03596018 -0.094118066 -0.01087772
-0.034147307 -0.06209706 -0.065945536 -0.08693302 -0.049710494 -0.04368115 0.06261055 0.0173108
0.05420831 -0.007220494 -0.06587537 0.0178268 -0.06684115 -0.005973027 0.009650458 0.010968729

action_model._continuous_distribution.log_sigma f4 [1, 3]
00000000: 49db 76be a755 c4be e832 30be
-0.24107088 -0.38346598 -0.17206919

action_model._continuous_distribution.mu.weight f4 [3, 128]
00000000: b766 08bd 2a20 69bd 8c5b 61bc 851e a63c
00000010: 1ddf 45bd d44b a6bb 8f91 2abc 0cdb fdba
00000020: a940 c83c 1689 a83c 4420 eebc aa21 c2bb
00000030: a47b 2b3b e050 2a3d 28b8 9d3c 7fda eabc
00000040: ef1a ba3b b12b a2bb e328 9b3d 90b8 0ebc
00000050: 5e11 81bb 82fe 02bb fed0 c6bb 5837 80bc
00000060: fd9e 9b38 c9b3 973d 3910 1b3b 5dfe 13bc
00000070: fc8b cdbb 431a 57bd 3985 c63c 6acf 66bc
00000080: 2a02 b6bc 781e 38bc 43bb 4f3b 621a 793c
00000090: c8f8 063d 64ff 0fbc 8107 e5ba 8eb2 00bc
000000a0: 52b6 a03d 329d a4bc ed8d bbbb 0ef2 71bc
000000b0: df25 acba 6f85 033e c667 b1bb 8075 463b
000000c0: 76cf a33c 096a 05bc d016 d63c 29dd 8c3c
000000d0: b0af 9a37 78bb 9fbc 1340 2c3c 2b51 c43c
000000e0: 7e17 1c3b 580e a6bc d9bd bcbc c4c7 da3a
000000f0: 38e5 83bb 6991 193a f851 74b9 21d6 6d3c
00000100: aeba b33c a191 1cbc 64e0 5ebc 2bd4 213b
00000110: a959 e63c 13f7 67bb ba71 bfbb 1b27 293d
00000120: 906c 57bc 6f7b 61bc c911 10bc d953 a3bb
00000130: 9dd7 27bc 1b18 fc3c 3426 17bc 766e 8ebc
00000140: 92b4 5abc 1842 10bc 2165 113d dc9f 54b9
00000150: 8b7e 88bd 8971 903a 9bb8 c0ba 3b08 a13d
00000160: 4822 a93b ffa7 1f3d 9c21 973c 4b2f c5bc
00000170: a45d 95bc a999 c73b 2611 4ebb 2a6e 833c
00000180: 0da6 90bc 055a 83bb d461 ea3c e893 98bb
00000190: dd89 eebb bd68 57bc f5ce 14bd 04e6 8a3b
000001a0: 291c f3b8 7e7d 16bc 8392 aabc 5b39 283c
000001b0: fff6 873d c4b4 7d3c 1eda 47bc 7820 a2bc
000001c0: faee 32bc 2702 d3bc abcf aebc fde0 75bc
000001d0: aab7 8c3c 9d9d 783c 3117 943d 7275 b73b
000001e0: a58b 413c 074d ddbb 93e2 cabb 0d9d 85bc
000001f0: eae5 373d ea59 533d 6159 0d3d 3ea8 b43c
00000200: 7529 073c 5609 90bb 29ca 2dbd 7145 0dbd
00000210: 5f14 d8bb 39f8 8fbb c6c7 27bd d5ab 4c3c
00000220: 8f09 cebc 4646 3a3b 676f a9bc 2882 1d3c
00000230: 6b68 19bc 31d0 4e3c fb80 57bb 327a 983c
00000240: 5bac 823c 66fd 80bc 0ab5 8e3c 783a 88bb
00000250: 631b 31bc f468 0abd 8cbd ddbb 813d 173d
00000260: 2a47 cbbb e403 4b3d ea1f db3b f42c 14bc
00000270: 348f 0cbc 5645 08bd cfab 413c b73e 583b
00000280: 826e bf39 b710 1dbb 52a3 2dbc 7bf2 d8bb
00000290: 94b9 ae3d b5de febb c55b 013c d4c0 c4bc
000002a0: 63df 9e3c f05a 01bd 18ed a33c f3da cebc
000002b0: 425a a33b 2dee 853c 0c69 9bbc bae9 e6bb
000002c0: 7bf2 8cbb d934 793c 9352 6fbc 6d15 463b
000002d0: eb7f 323b 52e4 8e3c 1955 8b3b 19ff 67bd
000002e0: 05f5 fc3b 4b81 003c 6e31 813d 85a7 0a3b
000002f0: 6b87 0a3a d3dd 86bc ec47 66ba f4f8 a1bc
00000300: 0303 afbc 3c8d 85bc 3700 bd3c c440 1f3a
00000310: b027 adbc 31fb bc3b b44a 773c 4494 6cbd
00000320: fdb5 90bb f12e 08bd d3dc 5c3b 6686 22bb
00000330: 64d7 94bc 617e 933c a952 8c3c 165f 3bbd
00000340: a8c9 c6bc 4005 67bb badf ee3b df46 c3bc
00000350: 1a4c 853c 6f13 c3bb 348c 68bc dff6 bb3c
00000360: f338 ad3c a660 3f3c 125a fcbb 2d20 d33d
00000370: 38b8 503b 611d 233c 3be9 d43b 017f f53b
00000380: f1bc 0dbd cf35 29bb 3c46 3fb9 599b 27bc
00000390: 5366 833b 85bd c0bc cfa8 39bc 0070 07bb
000003a0: 3c44 9dbb ceac b8bc 10bf b53c a987 8cbc
000003b0: ad95 3dbc 13bc bbbb e5cf 21bd 8771 0abc
000003c0: 61d4 8dbc 2ddc 66bd ecb3 3d3b 61d4 4dbb
000003d0: a9ab 53bc 1639 ddbb 4ed5 a53c fffc 283c
000003e0: 913d 98bb 18d4 66bc 3d22 d1bb 6285 943c
000003f0: e473 ac3c 7ca4 a13c f418 68bd e252 4c3b
-0.03330108 -0.05691544 -0.013754737 0.020278225 -0.04830848 -0.0050749574 -0.01041068 -0.0019367649
0.024444895 0.02057318 -0.02906812 -0.005924423 0.0026166225 0.041581035 0.019252852 -0.02866864
0.0056794803 -0.004949056 0.07576158 -0.008710995 -0.003938838 -0.0019988124 -0.0060673943 -0.01565139
7.42059e-05 0.07407338 0.0023660793 -0.009032813 -0.006272791 -0.05251528 0.024233447 -0.014087537
-0.022217829 -0.011237733 0.003169731 0.015204044 0.0329521 -0.008788917 -0.001747355 -0.007855071
0.07847275 -0.020094488 -0.005723706 -0.014767183 -0.0013133845 0.1284387 -0.005413982 0.0030282438
0.019996386 -0.0081429565 0.026133925 0.017195301 1.8440041e-05 -0.019498572 0.010513323 0.023964485
0.0023817713 -0.020270512 -0.023039745 0.0016691615 -0.0040251277 0.00058581546 -0.00023300189 0.014516384
0.021939602 -0.009556205 -0.013603304 0.0024693112 0.028118925 -0.003539507 -0.0058424147 0.04129706
-0.013148442 -0.013762339 -0.008793303 -0.0049843607 -0.010244277 0.030773213 -0.009225417 -0.017386656
-0.013348715 -0.0088048205 0.035496835 -0.00020277448 -0.06664761 0.0011020164 -0.0014703454 0.07862898
0.0051615573 0.038978573 0.018448643 -0.024070403 -0.018233128 0.0060913158 -0.0031443327 0.016043741
-0.017657304 -0.004008534 0.028611101 -0.0046563037 -0.007279618 -0.01314753 -0.036330182 0.004238846
-0.00011592388 -0.009185193 -0.020821815 0.010267581 0.06638908 0.015484992 -0.012197999 -0.019790873
-0.010921234 -0.025757862 -0.021339258 -0.015007255 0.017177422 0.015174297 0.07230986 0.0055987174
0.011813079 -0.006753567 -0.0061915605 -0.01631024 0.044896998 0.05159942 0.034509066 0.02205288
0.00824963 -0.004395644 -0.042429123 -0.034490053 -0.0065942253 -0.004393604 -0.040962003 0.01249214
-0.025151042 0.0028423234 -0.020683004 0.009613551 -0.009363274 0.012622879 -0.0032883275 0.018612955
0.015951326 -0.01574583 0.01742031 -0.0041573606 -0.010809752 -0.033791497 -0.0067669805 0.03692389
-0.006203552 0.049564257 0.006687154 -0.009043921 -0.008579064 -0.03326925 0.0118207475 0.0032996365
0.00036512694 -0.0023966262 -0.010598021 -0.006620703 0.0853149 -0.0077780136 0.007895415 -0.024017729
0.019393628 -0.031580865 0.020010516 -0.025250887 0.004985125 0.016348923 -0.018970989 -0.0070469053
-0.004301367 0.015210354 -0.01460709 0.0030225173 0.002723689 0.017442856 0.004252088 -0.056639764
0.0077196383 0.007843326 0.06308256 0.0021156978 0.0005284461 -0.016463196 -0.0008784521 -0.01977203
-0.02136374 -0.016302697 0.023071392 0.00060750195 -0.021137089 0.005767249 0.015093494 -0.057758585
-0.004416226 -0.03324789 0.0033700957 -0.0024799346 -0.018169113 0.018004598 0.01712926 -0.045744978
-0.024266079 -0.0035250932 0.007289854 -0.023837505 0.01627164 -0.0059532444 -0.014193583 0.022944866
0.02114532 0.011680758 -0.007701167 0.103088714 0.0031848084 0.009955735 0.00649753 0.0074919467
-0.034604017 -0.0025819426 -0.00018241344 -0.010229909 0.0040100007 -0.02352787 -0.011331751 -0.0020666122
-0.004799394 -0.022543337 0.022185832 -0.017154532 -0.01157133 -0.0057292073 -0.039504904 -0.008449919
-0.017313184 -0.05636232 0.0028946353 -0.0031407105 -0.012919345 -0.00675119 0.020243313 0.010314225
-0.004646011 -0.014088653 -0.0063822553 0.018130008 0.021051355 0.019731753 -0.056664422 0.0031177332

action_model._continuous_distribution.mu.bias f4 [3]
00000000: 12ff 973d 349d 80bc 7f10 823d
0.07421698 -0.01569996 0.06350803

onnx::Div_51 f4 [22]
00000000: a761 b93a 7296 c83e a761 b93a e225 cb3e
00000010: 9415 033b ab12 cf3e 9315 033b 56d6 d33e
00000020: 5f68 2d3b cf9c d83e 9115 033b 74d0 dc3e
00000030: 4a8e 123b e63f e03e a561 b93a 7492 e23e
00000040: 668b 203b 149d e33e 6f0b e33a 5591 e33e
00000050: a315 833a 79a7 e23e
0.0014143483 0.3917728 0.0014143483 0.3967734 0.0020001875 0.4044393 0.0020001873 0.41374463
0.0026459915 0.42307135 0.0020001868 0.43127787 0.0022362643 0.4379875 0.001414348 0.4425236
0.002449715 0.4445578 0.0017322133 0.44446817 0.0010000955 0.44268396
