results/599000Steps=981-244/3DBall/3DBall-9313.onnx (onnx, 108391 bytes, 9 tensors)

network_body.observation_encoder.processors.0.normalizer.running_mean f4 [62]
000000 91 32 e8 3b ad 55 1f 40 fe 1f da 3b 9f 5a 1f 40
       0.007086106 2.4896042 0.006656646 2.489906
000010 69 0d cc 3b 06 54 1f 40 0e 92 cf 3b 1f 58 1f 40
       0.0062271846 2.4895034 0.0063345497 2.4897535
000020 0d 92 cf 3b e7 54 1f 40 0f 92 cf 3b 16 55 1f 40
       0.0063345493 2.489557 0.00633455 2.4895682
000030 11 92 cf 3b 9c 4f 1f 40 59 9b d6 3b 45 51 1f 40
       0.006334551 2.489234 0.0065492806 2.4893353
000040 6a 0d cc 3b 42 54 1f 40 12 92 cf 3b d8 4a 1f 40
       0.006227185 2.4895177 0.0063345516 2.488943
000050 c3 88 c8 3b e5 5a 1f 40 1f 04 c5 3b f9 5e 1f 40
       0.006119819 2.4899228 0.006012454 2.4901717
000060 21 04 c5 3b 88 52 1f 40 7a 7f c1 3b d9 60 1f 40
       0.006012455 2.4894123 0.005905089 2.490286
000070 31 76 ba 3b 26 5f 1f 40 d8 fa bd 3b 0d 61 1f 40
       0.005690359 2.4901824 0.005797725 2.4902985
000080 d6 fa bd 3b 09 54 1f 40 e7 6c b3 3b b5 4d 1f 40
       0.0057977242 2.489504 0.0054756287 2.4891179
000090 e7 6c b3 3b 6e 45 1f 40 e7 6c b3 3b a8 42 1f 40
       0.0054756287 2.4886127 0.0054756287 2.4884434
0000a0 33 76 ba 3b f1 4c 1f 40 8a f1 b6 3b 24 49 1f 40
       0.00569036 2.4890711 0.005582993 2.4888391
0000b0 30 76 ba 3b 51 44 1f 40 42 e8 af 3b fa 45 1f 40
       0.0056903586 2.4885447 0.0053682635 2.488646
0000c0 e5 6c b3 3b 3a 4a 1f 40 e5 6c b3 3b 39 56 1f 40
       0.0054756277 2.4889054 0.0054756277 2.4896376
0000d0 40 e8 af 3b 59 4c 1f 40 9b 63 ac 3b b9 42 1f 40
       0.0053682625 2.489035 0.0052608973 2.4884474
0000e0 53 5a a5 3b d9 35 1f 40 ad d5 a1 3b a4 32 1f 40
       0.005046168 2.4876616 0.004938802 2.4874659
0000f0 05 51 9e 3b fe 29 1f 40
       0.0048314356 2.486938

network_body._body_endoder.seq_layers.0.weight f4 [128, 62]
000000 91 92 6d be 11 77 68 3d e7 fe 19 bd 52 23 06 bd
       -0.23200442 0.056754176 -0.03759661 -0.032748528
000010 e9 6c 7c 3d 44 69 99 bd 53 a6 4b bc 36 fb 3e 3e
       0.061627302 -0.07490781 -0.0124297915 0.18650517
000020 c9 67 3e 3e 7b 37 19 3e af f5 78 3e d3 39 d6 bd
       0.18594278 0.1496257 0.24312471 -0.10460248
000030 2c 87 b3 bd a9 b7 4f bc 6c e9 5f 3d 6f 82 82 bc
       -0.08766016 -0.012678065 0.054665968 -0.015931336
000040 ec 8e 8d 3d c0 5b 60 bd 92 6f ce 3d 1d 52 81 3d
       0.06912026 -0.054775 0.10079874 0.0631449
000050 bb 66 32 3e d2 a8 47 3d af 44 ea bd ac 42 03 3d
       0.17422001 0.048744984 -0.114388816 0.032046005
000060 fa 72 d3 3e 8d 6c 08 bb a1 df 02 3e e3 1a 1a be
       0.41298658 -0.0020816654 0.1278062 -0.15049319
000070 e5 c0 cd 3d 24 03 08 be 62 50 5d bd bd e4 55 3d
       0.10046557 -0.13282448 -0.054031737 0.052220095
000080 3e 35 9f 3d 5c 74 01 3e fb 00 7b be 82 7a d0 3d
       0.07773827 0.12642044 -0.24512093 0.101796165
000090 bb d1 2d 3e 69 a9 a9 3d 58 27 52 3d ba 98 64 3d
       0.16974537 0.082842655 0.051307052 0.055809714
0000a0 3b d8 6e 3c f3 34 29 3e 8c 93 1d 3e a5 61 cf bb
       0.014577921 0.16524105 0.15388316 -0.006328779
0000b0 ad eb a2 3d 7a dc 64 3e 45 12 ed bd 84 1f d5 3d
       0.07955108 0.2234973 -0.1157575 0.10406402
0000c0 b1 08 a3 bd 6b f3 24 3e 59 33 ef bc 8d a8 08 3d
       -0.07960642 0.16108482 -0.02919929 0.033363868
0000d0 17 ab c0 3c a3 97 bc bc c0 b3 60 be 00 1b 2a be
       0.023519082 -0.023021525 -0.21943569 -0.16611862
0000e0 40 3a 66 3c 8b 26 9a 3d 72 6f fe bd 06 9c d1 3d
       0.014051974 0.07526883 -0.124236 0.10234837
0000f0 53 cf 89 be ee 66 65 bd 03 d8 cf bd 30 d5 00 3e
       -0.26915988 -0.056006365 -0.10148623 0.12581325
000100 f1 40 a4 bd 46 f1 df bc 85 13 9e 3c 32 98 61 3e
       -0.08020199 -0.027336728 0.019296417 0.22030714
000110 a4 0d 6c 3b a0 aa 6c 3d ac d7 8b be af 40 9f 3d
       0.0036018873 0.05777991 -0.27312982 0.07776009
000120 c9 bc 9d 3c 12 c3 38 bd c3 59 d4 3d 4a b3 21 bd
       0.019255059 -0.04510791 0.10368683 -0.039477624
000130 37 25 e2 bd 69 12 33 3c 87 80 24 be c8 8f ec bd
       -0.110422544 0.010929682 -0.16064654 -0.115508616
000140 ca b0 12 be 1e 9b 3f 3e 4c 18 80 3c 09 60 7d 3e
       -0.14325252 0.18711516 0.015636586 0.24743666
000150 34 78 85 3d 65 3f 87 bd 32 79 4b bc 08 e1 f0 3d
       0.065170676 -0.066038884 -0.012419032 0.11761671
000160 a4 5c f5 3d 07 cd 0d 3e b4 a4 f1 bc 6d 0d 66 3d
       0.119805604 0.13847743 -0.029497482 0.056165148
000170 bc a7 f0 3a 5b 36 eb 3c 63 e4 fe bd 27 00 40 bd
       0.0018360536 0.028712442 -0.12445905 -0.046875145
000180 fe 6a 5d bd fa 2d 8a 3d a9 ed 83 bd 8d 45 f6 bc
       -0.054057114 0.067470506 -0.064418145 -0.030062461
000190 03 15 80 3d 25 76 bf bd a4 76 fa bd 15 b0 38 bc
       0.06254008 -0.09348706 -0.1222966 -0.01127245
0001a0 28 89 91 3c f7 32 3d 3a c7 7d 57 bc 71 08 97 3e
       0.017765597 0.0007217372 -0.013152546 0.29498628
0001b0 73 bd 8f bd d0 9a f4 3d 51 e1 45 be 1d 40 b1 3c
       -0.070185564 0.11943591 -0.19324233 0.021637017
0001c0 f6 8f 6f 3e 99 ce 8a 3e 1c b0 27 3e ed 25 47 be
       0.2339476 0.27110747 0.16375774 -0.19448061
0001d0 44 0c 4e be 27 78 52 3d f4 b6 c1 3d 4e 41 33 bd
       -0.20121866 0.051384117 0.09458724 -0.04376345
0001e0 cd 64 61 be 3c 18 35 3d 7b 12 40 be 8d 56 87 3d
       -0.22011109 0.044212565 -0.1875705 0.06608305
0001f0 f9 46 93 3d d2 fc ec bc 14 bf 3c 3e de fb 05 bd
       0.07191271 -0.028929148 0.18432266 -0.032710902
000200 2e fd ba 3d 97 03 64 3e ae ff d6 bd a9 a7 af bd
       0.091303214 0.22266994 -0.10497986 -0.085769005
000210 be 1a bb bd bf ff 17 bd 66 75 b3 be 3b cf 04 be
       -0.0913596 -0.037109133 -0.35050505 -0.12969677
000220 74 df 0a 3e 3c 01 e2 3d a4 16 18 bd 77 37 95 bd
       0.13561803 0.11035392 -0.037130967 -0.0728597
000230 fa a6 0a be cb cc 54 be a0 d8 dd 3d 71 95 45 3e
       -0.13540259 -0.20781247 0.108323336 0.19295289
000240 88 8a 52 be 49 3a 9f 3c 15 6b 67 bc 32 b0 23 3d
       -0.20560658 0.019436972 -0.014124651 0.039962955
000250 cd f5 f9 3d 4a cb 47 bc 0e a1 80 bd cd 29 7a be
       0.12205086 -0.012194464 -0.06280719 -0.24430008
000260 ae 92 80 3d fa a7 d7 3d 43 d4 03 bc 1c a7 d2 3d
       0.06277977 0.10530086 -0.008046213 0.1028578
000270 44 91 f9 bd bb 4d 23 3d bf d2 cb 3d f5 ae 16 3e
       -0.1218591 0.03986905 0.09952306 0.14715178
000280 99 1f 7c bd f7 96 d3 bd 28 1e aa bd 11 a8 2a bd
       -0.06155357 -0.10331529 -0.08306533 -0.041664187
000290 88 38 63 3e 14 ce 0c be a9 c9 f6 bd 32 14 38 3e
       0.22189534 -0.13750488 -0.12050182 0.17976454
0002a0 f1 bd 6f 3d 4d 0b 33 bd 57 f6 b9 bd 42 aa 32 3d
       0.05853075 -0.04371195 -0.09080189 0.0436194
0002b0 34 2a a8 bd 83 1f 6f bd 92 85 bd 3d b7 06 fa 3b
       -0.082111746 -0.05837966 0.09253992 0.007630195
0002c0 41 6e 92 bd 0c 22 05 bd 2e 7e 29 3c c2 06 14 3d
       -0.071499355 -0.032503173 0.010345025 0.036139257
0002d0 9d 69 32 bb e8 66 fb 3c 77 f9 22 be 84 69 cc 3d
       -0.0027223595 0.030688718 -0.15915476 0.09981063
0002e0 44 8c 2a be 8a 49 04 be 4e 3e 68 be 5e 47 20 be
       -0.1665507 -0.12918678 -0.22680017 -0.15652224
0002f0 01 2d 72 3e a2 48 2f 3e 1b 49 db bc 5e 08 a1 be
       0.2364998 0.17117551 -0.026768258 -0.31451696
000300 e3 ce d4 bd 8b 51 f9 bd dd ef 25 bd b6 7f d7 bd
       -0.10391023 -0.12173756 -0.040511955 -0.10522406
000310 9b 22 58 bc be 9f b4 3d 09 a3 24 3e 15 03 7e 3e
       -0.013191844 0.08819531 0.16077818 0.24805863
000320 8d a5 90 bd d1 87 af be 8e 06 47 3d 1e 08 ae 3c
       -0.07062826 -0.34283307 0.048590235 0.021244105
000330 6f f6 68 bd 74 ad 6d 3e e1 6b f6 3b 44 47 f6 3d
       -0.056875642 0.23210698 0.0075201844 0.120253116
000340 71 e6 8e be 97 85 aa bd 75 34 87 be 56 6c 14 be
       -0.27910188 -0.083262615 -0.2640721 -0.14494452
000350 f0 d6 a3 3d 43 a7 5c be a7 f5 fd 3d dd 7a 49 3d
       0.079999804 -0.2154818 0.1240037 0.049189437
000360 7e da 79 be 57 d0 15 be 3a f9 fb 3d fe 23 12 be
       -0.24399754 -0.14630257 0.123033956 -0.14271542
000370 a6 b9 c4 bc b9 f9 db 3d a7 60 3b 3e 58 bb 38 3d
       -0.024014305 0.1074099 0.18298589 0.04510054
000380 50 cb 2e 3b 6f 34 55 3a b7 70 cc 3d 45 f9 91 bd
       0.0026671477 0.00081331184 0.09982436 -0.071276225
000390 b5 1b f0 bd b6 90 8a bd bf 47 a5 bd 47 ca d0 3c
       -0.11724035 -0.06765883 -0.08070325 0.025487078
0003a0 10 f9 55 3d ac 01 4c 3d 99 99 20 3e f4 31 dd 3d
       0.052239478 0.049806282 0.15683593 0.108005434
0003b0 8e cf b2 bd fa 95 03 be a8 24 68 bd c1 83 1e bc
       -0.08730994 -0.1285018 -0.056675583 -0.009674967
0003c0 ed fe d2 bc c1 25 97 bc 2d 76 83 3d df 2f b7 3c
       -0.025756324 -0.01845062 0.064190246 0.022361694
0003d0 f6 ea c1 3c e1 b7 56 be 17 ce 43 bd df 39 81 be
       0.023671608 -0.20968582 -0.047803964 -0.25239465
0003e0 ed be 0c 3c f9 3a 0c be c8 2c 41 be 61 c5 80 38
       0.008590442 -0.13694371 -0.18864739 6.14028e-05
0003f0 ba ed b8 bd f0 4a 5e 3c 49 64 a1 bc b9 6f 37 be
       -0.09029718 0.013567671 -0.01970114 -0.17913713

network_body._body_endoder.seq_layers.0.bias f4 [128]
000000 00 00 00 00 00 00 00 00 00 00 00 00 00 00 00 00
       0.0 0.0 0.0 0.0
000010 00 00 00 00 00 00 00 00 00 00 00 00 00 00 00 00
       0.0 0.0 0.0 0.0
000020 00 00 00 00 00 00 00 00 00 00 00 00 00 00 00 00
       0.0 0.0 0.0 0.0
000030 00 00 00 00 00 00 00 00 00 00 00 00 00 00 00 00
       0.0 0.0 0.0 0.0
000040 00 00 00 00 00 00 00 00 00 00 00 00 00 00 00 00
       0.0 0.0 0.0 0.0
000050 00 00 00 00 00 00 00 00 00 00 00 00 00 00 00 00
       0.0 0.0 0.0 0.0
000060 00 00 00 00 00 00 00 00 00 00 00 00 00 00 00 00
       0.0 0.0 0.0 0.0
000070 00 00 00 00 00 00 00 00 00 00 00 00 00 00 00 00
       0.0 0.0 0.0 0.0
000080 00 00 00 00 00 00 00 00 00 00 00 00 00 00 00 00
       0.0 0.0 0.0 0.0
000090 00 00 00 00 00 00 00 00 00 00 00 00 00 00 00 00
       0.0 0.0 0.0 0.0
0000a0 00 00 00 00 00 00 00 00 00 00 00 00 00 00 00 00
       0.0 0.0 0.0 0.0
0000b0 00 00 00 00 00 00 00 00 00 00 00 00 00 00 00 00
       0.0 0.0 0.0 0.0
0000c0 00 00 00 00 00 00 00 00 00 00 00 00 00 00 00 00
       0.0 0.0 0.0 0.0
0000d0 00 00 00 00 00 00 00 00 00 00 00 00 00 00 00 00
       0.0 0.0 0.0 0.0
0000e0 00 00 00 00 00 00 00 00 00 00 00 00 00 00 00 00
       0.0 0.0 0.0 0.0
0000f0 00 00 00 00 00 00 00 00 00 00 00 00 00 00 00 00
       0.0 0.0 0.0 0.0
000100 00 00 00 00 00 00 00 00 00 00 00 00 00 00 00 00
       0.0 0.0 0.0 0.0
000110 00 00 00 00 00 00 00 00 00 00 00 00 00 00 00 00
       0.0 0.0 0.0 0.0
000120 00 00 00 00 00 00 00 00 00 00 00 00 00 00 00 00
       0.0 0.0 0.0 0.0
000130 00 00 00 00 00 00 00 00 00 00 00 00 00 00 00 00
       0.0 0.0 0.0 0.0
000140 00 00 00 00 00 00 00 00 00 00 00 00 00 00 00 00
       0.0 0.0 0.0 0.0
000150 00 00 00 00 00 00 00 00 00 00 00 00 00 00 00 00
       0.0 0.0 0.0 0.0
000160 00 00 00 00 00 00 00 00 00 00 00 00 00 00 00 00
       0.0 0.0 0.0 0.0
000170 00 00 00 00 00 00 00 00 00 00 00 00 00 00 00 00
       0.0 0.0 0.0 0.0
000180 00 00 00 00 00 00 00 00 00 00 00 00 00 00 00 00
       0.0 0.0 0.0 0.0
000190 00 00 00 00 00 00 00 00 00 00 00 00 00 00 00 00
       0.0 0.0 0.0 0.0
0001a0 00 00 00 00 00 00 00 00 00 00 00 00 00 00 00 00
       0.0 0.0 0.0 0.0
0001b0 00 00 00 00 00 00 00 00 00 00 00 00 00 00 00 00
       0.0 0.0 0.0 0.0
0001c0 00 00 00 00 00 00 00 00 00 00 00 00 00 00 00 00
       0.0 0.0 0.0 0.0
0001d0 00 00 00 00 00 00 00 00 00 00 00 00 00 00 00 00
       0.0 0.0 0.0 0.0
0001e0 00 00 00 00 00 00 00 00 00 00 00 00 00 00 00 00
       0.0 0.0 0.0 0.0
0001f0 00 00 00 00 00 00 00 00 00 00 00 00 00 00 00 00
       0.0 0.0 0.0 0.0

network_body._body_endoder.seq_layers.2.weight f4 [128, 128]
000000 5e 2d a1 bd 0a 0e 67 bd 0e a2 2e bd fc 54 5a 3d
       -0.07869981 -0.056409873 -0.042635016 0.053303704
000010 49 c4 ba 3d cc 16 8f 3d 4b 36 df 3d d0 35 a8 bc
       0.0911947 0.0698677 0.108990274 -0.020533472
000020 cb c7 24 3d 3c 00 07 ba 68 9e a9 bd 60 ea 05 3e
       0.0402296 -0.0005149876 -0.08282167 0.13077688
000030 4a 17 06 be d5 1d 5d bb a2 eb db 3d 0b b9 41 be
       -0.13094822 -0.0033739705 0.10738303 -0.18918245
000040 cd 1c a3 bd dc b5 00 be f5 10 93 3c 59 ea 8a 3c
       -0.07964478 -0.12569374 0.017952422 0.016957449
000050 5c d4 62 3d 16 6f b1 bc 01 06 87 3c 9a b0 15 be
       0.055378303 -0.021659415 0.016482355 -0.1461815
000060 e8 ee 56 be 63 3d b9 bd aa 1c f4 bd 32 f3 8b 3d
       -0.20989573 -0.09044912 -0.1191953 0.06833495
000070 0e 13 f7 3d 18 aa 7f bc 3c 44 49 3d ae 06 34 bd
       0.12064181 -0.015604518 0.04913734 -0.043951683
000080 48 4e af 3d d2 7c 58 bd 5f 76 88 bd 38 23 05 3e
       0.08559853 -0.052853413 -0.066632025 0.13001716
000090 16 4c c9 3c c1 ad 92 3d 13 4b 84 bd 6e 36 5b 3d
       0.024572413 0.07162047 -0.06459632 0.053518705
0000a0 96 32 f7 bd ab 1f 44 be 8e 73 07 3e e7 8b d0 bd
       -0.120701954 -0.19152705 0.13227674 -0.10182934
0000b0 fb d8 d2 3c 71 57 bc bc 32 20 df bd 8b fe 23 be
       0.02573823 -0.022990914 -0.10894813 -0.16015069
0000c0 47 a8 55 bd 61 27 60 bd 14 9d 4c 3d b5 87 a7 3d
       -0.052162435 -0.054725055 0.04995449 0.08180181
0000d0 c1 a0 01 be 5c c3 35 3d 4a 55 8b 3d 1d 72 c2 bd
       -0.12658979 0.044375762 0.06803377 -0.09494422
0000e0 78 f5 02 be 67 cf c3 bc 98 6c 40 3d 1d ac ff 3d
       -0.12788951 -0.023902608 0.046978563 0.12484
0000f0 bf ff 46 3d a4 54 42 3d 3a 22 04 3e 84 fe 85 3d
       0.048583742 0.047444 0.12903681 0.06542686
000100 74 07 51 3e 98 8d de 3d 84 fe 14 3e 7d 1f 19 bb
       0.20413 0.108668506 0.14550215 -0.0023364716
000110 cc 8d 5a 3c 25 22 48 bd a4 e4 e6 bd 80 bf e7 3b
       0.013339471 -0.048860688 -0.112740785 0.007072389
000120 ab a5 ac bd 72 ec 5c bd a7 f6 87 3d 32 83 33 3d
       -0.08430036 -0.05393643 0.06638842 0.04382629
000130 b3 7f cd 3d 69 5f a8 3d cb 5c 3d be a0 27 34 be
       0.10034122 0.08221323 -0.18492429 -0.1759324
000140 ff 35 d5 3c 3a f3 a1 bd 92 1c 34 bd e7 61 e0 bc
       0.026026724 -0.0790772 -0.04397256 -0.027390433
000150 78 e7 53 3d 4f f8 14 3d e2 30 35 bd 39 ce cf 3c
       0.051734418 0.036369618 -0.04423607 0.02536689
000160 2f 3f 44 3d 14 9c 22 bd 86 58 c3 bd 52 ca a2 3d
       0.04791182 -0.03969963 -0.09538369 0.07948746
000170 13 f2 15 3d 55 e6 af 3c a8 7a cc 3d aa 0c 9f bd
       0.036607813 0.021472136 0.09984332 -0.07766087
000180 e2 9f 8b bd 88 9b d5 bc 76 10 19 3d dd c0 13 3e
       -0.068176046 -0.02607514 0.037369214 0.1442904
000190 6f 41 35 3d 0b 7e ca bd db 9f c6 bd 6d 2f 5a 3a
       0.044251855 -0.09887322 -0.09698459 0.0008323107
0001a0 0c 07 c1 bd 42 5a a4 3d f0 60 d8 3c 89 82 44 3c
       -0.09425172 0.08025028 0.02641341 0.011994013
0001b0 ee a7 34 bd 62 25 2a bc 7c 42 bc bd 02 e1 5a 3b
       -0.044105463 -0.010384889 -0.091923684 0.0033398275
0001c0 2b a4 0a bd 35 36 33 3d 48 05 86 bd e3 94 f5 bb
       -0.03384797 0.043752868 -0.06543976 -0.0074945553
0001d0 93 05 36 3d d3 a4 e9 3d fe 2c 96 3d fe 88 62 3d
       0.04443891 0.11408391 0.073328 0.055306427
0001e0 46 46 80 bd 2c 67 e4 bd 76 0e 02 be 32 1a 60 3c
       -0.062634036 -0.11152491 -0.12700829 0.01367812
0001f0 7a 19 ed bc b5 8f 1b 3e a2 92 1e be d4 f3 68 3d
       -0.028942812 0.15191539 -0.15485623 0.056873158
000200 58 0b bd 3c 64 8d 90 3d 57 52 b6 bd b8 81 9e 3c
       0.023076698 0.07058218 -0.08902424 0.019348964
000210 35 50 f5 3d c7 ba 93 3d a3 f7 80 bb 22 e5 3d bd
       0.11978189 0.07213359 -0.0039357706 -0.046361096
000220 66 bf 9a 3d f2 9e 04 be 8f c1 b0 bc f5 5e 04 3e
       0.075560376 -0.12951258 -0.02157667 0.12926848
000230 5d 44 13 be ca f5 da 3d 95 6f 51 ba 64 72 28 3e
       -0.14381547 0.10691412 -0.00079893443 0.16449887
000240 06 ac db bd 76 16 70 3d 08 87 56 bc fa 35 ec 3d
       -0.1072617 0.05861517 -0.013093717 0.11533733
000250 ac 23 b7 bc 39 60 d1 bd 22 bf 6b bc e2 b7 01 3c
       -0.022355877 -0.10223431 -0.014388831 0.007917376
000260 77 e7 14 3c 89 dc b4 bd 7a 50 a6 bd 6c 6d 45 bc
       0.009088389 -0.08831126 -0.081208184 -0.012050014
000270 cc 0b d9 bc a3 8e f5 bd b9 3f 82 bd 12 c1 45 3c
       -0.026494883 -0.119900964 -0.063598104 0.012069957
000280 8d 8b 90 3d 7b f9 04 3d 8e 82 9d bb 40 0e bf bc
       0.07057867 0.032464486 -0.004806823 -0.023322225
000290 50 ac 2e 3d 83 a8 ac 3d 8b db d1 3c 23 74 85 bd
       0.0426448 0.084305786 0.025617382 -0.06516292
0002a0 6f 22 7a bd ef 90 81 3d 1a 01 91 bd 62 e8 03 bd
       -0.061067995 0.06326472 -0.07080288 -0.03220404
0002b0 33 60 b9 bd a9 3e 86 bb a6 71 34 bd a6 e4 98 bd
       -0.09051552 -0.004096825 -0.044053696 -0.07465486
0002c0 2e 43 c9 3d 04 8f 95 3b 64 fc 1c bd eb ae 09 3e
       0.09827267 0.004564168 -0.038326636 0.13445632
0002d0 dc c6 0b bb 20 ac 2f 3e b1 d0 93 bd 46 de ad 3d
       -0.0021328246 0.17155504 -0.07217539 0.08489661
0002e0 2f ca e6 3c ef a0 34 be 6f 26 eb 3c d1 16 a0 bd
       0.02817258 -0.17639516 0.02870485 -0.07816852
0002f0 5c aa f9 3c 02 c0 d5 bd 13 8f 21 3d 72 d4 b6 3a
       0.030476741 -0.10437013 0.039443087 0.0013948812
000300 b7 b8 79 3d ee 35 ed 3d 8f ff d3 3c 61 04 2b bd
       0.060967173 0.11582552 0.025878696 -0.041752223
000310 08 1e 85 bd 6b ac e3 bd a7 09 cb 3d 6f 15 bb bd
       -0.06499869 -0.111168705 0.099139504 -0.091349475
000320 28 13 c0 3c 61 e1 cb bc f6 6a 0f be 7e 86 ab 3d
       0.023446634 -0.024887742 -0.14005646 0.08375262
000330 9e 61 ec 3c f2 05 92 3b 45 8e 48 3d d3 a9 92 bd
       0.028855141 0.004456275 0.048963804 -0.07161298
000340 0b 10 7b bc b8 44 c1 bc dd b1 04 bc 21 45 9d 3d
       -0.015323649 -0.023592338 -0.008099047 0.07679201
000350 45 62 b7 bd e6 59 76 bd 9f 67 41 3e 5f 5e 4f bb
       -0.0895429 -0.060144328 0.18887185 -0.0031641943
000360 e4 51 10 3d 2f e2 fa 3c c3 df 90 3d 7b 18 a1 3d
       0.035234347 0.03062543 0.07073929 0.078659974
000370 32 8c 27 bc 88 f3 e0 3d 6c 3a 8e 3d d2 0b fc bc
       -0.010226296 0.1098395 0.06944737 -0.030767355
000380 fd dd 62 3e 0d aa 0c 3d ce 50 05 be 80 0a 22 be
       0.22154994 0.03434186 -0.13019106 -0.15824318
000390 39 25 b5 bc 61 58 04 bb f3 84 00 3e 69 ad 3c 3d
       -0.022112476 -0.002019428 0.12550716 0.046063814
0003a0 a8 a3 f0 bd 9e ba 22 3d be d2 87 3a 3f 01 bf 3d
       -0.11749965 0.039728753 0.0010362489 0.093264095
0003b0 86 ef 27 3e e1 b6 56 bd 03 4a 47 bc 11 48 6a 3d
       0.16399965 -0.0524205 -0.012163642 0.057197634
0003c0 18 81 e2 3d b5 f0 01 bd e7 b8 0a be fb 7c 0f bd
       0.11059779 -0.031723697 -0.13547097 -0.0350313
0003d0 b2 85 0b 3d a8 b4 ab 3c 36 e7 9f bd 6f d0 ea 3d
       0.03406305 0.020960167 -0.07807772 0.11465537
0003e0 1e 9e cf bb c6 1b bf bd 8e be c7 bc 04 29 99 bc
       -0.0063359877 -0.09331469 -0.024382856 -0.018696316
0003f0 9b 5e 13 3e 27 05 02 3d c4 51 3a bc d6 81 cc 3c
       0.14391558 0.031743195 -0.0113720335 0.024964254

action_model._continuous_distribution.log_sigma f4 [1, 3]
000000 00 00 00 00 00 00 00 00 00 00 00 00
       0.0 0.0 0.0

action_model._continuous_distribution.mu.weight f4 [3, 128]
000000 6d 37 b2 3b 8b 62 da 3c 93 c8 51 bc 1f 65 d3 3b
       0.005438736 0.026658317 -0.012804168 0.0064512636
000010 b5 54 f6 bb 7d b3 5a 3c 2a 41 93 3b ab 07 c8 bc
       -0.007517422 0.013348457 0.004493852 -0.024417719
000020 5c fe 34 bd 48 41 d9 bb ea 06 06 3c 6f c8 8f 3c
       -0.04418789 -0.0066300966 0.008180359 0.017551629
000030 a3 63 d4 ba 6c 4d 2c bc 1a 2b 8f ba 56 45 38 3c
       -0.001620401 -0.010516506 -0.001092288 0.011247
000040 2b 54 93 3b 68 b1 d4 3c 5d db ae 3a 01 dd 1e 3c
       0.0044961176 0.0259635 0.0013340522 0.009696246
000050 7a 85 85 ba 97 c5 0b bd 4f 01 27 bb 0f de c4 3c
       -0.0010186874 -0.034123983 -0.0025482958 0.024031667
000060 bb 9a f3 bb f3 d9 70 bc 0d 3f a7 3b 07 ae 76 3c
       -0.007434217 -0.014700401 0.005103952 0.01505614
000070 25 84 9c 3b 67 09 12 3d c1 d2 01 3d 6c 3a 92 3c
       0.004776495 0.035653498 0.03169513 0.017850123
000080 0c 4f c9 3b 14 31 1a 3c 55 40 7a 3c 9b 42 fa bc
       0.0061434563 0.009411115 0.015274127 -0.030549338
000090 fb ef 8c 3b cc 97 aa 3c 62 d0 ad 3c a2 33 25 3c
       0.004301069 0.020824336 0.021217529 0.010083111
0000a0 44 6b c3 bc 7d 66 b9 3b 0c dd 04 3c 91 36 8f bc
       -0.02385486 0.0056579695 0.008109342 -0.017482074
0000b0 12 a4 cf 3b 73 c1 a5 bc 9b a8 91 3b ce 0a 12 3d
       0.0063366974 -0.020233845 0.004445148 0.035654835
0000c0 cf d7 4d 3c 3a b7 1f 3c 1b d2 28 3c 57 5d 46 3c
       0.01256366 0.009748274 0.010303999 0.012107215
0000d0 25 05 ab bc 93 32 f7 3c 92 36 03 bc f7 31 29 3c
       -0.020876477 0.030175483 -0.008008616 0.010326854
0000e0 fe 35 03 bd 8c 01 9f 3c d8 a4 5e 3c 6f d5 11 3d
       -0.032033913 0.019409917 0.0135891065 0.035603937
0000f0 b3 88 5a bc 85 81 a5 3b e8 f6 8d 3c 5d 5d 6d bb
       -0.013338256 0.0050508403 0.017329648 -0.003621898
000100 fa 68 81 3b 10 97 ab 3b f0 c9 56 bc ed 03 6c 3b
       0.0039492818 0.005236514 -0.013109669 0.0036013082
000110 08 f3 dc bc 81 42 15 3c b7 fc f9 3b 4b 63 5b 3c
       -0.026971355 0.009110094 0.007629003 0.0133903725
000120 40 5e 69 bd 6c 19 87 bb b9 ba 0c bc 19 fa 1e 3d
       -0.05697465 -0.0041229036 -0.00858944 0.03881273
000130 88 68 e8 3b 04 3b 41 bb 5e f4 0e bc d2 df d9 bc
       0.007092539 -0.002948464 -0.008725254 -0.026595984
000140 40 2e b4 bb b2 00 b0 bc 5d b8 c0 bc f8 b4 f3 ba
       -0.0054986775 -0.021484707 -0.023525411 -0.0018593362
000150 ac c1 3e 3c 3d 67 d6 3c 4a 70 e4 bc 9e a8 c1 3c
       0.011642855 0.026172275 -0.027885575 0.023639973
000160 20 59 09 ba 32 f9 f9 bb 9b db a7 3c d3 aa 1a 3c
       -0.0005239416 -0.0076285833 0.020490458 0.009440142
000170 48 08 77 bc 49 89 35 3c 2c 84 49 bc fd fa 09 bc
       -0.015077658 0.011080095 -0.012299579 -0.008421657
000180 78 59 5b bc d8 ee 35 3b 97 56 df bc 03 59 e0 3b
       -0.01338803 0.002776077 -0.027262969 0.0068465485
000190 4d 53 7e bc 80 45 e8 3b 94 b4 99 3c cb 17 0c 3c
       -0.01552279 0.007088363 0.018762864 0.008550595
0001a0 10 9b 7d bc 60 72 1b ba d0 e2 97 3c 04 cb b3 3b
       -0.015478864 -0.0005929824 0.01854077 0.005486848
0001b0 f0 08 cd 3b 1a 15 5f 3c cd ca dd 3b e6 43 13 bd
       0.006257169 0.013615871 0.0067685605 -0.035953425
0001c0 92 d5 51 bb 82 26 69 3b 15 db b2 bb 04 df 8c bb
       -0.0032018167 0.003557593 -0.0054582455 -0.0042990465
0001d0 7a 53 e0 3c aa 3b 28 3c 92 b8 68 3c a5 19 ac 3b
       0.027383555 0.010268131 0.014204161 0.0052520805
0001e0 15 c8 69 bc d3 f4 11 3d 39 69 3a 3a 14 a4 18 bd
       -0.014268895 0.035633873 0.00071110163 -0.037265852
0001f0 5b b1 97 bc 2d 0a 7b bc 56 48 24 3c 0a a0 bc bc
       -0.018517187 -0.01532225 0.010027012 -0.023025531
000200 fb 54 00 bd 2a 2e 59 3c 40 e1 fd 3c ff 4e 15 bd
       -0.031331044 0.013255635 0.030991197 -0.03645229
000210 87 15 9e bb aa 9c 60 3d 6a c9 60 bd 8a e2 86 3b
       -0.0048243436 0.054836906 -0.054879583 0.004116361
000220 e0 4e e7 b8 ea 10 4b 3b c3 ea 15 bd 0d 8a ec bb
       -0.0001102963 0.0030985423 -0.03660084 -0.0072186054
000230 4b d8 06 bd 47 82 d8 ba 9b 1e c2 3a b0 e9 a9 bc
       -0.032921117 -0.0016518318 0.0014810147 -0.020741314
000240 3f 7a c7 bc bb 14 ba 3a 08 a9 c6 bc 6a 4f db bb
       -0.024350284 0.0014196852 -0.024250522 -0.0066928165
000250 cf 4a d7 bc bd 20 42 bc 40 0f 54 3c 9c 7b 81 3b
       -0.026280789 -0.011848626 0.012943089 0.003951503
000260 22 e8 a1 bc 6a d5 f8 bc 71 12 00 3c 6f ad 5b 39
       -0.01976401 -0.030375201 0.007816897 0.00020950077
000270 db 9c ea bc 9b 7b b1 3c de 30 16 3c 2f 7a 16 bc
       -0.028639248 0.021665385 0.009166924 -0.009184404
000280 8f a4 fc bc 5d b9 8a 3c 22 28 0e 3c ab ad 25 3d
       -0.030840186 0.016934091 0.008676561 0.040448826
000290 8d 25 0a 3c f0 67 84 bc e0 92 1f 3a d2 a5 4c bb
       0.008431804 -0.016162843 0.0006087255 -0.0031226766
0002a0 1a cf 4e 3c fa 8f 92 bc a5 df 85 3c 1a cd 53 ba
       0.012622619 -0.017890919 0.016341994 -0.0008079574
0002b0 28 4e 77 ba 9e 95 39 bd ed d5 e2 3c fa 4e 02 3c
       -0.00094339484 -0.0453087 0.027689898 0.0079534
0002c0 c1 13 ac 3b da a7 f6 3a 24 c6 0a bc cb 81 76 3c
       0.0052513783 0.0018818334 -0.008470092 0.0150455935
0002d0 02 6d 56 3d a7 e3 50 3c 27 b4 cf bc f3 02 5e bc
       0.05235005 0.012749589 -0.025354458 -0.013550508
0002e0 17 1c e7 b9 20 75 41 3b e5 15 e4 bc d7 53 3a bb
       -0.00044080682 0.0029519275 -0.027842471 -0.002843132
0002f0 7a c2 6b bc 9c 7c 1e bc 55 10 80 3c 3b 4f 7f 3c
       -0.014389629 -0.009673264 0.015632788 0.015582855
000300 bd 1f 72 3c 4f 70 f9 3c 11 8e b4 3b 08 54 e1 3c
       0.014778075 0.03044906 0.0055100997 0.02750589
000310 8e d3 b0 3a 47 e4 6c 3c fb 9c 48 bb bf 12 01 3c
       0.0013490783 0.014458722 -0.0030611146 0.007878005
000320 1b 58 87 3c 89 11 22 bc af 00 53 bc 86 e5 a9 bc
       0.016521504 -0.009891876 -0.012878581 -0.020739328
000330 43 e1 b7 3a 2e 4a 20 3d bf 39 b3 bc e5 c5 6e bc
       0.0014028925 0.039133243 -0.021878121 -0.014573549
000340 74 99 18 bc 9d 70 27 3c ad da da bc 39 a0 80 3c
       -0.00931393 0.01021972 -0.0267156 0.0157014
000350 35 d3 e5 bc ed 95 b5 39 9f fe ce 3b ab 28 4e bc
       -0.028054813 0.00034634714 0.0063169743 -0.012582938
000360 42 25 72 bc 2b d2 9d 3c 89 c0 2d 3c e4 96 aa 3b
       -0.014779391 0.019265255 0.010604986 0.005205976
000370 9d 9d 05 3c bb b5 88 bc dd 30 de bb cd e8 00 bc
       0.008155254 -0.016688218 -0.0067807273 -0.007868004
000380 f3 85 01 bc 73 cf 59 bc b5 45 2d bc f7 12 15 b9
       -0.007905471 -0.013294089 -0.0105757015 -0.00014216812
000390 60 44 c6 3c b8 f8 8d bc 4a 78 d6 3c b4 60 97 3c
       0.024202526 -0.017330512 0.026180405 0.018478729
0003a0 3b 2a 1c 3b 99 ef b5 bb 4b cb 7b 3c ee b5 16 3c
       0.0023828882 -0.005552244 0.015368293 0.009198649
0003b0 b2 a2 6a bc 1f 60 45 3c b0 10 fd 3c 70 25 77 bc
       -0.014321016 0.012046843 0.030891746 -0.015084609
0003c0 c5 ba 08 3d 2d 26 18 3c 80 04 c7 bc 72 05 14 bd
       0.033381242 0.009286446 -0.024294138 -0.036138006
0003d0 e7 8d da bb a4 12 01 bd 1a 71 d4 b8 82 f5 4e 3c
       -0.006669748 -0.031511918 -0.000101300146 0.012631776
0003e0 86 a7 95 bc a5 2c f4 bb 86 42 be 3c 2f c6 c9 bc
       -0.018268358 -0.007451611 0.02322508 -0.024630634
0003f0 2f be 8a 3c b1 5a b6 bb 9e 63 84 3c 17 67 40 3a
       0.01693639 -0.0055650105 0.016160782 0.00073395803

action_model._continuous_distribution.mu.bias f4 [3]
000000 00 00 00 00 00 00 00 00 00 00 00 00
       0.0 0.0 0.0

action_model._discrete_distribution.branches.0.weight f4 [1, 128]
000000 4c c5 0a 3c 4f 54 bf ba e3 65 8a bb bb 4c f7 ba
       0.008469891 -0.001459727 -0.0042235716 -0.0018867472
000010 f2 2f 69 bb fc 56 9f bb a8 12 6a bb 38 53 14 b9
       -0.0035581556 -0.0048626643 -0.0035716686 -0.00014145381
000020 6b 73 b1 bb 5e ff 2b 3b a4 bf af 3a e3 09 3c 3c
       -0.00541537 0.002624474 0.0013408554 0.011476967
000030 67 6e 9e bc ab 52 1d bc 8e 74 93 3c 17 22 51 3c
       -0.019339753 -0.009602229 0.017999914 0.012764475
000040 1b 7a 0b bc f7 0d 70 bb 32 14 7d 3c e7 dd 18 bc
       -0.008512999 -0.0036629417 0.0154467095 -0.009330249
000050 0b 4c f7 bb 33 dd a3 3b 88 da b8 3b 8b 40 91 3b
       -0.007546907 0.0050007342 0.0056412853 0.004432743
000060 7f 3e 4c bc 26 83 10 bb 1d 7d 6d bc 7b 45 10 3c
       -0.012466072 -0.0022050827 -0.014495161 0.008805628
000070 d7 ef 6b 3c 4f 8d bb bb 6f 02 fc 3b ab 81 97 3c
       0.014400444 -0.0057236324 0.00769072 0.018494448
000080 63 2b 3d 38 73 a3 31 3c 13 f7 23 bc 83 ce a1 3b
       4.510152e-05 0.010842192 -0.010007638 0.004937948
000090 dc b2 1e 3c ac 0d 80 3b 94 26 ca bb 15 bc 7c bb
       0.009686198 0.00390788 -0.0061691497 -0.0038564254
0000a0 d3 e0 cd 3a dd 1a 19 ba 2d 3c af bb fa 5e 2d b9
       0.0015707262 -0.000584049 -0.0053477497 -0.00016533947
0000b0 9c 9e 4c bc 40 84 a2 3b f9 b4 95 bc d7 d8 04 bc
       -0.012488987 0.004959613 -0.018274771 -0.008108339
0000c0 c7 db 32 3b d3 9b 3d bc 77 44 84 ba 44 2e bf bc
       0.0027291642 -0.011572796 -0.0010091205 -0.02333749
0000d0 c3 0b 24 bc 14 73 1a bc fb fc 23 bc 70 fd 6a bc
       -0.01001257 -0.009426851 -0.010009046 -0.014342651
0000e0 3d 9d a5 3b c0 f3 d6 3b 96 33 0d 3b 4b 6c c0 bb
       0.0050541447 0.006559819 0.002154564 -0.0058722845
0000f0 77 7a 2a bc 23 1e 45 3c a2 40 3e 3c e8 95 52 ba
       -0.010405174 0.012031111 0.011612089 -0.0008033202
000100 85 55 2d 3b 3a 81 0a bc 2b e3 96 3c 87 a1 96 bc
       0.0026448679 -0.008453662 0.018418869 -0.01838757
000110 86 1c a2 b9 d3 47 13 bc a3 46 44 3c 78 3d 11 3c
       -0.000309203 -0.008989292 0.011979732 0.008864753
000120 7e 28 95 3b 00 71 5b 3c 78 6c bf 3b 97 fd 43 3c
       0.004551946 0.0133936405 0.005841788 0.011962316
000130 07 e5 4a bb 3a 3d 20 bc a5 37 11 3b f8 59 00 3c
       -0.0030959265 -0.009780223 0.002215841 0.00783395
000140 9f 90 68 bc 15 e6 32 bc e5 61 57 bc 9e 75 9e 3b
       -0.014194637 -0.010919114 -0.0131458985 0.0048357984
000150 b1 d6 2a 3c cb 59 41 3b ef 5a e8 bb d8 49 b0 3b
       0.010427163 0.0029502984 -0.0070909183 0.0053798966
000160 d3 44 66 ba cf 8d 2b bb d5 f2 a9 ba 8b 6b 84 3b
       -0.00087840593 -0.0026177054 -0.0012966046 0.0040411404
000170 1e f0 30 bc 13 2d 63 bb a8 a0 64 bc 77 ad bc 3b
       -0.010799436 -0.0034664317 -0.013954319 0.0057579833
000180 cf b5 00 3c 07 d1 e1 39 da aa 6c 3b 0c c3 3e 3a
       0.007855847 0.00043071082 0.0036112578 0.0007276989
000190 fa 40 aa 3a c5 a1 54 bc bf d5 36 bc bb 14 9a 3b
       0.0012989335 -0.012978022 -0.0111593595 0.0047021783
0001a0 14 f2 8e 3b 78 06 bd 3b 99 60 16 3b b3 03 ec 37
       0.004362354 0.0057685934 0.002294576 2.8135115e-05
0001b0 d3 d8 e3 bb 04 a8 a6 ba 60 bb 68 3a 50 10 bf 3c
       -0.0069533377 -0.0012714867 0.00088780187 0.023323208
0001c0 3b 63 fd bb da f1 e8 bb f5 fc 7d 3b 5d ce 19 bc
       -0.0077327765 -0.007108909 0.003875551 -0.00938758
0001d0 20 55 b6 bb 13 62 b2 3a 0a f0 b7 3c 2b 93 4e ba
       -0.005564347 0.0013609551 0.022453327 -0.0007880206
0001e0 f2 9d 69 3b 67 14 c4 bb 67 25 56 3c 60 80 16 bc
       0.0035647121 -0.0059838775 0.013070441 -0.00918588
0001f0 58 92 35 3c b0 55 31 ba 25 99 62 3b 81 02 b9 3b
       0.011082254 -0.00067647826 0.0034576145 0.0056460504

onnx::Div_70 f4 [62]
000000 ad 17 ad 3d 7e ee 95 40 de e1 a7 3d d7 f0 95 40
       0.084517814 4.685363 0.081973776 4.6856494
000010 1a 80 a2 3d be f2 95 40 e6 dc a3 3d 57 f4 95 40
       0.0793459 4.6858816 0.080011174 4.6860766
000020 e7 dc a3 3d 0f f5 95 40 e8 dc a3 3d ef f5 95 40
       0.08001118 4.6861644 0.08001119 4.686271
000030 e7 dc a3 3d 4f f6 95 40 b6 8d a6 3d e4 f5 95 40
       0.08001118 4.686317 0.08132498 4.686266
000040 1b 80 a2 3d 2c f8 95 40 e6 dc a3 3d fc f6 95 40
       0.079345904 4.6865444 0.080011174 4.6863995
000050 48 20 a1 3d a2 fa 95 40 5b bd 9f 3d 39 fc 95 40
       0.07867485 4.686845 0.077997886 4.687039
000060 5b bd 9f 3d d1 fa 95 40 3f 57 9e 3d 49 ff 95 40
       0.077997886 4.686867 0.077314846 4.6874127
000070 1e 81 9b 3d ae 00 96 40 dd ed 9c 3d 63 01 96 40
       0.075929865 4.687583 0.07662556 4.6876693
000080 dc ed 9c 3d fa ff 95 40 2c 9d 98 3d ca 00 96 40
       0.076625556 4.687497 0.07451853 4.6875963
000090 2b 9d 98 3d 3b 01 96 40 2b 9d 98 3d ea 01 96 40
       0.074518524 4.68765 0.074518524 4.6877337
0000a0 1d 81 9b 3d 4d 03 96 40 eb 10 9a 3d bc 03 96 40
       0.07592986 4.687903 0.07522758 4.687956
0000b0 1d 81 9b 3d 20 03 96 40 c6 25 97 3d e5 03 96 40
       0.07592986 4.6878815 0.073802516 4.6879754
0000c0 2b 9d 98 3d 21 05 96 40 2c 9d 98 3d 96 07 96 40
       0.074518524 4.688126 0.07451853 4.688426
0000d0 c6 25 97 3d e4 06 96 40 9c aa 95 3d ed 05 96 40
       0.073802516 4.688341 0.07307932 4.6882234
0000e0 8b a8 92 3d 45 05 96 40 66 21 91 3d 89 06 96 40
       0.07161053 4.6881433 0.07086448 4.6882977
0000f0 03 96 8f 3d d7 06 96 40
       0.07011034 4.688335
