results/599000Steps=981-244/3DBall/3DBall-0.onnx (onnx, 84394 bytes, 8 tensors)

network_body.observation_encoder.processors.0.normalizer.running_mean f4 [22]
000000 00 00 00 00 00 00 00 00 00 00 00 00 00 00 00 00
       0.0 0.0 0.0 0.0
000010 00 00 00 00 00 00 00 00 00 00 00 00 00 00 00 00
       0.0 0.0 0.0 0.0
000020 00 00 00 00 00 00 00 00 00 00 00 00 00 00 00 00
       0.0 0.0 0.0 0.0
000030 00 00 00 00 00 00 00 00 00 00 00 00 00 00 00 00
       0.0 0.0 0.0 0.0
000040 00 00 00 00 00 00 00 00 00 00 00 00 00 00 00 00
       0.0 0.0 0.0 0.0
000050 00 00 00 00 00 00 00 00
       0.0 0.0

network_body._body_endoder.seq_layers.0.weight f4 [128, 22]
000000 41 6f e6 bc 92 7a 34 3d 95 bb 7b be 39 65 72 3e
       -0.028129222 0.044062205 -0.24583276 0.23671426
000010 0f d3 34 3d 7d 2f a1 bd 68 ae 8d bb a1 f0 fd 3e
       0.044146594 -0.07870386 -0.0043237694 0.49597648
000020 7f 79 a5 3e ac 03 96 3e d6 5e ba bd 9d e7 d5 bc
       0.32319257 0.29299676 -0.0910012 -0.026111418
000030 07 ad 22 bf 5c 7e 80 bd 53 8b 00 bf b4 fc 1e be
       -0.6354527 -0.06274101 -0.5021259 -0.15526086
000040 15 75 9f 3d ba 8b d0 3d c5 77 8f bd a9 02 7f bc
       0.077860035 0.10182901 -0.07005266 -0.015564599
000050 f8 a1 aa be 0d d0 48 3e a4 ce e6 3c 96 5b 0f be
       -0.33326697 0.19610615 0.028174706 -0.13999781
000060 fb 95 7c 3c 30 9a a0 3e a3 a1 6a 3d 74 8b da 3d
       0.0154166175 0.31367636 0.057283055 0.1067113
000070 44 3d d9 3e 4c 21 a5 3e 5d a1 03 bd a0 9c ce 3d
       0.42429554 0.32251966 -0.03213631 0.100884676
000080 c7 ef 23 bd e5 5d 2b 3d 02 d9 36 bd ca 3b 9e be
       -0.04002359 0.04183759 -0.04464055 -0.3090499
000090 c2 c1 a1 3e 62 3d 46 3e ec d5 a2 bd e6 7d 22 3f
       0.31593138 0.19359353 -0.079509586 0.63473356
0000a0 a9 bf 21 be a3 f7 10 bf 68 57 a5 be 6e 2d c0 bd
       -0.15795769 -0.56627864 -0.32293248 -0.09383665
0000b0 34 99 53 be e8 06 11 be e0 a9 d4 bd ae d6 51 3c
       -0.20663911 -0.14162791 -0.103839636 0.012807531
0000c0 ba 4c 04 3e 76 45 43 3e 92 85 94 3e 77 d4 20 be
       0.12919894 0.19069466 0.29008156 -0.15706049
0000d0 4e ca b2 3e 41 c9 13 3c 09 28 b5 3d 10 d6 d7 3d
       0.3491997 0.009020151 0.08845527 0.10538876
0000e0 88 e0 16 3e d2 50 21 3c 37 38 86 bd ad d6 5d 3d
       0.1473409 0.009845929 -0.06553691 0.05415981
0000f0 88 57 64 bd fd 39 87 bd 0d 2f c2 bd d9 7d 55 3e
       -0.05574754 -0.06602857 -0.094816305 0.20848788
000100 86 16 1a 3e d5 71 3a 3e 3a ad 16 3e 91 29 bd bd
       0.15047655 0.18207486 0.14714518 -0.09236444
000110 f9 6c 0f be b2 c0 2c bd 78 8b ac 3e ae 2b 99 3d
       -0.14006414 -0.042175956 0.33700156 0.07479034
000120 66 16 bb 3e 97 83 04 bb 87 91 89 be 83 b4 b9 3d
       0.36540526 -0.0020220035 -0.2686884 0.09067633
000130 72 5e ad 3e 54 cf 3b be d9 6c e4 bc 8e c8 a3 3e
       0.3386112 -0.18340808 -0.027883934 0.3198895
000140 4f c1 86 bd b6 ce e4 3d 9b d1 b4 3d dd 6d 09 3e
       -0.065798394 0.111722395 0.088290416 0.13420816
000150 7a 57 8b 3d 99 08 18 3e 7c 79 2d 3e 53 91 a2 be
       0.06803794 0.1484703 0.16940874 -0.317515
000160 83 00 c4 be 7b c0 73 bd bf 03 d5 3b 43 8c f7 3e
       -0.3828164 -0.059509736 0.0065006907 0.483492
000170 99 b5 c3 3e 02 a7 d2 3d a0 d0 8f be 93 93 8a 3e
       0.38224486 0.102857605 -0.28088856 0.27065715
000180 2e 13 d6 bd 16 79 4c be 75 62 29 be d5 31 d0 3e
       -0.10452877 -0.19968066 -0.16541465 0.4066302
000190 97 4d 6c 3d b0 0a 51 be f4 0b 77 be 0b 13 90 3e
       0.057691183 -0.20414233 -0.24125654 0.2813953
0001a0 57 88 fb 3c 1a 0d 28 be c5 b0 d0 3e 9c 8e e0 3d
       0.03070466 -0.16411248 0.40759864 0.109647006
0001b0 b9 38 4a bd a6 07 f6 bc 12 33 d2 bc f2 1d d8 3d
       -0.0493705 -0.030032944 -0.025659118 0.105525866
0001c0 fb 08 f4 3e 27 fd 0c 3f 25 e9 76 3e ca bf be bd
       0.47663102 0.5507378 0.24112375 -0.093139246
0001d0 81 2d 84 be a7 f7 7c 3e 48 d0 ce 3d c0 bb 5b be
       -0.25815967 0.24703847 0.1009832 -0.2145834
0001e0 9e e3 1f 3e 88 f5 8d 3e 82 7b 6a bc ad 1b 62 3e
       0.15614173 0.27726388 -0.014311673 0.2208087
0001f0 77 43 6a bd 50 78 c1 be 9d 51 3c 3e 04 4e e1 bc
       -0.057193246 -0.37787104 0.18390508 -0.027503021
000200 03 c2 94 3e 4b 12 3b bc f1 09 51 3e 45 7a 96 be
       0.2905427 -0.011417936 0.20413949 -0.2939016
000210 d5 fa fd 3d 7a c6 87 be 00 df 54 be 33 36 76 3d
       0.12401358 -0.26518613 -0.20788193 0.060110282
000220 fb ab cc bb bd b1 89 bc 5b fc ec 3d de fb 55 3e
       -0.0062460876 -0.016808385 0.115715705 0.20896861
000230 4d 6f 2d 3e 71 84 d9 bd 4a 09 de be 85 71 8e be
       0.16936989 -0.10620964 -0.43366462 -0.27820984
000240 03 c6 76 be 68 a6 40 be cd 83 69 be 8b 12 5d bd
       -0.24098973 -0.18813479 -0.22804184 -0.053972762
000250 51 e0 be 3d 12 bc 98 bd 12 a6 5b 3e 4b 54 b9 be
       0.09320129 -0.074577466 0.2145007 -0.36197123
000260 7e 71 99 bd e8 c9 48 3d f1 7a 1e be 51 25 00 be
       -0.0749235 0.049020678 -0.15476586 -0.12514235
000270 e7 76 d6 bd db 3a 1a be b4 53 03 3c 21 40 77 bd
       -0.104718976 -0.15061514 0.008015562 -0.060363892
000280 05 a8 82 3e c4 94 99 3e 36 05 30 3d 19 ed fc bd
       0.25518814 0.29996312 0.04297372 -0.1234991
000290 10 fb 92 bd 03 f0 d5 3d f9 d1 c2 be c7 7b e5 3d
       -0.071767926 0.10446169 -0.3805082 0.11205249
0002a0 ec 0d 22 3b 0b 94 19 bf 78 19 8d 3d 74 30 8c 3e
       0.0024727536 -0.5999152 0.068896234 0.27380717
0002b0 3c e1 13 be ea 64 34 bd 86 24 52 3e 85 d1 45 be
       -0.14441389 -0.04404155 0.20521745 -0.19318207
0002c0 11 3b 92 be ba 3a 1d 3e 17 ed 43 3e a4 67 54 3e
       -0.2856069 0.15354434 0.19133411 0.20742661
0002d0 c8 a6 ab bd 39 b0 12 3d 8d e9 b0 3d 0c fa f7 bc
       -0.083814204 0.03581259 0.08638296 -0.030270599
0002e0 16 f7 27 3e 33 4d 3f 3d bf 44 cf be 10 84 b4 3e
       0.1640285 0.046704482 -0.40482137 0.35257006
0002f0 a2 3f 0b be f4 13 b2 3e 9d 91 d5 bd 9f 0d 85 3e
       -0.13598493 0.34780848 -0.10428164 0.25986955
000300 7f 98 3c bd e0 1f 2a be 40 31 7c be 7a 50 bc 3d
       -0.04604387 -0.16613722 -0.24628162 0.09195037
000310 ef dc b4 3c 36 bc 49 3e 1d d2 93 be 24 49 eb bd
       0.022078006 0.19700703 -0.2887124 -0.1148856
000320 84 4f af 3c e1 cf 0a 3f 1f 9f dc bd 33 b1 b0 be
       0.02140022 0.5422345 -0.107725374 -0.34510192
000330 e3 22 1d bc 7a b0 b0 bd 98 b7 98 3d 98 08 45 be
       -0.009590837 -0.0862741 0.07456893 -0.1924156
000340 47 f8 0d 3e bc 37 07 3f 59 7c be bd 17 ef bd be
       0.13864242 0.5281942 -0.09301061 -0.37096474
000350 03 b4 77 bd b1 9a c6 3e 22 15 6d 3d b8 b8 0e be
       -0.060474407 0.38789895 0.057881482 -0.13937652
000360 79 4a b9 3e 1c 35 5e be cd f8 92 bc d8 31 cd bd
       0.3618963 -0.21699947 -0.017940903 -0.100192726
000370 6b a2 45 3d 13 4a 03 3c ef 9e 22 be c4 66 2f 3e
       0.048250597 0.008013266 -0.15880941 0.17129046
000380 cb 59 88 bd 12 0e 91 3e cd 6f c1 bd 4c c1 e7 bd
       -0.06657752 0.28331047 -0.094451524 -0.11316165
000390 26 2e 22 be 3e 41 b7 3e aa fb ee be 67 79 29 3e
       -0.15837917 0.35791963 -0.4667638 0.16550218
0003a0 4a 22 1c be 06 7c 81 3e cd 16 b3 3d 61 33 52 bd
       -0.15247455 0.25289935 0.08744583 -0.05131853
0003b0 60 78 e7 3d 7b 96 7c be 1c e9 74 3d dc b9 f0 bd
       0.113022566 -0.24666779 0.059792623 -0.117542
0003c0 4c e2 39 bd df 57 c7 3e 5a 83 82 3d d8 25 be be
       -0.04538183 0.38934228 0.063727096 -0.37138247
0003d0 d3 e0 10 3d 57 2f 38 3e 98 1c ea 3e 67 d6 e8 3d
       0.03537066 0.17986809 0.4572494 0.11369019
0003e0 a2 03 24 be bb 59 20 be fc 48 2e 3e d9 f5 53 3e
       -0.16017011 -0.1565923 0.17020029 0.20699252
0003f0 ba 44 e5 bd c4 18 19 be d9 e7 98 3c 3a 4d a1 3e
       -0.11194749 -0.14950854 0.018665241 0.31504232

network_body._body_endoder.seq_layers.0.bias f4 [128]
000000 00 00 00 00 00 00 00 00 00 00 00 00 00 00 00 00
       0.0 0.0 0.0 0.0
000010 00 00 00 00 00 00 00 00 00 00 00 00 00 00 00 00
       0.0 0.0 0.0 0.0
000020 00 00 00 00 00 00 00 00 00 00 00 00 00 00 00 00
       0.0 0.0 0.0 0.0
000030 00 00 00 00 00 00 00 00 00 00 00 00 00 00 00 00
       0.0 0.0 0.0 0.0
000040 00 00 00 00 00 00 00 00 00 00 00 00 00 00 00 00
       0.0 0.0 0.0 0.0
000050 00 00 00 00 00 00 00 00 00 00 00 00 00 00 00 00
       0.0 0.0 0.0 0.0
000060 00 00 00 00 00 00 00 00 00 00 00 00 00 00 00 00
       0.0 0.0 0.0 0.0
000070 00 00 00 00 00 00 00 00 00 00 00 00 00 00 00 00
       0.0 0.0 0.0 0.0
000080 00 00 00 00 00 00 00 00 00 00 00 00 00 00 00 00
       0.0 0.0 0.0 0.0
000090 00 00 00 00 00 00 00 00 00 00 00 00 00 00 00 00
       0.0 0.0 0.0 0.0
0000a0 00 00 00 00 00 00 00 00 00 00 00 00 00 00 00 00
       0.0 0.0 0.0 0.0
0000b0 00 00 00 00 00 00 00 00 00 00 00 00 00 00 00 00
       0.0 0.0 0.0 0.0
0000c0 00 00 00 00 00 00 00 00 00 00 00 00 00 00 00 00
       0.0 0.0 0.0 0.0
0000d0 00 00 00 00 00 00 00 00 00 00 00 00 00 00 00 00
       0.0 0.0 0.0 0.0
0000e0 00 00 00 00 00 00 00 00 00 00 00 00 00 00 00 00
       0.0 0.0 0.0 0.0
0000f0 00 00 00 00 00 00 00 00 00 00 00 00 00 00 00 00
       0.0 0.0 0.0 0.0
000100 00 00 00 00 00 00 00 00 00 00 00 00 00 00 00 00
       0.0 0.0 0.0 0.0
000110 00 00 00 00 00 00 00 00 00 00 00 00 00 00 00 00
       0.0 0.0 0.0 0.0
000120 00 00 00 00 00 00 00 00 00 00 00 00 00 00 00 00
       0.0 0.0 0.0 0.0
000130 00 00 00 00 00 00 00 00 00 00 00 00 00 00 00 00
       0.0 0.0 0.0 0.0
000140 00 00 00 00 00 00 00 00 00 00 00 00 00 00 00 00
       0.0 0.0 0.0 0.0
000150 00 00 00 00 00 00 00 00 00 00 00 00 00 00 00 00
       0.0 0.0 0.0 0.0
000160 00 00 00 00 00 00 00 00 00 00 00 00 00 00 00 00
       0.0 0.0 0.0 0.0
000170 00 00 00 00 00 00 00 00 00 00 00 00 00 00 00 00
       0.0 0.0 0.0 0.0
000180 00 00 00 00 00 00 00 00 00 00 00 00 00 00 00 00
       0.0 0.0 0.0 0.0
000190 00 00 00 00 00 00 00 00 00 00 00 00 00 00 00 00
       0.0 0.0 0.0 0.0
0001a0 00 00 00 00 00 00 00 00 00 00 00 00 00 00 00 00
       0.0 0.0 0.0 0.0
0001b0 00 00 00 00 00 00 00 00 00 00 00 00 00 00 00 00
       0.0 0.0 0.0 0.0
0001c0 00 00 00 00 00 00 00 00 00 00 00 00 00 00 00 00
       0.0 0.0 0.0 0.0
0001d0 00 00 00 00 00 00 00 00 00 00 00 00 00 00 00 00
       0.0 0.0 0.0 0.0
0001e0 00 00 00 00 00 00 00 00 00 00 00 00 00 00 00 00
       0.0 0.0 0.0 0.0
0001f0 00 00 00 00 00 00 00 00 00 00 00 00 00 00 00 00
       0.0 0.0 0.0 0.0

network_body._body_endoder.seq_layers.2.weight f4 [128, 128]
000000 df 49 51 3d b8 7c 46 3e d7 94 93 3d 2d 68 a3 bd
       0.05109584 0.19383514 0.07206123 -0.07978854
000010 57 c6 b7 3c 3c a3 1a 3e a8 9f ae 3c a2 af 0c be
       0.022433443 0.15101331 0.021316364 -0.13738874
000020 fe dd 9d 3d bc 48 10 bd 0d 72 7a 3d 4a c1 b5 3d
       0.07708357 -0.035225615 0.061143924 0.088747576
000030 9d ec c9 bd e9 3f 02 bd f1 7e 5b 3e d1 5f 3f bd
       -0.098595835 -0.03179923 0.21435143 -0.046722237
000040 cc 75 8e bd cb aa 92 3d 69 a0 fa bc 38 e3 8f 3d
       -0.06956062 0.071614824 -0.030594068 0.070257604
000050 b4 15 2c 3e 29 2e 5d 3d 12 c2 fa 3d e7 d3 66 bd
       0.16805154 0.0539991 0.12244047 -0.05635443
000060 45 ef c2 3d 56 58 48 3e 27 42 ac 3d 22 79 7c 3c
       0.09518293 0.19564947 0.08411055 0.01540974
000070 56 ee 53 3d e1 70 f6 3d b3 bc 67 3c 1a 0d 48 bd
       0.051740967 0.12033249 0.0141441105 -0.04884062
000080 e7 15 2b 3d 14 84 96 bd b6 be 06 3e 58 2e aa bb
       0.041768935 -0.07349411 0.13158688 -0.005193513
000090 8c 07 a0 bd 38 17 8e 3c 46 9e 9d bd 67 9e 86 bb
       -0.078139395 0.017345056 -0.07696204 -0.0041082385
0000a0 d5 78 a5 bd 18 97 05 bd 0f 3d 83 bd ea 21 db 3d
       -0.080796875 -0.032614797 -0.064081304 0.10699828
0000b0 8b 13 02 bd f3 6e 02 be c6 14 c4 bd be a1 d9 bc
       -0.03175692 -0.12737636 -0.09574275 -0.026566382
0000c0 1b 30 4b bd 97 52 ee 3d 75 c0 d7 3d 4a d9 a9 bd
       -0.049606424 0.116368465 0.10534755 -0.08293398
0000d0 73 c7 72 bd 52 84 fe bd 3b 07 dc bc 1b 34 68 bd
       -0.05927224 -0.12427582 -0.026858917 -0.056690317
0000e0 ca 0b 8a 3d 9d e8 8c bd 0b 48 ba bd 8c 8e d8 3c
       0.0674053 -0.06880305 -0.09095772 0.02643516
0000f0 e5 f5 0a 3e ef 1e 98 3d a8 69 f5 3d 6c 9f 5b bd
       0.13570364 0.07427775 0.11983043 -0.053618833
000100 bc 18 90 bd f3 f8 a2 bd 5b d4 b9 bd 1e 84 ca 3d
       -0.07035968 -0.079576395 -0.09073707 0.098884806
000110 89 a8 d0 3c 0d 97 00 3c 64 49 9e 3c 23 1b 65 bd
       0.025470989 0.007848513 0.019322105 -0.055934083
000120 21 91 1e 3d dc 7f a1 3d ab f2 1b 3c ec 9e 13 bd
       0.038712624 0.07885715 0.009518306 -0.03604023
000130 ae a3 b2 bd e3 2c 59 3c ac 0e a5 bd 18 d8 a7 bd
       -0.08722626 0.013255331 -0.08059439 -0.081955135
000140 93 53 eb 3d 86 a1 da 3c 94 95 c3 bd 60 e8 7f bd
       0.1149055 0.026688349 -0.09550014 -0.06247747
000150 03 44 e8 bd 41 d3 34 3e 12 c7 a1 3d 80 1a 63 3d
       -0.11341097 0.17658712 0.07899298 0.055445194
000160 ed ed fa 3c 85 80 42 3c a0 ab 2a 3c 4a a6 af 3d
       0.03063103 0.011871462 0.010416895 0.08576639
000170 4d 2f 6d bd 20 ff ee 3d dd 9b 37 3e 2a 54 54 bd
       -0.057906438 0.11669755 0.17930551 -0.051838078
000180 2d 4f 19 be 9d 17 5b bd 20 f8 e6 3d 7e 3f e1 bc
       -0.1497161 -0.053489316 0.11277795 -0.027496096
000190 17 6d 88 bd ab d0 ab bb 92 dc 3c bd 22 31 89 3c
       -0.06661432 -0.005243381 -0.04610879 0.016747061
0001a0 2a 33 e9 3d c0 b0 19 bd 87 b5 df bd 95 69 8b bd
       0.11386712 -0.037522078 -0.109232955 -0.068072475
0001b0 1f 78 de bd 8f 4c 06 3b 18 a6 84 bd ef 18 5b 3c
       -0.10862755 0.002049241 -0.06476992 0.013372644
0001c0 82 e0 23 3b 53 c0 ab 3d 9a 20 8c 3c 18 3f 0f be
       0.0025005643 0.08386292 0.01710539 -0.13988912
0001d0 3e 55 65 bd 73 19 18 bc 01 6e c7 3b 11 d8 19 3e
       -0.055989496 -0.009283411 0.0060861115 0.15023829
0001e0 27 b6 6f 3d 24 b6 cf bd 19 81 fa bd 96 4d e7 ba
       0.058523323 -0.101421624 -0.12231655 -0.0017647024
0001f0 56 dd 34 3d 26 d3 0c 3e cb 0d 6e 3b cb 1d d2 3d
       0.044156395 0.13752422 0.003632414 0.10259589
000200 b2 b1 73 3d 91 fd c1 3d cc f9 1f 3c e1 3b 85 bb
       0.059495635 0.09472192 0.009764146 -0.004065976
000210 72 98 a2 3d 22 c9 10 3e 72 65 48 3e be ce e0 3d
       0.07939233 0.14139226 0.19569948 0.10976933
000220 ed ee 21 be a6 fe 1b bd 49 74 b8 bd 8b 82 da bd
       -0.15813799 -0.03808465 -0.09006555 -0.1066943
000230 e3 74 c2 bd 25 22 91 3d e1 02 b3 bc 83 bc d3 3d
       -0.094949506 0.07086591 -0.021851959 0.1033869
000240 76 e9 b7 bc 70 ab 70 bd c0 f2 9c bb d9 0e 16 bd
       -0.02245019 -0.058757246 -0.0047896802 -0.036635254
000250 24 f8 13 be 7e c7 4d 3d 03 e7 66 3b 4f 07 86 3d
       -0.14450127 0.05023908 0.0035232909 0.06544363
000260 8a bd 2b bd c6 45 03 bd 80 0c 85 3d ed 9f a9 3c
       -0.041928805 -0.032048963 0.06496525 0.020706141
000270 01 98 11 3e e6 49 bc 3d 8f 3a ad 3d a5 e7 79 bd
       0.14218141 0.091937825 0.08458435 -0.06101193
000280 b1 72 34 3e 3b 37 6b bd 67 ac 5d bc 7e cf 4b bd
       0.17621876 -0.05742572 -0.013529873 -0.049758427
000290 92 af 97 3b ee 8c 2f bc 05 1e 88 3c 56 87 81 bd
       0.004629084 -0.010714753 0.016615877 -0.063246414
0002a0 69 97 2d be b0 86 75 bd 4c 04 47 3c 84 70 50 3b
       -0.1695229 -0.0599429 0.012147021 0.0031805346
0002b0 0f 41 0f be 70 07 00 3d fc 36 e6 bd f3 91 b5 3d
       -0.13989662 0.031257093 -0.11240956 0.08865728
0002c0 1d 22 fb bd 7e d5 fc 3c e3 41 d6 bd 52 3e f6 3d
       -0.12262366 0.03086352 -0.10461786 0.120236054
0002d0 31 9e bf 3d 43 6b a9 3d 0c bf c8 3b 42 82 2d be
       0.093563445 0.08272412 0.00612629 -0.1694422
0002e0 91 ad 92 3d 48 37 ba bd 17 2f 0d be 07 d9 b6 bc
       0.071620114 -0.09092575 -0.13787495 -0.022320284
0002f0 39 67 11 bd 11 93 87 ba 61 24 d5 bc bc ec 65 bc
       -0.03549883 -0.0010343512 -0.026018323 -0.014033493
000300 77 f4 b9 ba bd 19 e8 bd bd 91 0e bd 8c 44 25 bd
       -0.0014187236 -0.11333034 -0.034806956 -0.040348575
000310 66 36 0e be 84 e1 2f 3b fa 6a 76 bc 12 85 c4 bd
       -0.13887939 0.0026837299 -0.015040154 -0.09595694
000320 c3 76 66 bd 68 bc b9 bd 42 f4 d4 bd bf 81 57 bd
       -0.056265604 -0.09069139 -0.10398151 -0.05261397
000330 d5 58 a6 bd 91 2f bd 3d 81 b2 53 3d 84 df 12 3d
       -0.08122412 0.09237588 0.051683906 0.035857692
000340 0b 8b 59 bd af 67 df 3d 47 a7 1c 3d c9 c8 b4 ba
       -0.053111117 0.10908448 0.038245466 -0.0013792749
000350 37 88 99 3d 81 c9 ca bb 64 ab dd 3c 72 97 a8 ba
       0.07496684 -0.006188572 0.027059264 -0.0012862517
000360 80 0e 1a bd 55 31 0c 3e ea de da 3d d9 e7 c5 3a
       -0.037611485 0.13690694 0.10687049 0.0015099003
000370 28 62 e4 3c 1d 22 29 bc f4 84 0b bd 9b ce 89 3c
       0.027878836 -0.010323075 -0.03406234 0.01682215
000380 8c a3 96 3d c0 16 23 3b 6d 9b 03 3e b6 79 1a 3d
       0.07355413 0.0024885386 0.12852259 0.03771373
000390 68 c0 19 3d c8 39 fb bd ea 46 11 3c a6 05 1a bc
       0.03753701 -0.1226688 0.008867005 -0.009400761
0003a0 4b 37 bc bd c4 70 a5 bd df 46 e7 3d 48 0e 3c bd
       -0.09190234 -0.08078149 0.112928145 -0.045912057
0003b0 aa 30 32 bd f6 76 2d be ec 8b a1 3d 85 a7 ea 3d
       -0.04350344 -0.16939911 0.07888016 0.11457733
0003c0 96 7d 44 be 99 6d d1 bd 00 33 82 bd 6d 89 17 3d
       -0.19188532 -0.10225982 -0.06357384 0.036996294
0003d0 a3 ee f7 3d b3 07 45 be 45 26 9d bb 7c d6 22 3c
       0.12106063 -0.19241218 -0.004795822 0.009938832
0003e0 06 09 f6 3c 09 fd 53 bd 62 82 5a ba db e8 f8 bd
       0.0300336 -0.051754985 -0.00083354686 -0.12153789
0003f0 7e 34 fd 3d b5 3e a0 3d 74 66 98 bd 0c 36 6f 3c
       0.12363528 0.078244604 -0.074414164 0.014600288

action_model._continuous_distribution.log_sigma f4 [1, 3]
000000 00 00 00 00 00 00 00 00 00 00 00 00
       0.0 0.0 0.0

action_model._continuous_distribution.mu.weight f4 [3, 128]
000000 cd 76 a6 bb 80 b8 d8 3b c7 20 19 3c 73 1c bc bc
       -0.00508008 0.006613791 0.009346194 -0.022962784
000010 d4 8c 4b 3c 55 05 f4 bc f5 23 9a 3b df 01 26 bc
       0.012423713 -0.029787699 0.0047039934 -0.010132282
000020 4d 03 b0 3b 3b 8e b4 bc 16 7a 93 3b 9c 77 b1 bb
       0.0053714872 -0.022040477 0.0045006378 -0.00541587
000030 18 da 3b 3a b8 2b d1 3c 7d 02 a7 bc 98 56 cd bb
       0.00071659824 0.025533542 -0.020386929 -0.0062664263
000040 72 de 50 3b 1a a7 8e bc be 59 a0 3b 83 0a c1 ba
       0.003187087 -0.017413665 0.0048935106 -0.0014727864
000050 4c 0c 02 3d ce bc 82 3c e7 9e 0b bc 15 2e 83 bc
       0.03175001 0.01595917 -0.008521772 -0.016013185
000060 3b a9 37 3b 35 e4 1e 3b 33 91 8e bc 48 9d 8d 3c
       0.0028024453 0.0024244909 -0.01740322 0.017286912
000070 bb 95 24 bd 42 8c 28 3c 2f 74 5e bb a0 ab 7c 3c
       -0.040181857 0.010287346 -0.0033943763 0.015421778
000080 9d b0 57 bb 55 05 a7 bc fb 23 bb bc 18 fe 6d bb
       -0.0032911666 -0.020388285 -0.022844305 -0.0036314782
000090 fb 5c 92 3b ac 5e 07 bd 10 a9 ab bb 47 e3 7f bc
       0.0044666505 -0.03304927 -0.0052386597 -0.015618152
0000a0 c1 99 93 3c 64 ee 83 3b b2 b4 b4 bc 7f 45 65 bc
       0.018017652 0.004026221 -0.022058818 -0.01399362
0000b0 bd d8 0d 3c 7d 7e f8 ba f3 17 43 3c 25 e6 62 3c
       0.008657631 -0.0018958595 0.011907565 0.013848816
0000c0 0a 61 3b 3c 28 d2 51 bb c0 ef 9e 3c bb 0a 80 3c
       0.01143671 -0.0032016132 0.019401431 0.015630117
0000d0 31 8d 01 3c c8 c2 b0 3c e7 ee 31 3b 7a 93 6c 3d
       0.007907198 0.021577254 0.0027150454 0.057757832
0000e0 28 ec 6c 3c 30 5b da 3c 96 9b b6 bb 65 99 e8 3b
       0.014460601 0.02665481 -0.0055727465 0.007098364
0000f0 d3 07 2a 3c 1b 2c be bb eb 60 11 3b 8b 8f 5e 3a
       0.010377842 -0.0058035976 0.0022183012 0.00084900175
000100 e5 cf 8b 3c 00 3a b9 3c e5 a2 a7 3b d3 01 8d 3c
       0.017066905 0.022610664 0.005115854 0.017212784
000110 c5 0f 2e 3d 18 77 19 bc a7 ba cf 3c 43 55 bf bc
       0.042495508 -0.009366773 0.025357557 -0.023356086
000120 f3 36 0f 3d c1 d5 49 bc 8f 04 55 37 aa 0d ff bb
       0.034964513 -0.012319029 1.2696851e-05 -0.0077836113
000130 d9 3e c6 3c d5 8b d1 bc bf b4 05 bc 46 b8 40 bc
       0.02419989 -0.025579372 -0.008160769 -0.011762684
000140 73 b8 32 bc 5e 2c ab 3c 8f 17 4a bc 24 91 47 bb
       -0.010908234 0.02089518 -0.012334718 -0.00304515
000150 62 17 73 bc c3 ab b5 ba 93 f6 6c 3c 3a a2 32 bc
       -0.014837118 -0.0013860393 0.014463085 -0.010902936
000160 f5 07 6e 3a b7 b1 aa 3c d3 f9 52 3c ef 98 b4 ba
       0.0009080165 0.020836694 0.012876946 -0.0013778488
000170 1d 73 fb bb ae 2b 8a bb a7 dc 04 3c e9 32 bb 3c
       -0.0076736347 -0.004216633 0.008109248 0.022851424
000180 9f 71 10 3a e3 b5 27 3d fb 40 07 3b 52 df 63 bc
       0.0005510095 0.040944945 0.0020638097 -0.013908224
000190 d4 3d 09 3d d7 9d 3f 3c 8d 31 34 bd 73 0c ac bb
       0.03350623 0.011695347 -0.043992568 -0.0052505075
0001a0 4b 8f 96 bc b5 5e 88 ba 39 f2 02 3c b0 00 23 3c
       -0.018378874 -0.0010404201 0.007992321 0.009948894
0001b0 62 0c 22 bb 83 32 a1 bc 98 15 d4 bc da 91 e7 3a
       -0.002472662 -0.019677406 -0.025889203 0.0017667369
0001c0 8f e5 87 3a 7b 68 8f bc a3 a2 4a bb 66 a5 9b 3c
       0.0010368096 -0.017505875 -0.0030919693 0.018999767
0001d0 63 4d 25 3b dc c5 81 3c b3 fa d0 bc 3d b0 82 3c
       0.0025223128 0.015841417 -0.025510168 0.015953178
0001e0 17 8c 25 3c d5 c1 d1 3b 5a ef 58 ba 6d 8c d5 3c
       0.010104201 0.0064012804 -0.0008275412 0.026067937
0001f0 c8 9d 57 3c 7c 50 3e bc 4d 82 26 bd 04 f5 0d 3c
       0.013160177 -0.011615869 -0.04065161 0.008664373
000200 83 41 7d 3b bd 87 dc 3c 48 84 ba 3c b4 2a 11 bd
       0.0038643784 0.026920194 0.022768155 -0.035441115
000210 d3 2e b3 3c 47 98 39 bd 2d 53 03 bd 88 16 59 3c
       0.021872913 -0.04531124 -0.032061744 0.013250001
000220 31 2c c9 bb 4c dd 24 3d 95 a7 98 3c 8e 98 81 3c
       -0.006139301 0.040250108 0.018634597 0.015819814
000230 95 57 09 bd ef 21 1c 3d ae db 9c 3c 33 8b 17 3d
       -0.03353079 0.0381183 0.01914772 0.036997985
000240 f7 d5 4c bc 5d 34 c1 3b 24 1b 82 bc 7b a5 67 3b
       -0.012502185 0.005896135 -0.015882082 0.0035346437
000250 bc 1f 42 bc 57 7e 94 3c b9 de 1a ba 8b e8 e9 3b
       -0.011848386 0.01812665 -0.0005907822 0.007138317
000260 8f 3e 11 3b 92 a2 ae 3c 51 84 07 3d a0 2c 75 b9
       0.0022162532 0.021317754 0.03308517 -0.00023381645
000270 17 33 92 3b 0b dd 41 3c c7 cc b9 3b 0c ec 38 bc
       0.004461657 0.011832486 0.0056701633 -0.011286747
000280 64 46 10 bd f5 b6 29 3a d5 f9 c6 bc ae b2 4c 3c
       -0.03522338 0.0006474101 -0.024289051 0.012493772
000290 63 15 87 3c aa db a4 3c 64 37 86 bb 0b e0 13 ba
       0.01648969 0.020124275 -0.0040959585 -0.000564099
0002a0 13 aa c2 bb a0 39 96 bb 9a 84 8c bb fc e3 ab bb
       -0.0059406846 -0.004584506 -0.0042882683 -0.0052456837
0002b0 03 0e 04 bc 71 b2 b2 3c 36 18 33 3a d1 1b 87 3c
       -0.008059981 0.021813603 0.0006831916 0.016492756
0002c0 62 ee ab 3c a9 2f 15 bc 48 33 92 3c 0d c9 3c 3d
       0.020987693 -0.009105601 0.017846718 0.046090174
0002d0 2a e7 ce 3c cd 08 b2 bc 2b f4 57 bc 13 b9 dc bc
       0.025256712 -0.021732712 -0.013180773 -0.026943719
0002e0 0b 17 8b bc 47 c5 b2 3b 6e 82 bb 3c 0c a6 43 3c
       -0.016978761 0.005455646 0.022889342 0.011941444
0002f0 34 12 9b 3b d8 e8 1b 3c 19 a6 93 bc b3 7b 70 bc
       0.0047323946 0.0095159635 -0.018023537 -0.01467793
000300 77 31 85 bc 5b 65 9f 3c ff 1f 50 3c 78 ee e1 bc
       -0.016258938 0.01945751 0.012702941 -0.027579531
000310 3b bd e6 bc 75 df c4 3c 53 b9 11 3c 86 f5 00 3d
       -0.028166404 0.024032334 0.008894282 0.03148415
000320 4b 49 30 bc 74 3a ab bb 73 60 e9 bc 63 6e e6 3c
       -0.010759662 -0.005225474 -0.028488373 0.028128808
000330 87 25 28 bc 2f b2 12 bc b2 52 de 3a 55 ef 81 b9
       -0.0102628535 -0.008953615 0.0016961901 -0.00024783114
000340 87 82 bd 3c 10 bf 82 bc d7 8a e5 bb 4f ab 82 bc
       0.02313353 -0.015960246 -0.0070050764 -0.015950827
000350 2a 1a 8d bc 59 6b 91 bc 22 eb b3 3c e3 86 2b ba
       -0.01722439 -0.017751383 0.021962706 -0.0006543232
000360 18 76 ec bb d0 0c 82 3c e6 7e 9e bc d0 65 10 bc
       -0.0072162263 0.01587525 -0.01934762 -0.0088133365
000370 2b 78 ad 3c 53 6b e8 3c d3 31 f8 3b bd a5 7d 3c
       0.021175465 0.028371489 0.007574299 0.01548141
000380 1c 7e 00 3c 82 b3 72 bb 73 f3 72 bb 60 75 26 bc
       0.007842567 -0.0037033265 -0.0037071377 -0.01015982
000390 25 c5 fc 3b ef 5e 03 bc 12 3f 44 bb 5f 47 e3 3b
       0.007713931 -0.008018239 -0.002994482 0.0069359983
0003a0 93 ea 75 ba fa 86 69 bc 73 2c 20 bc a3 2b 2f bc
       -0.00093809626 -0.014253372 -0.0097762225 -0.010691556
0003b0 ed fa 75 bc dd b9 9e bc 0f f7 e9 bc 20 79 f5 bc
       -0.015013439 -0.019375736 -0.02856019 -0.029964983
0003c0 bb b7 b2 bc df e2 9d bc bf 56 67 3c 27 b1 78 bc
       -0.021816125 -0.01927322 0.014119803 -0.015178955
0003d0 57 94 39 3b 5d ed 5d 3c 8a ed 07 bc 3b 24 88 3c
       0.0028317177 0.013545361 -0.00829638 0.016618839
0003e0 fd 50 84 bc 2c 5d c2 b9 d3 60 b5 bc 06 49 29 bc
       -0.0161519 -0.00037071982 -0.022140896 -0.010332352
0003f0 32 ac 63 3c 90 4a e9 ba 94 38 14 3c 58 e6 da bb
       0.013896035 -0.0017798711 0.009046692 -0.006680291

action_model._continuous_distribution.mu.bias f4 [3]
000000 00 00 00 00 00 00 00 00 00 00 00 00
       0.0 0.0 0.0

onnx::Div_51 f4 [22]
000000 00 00 80 3f 00 00 80 3f 00 00 80 3f 00 00 80 3f
       1.0 1.0 1.0 1.0
000010 00 00 80 3f 00 00 80 3f 00 00 80 3f 00 00 80 3f
       1.0 1.0 1.0 1.0
000020 00 00 80 3f 00 00 80 3f 00 00 80 3f 00 00 80 3f
       1.0 1.0 1.0 1.0
000030 00 00 80 3f 00 00 80 3f 00 00 80 3f 00 00 80 3f
       1.0 1.0 1.0 1.0
000040 00 00 80 3f 00 00 80 3f 00 00 80 3f 00 00 80 3f
       1.0 1.0 1.0 1.0
000050 00 00 80 3f 00 00 80 3f
       1.0 1.0
