results/599000Steps=981-244/3DBall/3DBall-999800.pt (torch, 495601 bytes, 44 tensors)

network_body.observation_encoder.processors.0.normalizer.running_mean f4 [22]
000000 88 3e 86 35 83 0e c0 3f 88 3e 86 35 36 19 c2 3f
       1.0001977e-06 1.5004429 1.0001977e-06 1.5163944
000010 00 00 00 00 a2 17 c4 3f 00 00 00 00 2d fa c5 3f
       0.0 1.5319712 0.0 1.5466973
000020 92 3e 06 36 19 bc c7 3f 93 3e 86 35 e7 47 c9 3f
       2.0003977e-06 1.5604278 1.000199e-06 1.5725068
000030 00 00 00 00 17 9e ca 3f 00 00 00 00 26 c0 cb 3f
       0.0 1.5829495 0.0 1.5918014
000040 00 00 00 00 2d ab cc 3f 00 00 00 00 e1 5c cd 3f
       0.0 1.5989739 0.0 1.6043969
000050 00 00 00 00 c0 d9 cd 3f
       0.0 1.6082077

network_body.observation_encoder.processors.0.normalizer.running_variance f4 [22]
000000 dc ff ff 3f 25 2f ce 48 dc ff ff 3f dc 90 d3 48
       1.9999957 422265.16 1.9999957 433286.88
000010 00 00 80 3f 46 b0 d8 48 00 00 80 3f 13 42 dd 48
       1.0 443778.2 1.0 453136.6
000020 da ff 3f 40 51 3c e1 48 ec ff ff 3f 51 30 e4 48
       2.999991 461282.53 1.9999976 467330.53
000030 00 00 80 3f af 27 e6 48 00 00 80 3f 66 18 e7 48
       1.0 471357.47 1.0 473283.2
000040 00 00 80 3f c1 01 e7 48 00 00 80 3f 7f ca e5 48
       1.0 473102.03 1.0 470611.97
000050 00 00 80 3f 99 90 e3 48
       1.0 466052.78

network_body.processors.0.normalizer.running_mean f4 [22]
000000 88 3e 86 35 83 0e c0 3f 88 3e 86 35 36 19 c2 3f
       1.0001977e-06 1.5004429 1.0001977e-06 1.5163944
000010 00 00 00 00 a2 17 c4 3f 00 00 00 00 2d fa c5 3f
       0.0 1.5319712 0.0 1.5466973
000020 92 3e 06 36 19 bc c7 3f 93 3e 86 35 e7 47 c9 3f
       2.0003977e-06 1.5604278 1.000199e-06 1.5725068
000030 00 00 00 00 17 9e ca 3f 00 00 00 00 26 c0 cb 3f
       0.0 1.5829495 0.0 1.5918014
000040 00 00 00 00 2d ab cc 3f 00 00 00 00 e1 5c cd 3f
       0.0 1.5989739 0.0 1.6043969
000050 00 00 00 00 c0 d9 cd 3f
       0.0 1.6082077

network_body.processors.0.normalizer.running_variance f4 [22]
000000 dc ff ff 3f 25 2f ce 48 dc ff ff 3f dc 90 d3 48
       1.9999957 422265.16 1.9999957 433286.88
000010 00 00 80 3f 46 b0 d8 48 00 00 80 3f 13 42 dd 48
       1.0 443778.2 1.0 453136.6
000020 da ff 3f 40 51 3c e1 48 ec ff ff 3f 51 30 e4 48
       2.999991 461282.53 1.9999976 467330.53
000030 00 00 80 3f af 27 e6 48 00 00 80 3f 66 18 e7 48
       1.0 471357.47 1.0 473283.2
000040 00 00 80 3f c1 01 e7 48 00 00 80 3f 7f ca e5 48
       1.0 473102.03 1.0 470611.97
000050 00 00 80 3f 99 90 e3 48
       1.0 466052.78

network_body._body_endoder.seq_layers.0.weight f4 [128, 22]
000000 d1 b0 d5 3d 78 ff c4 3e 79 56 bc 3d a2 4e b7 3c
       0.10434116 0.38476157 0.09196181 0.022376362
000010 d1 35 9e bd 66 8a 2e 3d ed 67 47 bd 5f 49 04 3d
       -0.077251084 0.042612456 -0.048683096 0.032296535
000020 2a 2b 51 3c b2 c9 77 be bf f9 ef 3e b2 d2 18 3f
       0.012766639 -0.24198034 0.4687023 0.59696496
000030 01 3c cd bd 00 3e d8 bd 74 69 68 be c7 06 10 3e
       -0.100212105 -0.105587006 -0.22696477 0.14065085
000040 4e bb 28 3e 66 d1 8f bd f9 28 ba bd ac 5e 79 bd
       0.16477701 -0.070223615 -0.09089846 -0.0608813
000050 d3 90 17 be 24 a6 c9 3d 6c 51 1a 3f 94 f3 35 bc
       -0.1480134 0.09846142 0.6028049 -0.011105437
000060 32 f6 42 bd d2 5e 15 be 37 b8 be bd 36 ce 80 bd
       -0.04759807 -0.14586952 -0.0931248 -0.062893316
000070 10 7c ce bb b8 d8 4d be a3 d1 c4 bb 41 77 6e 3e
       -0.0063014105 -0.20102203 -0.006006436 0.2328768
000080 4d db 72 3d 24 48 fd bd 26 34 6e 3e a6 b2 9d 3d
       0.059291173 -0.12367275 0.2326208 0.0770009
000090 29 90 31 3e 06 53 26 3e 26 8a af 3e ca 13 5e 3e
       0.17340149 0.16242608 0.34285086 0.21687236
0000a0 64 53 89 3e 08 a3 da 3e 44 2d 9b 3e 68 35 06 be
       0.26821434 0.42702508 0.30307972 -0.1310631
0000b0 19 69 28 3e 64 66 eb bc cc a8 65 be 68 16 d5 3e
       0.16446342 -0.028735347 -0.22427672 0.41618657
0000c0 81 65 92 be 25 68 29 bd d4 a8 8d 3d de 31 2b be
       -0.28593066 -0.041359086 0.06916967 -0.16718242
0000d0 1b 6a f9 bc 12 0e 72 be 7e 84 4c be 9f 3e c9 bd
       -0.030446103 -0.2363818 -0.19972417 -0.09826397
0000e0 df c2 06 3e bd fe ae 3e 30 8b 19 3e 86 10 c4 3d
       0.13160275 0.34178725 0.14994502 0.09573464
0000f0 95 d6 5f 3d 1c 83 d1 3d 14 c3 81 bd f2 63 7e bd
       0.054648 0.10230085 -0.06336036 -0.062107034
000100 26 25 1f 3e 6c 3c e9 be 16 46 c7 be 07 94 40 3e
       0.15541515 -0.4555391 -0.3892066 0.18806468
000110 eb e6 80 3e 34 05 c5 3e cf 49 fe be c6 21 44 be
       0.25176176 0.38480532 -0.49665686 -0.19153509
000120 f2 50 9e bd 57 3a 5f be d5 10 8a be 74 71 21 3e
       -0.07730283 -0.21799599 -0.26965967 0.15765935
000130 b0 a3 ba 3d e3 de 95 bc ff df 91 3e a3 55 2f 3e
       0.09113252 -0.018294757 0.28491208 0.17122512
000140 c0 d8 e9 bd 07 5c bb 3c 68 91 5f 3e 75 4c 43 3e
       -0.11418295 0.02287103 0.21832812 0.19072135
000150 d4 5d b5 bd 35 a6 96 3d b6 fa d2 3d a4 37 27 be
       -0.08855787 0.0735592 0.103017256 -0.16329819
000160 4a ea 5a 3e dd 0a b3 3d c8 be 8e bd ff 9f e6 bd
       0.21378437 0.087423064 -0.069699824 -0.112609856
000170 88 41 c4 bd 9c 4f 19 be 55 89 3b 3e e7 43 20 3b
       -0.095828116 -0.14971775 0.18314107 0.0024454535
000180 38 93 fb 3e e4 98 01 3e 6a 5a 50 3c 19 3a c9 be
       0.49135756 0.1265598 0.012716869 -0.39302137
000190 c7 7d 1e 3e 6a a6 2e bc 84 89 63 3e b2 ae e8 3d
       0.15477668 -0.010659793 0.22220427 0.113614455
0001a0 34 4e 60 be 3d 25 b8 bc 36 8d 9d 3e a0 3a f7 bc
       -0.21904832 -0.022478694 0.30771798 -0.030179322
0001b0 8d 20 92 bd 31 8a 60 3e 80 86 20 be 86 fe f8 bd
       -0.07135115 0.21927716 -0.15676308 -0.121579215
0001c0 54 a1 b8 3d b0 fd 96 3d 7c 53 e9 3d b3 97 09 be
       0.09015146 0.07372606 0.113928765 -0.13436775
0001d0 ef 7f 28 3f 50 5f 73 bd 28 c1 3a 3e 38 cb f3 bd
       0.6582021 -0.05941707 0.18237746 -0.11903995
0001e0 30 e1 81 be 54 d6 db 3d 6a cc 53 3e 04 57 36 3e
       -0.25367117 0.10734239 0.20683447 0.17806631
0001f0 bf cb 0b bd 1a b3 21 3e f5 55 3d 3e 0b ca 15 bc
       -0.034129854 0.15790978 0.18489821 -0.009142409
000200 02 88 41 be b0 e5 9e be c0 df c7 3d 42 c1 cf 3e
       -0.18899539 -0.31034613 0.09759474 0.40577132
000210 11 2f 2b be 41 4b 21 3e 95 7f 33 be 6a a2 64 bc
       -0.16717173 0.15751363 -0.17529137 -0.013954738
000220 58 32 f9 3a 1e 89 3a 3e 85 a8 60 3e 99 c1 02 3e
       0.0019012196 0.18216369 0.21939285 0.12769164
000230 32 1f 0e be 19 f9 57 be ed b8 89 bb 8a 9b 9c be
       -0.13879088 -0.21091117 -0.004202953 -0.30587417
000240 7f f1 2c 3e 69 70 db 3e 9c 7a e0 3d ff 18 83 be
       0.16888998 0.428592 0.10960886 -0.25605008
000250 c0 dc 4d bd ad a5 5a be e2 ce 13 3e e9 32 19 3d
       -0.05025935 -0.21352263 0.14434388 0.037402067
000260 ac 91 53 bc 46 10 85 bd f7 1b 14 be d1 1d 94 be
       -0.012913149 -0.064972445 -0.14463793 -0.28928998
000270 c0 ad cd 3c f8 86 0c 3c a9 c4 ed be 5e 13 14 be
       0.025107265 0.008577101 -0.46439102 -0.14460513
000280 4c 9e 97 bc 71 05 ea bc 4c 3e 1b 3e 62 24 13 be
       -0.018508099 -0.028567048 0.15160483 -0.14369348
000290 00 2e 8e be 37 9e 47 bd 54 81 1c bd 38 78 8b 3e
       -0.2776947 -0.04873487 -0.038209274 0.27240157
0002a0 b3 f2 15 bf 38 c9 0f 3f c7 0d 7a be 81 64 3b 3d
       -0.58573455 0.5616641 -0.24419318 0.045750145
0002b0 3b e5 f3 3d a9 6c 6c bd 21 ae a9 3c a4 63 54 bd
       0.119089566 -0.057720814 0.020712914 -0.051852837
0002c0 ba 80 0e bd 98 aa 43 be 20 bb 65 be 5d f1 74 3d
       -0.034790732 -0.19108045 -0.22434664 0.059800494
0002d0 23 45 1d 3d 0d ba b6 3e 90 49 d7 3c 2b 94 e1 bd
       0.038396012 0.3568882 0.026280195 -0.11014589
0002e0 4c d1 93 3c fa 90 c2 be 07 e2 ce 3e 3c b3 50 bd
       0.018044136 -0.38001233 0.4040682 -0.05095218
0002f0 1c 6d 3f 3e 4c 10 c2 3d 3e da f3 3c b6 c4 dc 3b
       0.18693966 0.09475765 0.029767152 0.006737317
000300 c3 5d d3 be 60 f2 a1 bd c2 10 f5 3d 2e c2 77 be
       -0.41282472 -0.079075575 0.11966087 -0.24195167
000310 b4 aa 4b 3e 50 0b 08 3f e1 5b 5e 3e 8e 5e be be
       0.19889337 0.5314226 0.21714737 -0.37181515
000320 2e 49 2b bd 2a 3e ed 3d 41 94 0d bf 3d 3b e4 bd
       -0.041817836 0.115841225 -0.5530434 -0.11144111
000330 8c 63 83 3e 8e ab aa 3e 14 8f 1a 3d f0 5f 4c be
       0.25661886 0.3333401 0.037734106 -0.19958472
000340 65 63 89 3e 6d c4 22 3e d7 16 22 3e ba f2 96 3d
       0.26833645 0.15895243 0.15829025 0.07370515
000350 75 c6 af 3e 35 91 b5 3c 03 ee 4f 3e 3f 73 b5 be
       0.34331098 0.022163967 0.20305638 -0.35439488
000360 3c e5 d0 3d 39 8e 98 bd 1c 72 8a be 1f cf 16 be
       0.10199973 -0.07449002 -0.27040184 -0.14727448
000370 81 86 d6 be 95 d3 0c 3e a5 c1 a4 3e 68 d0 0a be
       -0.41899493 0.13752587 0.3217899 -0.13556063
000380 ef 3b 04 bf 77 03 0f 3e 11 9d 9d 3d c0 3d a6 be
       -0.5165395 0.13966165 0.07695974 -0.32468987
000390 ed 48 2b be 89 5e e5 be 88 99 8e 3e 87 17 d5 ba
       -0.16727038 -0.44798687 0.2785151 -0.0016257622
0003a0 25 09 e6 bd f2 56 1b bd 54 c5 2e be 91 5c 8f be
       -0.11232213 -0.037924714 -0.17067462 -0.2800031
0003b0 bc 1d 95 3d c2 a6 15 3e c9 df 9c be e5 94 cc bd
       0.07281062 0.14614394 -0.30639485 -0.09989337
0003c0 b7 32 98 3e df 56 36 be 5f 75 36 3e 01 0f a4 3e
       0.29726192 -0.17806576 0.17818211 0.32042697
0003d0 e8 b5 11 bb c8 71 21 3e 60 3c 4b 3e b5 b2 10 bf
       -0.0022233669 0.1576606 0.1984725 -0.56522685
0003e0 8b b8 1d 3e 31 20 60 3d cb 4f 9f 3e c9 51 a2 3d
       0.15402429 0.0547182 0.31115565 0.079257555
0003f0 d4 10 04 bd 5a a0 9c 3b 10 52 36 3c a7 3c ba bd
       -0.03224261 0.0047798576 0.011127964 -0.090936

network_body._body_endoder.seq_layers.0.bias f4 [128]
000000 b0 f6 a3 b4 1d fd 8a b1 33 40 85 34 93 ca b8 b4
       -3.0540605e-07 -4.0451043e-09 2.4819892e-07 -3.4420063e-07
000010 db 31 3c b5 2a 9e 99 b4 ff f1 d6 34 40 65 e1 32
       -7.0108007e-07 -2.861355e-07 4.0036682e-07 2.623949e-08
000020 5d aa 49 35 62 ba 26 35 14 5f 29 b5 1c e0 da 33
       7.5126246e-07 6.211104e-07 -6.3095763e-07 1.0192181e-07
000030 5d 71 8a b4 c8 41 d8 b4 53 a9 fa b4 b6 56 df 34
       -2.5786986e-07 -4.0280997e-07 -4.6689328e-07 4.1600077e-07
000040 52 d3 29 b5 74 ac 18 35 2b a6 41 35 4c 97 71 33
       -6.326492e-07 5.6875365e-07 7.213991e-07 5.624979e-08
000050 8f 04 d4 34 9a 9f 19 35 29 11 52 34 56 4d a5 b4
       3.9491394e-07 5.722919e-07 1.9564017e-07 -3.0789914e-07
000060 3f 27 18 35 2a 07 b7 34 0d 6e 41 b3 22 c0 68 b4
       5.6681523e-07 3.409162e-07 -4.5036405e-08 -2.1676581e-07
000070 e4 a5 b1 b4 71 51 e1 31 a9 5e 42 b3 f1 00 fa 34
       -3.308952e-07 6.5576207e-09 -4.5255238e-08 4.6566814e-07
000080 7b 83 a5 b3 38 33 91 b4 a4 ef e7 b3 27 eb 41 35
       -7.7073274e-08 -2.704562e-07 -1.0800366e-07 7.2240294e-07
000090 e2 ab 85 b4 a8 e1 2f 35 b4 ea b9 33 e4 25 0f b5
       -2.4898242e-07 6.5520953e-07 8.657426e-08 -5.332679e-07
0000a0 2d 96 52 b4 31 b5 c5 b4 64 f0 64 34 38 ad f3 b3
       -1.9612408e-07 -3.6825944e-07 2.1321608e-07 -1.13470776e-07
0000b0 32 2f b9 b0 2b 39 0c b5 78 c1 55 b3 73 9e f3 33
       -1.3473935e-09 -5.2237255e-07 -4.9768886e-08 1.1344391e-07
0000c0 f3 0d 0e 35 dc 41 05 35 f9 72 cf b4 50 eb 16 b5
       5.291942e-07 4.96422e-07 -3.8640408e-07 -5.622178e-07
0000d0 74 d8 8a 34 6a b8 87 b3 40 89 25 35 53 58 27 32
       2.5861993e-07 -6.319972e-08 6.1667015e-07 9.740762e-09
0000e0 bd 3d 46 b5 3d 9a f8 b4 39 85 f0 b4 f0 28 2d 35
       -7.385059e-07 -4.6305823e-07 -4.4800416e-07 6.4507094e-07
0000f0 ed dd a0 b4 71 14 bd b3 36 e1 cf b4 42 7b 18 35
       -2.9963795e-07 -8.8047166e-08 -3.8720617e-07 5.6803776e-07
000100 5f dd 98 b4 bb 42 26 b5 3a 93 05 32 b3 84 5b 32
       -2.8473275e-07 -6.1936925e-07 7.775094e-09 1.277765e-08
000110 e1 22 c9 34 1d 82 70 34 ab 55 a3 b4 b3 19 c3 b4
       3.7464545e-07 2.2399077e-07 -3.0423448e-07 -3.634028e-07
000120 f0 e7 ca 34 78 81 35 b5 2e b9 ab 32 8f e0 18 b5
       3.779419e-07 -6.7616156e-07 1.999123e-08 -5.695119e-07
000130 c7 98 06 b5 c5 b2 06 b5 37 ff 18 35 4c 47 88 33
       -5.014121e-07 -5.0179034e-07 5.69958e-07 6.345962e-08
000140 ee 39 5b 34 a9 44 ea b4 81 a8 9e 34 c3 e2 2a 35
       2.0417039e-07 -4.3635853e-07 2.9552396e-07 6.3659917e-07
000150 db da 72 b5 6b b9 b1 b3 43 01 54 b5 f0 99 aa b3
       -9.04705e-07 -8.275932e-08 -7.897799e-07 -7.944243e-08
000160 25 38 b6 34 a5 cb e3 34 08 7d bd 34 a5 b6 80 b4
       3.3940992e-07 4.2430216e-07 3.5294966e-07 -2.397475e-07
000170 56 c4 41 b5 23 81 0f 35 c8 47 43 35 81 70 59 34
       -7.218381e-07 5.345957e-07 7.2747616e-07 2.0250629e-07
000180 06 57 e0 33 c9 37 13 b5 43 dd ae 34 96 83 fe 34
       1.0446642e-07 -5.4842945e-07 3.2571015e-07 4.7406928e-07
000190 a1 b7 c4 34 f0 eb fb 34 9b 6c 17 35 f7 c0 cf b4
       3.6641453e-07 4.692406e-07 5.6409925e-07 -3.8697155e-07
0001a0 67 8a 08 b5 5f f2 b7 34 7b a0 af b4 15 e4 8d 34
       -5.086535e-07 3.4262754e-07 -3.2713055e-07 2.6429248e-07
0001b0 03 f0 1c 35 02 a1 87 b4 4d b8 53 35 68 33 31 b5
       5.846379e-07 -2.5262858e-07 7.887182e-07 -6.6012444e-07
0001c0 34 12 a3 34 c5 8a 57 35 f6 89 e9 34 26 df c3 33
       3.037436e-07 8.029568e-07 4.3500012e-07 9.1209856e-08
0001d0 79 ee 0b 34 43 ad 77 b3 ad d9 cf 34 e7 16 2b b4
       1.303214e-07 -5.766675e-08 3.8715135e-07 -1.5933948e-07
0001e0 3a 6d 95 34 ed f1 5e b5 b5 f1 03 35 18 5c f8 34
       2.7832886e-07 -8.3053493e-07 4.9153033e-07 4.6260607e-07
0001f0 be 26 08 b5 40 30 a1 34 d3 6c c0 34 6c 05 01 b5
       -5.0720325e-07 3.0023693e-07 3.5841967e-07 -4.8064135e-07

network_body._body_endoder.seq_layers.2.weight f4 [128, 128]
000000 f2 0c 10 bc 3e 29 fb bd 19 44 94 3d 37 e1 2d 3e
       -0.008792149 -0.12263726 0.07239551 0.16980444
000010 c6 2b 8f 3c 4b f3 68 bd df 48 b7 bd 6e 94 fd bd
       0.017476927 -0.056872647 -0.08949446 -0.12381826
000020 af 92 90 3d fc 47 b0 bc eb 65 35 3e 4d 14 57 3d
       0.07059228 -0.0215187 0.1771466 0.052509595
000030 ed 6b 73 bc 0f 75 92 3d 73 53 61 3d 7c 4f 3a 3d
       -0.0148572745 0.071512334 0.055011224 0.04548596
000040 14 77 d5 bb 4c 61 1d 3d ec 9d 00 3d 66 59 06 3d
       -0.0065144394 0.038422868 0.031400606 0.0328001
000050 09 b8 9b bd 4d a3 2b bd 81 33 b8 bd 14 06 54 bc
       -0.07603461 -0.041903783 -0.089941986 -0.012940902
000060 28 79 23 3d 9b ff 30 3d c7 18 15 bd 0d 9c 99 ba
       0.039910465 0.043212514 -0.036400583 -0.001171948
000070 74 92 9c 3d b1 4e ff bc 15 87 3c 3d dd 98 fa 3d
       0.07645121 -0.031165453 0.04602726 0.122361876
000080 a8 5a 47 be d3 c4 fa bd 23 78 1f bb 1a e8 59 bc
       -0.19468176 -0.122445725 -0.0024333082 -0.013299966
000090 96 b2 e5 bc fb 7e 02 3c 92 41 91 3c da de d0 bd
       -0.028039258 0.007964845 0.017731462 -0.101987556
0000a0 6e 9f f6 3b c7 60 3c 3d d8 d8 33 bd 0e a8 c1 bd
       0.0075263297 0.04599073 -0.04390797 -0.09455882
0000b0 cc 72 13 be b3 df 2c 3d b6 bb 1a 3e 69 87 5d 3b
       -0.1439926 0.042205524 0.15110669 0.0033802635
0000c0 04 0b a0 bd 49 21 6a 3d da b3 88 bd eb 31 54 3d
       -0.07814601 0.05716065 -0.06674929 0.051805418
0000d0 98 3c 01 bc f8 23 3c 3e c2 37 3d bd 18 f9 0a bd
       -0.007887982 0.18373096 -0.046195753 -0.03392896
0000e0 b1 a2 f8 bd c1 36 04 bd e6 4e d2 bd a3 32 f5 3d
       -0.12140406 -0.03227878 -0.10268955 0.11972549
0000f0 a8 33 19 3b e7 8e 78 bd 96 82 94 bd 1d 1a 9f ba
       0.0023376737 -0.060683157 -0.0725147 -0.001213852
000100 54 22 28 3d 41 4e e9 bd 5e 58 4a bd 20 bf 51 3e
       0.041048363 -0.11391879 -0.04940068 0.20483065
000110 fa 5e 04 bd 38 60 9a 3d a3 89 10 3d 63 78 94 bd
       -0.03231714 0.075378835 0.03528751 -0.072495244
000120 b6 15 12 be fd 57 5d 3d 79 9f e9 bd ad d6 31 bc
       -0.14266095 0.05403899 -0.1140737 -0.010854405
000130 a3 0c 10 be 22 d9 4b bd 5d e3 9b bd ff a6 c0 bc
       -0.1406732 -0.04976762 -0.076117255 -0.02351713
000140 0a 75 7b bd 07 7f 7f bd 7b 0c 34 bd 70 98 aa 3d
       -0.061390914 -0.062377002 -0.043957215 0.083298564
000150 28 da 7e bd bd 51 39 3c 6b 5f ca ba e0 e4 b7 37
       -0.06221977 0.011310992 -0.0015439814 2.1921878e-05
000160 29 6f 51 3d f4 e1 90 3d 18 de 11 3e 2e ff 17 3e
       0.0511314 0.07074347 0.14244878 0.14843437
000170 a2 a4 cc 3d 35 a7 43 bd 46 94 ce 3c 01 e6 bf 3d
       0.09992339 -0.047766883 0.025217187 0.09370042
000180 1c a1 ce bd ed 21 1f bd 94 77 37 3c cd 6f 7b bd
       -0.10089323 -0.038850714 0.011197943 -0.06138592
000190 9c 92 f5 bd d1 b5 80 3d 6c 0b 48 3d 31 a2 c4 3c
       -0.11990854 0.06284679 0.048839018 0.02400312
0001a0 28 cb 2a bc 4c 5d 6b 3d 10 65 89 3d f2 e8 18 bd
       -0.010424413 0.05746202 0.06708729 -0.03733153
0001b0 82 3e d4 ba 6a ea 9e bb 35 1f cd bd d3 63 fc 3d
       -0.0016192945 -0.0048497217 -0.10015718 0.123237275
0001c0 b7 17 e1 bd 85 c2 95 bc d7 a3 55 3c 85 a6 30 bc
       -0.10990851 -0.01828123 0.013039551 -0.010781889
0001d0 e8 78 26 3e 3b 6b 0f 3d c9 32 39 bc 92 8f 02 3e
       0.1625706 0.035014372 -0.011303612 0.1275008
0001e0 9a e7 12 3d 41 88 33 3d 98 30 c6 bd 76 b4 05 3e
       0.035865404 0.043831114 -0.09677237 0.13057122
0001f0 fe 33 1c 3e c9 6c fa bd 5e 4d 9b 3d 5a 6a 6d 3d
       0.15254208 -0.1222778 0.07583116 0.057962753
000200 39 e6 d8 3d 50 81 1f 3e ee cc 0a bd 45 ae cc bd
       0.105907865 0.15576673 -0.033886842 -0.09994177
000210 ce 82 91 3d af 2e 20 be 6a f0 81 3e cc 2c b8 bd
       0.07105027 -0.15642808 0.25378734 -0.08992919
000220 9c 57 63 bd 14 9a 3e 3d 10 89 c8 bd b7 14 40 bd
       -0.055503473 0.04653366 -0.097917676 -0.046894755
000230 0b 43 bf 3d af b9 0f 3e 1c 2d f1 3c 91 44 5a bc
       0.09338959 0.14035676 0.029440455 -0.013322012
000240 8d 34 22 3d 89 0e ad ba af 27 d5 3d 20 92 ad 3d
       0.039600898 -0.0013203184 0.1040796 0.08475137
000250 6f f6 bc 3d d3 5f 3d 3b 4d 5b 72 3d 39 1c 0b 3d
       0.09226691 0.0028896227 0.059169102 0.033962462
000260 00 05 71 bd 6e 50 0e be ec 16 99 bc b6 81 38 bd
       -0.05884266 -0.13897869 -0.018687688 -0.045045577
000270 c0 9c 8c bd 6f 45 84 3d 1d d6 73 3c f9 dc cd bd
       -0.06865835 0.06458556 0.014882592 -0.10051913
000280 e6 96 34 bd 6e b3 84 3c 37 e6 c3 bd 17 eb 71 3d
       -0.04408922 0.01619884 -0.09565394 0.05906209
000290 4f 48 39 bd 8b bd 8d 3d 08 4b 61 3c 15 ad 7e bc
       -0.045234974 0.06920918 0.013750799 -0.015544196
0002a0 8f 2f 27 bd 9e 1a ce 3d 1a f3 fc 3d ad 33 90 3c
       -0.04081684 0.100636706 0.123510554 0.017602766
0002b0 af 73 a6 bd 60 e5 1a 3e ea aa 97 bc 6d 1b 42 3d
       -0.08127534 0.15126562 -0.018514115 0.047389437
0002c0 23 cd ab bd 35 f0 18 3e 75 32 9a 3c d0 8d 90 bd
       -0.08388736 0.14935382 0.018822888 -0.070582986
0002d0 a2 65 7a 3d 82 a8 3a 3d a5 bb 8d bd 9a 7f 98 bd
       0.06113208 0.045570858 -0.06920556 -0.07446213
0002e0 11 fe a8 bc 86 9f 4e 3e 89 83 a6 bc ab 7e 8a bb
       -0.02062896 0.20178041 -0.020326393 -0.004226526
0002f0 2a 64 11 3e 34 1e 51 3c bd b0 72 3d ad ac e6 bd
       0.14198366 0.012763549 0.059250582 -0.11263404
000300 43 0c ed bb a0 da d3 bb 0a 17 db bd 85 a3 8b 3c
       -0.0072341277 -0.006465271 -0.10697754 0.017045746
000310 ed de 34 3d 8a cf 99 3d 54 3a a8 bd 94 d1 1c be
       0.04415791 0.07510288 -0.0821425 -0.15314323
000320 60 98 3a 3d 38 d6 bf 3c 16 5e f7 bd 4f 89 f0 3d
       0.045555472 0.023417577 -0.12078492 0.117449395
000330 77 a6 91 bb 7f 82 95 bd 72 95 9c 3d cd c5 a5 3d
       -0.004444893 -0.07300281 0.07645692 0.08094368
000340 be 3f e6 3c be 4c 76 bd 41 95 20 b8 45 1c 2f be
       0.028106567 -0.06013178 -3.8285976e-05 -0.17100628
000350 ac f3 34 bd 49 a1 e9 3c f4 f9 81 3c dd 15 15 3e
       -0.044177696 0.02851929 0.015866257 0.14559121
000360 49 f9 f6 bd 4a a8 8c 3d 46 21 a1 bd 04 b6 4e be
       -0.12059266 0.06868036 -0.078676745 -0.20186621
000370 50 17 ef 3a 00 bf 2f 3d 33 7e be bb 22 e4 d9 39
       0.0018241201 0.04290676 -0.005813384 0.00041559438
000380 0e 2b 18 bd 3a 43 8f bd 1f 46 87 bc ff b9 43 be
       -0.037150435 -0.06995244 -0.016512929 -0.1911392
000390 02 19 ee 3c 2b 25 7d 3d 7e 96 2c bc ac d8 fd 3c
       0.029064659 0.061803024 -0.010533927 0.030987106
0003a0 12 01 07 3e ab 33 2c bd 0b 26 a7 bc 6e a6 8e bd
       0.13184002 -0.042041462 -0.020403882 -0.06965338
0003b0 8d 8d 1d 3d 77 27 b2 3c 76 7c e2 3d db 25 72 bc
       0.03846507 0.021747334 0.11058895 -0.014779533
0003c0 5f 9e 81 bd 9f 20 52 3d 47 33 21 3d 31 fe 7d bb
       -0.06329035 0.05130064 0.039355543 -0.0038756246
0003d0 53 29 3b be 29 0b 12 bc 26 96 86 bd a2 2f c4 3d
       -0.18277483 -0.008913794 -0.06571607 0.09579398
0003e0 92 02 6c 3c 5e 6e 79 3d 84 1b 8f bd 17 00 77 3c
       0.01440491 0.06089627 -0.0698767 0.015075705
0003f0 bc 3e 18 be 49 08 ed bc 3f 8d 06 3e e4 79 db bd
       -0.14867681 -0.028934615 0.13139819 -0.10716608

network_body._body_endoder.seq_layers.2.bias f4 [128]
000000 33 2e 9e b4 0b 75 c4 34 51 b2 ff b4 0c 80 11 b5
       -2.9463408e-07 3.6593005e-07 -4.7627194e-07 -5.420304e-07
000010 00 69 28 b5 0c 19 4a 33 d6 32 c0 b4 52 24 dc 34
       -6.273767e-07 4.705457e-08 -3.5799775e-07 4.100462e-07
000020 c5 48 17 b5 06 b0 e8 34 b7 79 17 b5 d5 57 09 35
       -5.6357777e-07 4.334144e-07 -5.6429e-07 5.116429e-07
000030 4a 40 bd 33 4b dd 99 33 15 e8 1a 35 c7 93 fd b4
       8.8126924e-08 7.164871e-08 5.7707194e-07 -4.7232444e-07
000040 68 8f 1d b4 d9 cf 1a b5 ca 7d 4d 35 29 12 84 34
       -1.4673935e-07 -5.767193e-07 7.65515e-07 2.460013e-07
000050 f5 33 c5 b4 2f e1 c7 34 76 13 ec 31 fe 29 87 b4
       -3.6731913e-07 3.723048e-07 6.8707164e-09 -2.5176263e-07
000060 d7 0f 45 b4 22 d5 67 b4 79 91 ff b4 4f e2 2d b5
       -1.8352817e-07 -2.1591089e-07 -4.7603297e-07 -6.4776845e-07
000070 13 37 8f b3 27 96 e3 b4 be 68 43 b5 71 a0 01 35
       -6.668974e-08 -4.2391295e-07 -7.279558e-07 4.828972e-07
000080 ad 3b cd b2 f3 79 4f 34 c4 00 09 b4 8f 67 a7 b4
       -2.3892278e-08 1.9322742e-07 -1.2759398e-07 -3.1181523e-07
000090 99 55 b7 b4 17 54 62 34 cd 1d 2b b5 67 29 87 34
       -3.4148687e-07 2.1078482e-07 -6.374583e-07 2.5175834e-07
0000a0 24 da a7 b4 1c 2a 00 b4 f6 e0 a8 b4 01 7a 35 35
       -3.1264892e-07 -1.1936248e-07 -3.145612e-07 6.7605293e-07
0000b0 8e d3 35 35 cf 0b 34 b5 91 68 2f 33 0e 87 c1 b4
       6.7735607e-07 -6.707241e-07 4.0840465e-08 -3.6047317e-07
0000c0 20 4c 2c 35 bf ec 56 32 dc ab 28 35 a4 97 cf b3
       6.418577e-07 1.2510269e-08 6.2834965e-07 -9.666772e-08
0000d0 8c 5c 84 34 70 a1 39 35 ec fe 3c 35 b4 6d 4f b4
       2.4654253e-07 6.9152793e-07 7.040642e-07 -1.9318287e-07
0000e0 14 e7 ce 34 4b 71 d3 b4 5f b7 d0 33 ba 8c 3c 34
       3.8538622e-07 -3.9384244e-07 9.71911e-08 1.756006e-07
0000f0 9d c4 45 b5 ac 87 49 b5 46 a4 3f b5 58 f2 ce b4
       -7.367433e-07 -7.5075764e-07 -7.1392094e-07 -3.8546818e-07
000100 14 9f 37 35 bd 3d d5 b4 15 6a b8 b4 af cc 08 35
       6.84043e-07 -3.9719262e-07 -3.4349856e-07 5.09618e-07
000110 f2 ad ca b4 23 12 b0 b4 7a 57 f0 33 39 ff 4b 35
       -3.7751994e-07 -3.279575e-07 1.1191783e-07 7.599479e-07
000120 dc 21 51 35 13 7a 16 35 ae 4a 5b b5 c8 34 ff 34
       7.790784e-07 5.6056996e-07 -8.169253e-07 4.7535855e-07
000130 94 cb 3d 35 2f 73 3f b5 6e 90 53 b5 01 fc 05 b5
       7.070423e-07 -7.132066e-07 -7.88138e-07 -4.9913075e-07
000140 0a 2d c3 34 3a 72 9c 34 8a 07 44 34 95 9b 4c b4
       3.635435e-07 2.9140375e-07 1.8256665e-07 -1.9055581e-07
000150 16 46 28 35 a4 95 18 b5 f3 2d 58 b5 db a8 f8 34
       6.2686865e-07 -5.684217e-07 -8.0533135e-07 4.6316458e-07
000160 be 85 0e 35 6c f7 46 b5 7c 9b ac 33 9e 56 33 b5
       5.309374e-07 -7.4120794e-07 8.0376566e-08 -6.680874e-07
000170 11 dc 4a b5 be b4 1f 35 a5 dc 57 34 42 60 61 b4
       -7.55711e-07 5.949513e-07 2.0103705e-07 -2.0989776e-07
000180 8e 0d 49 b5 c6 ff 8e b3 07 7e 2d b5 a6 4d ce 33
       -7.489806e-07 -6.658915e-08 -6.4630916e-07 9.606747e-08
000190 ae 81 36 b4 47 dc 3e b4 14 21 25 b5 26 9a 4f 35
       -1.6997248e-07 -1.7775265e-07 -6.1515425e-07 7.7337825e-07
0001a0 39 35 c4 b4 a1 cb f0 34 b5 0a 3d 35 ac d0 0a b5
       -3.654657e-07 4.4851643e-07 7.042357e-07 -5.1712664e-07
0001b0 3e 8d 15 35 f6 ac d9 b3 cc 93 04 b4 bb 72 f6 b4
       5.571236e-07 -1.0136311e-07 -1.2347226e-07 -4.5904548e-07
0001c0 7b f3 c2 b4 90 e6 a7 b4 f4 fc 30 b5 37 2e 57 b5
       -3.631247e-07 -3.127393e-07 -6.5933204e-07 -8.0160993e-07
0001d0 3f 91 29 35 69 2a 9e b4 be e5 54 b4 51 84 56 b4
       6.3168767e-07 -2.946065e-07 -1.9827618e-07 -1.997844e-07
0001e0 8a c8 0e b5 44 ba e2 34 98 b1 ad 34 06 91 c1 b2
       -5.3190945e-07 4.2231306e-07 3.2352978e-07 -2.2534106e-08
0001f0 e0 78 3d 35 5b 8f d3 33 48 66 50 b5 55 ed 28 b5
       7.0583883e-07 9.8515294e-08 -7.7634877e-07 -6.293024e-07

action_model._continuous_distribution.log_sigma f4 [1, 3]
000000 de ca 24 b4 4f c9 9a 32 d8 6b bb b1
       -1.5347493e-07 1.8019504e-08 -5.4546767e-09

action_model._continuous_distribution.mu.weight f4 [3, 128]
000000 73 3f 90 3b 55 50 e7 bc 5d 53 4c 3c 16 10 48 3c
       0.004402095 -0.028236547 0.012471047 0.012210866
000010 12 93 16 3d e8 1a 0a 3b 70 fa d7 3a c7 4d 71 bc
       0.03676135 0.0021073166 0.0016477834 -0.014728016
000020 82 2d d3 3c 00 64 3d bc fb e6 28 3c 00 80 90 bc
       0.025778536 -0.011559486 0.010308976 -0.01763916
000030 90 bf 01 3c df 90 f6 bb 7a e9 92 bc 71 f8 a5 3c
       0.007919207 -0.007524594 -0.017933596 0.020260068
000040 e9 76 98 bb 17 7b 9b 3c c3 2a 97 bc ee fc 90 bc
       -0.004652847 0.018979592 -0.018453008 -0.017698731
000050 0c b3 2a 3d 56 86 0b bc 9c ee 98 bc 21 23 aa 39
       0.04167466 -0.008515915 -0.018668465 0.000324511
000060 bc 1b 11 bb f3 d6 a6 3b d3 08 c6 3c 0f 2d a1 3c
       -0.0022141775 0.005091542 0.02417413 0.019674806
000070 80 98 fd 3b 7f 7f 42 3c 0a 9e e6 3c 72 4e 73 bc
       0.0077391267 0.011871218 0.02815153 -0.014850246
000080 af 4e 4c 3b bb 44 c1 bb 67 f2 1c 3c e6 9e 93 3c
       0.0031174829 -0.005898086 0.009579278 0.018020105
000090 e3 f9 8e bb 12 bf 75 3b 82 a4 76 3c 3c 55 8a 3b
       -0.004363285 0.003749792 0.01505387 0.0042215865
0000a0 13 8e f2 3c 48 18 eb b9 95 9b 36 3b 71 f8 08 bc
       0.029608762 -0.00044840784 0.002786373 -0.008360014
0000b0 8f d5 94 bc 83 3a 0a 3c 6c 01 b5 b8 c2 8a f3 3c
       -0.018168239 0.008436802 -8.6310174e-05 0.02972925
0000c0 e7 01 ec bc ed 52 59 3b 33 7c 34 bd 72 30 78 3c
       -0.0288095 0.0033161 -0.044063758 0.015148269
0000d0 ed 60 72 bc 12 32 c7 bc 50 38 cf bc 94 77 09 3c
       -0.014793617 -0.024315868 -0.025295407 0.008390326
0000e0 8c 5e 21 bc 6b 10 db 3c b2 d1 43 bc c4 e7 a6 bb
       -0.009849202 0.026741227 -0.011951851 -0.0050935466
0000f0 92 78 ba 3c 0e 34 97 3c b4 28 43 3c d0 f7 d7 3b
       0.02276257 0.018457439 0.01191156 0.006590821
000100 67 2e ad bc 2e d1 2c 3b 23 73 ee 3b af b1 13 bd
       -0.02114029 0.0026369798 0.007276909 -0.036058124
000110 5b 12 0e 3b 17 cd ab 3c 9a f5 14 3c a7 ac af bc
       0.0021678421 0.020971818 0.009091759 -0.021444632
000120 25 94 e9 bb 5b c2 2a bc 73 15 ce 3c 87 1f 19 bd
       -0.007128256 -0.0104223145 0.025156712 -0.037383582
000130 69 3d bc bc bd b6 21 3c 38 89 0b 3d 0a b2 14 3c
       -0.022978501 0.009870228 0.03406641 0.009075651
000140 76 2b fd 39 21 ef 66 ba c1 14 c4 bb a9 81 b3 3b
       0.000482883 -0.00088094367 -0.0059839194 0.005478103
000150 92 2a f1 bc 20 cd 67 3c 9f e1 c4 3c 9f 04 9f bc
       -0.029439244 0.014148027 0.024033366 -0.019411383
000160 47 d2 d3 bc da b2 f6 3c 1d 1b 14 bc 8d 37 cc 3c
       -0.025857104 0.03011458 -0.009039667 0.024928832
000170 62 5d f9 3c 81 a6 c3 bc da 08 93 bc 97 bf ce b9
       0.030440036 -0.023883106 -0.017948557 -0.00039434127
000180 9c c2 ab 3c 0e 1a 9c 3a f2 ea 7f 3c 02 b4 8f bb
       0.02096682 0.001190962 0.01561998 -0.0043854723
000190 2c c4 1b 3c c7 71 da bb 8d 4a a7 3c 45 78 c7 bc
       0.00950722 -0.0066663953 0.02042129 -0.024349341
0001a0 15 91 5a 3b fb c7 7a bc af b4 50 bc f1 3a 36 3c
       0.0033350636 -0.015306468 -0.012738391 0.011122451
0001b0 b1 f7 03 bc 1a 39 ff bb b7 4e 81 bb af cc 88 3c
       -0.00805466 -0.0077887895 -0.003946151 0.016699163
0001c0 9f 8a 09 bb 4b f7 a3 ba 55 4c ed 3c 77 bb 70 3c
       -0.0020987166 -0.0012509612 0.028967062 0.014693133
0001d0 f7 b2 c2 bc 0e 57 a9 3b d2 25 39 3c dd da 75 3b
       -0.023766978 0.0051678484 0.011300521 0.0037514486
0001e0 c3 26 8c 3c a5 9b 72 bc 32 5d f1 bb d4 20 4a 3b
       0.017108327 -0.014807616 -0.007365846 0.003084232
0001f0 8f a9 bb bc 6c 3a b1 bc ff eb 29 3d cd fc 7c 3c
       -0.022908 -0.021634303 0.04148483 0.015441132
000200 a6 87 43 3b 08 71 be 3c 07 4d e8 3b dd 35 ee 3c
       0.0029835491 0.023247257 0.0070892605 0.029078418
000210 23 01 5a bb f8 f7 be bc 23 76 8c 3c 49 90 89 bb
       -0.0033264838 -0.0233116 0.017146176 -0.0041981083
000220 87 41 b5 3b f8 0b fb bb 96 1f 4b 3c 5a 04 db 3b
       0.005531493 -0.007661339 0.012397667 0.0066838684
000230 7b 63 d0 bc 84 5a c1 3c 97 6a 26 3c 03 3a 90 bc
       -0.025438061 0.023602732 0.010157249 -0.017605787
000240 94 26 c9 3c cb ae a3 3c 07 40 34 bb f7 08 a3 3c
       0.024554528 0.019980809 -0.0027503984 0.019901736
000250 64 c4 9e bc e5 dc 08 3c 82 e4 f9 3c c1 d7 a4 3c
       -0.019380756 0.008353447 0.030504469 0.02012241
000260 ce 8a 0d 3d ea 30 71 3a 76 b3 99 ba a5 3a 84 bb
       0.034556203 0.0009200709 -0.0011726457 -0.0040353113
000270 0b 08 65 bc eb 61 8b 3c cb 36 c0 3a 6e 37 02 bc
       -0.013978968 0.017014464 0.0014664767 -0.007947786
000280 10 f8 30 bc 72 f6 25 b9 fe 0c 36 bc 8f 87 3c bc
       -0.01080133 -0.00015827434 -0.011111496 -0.011506929
000290 c2 37 55 3d c5 07 db bc 26 23 24 3c 45 7d fb bc
       0.052055128 -0.026737103 0.010018146 -0.030699382
0002a0 26 b5 b1 bc 92 aa c3 3c aa cc f7 3c b0 73 6c bc
       -0.021692824 0.023885045 0.030248959 -0.014431879
0002b0 b3 f9 26 bc f7 9e 41 3c 65 0b 59 bc a5 a4 bc bc
       -0.010191369 0.011817685 -0.013247346 -0.023027727
0002c0 9a 16 ee 3b 9b 5e fd bb cb c7 b3 bc 6b 79 b0 bc
       0.007265878 -0.007732225 -0.021945855 -0.021542272
0002d0 2e bf bb 3c 6e ff aa bc 63 f4 02 bc 25 2e 65 bc
       0.02291831 -0.020873751 -0.007992837 -0.0139880525
0002e0 a3 f1 4f bc 01 c5 a2 bc 6d ab d3 3c f8 63 62 ba
       -0.012691888 -0.01986933 0.025838578 -0.00086361123
0002f0 48 af ba 3c 2f 8b 76 3c 3a 9d 58 3c a8 1e 6d 3c
       0.022788659 0.015047832 0.0132210795 0.014472641
000300 7d f6 6e bc b3 16 bd 3c 37 1d 3e 3b 57 d0 7a 3c
       -0.014585135 0.023082113 0.0029009113 0.015308461
000310 9b 9c 3e 3c 4a 7d d5 bc 13 0d e0 bc 0d b5 08 bc
       0.011634017 -0.026060719 -0.027349984 -0.008343947
000320 0d 9a 21 3b 63 21 95 bc eb 83 80 3c 9c 97 2d 3c
       0.0024658472 -0.018204397 0.015687903 0.0105952285
000330 fb 79 a3 bc 7a 36 94 3a d9 f7 42 3c d3 27 84 3c
       -0.019955626 0.0011307739 0.011899912 0.01613227
000340 78 c4 4e bc c5 c7 a1 bb d1 7d b6 bb 52 3f ef bb
       -0.012620084 -0.0049371445 -0.0055691977 -0.0073012495
000350 15 d9 d2 bc 23 7d c7 3c 33 c4 93 3b f3 6a f7 bb
       -0.025738278 0.024351662 0.0045094728 -0.007550591
000360 e6 6f c3 bb 0f 37 ee 3a 87 26 05 3c 97 5c 9f 3c
       -0.005964267 0.0018174368 0.008126861 0.01945333
000370 77 63 50 ba 1a 09 ee bc 4b ac fe 3c 40 d0 5a 3c
       -0.0007949392 -0.029057074 0.031088015 0.013355315
000380 5f 26 c1 3c 77 9c 18 ba 3a e8 d9 3c 8a 0b 73 3c
       0.023577867 -0.0005821655 0.026599992 0.014834294
000390 8b a0 f5 bb d6 4a 85 3c f5 d9 a6 3b 47 35 8c bc
       -0.007495945 0.016271036 0.0050919005 -0.017115248
0003a0 c2 87 f2 3a f2 66 e4 3b 95 b6 ea bb 3b 5e 77 3c
       0.0018503594 0.00697028 -0.0071628788 0.01509815
0003b0 78 1a 9f bc 33 05 d4 3c 2d 3d cf 3c cd 19 9e 3c
       -0.019421801 0.025881385 0.025297726 0.019299412
0003c0 c8 97 5f 3d 51 30 9d 3c 0f 00 81 bb 1e 22 96 3b
       0.05458811 0.019188078 -0.0039367746 0.004581704
0003d0 32 fa 18 bc 01 ce ba 3a 8d 33 07 bc 87 07 0a bb
       -0.009336995 0.0014252068 -0.008252037 -0.0021061616
0003e0 78 8c 31 3a 18 4c 91 3a 57 b7 cb 3b 24 7e be bb
       0.00067729456 0.00110853 0.006216924 -0.005813377
0003f0 0c 1c 6e 3a 43 4b c3 3c 60 e6 d5 3c dc 9d 95 39
       0.0009083159 0.023839599 0.026110828 0.0002853711

action_model._continuous_distribution.mu.bias f4 [3]
000000 ca 51 4b b5 71 30 9e b4 1e 7e ce 32
       -7.574241e-07 -2.946504e-07 2.4038908e-08

exp_avg f4 [128, 22]
000000 91 5b b2 b3 3c 64 69 38 91 5b b2 b3 f4 cf 99 38
       -8.305427e-08 5.564488e-05 -8.305427e-08 7.334343e-05
000010 00 00 00 00 df 02 95 38 00 00 00 00 b9 13 66 38
       0.0 7.1054084e-05 0.0 5.485464e-05
000020 f0 a0 11 b4 fd a1 1b 38 9d 5b b2 b3 70 78 2b 38
       -1.3562726e-07 3.7105743e-05 -8.305435e-08 4.0881743e-05
000030 00 00 00 00 a5 a5 38 38 00 00 00 00 43 ea 3d 38
       0.0 4.4023287e-05 0.0 4.5279285e-05
000040 00 00 00 00 f9 a5 27 38 00 00 00 00 7b 00 1b 38
       0.0 3.9970477e-05 0.0 3.6955327e-05
000050 00 00 00 00 66 b0 2f 38 25 03 5a b3 fc d1 85 b8
       0.0 4.1887535e-05 -5.075994e-08 -6.381047e-05
000060 25 03 5a b3 d8 2a 69 b8 00 00 00 00 79 0d 8a b8
       -5.075994e-08 -5.559143e-05 0.0 -6.582862e-05
000070 00 00 00 00 b6 5a 6b b8 ae 01 b2 b3 1b 51 1d b8
       0.0 -5.6112847e-05 -8.2890764e-08 -3.7507252e-05
000080 30 03 5a b3 d6 76 79 b7 00 00 00 00 3d 41 44 37
       -5.075998e-08 -1.4869225e-05 0.0 1.16977e-05
000090 00 00 00 00 57 53 2d 38 00 00 00 00 2c 03 4a 38
       0.0 4.132403e-05 0.0 4.8163507e-05
0000a0 00 00 00 00 d7 e6 a1 38 00 00 00 00 53 a7 bc 38
       0.0 7.7200755e-05 0.0 8.995705e-05
0000b0 40 4d 0d 33 21 bd 04 b8 40 4d 0d 33 86 b1 86 b7
       3.289938e-08 -3.1647392e-05 3.289938e-08 -1.605671e-05
0000c0 00 00 00 00 c6 d5 7c b7 00 00 00 00 b0 fd ac b6
       0.0 -1.50701435e-05 0.0 -5.1555326e-06
0000d0 c2 be 66 33 2a 07 60 37 45 4d 0d 33 06 5b 9e 37
       5.372454e-08 1.3353108e-05 3.2899397e-08 1.8877454e-05
0000e0 00 00 00 00 24 79 d6 37 00 00 00 00 41 1c 1d 38
       0.0 2.5567198e-05 0.0 3.745803e-05
0000f0 00 00 00 00 ac e3 51 38 00 00 00 00 62 c0 97 38
       0.0 5.004152e-05 0.0 7.236075e-05
000100 00 00 00 00 9d 99 a6 38 64 3f 3e b4 0c 92 59 39
       0.0 7.9441095e-05 -1.771819e-07 0.0002074914
000110 64 3f 3e b4 04 ae 85 39 00 00 00 00 7e 17 89 39
       -1.771819e-07 0.0002549739 0.0 0.0002614818
000120 00 00 00 00 03 d0 7e 39 3a 56 9b b4 ba e9 67 39
       0.0 0.00024300818 -2.8933738e-07 0.00022116947
000130 6f 3f 3e b4 3e 19 70 39 00 00 00 00 e7 a6 7c 39
       -1.7718206e-07 0.00022897587 0.0 0.00024094769
000140 00 00 00 00 53 ee 88 39 00 00 00 00 ae 75 81 39
       0.0 0.00026117507 0.0 0.00024692476
000150 00 00 00 00 61 5d 7d 39 00 00 00 00 29 0c 84 39
       0.0 0.00024162747 0.0 0.00025186062
000160 b4 ef 04 b4 fc df 04 b8 b4 ef 04 b4 a0 aa 1e b8
       -1.2380661e-07 -3.1679854e-05 -1.2380661e-07 -3.7829042e-05
000170 00 00 00 00 4a 2a 51 b8 00 00 00 00 28 aa 85 b8
       0.0 -4.9868868e-05 0.0 -6.373628e-05
000180 a2 15 59 b4 c4 97 93 b8 bc ef 04 b4 1b a0 81 b8
       -2.021757e-07 -7.037775e-05 -1.2380673e-07 -6.181021e-05
000190 00 00 00 00 86 50 6a b8 00 00 00 00 65 cb 5f b8
       0.0 -5.586494e-05 0.0 -5.335677e-05
0001a0 00 00 00 00 3f 46 2f b8 00 00 00 00 09 ca 45 b8
       0.0 -4.1788673e-05 0.0 -4.715662e-05
0001b0 00 00 00 00 8f 86 5c b8 6d b3 48 b2 9c a6 6f 38
       0.0 -5.2577405e-05 -1.1682329e-08 5.7137207e-05
0001c0 6d b3 48 b2 b2 14 85 38 00 00 00 00 d0 f7 9b 38
       -1.1682329e-08 6.345789e-05 0.0 7.4371346e-05
0001d0 00 00 00 00 40 8d 9c 38 23 df a3 b2 4e 35 92 38
       0.0 7.4649695e-05 -1.9077168e-08 6.971751e-05
0001e0 67 b3 48 b2 d0 46 93 38 00 00 00 00 d4 4d 8c 38
       -1.16823236e-08 7.022696e-05 0.0 6.690217e-05
0001f0 00 00 00 00 cc 98 72 38 00 00 00 00 64 42 41 38
       0.0 5.78396e-05 0.0 4.6076617e-05
000200 00 00 00 00 d6 62 28 38 00 00 00 00 26 a4 3f 38
       0.0 4.014637e-05 0.0 4.5690824e-05
000210 9e 16 e0 33 32 06 32 b9 9e 16 e0 33 62 6d 65 b9
       1.0434927e-07 -0.00016977711 1.0434927e-07 -0.0002187989
000220 00 00 00 00 c2 de 76 b9 00 00 00 00 5b 33 74 b9
       0.0 -0.00023543372 0.0 -0.00023288785
000230 ba f7 36 34 2d c3 60 b9 a5 16 e0 33 48 7a 61 b9
       1.7040193e-07 -0.00021435013 1.0434932e-07 -0.00021503225
000240 00 00 00 00 2d cb 66 b9 00 00 00 00 ee 29 69 b9
       0.0 -0.00022010198 0.0 -0.00022236232
000250 00 00 00 00 3c e4 62 b9 00 00 00 00 85 4a 6e b9
       0.0 -0.00021638063 0.0 -0.0002272521
000260 00 00 00 00 60 21 83 b9 4a 25 71 b3 7c 48 85 b8
       0.0 -0.00025011133 -5.61461e-08 -6.3554355e-05
000270 4a 25 71 b3 44 b8 97 b8 00 00 00 00 af fc b4 b8
       -5.61461e-08 -7.234563e-05 0.0 -8.630135e-05
000280 00 00 00 00 5a a6 b7 b8 17 e5 c4 b3 68 48 a1 b8
       0.0 -8.7571054e-05 -9.1686324e-08 -7.690565e-05
000290 58 25 71 b3 93 a2 88 b8 00 00 00 00 26 7b 4f b8
       -5.614615e-08 -6.515267e-05 0.0 -4.9467337e-05
0002a0 00 00 00 00 4d 78 07 b8 00 00 00 00 2b ce 11 b7
       0.0 -3.2298547e-05 0.0 -8.690676e-06
0002b0 00 00 00 00 14 00 8a b6 00 00 00 00 e5 20 53 b7
       0.0 -4.1127296e-06 0.0 -1.2584239e-05
0002c0 50 7c 1b 34 36 71 38 b8 50 7c 1b 34 7f c5 98 b8
       1.4480725e-07 -4.3974454e-05 1.4480725e-07 -7.284711e-05
0002d0 00 00 00 00 33 8d 94 b8 00 00 00 00 2c 57 71 b8
       0.0 -7.08349e-05 0.0 -5.7540063e-05
0002e0 49 e8 7d 34 2f 3f 56 b8 57 7c 1b 34 16 f4 86 b8
       2.3646966e-07 -5.108042e-05 1.4480734e-07 -6.4350825e-05
0002f0 00 00 00 00 44 2b a2 b8 00 00 00 00 08 f8 b9 b8
       0.0 -7.732821e-05 0.0 -8.867687e-05
000300 00 00 00 00 f6 c8 cb b8 00 00 00 00 56 16 dc b8
       0.0 -9.717226e-05 0.0 -0.00010494578
000310 00 00 00 00 04 18 ed b8 2f 7f 66 33 28 ad c6 b6
       0.0 -0.00011305514 5.366672e-08 -5.921018e-06
000320 2f 7f 66 33 87 98 02 b8 00 00 00 00 50 04 3b b8
       5.366672e-08 -3.1136467e-05 0.0 -4.458829e-05
000330 00 00 00 00 40 fc 4a b8 42 33 bc 33 8e 06 47 b8
       0.0 -4.839548e-05 8.763756e-08 -4.74514e-05
000340 3c 7f 66 33 f3 b9 6f b8 00 00 00 00 37 55 7d b8
       5.3666767e-08 -5.715522e-05 0.0 -6.0399263e-05
000350 00 00 00 00 f2 97 6f b8 00 00 00 00 ca ae 5b b8
       0.0 -5.712355e-05 0.0 -5.2376454e-05
000360 00 00 00 00 00 dc 6d b8 00 00 00 00 43 e8 84 b8
       0.0 -5.6710094e-05 0.0 -6.3375126e-05
000370 c4 3b f1 b2 8d 88 39 b7 c4 3b f1 b2 48 00 a7 b7
       -2.808327e-08 -1.10586525e-05 -2.808327e-08 -1.9908082e-05
000380 00 00 00 00 ca 7b bc b7 00 00 00 00 69 a8 b9 b7
       0.0 -2.246899e-05 0.0 -2.213214e-05
000390 74 f7 44 b3 38 af ca b7 ca 3b f1 b2 6c 6d ce b7
       -4.5859863e-08 -2.4161869e-05 -2.8083281e-08 -2.4608067e-05
0003a0 00 00 00 00 17 3f e8 b7 00 00 00 00 a6 52 15 b8
       0.0 -2.7685934e-05 0.0 -3.560134e-05
0003b0 00 00 00 00 37 b5 39 b8 00 00 00 00 cb 13 56 b8
       0.0 -4.4276207e-05 0.0 -5.104001e-05
0003c0 00 00 00 00 92 fd 4c b8 76 1a 42 b2 24 67 71 37
       0.0 -4.8873546e-05 -1.1298303e-08 1.4388734e-05
0003d0 76 1a 42 b2 58 46 c9 b7 00 00 00 00 61 7e 33 b8
       -1.1298303e-08 -2.3993824e-05 0.0 -4.2794625e-05
0003e0 00 00 00 00 09 f8 7c b8 07 7c 9e b2 4e 0e a6 b8
       0.0 -6.0312483e-05 -1.8450022e-08 -7.918161e-05
0003f0 76 1a 42 b2 e8 75 bb b8 00 00 00 00 d2 66 d7 b8
       -1.1298303e-08 -8.9388166e-05 0.0 -0.00010271151

exp_avg_sq f4 [128, 22]
000000 72 d2 9f 2d bd e5 d8 33 72 d2 9f 2d 7b e8 d8 33
       1.8169664e-11 1.0100073e-07 1.8169664e-11 1.0100572e-07
000010 00 00 00 00 2c 4d d4 33 00 00 00 00 42 b7 d0 33
       0.0 9.886057e-08 0.0 9.719089e-08
000020 a9 c0 af 2d d0 53 d2 33 05 0a 84 29 57 9f d0 33
       1.9980755e-11 9.7941324e-08 5.863716e-14 9.7147385e-08
000030 00 00 00 00 c1 fb c6 33 00 00 00 00 3b 10 bc 33
       0.0 9.265887e-08 0.0 8.7573845e-08
000040 00 00 00 00 fe f5 b0 33 00 00 00 00 1b 95 a3 33
       0.0 8.2403844e-08 0.0 7.617401e-08
000050 00 00 00 00 c9 0c 97 33 b9 78 1b 2d 1d b1 de 33
       0.0 7.033811e-08 8.837536e-12 1.0369897e-07
000060 b9 78 1b 2d a8 c7 d6 33 00 00 00 00 a5 4d d4 33
       8.837536e-12 1.0001469e-07 0.0 9.886143e-08
000070 00 00 00 00 62 77 d7 33 b2 55 44 2e c1 95 e2 33
       0.0 1.0033433e-07 4.4641353e-11 1.0551185e-07
000080 d9 2a 32 2c 30 b8 f1 33 00 00 00 00 08 83 02 34
       2.5319107e-12 1.12559405e-07 0.0 1.2154862e-07
000090 00 00 00 00 c8 06 0a 34 00 00 00 00 31 9f 0e 34
       0.0 1.2854719e-07 0.0 1.3282694e-07
0000a0 00 00 00 00 80 0d 0f 34 00 00 00 00 ee 91 0a 34
       0.0 1.3322824e-07 0.0 1.290534e-07
0000b0 cc 3a c6 29 fd 79 b8 33 cc 3a c6 29 f0 27 b6 33
       8.803166e-14 8.590357e-08 8.803166e-14 8.4823e-08
0000c0 00 00 00 00 09 31 b0 33 00 00 00 00 ff 9c a8 33
       0.0 8.204558e-08 0.0 7.851667e-08
0000d0 f3 93 85 2a 97 4c a3 33 87 ad c5 29 51 fd a2 33
       2.3728206e-13 7.6042106e-08 8.7786596e-14 7.589791e-08
0000e0 00 00 00 00 bd bb a4 33 00 00 00 00 64 c4 a0 33
       0.0 7.6709945e-08 0.0 7.486304e-08
0000f0 00 00 00 00 84 a5 9a 33 00 00 00 00 25 75 94 33
       0.0 7.201291e-08 0.0 6.9130955e-08
000100 00 00 00 00 e1 74 90 33 82 28 e3 2d 9e 4d 94 34
       0.0 6.726783e-08 2.5824901e-11 2.7623622e-07
000110 82 28 e3 2d 10 c4 95 34 00 00 00 00 a7 90 95 34
       2.5824901e-11 2.7896067e-07 0.0 2.785866e-07
000120 00 00 00 00 ea 84 96 34 14 d6 12 2e 16 33 9b 34
       0.0 2.8036385e-07 3.3386696e-11 2.890817e-07
000130 ad 26 2b 2a cf 0e 9d 34 00 00 00 00 8f b0 9c 34
       1.520127e-13 2.9254304e-07 0.0 2.9185728e-07
000140 00 00 00 00 9a 75 96 34 00 00 00 00 ef 3f 8f 34
       0.0 2.8025244e-07 0.0 2.6682343e-07
000150 00 00 00 00 f1 00 85 34 00 00 00 00 8b 7e 74 34
       0.0 2.4773865e-07 0.0 2.2770307e-07
000160 cb 17 2b 2c 78 cd 96 33 cb 17 2b 2c 76 a8 90 33
       2.431377e-12 7.022294e-08 2.431377e-12 6.7361654e-08
000170 00 00 00 00 32 d0 8a 33 00 00 00 00 e0 08 85 33
       0.0 6.463996e-08 0.0 6.1949095e-08
000180 38 86 77 2d 76 d2 7f 33 2a 62 d2 2a 5d 25 78 33
       1.4070127e-11 5.9563227e-08 3.7371609e-13 5.777598e-08
000190 00 00 00 00 52 39 77 33 00 00 00 00 01 9a 7d 33
       0.0 5.75613e-08 0.0 5.904622e-08
0001a0 00 00 00 00 18 eb 82 33 00 00 00 00 3e d4 88 33
       0.0 6.09636e-08 0.0 6.3716e-08
0001b0 00 00 00 00 83 07 92 33 0c 73 c7 2b 78 fe 13 33
       0.0 6.800021e-08 1.4171732e-12 3.4457543e-08
0001c0 0c 73 c7 2b 71 cf 11 33 00 00 00 00 c6 d9 10 33
       1.4171732e-12 3.394911e-08 0.0 3.3725676e-08
0001d0 00 00 00 00 b8 75 0f 33 97 9b 5b 2c 0b 85 0d 33
       0.0 3.3401847e-08 3.1208142e-12 3.2950123e-08
0001e0 ea 17 61 2a b9 ff 0c 33 00 00 00 00 17 8e 0e 33
       1.9992311e-13 3.282887e-08 0.0 3.319118e-08
0001f0 00 00 00 00 9e 77 10 33 00 00 00 00 9b c7 13 33
       0.0 3.3636404e-08 0.0 3.4407645e-08
000200 00 00 00 00 b2 75 18 33 00 00 00 00 3d cb 1d 33
       0.0 3.54973e-08 0.0 3.6739255e-08
000210 ec 48 19 2b 35 0b c2 34 ec 48 19 2b 8f 37 c3 34
       5.445772e-13 3.614347e-07 5.445772e-13 3.6362005e-07
000220 00 00 00 00 5c 44 bf 34 00 00 00 00 a8 88 b7 34
       0.0 3.562626e-07 0.0 3.4185837e-07
000230 96 c1 ea 2b 4c 98 af 34 40 ab 7f 2a 87 e1 a9 34
       1.6680431e-12 3.27071e-07 2.2707964e-13 3.1642796e-07
000240 00 00 00 00 ff 8e a7 34 00 00 00 00 07 9f a4 34
       0.0 3.1210217e-07 0.0 3.0663088e-07
000250 00 00 00 00 63 d1 a2 34 00 00 00 00 c6 4a a1 34
       0.0 3.03272e-07 0.0 3.0042992e-07
000260 00 00 00 00 86 31 a0 34 40 95 49 2b e9 4a 99 33
       0.0 2.9838355e-07 7.161667e-13 7.138244e-08
000270 40 95 49 2b 9b cb 92 33 00 00 00 00 3b d7 8d 33
       7.161667e-13 6.8356904e-08 0.0 6.604974e-08
000280 00 00 00 00 5a 3e 8b 33 f8 25 a1 2d bc 91 8c 33
       0.0 6.4840336e-08 1.8320442e-11 6.545767e-08
000290 3c 7d 81 2b ee f3 91 33 00 00 00 00 7b b3 9a 33
       9.200761e-13 6.796459e-08 0.0 7.203831e-08
0002a0 00 00 00 00 c2 a5 9f 33 00 00 00 00 ad 9f 9c 33
       0.0 7.4341656e-08 0.0 7.293361e-08
0002b0 00 00 00 00 0f 1b 99 33 00 00 00 00 f5 80 99 33
       0.0 7.1295396e-08 0.0 7.148075e-08
0002c0 18 f4 8e 29 f1 e8 54 33 18 f4 8e 29 a8 62 5a 33
       6.34841e-14 4.9571955e-08 6.34841e-14 5.0846808e-08
0002d0 00 00 00 00 e9 d3 56 33 00 00 00 00 ff 45 4c 33
       0.0 5.001849e-08 0.0 4.7561112e-08
0002e0 14 b3 ef 2c 54 ad 46 33 e9 5b c1 2a 3c cb 4f 33
       6.8126702e-12 4.625811e-08 3.4347462e-13 4.8380784e-08
0002f0 00 00 00 00 27 ff 60 33 00 00 00 00 4b f5 76 33
       0.0 5.2386124e-08 0.0 5.749943e-08
000300 00 00 00 00 79 8d 86 33 00 00 00 00 0d 94 93 33
       0.0 6.265595e-08 0.0 6.872151e-08
000310 00 00 00 00 d8 ed 9f 33 80 63 1d 2a f3 25 e4 33
       0.0 7.447278e-08 1.3978922e-13 1.062398e-07
000320 80 63 1d 2a e3 11 ec 33 00 00 00 00 65 32 f3 33
       1.3978922e-13 1.099286e-07 0.0 1.1324736e-07
000330 00 00 00 00 b9 bf f9 33 25 b7 15 2b ed 37 fd 33
       0.0 1.162984e-07 5.31896e-13 1.17914034e-07
000340 d8 bd 85 2a 88 e3 fe 33 00 00 00 00 c9 87 fd 33
       2.3757277e-13 1.18691844e-07 0.0 1.180593e-07
000350 00 00 00 00 c4 d7 f8 33 00 00 00 00 d0 2f f3 33
       0.0 1.15876475e-07 0.0 1.1324266e-07
000360 00 00 00 00 f1 c8 ef 33 00 00 00 00 be 54 ef 33
       0.0 1.1165856e-07 0.0 1.1144719e-07
000370 a1 5a 4b 29 b8 61 4d 33 a1 5a 4b 29 ce 83 51 33
       4.5153663e-14 4.7819157e-08 4.5153663e-14 4.878148e-08
000380 00 00 00 00 99 e4 54 33 00 00 00 00 1c b7 58 33
       0.0 4.9568005e-08 0.0 5.0457956e-08
000390 0a a7 09 2a 0a 6c 5d 33 cf ff 49 29 c1 9d 62 33
       1.2225998e-13 5.1553833e-08 4.4852844e-14 5.2763202e-08
0003a0 00 00 00 00 5b 92 67 33 00 00 00 00 0a 3c 6a 33
       0.0 5.3916988e-08 0.0 5.4536976e-08
0003b0 00 00 00 00 dc de 6a 33 00 00 00 00 39 1f 6b 33
       0.0 5.468506e-08 0.0 5.4743598e-08
0003c0 00 00 00 00 f3 1a 6b 33 45 aa 99 2a 37 d0 1f 34
       0.0 5.473971e-08 2.7296408e-13 1.4883777e-07
0003d0 45 aa 99 2a 57 91 20 34 00 00 00 00 d8 f6 20 34
       2.7296408e-13 1.4954036e-07 0.0 1.4990962e-07
0003e0 00 00 00 00 a2 94 22 34 a3 49 78 2d 6c 3f 24 34
       0.0 1.5141498e-07 1.41135185e-11 1.5296763e-07
0003f0 4b 69 4d 2b 3d 87 25 34 00 00 00 00 5e 31 26 34
       7.2976754e-13 1.5416022e-07 0.0 1.5477914e-07

exp_avg f4 [128]
000000 75 2d ae 38 1b e7 54 38 7a fd 09 b8 f2 c9 39 39
       8.3054336e-05 5.0759973e-05 -3.2899414e-05 0.00017718205
000010 1e d2 01 39 32 ff 43 37 1c d6 da b8 72 7e 6b 38
       0.00012380673 1.1682323e-05 -0.00010434931 5.6146127e-05
000020 6d d7 17 b9 41 18 61 b8 64 94 eb 37 d4 8d 3d 37
       -0.00014480735 -5.366677e-05 2.8083283e-05 1.12983e-05
000030 d2 4f 01 39 2e c5 4b 39 dd ca 26 37 48 c7 09 b9
       0.00012332134 0.00019433044 9.941604e-06 -0.00013139576
000040 1d 23 8e 39 32 e0 48 b7 61 78 10 b9 b7 44 d9 b8
       0.00027110512 -1.19731285e-05 -0.00013777755 -0.000103601655
000050 28 c2 38 b8 a8 2c b5 b8 21 7e d9 b8 3c 99 ee 38
       -4.404984e-05 -8.6390704e-05 -0.0001037086 0.000113772665
000060 2f f8 d0 b8 00 52 b0 b8 0a 4d 05 b9 00 0e 15 b6
       -9.964441e-05 -8.407608e-05 -0.00012712568 -2.221088e-06
000070 5c ca ed 37 38 2a 0f b9 e8 aa ab b7 67 f1 02 b9
       2.8346833e-05 -0.0001365327 -2.0464373e-05 -0.00012487695
000080 a7 05 bd 38 0b 54 d5 38 38 b0 82 38 65 43 56 b9
       9.013275e-05 0.00010172286 6.231706e-05 -0.00020433737
000090 7d c9 17 38 a1 14 4d b9 c4 d4 5f b7 bc ec 8d 37
       3.6188856e-05 -0.00019558008 -1.3341374e-05 1.6918748e-05
0000a0 c2 10 69 39 4d 21 68 38 db b9 4e 38 f8 ef 0d 39
       0.00022226854 5.5344124e-05 4.928732e-05 0.00013536203
0000b0 08 fa b1 b7 03 09 4c 39 98 4c 36 37 4c e8 b1 b8
       -2.1216474e-05 0.00019458313 1.0865879e-05 -8.4832864e-05
0000c0 5c 15 83 b9 44 99 9a b9 88 74 ab 37 80 c2 4c 38
       -0.0002500218 -0.0002948736 2.0439053e-05 4.8818532e-05
0000d0 4d fb 9f b8 45 5b 18 38 e3 1b 3d b8 94 a7 a8 37
       -7.628519e-05 3.6324625e-05 -4.5087083e-05 2.0105195e-05
0000e0 a2 37 b4 39 8c 80 d6 38 c3 c0 f7 38 21 42 c9 b7
       0.00034373725 0.00010228259 0.000118137825 -2.399186e-05
0000f0 cc 2f 90 39 3a 77 00 38 bf 0b 4e 38 a3 c1 29 b9
       0.00027501432 3.0628617e-05 4.9125167e-05 -0.00016189231
000100 db bf b5 38 3c 2c 71 39 f8 7c 60 b8 54 40 5a 38
       8.6664884e-05 0.0002300003 -5.3522148e-05 5.203516e-05
000110 50 52 3a b9 6c 8e 2d b8 54 ae 7a 38 7c 89 8e b7
       -0.00017769006 -4.1379055e-05 5.9767e-05 -1.699174e-05
000120 84 f8 62 b9 92 4e a6 38 b9 79 6e 38 68 41 c1 38
       -0.00021645619 7.930132e-05 5.6856985e-05 9.21514e-05
000130 1a 2f b0 38 1a 05 6d 38 ac 65 50 b7 90 35 9f 38
       8.401107e-05 5.6509954e-05 -1.2421438e-05 7.5916876e-05
000140 54 ae 4f b8 80 4c 74 b5 ac 59 40 b8 b7 f6 e7 b8
       -4.9515e-05 -9.1008405e-07 -4.585988e-05 -0.000110608926
000150 6f 00 3a 39 64 35 99 38 82 85 16 39 ef 27 1a 38
       0.00017738504 7.305553e-05 0.0001435485 3.6753652e-05
000160 0b 6e 20 b8 e5 92 27 b8 e8 fe 90 b8 5a ff e4 b7
       -3.8249458e-05 -3.995271e-05 -6.913935e-05 -2.7298625e-05
000170 dd e0 45 39 78 2d b1 b8 3b 68 53 b9 57 df bf b7
       0.00018871152 -8.448487e-05 -0.00020161357 -2.2872975e-05
000180 33 5e 9c b7 e9 68 bc 37 74 5f 8a b8 d1 cb db b7
       -1.8640514e-05 2.2460199e-05 -6.598132e-05 -2.6201744e-05
000190 e6 9c 9a b8 f4 da cd b8 38 2d 6e b8 30 07 67 38
       -7.372517e-05 -9.815945e-05 -5.6785735e-05 5.5081386e-05
0001a0 14 c9 89 38 c9 64 ec b8 5d 63 02 39 52 70 87 b8
       6.570123e-05 -0.000112721296 0.00012434782 -6.458223e-05
0001b0 4c 7b c6 b8 59 87 52 b8 f4 b4 16 b9 38 d1 81 39
       -9.4643416e-05 -5.0193954e-05 -0.00014372525 0.00024760677
0001c0 db 2b 99 b8 32 a7 99 b9 e6 a7 fc b8 e9 be 4a b8
       -7.303777e-05 -0.00029307004 -0.0001204757 -4.8338352e-05
0001d0 4a 04 2a 38 1a 4e a2 b8 72 71 46 36 e4 22 8c 38
       4.0535153e-05 -7.7393095e-05 2.9570333e-06 6.682219e-05
0001e0 b4 67 d0 b6 ac 33 80 39 3c 7a 8e b7 93 90 44 b8
       -6.2109557e-06 0.0002445256 -1.6984639e-05 -4.6864687e-05
0001f0 7b 80 64 38 5d fa 08 38 47 67 57 b9 24 af 32 39
       5.4479093e-05 3.2658096e-05 -0.00020542472 0.00017040648
